Iter_03/Models/Noise_0/simulation_00_03/ff_3200.pt (torch, 111005 bytes, 23 tensors)

weight f4 [20, 2]
00000000: 2989 1ebd fbd0 5c3e 781b 71bd 2a52 543e
00000010: 8782 72be 7733 06bf 2e9a 0d3d 8794 0d40
00000020: 101b 293d 491b b1be 3d48 06bd d88a 6dbf
00000030: 5a5e 193e 7dce e4be 25a7 ca3e 1171 0dbf
00000040: 91a8 5b3e 4f47 443f 1274 14be fbcc 68be
00000050: 23a7 7dbd 493b c63e 56a9 7c3d 7dbf dcbe
00000060: de26 8abd 49bd 90bf 7694 62bd 2fbc 033f
00000070: 8a6e 233d b7d0 a4bf f7f1 393d cdf1 13bf
00000080: 2607 ff3e defb 8ebf 946f 8abf aa9d dcbe
00000090: cafd 723d 5901 05bf b4f0 fa3c d3b4 25be
-0.038705025 0.21564095 -0.058864087 0.20734468 -0.23682605 -0.5242228 0.034570865 2.2121904
0.041285574 -0.3459113 -0.032783736 -0.92789984 0.14977399 -0.44688788 0.39580646 -0.5525065
0.21451022 0.7667131 -0.14497402 -0.22734444 -0.061926972 0.38717106 0.06168493 -0.43114844
-0.067456946 -1.1307765 -0.055317365 0.5145902 0.03990034 -1.2876195 0.04539677 -0.57790834
0.4981014 -1.1170614 -1.0815301 -0.43089038 0.059324063 -0.5195518 0.030632354 -0.1618226

bias f4 [20]
00000000: b2c8 e9be ebba d6bc 97e0 853e 18d4 1e3f
00000010: c766 c0bd 7a17 2e3e 38ab 073f 72fe d63e
00000020: 12c5 9abe 755a 073e 0195 f03c 59b1 c73d
00000030: 9d23 193d e065 2cbe 848c 00bf e958 8f3e
00000040: 0f94 84bd c5fb 2dbf 4768 ecbd 1a06 2c3c
-0.4566093 -0.026212176 0.2614791 0.6204238 -0.09394603 0.17001143 0.52995634 0.41991
-0.30228478 0.132181 0.029367926 0.09750623 0.03738748 -0.16835737 -0.5021441 0.2799752
-0.064735524 -0.67962295 -0.11543327 0.010499502

weight f4 [20, 20]
00000000: 148a fe3d 4336 5f3d 9723 6abe 0f2b 5abe
00000010: 8271 243e ed73 173e 20dc 373e c529 c13c
00000020: d28a 853e 275c 963e 296a a53e 3ad3 f83d
00000030: 0368 983e ebb9 b2ba 211d 233f 8f1c 1abe
00000040: c799 d2be d463 21bf ed6e 00be facd d53d
00000050: fff9 6d3e 7716 433e 4d59 e4bd bd0e f83e
00000060: 4a09 a8be b327 febe 1a93 b8be 058b c8be
00000070: ecbe b13e fbf5 bebc c1e2 b43c 007e 633d
00000080: 373d 83be b258 cd3c 25fd 00bf ce00 1b3e
00000090: 27e8 8abe b59f a4bc 9d0f 243b db06 853b
000000a0: 9e7f 793e ae2f a23d ee3a eabd c262 54bf
000000b0: 3a24 393f 656b 9a3d 4e93 d5bb fea1 a13e
000000c0: 269c 9b3c d52d 6fbe d825 83be 8d35 3e3e
000000d0: 3b1c 2cbe b876 44bd e2bd 333e 1341 b23c
000000e0: 220c 623e c622 62bd e9c0 963d b14b e9be
000000f0: 3862 7e3e 614d 893d 7d7a 8cbe e589 b43e
00000100: aa2d d53d 9308 3d3e c90f aabe 2fd5 f93d
00000110: 0146 cebd 3f24 cc3d 9059 003e 49f0 373e
00000120: a1e8 a53e 2dbf 383c 601b f2bc 6ab3 da3a
00000130: bc24 90be e222 b1bd c6ff 383e e22c 703e
00000140: 9de2 c93e 0d60 a53b 478f dd3d 76b8 b23e
00000150: 564e 8dbe 5363 7bbe 6691 0b3e 8122 0b3f
00000160: cbd8 6cbd 56e5 99bd f40f 063e 2af5 66bd
00000170: b6f1 86bd 7f58 f6bd 4d5b 6abe e550 663e
00000180: b9ec f1bc d072 5b3e 6887 423c 8655 953e
00000190: 46bb 0abd dd31 0d3e 25f1 713e e5cf 80be
000001a0: dcfd 4c3e 30ad 313e c876 5fbe d945 fdbd
000001b0: 56c9 0c3d a7b1 77be 48d0 ba3d 9274 04be
000001c0: 2370 75be cd06 2ebe 2e97 213f 0d94 0bbd
000001d0: c5c7 acbe e51e 1abc ce76 313e 6a07 853e
000001e0: 8c87 dfbe 945b d0bc 250f 383c 54d1 de3d
000001f0: aad0 1cbe d456 0abf 648f 663e dfa9 213d
00000200: e90f 903e 3230 74be b68f 393e b7fe 1bbe
00000210: af4b 7abc 8aa9 86bb 8fb4 393e 4c5a 7c3d
00000220: c873 0fbe 0ff0 89be 850f 293d b177 42be
00000230: 1d37 7e3e fda4 f13e fa75 583e b744 2d3e
00000240: c932 833e b081 ab3d c1c3 d8be 8ae1 9d3d
00000250: 5e99 3dbc ae2b 8abb fa50 da3d 5295 fb3d
00000260: 60fe 823e 7295 5fbe c1dc 27bd 21f3 8dbe
00000270: 0265 b2bc 736a 9b3d 6bef 50be b84d 7e3e
00000280: f012 5a3e 67bc febd a63f 333d 2e91 733e
00000290: 5524 6fbe 3489 3c3e 496c 6bbe 6f18 253d
000002a0: 182d a0be 0a9f 88bd fa9b 9e3d 463c 653d
000002b0: 036c 2e3e 8439 293d f03b 873d f5b5 c73e
000002c0: 1b8d 3b3f 5aae 1a3f b9b1 453e 2b10 53be
000002d0: 1a2b c83d d41c b43a 83bb a73e 42bb 623e
000002e0: 1d90 f23e 2eb9 913e a54c 473e 5eac 873e
000002f0: 272b d73e 47d4 093e e511 d93d ce21 88be
00000300: d667 a9bd ee74 703e 2b2e 44be d1f7 4b3b
00000310: 1ff0 103f 432f ad3d a251 62be d4c1 423d
00000320: 1463 603c 78da 6e3e e297 8abe f2c4 173f
00000330: 1fef cfbe e59f 97be 6dfc 7dbe 74df 0fbe
00000340: df11 043f 175c 03bf 5bba ac3d 1190 0cbe
00000350: 4b97 18bf b10d 2cbe 8cf7 b0be 3cbc 713d
00000360: da5f 4dbf 55b4 833d 7dc3 9a3d 1347 73be
00000370: 87b5 d7be 4aa6 e93d b424 a63e 4ea6 613c
00000380: 7b79 94bb cf4e eb3d e3f5 073c 7e6e a9bc
00000390: 9df0 a6be 1a7a aa3e bc12 af3d eddc d23e
000003a0: 0645 3fbd 0293 a7bd 17a0 a23e ce87 3bbe
000003b0: 3e8d 923d a5ce 9e3c f0d2 483e dedb ba3c
000003c0: e3fd c4be b988 da3d 0ce8 403e 4117 59be
000003d0: 4230 66be aed7 bf3e dd96 613c 328d 02be
000003e0: 571b c63d aeda 4c3e 4c79 32be 2709 873e
000003f0: 19f1 6f3e afdb d4bd e106 bb3d d70a c63d
0.1242868 0.054495107 -0.22865139 -0.21305488 0.16058925 0.14790316 0.17955065 0.023579488
0.26082474 0.29367182 0.32307556 0.12149663 0.29766855 -0.001363573 0.6371632 -0.15049957
-0.41132948 -0.6304295 -0.12542315 0.104396775 0.23239897 0.19051538 -0.11149845 0.48448744
-0.32819587 -0.49639663 -0.3604973 -0.39168563 0.34715974 -0.023310652 0.022080781 0.055540085
-0.2563264 0.025066707 -0.5038627 0.15137026 -0.27130243 -0.020095685 0.002503372 0.004059655
0.24365088 0.079192504 -0.11437021 -0.8296319 0.723209 0.07540015 -0.006517804 0.31568903
0.018995356 -0.23357327 -0.2561481 0.18575116 -0.16807644 -0.04796478 0.17552903 0.021759545
0.22074941 -0.055208944 0.073610134 -0.4556556 0.24842155 0.06704212 -0.274372 0.35261455
0.104091 0.18460302 -0.33215168 0.12198865 -0.10071946 0.09967851 0.12534165 0.17962755
0.32404044 0.011276049 -0.029554069 0.001668555 -0.28153026 -0.086492315 0.1806632 0.23454621
0.39430705 0.0050468505 0.108183436 0.34906358 -0.27598828 -0.24549608 0.13629684 0.54349524
-0.057823937 -0.075144455 0.13092023 -0.05638615 -0.065890715 -0.12028598 -0.22886391 0.22491796
-0.029531823 0.21430516 0.011873104 0.29166812 -0.033870004 0.13788553 0.23627146 -0.2515861
0.20018715 0.17351222 -0.21822655 -0.12366838 0.034371696 -0.24188863 0.09121758 -0.12935093
-0.23968558 -0.16994782 0.63121307 -0.03407674 -0.33746162 -0.00940678 0.17330477 0.2598222
-0.43658102 -0.025434293 0.0112340795 0.1087977 -0.15313974 -0.5403874 0.22515637 0.039468642
0.28137138 -0.2384651 0.18121228 -0.15233885 -0.015276833 -0.004109566 0.18135284 0.06160955
-0.14009011 -0.26940963 0.041274566 -0.18990971 0.24825712 0.4719619 0.21138754 0.16920744
0.25624683 0.08374345 -0.42336848 0.07709034 -0.01157221 -0.004216633 0.10659976 0.1228434
0.25584698 -0.21834353 -0.04098201 -0.27724555 -0.02177668 0.07588663 -0.2040383 0.24834335
0.21296287 -0.12438279 0.04376187 0.2378585 -0.23353703 0.18411714 -0.22990526 0.040306505
-0.31284404 -0.06670959 0.07744594 0.055965684 0.1703339 0.041314617 0.06603229 0.3900601
0.73262185 0.6042229 0.19306077 -0.20611636 0.09773846 0.0013741502 0.32760248 0.22141746
0.47375575 0.28461593 0.19462831 0.26498693 0.4202511 0.13459884 0.10599116 -0.2658829
-0.08271758 0.23482105 -0.19158237 0.0031123052 0.56616396 0.0845628 -0.22101453 0.04754813
0.013695497 0.23325527 -0.27069002 0.5928489 -0.40612122 -0.29614177 -0.24803324 -0.14050084
0.5158977 -0.5131239 0.08433982 -0.13726832 -0.59605855 -0.16802098 -0.34563863 0.059017405
-0.8022438 0.0643088 0.07556818 -0.23757581 -0.42130682 0.1140867 0.32449877 0.01377256
-0.004531083 0.11489641 0.00829837 -0.02068257 -0.32605448 0.3329628 0.08548495 0.41184178
-0.046696685 -0.081823364 0.31762764 -0.18313524 0.07155846 0.019385645 0.19611716 0.022809919
-0.3847495 0.10670609 0.18838519 -0.21200277 -0.22479346 0.37469238 0.013768879 -0.12749174
0.096731834 0.20005295 -0.17429084 0.2637417 0.23431815 -0.10393464 0.091321714 0.09670036

bias f4 [20]
00000000: 1ae2 dc3d eead 67be dc53 a43d 9522 873c
00000010: 2e21 303e 4695 303b e4f3 853e 11cf 173e
00000020: d82f 8abc 21c9 9c3e 6fdf 333e 83c9 a53e
00000030: c51b e9bd 4b5c d23e edf4 2bbe cf3b 4bbd
00000040: df57 323d 22a5 c8bd 1775 32bf 5cd1 043e
0.10785313 -0.22624943 0.080238074 0.016495982 0.17200157 0.0026944443 0.26162636 0.14825083
-0.016868517 0.306222 0.17565702 0.32380304 -0.1138225 0.4108604 -0.1679265 -0.049617585
0.04354083 -0.097971216 -0.69709915 0.1297049

weight f4 [20, 20]
00000000: 2767 9a3e fa2a bdbe a03a 043e a420 5e3e
00000010: b881 64be 3620 18bd df35 693e d4f9 cf3e
00000020: bc97 21bf 711a e13d 0e2e 0b3e 2a3b 9e3e
00000030: d58f 1e3e bd04 8d3e c5b7 8b3e d5a4 b4bd
00000040: 5589 ee3e ae02 d4bd 084d 1cbd b4fd 7fbe
00000050: 945d 873e 412f e6bd ed50 343e b287 543b
00000060: ec33 e3bc 698c bb3e 10b8 3a3e 23d4 6dbe
00000070: 7bd3 54bd 3ec0 783e f5e7 dfbe e2df be3e
00000080: 6a61 7abd 50a2 113d 196e 6bbd 81aa fc3e
00000090: bb18 ee3d 4f3f 033f 7355 813e edce ca3d
000000a0: 0757 a0be cce9 6bbd 96e7 af3c d90b 93be
000000b0: ced4 143e 3a1e 4f3d b17d 923e ccdb 79bc
000000c0: 00c1 4e3e 134f 9a3e ffca 87be 1148 72be
000000d0: 5038 e0bd 312d b73d 7388 803d b9d8 b23e
000000e0: 8de0 5c3e 3bf1 bc3d 6628 17be c2cd 013e
000000f0: e1c0 a13e 4b0c 63bd 891a aabd 5789 70bd
00000100: e508 bcbe 0332 6fbd 4c2f 09bf 3deb d2be
00000110: 6f58 e1bd 2fb3 a9be d71c c7bd 7a51 27bb
00000120: 5724 e3bd 021a e33d 2d42 d0bd 1d87 043f
00000130: d873 a33d ac56 c1bc cf53 59bd 9b98 043f
00000140: fbfa 793e 9e4c e5bd 7fc4 cdbb 10ff 97bc
00000150: 0753 843e 58b9 c1be 35bf 1bbe 4803 43be
00000160: 5b6c 853e a4fc ae3d ce00 dabe c068 97be
00000170: baef 80bc 175d 13bf b83e 103f 2436 093e
00000180: 0921 76be 476d 3cbe eb39 b63e b2b9 5f3e
00000190: 4ee5 3dbe 4e60 aebd 04db a03d 1b6d 62be
000001a0: 1c72 aebe 9453 aabc 2e8c 253d 95a8 d6be
000001b0: 4ea7 103e e070 f63c 6d5d a0be 9a8b 4dbd
000001c0: 8b15 d63e b91c ff3d fd15 ce3e 3cff 523d
000001d0: cf03 b83d 299b 673e 9ca7 3a3e 6cd0 e1be
000001e0: 3d90 b03e a5bc 2bbe 5a34 0d3e ca5b 8b3e
000001f0: a943 8bbb 1717 c43d 6928 0abe a82e 9e3e
00000200: 239b babd 91ae 7b3c 2ac1 a53d 22d0 bf3d
00000210: 8942 7abe 301e c93e 9633 71be b5c9 da3e
00000220: be04 993e 229f 07bf db2c c2be 2c24 383e
00000230: 25e7 2bbe ae85 6f3e 9cc3 f8bd 42d2 5c3e
00000240: 15d9 4f3b 9942 c1bd 5b31 71be 01f5 893e
00000250: da75 d73e b997 033e d6f6 393e 8ff0 d3bd
00000260: ad34 7ebd 7a61 06be 93e0 063e d3a6 013e
00000270: d09d 56be 21fc b53e d011 b33d 2b6e 973c
00000280: ef15 27be 47a7 92bd a725 a6be 7171 ec3e
00000290: e3bb 953e 2328 8f3d 6dec 41bd 956a 1d3b
000002a0: 9c1f 903e 8e40 073e f08b c8bb cb34 8c3e
000002b0: 5d04 78be 15e2 bbbe db68 9d3e 0dcf 5abe
000002c0: 95ce 08bd 197a 3dbe fe35 be3e aa71 9bbe
000002d0: 6e1b 143f 6e70 28be 8349 07be b9e2 a2bc
000002e0: 77cd a0be 3555 a33e 3435 74be 2531 b53d
000002f0: 9e4b 56bd 1c68 babd d2f8 c23d bb85 853d
00000300: 442f 06be 073d 0bbc cdb0 24be 93cf b53e
00000310: 4eb9 8bbd f450 883d 70a2 313e f31e 6ebe
00000320: 0d3e 713e 82a3 0bbd c364 b23d c99c 3c3c
00000330: 6fee 9b3d 42d7 da3d e4d9 2e3e 2163 a6bd
00000340: d69e 38be 6a60 fa3d d0bd 1cbe e01e 263e
00000350: c6b1 55bc 3566 933e 927e c8be ae65 7b3e
00000360: cc54 473d f613 adbe 68d4 55be 50ae 81be
00000370: 38b0 02bb c73e 183e 30f8 bfbd 5b6f 5fbe
00000380: f63b 463e c40c 76be ca4a e53b 0f8b c1bd
00000390: 6d16 a1be 6c80 203e e8a4 75be 5b70 94bd
000003a0: b2dd a43e 63b0 883e 6e30 2d3d b0f1 b73e
000003b0: 46cf 263b a6a5 383f 07d7 98bd 4ec5 6a3d
000003c0: 5ebd bcbe cdbc 4c3e 2221 e8be 75d4 473d
000003d0: 72ef a53e 0c38 e3be ed27 6abb eabd a33e
000003e0: b535 a73d f9db 963d 377c c03e b5dd 91bd
000003f0: 391b 71be b440 e0be 57b9 753e b3c3 6abf
0.30156824 -0.3694685 0.12912989 0.21692139 -0.22315109 -0.037140094 0.22774456 0.4062029
-0.63122153 0.109913714 0.13591787 0.30904514 0.15484555 0.27542678 0.27288643 -0.08820502
0.4658915 -0.103520736 -0.0381594 -0.24999124 0.26438582 -0.11239482 0.17608996 0.0032429514
-0.02773472 0.36630562 0.18234277 -0.23225455 -0.051959496 0.24292085 -0.43731657 0.37280184
-0.061128058 0.035555184 -0.057478044 0.49348834 0.11625811 0.51268476 0.25260505 0.09902749
-0.31316397 -0.057596013 0.021472733 -0.28719977 0.14534304 0.050565936 0.2861152 -0.015250158
0.20190811 0.30138454 -0.2652206 -0.23660304 -0.10948241 0.089441665 0.062760256 0.3493097
0.21570034 0.092256986 -0.14761505 0.12676147 0.31592467 -0.055431645 -0.083058424 -0.058724727
-0.36725536 -0.058397304 -0.53587794 -0.41195098 -0.110031955 -0.3314452 -0.09722298 -0.0025530742
-0.11090916 0.11088945 -0.10168872 0.51768667 0.0798108 -0.023600899 -0.05305844 0.5179536
0.24412148 -0.11196254 -0.0062795277 -0.01855424 0.25844595 -0.3783672 -0.15209658 -0.1904422
0.2605923 0.08544281 -0.4257874 -0.29572105 -0.01573931 -0.5756392 0.563457 0.1339956
-0.2403604 -0.18401061 0.35591063 0.21848181 -0.18544504 -0.085144624 0.07854274 -0.22111933
-0.34071434 -0.020791806 0.04041689 -0.41925493 0.14126322 0.03008312 -0.31321278 -0.050181963
0.4181331 0.1245665 0.4025115 0.05151294 0.089851014 0.22617783 0.18228 -0.44104326
0.34485045 -0.16771181 0.13789502 0.27218467 -0.004250009 0.095747165 -0.13491978 0.3089497
-0.09111621 0.015361444 0.08093484 0.0936587 -0.24439444 0.39280844 -0.23554835 0.42732015
0.2988643 -0.5297719 -0.37924847 0.17982548 -0.16787393 0.23390839 -0.121466845 0.21564582
0.0031715084 -0.094365306 -0.23553984 0.26944736 0.420821 0.12850846 0.18160567 -0.10348617
-0.062061954 -0.13123122 0.13171606 0.12661295 -0.20958638 0.35543922 0.08743632 0.01848515
-0.16316961 -0.07160812 -0.324506 0.461803 0.2924491 0.06990077 -0.047344614 0.0024019827
0.28149116 0.1320822 -0.0061201975 0.27384028 -0.24220414 -0.36695924 0.3074406 -0.21368046
-0.033400137 -0.18503608 0.37150568 -0.30360156 0.57854354 -0.16449139 -0.13211636 -0.0198835
-0.31406757 0.31900945 -0.2384842 0.08847264 -0.052318208 -0.091018885 0.09520115 0.06519648
-0.13103968 -0.008498437 -0.16083069 0.3550993 -0.068224534 0.066560656 0.17347121 -0.23253994
0.23558827 -0.03409148 0.08710625 0.01151199 0.07613837 0.106855884 0.17075306 -0.08124376
-0.18029341 0.12225421 -0.15306783 0.16222715 -0.013042873 0.28788915 -0.39159065 0.24550506
0.048664853 -0.3380429 -0.20881808 -0.25328302 -0.001994146 0.14867698 -0.0937351 -0.21819822
0.19358811 -0.24028307 0.006997441 -0.094503514 -0.31462422 0.15673989 -0.23988688 -0.072479926
0.3220039 0.26697072 0.042282514 0.3592658 0.0025453134 0.7212776 -0.07462888 0.05731707
-0.36863226 0.19993897 -0.45337778 0.0487866 0.32409245 -0.44378698 -0.0035729364 0.3198083
0.08164541 0.07366175 0.37594768 -0.071223654 -0.23545541 -0.43799365 0.23996483 -0.91704863

bias f4 [20]
00000000: b2d1 6a3e d486 953c 0eca 3f3e b52e 7abe
00000010: 733e 82bd 4f41 a4bd a0a8 ab3e e90e a0be
00000020: 150d b3bd 09f6 913d ee2f 523d 7c4c 45be
00000030: d2f5 44be f231 7c3e aaa6 913c 5eba 45be
00000040: 441c 433e 27b8 533e b02c 0abd 2844 463b
0.22931555 0.018252768 0.18729421 -0.2443188 -0.063595675 -0.08020269 0.33527088 -0.31261376
-0.087427296 0.071270056 0.05131524 -0.19267458 -0.19234398 0.24628428 0.017779667 -0.19309375
0.19053751 0.20675717 -0.033734024 0.0030253027

weight f4 [20, 20]
00000000: 67e6 073d 0c51 453e 6940 b23e a285 0fbe
00000010: 8a4b 163f 515a 543d d0a7 9a3e ee2e 71be
00000020: 211b 4b3e 2ac8 cdba 8686 123e 7566 813d
00000030: fdf4 f13d a193 8f3e 4093 4cbe bbc2 903d
00000040: 2538 193e 7679 ec3e a3eb a43e bdeb 06be
00000050: 0c3b 35bd c625 483d 8532 16be 15ee b7bc
00000060: 0812 8c3e 7356 c23e 0946 513e d5f0 90bc
00000070: d533 0bbe 080d 52bd 7bbe a8be 82e9 51be
00000080: 08d9 51be 65f0 e63e c1db c5be 355a a6be
00000090: 98fe 743e 1369 c43e 73a5 5cbe 074a 413d
000000a0: 10b4 f3be a62f ecbe 2531 733d 2d04 9fbd
000000b0: 2c72 4ebe f3cf a33e 9192 32bf a90c 883e
000000c0: 6462 ba3e b841 ec3e 257d 87be 017b 30be
000000d0: 0972 8f3e e1ad 1cbe 5a11 213e 7b03 8cbe
000000e0: 2c73 e9be f871 f33e ca19 2b3d 273f 723e
000000f0: fa82 c7bd 6fa0 2fbd 73ad c5bd 3a10 0b3e
00000100: 05fe c9bd d0a9 23be b074 423e b304 1e3e
00000110: 214e 503c fb5d 143e cf41 8d3e 575a 03bf
00000120: 5867 1c3d d23a a83e 27c5 1fbd 509f 64bb
00000130: 1828 26be c14d 233f 86a6 6e3d 6e30 f6be
00000140: eeb1 b03e 8b0e b1be eb51 99be ef1b 95bd
00000150: 9f50 833d 255a ec3d 0409 e5bd 1a31 e5bb
00000160: 7400 073d 9503 93be 21fd f63d 1b24 b23c
00000170: 0e29 093e 4652 843e 1cf9 0abe 6909 79bb
00000180: a9d6 1dbe a6b6 84be f7f4 00bf 69e4 0e3d
00000190: c792 893d ab83 243d 62d7 a13d 0d5e 273e
000001a0: 7eba 0d3e c95a 96bd 48c8 f0bd 2a43 80bd
000001b0: 9f56 263e e654 163e c480 0bbe 7fe9 b3be
000001c0: c5dc 9ebe f071 973e b233 98be 8654 bebc
000001d0: 11a7 dcbd 63b0 07be 40ac a43e f56b 3d3e
000001e0: bb12 27be f86b 9c3e fa75 983c 94fd 0fbe
000001f0: b88c a2be b107 c23e 6f2d 65bd 2ff1 21bd
00000200: d544 31be 2c2d 4e3e acf9 7bbe 635d d6be
00000210: fcfe b43e 08be b4be 7064 723e 36db 9e3d
00000220: 93ae ff3e 2314 043e b272 e7bc b112 90be
00000230: ea79 94be 1ecd 0cbe f766 e2be b6ee 413e
00000240: 1330 3dbf 47de aa3e 3eef b53e c55f 4a3e
00000250: f927 8bbd eb3f b5bd 75b0 e83e 6507 97be
00000260: 292f a23e f07b abbe 3d4e 77be 134e 953e
00000270: 8b33 013d c433 8ebe 48be e4be e01e e9bd
00000280: c033 903e 619c 58be dfcc a2be c927 a5be
00000290: 3150 e63d ed68 923d 1c41 4dbe 7364 24be
000002a0: 50ed ef3d 3ba0 c9bd a638 9f3d 5c34 44be
000002b0: 690e d43e f168 173e cf41 873e 6290 b03d
000002c0: e318 10be 9d4e 41be 4677 f63d 9068 df3c
000002d0: 1b69 b83e 92c7 b93d 8345 973c 921f 4dbe
000002e0: 5fcf 14be 320e e1bd 3f8a 10be c7b4 ee3d
000002f0: dc3a bbbd 8a65 ac3e 68e9 38be 336f f6bd
00000300: 1376 c6be 1946 583e a735 c73e c6a8 2abe
00000310: eca8 0bbe c411 07bf 3229 1fbe d31f d13c
00000320: 591e 343d 6bc9 cf3e 497a 843e 374d 863e
00000330: ed3b 3bbe f49f e33d 9da9 903d d15b c8bc
00000340: 15d8 693e 4c9b 873d bc0d 61be 1fd5 90bd
00000350: 1167 30ba b930 c83e 262f 1e3d 08b3 ebbe
00000360: 6ca3 cabd 2409 f7be faf0 2bbd 11ac a1bc
00000370: 149a 423d 9cf3 403e 0cf8 2a3d ff51 2ebe
00000380: 13a8 46be 71e6 363e 4efb 1c3d 2a13 26be
00000390: 0e5e 9fbe 2332 8dbe d523 16be f34e a1bd
000003a0: 8fb3 2bbe d63a ffbd 7c33 b5bd b7eb b43d
000003b0: 32a8 333e 544c b43e a433 8abe ae42 343e
000003c0: eabc 523e 893a febd 90a3 a4bc 97c0 b23d
000003d0: 5661 4cbe c74b d1be 32cf 063e a23d 8ebe
000003e0: 4e31 843e 6c18 143d 2c80 5fbd 0cdc 49be
000003f0: 40db fdbc ba85 1dbe 799f 8e3e b360 243f
0.033178713 0.19269198 0.34814766 -0.1401582 0.58709013 0.051843945 0.30206156 -0.23553059
0.19834568 -0.0015699912 0.14309129 0.0631837 0.11814306 0.2804232 -0.19978046 0.07068392
0.14962824 0.46186417 0.32211027 -0.13175865 -0.044245765 0.04886415 -0.14667709 -0.022452394
0.27357507 0.3795658 0.20436873 -0.017692963 -0.13593991 -0.05128196 -0.32957825 -0.20499232
-0.20492947 0.4510528 -0.3864422 -0.32490698 0.23925245 0.38361415 -0.21547489 0.04718974
-0.47598314 -0.46130103 0.05937304 -0.07764468 -0.2016074 0.3199459 -0.6975489 0.2657216
0.3640319 0.4614389 -0.26462665 -0.17234422 0.2801669 -0.15300705 0.15729275 -0.27346405
-0.45595682 0.4754789 0.04177264 0.23656903 -0.09741779 -0.04287761 -0.096522234 0.13580409
-0.098629035 -0.15982747 0.18989825 0.1543148 0.01271394 0.14488976 0.2758927 -0.5130972
0.038184494 0.32857376 -0.03900638 -0.0034884997 -0.16226232 0.6379052 0.058264278 -0.48083824
0.3451075 -0.34581408 -0.2994531 -0.072807185 0.06411862 0.11540631 -0.1118336 -0.0069943788
0.032959417 -0.2871367 0.12059999 0.021745732 0.13394567 0.2584402 -0.1357159 -0.0037999994
-0.15413918 -0.259206 -0.50373787 0.034885798 0.06717449 0.04016463 0.07902409 0.16344471
0.13840672 -0.07341535 -0.117569506 -0.062628105 0.16243981 0.14680824 -0.13623339 -0.3513908
-0.3102781 0.29579115 -0.2972694 -0.023233663 -0.10774053 -0.1325088 0.32162666 0.18498214
-0.16315739 0.30551124 0.018610943 -0.14061576 -0.31747985 0.37896493 -0.055951532 -0.03953665
-0.17311414 0.20134419 -0.24606961 -0.41868123 0.35350788 -0.35301232 0.23671126 0.07756655
0.49937877 0.12898307 -0.028252933 -0.2813926 -0.28999263 -0.13750121 -0.4421918 0.18938717
-0.7390148 0.3337271 0.3553409 0.19763096 -0.067947336 -0.08850082 0.45447126 -0.2949783
0.31676605 -0.33492994 -0.2415094 0.29161128 0.031543296 -0.2777387 -0.44676423 -0.11382842
0.28164482 -0.21153404 -0.3179693 -0.32256916 0.11245764 0.07148919 -0.20044369 -0.16053943
0.11715186 -0.09845015 0.07774477 -0.19160599 0.41417244 0.14786126 0.26417395 0.08621289
-0.14071994 -0.18877645 0.12034468 0.027271539 0.3601769 0.09071268 0.018465763 -0.20031574
-0.14532231 -0.10989036 -0.14115237 0.11655574 -0.09142086 0.33671218 -0.18057787 -0.12032928
-0.38761958 0.2112049 0.3890812 -0.16665944 -0.13638657 -0.52761483 -0.15543059 0.02552787
0.043974254 0.40583357 0.25874546 0.26230785 -0.18284579 0.11114493 0.07063601 -0.024457844
0.22836335 0.066214174 -0.21977895 -0.070718996 -0.0006729225 0.39099672 0.038619183 -0.46035028
-0.098944515 -0.4824916 -0.04197786 -0.019735368 0.04751022 0.1884293 0.041740462 -0.17023467
-0.19400053 0.17861344 0.0383256 -0.16218248 -0.31126446 -0.27577314 -0.14662106 -0.078763865
-0.16767715 -0.12462394 -0.088477105 0.088340215 0.1754463 0.35214484 -0.26992524 0.17603561
0.20579877 -0.124135084 -0.020097524 0.0872814 -0.19959006 -0.40878126 0.13164976 -0.27781397
0.25818866 0.036156103 -0.054565594 -0.19712847 -0.030988336 -0.15383044 0.27856043 0.6421005

bias f4 [20]
00000000: facd 7c3e 7f06 873e 775e b4bd c537 c73d
00000010: fa45 e33d b73f 11bd 37f0 823d e4ea 44bd
00000020: 821a 23bd e5e2 553d 0ad7 103d 1ec7 833e
00000030: c7b6 68bb 79e4 00bc 89bd 0e3e 4667 1dbc
00000040: a592 953d 6e26 25be 9957 b83e b0d2 083e
0.24687949 0.26372144 -0.0880708 0.09727434 0.11097331 -0.035461154 0.063934736 -0.04807557
-0.0398202 0.052218337 0.035361327 0.25737852 -0.0035509334 -0.007866972 0.1393949 -0.009607142
0.07303361 -0.16127941 0.36004332 0.13361621

weight f4 [20, 20]
00000000: 2d36 3f3e 38b1 563d 1b10 1b3e 22d2 9abd
00000010: 8efb 733e ac32 6d3d 27ea 33bd 9e6a 7abd
00000020: 5c90 ef3e e097 d43c 952a 9ebd 6c38 1c3e
00000030: 6b11 3e3e 5ca9 7abe a7ef 3b3e 8012 46be
00000040: 4d44 943e 0f9e 05be 4f1d 97be 93b6 fcbd
00000050: fda5 85bc ad30 81be a497 303e 191f 0fbe
00000060: c73f 17be 1442 7bbd 712a 2cbd 984c 67be
00000070: 5197 a93e a873 1dbe 87f2 39bb 7cdd 84be
00000080: f3ec 10be f33c c03d 68e1 b9be 8b87 aebe
00000090: 3775 efbd ceba d53e d9ae 143e 5f81 a2bb
000000a0: 9ff3 ad3e e2ad 353e 9553 65be 6d0f 073e
000000b0: c1a6 cbbe bc52 45be cdc7 97bc d1ec 113d
000000c0: ab78 0abd 13af 803c 7280 afbc 5987 82bd
000000d0: afc4 303d 511c d93e 8323 7cbb 1fa6 f93b
000000e0: d746 2d3d d841 a8be cf58 b2be 8a43 fa3b
000000f0: 51b5 1fbe 3cb8 4d3e 7537 353e 3658 cf3c
00000100: 968b 283e 18f1 7bbe 39e5 09bd 9c00 633e
00000110: 5dea ccbc e832 34be 93ee 31be 0352 0bbe
00000120: ae66 e33e 12af 873e 1b32 2e3e d651 8b3e
00000130: 572d a1bd d828 c33e 3d4a 1c3d 4d7a 843e
00000140: 5518 a8be 594b 1bbe ed96 333f 4029 063e
00000150: 2f87 df3c 24d0 70bd f531 b0bc 20d2 21be
00000160: bf2d 9b3e 59ac 67be 8ad1 56be 5446 08be
00000170: 79e4 abbe 2b44 a9bd 06b6 d6be f05a f43d
00000180: 886a 77be ef90 143e 1aac c4be 2eff e93c
00000190: 0ab8 d1be 3b80 2c3d 12d1 0a3e bd0b e2bd
000001a0: 5ca4 8a3e 0feb 0c3d 71f0 adbe 9e4d 94bc
000001b0: 313e 733d 856d 673d 2c02 44be 0b1a bbbe
000001c0: 6add 14be d637 3e3e 37bf f2bb bd0f f93e
000001d0: 9f68 8ebd c504 0a3d 3d33 f5bd 7fbb a7be
000001e0: f7f2 283e a484 e2bd 931d f1bc d0d4 86bc
000001f0: b52d b0be 4c61 c83d 1e40 adbd 77ca c83e
00000200: bfe2 0d3e 9d7d 283e 38ec 9abe 0d35 b1bd
00000210: 1773 173e 6aa0 483e 8ffc 403e 6603 3cbd
00000220: f5b2 223e d7cd ab3e 71fe 863d 8f03 523e
00000230: 4826 97be cf56 23be edf2 d33e cd64 6b3c
00000240: 9626 fb3d bf94 24be 4b9a 9a3d 8c55 d73d
00000250: 264e 323e f6cd 0b3d bf19 05bd 87ed 8dbe
00000260: ff17 393e 3b57 5bbd 0cbd 59be 9b74 2ebe
00000270: 453a a6be 6135 513d dd8c 83be f017 933e
00000280: fef5 87be f9cf 2fbe 8394 c03c 7f8b 3b3e
00000290: 1fd9 6ebd 9552 9cbe fc58 03bd 096f c5be
000002a0: 55d8 0bbe 96f8 793e 7802 4c3e de6f 32be
000002b0: f6c4 0dbe 6f70 4c3e ee32 383d cafb 07bc
000002c0: eef2 03be f297 76be b7bc 5fbc cf2d f23c
000002d0: 1770 113b 777b 273e f0a2 bd3e 7856 f9bd
000002e0: a060 0dbe 3502 43bd 2033 41be fe2a 503e
000002f0: 7cfa 9f3c 0b33 51be 6abf 153d a7af d0bd
00000300: 9ade 01bf d08c b73e 81ee 49be 1f11 9cbd
00000310: b03b 33be ac64 093e d70d 8abe 4521 2a3e
00000320: 62e7 46bd 24b1 c8bd e5ba a93e 8252 a33e
00000330: 0e32 bbbd 18fd a03e cc07 a4bd 1176 9cbe
00000340: dcf9 ca3d 64ec b6be eaf5 863e a4f0 163e
00000350: 3a54 bebe 5514 23be 2669 adbe 77ec a33d
00000360: a705 763e 68a7 c6bd 8a3e bd3e 9c16 b1be
00000370: c9e2 d7be 1807 f6bc b4af b2bd 9661 383e
00000380: 28ab b1be 47a7 283d ee6e 1ebe 2f6a 033f
00000390: aca1 38be 56cc 2cbe e0c4 c7bc e968 0d3e
000003a0: 6e16 9e3e 9b86 d53d 0fde ac3d 0042 5abd
000003b0: 9b01 113e 8209 dbbd 7463 963c 20f2 7cbd
000003c0: 6a62 9cbe 4370 53be bdc4 873d 2b31 11be
000003d0: 8ecc 8abe b21a 953e 4a71 02be 9396 8ebd
000003e0: 6602 d53d 34ff 8cbd 9de3 193d 2d4d 0dbe
000003f0: f736 46be 4593 b23e 8aa1 d4be 11aa d13c
0.1867301 0.052415103 0.15142862 -0.07559611 0.23826429 0.057909653 -0.043924477 -0.061136834
0.46789825 0.025951326 -0.07722966 0.15255898 0.18561332 -0.24478668 0.18353139 -0.19342995
0.2895836 -0.13048576 -0.29514548 -0.12339511 -0.016314501 -0.2523245 0.17245346 -0.13976707
-0.14770423 -0.061342314 -0.042032663 -0.22587812 0.33123258 -0.1537615 -0.0028373317 -0.2595023
-0.14152889 0.09386625 -0.36304784 -0.34087786 -0.11692279 0.41744083 0.14519824 -0.00495927
0.3397493 0.17742112 -0.22395165 0.13189478 -0.3977566 -0.19269842 -0.01852789 0.035626236
-0.033806484 0.015708482 -0.021423552 -0.06373472 0.043156322 0.42404416 -0.0038473315 0.00761868
0.042303886 -0.32862735 -0.3483338 0.007637446 -0.1559651 0.20089811 0.17696936 0.025310617
0.16459498 -0.24603689 -0.03366587 0.22168201 -0.025014097 -0.17597544 -0.17376165 -0.13605504
0.44414276 0.26500756 0.17011301 0.27210873 -0.07869976 0.381171 0.038156737 0.25874558
-0.32831064 -0.15165462 0.7015217 0.13101673 0.02728614 -0.05879225 -0.021508196 -0.15802813
0.3030834 -0.22624339 -0.2097837 -0.13308078 -0.33572748 -0.08264955 -0.41935748 0.119314075
-0.24161732 0.14508413 -0.38412553 0.028564062 -0.40960723 0.042114478 0.13556316 -0.11037395
0.2707852 0.034403857 -0.33972505 -0.018103417 0.059385482 0.05650093 -0.19141454 -0.36543307
-0.14537588 0.18575987 -0.0074080485 0.4864482 -0.06953549 0.033695955 -0.119726636 -0.32760236
0.16498934 -0.110604554 -0.029433047 -0.016458899 -0.34409872 0.09784183 -0.08459495 0.39216968
0.13856028 0.16454168 -0.30258346 -0.08652697 0.14789997 0.19592443 0.18846343 -0.04590168
0.15888579 0.3355548 0.065914996 0.2050917 -0.29521394 -0.15951084 0.41396275 0.0143672945
0.12263219 -0.16072367 0.0754896 0.10514364 0.17412624 0.034131967 -0.032495257 -0.2772028
0.1807556 -0.053549986 -0.21263522 -0.17036669 -0.3246633 0.051076297 -0.25693408 0.287292
-0.26554865 -0.17169179 0.023508316 0.18314932 -0.05831253 -0.30531755 -0.032067284 -0.38561276
-0.13656743 0.24411234 0.19922817 -0.17425486 -0.13844666 0.19964765 0.044970445 -0.008299777
-0.12885639 -0.240814 -0.013655833 0.029562859 0.0022192055 0.16355692 0.37038374 -0.12174696
-0.13806391 -0.047609527 -0.18867159 0.203289 0.01952862 -0.20429628 0.0365595 -0.10189753
-0.5073029 0.3584962 -0.19719888 -0.07620453 -0.17503238 0.1341731 -0.26963684 0.16614254
-0.048560508 -0.09799412 0.33150402 0.31898886 -0.091404065 0.31443095 -0.080093 -0.30558828
0.09910938 -0.35727227 0.26359493 0.14740235 -0.37173635 -0.15925725 -0.33869284 0.080040865
0.24025594 -0.09699899 0.36961776 -0.34587562 -0.4216521 -0.03003268 -0.08724919 0.18005976
-0.34700894 0.041175153 -0.15472004 0.513339 -0.18030423 -0.16874823 -0.02438587 0.13809551
0.30876487 0.104260646 0.08440792 -0.0532856 0.14160769 -0.10695173 0.01835797 -0.061754346
-0.30543834 -0.20648293 0.06629322 -0.14178912 -0.27109188 0.2912193 -0.12738529 -0.069623135
0.10400848 -0.06884614 0.037570585 -0.13798971 -0.19356905 0.34877983 -0.41529495 0.02559379

bias f4 [20]
00000000: 43d4 843d 49a7 bebd 93be 213d ad06 453b
00000010: 0e4e 8cbe dc4d 39bc b460 84bd 2be4 3abe
00000020: 88ab a23d bf38 6abd 7d95 3d3e 08b8 183d
00000030: 55e7 4ebe 57dc f93d 738b d6bd 9a1b d83b
00000040: c2f5 3c3d f29b 053e 6f52 033d 5966 9cbd
0.06485798 -0.09309251 0.039488386 0.0030063794 -0.274033 -0.011310067 -0.06463757 -0.18251102
0.07942873 -0.057183024 0.18514057 0.03728488 -0.20205434 0.122002296 -0.104758166 0.0065950872
0.04613281 0.1304777 0.032061037 -0.07636709

weight f4 [20, 20]
00000000: 26a7 7e3e 9484 cf3d 193e c6bd 70ef 933e
00000010: 3756 a2bd b326 193e 0cf0 273e bcad 823d
00000020: 9b5b cfbd e249 073e ee5f 193d 8fb2 3c3e
00000030: 9d08 873e 4d92 013e ca28 81be 10db 3c3e
00000040: 45a0 2d3e e520 563e be0b a4bd dfbd e3be
00000050: ba4c 493e 577b 563e 3b26 64be 00dc 53be
00000060: 1033 273e 111c 413e 2dca 27be c222 743e
00000070: 43b1 263e ceb7 2f3e 6897 82bd 4dc5 95be
00000080: 6741 803e bd6b a33e 7d9f 06be 254f c0be
00000090: cc65 783e c9dc 2bbe 5483 acbe e1b9 123d
000000a0: 1cda d6be a618 9bbd 04bf c9bd 2eac 6cbe
000000b0: bfa3 dcbe 20a5 18be e7d3 843d 03d6 eebe
000000c0: abbb e1bd 1bb2 ecbc 9e7c 23be 793c 8dbe
000000d0: 33cb 52be 965c 8dbe 937f 013f bb10 b93e
000000e0: 773b 973d ee10 29be 2d13 c13e e63f b63e
000000f0: ca1d acbe b569 e63c d29c 3cbe c3a0 87be
00000100: 7439 47be 2e42 bbbd 1ab6 4dbe 2f9e 8bbe
00000110: 9146 10be 5100 6d3e 4826 013e dafe 093e
00000120: ce53 0f3d 0172 d23d 7dc5 d93e abc5 823e
00000130: 6715 e5be 35f6 273d 07d9 493e 4283 44bd
00000140: fd49 d3bd 5214 8dbe ac4e a2bd d315 4ebe
00000150: 669b eebe 5b9a 52be ae24 96be 9d4d 98be
00000160: 1674 b03d a16b acbe 83db c23e dfb7 96bd
00000170: c789 93be 1c54 c8ba af01 623d a5cf 80be
00000180: d4f2 96bd 0449 913a ba25 d03d 6ec9 54be
00000190: de43 06be 4634 a7bd 6fbf 01bf 12cb 2b3e
000001a0: f14a 27bf b538 85be bd92 cfbc 7d1f 95be
000001b0: 5e5f 963e fd17 3cbe 545d a1bd 4720 ab3e
000001c0: 6476 89be 8f37 a8be 59e2 da3c e502 9b3e
000001d0: 9d78 8b3e 2bec efbc c9c2 e33b 8a6e 103f
000001e0: 231a fcbd a6dd 60bd bff6 b7bd 3551 f03d
000001f0: 42a4 763e 38f8 c9bc 2e51 af3d 6d7a 71be
00000200: 5de9 5e3e 5979 15bd acba 633e fc59 d0bd
00000210: 294e 2ebe f0fd 6fbd 2015 a43e e1f8 10bf
00000220: ec1f bbbd b4ad 60be 045a 923d 4e66 64be
00000230: eab6 273e 620f 49bc 5360 26be 667a 943d
00000240: f8b9 903e 8401 56bd cb2b b0bd 8df2 02be
00000250: f98b 063e b474 13bc 5ab2 283e 71a9 33be
00000260: 72ac e53d 1511 3d3c 739b 903d 1f76 f6bd
00000270: 1425 27be 6ed9 343e 858f a2be 464d b53d
00000280: 65ad 0bbe c075 87be 149b 1a3d aa72 403e
00000290: 2cd6 893e 5ea6 533e c16e f63a cdb8 bf3e
000002a0: 0e5a 153f cd65 f43d bf93 0cbe ce78 2ebe
000002b0: fab4 4c3d 0dfd 88bc a9d9 a8bd 4855 0d3e
000002c0: 17f6 753e cdfa d1be dd36 c23d b0d9 1abe
000002d0: daa9 58be 388a b1be 0a5c 4ebd 941c 9b3e
000002e0: 70c0 7f3c bc51 473c af24 c8bc ee0e 7bbe
000002f0: 6fb9 a63b 1109 1fbe 5957 8e3d bf42 bbbd
00000300: 023f 9abe 4504 42be 42cd debd 9d9f e7be
00000310: 6966 fb3c 0ad8 d7be f1c1 f3bc c560 023e
00000320: 0c47 913e be1d 7a3e c94a 863e c90a 773d
00000330: 0c41 d5bd 77b6 75bc 8fb9 9b3e c9b8 6abd
00000340: c887 f8bd 51c0 8e3e 15a0 51bd 4c93 86be
00000350: 6227 91be 0a14 b6bb 06b5 03be bb73 aa3e
00000360: c034 cabc 3d3a 1bbe b0d9 71bc 9961 3bbe
00000370: cc02 1e3e 607d 203e 1724 943e 34e9 e83d
00000380: e9c1 c3be 01db 293e 9d8d 9a3c 7f1b adbe
00000390: f7f1 4d3e fb5f a4be ed99 7a3e 482c 6b3e
000003a0: 9d7a 343e 6099 afbe 1606 8cbe b1c2 963e
000003b0: af17 7d3e 4832 abbe 4ad8 2a3f 7ffd 4cbd
000003c0: 628b 1a3e 4afd d3bd b4a9 c43e e7aa dcbd
000003d0: 4369 72be a1a8 6c3d 881d 88be 6d99 b6be
000003e0: 47a4 013e 3428 a73e 8ecc d1bd ed59 5dbe
000003f0: ef22 a73d 3418 643e 98e5 9b3e a344 123e
0.2486845 0.10132709 -0.09679813 0.28893614 -0.079266004 0.14956169 0.16400164 0.063807935
-0.10124894 0.13211778 0.037445 0.1842749 0.2637376 0.12653466 -0.25226432 0.1844294
0.16955669 0.20910986 -0.08010052 -0.44480798 0.19658175 0.20945488 -0.22280209 -0.20689392
0.16328073 0.18858363 -0.16385718 0.23841384 0.16278557 0.1715996 -0.06376535 -0.2925209
0.25049898 0.31918135 -0.13146777 -0.37560382 0.24257582 -0.16783442 -0.33693945 0.0358218
-0.4196328 -0.07573061 -0.098508865 -0.23112556 -0.43093678 -0.1490674 0.0648573 -0.46647653
-0.11022123 -0.028893521 -0.15965506 -0.275852 -0.20585327 -0.276097 0.5058529 0.36145577
0.07384389 -0.16510364 0.37709942 0.35595626 -0.33616477 0.028126577 -0.18419197 -0.2648984
-0.1945551 -0.09143482 -0.20088997 -0.27269122 -0.14089419 0.23144652 0.1261226 0.13476124
0.03499203 0.10275651 0.42533484 0.25541434 -0.4474289 0.041006286 0.19711696 -0.04797674
-0.103168465 -0.27554566 -0.07925162 -0.20125513 -0.46602935 -0.20566694 -0.2932486 -0.29746714
0.08615892 -0.33675864 0.380581 -0.073592894 -0.28816053 -0.0015283856 0.055177387 -0.2515842
-0.073705345 0.0011084382 0.10163446 -0.20779964 -0.13111827 -0.08164267 -0.5068273 0.16776684
-0.65348727 -0.26019827 -0.025338525 -0.29125586 0.29369634 -0.18368526 -0.07879129 0.33423063
-0.26848137 -0.32854888 0.02671926 0.30275646 0.27240458 -0.029287418 0.0069507104 0.5641867
-0.12309673 -0.05489888 -0.0898261 0.11734239 0.24086097 -0.024654493 0.08560406 -0.23581858
0.21768709 -0.03649268 0.22239178 -0.10173413 -0.17022003 -0.058591783 0.32047367 -0.5662976
-0.09136948 -0.21941262 0.07146075 -0.22304651 0.1637837 -0.012271734 -0.16247682 0.07249908
0.28266883 -0.05224754 -0.08602103 -0.12787838 0.13139333 -0.008999992 0.16474286 -0.17545106
0.11214532 0.011539717 0.070608996 -0.120342486 -0.16322738 0.17661068 -0.31750122 0.08852629
-0.13640364 -0.26457024 0.03774555 0.18793741 0.26921213 0.20668933 0.0018801318 0.3744568
0.5834054 0.119334795 -0.13728236 -0.17038271 0.04997728 -0.016722227 -0.082446404 0.13802063
0.24019657 -0.41011658 0.094831206 -0.15122104 -0.21158543 -0.34675765 -0.050380744 0.3029524
0.0156098455 0.012165483 -0.024431555 -0.24517414 0.0050880234 -0.15530802 0.06950254 -0.0914359
-0.30126196 -0.18946941 -0.108789936 -0.45238963 0.030688481 -0.42157012 -0.029755564 0.12732227
0.28374517 0.24425408 0.26228932 0.06031302 -0.10412797 -0.014997116 0.30415007 -0.05730513
-0.12135273 0.278811 -0.051178057 -0.26284254 -0.2835036 -0.005556588 -0.12862024 0.3329142
-0.024683356 -0.15158935 -0.014761373 -0.1829895 0.15430754 0.15672827 0.28933784 0.11372605
-0.3823388 0.1658745 0.018866355 -0.3381004 0.20111834 -0.32104477 0.2447278 0.2296611
0.17624898 -0.34296703 -0.27348393 0.29445413 0.24716066 -0.334368 0.6673628 -0.05004644
0.15092233 -0.103510454 0.38410723 -0.107747845 -0.23672967 0.057778005 -0.2658503 -0.3566393
0.12660323 0.3264786 -0.10244094 -0.21616335 0.0816096 0.22274858 0.30448604 0.14283995

bias f4 [20]
00000000: 138b 893c b9a4 bebc 26e9 d13d fda8 20bd
00000010: eab9 6d3d 32e2 953d 4c6f ee3d 74ea 5dbb
00000020: 947b 2e38 e210 d73c 1323 02bd f321 b53d
00000030: f476 42bd 3aca 8d3b 0a67 9d3d df8a 85be
00000040: 3072 1fbe a336 2c3d e84f 333d e991 1c3d
0.016789949 -0.023271905 0.10249548 -0.03922366 0.05803863 0.07318534 0.11642322 -0.0033861669
4.1599924e-05 0.026253168 -0.03177173 0.08844366 -0.047476724 0.004327086 0.07685669 -0.26082513
-0.15570903 0.042044293 0.043777376 0.03822509

weight f4 [20, 20]
00000000: e18a c5bd a2e8 353e f044 e3be fb5f 0ebe
00000010: 4d53 babd 4c09 33be bdc7 813e 3a6b 15bd
00000020: acf0 ad3e f4dc 853e 7f6b 8f3d 1647 22be
00000030: f54f 143d 89a4 26bd 2bce 78be 526f 353e
00000040: 5b89 aebe 0895 a23e 74b4 1ebe 90aa afbd
00000050: 98ad 1a3e dad7 ea3e a195 463e 591f 513e
00000060: 8062 9ebe 1bb2 1a3e 1547 a2be a738 83be
00000070: 07ab 8e3e 7dd1 a23d 80a9 3c3e 679e dbbd
00000080: 6813 59be 356e babd 5429 2e3c ff08 863e
00000090: 96c0 d03e 2b2c 733d b3a5 a23d ec98 bebc
000000a0: 67a9 b7be 54fa f5bd fe41 fa3e 8136 853e
000000b0: 43c3 a4bc 7a5a 78bd 32b4 92bd 0d9a 063e
000000c0: 07e3 213e 24d6 153d 2ec7 833d e4f3 cf3d
000000d0: 755d a0be d4cb 463c 25d1 083e 10de 193f
000000e0: 78d8 033e 4bfa ac3d 632b b2be 04ae 6e3d
000000f0: 6aaf 333e a52e bf3c f38c 8d3e cbfa adbe
00000100: 7ed1 16be d326 eebd 9fa0 d5be b65e f2bd
00000110: a177 8d3c 93af 723e 8744 1dbe 8e72 a73e
00000120: abce dfbd 0730 3a3e 3182 a63d 867d 6d3e
00000130: 07ac af3e 6a75 18bd 6878 20be ce1c f2be
00000140: dfeb 233e 2c3f 943d c63e c83d ce13 423e
00000150: fd78 523f 9f42 16be 6e01 c43e c83a 5e3e
00000160: 5b21 c63d b96e f63d 1ca8 8abe ee25 90bb
00000170: bf72 4ebe adce 813c 6126 0a3d 6f5a 1ebf
00000180: d256 6cbe c15d c03c 9f59 123e ece8 9e3e
00000190: cd60 1e3e 6a3c 09be daaf 82be ea29 6bbe
000001a0: da66 c7be 09e5 2b3e 269e 943e 01e6 1a3f
000001b0: f450 5abe 6b2c 60be 010e aa3e 4468 0c3e
000001c0: e374 f3be bd47 8c3e a763 dabd fc34 dc3d
000001d0: 7c92 dabd f268 e2bd 2b76 0abd 24c0 8a3e
000001e0: ea70 c5be 822e 803e 77e1 86be 103e 5dbe
000001f0: 2162 4a3d 30ce a43d e334 bdbd 56ea acbd
00000200: 38ed 97bd 5a6a ecbe 9c72 043e 9a99 8abe
00000210: 11ac 5139 7a56 89be 11ad 76be 7486 d3be
00000220: e0ed 96be 2ee1 51bd 594f 6d3e 8e90 ecbc
00000230: dd97 c43e 3125 b9be a293 803d b3fb 473e
00000240: a650 a9be 9863 ee3d b76c 40bd 1720 23be
00000250: ce70 08be 9951 26be 2b19 b2bc 5b1f c4bd
00000260: 1b62 cfbd c60d 563e d146 833d 79c3 923e
00000270: 8256 1d3e 867f a03d 59e8 49be 5a75 70be
00000280: 98dd 9ebd 780b 67ba 25a6 1cbe 8c1f 90ba
00000290: c85a 65bc 0d98 1abe 9cd2 943e dbb8 6dbb
000002a0: a3b1 3f3d 07b9 623e f2fd aabd a30e c8bc
000002b0: 30aa bfbc 367e 3c3e 7e61 69bd 833c 1abf
000002c0: 1812 60be 37e8 653d 787f 89bd 76ee 71be
000002d0: 8f81 783e 1852 b43e 39be 9ebe 9ca9 b8be
000002e0: daf9 bd3d 5d6d 0f3e 2eb3 5c3e d280 9e3e
000002f0: c6fe 27be 22af 4cbe 93fe 61be 119b 62bc
00000300: ceab 3d3e 7de7 a7bd 8e35 433e 03aa 9c3e
00000310: 836e fc3d 8d70 8e3d 1052 db3d 1a62 0fbe
00000320: 84d3 f63d cc71 84be c329 69be 0f50 18be
00000330: f137 933e ba2a afbe faf6 993b c935 143e
00000340: 2cb9 2c3e 0d09 883d 3e95 1cbe 528b e1be
00000350: 7ca5 c13d af35 6cbe bf13 1b3e 3f08 ccbd
00000360: 4fe9 b0bc 3a7c 65be f33d df3e 70aa 073e
00000370: 310a a13d a548 88bd 9b86 673e f938 15be
00000380: f965 543e 2f68 2dbe 3423 80bd 0ce5 683b
00000390: 7025 2d3e 357f d23d c991 873e 3d06 c5bd
000003a0: 9fdb 7b3d 1b35 5ebe f4b5 cfbd 221a cebe
000003b0: df63 5fbe ac15 4abc 9e8c 973e 3131 2d3e
000003c0: d8b6 8ebe 2818 54bd a5dc ca3e cef5 4e3e
000003d0: 229b 2d3e 8059 873e 4ab2 123e d8c3 c6bb
000003e0: 0618 fbbe c6f4 03bf fc3f 41bd 4ccf 86bc
000003f0: dc98 bf3e eda3 5ebe 73fe cc3d a118 013e
-0.0964563 0.17764524 -0.44388533 -0.13903801 -0.090979196 -0.17484015 0.253477 -0.036479212
0.3397268 0.26145136 0.07002925 -0.1584743 0.036209065 -0.040684257 -0.24297397 0.17718247
-0.3408917 0.31754327 -0.15498525 -0.08577454 0.15105283 0.45867807 0.19393016 0.20422114
-0.30934525 0.15107004 -0.31694856 -0.2562916 0.27864859 0.07950113 0.18424034 -0.10723572
-0.21198809 -0.091030516 0.010629971 0.26178738 0.4077193 0.059368294 0.07941761 -0.023266278
-0.3587143 -0.12010637 0.48878473 0.26018146 -0.02011264 -0.06063316 -0.07163276 0.13144703
0.1580926 0.036581174 0.06434475 0.1015394 -0.31321302 0.012133557 0.13361032 0.60104465
0.12875545 0.08446177 -0.34798726 0.058271423 0.17547384 0.023337672 0.27646598 -0.33980402
-0.14728352 -0.11628499 -0.41724107 -0.11834471 0.017268958 0.23699789 -0.15358172 0.32704586
-0.10928091 0.18182383 0.08130301 0.23192415 0.34310934 -0.03722135 -0.15670931 -0.472876
0.16007946 0.072386116 0.09777598 0.18952867 0.82215863 -0.14673851 0.3828234 0.21702111
0.09674331 0.120328374 -0.27081382 -0.004399053 -0.2016096 0.015845621 0.033728007 -0.6185674
-0.23079994 0.023482205 0.14292 0.3103708 0.15466614 -0.13401952 -0.2552479 -0.22965208
-0.38945657 0.16786589 0.29026908 0.6050721 -0.21319944 -0.21891944 0.3321381 0.13711649
-0.47550115 0.27398482 -0.106635384 0.107522935 -0.10672471 -0.11055173 -0.0338041 0.27099717
-0.3856271 0.25035483 -0.2634389 -0.21605706 0.04940999 0.0804714 -0.09238603 -0.084431335
-0.07418293 -0.4617489 0.12934345 -0.27070314 0.00019995893 -0.2682379 -0.24089457 -0.41313517
-0.2947836 -0.05124014 0.231748 -0.028877523 0.38397112 -0.36161187 0.06278159 0.1952961
-0.33069342 0.1164009 -0.04697868 -0.1593021 -0.13324282 -0.16242065 -0.021740517 -0.09576293
-0.10126134 0.20903692 0.064099915 0.2866476 0.15365031 0.07836823 -0.1971754 -0.23482266
-0.077571094 -0.00088136597 -0.15297754 -0.001099573 -0.013998695 -0.15097065 0.29066932 -0.0036273513
0.046800267 0.22140895 -0.083492175 -0.024421042 -0.023396581 0.1840752 -0.05697774 -0.60248584
-0.21881902 0.05612966 -0.06713766 -0.23626122 0.24268173 0.35218883 -0.31004503 -0.36066902
0.09276171 0.14006563 0.21552727 0.30957657 -0.16405782 -0.19988683 -0.22069769 -0.013830916
0.1852257 -0.0819845 0.19063398 0.3059846 0.12325766 0.06955061 0.107090116 -0.14002267
0.12052062 -0.2586807 -0.22769837 -0.1487429 0.28753617 -0.34212285 0.0046986314 0.14473642
0.16867512 0.06642351 -0.15291306 -0.44051605 0.09455392 -0.23067354 0.15144251 -0.0996251
-0.021595625 -0.2241067 0.4360195 0.1324861 0.07863272 -0.06654481 0.22609942 -0.14572515
0.20742024 -0.16934274 -0.062567145 0.0035536913 0.16908813 0.10278169 0.26478413 -0.096203305
0.061488744 -0.21699946 -0.10142127 -0.40254313 -0.21815442 -0.012334269 0.2959947 0.16913296
-0.27873874 -0.05178085 0.39621463 0.20210955 0.1695371 0.2643547 0.14325824 -0.006065827
-0.49041766 -0.5154537 -0.04718016 -0.016456269 0.3742131 -0.2174222 0.1000947 0.12607051

bias f4 [20]
00000000: 749a f9bc 2eaf dabd ddf6 26be abfd dbbd
00000010: 2213 193d 3682 8d3c f0e9 893d d818 79bd
00000020: a32d f33d f241 0abd de24 843d c281 bf3d
00000030: bb3e aabd 47cb 7f3c c6ac 25be c87e 883d
00000040: 52d4 cabd 599c 943d 04f5 adbd 3656 a63c
-0.030469157 -0.10677944 -0.16305108 -0.10741743 0.037371762 0.017274003 0.06734073 -0.06081471
0.11873939 -0.033754297 0.06452344 0.09350921 -0.08312746 0.01561243 -0.16179189 0.066648066
-0.09903778 0.072563834 -0.08493999 0.02030478

weight f4 [20, 20]
00000000: 5731 da3d 18af 84bc 7d75 c23c ad2c 85bd
00000010: 0aa9 a0bd b8c8 b0be b671 33be 1442 e33e
00000020: 573e a3be 7921 863e 6522 eebd ea38 9ebe
00000030: 96e2 4a3e a9e9 ecbc 13d8 4c3e b8a0 053d
00000040: c4ad acbe fdf9 153e a568 8c3d 69e1 41bd
00000050: 119f d63d 539d 893e fbfc ad3e ba0f 053e
00000060: bddf a2bd dd32 cabd b4e9 b3bc 493b 233e
00000070: 7896 a73d 50f8 0c3e a760 c8be e1b8 3a3d
00000080: ff92 103f aa19 28be 6108 9ebd 65f5 1abf
00000090: 9dfe a7bd 0605 ab3e 6a3a 1abe 4f38 3b3d
000000a0: 0a37 e8bc 032b 253e d390 003f 0d63 c43d
000000b0: a74a c5bc 0c1b d93e 49c0 91be 5b86 e1bd
000000c0: 1192 083c 8cc3 e3be 66f7 82bd 13d3 293d
000000d0: 0465 2e3e 32bd dfbd 57f4 b03d a9db c9be
000000e0: b66e 5bbe 68a5 edbd 8e55 67be e669 10be
000000f0: 869c ed3d f8c0 42be b872 cbbd b0fe 55be
00000100: 0d31 e33c 9f99 603d d736 1e3e d63c 54be
00000110: 28ab c83e 8c9f 5abe 0043 463e 7b0d aa3e
00000120: b37e a5be 0ca8 663e cf53 bdbe 7076 1dbe
00000130: c28f 5fbc ae99 853e 3d99 13bd 85f6 6ebd
00000140: f60e 493e 98bd 46be 8870 b3bd 803c 4abd
00000150: 2ffe 4e3e 04fc 893e c485 e03e 6904 983e
00000160: e613 a2bc 7c25 bbbe 3612 a9bb b391 af3d
00000170: 0c9c 6c3e b58a 0b3e f901 dcbe ab69 fc3d
00000180: cce3 49be 00c9 9bbd b7a9 d83e 4391 b23e
00000190: 47fa 43be 6407 733e 9f2a 223e 4f0c cc3d
000001a0: 06cd 59be ddaf 37be 0f9b 3bbe 20e6 5a3e
000001b0: 0177 95be 6576 37be 1525 51bb b9cc 553d
000001c0: ed37 a73e 1b0e cdbe a572 323e 5b85 203d
000001d0: 3ee0 d93d 7eea f43e 4d84 2ebe 2300 093c
000001e0: 0197 003f 33df 5dbd 351c 9ebe 2df5 4e3e
000001f0: 0f21 693e 5e54 c23e 1c80 133e bcc8 a33c
00000200: a4bb 31bd 880b 55bd fd52 373e 1e42 883e
00000210: 31ca 92be a618 3d3e a66c 20be 3594 523e
00000220: fe5b 30bd 714f 4a3e e7c3 bb3c 7152 1a3e
00000230: d604 eebe 7c3f 08be 0b87 203e 37ca cf3e
00000240: 4090 bcbe c10b 3c3c eda2 503e 5591 603e
00000250: 99c3 21be e157 93bc c19c 5d3d 8a4e 2cbf
00000260: 0b7c 8abe 3b24 d53c 4994 693e a21d 39be
00000270: 21c3 b3bc 8066 183d e133 d93e 6b21 d7be
00000280: 6989 32be a2be b83e ffc0 c83e a358 b03e
00000290: 1151 b4bd be86 2a3d 9f42 8f3e 469f 01be
000002a0: 119e 4bbe dc62 adbe 383c 92be 39b1 633e
000002b0: 73eb c73e bf5a b6be 445e 07bd cee1 2b3e
000002c0: c31c de3d 52b6 f9bd 0bb4 64bd 97d2 14bd
000002d0: 3f40 b3be 456c 7e3e cf56 8ebd 7d88 bbbe
000002e0: 85fe 2f3e f068 96be 731a 553e 3cb7 ad3d
000002f0: 2224 c83d 321d 353e c9c6 31be 4ef9 ce3e
00000300: 24aa 83bd ecef 6ebd d79a 563d 878f 4abe
00000310: 7d5f 5a3e 0b21 6ebe d844 a7be 2839 9bbb
00000320: dd14 d63c 0b12 6c3e 70a0 7a3e 7470 1ebe
00000330: b2e5 ffbe 05b2 15bf 541d 8c3e 9a21 a53d
00000340: e16b a33d b668 a83e c174 40bd 59c2 06be
00000350: 7da8 303e 3bcf c13a d72c bb3e 62c1 c7be
00000360: 4b0d da3d a3af babe 0c66 953e 45a8 173e
00000370: d744 173e 1c04 a93d 9497 f53e 169d 303d
00000380: 2d51 c8bc c450 c73e 93c9 ccbe e8be bebe
00000390: dcdc 013e 4de6 66be 96f0 593e d598 5e3e
000003a0: 0c05 233f 87b5 8b3e b646 eb3e a07e 07be
000003b0: d099 03bf 1671 633e d461 58be eed0 15be
000003c0: 65d5 d83e 52fb 613e bbce 14be 716b 08be
000003d0: 8aea 803d b6e6 b53d bfc8 4b3e 747d 64be
000003e0: 1762 893e c878 643e fde6 a93d 8341 ce3e
000003f0: 15b1 753e 7660 9ebc eb59 7fbe 9cca 0b3f
0.10653942 -0.016196772 0.023737663 -0.06502662 -0.07844742 -0.34528136 -0.17523846 0.4438635
-0.318835 0.26197413 -0.11627654 -0.30902797 0.19812998 -0.028920012 0.20004301 0.032623976
-0.33726323 0.14646144 0.06855897 -0.04733411 0.10479558 0.2687784 0.3398207 0.1299428
-0.07952831 -0.09872983 -0.021962024 0.15940584 0.081829965 0.13766599 -0.3913624 0.04558647
0.564743 -0.1641604 -0.07716442 -0.6053069 -0.082028605 0.3340227 -0.15061346 0.045707997
-0.028346557 0.16129689 0.50220984 0.09589205 -0.024083449 0.42403448 -0.28467014 -0.110119544
0.008335606 -0.44485128 -0.06394844 0.04146106 0.17030722 -0.10924758 0.08640354 -0.394254
-0.21428952 -0.11603814 -0.2259123 -0.14102897 0.1160212 -0.19018924 -0.0993399 -0.20897937
0.02773335 0.054834004 0.15450607 -0.20726332 0.39193082 -0.21349925 0.19361496 0.3321341
-0.32323226 0.22525042 -0.36978003 -0.15377212 -0.013645114 0.2609381 -0.03603481 -0.058340568
0.19634613 -0.19408262 -0.08761698 -0.049374104 0.20214151 0.26950085 0.43852055 0.29690865
-0.019784879 -0.36552036 -0.0051596416 0.08572712 0.23106402 0.13627131 -0.42970255 0.12324842
-0.19715804 -0.07606697 0.42316982 0.3487645 -0.19138442 0.23733288 0.15836571 0.09963285
-0.21269616 -0.1793818 -0.18320869 0.21376848 -0.29192355 -0.17916258 -0.0031912972 0.052197192
0.32659855 -0.40049824 0.17426546 0.039189678 0.10638474 0.47835153 -0.17042656 0.008361849
0.50230414 -0.054167937 -0.30880895 0.20210715 0.22766517 0.37954992 0.14404339 0.019993179
-0.04339184 -0.05201295 0.17902751 0.26612943 -0.28669885 0.18466434 -0.15666446 0.20564349
-0.04305648 0.19756867 0.022920562 0.15070511 -0.46488065 -0.13305467 0.15676515 0.40583965
-0.36828804 0.011477412 0.20374651 0.2193044 -0.15797271 -0.01798624 0.05410457 -0.6730734
-0.27047762 0.026018253 0.22810473 -0.1807771 -0.02194363 0.037207127 0.42422393 -0.42017683
-0.1743523 0.3608294 0.39209744 0.34442624 -0.08804525 0.041632406 0.27980515 -0.12658414
-0.19884516 -0.33864486 -0.28561568 0.22235574 0.3904682 -0.3561611 -0.033048883 0.16785356
0.108453296 -0.12192978 -0.055835765 -0.036333647 -0.35009953 0.24845989 -0.06950151 -0.3662757
0.17186935 -0.29376936 0.20810871 0.08482215 0.09772517 0.17686918 -0.17360987 0.4042458
-0.06428936 -0.058334276 0.05239376 -0.19781314 0.21325488 -0.23254792 -0.3266971 -0.004737038
0.026132995 0.23053758 0.24475265 -0.15472585 -0.4997993 -0.5847476 0.27366126 0.080630496
0.07979561 0.32892388 -0.046986345 -0.13160075 0.17251773 0.0014786491 0.36557648 -0.39014727
0.10647067 -0.36462125 0.29179418 0.14810283 0.14772354 0.08252737 0.47967207 0.04311856
-0.02445277 0.38928807 -0.3999754 -0.37255025 0.12681907 -0.2254879 0.21283183 0.21737988
0.63679576 0.27286932 0.45952386 -0.13231897 -0.51406574 0.22211108 -0.21131068 -0.14630482
0.42350307 0.22068527 -0.14531986 -0.13322236 0.06294735 0.08881895 0.19900797 -0.22313482
0.2683265 0.223117 0.08296011 0.40284356 0.23993333 -0.019333106 -0.24936645 0.5460603

bias f4 [20]
00000000: 9ebc afbd de43 57bd f5e2 ccbd bda2 a03d
00000010: 2d46 ab3d 9b86 2bbd c62f 0ebd c2ee e0bd
00000020: 5542 dabd 7311 8f3d 4406 8dbd 6a90 edbd
00000030: 655a e43c ebe9 863d 90ab 3abd 69f8 a53d
00000040: 4a89 ff3d 0f05 ea3d 0e48 a43d b0c5 c7bd
-0.08580898 -0.052554958 -0.10004226 0.0784354 0.08362994 -0.041876417 -0.03471353 -0.109830394
-0.10657183 0.0698575 -0.06885961 -0.115998104 0.027875135 0.06587585 -0.04557377 0.08104021
0.12477358 0.11426746 0.08021556 -0.09754503

weight f4 [1, 20]
00000000: 692a 03bf 959f 6ebf d609 3abf 2994 383f
00000010: e2fc c53e 2394 2bbf 7f0b 8c3f 90fd 62bf
00000020: 8e14 01bf dd09 0c3e 2ae2 0ebf 0f1c 0abf
00000030: 43b1 fc3e 2723 a6bf 675a 81bf d9d0 033f
00000040: 5885 5a3f 17d7 933f 76f5 d63e 6748 4ebf
-0.5123659 -0.9321225 -0.7267126 0.72101074 0.38669497 -0.67022914 1.0941008 -0.88668156
-0.5042199 0.13675638 -0.5581385 -0.53949064 0.4935399 -1.2979478 -1.0105714 0.5149055
0.85359716 1.1550015 0.41984147 -0.8057923

u_b f4 [2]
00000000: 1897 3940 0ad7 1f42
2.899847 39.96

l_b f4 [2]
00000000: f593 193d 0000 0000
0.03749462 0.0
