Iter_03/Models/Noise_0/simulation_00_03/pidnn_400.pt (torch, 87517 bytes, 23 tensors)

weight f4 [20, 2]
000000 ff d1 ad 3e a8 12 d1 3e 0b e6 b1 bd 17 91 2d 3d
       0.33949277 0.40834546 -0.08686455 0.042374697
000010 26 3b 30 be 14 5b 63 bf ed b1 60 be 1b 9f 19 40
       -0.17210063 -0.8881085 -0.21942873 2.400336
000020 6a 3f a5 3d 0c ec 36 bf e7 9b 3e be 3a 1b 1c bf
       0.08068736 -0.7145393 -0.1861416 -0.60979044
000030 cf 7b 1d be e2 f3 14 bf bf 0a 20 3f f9 55 6a bf
       -0.1537926 -0.58184636 0.625164 -0.91537434
000040 65 de d5 3e ae 16 83 3f e0 b0 27 be 1c f6 f4 be
       0.41771236 1.0241296 -0.16376066 -0.47844017
000050 74 e2 25 bd 2d 06 c4 3e 3c 4d 15 3e 1a 11 d4 be
       -0.040499166 0.38285962 0.14580244 -0.41419297
000060 9c cb eb bc f3 a8 89 bf 8f ff f6 bd fe 63 84 3e
       -0.028783612 -1.0754684 -0.12060463 0.25857538
000070 d0 1b d5 3e ef 3a d3 be 88 1b cc 3d 80 d3 2e 3e
       0.41622782 -0.412559 0.09966189 0.17072868
000080 70 82 2f 3f d3 fb 9b bf 40 e1 30 bf f6 eb 24 bf
       0.68558407 -1.2186226 -0.69093704 -0.6442255
000090 9d bc 64 3e d0 59 82 be 49 67 51 3d 9f 4f 16 bf
       0.22337575 -0.25459146 0.05112389 -0.5871524

bias f4 [20]
000000 19 88 06 bf 78 db 50 bc 8f 99 02 3e 60 08 21 3f
       -0.5255142 -0.012747638 0.1275389 0.62903404
000010 20 8f e9 bd a6 dd 4d 3e 76 59 59 3e 92 4a 1e 3f
       -0.11404252 0.20104083 0.21225533 0.61832535
000020 8d 33 6f bd 98 bf e3 3d 8e 2e f2 3c 41 5d 4c 3e
       -0.058398772 0.11120528 0.029563215 0.19957449
000030 b2 cf f1 bc e7 0d 70 be d2 67 79 be c9 9c 4e 3e
       -0.029517982 -0.23442803 -0.2435601 0.20176996
000040 fc b6 49 3f 07 04 2f bf f3 1e 12 bd 9f d1 18 3d
       0.78794837 -0.6836552 -0.035674047 0.037309285

weight f4 [20, 20]
000000 70 50 e0 3d 9a 6b 90 3d 93 64 a3 be a2 ac 0e 3e
       0.10952842 0.07051773 -0.3191267 0.13933042
000010 74 51 53 3d 82 47 03 3e 2e 64 22 3e 2a f9 82 3c
       0.05159135 0.12820247 0.15858528 0.015987951
000020 22 75 bc 3e c1 1a 81 3e f8 2b ae 3e 28 74 1c 3e
       0.36808115 0.25215724 0.3401792 0.15278685
000030 0f ff 83 3e 12 23 8b bd 52 cb f3 3e 9e bf b4 bd
       0.25780532 -0.067937985 0.4761606 -0.088256106
000040 24 a3 df be 7c 69 31 bf e0 7f f8 bd 37 38 f6 3d
       -0.43679154 -0.6930158 -0.12133765 0.12022441
000050 32 6c 7f 3e 63 5f c8 3d ce 57 5e be ae d4 15 3f
       0.24943617 0.097838186 -0.21713182 0.5852765
000060 bc 7a 94 be 69 6b ad be 48 11 f8 be 6a 3f 97 be
       -0.2899989 -0.3387101 -0.48450685 -0.2954057
000070 52 88 a4 3e e3 ee 09 be 3f 10 fa 3c aa f2 8f 3d
       0.32135254 -0.13470034 0.030525325 0.07028706
000080 35 65 5f be 40 a8 aa bd ed d6 db be b4 db a5 3e
       -0.21815951 -0.083328724 -0.42937413 0.32394183
000090 13 00 f0 3d 70 91 48 be 86 14 1d bb 46 ea 78 3c
       0.11718764 -0.1958673 -0.0023968532 0.015192574
0000a0 90 0e 81 3e fd fc 10 3e e2 88 07 be 30 50 47 bf
       0.25206423 0.14159007 -0.1323581 -0.7785673
0000b0 df 62 2f 3f b0 bb b6 bc 23 92 91 3b f9 1e 87 3e
       0.6851024 -0.022306293 0.0044424697 0.26390818
0000c0 de 18 f1 3d 47 cd 58 be 7c dc 80 be e6 75 4a 3e
       0.11772321 -0.21172057 -0.25168216 0.19771537
0000d0 24 54 5f be 29 2b a7 bc 6c bf e5 3d 8c c1 a6 bd
       -0.21809441 -0.020406323 0.112181515 -0.08142385
0000e0 69 79 c6 3d 7a ff c0 3a 78 0d 9e 3d ac 41 db be
       0.09691126 0.0014724575 0.07717413 -0.4282354
0000f0 11 be 6e 3e c8 82 ea 3c ca 2c 6d be 87 53 6b 3e
       0.23314692 0.028626814 -0.23161617 0.22981082
000100 57 5d 2e 3e 77 ce 68 3e 0c 90 ab be a3 b7 4a 3e
       0.17027794 0.2273501 -0.33508337 0.19796614
000110 f5 df 32 be e3 45 b1 3d 35 2b dd 3d 21 25 18 3e
       -0.17468245 0.08655908 0.10799257 0.14857914
000120 f4 3e b5 3e 68 e7 ac 3c 5d f6 6d 3d 76 aa 32 3d
       0.35399592 0.021106437 0.05809628 0.043619595
000130 e0 b8 d4 bd af a9 26 bc 26 43 40 3e fa 4a 69 3e
       -0.103868246 -0.010172292 0.18775615 0.22782508
000140 1b c5 d9 3e 86 ac 72 bc 2f eb 54 3e 29 09 c6 3c
       0.42533192 -0.014811641 0.2079284 0.02417429
000150 a4 d1 4c be dc 54 85 be 7f 67 9e 3d de e6 1a 3f
       -0.20001847 -0.26041305 0.07734584 0.60508525
000160 7e 4b 1a be fd 64 a0 bd 75 35 0e 3e 11 ec ee bd
       -0.1506786 -0.07831762 0.1388758 -0.1166612
000170 97 17 26 bd 19 d3 30 bd 0f f2 e2 bd 1a d6 60 3e
       -0.04054984 -0.04317007 -0.11081325 0.21956673
000180 4a f5 f0 bc a9 d0 b5 3e e5 5c af bb d4 06 8b 3e
       -0.029413838 0.35510758 -0.00535165 0.27153647
000190 2e 9a de bd a9 57 e8 3d 82 17 a9 3e 8f 88 f8 be
       -0.10869251 0.11344845 0.33025748 -0.48541686
0001a0 2f 3a 94 3e de 5f 61 3e 6b 59 2e be 59 41 bf bd
       0.2895064 0.22009227 -0.17026298 -0.09338636
0001b0 43 a7 9e bd 4f 11 47 be 54 0c 7b 3d f1 e9 10 be
       -0.077467464 -0.19440196 0.061291054 -0.14151742
0001c0 48 3c 33 be 9b 1a 34 be 8f 67 23 3f 4d 19 dc bc
       -0.17503464 -0.17588274 0.6382989 -0.026867533
0001d0 f6 6f cc be 6d e9 89 3d 82 dc 28 3e 43 8b 95 3e
       -0.3992917 0.067339756 0.16490367 0.2920781
0001e0 3f 43 db be 14 71 5d bc 59 7b 40 3d 82 68 3a bc
       -0.42824742 -0.013515729 0.046992633 -0.011377456
0001f0 40 de 01 be 0e 0a 0b bf 52 a4 69 3e 8d b9 b6 3c
       -0.12682438 -0.5431222 0.2281659 0.022305274
000200 b6 e1 8a 3e 1b 1c 6c be 51 64 1e 3e f8 40 20 be
       0.2712533 -0.23057596 0.15467955 -0.15649784
000210 62 24 12 3c b5 b5 7d 3c 31 13 88 3e a0 c4 0c 3d
       0.008919807 0.015485217 0.26577142 0.034367204
000220 8f de 0c be f9 fc 2f be e2 33 8d 3d 6e 5d 44 be
       -0.13756774 -0.17186345 0.068946615 -0.19176266
000230 c0 15 71 3e f4 71 e9 3e 02 8b 94 3e 95 db f9 bc
       0.23543453 0.45594752 0.29012305 -0.030500213
000240 50 79 ae 3e 08 3d be 3d 2f 31 c6 be dc c2 4b 3e
       0.3407693 0.092889845 -0.387094 0.19898552
000250 27 9e 37 bd 39 de 27 3b ce 11 a2 3d e4 10 a7 3d
       -0.04482856 0.0025614633 0.07913552 0.081575185
000260 35 b6 86 3e 15 41 2d be e1 57 a5 3d 7d 72 97 be
       0.26310888 -0.16919358 0.08073402 -0.29579535
000270 0f 74 b6 3d 06 01 fb 3d d9 6b 44 be 0e ae 5e 3e
       0.08908855 0.122560546 -0.19181766 0.21746084
000280 82 0f 92 3e 5c 48 ac bd 86 27 12 bd 1c c4 3a 3e
       0.28527457 -0.08412239 -0.035682224 0.18238872
000290 16 e0 98 be 15 7c e0 3b 7e 32 80 be 5b ad ab b6
       -0.29858464 0.006850729 -0.25038522 -5.1163784e-06
0002a0 89 d8 48 be 25 bb cd bd 35 38 12 3e 5c 13 8d 3d
       -0.19613852 -0.100454606 0.14279254 0.06888458
0002b0 28 0a 02 3d 7a 5c 93 3d 32 8d bc 3c 77 37 8c 3e
       0.031747967 0.07195373 0.023016546 0.27386066
0002c0 17 8c d6 3e 21 fb 12 3f 41 99 25 3e 90 a4 74 be
       0.41903755 0.5741444 0.16171743 -0.238909
0002d0 de 77 10 3e cb a2 db 3c a9 fb dc 3e 41 4a 17 3d
       0.14108226 0.026811024 0.4316075 0.03693605
0002e0 d4 6b 06 3f e0 b1 91 3e 4b e6 32 3e dd 7f 63 3e
       0.5250828 0.2845602 0.17470662 0.22216745
0002f0 7f 02 ca 3e 8c 5d 2a 3e f3 b1 c2 3d 5d 72 9d be
       0.3945503 0.16637248 0.09506597 -0.30751315
000300 45 11 7f bd db 8d 9f 3e 38 ca b9 bd 3d b5 4b bd
       -0.06227233 0.31162915 -0.09071773 -0.04973339
000310 35 b6 ec 3e 55 d9 19 3e fa 92 60 be 5e a2 cc 3c
       0.46232763 0.15024312 -0.21931067 0.024979766
000320 41 1e 32 3c d5 42 86 3e ef 32 d4 be 61 4b 55 3f
       0.010871471 0.26222864 -0.4144511 0.83318144
000330 57 06 11 bf 13 f3 ca be 16 c0 58 be eb 41 c0 be
       -0.566503 -0.39638576 -0.21167025 -0.3755029
000340 f3 2e 36 3f 17 75 fc be 62 f2 c7 3d 79 e1 92 bd
       0.7116539 -0.49308082 0.09763028 -0.07171912
000350 fe d1 28 bf fd af 3a be 5f 45 d0 be 0f ee 82 3d
       -0.6594542 -0.18231197 -0.40677926 0.06393062
000360 17 05 8a bf cc a1 7a bd 22 6a ac 3d 5a ca a8 be
       -1.0782803 -0.061189458 0.08418681 -0.32966882
000370 77 9d de be b3 df 0b 3e 3c 1f cf 3e 80 ea 1e be
       -0.4347951 0.13659553 0.40453517 -0.15519142
000380 6e b8 0e 3d f6 ac 8c 3d 96 0f 0e 3d b4 cf db bc
       0.034843855 0.06868927 0.034682833 -0.026832439
000390 26 09 aa be f9 87 b9 3e 6f 5f 62 3d 9f d7 c2 3e
       -0.33210105 0.3623655 0.055266794 0.3805513
0003a0 4e f6 30 bd 05 47 17 bd f0 cc b7 3e 2d f5 7b be
       -0.043203644 -0.036932964 0.35898542 -0.24605246
0003b0 77 d3 7a bd 7e 2c 0c 3e ac 8a 5c 3e fa 7b 68 3c
       -0.061236825 0.13688847 0.21537274 0.014189715
0003c0 3b 34 b4 be 6e 28 0f 3e 68 b2 07 3e e3 0c 4c be
       -0.351961 0.13980266 0.1325165 -0.19926791
0003d0 59 04 8f be 83 99 98 3e a4 0f 6b bc 79 23 79 be
       -0.27933004 0.2980462 -0.014346991 -0.24329938
0003e0 21 29 18 3e 07 a6 51 3e 98 4d 14 be 22 24 8b 3e
       0.1485944 0.2047349 -0.14482725 0.27176005
0003f0 52 d3 4b 3e a3 20 ba bd ae 36 2b bb 89 c0 3e 3d
       0.19904831 -0.09088256 -0.002612512 0.046570335

bias f4 [20]
000000 b5 e5 8b 3e d1 5b c3 bc 42 a7 27 3d 89 95 cb bd
       0.2732369 -0.023847492 0.040930994 -0.09940631
000010 ec ab 87 be ab 6e 8b 3d 35 5a 88 3d 8a 08 e1 bd
       -0.26498353 0.068082176 0.066578306 -0.10987957
000020 b5 ec 1b bd b6 1d 26 bd be a1 94 3d cc 33 e7 3d
       -0.03806754 -0.04055568 0.072574124 0.11289176
000030 e2 7d ed 3d cd 46 df 3e 8d 77 91 be a0 f0 27 bc
       0.11596276 0.43608704 -0.28411523 -0.010250241
000040 31 4b 19 3e 8c 20 c0 3d 80 20 6d be 7e 68 53 3d
       0.1497009 0.09381208 -0.23156929 0.051613323

weight f4 [20, 20]
000000 10 55 93 3e 9d 16 ac be fe 4b 75 3d f0 ee 4d 3e
       0.28775835 -0.33611003 0.059886925 0.20110679
000010 1c 6b 65 be 1b ce 41 bd e3 25 71 3e b3 f5 bd 3e
       -0.2240414 -0.047315698 0.23549609 0.37101516
000020 3b 28 18 bf 27 d1 b5 3d 9e e1 ae 3e 75 8c a1 3e
       -0.59436387 0.08877783 0.34156507 0.31552473
000030 a1 8a 50 3e 25 b3 83 3e 95 c6 88 3e 53 0e 73 bd
       0.20365383 0.25722614 0.26714006 -0.059339833
000040 3f 6f c6 3e ff 0f 52 be 5b 3b e6 bc 1e 1b 9e be
       0.3875675 -0.20513915 -0.028104475 -0.30880064
000050 3f 6d 83 3e 20 4b 4d bd d5 1e fc 3d f6 58 ed 3a
       0.25669286 -0.050120473 0.12310568 0.0018108177
000060 2c 37 51 3d 42 e3 b9 3e d9 8d 5d 3e a4 3c 73 be
       0.051078007 0.36306196 0.21636142 -0.23753601
000070 36 9c c1 bd 1a a0 0f 3e 05 79 6c be f7 bc b8 3e
       -0.09453623 0.14025918 -0.2309304 0.3608167
000080 fe a0 24 bd 65 f2 0b 3d 4f 6d a8 bd f5 60 e7 3e
       -0.040192597 0.034166712 -0.08223974 0.4519116
000090 2b 32 82 bc df 78 c2 3e 5a 0f 85 3e 73 e5 32 bc
       -0.015893063 0.37982842 0.25988275 -0.010918963
0000a0 0b b9 a4 be 6e a6 af bd d7 1b e8 3d e5 8b 84 be
       -0.32172427 -0.08576666 0.11333435 -0.2588798
0000b0 b5 8b 12 3e 7c df 26 3e f7 5f 54 3e 29 62 17 3d
       0.14311107 0.1629619 0.20739733 0.036958847
0000c0 b6 8d 30 3e 31 3c 88 3e 53 6e d1 be cf 38 6b be
       0.17241558 0.26608422 -0.40904483 -0.2297089
0000d0 a3 66 01 be c3 07 eb 3d 59 8c 2d 3d b9 c8 de 3e
       -0.12636809 0.1147609 0.042370174 0.43512514
0000e0 da 9c 9d 3e e3 22 f6 3d 54 3d 0d be 59 9e 12 3e
       0.3078373 0.12018373 -0.13792926 0.14318217
0000f0 20 6d 7b 3e df 7f 06 bd c9 16 7b be ef a2 e8 3c
       0.24553347 -0.03283679 -0.2452041 0.028398005
000100 90 58 81 be 9f 3c 42 be 58 f5 f2 be 23 8d c7 be
       -0.2526288 -0.18968438 -0.47452807 -0.38974866
000110 63 ef 2f bc fd b9 c2 be d3 ce 3a 3e 50 bc 6b bd
       -0.010738227 -0.38032523 0.1824296 -0.057552636
000120 75 35 96 bd fa 48 36 3e f4 77 12 3d 0d bf b0 3e
       -0.07334415 0.17801276 0.035758927 0.3452076
000130 18 14 1b bd e8 c5 ba bd 56 0f d4 bd 49 79 d3 3e
       -0.03786096 -0.09119779 -0.103544876 0.4130347
000140 6f 55 63 3e cd f3 6b 3c b7 4b d4 bd 2f 7e d0 3c
       0.22200559 0.014401388 -0.10366004 0.025450794
000150 60 ee ab 3e 10 f3 d4 be 07 cd 1f be ba 34 27 be
       0.33580303 -0.41591692 -0.15605555 -0.16328707
000160 33 bd 91 3e c3 cd 5e bc 9a 87 ee be 43 44 a1 be
       0.2846466 -0.013598862 -0.4658783 -0.31497392
000170 00 79 5e bb f5 80 1b bf 8f 2d 1f 3f c1 82 03 3d
       -0.0033946633 -0.6074365 0.6217889 0.03210712
000180 8a 95 86 be 2e 8e 26 be 08 8e d3 3e 42 8d 30 3e
       -0.26285964 -0.16265175 0.413193 0.17241386
000190 1f 01 25 be 7d f9 1b bc 1c 9b 98 bc 8c e3 41 be
       -0.16113709 -0.009519932 -0.01862865 -0.18934458
0001a0 05 e0 80 be 16 24 79 bd cc 94 ea 3d d6 49 d9 be
       -0.25170913 -0.06082543 0.11454162 -0.42439145
0001b0 fe 51 d1 3d b2 2b dd bd 8b 50 da bd fc 14 8d bd
       0.10220717 -0.1079935 -0.106598936 -0.06888768
0001c0 a8 31 e2 3e d6 86 0f 3e 10 23 ca 3e f6 12 ad bb
       0.4417851 0.1401628 0.39479876 -0.0052818013
0001d0 31 a6 d5 bc 00 b7 18 3e 77 8b 40 3e 22 38 05 bf
       -0.026080223 0.14913559 0.18803202 -0.52038777
0001e0 a4 7d b2 3e c3 bf 2b be 09 57 11 3e 70 d9 72 3e
       0.3486148 -0.1677237 0.14193358 0.23715758
0001f0 72 64 e3 bc bf b3 91 3d b5 13 03 be 0e 9c 88 3e
       -0.027757857 0.07114362 -0.12800486 0.2668156
000200 5d bd d4 bd 11 8c dc 3d e1 a4 95 3e 03 a8 ee 3d
       -0.10387681 0.10768903 0.29227355 0.116531394
000210 4e 79 58 be 84 76 c3 3e 7c 17 9c be b4 3f e2 3e
       -0.21140024 0.38176358 -0.30486667 0.44189227
000220 28 6c 46 3e 95 a9 17 bf 2b e5 ac be b4 0d 34 3e
       0.19377196 -0.59243137 -0.3376859 0.17583352
000230 c2 c1 26 be 1b 7e 96 3e e6 9f 1f be cb 2a 71 3e
       -0.1628485 0.29393086 -0.1558834 0.2355148
000240 01 c8 64 3d 4b 25 1a be 6f 07 21 be 9a 37 7b 3e
       0.0558548 -0.15053289 -0.15725492 0.24532929
000250 a2 b9 ec 3e 9b 98 22 3d 7d a4 85 3e a6 61 3b be
       0.46235377 0.039696317 0.26102057 -0.18298969
000260 44 b3 a5 bd 8b 19 16 be 39 a3 53 3e 26 5f 79 3d
       -0.08090833 -0.14658181 0.20667733 0.060881756
000270 66 eb 62 be fa ca 89 3e 3e a3 ba 3d 58 28 ec bc
       -0.2216011 0.2691267 0.09113167 -0.028827831
000280 98 f4 39 be 93 13 cf bd 5b 76 81 be 96 ff f0 3e
       -0.18159711 -0.10111155 -0.2528561 0.47069997
000290 30 17 82 3e 64 82 0b 3e c1 e9 c2 bd f8 bd 1b 3d
       0.25408316 0.13623959 -0.09517241 0.038022965
0002a0 5b c9 9b 3e 8f c2 0d 3e f2 3a c1 be 73 04 8e 3e
       0.3042706 0.1384375 -0.37740284 0.2773777
0002b0 0f b7 95 be 89 e6 c5 be e3 bb ab 3e 60 13 2f be
       -0.29241225 -0.38652447 0.33541784 -0.17097235
0002c0 91 a8 d1 3d b3 ac 7e bb e0 98 bc 3e 50 93 76 be
       0.102372296 -0.003886026 0.36835384 -0.24079633
0002d0 c5 36 06 3f 40 e3 5c be 13 fa 9b bd 2a c1 c2 bc
       0.5242732 -0.21571064 -0.07616057 -0.023773748
0002e0 44 33 91 be a3 20 bb 3e b7 e7 a9 be 3e 82 03 3e
       -0.28359425 0.36548337 -0.33184597 0.12842652
0002f0 4d ae f4 bd 52 40 ae bc 3b 21 b4 3d 7c 67 ea 3d
       -0.11947308 -0.021270905 0.08795401 0.11445519
000300 34 8a 05 be 63 c8 0b 3d e4 82 5a be db 79 b3 3e
       -0.13041002 0.03412665 -0.21338993 0.35053906
000310 96 2a 1f bd 9a 19 5a 3d 2c 91 f3 3d 80 a0 56 be
       -0.038858972 0.05324707 0.11892924 -0.20959663
000320 8d b2 73 3e 0c b0 f1 bc d6 3b b9 3d d7 32 78 3c
       0.2379858 -0.029502891 0.09044616 0.01514884
000330 81 9b 36 3d 07 d7 0c 3e 5b fb fe 3d 1a 20 a0 bd
       0.044581894 0.13753901 0.12450286 -0.07818623
000340 4a 2e 3f be 84 68 c8 3d 4d 58 12 be 59 f9 2b 3e
       -0.18670002 0.0978556 -0.14291497 0.16794337
000350 2f 6f 81 3c 32 b9 8c 3e 9c ed d9 be 1c 9b 95 3e
       0.015800087 0.27485043 -0.42564094 0.29219902
000360 9a 15 96 3d 86 0e 97 be a1 36 40 be 9f fd 8b be
       0.07328339 -0.29503268 -0.1877084 -0.27341935
000370 7d bf d4 3a 27 ee 43 3e a6 81 c9 bd 59 79 44 be
       0.0016231384 0.19133817 -0.098391816 -0.19186915
000380 c5 4a 6a 3e d7 b4 8d be f6 3a e4 3b 5b e7 c1 bd
       0.22880085 -0.27677032 0.0069650365 -0.09467956
000390 8e 82 ab be 71 b5 f2 3d af 69 3e be 0f 70 01 be
       -0.33498043 0.118510135 -0.18595003 -0.12640403
0003a0 16 1c 91 3e c2 2c 85 3e f2 e3 5b 3d f5 2c 80 3e
       0.2834174 0.2601071 0.053684182 0.250343
0003b0 31 35 91 3b 61 66 29 3f c7 4c 66 bd 82 02 7d 3c
       0.0044313897 0.6617184 -0.056225564 0.015442492
0003c0 81 24 c8 be 42 86 d1 3d fc 65 d3 be d2 28 2b 3d
       -0.3909035 0.10230686 -0.41288745 0.041786976
0003d0 b3 88 60 3e 1d 5e dd be 0a 4e 2a bc 67 00 94 3e
       0.21927147 -0.43235865 -0.0103945825 0.28906557
0003e0 ec cd 82 3e 72 43 3f 3e c2 99 5a 3d 3d c9 3b bd
       0.2554773 0.18678072 0.05336929 -0.045846213
0003f0 1d b6 6d be b1 9f f8 be 6c 46 af 3e 1a 40 4d bf
       -0.23214002 -0.48559335 0.34233415 -0.80175936

bias f4 [20]
000000 21 60 7a 3e a0 af 9c 3a 8e a9 36 3d a1 3a 17 3e
       0.24450733 0.0011954196 0.044595294 0.14768459
000010 eb ce 66 be 77 2a ef 3d 4b 36 8b 3e f8 7e ff bd
       -0.2253987 0.116780214 0.2718986 -0.12475389
000020 d9 c3 60 be 91 92 25 3e 2b 70 21 3b eb a1 31 be
       -0.2194971 0.16169192 0.0024633508 -0.17346923
000030 e0 32 55 be 78 28 3a 3d 43 e7 e8 bd 98 08 f0 3b
       -0.20820189 0.04544875 -0.11372235 0.007325243
000040 04 df a2 bc 24 df ae be 45 e3 c9 bd ab 2a 06 be
       -0.019881733 -0.34154618 -0.09857801 -0.13102214

weight f4 [20, 20]
000000 a3 be 66 3d 41 6c 78 3e 8d 84 a8 3e 62 a6 04 be
       0.05633415 0.24260046 0.32913628 -0.12954095
000010 38 1d 0b 3f 5c 99 8b bc 6d 0a a3 3e 12 c6 93 be
       0.5434146 -0.0170409 0.31843892 -0.28862053
000020 e3 42 46 3e 9a e6 98 3d 07 02 5b 3e c0 ba 9e 3d
       0.19361453 0.07465859 0.21387492 0.077504635
000030 23 aa c2 3d 13 f9 99 3e 71 f3 5f be f4 45 1a 3d
       0.09505107 0.3007284 -0.2187021 0.03766437
000040 f1 8b 06 3e 9f ad bf 3e 5e 7a 96 3e 95 cf 0c be
       0.13139321 0.3743715 0.29390234 -0.13751061
000050 d0 24 da bc d4 73 b3 3d e8 84 4d be 25 43 60 3d
       -0.026628882 0.08762327 -0.20070231 0.054751534
000060 ba 72 7b 3e 02 eb a3 3e 6c 73 6d 3e 8b 5b 2d bd
       0.24555483 0.32015234 0.23188561 -0.04232363
000070 07 02 37 be 43 08 91 3c f6 b6 91 be 07 17 5f be
       -0.17871867 0.017704135 -0.284599 -0.21786128
000080 9c b7 6d be e8 b1 01 3f da 2f d2 be f9 76 e5 bd
       -0.23214573 0.5066209 -0.41052133 -0.11204333
000090 49 8b 5d 3e 6d ef a1 3e 5e 74 88 be 84 d9 20 3c
       0.21635164 0.3162798 -0.2665128 0.009817485
0000a0 f0 ef ea be e6 1f 8b be 82 a6 04 3e 44 23 2a bd
       -0.45886183 -0.27172774 0.12954143 -0.04153754
0000b0 8d e5 0c be 96 c2 90 3e 25 6d 36 bf 03 8c 75 3e
       -0.13759442 0.28273457 -0.7126029 0.23979191
0000c0 50 4b a1 3e b6 7f d4 3e d7 af 6d be 0c 01 e9 bd
       0.3150277 0.41503686 -0.23211609 -0.11377153
0000d0 fb 17 54 3e 6d 1f 00 be e4 31 06 bd c6 37 7e be
       0.20712273 -0.12511988 -0.032762423 -0.24825963
0000e0 0a 99 09 bf 1b fe e4 3e 54 36 1b 3c 5e 82 21 3e
       -0.53749144 0.44725117 0.009473402 0.15772387
0000f0 4b 5b fa bd b7 f8 8a bd 96 9e 00 be f8 a3 0c 3e
       -0.12224444 -0.0678572 -0.12560496 0.13734424
000100 a5 f9 ab bd c5 a8 25 be f6 c3 31 3e 31 73 33 3e
       -0.08397225 -0.16177662 0.1735991 0.17524411
000110 69 dc 24 3d de a4 30 3e 24 e6 89 3e e2 ac 09 bf
       0.040249262 0.17250392 0.26933396 -0.53779423
000120 87 ec 20 3d b5 cf 99 3e 7a 93 9d 3c cf e7 57 3d
       0.03928807 0.3004128 0.019235361 0.052711304
000130 12 a4 1d be 42 8a 1b 3f 78 48 41 3d 06 44 ef be
       -0.15394619 0.6075784 0.047188252 -0.46731585
000140 97 48 bd 3e 1d 86 cf be 47 f2 c5 be bb b7 91 bc
       0.36969444 -0.40532008 -0.38661405 -0.017787805
000150 a2 f6 de 3b 7f d2 e9 3d 2b ab 96 bd 93 38 b7 bb
       0.0068043033 0.11417102 -0.073568664 -0.005591461
000160 3c 1a 25 3c f0 2c 5c be 80 fb 09 3e df ce 4b bd
       0.010077056 -0.21501517 0.13474846 -0.049757835
000170 2a 1b c3 3d 38 f7 aa 3e a4 a3 94 bd 80 79 32 3e
       0.095266655 0.33391738 -0.072577745 0.17429161
000180 01 44 ac bd ca 6d 94 be fb d1 19 bf fb c6 18 3d
       -0.08411408 -0.28990012 -0.6008603 0.037299138
000190 b2 d5 30 3d e6 dc c1 bd 59 3a bb 3d f5 05 b3 3d
       0.043172546 -0.09465961 0.09141988 0.087413706
0001a0 87 84 0d 3e 3b d6 c9 bb af 32 0b be dd 44 58 3d
       0.13820086 -0.0061595715 -0.13593553 0.05280005
0001b0 83 91 88 3e bf 69 a8 3d ff 88 7f be c8 2d b0 be
       0.26673517 0.082232945 -0.24954604 -0.34409928
0001c0 e0 a6 32 be 93 2a 20 3e 4f d0 25 be 88 9c 24 be
       -0.1744647 0.15641241 -0.16192745 -0.16075337
0001d0 86 9c a3 bd 83 28 36 bc f6 ff d1 3e 68 d7 a2 3e
       -0.07988839 -0.011118057 0.41015595 0.31804967
0001e0 b6 5f 00 be 40 ab ac 3e 52 6f 8f 39 5e 13 ef bd
       -0.12536511 0.33724403 0.00027358026 -0.11673616
0001f0 80 6c ae be c0 63 a4 3e 32 ef 75 3b 33 c0 07 be
       -0.34067154 0.32107353 0.0037526605 -0.13256912
000200 ea 03 67 be 3d 7c 73 3e a3 54 1f be 96 67 e5 be
       -0.22560087 0.23777862 -0.1555963 -0.44805592
000210 c1 da 85 3e 07 e2 70 be 8b ea 3d 3e 41 8f 7e 3e
       0.26143458 -0.23523723 0.18546502 0.24859335
000220 7c a3 06 3f 60 7f 98 3d ab 41 fb bd 2c 55 ad be
       0.5259321 0.0744617 -0.122683845 -0.33854043
000230 f4 e5 8e be 59 36 c3 bd fb ee c0 be 49 c6 38 3e
       -0.27909815 -0.0953185 -0.37682328 0.1804439
000240 ca 05 3d bf 1d 49 b6 3e 48 08 b7 3e 1c 70 51 3e
       -0.7383696 0.35602656 0.35748506 0.20452923
000250 39 e9 dc bd 86 b9 d2 bd b0 52 d9 3e 4b ec 63 be
       -0.10786671 -0.10289292 0.42445898 -0.22258107
000260 74 00 8e 3e d9 6d 92 be 5a a3 5e be b0 c3 05 3e
       0.2773472 -0.28599432 -0.21742001 0.1306293
000270 17 fa 40 3d 79 ad 54 be 78 97 c0 be 86 98 f3 bd
       0.047113504 -0.207693 -0.3761556 -0.11894326
000280 1a 86 77 3e 35 94 be bc fe c7 59 be 58 32 98 be
       0.2417225 -0.02326403 -0.21267697 -0.2972591
000290 de 3c 25 3e 19 d7 10 3e 8f 9a 7f be 98 f5 09 be
       0.161365 0.14144553 -0.24961303 -0.13472593
0002a0 56 17 a1 3d b2 0d bb bd 52 b5 93 3d df ec 8f bd
       0.07865779 -0.091334715 0.072123185 -0.070276015
0002b0 2c 04 8a 3e 13 b7 13 3e 18 df 67 3e f7 5e 89 be
       0.26956308 0.14425306 0.22643697 -0.26830265
0002c0 28 d0 3d be 4e b4 43 be 9c 98 30 3e 45 bf 38 3d
       -0.18536437 -0.1911175 0.17245716 0.045104284
0002d0 b2 e1 b0 3e 11 00 11 3d 49 20 17 3c 72 07 44 be
       0.34547192 0.035400454 0.009224006 -0.19143465
0002e0 7e de 22 be 7f d8 d3 bd 7a b9 df bd 3d af e5 3d
       -0.15905187 -0.10344028 -0.10924049 0.11215065
0002f0 06 9b d5 bd 96 37 a4 3e c7 8d 37 be d3 65 15 be
       -0.10429959 0.3207366 -0.17925178 -0.14589624
000300 7e 5c d0 be b6 d4 66 3e 2e b8 c9 3e af 59 01 be
       -0.40695566 0.2254208 0.3939833 -0.12631868
000310 6d bf 83 bd 2d 69 04 bf 7f 3f 1d be 3d 5b 80 3d
       -0.06432996 -0.51722986 -0.15356253 0.06267402
000320 5a 0f 3b 3d ea 8e 91 3e 7e 36 63 3e bf a8 4c 3e
       0.045668937 0.28429347 0.22188756 0.19986247
000330 d2 5a 6c be 9e 48 d9 3d 86 3a f8 3d 5c bd ac b6
       -0.2308152 0.10609554 0.121205375 -5.148044e-06
000340 e9 31 8e 3e 33 b2 9a 3d aa 2c 69 be 7b ff 08 be
       0.27772453 0.0755352 -0.22770944 -0.13378708
000350 5d 49 16 3d 6d 3d af 3e d6 16 1a 3e b0 82 cf be
       0.03669106 0.34226552 0.15047774 -0.40529394
000360 6a 98 74 3c fa 55 02 bf 19 4f 93 bc 98 34 79 3d
       0.0149289165 -0.5091244 -0.017982053 0.060841173
000370 6e d0 34 3d 3d 7e 26 3e 26 f2 87 bc 9a 6e 04 be
       0.044144087 0.16259094 -0.016594958 -0.12932816
000380 4c 6d 51 be 05 68 ef 3d 9b c3 a7 3d 28 1d 0b be
       -0.2045185 0.11689762 0.08191606 -0.13585341
000390 ad 62 a1 be e7 75 35 be 06 f8 f8 bd 1f 0e 0f be
       -0.31520596 -0.17720757 -0.12156682 -0.1397023
0003a0 95 ec 7e be 05 ff d1 bd 0b fc c3 bc 6b 54 94 3e
       -0.24894936 -0.10253719 -0.023923894 0.28970656
0003b0 5a 08 60 3e cd bc 88 3e 32 35 a1 be fa 1a 32 3e
       0.21878186 0.26706544 -0.31485897 0.17393103
0003c0 e9 86 84 3e ff 47 80 bd b1 e2 b2 3d 25 90 93 3c
       0.25884178 -0.06263732 0.08734644 0.01801307
0003d0 83 06 80 be 09 6c d8 be 9c 31 45 3e e6 84 b9 be
       -0.25004968 -0.42269924 0.19257206 -0.36234206
0003e0 6b 12 1b 3e 05 eb f0 3b 5c 78 51 bc 39 c4 10 be
       0.15143745 0.0073522353 -0.012785044 -0.14137353
0003f0 21 af fa bd 4d cb 25 3d b1 18 3c 3e d5 0c f5 3e
       -0.122404344 0.040477086 0.18368794 0.47861353

bias f4 [20]
000000 e9 3d 89 3d a7 18 dd 3c ad bd 61 be 35 c7 8d 3d
       0.067012616 0.026989294 -0.22045012 0.06922761
000010 d7 db 46 3e 9f 2c cf 3d 39 06 12 3d 3d 8e 6a 3d
       0.194198 0.10115933 0.035650466 0.057264555
000020 e3 11 4f be 8f 2b 0a 3e 9a 9d 75 3e 3f ad 20 3e
       -0.20221667 0.13493179 0.23985901 0.15691088
000030 40 be 12 3d 71 45 8e 3d be b2 8a 3e ad da 2c 3e
       0.035825968 0.06946839 0.27089494 0.16880293
000040 ab bb 08 3e 1c 04 58 be c4 f9 01 3f 9f 39 bc be
       0.1335284 -0.21095318 0.5077174 -0.3676271

weight f4 [20, 20]
000000 b2 94 20 3e 2f 96 e5 3d e0 86 ce 3d 08 cd d8 bd
       0.15681723 0.11210286 0.10084319 -0.105859816
000010 e0 2f 72 3e 7c 4d 85 3d 89 09 b0 bd 1e 7e cd bd
       0.23651075 0.065089196 -0.08595569 -0.100338206
000020 bf c2 ab 3e 47 20 09 3e c2 db ff bc 80 22 1b 3e
       0.33547017 0.13391219 -0.031232718 0.1514988
000030 eb 26 2c 3e 5f b3 88 be ee 60 40 3e fc 2b 7d bd
       0.16811721 -0.2669935 0.18786976 -0.061809525
000040 61 ff 9c 3e e8 49 2d be c5 11 b0 be e1 23 3d be
       0.3066359 -0.16922724 -0.34388557 -0.18470718
000050 c3 4f c5 39 ae 13 74 be d9 09 f1 3d ae ac 2e be
       0.00037634195 -0.23835632 0.117694564 -0.1705806
000060 2e 38 fd bd 0c 1b 00 bd fb 5a d2 bd fb ae 6f be
       -0.12364231 -0.031275794 -0.102712594 -0.23406594
000070 f9 de b7 3e 54 6a 26 be 6a 67 7f 3d fd 82 76 be
       0.35912302 -0.16251498 0.062354483 -0.24073406
000080 6c 33 42 be 64 58 91 3d d3 ec c6 be 37 92 b0 be
       -0.18964928 0.07096937 -0.38852558 -0.34486553
000090 16 a1 08 be 64 77 ca 3e 4e d7 84 3e 87 1a 1e bd
       -0.133427 0.39544213 0.25945514 -0.038599517
0000a0 9b 84 86 3e b1 93 14 3e ce 1c 75 be 94 b0 01 3e
       0.26273045 0.14509465 -0.2393677 0.12665015
0000b0 92 4c c8 be 89 86 45 be a8 96 9c bc 0b 84 c5 3d
       -0.3912092 -0.19289602 -0.019114807 0.09644326
0000c0 97 a2 99 bd 6b 0d 5d 3d 59 f5 32 3d ec 7d 89 bd
       -0.07501715 0.053967874 0.043691013 -0.06713471
0000d0 02 df 7c 3d 29 b8 d8 3e a7 c0 db 3c 8d bd a4 3d
       0.061736114 0.42328003 0.026825262 0.080439664
0000e0 b1 7b b2 3d 70 7d af be a0 d2 c4 be 63 11 5b bd
       0.087149985 -0.3427539 -0.38441944 -0.05348338
0000f0 61 4f 93 bd fd 62 89 3e 1f bd 06 3e 18 48 a7 3d
       -0.07192875 0.26833335 0.13158081 0.08168048
000100 e2 6b 0c 3e 4d cc 82 be f3 b1 ed bc 55 90 ef 3d
       0.13713029 -0.25546494 -0.029015517 0.11697451
000110 01 0f d2 bd e8 55 29 be 37 59 41 be 41 da a8 bd
       -0.10256768 -0.16536677 -0.18881689 -0.08244754
000120 f4 08 eb 3e 0a b5 5d 3e ea ef 71 3e c3 12 b4 3e
       0.45905268 0.21651092 0.23626676 0.35170564
000130 5c 26 94 bd 6a 5f 98 3e a8 80 b9 3d 35 fd 62 3e
       -0.07233879 0.29760295 0.09057742 0.22166903
000140 d7 c2 a2 be 26 00 1f be b3 f4 17 3f 2d b8 c0 3d
       -0.31789276 -0.155274 0.59357756 0.09410129
000150 bb b2 95 3d 1e d8 b4 3c f1 3c 19 be 07 e1 4f be
       0.07309481 0.022075709 -0.14964654 -0.20300685
000160 19 49 77 3e 3f 2f 77 be 73 47 08 be a3 fc 0b be
       0.24148978 -0.24139117 -0.13308506 -0.13670592
000170 2f 06 e1 be 7f 63 c5 bd 0e 29 03 bf 86 9b 40 3e
       -0.4395003 -0.09638118 -0.5123452 0.18809327
000180 9e c0 83 be 02 8f 4b b9 91 a7 f6 be 53 d4 9c bc
       -0.25732893 -0.00019412863 -0.48174718 -0.019144213
000190 be 07 ef be e7 72 11 3d 17 29 5c 3e 35 31 fe bd
       -0.46685594 0.03550997 0.2150005 -0.12411729
0001a0 88 3a 86 3e 87 17 9c 3c 1b 91 8f be 77 cb b1 3c
       0.2621653 0.019054187 -0.28040394 0.021703465
0001b0 ef 65 18 3d 5b 72 84 3d d6 09 60 be 78 1e bb be
       0.037206586 0.06467124 -0.21878752 -0.36546683
0001c0 f2 45 19 be 55 49 57 3e 08 de 8e 3c c8 50 e7 3e
       -0.14968088 0.21024068 0.017439857 0.4517882
0001d0 0c 7f 9e bd 25 b7 fd 3d d5 c7 2c be ce 8a b1 be
       -0.07739076 0.12388448 -0.16873105 -0.34676212
0001e0 a0 92 95 3e 28 69 2f bd e8 a8 1b 3d 8e 26 4f bd
       0.29213428 -0.042824894 0.03800288 -0.050573878
0001f0 8d ea dc be 42 04 2a 3e 8c dc 23 be 31 94 f2 3d
       -0.43147698 0.16603187 -0.160021 0.118446715
000200 f6 39 12 3e 4b c6 d8 3d 37 7c 5b be e5 d1 5c bd
       0.14279923 0.105846964 -0.21434103 -0.05391111
000210 a4 ae 7f bd 38 95 1a 3d 20 85 a0 3d 16 2f 10 be
       -0.06242241 0.037739962 0.078378916 -0.14080462
000220 a3 da a6 3d 0f 86 32 3e 3e 1c 2e 3d 3c 47 53 3e
       0.081471704 0.17433952 0.042507403 0.20632643
000230 cb 55 3f be 5f 1e 73 bd ec 7c 81 3e 5a 8f 3e 3c
       -0.18685071 -0.059355136 0.2529062 0.011630857
000240 9f c2 27 3e 8b 9d a3 bd 82 ea 4e bd f5 44 96 bd
       0.16382836 -0.07989033 -0.050516613 -0.07337371
000250 95 76 e8 3d 00 6d c3 3c 5a 5c 62 3d 17 c5 5e be
       0.11350743 0.023855686 0.055263855 -0.21754871
000260 74 44 48 3d 47 35 0b be 14 f3 97 be be 53 e7 bd
       0.048893407 -0.13594542 -0.2967764 -0.112952694
000270 ca 8b c2 be ca 5c 4e be 0a 89 33 be d7 44 57 3e
       -0.37997276 -0.20152584 -0.17532745 0.21022354
000280 67 0d 7b be 66 9c e8 bd 08 ae 60 bd 3c 40 5b 3e
       -0.24516831 -0.11357956 -0.05485347 0.21411222
000290 24 b7 75 bd a9 b7 b3 be de c0 bf 3c c9 f5 b7 be
       -0.05998911 -0.3510106 0.023407396 -0.35929707
0002a0 4e ab 55 be 47 6d 93 3e 7f 55 0d 3e 22 a8 0f be
       -0.20866129 0.2879431 0.13802145 -0.14028981
0002b0 02 fd 6c bd bb ff 8c 3e e2 17 08 3e ba 3c 84 3d
       -0.057858475 0.27538857 0.1329036 0.06456895
0002c0 53 66 b7 bd 64 2d 47 be 52 26 25 3d 14 b2 1e bc
       -0.08955064 -0.19450909 0.04031975 -0.009686012
0002d0 49 ac c1 bc bd 22 c4 3d 09 97 89 3e d5 23 08 be
       -0.023641722 0.09576938 0.26873043 -0.13294919
0002e0 a5 3c 04 be 94 98 8d 3b a0 81 88 be 16 85 3d 3e
       -0.12913759 0.0043211672 -0.26661396 0.185078
0002f0 5f 16 85 bc 46 b5 43 be 67 d8 00 3e 05 09 f7 bd
       -0.016246019 -0.19112119 0.12582551 -0.12062267
000300 4d 83 06 bf e7 4c ae 3e 79 41 54 be 20 b5 54 3d
       -0.525441 0.34043047 -0.20728101 0.051930547
000310 f7 dc 0f be 29 6c c5 bb 92 e6 93 be ae 07 00 3e
       -0.14049135 -0.0060248566 -0.2888685 0.1250293
000320 fb 4f 06 be 7f 0b 2b be 4e 9e df 3e 5b 61 9a 3e
       -0.13116448 -0.16703604 0.43675464 0.301524
000330 1c 6d 13 be 36 87 88 3e 48 47 d7 bc 89 d7 68 be
       -0.1439709 0.26665658 -0.026279107 -0.2273847
000340 4d 98 a5 3d 40 6d 95 be c7 f2 5d 3e 93 6a bd 3d
       0.0808569 -0.29184914 0.21674643 0.09248843
000350 4a 25 9a be 88 ab 02 be 96 36 a0 be 83 6b e4 3d
       -0.30106574 -0.12760746 -0.31291646 0.11153319
000360 68 1a 81 3e e4 6d e0 3b 7d 60 83 3e 8a 5c 94 be
       0.2521546 0.0068490375 0.25659552 -0.28976852
000370 be b8 cf be 19 60 5f 3c dd e4 ce bd dd f5 59 3e
       -0.40570635 0.013633751 -0.10102246 0.21285196
000380 84 7d b4 be 9f be d3 3c b9 76 fd bd 1f 84 00 3f
       -0.3525201 0.025847731 -0.1237616 0.502016
000390 2f e3 5d be 79 26 25 be d7 57 75 bd 43 8b 21 3e
       -0.21668695 -0.16127957 -0.059898224 0.1577578
0003a0 33 1d ae 3e 2d 5c c6 3d 9a 3f f3 3d 28 2d ea bc
       0.34006652 0.0968555 0.118773654 -0.028585985
0003b0 26 c1 01 3e b0 b2 c1 bd c4 72 80 3d b4 4f b9 bd
       0.12671337 -0.0945791 0.0627189 -0.09048405
0003c0 58 23 7f be 8e a0 1f be 3f d6 b6 3d 98 2a 1a be
       -0.24915826 -0.1558859 0.08927583 -0.1505531
0003d0 d6 6c 90 be ee 10 bb 3e bb e2 52 be 67 44 56 be
       -0.28208035 0.36536354 -0.20594303 -0.20924531
0003e0 8d a8 f9 3d ad 02 ed bd 76 ce 03 3e 17 92 00 be
       0.12190352 -0.11572776 0.12871727 -0.12555729
0003f0 3e 10 bc be 40 0a 61 3e c9 20 fc be 18 1b 0b 3c
       -0.36731142 0.21976566 -0.49243763 0.008490346

bias f4 [20]
000000 c6 09 0e be c0 82 0b be cf e9 2c 3e 30 df 47 bd
       -0.13870916 -0.13624096 0.16886066 -0.048796833
000010 bb 04 ed be 5b b3 ed 3d dd 76 40 be c1 a9 d4 be
       -0.46292672 0.11606475 -0.18795343 -0.41535762
000020 4a 95 2d 3e 55 45 3a be 95 86 5a 3e 88 7a 30 3d
       0.1695148 -0.1819051 0.21340401 0.043085605
000030 e0 a1 a6 be 11 83 ba bd 59 f6 39 be 33 84 15 3e
       -0.32545376 -0.0910703 -0.1816038 0.14601211
000040 0b b0 a2 3d 9a 9c cd 3d 31 3b c8 3e 6f d3 4c 3c
       0.07943734 0.10039635 0.3910766 0.012501582

weight f4 [20, 20]
000000 c9 e4 88 3e 31 35 d9 bc a7 00 63 bc 63 a5 f6 3d
       0.2673705 -0.026514621 -0.013855136 0.12043264
000010 f5 79 76 bd fa 19 3c 3e 1f 24 4a 3d 52 e2 c3 3c
       -0.0601749 0.18369284 0.049350854 0.023911629
000020 8e c6 c2 bc 4b 05 2e 3d b7 31 0c 3e dc c3 0b 3d
       -0.023776319 0.042485517 0.1369084 0.034122333
000030 ff 07 98 3e 29 a7 97 3e f7 b9 a4 bd 26 a8 a6 3d
       0.296936 0.2961972 -0.080432825 0.081375405
000040 cb 46 68 3d f9 9f 72 3e a4 0d 81 3d 37 ea 95 be
       0.05670814 0.23693837 0.0630143 -0.29280254
000050 68 06 48 3e ca 69 26 3e a0 79 20 be 02 52 99 be
       0.19533694 0.16251293 -0.15671396 -0.2994538
000060 f0 24 67 3e e7 eb 7d 3e 41 a0 10 be 11 b1 8b 3e
       0.22572684 0.24797021 -0.14123632 0.27283528
000070 91 02 53 3e d4 a9 1c 3e 78 c9 c2 bd 46 89 a3 be
       0.20606448 0.1529916 -0.09511083 -0.3194067
000080 58 9b b5 3e 3b 66 9d 3e 41 b6 94 bd 13 0b b9 be
       0.3547008 0.30742058 -0.07261325 -0.3614126
000090 42 ee 2e 3e 47 81 25 be 25 e3 b1 be b4 40 26 3e
       0.17083076 -0.16162597 -0.3474361 0.1623562
0000a0 a7 51 d7 be b8 53 92 3d bb eb 47 be 9e 47 e7 bd
       -0.42054483 0.07144874 -0.19523518 -0.11292957
0000b0 16 c8 e8 be 7c 12 82 be c9 d2 20 3e cf bb ca be
       -0.45465153 -0.25404727 0.15705408 -0.39596412
0000c0 e1 fb 48 be 49 90 76 3d 2a 86 3d be 78 25 70 be
       -0.19627334 0.060196195 -0.18508211 -0.23451793
0000d0 bf fe 89 be 3a cf a2 be d2 01 ce 3e 7d 6c ad 3e
       -0.26952168 -0.31798726 0.40235764 0.33871832
0000e0 df 0b 0f 3e c6 4e 65 be 25 36 80 3e fd e4 07 3e
       0.13969372 -0.22393331 0.2504131 0.13270946
0000f0 23 d3 a5 be 8a 25 29 3e c7 8f 69 be b9 26 33 be
       -0.32387647 0.16518226 -0.22808753 -0.1749524
000100 4f eb 29 be ae 57 96 bd f9 1a 03 be ac 49 2d be
       -0.1659367 -0.07340942 -0.12803258 -0.16922635
000110 46 ce 3b be 78 60 ad 3e 55 09 b1 3d db 96 20 3e
       -0.18340406 0.33862662 0.08644358 0.15682547
000120 77 74 93 3d 2d ba a9 3d ef 81 c4 3e 23 bc 8d 3e
       0.07199948 0.08287463 0.3838038 0.276826
000130 6d dd ca be 1f 00 89 bc 05 1d e7 3d 16 a7 30 be
       -0.3962206 -0.01672369 0.11284832 -0.17251238
000140 2b a7 b0 bd 12 58 85 be b5 92 09 be a4 d7 25 bd
       -0.08625635 -0.26043755 -0.1343487 -0.040488854
000150 88 f6 fa be 11 d6 72 be 5e 95 73 be 72 a0 87 be
       -0.49016213 -0.23714472 -0.23787448 -0.26489598
000160 ca 3f 94 3d 79 a9 af be 7c 72 86 3e 4a 3e b9 3c
       0.07238729 -0.34308985 0.2625922 0.02261271
000170 b6 e6 d0 be b2 b7 c0 bd eb 68 74 bd 74 b1 69 be
       -0.40801018 -0.09410037 -0.05967037 -0.22821599
000180 94 2e 74 3d 96 35 4f ba 64 bc 77 bc b2 06 b7 be
       0.059614733 -0.0007904408 -0.015120599 -0.35747296
000190 94 ea a0 bd 89 a0 db bd 4c 31 f8 be 67 e0 2d 3e
       -0.07857242 -0.10723979 -0.4847511 0.16980134
0001a0 89 e1 34 bf de 28 c2 be aa a0 0b 3b f5 39 99 be
       -0.7065664 -0.37921804 0.002130548 -0.2992703
0001b0 ad c1 92 3e 6f b2 6d be 51 1a b5 bd f9 6f 91 3e
       0.28663388 -0.23212598 -0.0884291 0.2840574
0001c0 8d f8 a2 be d9 19 86 be 43 cf 8a 3d 68 fc 7a 3e
       -0.31830254 -0.26191595 0.06777813 0.24510348
0001d0 6f d6 84 3e d2 a9 1d bd 34 75 64 3c 7b b4 00 3f
       0.2594485 -0.03849203 0.013943959 0.5027539
0001e0 fa df 05 be 72 05 0d be c6 0b 82 bd 5c 00 60 3e
       -0.13073722 -0.13771608 -0.06349902 0.21875137
0001f0 94 7e 2a 3e c1 6e 08 bd 2f 83 09 3e 29 d2 82 be
       0.16649848 -0.03330875 0.13428949 -0.25550964
000200 5b 57 5f 3e 68 95 c9 bd 12 51 cc 3d f8 61 51 bd
       0.21810667 -0.0984295 0.099764004 -0.05111882
000210 96 aa 6b be 65 e4 cb bd 5d 8d 9b 3e cb 8f 08 bf
       -0.23014292 -0.09955672 0.3038129 -0.5334441
000220 9a 12 1b bd 25 e9 50 be b4 fb bd 3d 2f d8 6d be
       -0.037859537 -0.20401438 0.09276524 -0.23226999
000230 3e 9e d0 3d 7e 2e 2f 3b c6 41 1f be 50 5e 91 3d
       0.10186432 0.0026730592 -0.15552434 0.07098067
000240 58 e5 c0 3e 90 f2 0a 3d e4 64 14 bd eb b1 ea bd
       0.37674975 0.033922732 -0.03622903 -0.114597164
000250 1d 28 0f 3e 1f c6 3c 3d ff a6 06 3e f7 b2 1a be
       0.13980146 0.04608738 0.13149641 -0.15107332
000260 1a f2 22 3e 1a 2c 2b 3d cb 07 5a 3d f1 e4 f3 bd
       0.15912667 0.041790105 0.05323009 -0.119089015
000270 6a 3c 36 be 14 f2 04 3e 6b 56 c0 be 6f e1 ed 3d
       -0.17796484 0.1298297 -0.37565932 0.11615264
000280 01 31 4e be 28 f1 cd be a3 82 78 3d 36 67 88 3e
       -0.20135881 -0.4022305 0.06067146 0.26641244
000290 fc 6a 4b 3e 76 63 6c 3e 7c 4d ca bb 17 43 9f 3e
       0.1986503 0.23084816 -0.0061737876 0.31105873
0002a0 7d 74 16 3f 57 86 f1 3c f6 27 59 be fd 7a e8 bd
       0.58771497 0.029483004 -0.2120665 -0.11351583
0002b0 8f ee 41 bd 64 02 59 bd 21 c3 aa bd 21 ca 58 3e
       -0.047346648 -0.052980796 -0.08337999 0.21170856
0002c0 53 d6 94 3e 69 1e b1 be 84 27 25 3e f8 71 88 bd
       0.29069766 -0.34593514 0.16128355 -0.06662363
0002d0 f5 89 9b be ab 59 a3 be bb ef ae bd 29 ef e6 3e
       -0.3037869 -0.3190435 -0.08541819 0.4510434
0002e0 13 9e 57 3c d1 39 13 3d ad 39 3b 3d 9a 75 71 be
       0.013160246 0.03594381 0.0457093 -0.23580018
0002f0 3a ac 00 bd 9b e7 e4 bd 86 c8 7a bd 62 b0 c6 bc
       -0.031414248 -0.11176988 -0.06122639 -0.024254028
000300 cf 4e bc be 7e 5d 68 be 14 70 0b be 60 97 d9 be
       -0.36778876 -0.22691914 -0.13616973 -0.42498302
000310 fe 54 d1 3d 6f 59 e6 be 8c 54 91 bd 38 9f a6 3d
       0.10221289 -0.44990107 -0.07096204 0.08135837
000320 24 a6 9d 3e f8 e0 87 3e 7a d1 75 3e f6 1e 62 3c
       0.30790818 0.26538825 0.2400569 0.013801327
000330 9d 63 c9 bd d7 bb 78 3c 37 c2 8d 3e 06 1f 46 bd
       -0.09833453 0.015181503 0.27687237 -0.04836943
000340 a5 01 e2 bd 85 cf 97 3e 47 fd 99 3c cd c2 97 be
       -0.1103547 0.29650512 0.01879753 -0.2964081
000350 a6 6d 84 be 61 46 b1 3c e2 c5 ef bd b4 68 a7 3e
       -0.25864905 0.021640005 -0.11707665 0.3269707
000360 0a 5a 4d bd 5a da 2c be 4d 38 cd 3c a8 2e 27 be
       -0.050134696 -0.1688017 0.02505126 -0.16326392
000370 5f 41 15 3e 97 ee 81 3e ac 73 6a 3e b5 ed 25 3e
       0.14575718 0.25377342 0.22895688 0.1620396
000380 70 37 cd be 26 1c 87 3d b6 fb 40 3d 81 81 9c be
       -0.40081358 0.06597166 0.04711505 -0.30567554
000390 e9 0a 35 3e 2f c5 8b be eb 3a 8d 3e 72 b0 78 3e
       0.17679943 -0.27298877 0.27584013 0.24286059
0003a0 c9 9a f6 3d f8 f5 b3 be 5e a2 89 be 91 3e 9a 3e
       0.12041242 -0.35148597 -0.2688169 0.3012586
0003b0 22 ba 7f 3e bd 60 d1 be 60 ed 30 3f e7 99 4c be
       0.24973348 -0.40894118 0.69112206 -0.19980584
0003c0 c1 cb 50 3e 45 06 8d bd 2a 89 bd 3e 4a 64 d5 bd
       0.20390226 -0.068859614 0.3701871 -0.10419519
0003d0 8b b0 34 be a9 44 8c 3d aa 8b 8a be 00 8d a5 be
       -0.17645471 0.068490334 -0.2705968 -0.32334137
0003e0 71 09 f6 3d d5 54 a9 3e f3 86 aa bd c2 75 32 be
       0.120135196 0.33072534 -0.08326521 -0.17427734
0003f0 4a 94 b4 3d f3 c7 31 3e 96 d9 64 3e 2a 43 c7 3d
       0.088173464 0.17361431 0.22348627 0.097296074

bias f4 [20]
000000 a4 40 a7 be 9d d2 78 be 3b b8 a3 3e eb 93 ef bd
       -0.32666504 -0.24299093 0.31976494 -0.11698135
000010 db 3e a2 3e ed b1 84 3d 24 e7 9e 3d 58 c3 d7 bd
       0.3168858 0.06479249 0.0775893 -0.10535306
000020 d0 7c 9f 3d 5e 54 b0 3d 70 25 bd bd 0d 93 89 3e
       0.07787478 0.08609842 -0.09235656 0.26870003
000030 b8 f3 cf 3d 70 e2 e5 3c c3 de 5e 3e 49 e7 b3 be
       0.101539075 0.028062075 0.21764664 -0.35137394
000040 c1 c1 11 be 3e b6 d4 3d 76 45 c2 3d f2 55 4f bd
       -0.14234067 0.103863224 0.09485905 -0.050619073

weight f4 [20, 20]
000000 e7 88 58 be 1a 4c 8b 3d dc 9c a6 be 78 32 49 be
       -0.21145974 0.068016246 -0.3254155 -0.19648159
000010 49 df 60 3c 71 fb 9c bd a2 c2 1f 3e 10 04 79 bd
       0.01372511 -0.07665146 0.1560159 -0.06079489
000020 a0 76 c2 3e 56 69 ad 3e 70 80 57 bd 20 04 38 bd
       0.3798113 0.33869427 -0.052612722 -0.04492581
000030 97 06 7c 3d 64 80 d5 3c cc 07 01 bd 75 5b 2f 3e
       0.061529722 0.026062198 -0.031501576 0.17124732
000040 c5 5a b4 be 9b 34 8d 3e 24 6a 00 bd 56 8e 9f bd
       -0.35225502 0.27579197 -0.031351224 -0.0779082
000050 0a 08 3a 3e 1d 36 f4 3e f4 17 3b 3e b5 db 58 3e
       0.18167129 0.47697535 0.18270856 0.21177562
000060 7d af 9c be 4b 35 2d 3e 8e 40 9d be ab ff 71 be
       -0.30602637 0.16914861 -0.30713314 -0.23632686
000070 a6 4b 75 3e c2 ac 4c 3d 69 f8 56 3e a6 c7 08 be
       0.23954639 0.049969442 0.20993198 -0.1335741
000080 7a c6 4b be 57 0e c7 bd fb 45 ad bb 33 f5 74 3e
       -0.19899932 -0.09719532 -0.0052878833 0.23921661
000090 fd fe cd 3e 5b 85 90 3d ef 00 94 3d ce 44 f5 bb
       0.40233603 0.070566855 0.072267406 -0.007485009
0000a0 ab fe 6d be 7f 76 bd bd 56 ce c6 3e f7 99 89 3e
       -0.2324168 -0.09251117 0.38829297 0.26875278
0000b0 ec c0 ed bd 4e 81 5f be 54 1e d7 bd fa 02 02 3e
       -0.116090626 -0.2182667 -0.105038315 0.12696448
0000c0 d5 f6 ee 3d bb 14 2d bd be 1e 3c 3e 69 ea 8c 3d
       0.11668173 -0.0422561 0.18371102 0.06880648
0000d0 4a 29 ce be 84 95 85 3c 49 09 84 3c 48 f5 2f 3f
       -0.40265876 0.016306646 0.016117709 0.68733644
0000e0 cd 3a 13 3e fa cb 0e 3e 89 1b e8 be 36 30 33 3c
       0.143779 0.13944998 -0.45333508 0.010936787
0000f0 65 da 66 3e 11 bb c8 3d f7 cc 81 3e 1f 0c 95 be
       0.22544248 0.09801305 0.25351688 -0.2911081
000100 06 73 da bd 3d be 26 be d8 9d 9d be 92 43 80 bd
       -0.1066647 -0.16283508 -0.30784488 -0.06262888
000110 d4 2d 9c bd 3a a9 4a 3e 57 88 c6 bd 84 e0 8e 3e
       -0.076259285 0.19791117 -0.096939735 0.27905667
000120 18 47 9f bd 33 58 09 3e 89 23 91 3c 7a a8 0f 3e
       -0.07777232 0.13412552 0.01771714 0.14029112
000130 92 a5 9f 3e ae 6a c0 bb 73 95 4a be 13 a5 d4 be
       0.31181008 -0.005872092 -0.19783573 -0.41532192
000140 ca 60 1d 3e aa 3c 68 3d 5b db ba 3d 75 4c d2 3d
       0.15368953 0.05669848 0.0912387 0.10268489
000150 74 94 58 3f 9e 23 f7 bd b9 d6 bb 3e 0a 7a 53 3e
       0.8460152 -0.1206734 0.36687258 0.20652023
000160 db 78 23 3e 75 f7 3e 3e ef d5 93 be 95 28 06 3d
       0.15964071 0.18649085 -0.28874156 0.032753546
000170 9b 09 89 be 80 14 a7 3d bc de 41 3d 8c 18 1f bf
       -0.2676514 0.08158207 0.047331557 -0.6214683
000180 e8 f8 7f be 8b 15 48 3d 4f 66 68 3e 7e 02 94 3e
       -0.24997294 0.04884867 0.22695278 0.2890815
000190 30 c7 ce 3d 17 26 08 be d4 db 4e be 3c 97 52 be
       0.10096586 -0.1329578 -0.20201045 -0.20565504
0001a0 d6 86 d6 be 48 10 06 3e b4 80 8c 3e de 3e 19 3f
       -0.41899747 0.13092148 0.27441943 0.5986155
0001b0 b3 3e 39 be 16 02 59 be f2 4b 9a 3e e9 d8 1a 3e
       -0.18090324 -0.21192202 0.30136067 0.15121807
0001c0 28 ea de be 49 1c 6b 3e bd 28 c1 bd b3 27 0c 3e
       -0.43538022 0.22960009 -0.09431598 0.13687019
0001d0 54 eb 96 bd 4f 47 1c be 4a f0 6d bd 12 09 78 3e
       -0.07369104 -0.15261577 -0.058090486 0.2422221
0001e0 02 3d db be c1 21 62 3e 11 f3 71 be 56 64 55 be
       -0.42819983 0.22083189 -0.23627879 -0.20839056
0001f0 8f 99 05 bc 90 2e 1f 3d 23 42 32 be 77 c0 d8 bd
       -0.008154287 0.038862765 -0.17408042 -0.10583585
000200 c7 0e 81 bc 48 17 e7 be 6e 85 d5 3d 00 2b 83 be
       -0.015754117 -0.4513495 0.1042584 -0.25618744
000210 f5 f8 81 3a 60 5b 90 be 4e af 53 be c4 59 a9 be
       0.0009916114 -0.28194714 -0.20672342 -0.33076298
000220 e4 c6 84 be ee 70 95 bd 3c b9 6e 3e 48 a8 c5 bd
       -0.25932992 -0.0729693 0.23312849 -0.09651238
000230 c5 4a c1 3e 84 70 ac be e3 81 bb 3d c8 1a 62 3e
       0.37752357 -0.33679593 0.09155633 0.22080529
000240 bc 87 74 be 29 90 1a 3e 1a 4c b9 ba 51 02 d2 bd
       -0.23879904 0.15094055 -0.001413706 -0.10254348
000250 80 c1 7e be aa fc 5b be 56 43 f2 bc 10 45 e4 bd
       -0.24878502 -0.21483102 -0.029573124 -0.11145985
000260 09 9b cb bb ee b0 2d 3e 10 bb e1 3d 7b 9f 4e 3e
       -0.00621355 0.16962025 0.110220075 0.20178024
000270 7b 67 24 3e eb 0d 5e 3d 69 b2 6a be 11 f9 37 be
       0.160551 0.054212492 -0.2291962 -0.17966105
000280 98 9c ec bd d5 fe 0b bc b2 3f 1d be 5e dd a0 bc
       -0.115533054 -0.008544643 -0.15356329 -0.019636806
000290 bb 23 a8 bd 83 77 2e be 50 93 75 3e 36 a7 dd bc
       -0.0820994 -0.17037778 0.23981977 -0.027057271
0002a0 c1 4c 04 3e 38 08 84 3e 6c c2 d1 bd 7b 8e 9d 39
       0.12919904 0.2578752 -0.10242161 0.0003005153
0002b0 90 96 82 bd d9 08 44 3e fd 84 85 bd b0 1f 06 bf
       -0.06376374 0.19144 -0.06519506 -0.523921
0002c0 77 db 47 be ba 24 28 3d 12 6d 53 bd cd 84 9c be
       -0.19517313 0.04105065 -0.05161769 -0.3057007
0002d0 60 45 83 3e 87 a4 b7 3e 9a 1d ad be da fc bb be
       0.25638866 0.35867712 -0.33811647 -0.36716348
0002e0 8c 53 c5 3d 0b f4 0c 3e 8b 20 57 3e b1 1e a8 3e
       0.09635076 0.1376497 0.21008508 0.32835916
0002f0 84 e2 44 be 03 77 55 be 7f 9c 58 be c9 56 ec bc
       -0.19227034 -0.2084618 -0.21153449 -0.028849976
000300 46 f5 3c 3e e9 3e bf bd 6c b2 4b 3e fe 92 97 3e
       0.1845294 -0.09338171 0.19892281 0.29604334
000310 55 14 fe 3d 86 48 85 3d 1e ee c7 3d 39 77 18 be
       0.12406222 0.065079734 0.09762214 -0.1488923
000320 85 76 13 3d c2 ed 9a be 93 e4 3d be 65 03 06 be
       0.0360017 -0.3025952 -0.18544225 -0.13087232
000330 1c 16 8a 3e 68 8b a1 be 67 0e 19 bd f8 35 cd 3d
       0.26969993 -0.3155167 -0.03736725 0.10020059
000340 92 3d 71 3e c4 a1 00 3e 9f 41 5a be 14 2a c0 be
       0.23558643 0.12561709 -0.21314095 -0.37532103
000350 43 48 a6 3d 57 dd 5f be 61 7d 54 3e a5 0c 50 bd
       0.081192516 -0.21861778 0.20750953 -0.05079331
000360 b6 46 80 bc c6 65 7c be ee ba f5 3e 55 f3 e0 3d
       -0.015658718 -0.24648198 0.4799418 0.10983912
000370 07 e7 d3 3c 71 15 b8 bd 1d 05 85 3e ec ae 35 be
       0.025866998 -0.089884646 0.25980464 -0.17742509
000380 91 77 3e 3e 22 29 21 be 12 32 df bd a8 1e e6 bc
       0.18600298 -0.15738347 -0.10898222 -0.02809079
000390 16 1f 87 3e c8 3d 1a 3e 5e 34 5c 3e b2 48 86 bd
       0.26390904 0.1506263 0.21504351 -0.06556834
0003a0 fc 9b 0d 3d 80 ee 3a be 6e e3 a9 bd d9 b4 b6 be
       0.034572586 -0.18255043 -0.08295332 -0.3568485
0003b0 db 74 56 be 9f bd 9b bc 40 7d b3 3e f4 6d 0e 3e
       -0.20943014 -0.019011317 0.35056496 0.13909131
0003c0 6d 04 d7 bd 23 e2 69 3c 73 e7 7b 3e 99 91 11 3e
       -0.10498891 0.014275107 0.2460001 0.14215697
0003d0 2b ab 09 3e 97 2e 79 3e f3 95 16 3e 45 3e a2 3c
       0.13444202 0.24334179 0.14705639 0.019805083
0003e0 b2 a9 0b bf 80 a9 13 bf 81 49 90 3d 8d 46 74 bd
       -0.5455581 -0.5768051 0.0704527 -0.059637595
0003f0 32 5e 8d 3e aa 74 2b be 58 15 04 3d d2 b9 13 3e
       0.27610928 -0.16743723 0.032246917 0.14426354

bias f4 [20]
000000 e9 5d de bd 0b 5a f4 bd 58 7a 87 bd 92 9d ab 3c
       -0.10857756 -0.11931237 -0.06615132 0.020949159
000010 ea 47 c1 3d 33 bb 9b bd e3 c4 73 3b b7 ec 3d be
       0.09437545 -0.07604065 0.003719621 -0.18547331
000020 2e 18 0d 3e 31 94 93 bc f7 97 1c 3d 8f 1d 8a 3d
       0.13778755 -0.018015 0.038230862 0.06743919
000030 b9 35 38 3c 80 ea c7 3c f9 8a bc 3d fc 1c 3e be
       0.011243277 0.02440381 0.092061944 -0.18565744
000040 a6 b2 96 be 0d 35 07 3d eb 15 0a be 7a 9d b3 bd
       -0.29433173 0.033009578 -0.13484924 -0.08770271
