Iter_03/Models/Noise_0/simulation_10_20/ff_1600.pt (torch, 72797 bytes, 23 tensors)

weight f4 [20, 2]
0	0x3d9d11bc	0.07669398
1	0x3e70df8f	0.23522781
2	0xbef837ae	-0.4847998
3	0xbe4459f2	-0.19174936
4	0x3c2a47fe	0.010393141
5	0x3df3623c	0.11883971
6	0x3f2fd03b	0.6867711
7	0x3f53848e	0.8262414
8	0xbce7692b	-0.02824839
9	0xbebac0df	-0.36475274
10	0x3ed8026b	0.42189345
11	0xbda68fc2	-0.081328884
12	0xbdbdf541	-0.09275294
13	0x3dc6f8d4	0.09715429
14	0x3efeeba1	0.49789146
15	0x3d932124	0.071840554
16	0xbf0ef143	-0.55836886
17	0xbe92d8fb	-0.28681168
18	0xbe5e2d37	-0.21696936
19	0x3d801393	0.062537335
20	0x3e7ad64e	0.24495813
21	0x3eaaf919	0.3339317
22	0xbe6343e7	-0.22193871
23	0xbe42fe46	-0.1904231
24	0xbf3a74a2	-0.7283422
25	0xbf616a7e	-0.8805312
26	0x3d982caa	0.07430394
27	0x3eb52553	0.3538004
28	0xbe97f6c1	-0.29680446
29	0xbf2d01cc	-0.67580867
30	0x3f3cf49f	0.7381076
31	0x3eb4b2b2	0.35292584
32	0xbf02d650	-0.51108265
33	0xbfd1b3d4	-1.6383004
34	0xbf3089c6	-0.68960226
35	0xbe9a7c7b	-0.30173096
36	0xbeb42d41	-0.35190776
37	0xbed13215	-0.40858522
38	0xbe846454	-0.25857794
39	0xbe8bb3ac	-0.27285516

bias f4 [20]
0	0x3e8ffb40	0.28121376
1	0xbf19af68	-0.60033274
2	0x3f27c5e7	0.6553635
3	0x3ee54b2b	0.4478391
4	0xbdda65b9	-0.10663933
5	0x3e83ce3e	0.25743288
6	0x3df02b5f	0.117270224
7	0x3f4d4042	0.80176175
8	0xbf89851d	-1.0743748
9	0x3d4b7d18	0.049679846
10	0x3ee1aa08	0.44075036
11	0xbf16fd17	-0.58979934
12	0xbfaa1fcb	-1.3290952
13	0x3f3c83bb	0.73638505
14	0xbf2d6854	-0.6773732
15	0x3f51f880	0.82019806
16	0xbfe09e43	-1.7548298
17	0xb97e6877	-0.00024262244
18	0xbf347d03	-0.7050325
19	0xbf08044d	-0.5313156

weight f4 [20, 20]
0	0x3e54bcdc	0.20775169
1	0x3dfced9f	0.1235001
2	0x3d5ac8d6	0.05341419
3	0xbec50e59	-0.3848751
4	0x3e626966	0.22110519
5	0x3c93dbab	0.018049082
6	0x3e734624	0.23757225
7	0x3e5ee65b	0.21767561
8	0x3e37dc2e	0.17955086
9	0x3ed61214	0.41810668
10	0x3e901d5d	0.28147402
11	0xbc3ca770	-0.01151453
12	0x3ea7436e	0.32668632
13	0x3e80c4ca	0.25150138
14	0x3f214061	0.6298886
15	0xbe90c914	-0.2827841
16	0xbc6bcb37	-0.014391712
17	0x3e0abb4b	0.13548009
18	0xbdf855d1	-0.12125743
19	0x3da70072	0.08154382
20	0x3e846045	0.25854698
21	0x3e0d3bc0	0.13792324
22	0x3d74cb2a	0.059764065
23	0xbe2d2bfd	-0.16911311
24	0xbda80b2b	-0.08205255
25	0xbedf98bf	-0.43671224
26	0xbecf892b	-0.40534338
27	0xbe438aa6	-0.19095859
28	0x3e42259a	0.18959656
29	0xbca19d8f	-0.01972845
30	0xbd7c9d6c	-0.061673567
31	0xbd9c74e0	-0.0763948
32	0xbe2046df	-0.15652035
33	0x3e092801	0.13394167
34	0xbe2e73b9	-0.17036332
35	0x3dfa7826	0.12229948
36	0x3e2c1747	0.16805755
37	0x3e8e2548	0.27762818
38	0x3d13d786	0.03609421
39	0xbc477461	-0.012173743
40	0x3ea2866a	0.31743175
41	0x3dfbbf4d	0.12292347
42	0xbe6f478d	-0.23367138
43	0xbf03aead	-0.5143841
44	0x3f1bd685	0.60874206
45	0xbd357d68	-0.04430905
46	0xbd6b20ec	-0.057404444
47	0x3e66572c	0.22494191
48	0x3e2fa6b3	0.17153434
49	0xbe867f53	-0.26269016
50	0xbe4b7ae9	-0.19871105
51	0x3e451d2a	0.19249406
52	0xbe8ff335	-0.2811524
53	0xbcc062b3	-0.023484563
54	0xb90e3531	-0.0001356199
55	0xbca0fc2f	-0.0196515
56	0x3db1cd80	0.08681774
57	0xbd837127	-0.064180665
58	0x3d195056	0.03743013
59	0xbeeecb8f	-0.46639678
60	0x3e610848	0.21975815
61	0x3d2c508e	0.04206901
62	0xbeb7a7a7	-0.35870096
63	0x3ec694e0	0.38785458
64	0x3dcba34a	0.09943254
65	0x3e614239	0.21997918
66	0xbeb3a278	-0.3508489
67	0x3dcf7b63	0.10130956
68	0xbda09a62	-0.07841946
69	0x3d3a6500	0.045506477
70	0x3dfabc9c	0.12243006
71	0x3e5abb51	0.21360518
72	0x3ea1fe0b	0.31639132
73	0xbd8d5da9	-0.0690263
74	0x3be81efb	0.0070837713
75	0x3d4cc4ed	0.04999249
76	0xbe801c10	-0.2502141
77	0xbe546bea	-0.20744291
78	0x3e4b1c17	0.19834934
79	0x3e78def2	0.24303797
80	0x3ebc03b3	0.36721572
81	0x3d721ea6	0.05911126
82	0xbe7c697c	-0.24649614
83	0x3f201d57	0.6254477
84	0xbee84886	-0.4536783
85	0xbe9bc479	-0.30423334
86	0x3d61f794	0.05516775
87	0x3e27ab44	0.16373926
88	0x3e5d3e70	0.2160585
89	0xbe3ba8e0	-0.1832614
90	0x3e2f167c	0.17098421
91	0x3dcb83f2	0.09937276
92	0xbde0999a	-0.10966797
93	0xbea8c9a5	-0.32966343
94	0xbe8e0756	-0.27739972
95	0x3e58ea69	0.2118317
96	0xbf03e597	-0.515222
97	0xbeb8f5ed	-0.36125126
98	0x3d583cd9	0.052792404
99	0x3ea2f331	0.31826165
100	0xbd8580be	-0.06518696
101	0x3e036ccb	0.1283447
102	0x3e31a0d6	0.1734651
103	0x3d6d787f	0.057976242
104	0x3e14b788	0.14523137
105	0x3e6fcab8	0.23417175
106	0xbe5bb4dd	-0.21455713
107	0xbe1b2017	-0.1514896
108	0x3d764725	0.060126442
109	0xbe82a83c	-0.25518978
110	0x3dd46631	0.10371054
111	0xbd601287	-0.05470517
112	0xbe6f0bf3	-0.23344402
113	0xbe8ce9d8	-0.2752216
114	0x3f0f36e5	0.5594314
115	0x3d1dfe56	0.03857263
116	0xbe3e55db	-0.18587439
117	0xbd8e1a78	-0.06938642
118	0x3e4062e8	0.1878773
119	0x3e93783c	0.2880267
120	0xbed52346	-0.41628474
121	0xbd412eef	-0.0471639
122	0xbd2ca256	-0.042147003
123	0x3daca972	0.08430757
124	0xbe254b3a	-0.16141978
125	0xbf0498ae	-0.5179547
126	0x3e3e96df	0.1861224
127	0x3cd0a906	0.025471222
128	0x3e961d61	0.2931929
129	0xbe911f6e	-0.2834429
130	0x3e306f60	0.17229986
131	0xbe0191b9	-0.12653245
132	0x3c28a01a	0.010292077
133	0xbd56629d	-0.05234014
134	0x3e5d7a2c	0.21628636
135	0x3df36fb1	0.11886538
136	0xbe05a21f	-0.13050126
137	0xbea3e9eb	-0.32014403
138	0x3d8b4cab	0.06801733
139	0xbe35a026	-0.17736873
140	0x3e4ec12f	0.20190881
141	0x3ee1590e	0.44013256
142	0xbda79f0c	-0.08184633
143	0x3ef28278	0.47365165
144	0x3e231e85	0.15929611
145	0x3e13b4df	0.14424466
146	0xbef5cc56	-0.48007458
147	0xbd03a93a	-0.03214381
148	0x3e1426b4	0.14467889
149	0xbe1afd96	-0.15135798
150	0x3e079020	0.13238573
151	0x3e813a52	0.25239807
152	0x3e68f416	0.22749361
153	0xbee70464	-0.45120537
154	0xbdce9e0d	-0.100887395
155	0xbe24e1bd	-0.16101737
156	0xbe7a05f5	-0.24416335
157	0xbf0244ee	-0.5088643
158	0xbe370a18	-0.17874944
159	0x3e8af3b5	0.2713906
160	0x3e0b7d70	0.1362207
161	0xbe116535	-0.14198764
162	0xbe4cd6f2	-0.2000387
163	0x3ec57d53	0.38572177
164	0xbeaf76d3	-0.34270343
165	0x3e383bb8	0.17991531
166	0xbe83290b	-0.2561725
167	0xbe21dda5	-0.15807207
168	0xbe3eea13	-0.1864398
169	0xbe26995d	-0.16269441
170	0x3e1c6989	0.15274633
171	0x3e19115d	0.1494803
172	0x3d6803d3	0.056644272
173	0xbe064ed8	-0.13116014
174	0xbd1117fe	-0.03542327
175	0x3edef871	0.4354892
176	0x3e05fcd7	0.13084732
177	0xbbfe775b	-0.007765693
178	0x3e17c122	0.14819768
179	0xbe4c02e4	-0.19922978
180	0x3dfc2ede	0.12313627
181	0x3d532b9f	0.051555272
182	0x3d5b13bf	0.05348563
183	0x3f06d54f	0.52669233
184	0x3eaf554b	0.3424476
185	0x3e818928	0.25299954
186	0x3dc13939	0.094347425
187	0xbc862d63	-0.016379064
188	0x3f262f51	0.6491595
189	0x3d398d16	0.045300566
190	0x3e07b25f	0.13251637
191	0xbe190c56	-0.14946112
192	0xbdbdac8b	-0.092614256
193	0x3da7a780	0.08186245
194	0xbe7b2721	-0.24526645
195	0x3c8ff9a4	0.017575093
196	0x3e82c39a	0.25539857
197	0xbed54b8a	-0.41659194
198	0xbe377be5	-0.17918356
199	0x3d8e8fb3	0.06961002
200	0xbbd86298	-0.00660355
201	0x3e1d82ed	0.15381975
202	0xbee2a696	-0.4426772
203	0x3f298e42	0.66232693
204	0xbec4e900	-0.38459015
205	0xbe10a580	-0.14125633
206	0xbe99a741	-0.30010417
207	0xbddb0dbc	-0.10695979
208	0x3f0b61e7	0.5444626
209	0xbf258e31	-0.6467009
210	0x3d16075e	0.03662812
211	0xbd3dff48	-0.046386033
212	0xbf07866d	-0.5293949
213	0xbebbee86	-0.36705416
214	0xbe3d60dd	-0.18493982
215	0x3e71167f	0.23543738
216	0xbeef0e6e	-0.46690696
217	0xbe3dc4d4	-0.18532115
218	0x3e2c3d5e	0.16820285
219	0xbe5a5638	-0.21321952
220	0xbec820a7	-0.39087412
221	0x3e1c4941	0.15262319
222	0x3c8db408	0.01729776
223	0x3f239bb9	0.6390949
224	0xbe70fae4	-0.23533207
225	0x3d8abb38	0.067739904
226	0xbd4ed09b	-0.05049191
227	0xbe864552	-0.26224762
228	0xbda5f86f	-0.081040256
229	0x3e728427	0.23683225
230	0x3e0dfc46	0.13865766
231	0x3f1148c4	0.56751657
232	0xbe05b14f	-0.13055919
233	0xbe873835	-0.2641007
234	0x3df19fa8	0.1179803
235	0xbde7483a	-0.11293073
236	0xbdf334ce	-0.11875306
237	0xbeab37d9	-0.33441046
238	0x3e6db47e	0.23213384
239	0x3d447d01	0.047970776
240	0xbeb870c8	-0.36023545
241	0x3dff3bed	0.12462602
242	0x3f19fa1d	0.6014727
243	0xbf35336f	-0.70781606
244	0xbdb54533	-0.08851089
245	0x3e9ce75f	0.30645272
246	0x3de4ac58	0.111656845
247	0x3d20ab47	0.039225843
248	0xbe0dce39	-0.13848199
249	0x3ec5868d	0.38579217
250	0xbe3e3317	-0.18574177
251	0x3da53c0a	0.08068092
252	0x3e6d9968	0.23203051
253	0x3e4d1d75	0.20030768
254	0x3e07f3e0	0.13276625
255	0xbd5f3878	-0.054497212

bias f4 [20]
0	0xbf373fb6	-0.7158159
1	0xbe631c2e	-0.22178718
2	0x3d28ba4d	0.041193295
3	0x3eb9650f	0.36209914
4	0x3f7b44af	0.9815168
5	0x3e8c9ada	0.27461892
6	0x3dda929c	0.10672495
7	0x3f523e1b	0.82126015
8	0x3ed3c4a9	0.41360977
9	0x3f607466	0.8767761
10	0x3f4af40b	0.7927863
11	0x3f6125bc	0.87948203
12	0xbfb9d919	-1.4519378
13	0xbf65f575	-0.8982766
14	0x3da76d14	0.08175102
15	0xbfb07291	-1.3784963
16	0x3e4e0173	0.2011774
17	0xbf9060e4	-1.1279569
18	0xbff64e65	-1.9242674
19	0x3f14a00f	0.5805673

weight f4 [20, 20]
0	0x3e3fe20a	0.18738571
1	0xbe9cd5d2	-0.30631882
2	0x3e591dad	0.21202727
3	0x3ddb7ea1	0.10717512
4	0xbe275c35	-0.16343768
5	0xbce2c3a7	-0.027681185
6	0x3d0975e3	0.03355969
7	0x3ebbbe6e	0.36668724
8	0xbf23da20	-0.6400471
9	0x3e9db38d	0.3080105
10	0xbd5bee8d	-0.053694297
11	0x3eba408f	0.3637738
12	0x3da97003	0.08273318
13	0x3d9d56f1	0.076825984
14	0x3e5d18e0	0.2159152
15	0xbe48d9e6	-0.19614372
16	0x3f0e9b23	0.5570547
17	0xbdd4a266	-0.103825375
18	0x3e003c18	0.12522924
19	0xbe43e255	-0.19129308
20	0x3e9af002	0.30261236
21	0x3d0daa85	0.03458645
22	0x3d1231b9	0.03569195
23	0x3caf9456	0.021433037
24	0x3c3c557d	0.011494991
25	0x3e81376b	0.25237593
26	0x3e7acad7	0.2449144
27	0xbe89c06e	-0.26904625
28	0xbdb9de10	-0.09075558
29	0x3e0c5d35	0.1370743
30	0xbe522ae3	-0.20524172
31	0x3ea4d556	0.32194012
32	0x3c2947e5	0.010332082
33	0x3d53c401	0.051700596
34	0xbd6b0825	-0.057380814
35	0x3ed07f3e	0.40722078
36	0xbdb1a326	-0.08673696
37	0x3edd548d	0.4322857
38	0x3ebe7add	0.37203112
39	0xbd32e82e	-0.043678455
40	0xbe80afbb	-0.25134072
41	0xbd023635	-0.031789977
42	0x3e2b4afa	0.1672782
43	0xbeceb65e	-0.4037351
44	0x3dad622f	0.08465993
45	0x3e57336f	0.21015714
46	0x3e1415e2	0.14461473
47	0xbcd68175	-0.026184777
48	0x3c063196	0.008190533
49	0x3eaa8deb	0.333114
50	0xbeff25e8	-0.49833608
51	0xbe2e3e66	-0.1701599
52	0xbdd507c0	-0.10401869
53	0x3cda6021	0.026657166
54	0xbe1f2f02	-0.15545276
55	0x3efb481f	0.49078462
56	0x3e996b5a	0.29964715
57	0x3e1155d0	0.14192891
58	0xbd2ab08e	-0.041672282
59	0x3e40f205	0.18842323
60	0x3e48f1e9	0.19623531
61	0xbc7b1c73	-0.015326607
62	0x3d550e94	0.052015856
63	0xbe8ecaaf	-0.2788901
64	0xbe888cb1	-0.2666984
65	0xbd4313da	-0.047626354
66	0xbf451e40	-0.7699928
67	0xbef02abc	-0.46907604
68	0xbe89104e	-0.26770252
69	0x3cf67ac5	0.030087838
70	0xbed4b17e	-0.41541666
71	0x3e0d7e7f	0.13817786
72	0xbe8e69c1	-0.2781506
73	0xbe140421	-0.144547
74	0xbea0b099	-0.31384733
75	0x3e7987da	0.2436823
76	0x3e66c398	0.2253555
77	0xbd928d52	-0.07155861
78	0x3d8615c9	0.06547124
79	0x3f1f8e5b	0.6232659
80	0x3ebc35cb	0.3675979
81	0xbcbf38b6	-0.023342472
82	0x3d7ffb38	0.06249544
83	0xbd76d3bc	-0.06026052
84	0x3e06f967	0.13181077
85	0xbe94fd0f	-0.29099318
86	0xbe203ff8	-0.15649402
87	0xbe437a57	-0.19089638
88	0x3ddac0da	0.10681315
89	0xbcf5fabd	-0.030026788
90	0xbeec0d9e	-0.4610414
91	0xbeae9e6c	-0.3410524
92	0x3d32a777	0.04361674
93	0xbf0ab5d4	-0.541837
94	0x3ee45b57	0.44600937
95	0x3ea2fbca	0.31832725
96	0xbe97c5f9	-0.2964323
97	0xbe24b5c4	-0.16084963
98	0x3efcbe17	0.49363777
99	0x3e45123d	0.19245239
100	0xbe474b90	-0.19462419
101	0xbdb74bd4	-0.0895001
102	0x3dde87f2	0.10865773
103	0xbe7f7735	-0.24947818
104	0xbe85d237	-0.26136944
105	0x3c43ea77	0.011957756
106	0x3c956c75	0.018240193
107	0xbed259d0	-0.41084146
108	0x3d85286f	0.06501853
109	0x3d5b179c	0.053489313
110	0xbea81ea6	-0.32835883
111	0xbd2554bb	-0.04036401
112	0x3eadcad8	0.3394382
113	0x3d96ed09	0.073694296
114	0x3eaef674	0.34172404
115	0xbd25c131	-0.040467445
116	0x3dea42ad	0.11438499
117	0x3e32e860	0.17471457
118	0x3e18a343	0.1490603
119	0xbeddc5f3	-0.43315086
120	0x3ea1fcab	0.31638083
121	0xbc5fc5bd	-0.013657984
122	0xbd4162de	-0.047213428
123	0x3e92c971	0.28669313
124	0x3d280ed7	0.041029777
125	0xbdbe8e49	-0.093044825
126	0xbdf398d3	-0.11894383
127	0x3e70735d	0.23481508
128	0xbc8d56e1	-0.017253341
129	0xbd0d49fd	-0.03449439
130	0x3ea659eb	0.32490477
131	0x3da74724	0.08167866
132	0xbd95220c	-0.072818846
133	0x3ec85321	0.39125922
134	0xbe244a6d	-0.16044016
135	0x3ec7cedb	0.39025006
136	0x3d72c77e	0.05927228
137	0xbf112d6d	-0.5670994
138	0xbe2cf425	-0.16890009
139	0x3cf95acc	0.030438803
140	0xbe1f574d	-0.15560646
141	0x3e247fc9	0.16064371
142	0xbb246c59	-0.0025088994
143	0x3e3b7252	0.18305328
144	0x3b8dede7	0.0043313387
145	0xbc068ede	-0.008212773
146	0xbe7b7507	-0.24556361
147	0x3e97db2d	0.29659405
148	0x3ea9868e	0.3311047
149	0x3e3fedba	0.18743029
150	0x3d896eab	0.06710561
151	0xbdcf4c41	-0.10121966
152	0xbe3d7e71	-0.18505265
153	0xbe19e2ae	-0.15027878
154	0x3d142c6a	0.03617517
155	0x3db40b70	0.08791244
156	0xbdad7679	-0.084698625
157	0x3eae075a	0.33989984
158	0xbc6ebb62	-0.014571043
159	0x3dd119ab	0.10209974
160	0xbd94b92b	-0.072618805
161	0xbd46332d	-0.04838865
162	0xbeae429d	-0.34035197
163	0x3efd50e5	0.4947578
164	0x3e8fcdb7	0.28086635
165	0x3ddcb23b	0.10776182
166	0x3d838238	0.06421322
167	0x3c918b35	0.017766574
168	0x3e617a5b	0.22019331
169	0xbcad70bf	-0.021171926
170	0x3dd090b5	0.10183851
171	0x3e8315c6	0.2560255
172	0xbe6408e4	-0.22269017
173	0xbe92bc0f	-0.28659102
174	0x3e9d1c9e	0.30685896
175	0xbdfd3a1e	-0.123646006
176	0xbe140357	-0.14454399
177	0xbe5abfbb	-0.21362202
178	0x3e980476	0.29690903
179	0xbeb14052	-0.34619385
180	0x3ee3aea1	0.4446917
181	0xbe6142a3	-0.21998076
182	0x3cbf0c2d	0.023321236
183	0xbe516732	-0.20449522
184	0xbeaaafb4	-0.33337176
185	0x3ee04977	0.4380605
186	0xbefb1a6b	-0.49043593
187	0x3d939239	0.07205624
188	0xbe01afd0	-0.12664723
189	0x3e54257a	0.20717421
190	0xbe8e025a	-0.2773617
191	0x3e6cd041	0.23126318
192	0xbe2d8c35	-0.16948016
193	0xbe2d5d68	-0.16930163
194	0xbeb53fbe	-0.35400194
195	0x3eaf5ed3	0.34252033
196	0x3e3e9474	0.18611318
197	0x3e200ec9	0.1563064
198	0x3e5f1b21	0.21787693
199	0xbd8fec84	-0.07027534
200	0x3e57a733	0.21059875
201	0x3cf19a8e	0.029492643
202	0x3e1f6e67	0.15569459
203	0xbcf1e839	-0.029529678
204	0x3c22fe3d	0.00994831
205	0x3dd8baa8	0.10582477
206	0x3d9745eb	0.07386383
207	0xbdf64717	-0.12025278
208	0xbe210231	-0.15723492
209	0x3e25a601	0.16176607
210	0xbe62792e	-0.22116539
211	0x3e126208	0.14295208
212	0x3d430b7c	0.047618374
213	0x3e64dbf5	0.22349532
214	0xbec6cb42	-0.38826948
215	0x3ea838ea	0.32855922
216	0x3db12d5b	0.08651229
217	0xbe97cd5c	-0.29648864
218	0xbd15d9bc	-0.0365846
219	0xbe7fc835	-0.24978717
220	0x3c6b8a20	0.014376193
221	0x3dba9903	0.09111216
222	0x3bffd7c0	0.007807702
223	0xbe967cd3	-0.29392108
224	0x3e0ab078	0.1354388
225	0xbe364b53	-0.17802171
226	0xbd6464a8	-0.055760056
227	0xbdbfde6e	-0.09368597
228	0xbedc482b	-0.4302381
229	0x3e8792bb	0.26479134
230	0xbecb9e69	-0.39769295
231	0xbd058eec	-0.032607004
232	0x3e8b2f38	0.27184463
233	0x3e76973e	0.24081132
234	0xbde4fbd9	-0.11180849
235	0x3eb5f3ce	0.3553757
236	0x3e007ee0	0.12548399
237	0x3f3c0852	0.73450196
238	0xbd8f5299	-0.06998176
239	0x3e05712c	0.13031453
240	0xbe9ff460	-0.3124113
241	0x3deb41be	0.11487149
242	0xbeb341a4	-0.35011017
243	0x3dc1ef2e	0.09469448
244	0x3e9d3046	0.30700892
245	0xbec301da	-0.3808735
246	0x3d57842e	0.05261629
247	0x3eaeceb7	0.34142086
248	0x3d9e7900	0.07737923
249	0xbbb77b59	-0.005599421
250	0x3eaa9240	0.33314705
251	0xbdf87211	-0.121311314
252	0xbe8bd9bb	-0.27314553
253	0xbec4dccb	-0.38449702
254	0x3e97b1e5	0.2962791
255	0xbf490d08	-0.7853551

bias f4 [20]
0	0xbf1b76bc	-0.6072805
1	0x3df7b749	0.12095506
2	0xbf5b8028	-0.85742426
3	0xbfa05499	-1.2525817
4	0xbd92f158	-0.07174939
5	0xbed02a6c	-0.40657365
6	0x3eb856e0	0.3600378
7	0xbeaf4934	-0.34235537
8	0x3e9b7648	0.3036368
9	0xbf96cfd1	-1.178217
10	0xbdeb4dec	-0.11489472
11	0xbf108e17	-0.5646681
12	0x3ed010be	0.40637773
13	0x3ee7233c	0.4514407
14	0x3f193c18	0.5985732
15	0x3eadc8a1	0.3394213
16	0x3fe79f7b	1.8095545
17	0x400802fe	2.1251826
18	0xbfd06ed2	-1.628382
19	0xbe25faa7	-0.16208898

weight f4 [20, 20]
0	0x3d6817ef	0.05666345
1	0x3e76a7d7	0.24087463
2	0x3e87b1fe	0.26502985
3	0x3d58e906	0.052956603
4	0x3f1946e4	0.59873796
5	0x3e5e0fa4	0.21685654
6	0x3e7a4df7	0.24443804
7	0xbe3fd5a9	-0.18733849
8	0x3e015fe7	0.1263424
9	0x3e7d4bf7	0.2473601
10	0x3e3ebd76	0.18626961
11	0x3e52c2db	0.20582144
12	0xbdd00ece	-0.10159074
13	0x3e8fce4e	0.28087085
14	0xbbe9c0fc	-0.0071336012
15	0x3e79942c	0.2437293
16	0xbbd97066	-0.0066357134
17	0x3d72d01e	0.059280507
18	0x3ef6908a	0.4815715
19	0xbe04df89	-0.12975897
20	0x3d866a88	0.06563288
21	0xbe5b50da	-0.21417561
22	0xbe9a197c	-0.30097568
23	0x3d00649f	0.03134596
24	0x3deb4028	0.11486846
25	0x3f0ff0f6	0.5622705
26	0x3ea17bd8	0.31539798
27	0x3e1a8e9c	0.15093464
28	0xbc97e0d1	-0.018539818
29	0x3dea0d11	0.114282735
30	0xbedc9d5f	-0.43088815
31	0xbe68e894	-0.22744972
32	0xbe603305	-0.21894462
33	0x3ec856c5	0.391287
34	0x3da72afe	0.08162497
35	0xbe7a2e1d	-0.24431653
36	0x3e90370a	0.2816699
37	0x3e3179c9	0.17331614
38	0xbe095986	-0.13413057
39	0x3e915d2e	0.28391403
40	0xbeaf0f1c	-0.34191215
41	0xbf0587bf	-0.5216026
42	0x3dce3540	0.100687504
43	0xbe117b88	-0.1420728
44	0xbee9d86c	-0.4567293
45	0x3e948412	0.29007012
46	0xbef666ac	-0.48125207
47	0x3e90c2c8	0.28273606
48	0x3ea79333	0.32729492
49	0x3f02947a	0.5100781
50	0xbe8527b0	-0.26006842
51	0xbe4d5795	-0.20052941
52	0x3d93fdf8	0.07226175
53	0xbd82fe1f	-0.06396126
54	0x3e84f86e	0.25970787
55	0xbe604b48	-0.21903718
56	0xbe8491fd	-0.2589263
57	0x3ef355e4	0.47526467
58	0xba16afab	-0.00057482225
59	0x3ec9ab1e	0.39388365
60	0xbdf20d54	-0.118189484
61	0xbe37655b	-0.17909758
62	0xbe1b6f05	-0.1517907
63	0x3d9c8ca8	0.076440156
64	0xbdd18261	-0.10229946
65	0xbe295d93	-0.16539602
66	0x3e49c9e0	0.19705915
67	0x3e5c907a	0.21539488
68	0x3e071564	0.13191754
69	0x3e007640	0.12545109
70	0x3e58d820	0.21176195
71	0xbf193893	-0.5985195
72	0x3e29a0e4	0.16565281
73	0x3e78a379	0.2428111
74	0x3dba6eac	0.0910314
75	0x3c23c872	0.00999652
76	0xbe001635	-0.12508471
77	0x3f2cd488	0.67511797
78	0x3ce7d4ed	0.028299773
79	0xbed18266	-0.409198
80	0x3eac75df	0.33683679
81	0xbf180da3	-0.5939581
82	0xbeb25109	-0.3482745
83	0xbe83f8c2	-0.25775725
84	0x3b9185a3	0.0044409796
85	0x3d9bfec8	0.07616955
86	0x3a3cb034	0.0007197887
87	0x3df6406f	0.120240085
88	0x3e8790c4	0.26477635
89	0xbed3ec68	-0.413913
90	0xbcbd3f0a	-0.023101348
91	0xbe36b5ae	-0.17842743
92	0x3ebd9562	0.37028033
93	0x3e075638	0.13216484
94	0x3d34688a	0.04404501
95	0xbe207c2d	-0.1567237
96	0x3ce5d22f	0.028054325
97	0xbd04963a	-0.03236983
98	0xbf16da64	-0.5892699
99	0x3e47c92d	0.19510336
100	0xbd9c7c65	-0.07640914
101	0x3e9192f9	0.28432444
102	0x3e4d5aef	0.2005422
103	0x3e10871e	0.14114043
104	0x3eaac091	0.33350042
105	0xbe7aa7a7	-0.24478017
106	0xbe819ded	-0.253158
107	0xbe6c50d2	-0.23077706
108	0x3dc4cdd3	0.0960957
109	0x3b80e720	0.0039338022
110	0xbd1dab65	-0.038493533
111	0xbe94aeb5	-0.2903954
112	0xbe54e4d3	-0.20790415
113	0x3e9e6492	0.30936104
114	0xbf408897	-0.7520842
115	0xbd87e882	-0.06636144
116	0xbe5483c5	-0.20753391
117	0x3d973af6	0.07384293
118	0x3e80240b	0.250275
119	0x3cb87e52	0.022521172
120	0xbda92ee2	-0.08260895
121	0x3e2734d9	0.16328754
122	0xbd0d7f74	-0.034545377
123	0xbe362444	-0.17787272
124	0xbee9a098	-0.45630336
125	0x3ed54699	0.41655424
126	0x3d512234	0.05105801
127	0x3cdfdac2	0.027325992
128	0xbdea9867	-0.1145485
129	0x3e7c7f17	0.24657856
130	0xbe977145	-0.29578605
131	0xbef003fb	-0.46878037
132	0x3eab6172	0.33472782
133	0xbeaf541f	-0.34243867
134	0x3eeaf0ee	0.4588694
135	0x3d6c8889	0.057747398
136	0x3f1a0b17	0.6017317
137	0x3db77601	0.08958054
138	0xbcca96bb	-0.024730077
139	0xbe2fd831	-0.17172314
140	0xbe924c1b	-0.2857369
141	0xbe3a4144	-0.1818896
142	0xbee9f75a	-0.45696527
143	0x3e6a917c	0.2290706
144	0xbf296112	-0.6616374
145	0x3efb904e	0.49133533
146	0x3e96fbca	0.29488975
147	0x3e914666	0.28374022
148	0xbce2bce6	-0.027677964
149	0xbdcd82a8	-0.10034686
150	0x3eb652be	0.35610002
151	0xbe823381	-0.2542992
152	0x3eb21edf	0.34789178
153	0xbebd5476	-0.369785
154	0xbd89d081	-0.06729222
155	0x3df9cf26	0.121977136
156	0xbd605794	-0.05477102
157	0xbe9a30e7	-0.30115435
158	0xbeba40fd	-0.36377707
159	0xbdd56205	-0.10419086
160	0x3e999960	0.29999828
161	0xbe6177d1	-0.22018363
162	0xbe8737f6	-0.26409882
163	0xbec2d647	-0.38054106
164	0x3df3c341	0.11902476
165	0x3de15d54	0.11004129
166	0xbe15c193	-0.14624624
167	0xbdb4e8d9	-0.08833475
168	0x3e0bdb63	0.13657908
169	0xbe2e5c92	-0.170275
170	0x3b8eadd0	0.004354216
171	0xbe5d3a2c	-0.21604222
172	0x3eca84e0	0.395545
173	0x3e07398e	0.13205549
174	0x3e9c5dcb	0.30540308
175	0xbdc4307d	-0.09579561
176	0xbdbd5423	-0.092445634
177	0xbdc58efa	-0.09646411
178	0x3e0837ff	0.13302611
179	0x3d0e1007	0.034683254
180	0x3e8f569f	0.27995774
181	0x3e5824a8	0.21107733
182	0x3db199f8	0.08671945
183	0xbe2a125e	-0.16608569
184	0xbd6af6d5	-0.057364304
185	0xbdba6737	-0.09101718
186	0xbe7c7737	-0.24654852
187	0x3ddcd378	0.10782522
188	0xbe0aedc6	-0.13567266
189	0x3ea6abee	0.32553047
190	0xbe2fb528	-0.1715895
191	0xbd48b040	-0.04899621
192	0xbede7f12	-0.43456322
193	0x3e3cf223	0.18451743
194	0x3e901d55	0.2814738
195	0xbe8c0f33	-0.27355346
196	0xbe4a80ea	-0.1977574
197	0xbefc1e2b	-0.49241766
198	0xbdd5eb57	-0.10445278
199	0xbbffb728	-0.0078038163
200	0xbd482a32	-0.048868366
201	0x3ecad6e5	0.39617077
202	0x3e83c68d	0.2573742
203	0x3e342539	0.17592324
204	0xbd980885	-0.074235
205	0xbd305255	-0.043047268
206	0xbc54a137	-0.01297789
207	0xbdf3819d	-0.11889956
208	0x3e9fd06d	0.31213704
209	0xbd19a1f0	-0.03750795
210	0xbe38cbcb	-0.18046491
211	0xbe08b7f7	-0.13351427
212	0x3e848ac9	0.25887135
213	0x3ea6ca5d	0.32576266
214	0xbe06433b	-0.13111584
215	0xbebb9d07	-0.3664324
216	0xbe0e119f	-0.1387391
217	0xbea1be3b	-0.31590447
218	0xbe15ce73	-0.14629535
219	0xbd8b8cc9	-0.06813962
220	0x3da6a380	0.08136654
221	0xbe27c618	-0.1638416
222	0xbdea80e2	-0.11450364
223	0xbe86c4be	-0.26321977
224	0xbe8671b5	-0.26258627
225	0x3e77eaaa	0.24210611
226	0x3e045daf	0.12926362
227	0x3c9edbc1	0.019391896
228	0xbd782bb6	-0.06058856
229	0xbe7a126b	-0.24421088
230	0xbe9d2c85	-0.30698028
231	0xbe75a66c	-0.23989266
232	0x3d3c37c8	0.045951635
233	0xbe8d8306	-0.27639025
234	0x3ea432e7	0.32070085
235	0x3d947091	0.07248033
236	0x3e81273c	0.25225246
237	0x3ea90d9d	0.330182
238	0xbe950b63	-0.2911025
239	0x3ec0abec	0.37631166
240	0x3ea65b8a	0.32491714
241	0xbecabde2	-0.39597994
242	0xbd882834	-0.06648293
243	0xbd1bbe60	-0.038023353
244	0xbe9f1e6d	-0.310779
245	0xbe8f6b44	-0.28011525
246	0x3e8022e6	0.25026625
247	0xbdfb40e9	-0.1226824
248	0x3ed604e5	0.4180061
249	0xbd2b47d8	-0.041816562
250	0xbe6a0b89	-0.22855963
251	0xbe912487	-0.2834818
252	0x3e0371da	0.128364
253	0xbe3e476a	-0.1858193
254	0x3f1cda79	0.6127086
255	0x3ec0f1e7	0.37684557

bias f4 [20]
0	0x3e7ddbe1	0.24790908
1	0x3fa15e2f	1.2606868
2	0x3f2f8efd	0.6857756
3	0x3eaf7c3e	0.34274477
4	0x3f770701	0.9649506
5	0xbfc4fc8a	-1.5389569
6	0x3f523b17	0.82121414
7	0x3ee38bff	0.44442746
8	0x3ef4dc59	0.47824362
9	0xbeddb249	-0.43300083
10	0xbf53b706	-0.82701147
11	0x3fa27220	1.2691078
12	0x3fc0a30e	1.504976
13	0xbe8092a8	-0.2511189
14	0xbeaeeb8c	-0.34164083
15	0xbf2106ca	-0.62900984
16	0xbf7702f2	-0.9648887
17	0x3f0bbe21	0.5458699
18	0xbfdcc207	-1.7246712
19	0x3fee9fc4	1.8642507

weight f4 [20, 20]
0	0x3d869b0b	0.06572541
1	0x3d333378	0.043750256
2	0x3e84451e	0.25833982
3	0xbdb0ad65	-0.086268224
4	0x3e648e6d	0.22319956
5	0x3c33ac85	0.010966425
6	0x3d8aa9c9	0.06770665
7	0x3cfe3226	0.031029772
8	0x3f06bafb	0.5262906
9	0x3e273bcb	0.16331403
10	0x3b0c6cd3	0.002142717
11	0x3e1b4e64	0.15166622
12	0x3e513470	0.2043016
13	0xbe695a10	-0.22788262
14	0x3e5acd91	0.2136748
15	0xbebbd08e	-0.36682552
16	0x3ea35df5	0.3190762
17	0x3d9b89c2	0.075946346
18	0xbe8d46ff	-0.27593228
19	0xbdd2812f	-0.10278546
20	0x3ce28e0b	0.027655622
21	0xbe54a48f	-0.20765899
22	0x3dc1065c	0.09425041
23	0xbe07685c	-0.13223404
24	0xbe0ed063	-0.1394668
25	0xbd1a6e94	-0.03770311
26	0xbdabab86	-0.08382325
27	0xbea4533c	-0.32094753
28	0x3e9e17ec	0.30877626
29	0xbe3930c6	-0.18085012
30	0xbb4b0730	-0.0030979626
31	0xbe5d814f	-0.21631359
32	0xbe3b7ecb	-0.18310086
33	0x3ce7be35	0.02828894
34	0xbead6b29	-0.3387082
35	0xbe869a0e	-0.2628941
36	0xbdf8be95	-0.12145726
37	0x3e91a7ec	0.28448427
38	0x3e3da757	0.18520866
39	0xbd9002dc	-0.070317954
40	0x3e805748	0.2506659
41	0x3d3f92e9	0.046770964
42	0xbeaa3a6f	-0.33247706
43	0xbcadd488	-0.021219507
44	0xbf0429e7	-0.5162644
45	0xbdb9331a	-0.0904295
46	0xbe1de597	-0.15419613
47	0xbc934554	-0.017977394
48	0xbdee57eb	-0.11637863
49	0x3e2f67df	0.17129467
50	0x3d8b175c	0.06791565
51	0xbe51a28b	-0.20472161
52	0xbca9fb70	-0.020749778
53	0x3eda5282	0.42641073
54	0xbba38f27	-0.0049914303
55	0x3e28253f	0.16420458
56	0x3dbcc0cb	0.0921646
57	0xbec2d161	-0.38050368
58	0xbe2ca595	-0.1686004
59	0xbe318d09	-0.17338957
60	0xbe3cd41f	-0.18440293
61	0x3e9947a4	0.2993747
62	0x3eb81720	0.35955143
63	0x3d929d69	0.0715893
64	0x3e2fe259	0.17176189
65	0xbe9715e6	-0.29508895
66	0x3db6fd13	0.08934989
67	0x3e543933	0.20724945
68	0x3d028a96	0.031870447
69	0xbe179c15	-0.14805634
70	0xbdf7f019	-0.12106342
71	0xbd4e9de2	-0.050443538
72	0x3ec89dd7	0.39182922
73	0x3e5e7b9c	0.2172684
74	0x3e35ab46	0.17741117
75	0x3d9c1322	0.07620837
76	0xbddf0aa2	-0.108907
77	0x3ef15640	0.47136116
78	0xbdc1a9b5	-0.09456197
79	0x3ea1f055	0.3162867
80	0xbec2cb52	-0.38045746
81	0x3cbf3127	0.023338867
82	0x3f249017	0.64282364
83	0x3e660d5c	0.22466034
84	0x3dcde3a2	0.10053183
85	0xbe327469	-0.1742722
86	0x3e120ecc	0.14263457
87	0xbd4a7746	-0.049430154
88	0x3e7f0633	0.24904709
89	0xbe149dae	-0.14513275
90	0xbe49a123	-0.19690375
91	0x3da7b1ee	0.08188234
92	0xbe4aacc1	-0.19792463
93	0xbe1a5e7a	-0.15075102
94	0xbe9da1e4	-0.30787575
95	0xbd93ee49	-0.07223184
96	0xbdf6fa82	-0.12059499
97	0x3e9de2ed	0.30837193
98	0xbe59d725	-0.21273477
99	0xbb595e42	-0.0033167754
100	0xbe37fcd0	-0.17967534
101	0x3de926f6	0.11384384
102	0x3d22cd02	0.039746292
103	0xb9db6f39	-0.00041853802
104	0x3e844f7b	0.2584189
105	0x3ce05f05	0.027389059
106	0xbebd9323	-0.3702632
107	0xbd99d020	-0.075104
108	0xbbb097de	-0.0053891977
109	0xbe42efbf	-0.19036768
110	0xbea96f23	-0.33092603
111	0xbea08f78	-0.31359458
112	0xbe0eba99	-0.13938369
113	0x3e415a23	0.1888204
114	0xbda6b4e2	-0.081399694
115	0x3f075ac5	0.5287288
116	0xbdca66e5	-0.09882907
117	0xbe1969d7	-0.14981781
118	0xbe888533	-0.26664123
119	0xbe360ac2	-0.17777541
120	0x3ea55359	0.32290152
121	0xbddb81c2	-0.10718109
122	0xbe43e2e5	-0.19129522
123	0xbdf1b18e	-0.11801444
124	0xbeeedcc6	-0.46652812
125	0x3e8cc5b9	0.274946
126	0xbe92bc9f	-0.2865953
127	0x3d18bef6	0.03729149
128	0xbd8586ce	-0.065198526
129	0x3e59d4b5	0.21272548
130	0xbe76f1b8	-0.24115646
131	0xbe037def	-0.12841009
132	0xbdb49fd5	-0.08819548
133	0x3e01b8c8	0.12668145
134	0x3e21a413	0.15785246
135	0x3e54798c	0.20749491
136	0x3e30897b	0.17239945
137	0xbceaeb86	-0.02867676
138	0x3e16408e	0.14673063
139	0xbcbaf0fe	-0.022819992
140	0xbee73d95	-0.4516417
141	0xbd7fa1dc	-0.06241022
142	0x3ede97fd	0.43475333
143	0xbc5a7351	-0.013333158
144	0x3e203ef8	0.1564902
145	0xbe507027	-0.20355283
146	0x3e49e1db	0.19715063
147	0x3e036180	0.12830162
148	0x3e07e8c9	0.13272394
149	0x3e87e644	0.26542866
150	0x3d5da608	0.054113418
151	0xbe0a4f29	-0.1350676
152	0x3e79e670	0.24404311
153	0xbdab795f	-0.08372759
154	0xbdb13505	-0.08652691
155	0xbe9accb5	-0.30234304
156	0xbe8878c7	-0.26654646
157	0x3e703ebb	0.2346143
158	0xbd83bb35	-0.06432191
159	0x3dd9a19f	0.1062653
160	0xbe1f885f	-0.15579365
161	0xbe80c62a	-0.25151187
162	0x3c40d28e	0.01176895
163	0x3e3cc9bc	0.1843633
164	0xbe303bcc	-0.1721031
165	0xbe8f1048	-0.2794211
166	0xbc7e6640	-0.015527308
167	0xbeb1c905	-0.34723678
168	0xbe556bf7	-0.20841967
169	0x3e6ccb3a	0.231244
170	0x3e0f450b	0.13991182
171	0xbe703fb4	-0.23461801
172	0xbe3afe77	-0.18261133
173	0x3e89cb1f	0.26912782
174	0x3cdf33f3	0.027246451
175	0xbd50fe98	-0.05102405
176	0xbbd9cebb	-0.0066469586
177	0xbe8a032a	-0.2695554
178	0x3ba39553	0.004992166
179	0x3dee3bdb	0.1163251
180	0xbea35fff	-0.31909177
181	0x3d77ddc2	0.06051422
182	0x3ee75c1f	0.4518747
183	0xbe630ee2	-0.22173646
184	0xbdf61b13	-0.12016883
185	0xbdb2a5b4	-0.087230116
186	0xbdcf9bf5	-0.10137168
187	0x3ec41840	0.3829975
188	0x3da8aa36	0.0823559
189	0x3da8da27	0.08244734
190	0x3e35ca00	0.17752838
191	0xbe040b1a	-0.1289486
192	0xbed198a6	-0.40936774
193	0x3ec13c78	0.37741446
194	0xbd9ea69d	-0.07746623
195	0xbe35525d	-0.177072
196	0xbdc48ff7	-0.095977716
197	0x3eef32df	0.467185
198	0xbcd2351a	-0.025660086
199	0x3c1a9b89	0.0094364965
200	0x3d9d0433	0.076668166
201	0xbde3b58d	-0.111186124
202	0x3e92d7b2	0.28680187
203	0x3ec545eb	0.38529906
204	0xbdef7ace	-0.11693345
205	0x3e8bbfbf	0.27294728
206	0xbdb74c82	-0.089501396
207	0xbe86391f	-0.26215455
208	0x3db87339	0.09006352
209	0xbf08d766	-0.5345367
210	0x3e18909b	0.14898913
211	0x3e019cef	0.12657522
212	0xbe9bb3d5	-0.30410638
213	0xbdf43136	-0.11923449
214	0xbed55476	-0.41666
215	0x3dbc90b8	0.092072904
216	0x3e4be270	0.19910598
217	0xbe0bbd9e	-0.13646552
218	0x3e8b7419	0.27237013
219	0xbe11da87	-0.14243518
220	0xbeeefc8c	-0.46677053
221	0x3abf990a	0.0014617753
222	0x3dc1f88e	0.09471236
223	0x3e6b31d1	0.22968222
224	0xbe9be681	-0.30449298
225	0xbc1c295b	-0.009531344
226	0xbd72a4d8	-0.05923924
227	0x3f12cb0c	0.57341075
228	0xbdb1d57b	-0.08683296
229	0xbe59568c	-0.21224421
230	0xbc9f00a4	-0.019409485
231	0x3e316feb	0.1732785
232	0x3e9e65ac	0.30936944
233	0x3df1a419	0.11798877
234	0x3d6f686d	0.058449198
235	0xbe48c394	-0.19605857
236	0x3d8357e6	0.0641325
237	0x3bbc6ac2	0.005750031
238	0xbe3039bf	-0.17209528
239	0x3cf12ad8	0.029439375
240	0xbe7f7995	-0.24948724
241	0xbdbe54a0	-0.09293485
242	0xbd8f8962	-0.070086256
243	0xbe0dc9b1	-0.1384647
244	0xbe7b17a4	-0.24520737
245	0x3eac7974	0.3368641
246	0xbe408cae	-0.18803665
247	0xbe4acdeb	-0.19805114
248	0x3cf5b6c3	0.029994374
249	0xbcae2e0d	-0.021262193
250	0x3dc1dbcc	0.09465751
251	0xbd8a62f1	-0.06757153
252	0xbe812a35	-0.25227514
253	0x3e8e3bb6	0.2777993
254	0xbebc8725	-0.36821857
255	0x3e0799a2	0.132422

bias f4 [20]
0	0x3f94b157	1.161662
1	0xbed89773	-0.42303047
2	0xbe529170	-0.20563293
3	0x3f6e3eef	0.9306478
4	0x3f84fe23	1.0390056
5	0xbf4025db	-0.7505776
6	0xbf4d218b	-0.8012931
7	0x3faff8dc	1.3747821
8	0x3e2b4f1c	0.16729397
9	0x3f9a4e4c	1.2055144
10	0xbf1ca1de	-0.6118449
11	0x3f011c8a	0.5043417
12	0xbd604e78	-0.054762334
13	0x3f5382d5	0.8262151
14	0xbe176aa2	-0.14786771
15	0xbf4cdc24	-0.8002341
16	0x3f9feb02	1.2493594
17	0x3f7411f2	0.9533988
18	0xbf9a4cc9	-1.2054683
19	0xbf5af50a	-0.8553015

weight f4 [20, 20]
0	0x3e90c9d0	0.2827897
1	0x3e613b0a	0.21995178
2	0xbe7e53c5	-0.24836643
3	0x3e8fd4d9	0.28092077
4	0xbc6773c9	-0.014126726
5	0x3e302850	0.17202878
6	0x3dcc7d1a	0.09984799
7	0x3e23762e	0.1596305
8	0xbce3bd9f	-0.02780038
9	0x3e56d3bb	0.20979206
10	0x3d4b4dcc	0.04963474
11	0x3e222d6f	0.15837644
12	0x3e3012f0	0.17194724
13	0x3d20aba3	0.039226186
14	0xbe812ac8	-0.25227952
15	0x3d82652e	0.06366955
16	0x3e8b4cef	0.27207133
17	0x3e543d93	0.20726614
18	0x3d6f4f10	0.05842501
19	0xbec73611	-0.38908437
20	0x3e9b8c1c	0.30380332
21	0x3ea6722e	0.32508987
22	0xbed04b43	-0.4068242
23	0x3daed4af	0.0853666
24	0x3e076bf3	0.13224773
25	0xbd51f877	-0.051262345
26	0xbdb4398e	-0.0880004
27	0x3edbad1d	0.42905512
28	0x3d7dba8d	0.061945487
29	0x3e85b714	0.2611624
30	0xbea9e812	-0.33184868
31	0xbdcbcc88	-0.099511206
32	0x3b94cfe5	0.0045413845
33	0x3e16247e	0.14662358
34	0xbe8e090b	-0.27741274
35	0xbef24bcd	-0.47323456
36	0x3f053cf7	0.5204615
37	0xbd528501	-0.051396374
38	0xbef87be9	-0.48532036
39	0xbe39cb74	-0.18144017
40	0xbee2759e	-0.4423036
41	0xbe261fb6	-0.16223034
42	0x3dc84fcb	0.09780844
43	0xbe9bb221	-0.3040934
44	0xbecf0f37	-0.40441296
45	0xbe1ff1d1	-0.1561959
46	0x3da44c17	0.080223255
47	0xbf03b989	-0.5145498
48	0xbe1e86ea	-0.15481153
49	0xbd6033e8	-0.054737
50	0xbd88ea31	-0.066852935
51	0xbebd2e17	-0.36949226
52	0xbdb55e84	-0.08855918
53	0x3d6a472c	0.05719678
54	0x3f07cacd	0.53043824
55	0x3eafe4c8	0.34354234
56	0xbd8a2893	-0.0674602
57	0xbdd7d41f	-0.10538506
58	0x3e3bbd5b	0.18333952
59	0x3e7ed48d	0.24885769
60	0xbdc13d41	-0.094355114
61	0xbd111427	-0.03541961
62	0xbeb836dc	-0.35979354
63	0xbc1762f1	-0.009239898
64	0x3e00a6b4	0.12563592
65	0xbe56b5c1	-0.20967771
66	0xbee9e18a	-0.45679885
67	0xbc828ab6	-0.015935283
68	0xbe91eda0	-0.28501606
69	0x3eee1d28	0.4650662
70	0xbdb05ffb	-0.08612057
71	0x3ea7e1c2	0.32789427
72	0xbe1296f9	-0.14315404
73	0x3eda0a60	0.4258604
74	0x3e6dcfae	0.23223755
75	0x3d363cc9	0.044491563
76	0xbe4a566a	-0.19759527
77	0x3e99c19e	0.3003053
78	0xbe3927a5	-0.1808153
79	0xbeac292e	-0.33625168
80	0xbe2238ff	-0.15842055
81	0xbe787eb7	-0.24267088
82	0xbba56ad7	-0.0050481367
83	0xbe219368	-0.15778887
84	0xbf00380e	-0.5008553
85	0xbe355fc9	-0.1771232
86	0xbe6c4cb3	-0.23076133
87	0xbea159db	-0.31513867
88	0x3de7f1c5	0.11325411
89	0xbeb7bff5	-0.3588864
90	0x3eaa521d	0.33265772
91	0xbda0392e	-0.07823406
92	0xbe72e15c	-0.2371878
93	0xbc11df99	-0.0089034075
94	0xbd33796d	-0.043816973
95	0xbe0f7099	-0.14007796
96	0xbdabe75f	-0.0839374
97	0x3acde0fa	0.0015707307
98	0xbc0b9ca3	-0.008521232
99	0xbe49da82	-0.1971226
100	0xbe76f06d	-0.24115153
101	0x3cd2c868	0.025730327
102	0xbed6dc04	-0.41964734
103	0x3d161396	0.036639772
104	0xbf2b578b	-0.66930455
105	0xbdb2be43	-0.08727696
106	0x3dffda85	0.12492851
107	0xbea91f4d	-0.33031693
108	0x3eb5200f	0.3537602
109	0xbe688eb6	-0.2271069
110	0x3d3e4973	0.046456765
111	0x3e3608cf	0.17776798
112	0xbe0bead0	-0.13663793
113	0xbec61dad	-0.38694516
114	0x3d09dab3	0.033655833
115	0x3ec24ba6	0.3794834
116	0x3e4a913b	0.19781964
117	0xbe2ef552	-0.1708577
118	0x3ccb33c5	0.02480496
119	0x3f1e91b9	0.61941105
120	0xbd7abada	-0.06121335
121	0x3ccec440	0.025240064
122	0xbdf32935	-0.11873094
123	0x3ea82cea	0.32846767
124	0x3e794983	0.24344449
125	0xbe8fa6ae	-0.28056854
126	0x3e58fd71	0.2119043
127	0xbdf591f2	-0.119907275
128	0x3d476b08	0.048686057
129	0x3d793355	0.06083997
130	0x3d620fd2	0.05519087
131	0x3c58e3a2	0.013237866
132	0xbe9f9c51	-0.31173947
133	0x3dbec545	0.0931497
134	0x3e5b9c3b	0.21446316
135	0xbf30e6e2	-0.691023
136	0x3d5f9bd1	0.054591957
137	0xbdb35d3b	-0.08758017
138	0xbe7bc636	-0.2458733
139	0xbf11f2ec	-0.57011294
140	0x3e8940dc	0.26807296
141	0x3d30aeaa	0.043135323
142	0xbe2773b2	-0.16352728
143	0x3e8268af	0.25470492
144	0x3e8c5ba6	0.27413672
145	0xbe9ca96d	-0.30598012
146	0xbcb4a78e	-0.022052553
147	0xbd2f407b	-0.042786103
148	0x3cdba525	0.026812145
149	0x3d69aaec	0.05704777
150	0x3bf72307	0.0075420174
151	0xbdc85de0	-0.0978353
152	0xbd1ad4f2	-0.037800737
153	0x3d93a760	0.072096586
154	0xbc53a8cd	-0.012918663
155	0xbe812156	-0.25220746
156	0xbc9103c7	-0.017701996
157	0x3eb32356	0.34987897
158	0xbf0ff5b9	-0.5623432
159	0xbe36e273	-0.17859821
160	0xbe0f6cbc	-0.14006323
161	0xbe4a8388	-0.19776738
162	0x3d566bae	0.052348785
163	0x3e9e834f	0.30959556
164	0x3e3099a4	0.17246109
165	0xbbf8ced0	-0.0075930133
166	0x3e3ce6c0	0.18447399
167	0x3ed52234	0.41627657
168	0x3edfb1fe	0.43690485
169	0x3e150d9a	0.1455597
170	0xbe588722	-0.21145299
171	0xbdb35b27	-0.0875762
172	0xbd3fa87a	-0.04679153
173	0x3c898a52	0.01678959
174	0xbd8bc27a	-0.06824203
175	0x3d82741f	0.063698046
176	0x3ea04d3b	0.31308922
177	0xbea1697b	-0.31525788
178	0xbd9352e6	-0.07193546
179	0xbec73544	-0.38907826
180	0x3daf0410	0.08545697
181	0xbeb3bda9	-0.35105637
182	0xbdf43f01	-0.119260795
183	0x3f1dfc13	0.6171276
184	0x3ea691d5	0.32533136
185	0xbe9f9dbd	-0.31175032
186	0xbe679f2b	-0.22619312
187	0x3d5d0410	0.053958952
188	0xbe09e838	-0.1346749
189	0x3dc6e8cd	0.09712372
190	0xbe5e470c	-0.2170679
191	0x3d248e16	0.040174566
192	0xbf0881f4	-0.5332329
193	0x3e991f62	0.29906756
194	0xbe87b965	-0.26508632
195	0xbf4b3e5d	-0.79392034
196	0x3e984e93	0.29747447
197	0xbc85ae13	-0.016318357
198	0xbf0c74f4	-0.54865956
199	0xbea26f8f	-0.31725737
200	0x3dc42b78	0.095786035
201	0x3e7ebd0a	0.248768
202	0x3ec7bd0d	0.39011422
203	0xbe849e9a	-0.25902253
204	0xbe89eb0c	-0.2693714
205	0x3e44d9f1	0.19223763
206	0x3ed72d51	0.4202676
207	0xbe9747d2	-0.29546982
208	0xbcc87f34	-0.024474718
209	0x3dc0ece4	0.09420183
210	0x3e740209	0.23828901
211	0xbedf0508	-0.43558526
212	0xbd7f4f3a	-0.062331416
213	0xbe354408	-0.17701733
214	0x3d519279	0.051165078
215	0x3f07811f	0.529314
216	0xbe98759c	-0.2977723
217	0xbed4460d	-0.41459695
218	0x3e97da56	0.29658765
219	0x3da6d25f	0.08145594
220	0x3e0d5344	0.13801295
221	0x3da2f035	0.07955972
222	0x3f046302	0.51713574
223	0x3cb24bec	0.021764718
224	0xbe9fbfe0	-0.31201077
225	0x3e1049ad	0.14090605
226	0x3c1f88ac	0.009737175
227	0xbec25f42	-0.379633
228	0x3e397dde	0.18114421
229	0xbea42397	-0.32058403
230	0x3eb17a9a	0.3466385
231	0x3e1410bb	0.14459507
232	0x3e98e570	0.29862547
233	0x3ba8d358	0.0051521473
234	0xbe563ad9	-0.20920886
235	0x3e95da0f	0.29267928
236	0x3da8c268	0.08240205
237	0xbe72bbea	-0.23704496
238	0x3f013b6b	0.5048129
239	0xbe206843	-0.15664773
240	0x3e3358ff	0.17514418
241	0xbe279978	-0.16367137
242	0x3e833f86	0.25634402
243	0xbe051a5c	-0.12998337
244	0xbdd10cc7	-0.10207515
245	0x3e880e2c	0.26573312
246	0xbee6d0ca	-0.45081168
247	0xbeabc816	-0.3355109
248	0x3e58117d	0.21100421
249	0x3eb676f1	0.3563762
250	0xbdd9c98a	-0.10634144
251	0xbe262d8d	-0.16228314
252	0x3e02e21d	0.12781568
253	0x3dddee1d	0.10836432
254	0x3e7c0ad0	0.246135
255	0x3e7adfd9	0.24499454

bias f4 [20]
0	0x3fbef647	1.4918908
1	0x3faf9a19	1.3718902
2	0xbfb91ffb	-1.4462885
3	0xbee0cdd8	-0.43907046
4	0xbf0672d4	-0.52518964
5	0x3da7824d	0.0817915
6	0x3ed4748c	0.41495168
7	0x3eed0c5a	0.46298486
8	0x3f2b2578	0.6685405
9	0xbe2bfc8b	-0.16795556
10	0xbe79fab8	-0.24412048
11	0xbfa34e9a	-1.2758362
12	0xbf04bda4	-0.5185187
13	0xbf4baf2f	-0.79564184
14	0xbfca85e8	-1.5822115
15	0xbf159d3d	-0.5844305
16	0xbf7c46ee	-0.9854573
17	0xbe2660a0	-0.16247797
18	0x3f86ac4b	1.052133
19	0x3f673926	0.90321577

weight f4 [20, 20]
0	0x3dd1bf95	0.102416195
1	0x3eb7a7ae	0.35870117
2	0xbf24528d	-0.6418846
3	0xbea1a410	-0.31570482
4	0xbe8a0ede	-0.26964468
5	0xbc66fb19	-0.014097952
6	0x3edbe62a	0.4294904
7	0xbd8928ab	-0.0669721
8	0x3eaa0644	0.33207905
9	0x3ea74f0f	0.32677504
10	0x3e826af4	0.25472224
11	0xbe8c560f	-0.27409407
12	0xbec1a978	-0.37824607
13	0x3de5850b	0.112070166
14	0xbea67cd6	-0.32517117
15	0x3e95f473	0.29288062
16	0xbf0bd9ae	-0.5462903
17	0x3efd129f	0.4942827
18	0x3e7bc9b1	0.24588658
19	0x3da6d137	0.08145373
20	0x3e3c6fe9	0.18402065
21	0x3ef08dc4	0.4698316
22	0x3e0e5a5a	0.13901654
23	0x3f047ac0	0.517498
24	0xbe7dd5a3	-0.24788527
25	0xbdf6e283	-0.120549224
26	0xbebe2e31	-0.37144616
27	0xbe40910b	-0.1880533
28	0x3e833fb7	0.25634548
29	0x3e783874	0.24240285
30	0xbd3a71f3	-0.045518827
31	0xbe428a7d	-0.18998142
32	0xbe34a8bd	-0.17642494
33	0xbd93058a	-0.07178791
34	0xbd541d06	-0.05178549
35	0x3e0151bf	0.1262884
36	0x3ebb2746	0.365534
37	0x3db51848	0.08842522
38	0x3da889f5	0.08229438
39	0x3caabd98	0.020842358
40	0xbce6b02c	-0.028160177
41	0x3d7a7483	0.06114627
42	0x3e63be78	0.22240627
43	0x3e738fcf	0.23785327
44	0xbe215811	-0.15756251
45	0xbe9bea4b	-0.3045219
46	0x3dbbff43	0.09179547
47	0x3ef9e5fc	0.48808277
48	0x3ebafc79	0.36520746
49	0x3e9ccf32	0.30626827
50	0xbe6ccc4e	-0.23124811
51	0xbe57acd2	-0.2106202
52	0xbef0581d	-0.46942225
53	0xbe1b3f17	-0.15160786
54	0xbde2f6eb	-0.11082252
55	0x3deb1c85	0.11480049
56	0xbe46928b	-0.19391839
57	0x3edd195a	0.43183404
58	0xbe015170	-0.12628722
59	0x3ec23f4b	0.37938914
60	0xbe2413ef	-0.16023229
61	0xbe35f27a	-0.17768279
62	0x3f27d98d	0.6556633
63	0xbe1068b5	-0.14102443
64	0x3e0e3c77	0.13890253
65	0xbe2ac02d	-0.16674872
66	0xbf0ea1fe	-0.5571593
67	0xbdd2f7f5	-0.103012
68	0x3d1ee4ef	0.038792547
69	0x3e607390	0.21919084
70	0xbec97f22	-0.39354807
71	0x3f229e29	0.63522583
72	0x3e9e79e6	0.30952376
73	0xbc83eadf	-0.016103206
74	0x3ee11657	0.43962356
75	0x3e08f004	0.13372809
76	0x3f0e77f6	0.55651796
77	0xbebae97d	-0.36506262
78	0xbf02ed2f	-0.51143163
79	0xbf25c674	-0.6475594
80	0x3e6e9ec2	0.23302749
81	0xbdb8caaa	-0.0902303
82	0x3d9c7027	0.07638579
83	0xbf0ca90b	-0.5494544
84	0x3f575bde	0.84124553
85	0x3dfbc5dc	0.12293598
86	0xbf727240	-0.9470558
87	0xbd47b69e	-0.04875814
88	0xbeb47382	-0.35244375
89	0x3e3a4d06	0.18193445
90	0xbdc868dc	-0.09785625
91	0x3bf5ca6a	0.0075009363
92	0xbe724aa3	-0.23661284
93	0xbe15616e	-0.14587948
94	0xbd140519	-0.036137674
95	0xbe45aefd	-0.19305034
96	0xbe33bd24	-0.1755262
97	0x3e06f729	0.13180222
98	0x3e6ee584	0.23329741
99	0x3e7a7425	0.24458368
100	0xbea4999f	-0.32148454
101	0xbf3327f4	-0.6998284
102	0x3e7e92c0	0.24860668
103	0x3e1d5ffb	0.15368645
104	0x3dedcef6	0.1161174
105	0x3f230651	0.63681513
106	0xbcf3b27b	-0.029748192
107	0x3cf9372e	0.03042182
108	0xbf4950a7	-0.7863869
109	0xbf37b729	-0.71763855
110	0x3f663a20	0.8993244
111	0x3f221c7b	0.6332471
112	0x3d110f95	0.03541525
113	0x3f293875	0.6610177
114	0x3ebfa2a3	0.3742877
115	0x3f288e8c	0.6584251
116	0x3ed2c11f	0.41162965
117	0xbf105b16	-0.56388986
118	0xbf045323	-0.51689357
119	0xbe7445f8	-0.23854816
120	0xbf1b59f8	-0.60684156
121	0xbdfb9470	-0.122841716
122	0x3cc581e1	0.024109783
123	0xbd1e7762	-0.03868807
124	0x3e7b4f67	0.24542008
125	0x3e9d8eba	0.30772954
126	0xbf3d47a7	-0.7393746
127	0xbee1cb07	-0.4410021
128	0xbeda8e64	-0.4268676
129	0xbe7dc06d	-0.24780436
130	0xbdeed266	-0.11661224
131	0x3d1ff5ca	0.039052762
132	0x3e27ff96	0.16406092
133	0xbf8e232d	-1.1104485
134	0x3dc54a7f	0.096333496
135	0x3db7b127	0.08969336
136	0xbb03090d	-0.0019994408
137	0xbe8f44bc	-0.27982128
138	0x3d989df2	0.07452001
139	0xbeadec03	-0.33969125
140	0x3e293009	0.1652223
141	0xbf00ec33	-0.5036041
142	0x3e63aacb	0.22233121
143	0x3e95d98c	0.29267538
144	0xbdb1a84e	-0.0867468
145	0x3e08e2e0	0.13367796
146	0xbe395674	-0.18099385
147	0xbeb7c698	-0.35893703
148	0xbea9ba5d	-0.33149996
149	0xbd3beae2	-0.0458783
150	0x3b91ac41	0.004445583
151	0x3d9441c3	0.072391056
152	0x3bf6e62c	0.007534763
153	0x3eb0d46c	0.34537065
154	0x3e899be3	0.26876745
155	0x3ec58f1d	0.3858575
156	0x3e996cde	0.29965872
157	0xbe1dc9b5	-0.15408976
158	0xbe8e8c9c	-0.2784165
159	0xbebc845e	-0.36819738
160	0xbe94e47d	-0.29080573
161	0xbeed91e2	-0.46400362
162	0x3e262250	0.16224027
163	0x3e79e5c1	0.2440405
164	0x3e768d1c	0.24077266
165	0x3d310607	0.04321864
166	0xbe9d540f	-0.30728194
167	0xbec6814c	-0.3877052
168	0xbeafbb4d	-0.34322587
169	0x3ecba064	0.39770806
170	0xbe72a7c4	-0.2369681
171	0x3e8d6fc9	0.27624348
172	0x3e8efdd1	0.27928022
173	0xbf2f9810	-0.68591404
174	0x3e3e82b7	0.18604551
175	0xbdc7363c	-0.09727141
176	0x3e1685a5	0.14699419
177	0xbe176f14	-0.14788467
178	0xbecb250a	-0.39676696
179	0xbf1ca997	-0.61196274
180	0x3ee6c73c	0.4507388
181	0x3f063b5f	0.52434343
182	0xbf0c4002	-0.5478517
183	0xbf452336	-0.7700685
184	0xbcca3eae	-0.024688091
185	0x3e162910	0.14664102
186	0xbdb39fd5	-0.0877072
187	0x3ed67674	0.41887248
188	0xbe1198cc	-0.14218444
189	0xbeaea59d	-0.34110728
190	0x3e2b07b3	0.16702156
191	0xbe830987	-0.25593206
192	0xbc9000a9	-0.01757844
193	0x3f8fd40c	1.1236587
194	0xbd1c04a3	-0.03809036
195	0x3e23e2d2	0.16004494
196	0xbddaa2bd	-0.10675571
197	0x3e9b5b17	0.30342934
198	0x3ec44e41	0.38340953
199	0x3da12637	0.07868617
200	0x3db72617	0.08942812
201	0xbea5b90f	-0.3236775
202	0xbe3bddc1	-0.18346311
203	0xbf6dfd00	-0.9296417
204	0x3e6592f7	0.22419344
205	0xbe5956df	-0.21224545
206	0xbfaec49f	-1.3653754
207	0x3d2c44c0	0.042057753
208	0xbd576a3a	-0.05259154
209	0x3e388433	0.1801918
210	0xbe540057	-0.20703255
211	0xbebaf29b	-0.36513218
212	0x3dbc4975	0.09193698
213	0xbf1e35d9	-0.61800915
214	0x3e30addf	0.17253827
215	0x3e901d6b	0.28147444
216	0x3d82ba7e	0.06383227
217	0xbe88fb13	-0.26754054
218	0x3ecb6548	0.3972571
219	0x3d2a4241	0.04156709
220	0xbc709cde	-0.014685838
221	0xbe859247	-0.26088163
222	0x3ea4ef19	0.32213667
223	0xbe402265	-0.1876312
224	0x3e9a44ba	0.3013056
225	0x3dfa401c	0.12219259
226	0xbe66a444	-0.225236
227	0xbeb0bc69	-0.34518746
228	0xbe1a71f6	-0.15082535
229	0xbe275f5e	-0.16344973
230	0x3f2c5e15	0.6733106
231	0x3d353f55	0.04424985
232	0x3de3f408	0.1113053
233	0x3da5f5e4	0.081035405
234	0xbcce260b	-0.025164625
235	0x3cf0ebf7	0.029409392
236	0xbc7efaa6	-0.015562689
237	0xbdc77171	-0.09738434
238	0x3e48da86	0.1961461
239	0xbd6657fc	-0.056236252
240	0xbf201dc0	-0.62545395
241	0xbe5621e1	-0.20911361
242	0x3f3eff59	0.7460838
243	0x3eac224e	0.33619922
244	0x3ec34979	0.38141993
245	0x3ea62afa	0.32454664
246	0xbd762e6a	-0.060102858
247	0xbd77e071	-0.06051678
248	0xbead27bc	-0.33819377
249	0xbf00f013	-0.50366324
250	0xbe66088a	-0.22464195
251	0x3ece5809	0.4030154
252	0x3f076eae	0.5290326
253	0xbebdb0cc	-0.37048948
254	0x3ef69796	0.48162526
255	0x3e3ce18f	0.18445419

bias f4 [20]
0	0x3ff64d25	1.9242293
1	0xbe5474fa	-0.20747748
2	0xbf6323a0	-0.88726234
3	0xbfbd47c8	-1.4787531
4	0x3f295e5e	0.6615962
5	0x3d848a92	0.06471743
6	0x3ee91ab7	0.45528194
7	0x3ea3dd6f	0.32004878
8	0xbdb9585a	-0.09050055
9	0x3e47087d	0.19436832
10	0x3ef7b9ab	0.4838384
11	0x3f6b9ddc	0.9203775
12	0xbf9ff249	-1.2495815
13	0x3f1e4b64	0.61833787
14	0xbfb9a82c	-1.4504447
15	0x400dcf7c	2.2157888
16	0x3fe87a7e	1.8162382
17	0x3e0b889b	0.1362633
18	0xbeee5adf	-0.46553704
19	0x3f4a5b38	0.7904544
