Iter_03/Models/Noise_0/simulation_10_20/pidnn_400.pt (torch, 88669 bytes, 23 tensors)

weight f4 [20, 2]
00000000: e548 11bf cda9 7f40 7785 913f 8307 82bd
00000010: 74fd 823e 5977 053f 3d1c c23e f0f4 d73e
00000020: f46d ae3e e239 6fbf c0b1 5c3f 01a4 113f
00000030: 953e c03e 5b8a 8f3f 0133 b7be 3f7c 4c40
00000040: f104 f83f d64d 5840 20c5 c4be cd58 92bf
00000050: 4196 9c3f c409 d6bc bac2 4340 a115 bf3f
00000060: 0dd5 6abf a55d 143f 3905 a63f 190b a73f
00000070: d048 aabe 6294 213e 15b3 8d3f 24a6 c93e
00000080: 6803 6ec0 44b0 4fbf ab9d 0340 ae7a f23f
00000090: f88a 9bbf 3c52 4bbe 5e59 96bf fe0b 9dbd
-0.56751853 3.9947388 1.1368855 -0.06349089 0.25583994 0.52135235 0.3791217 0.4217906
0.34068263 -0.934477 0.86208725 0.56890875 0.37547746 1.1214098 -0.357811 3.1950834
1.9376508 3.3797507 -0.38431644 -1.143335 1.2233354 -0.026127703 3.0587602 1.4928476
-0.9173134 0.5795539 1.2970344 1.3050262 -0.33258677 0.1577926 1.1070276 0.39384568
-3.718958 -0.81128335 2.0564983 1.8943689 -1.2151785 -0.19855589 -1.1746023 -0.07668303

bias f4 [20]
00000000: 939a 5d3f 31b3 74be 2aec a0bf 4d84 1240
00000010: f30b 4dc0 e7bf 8a3f 8551 993e 00fd d6be
00000020: 02e3 63bf f4c5 a2bf da63 833f 8d8d e1be
00000030: 1e95 5740 dc3a 54bc 307e c5bf 06b5 29c0
00000040: 0d81 84bf 1086 1a3f 1847 65bf bd02 cdbf
0.86563987 -0.23896481 -1.2572072 2.289325 -3.2038543 1.0839814 0.29945007 -0.419899
-0.8901826 -1.271666 1.0264847 -0.44053307 3.3684764 -0.012953486 -1.5429134 -2.6516738
-1.0351883 0.60360813 -0.89561605 -1.6016461

weight f4 [20, 20]
00000000: b346 47bf 9171 ecbe 140d 28bd 9d87 33bd
00000010: ff0e 953e 5ae5 833c f3ab d7be 1660 c0be
00000020: 3153 55be c377 693e 4779 dfbe 25e7 633f
00000030: 86c7 e3bd d06c 89be 697d 6bbd 3485 1ebf
00000040: 9443 f3bd d88f a83d 245a d83e 66d8 cbbd
00000050: ca60 81bf 0b37 12bf 5585 453d 2172 abbf
00000060: 5d75 e1bd 58e1 68be f732 c4bf 4b55 aebf
00000070: d3ed 9fbe 38ab b73f 7296 ba3e f4ad b13e
00000080: e96a 9abd 1355 5cbf 4cc8 883f ad33 15bf
00000090: c8af 3c3f ba5e 903e 7cac 833f eb2f cb3e
000000a0: 46fa e0be f7cc 31be d0e1 b0be 58cc 143e
000000b0: 9599 643e 59da 8f3d 1508 2dbf 57ae cabe
000000c0: e117 363d dc80 683e af24 d5bc 5d82 b73e
000000d0: e660 ffbd 5aa3 3cbe 23df 2c3e 5ac1 54be
000000e0: 2cfd 5ebf a16f 95bd bb6c 5d3e 8bfc e0be
000000f0: 481b 2ebf 9a5b d1be 4416 57be 6030 01be
00000100: 1758 343e 1cdd 263e 3262 2abf 3f1a 86bf
00000110: 340a 20bf 5036 273f f72f 793d ad97 abbe
00000120: e3f2 bcbd 38eb 62bf 04f7 a03e 23c9 ecbe
00000130: 32f4 593f d7aa 22bf 62e2 ba3e 12ba ac3e
00000140: d4ab 70bf 7423 3bbf 5327 1b3e 8b47 d2be
00000150: f526 983d 750d 4abf 7500 35bf 614d 84bf
00000160: fa56 9fbf 3161 f33e aca7 71be cdeb 7ebf
00000170: 62a8 cbbb 8e23 65bf e705 da3e eed9 4abf
00000180: 3658 943f d22a 68bf dbae 263f 5e53 683f
00000190: fcbb 7dbf 5665 ab3f fd23 d2be e00a c13d
000001a0: f2a3 bf3f 7ad7 3d3d 583a dc3e 7bf3 b8bd
000001b0: b7ed c3bf d6a0 0a3e 91b5 58bf eb0f 6ebd
000001c0: 41cf 3cbf cebd d1bd 3a4e 5abf 6531 92bf
000001d0: 100a 0dbf 9e0c d4bf 1664 74be 0e57 673f
000001e0: 900b d0bd 0dfa 58be 00bf 4c3d ba23 52bd
000001f0: 5972 363e 8bca b2bd 1757 01bf f8df 15be
00000200: a06e c8be 1b39 bc3e e342 c2be f05c e3bd
00000210: 18b9 ba3d 0067 e4bd e081 87bd d021 dabe
00000220: 1d70 873e b5ed 0fbe c18c 4e3e 0f4d 9d3d
00000230: f3e7 873f 8611 01bf 117a 0c3e 6fd5 67be
00000240: 63e9 0bbf b910 c53d 4529 c1bd 9cd2 433f
00000250: bb5e 6c3f 7d86 31bd 98d3 aebe 4242 74be
00000260: f1f0 203f 31cc 8abe 88eb c63e db4d a73e
00000270: 86c4 333f 903b 3d3f a205 e83e 4637 263e
00000280: 3db6 e4bf 92d9 293f 0dcc f4bf 3a7f 16bd
00000290: a07a d13e 3bfe 293f 8bce b23e 6f90 d4be
000002a0: ad23 00c0 a919 0c3b 9f17 3d3e 2ffa 1b3f
000002b0: 1d59 bcbd 3ef7 b2bf c80e 15bf 0b50 11c0
000002c0: bff4 bc3f e98d f4be 4216 623f 4e43 243e
000002d0: 2b2e d53d 35bd 90be e4ca abbe 83b5 cabe
000002e0: 4eb5 363e a265 343d 7934 c13d 79d5 b53d
000002f0: e6df 92be 6b25 843e 37b8 00bf e5e1 2f3c
00000300: 55a4 233b f06f 35bf d5cd efbe fc7c 623e
00000310: 2ace d83e 128b 8abe ba01 7cbe 6582 0c3f
00000320: 4f65 34bf c573 f3be c786 31bf 4dc9 41bf
00000330: 21cd 283f 39a1 3fbe 0f58 94be d98e 83be
00000340: cea6 b3bd 49c3 0d3f ba6b 8dbe da08 873e
00000350: a97d 0bbd c878 68be 6d8f f33e 782b 9dbf
00000360: 32b7 30bf fa75 0cbf f2e3 433f e4ce 323f
00000370: 0a0b 823f 7e25 a2be c1b8 59bf 3584 69bd
00000380: 1c91 79be c96b a23e bd32 843e 1e8f 4f3f
00000390: 075e c73e 6459 3abe a2e1 61bf 9900 d63e
000003a0: e502 a23f d389 35bf c7fb f53d b75d 17bf
000003b0: e52c f13f 1b1f 1f3f 9f88 f03e 3c02 dd3e
000003c0: 5707 c8bf 4596 a1bf 845c b6bf 0a5a a6bf
000003d0: c0cb 5ebe 13e5 8b3e b7fb babf 6cd9 01c0
000003e0: ed51 c5bf 2a41 d63f 0538 21bc c51a 863f
000003f0: 0bdc 8dbe cf06 37c0 e2bf 8b3f f4af 26c0
-0.77842253 -0.46180394 -0.041028097 -0.043830503 0.29113004 0.016100574 -0.42123374 -0.37573308
-0.20832516 0.22799592 -0.43647215 0.89024574 -0.111220405 -0.2684083 -0.057492647 -0.61922
-0.11878124 0.08230561 0.42256272 -0.09953384 -1.0107663 -0.5711524 0.04822286 -1.3394204
-0.110087134 -0.22742212 -1.5328053 -1.3619779 -0.31236133 1.4349127 0.36442906 0.34703028
-0.07539923 -0.8606731 1.0686126 -0.58281976 0.7370572 0.2819727 1.0287013 0.39684996
-0.43940943 -0.17363344 -0.3454728 0.14531076 0.22324212 0.070240684 -0.6759046 -0.39586136
0.044456366 0.22705406 -0.026018469 0.35841647 -0.12469654 -0.18421689 0.16881995 -0.20776883
-0.8710506 -0.07296682 0.21623509 -0.43942675 -0.6801038 -0.408902 -0.21004587 -0.1261611
0.17611729 0.16295284 -0.66556084 -1.047676 -0.6251557 0.6531725 0.06083676 -0.33514157
-0.092260145 -0.88640165 0.31438458 -0.46247205 0.8513824 -0.6354193 0.3650084 0.3373571
-0.9401219 -0.7310097 0.1515172 -0.41070208 0.074293055 -0.78926784 -0.7070382 -1.0336114
-1.2448418 0.4753509 -0.23599118 -0.99578553 -0.006215141 -0.8950738 0.42582628 -0.79238784
1.158942 -0.9069034 0.6511056 0.9075221 -0.99114966 1.33903 -0.41043082 0.09425902
1.4971907 0.046348073 0.43013263 -0.09030815 -1.530692 0.13537917 -0.8465205 -0.05812065
-0.73753744 -0.102412805 -0.85275614 -1.1421324 -0.5509348 -1.656635 -0.23866305 0.9036721
-0.10158455 -0.21189137 0.04998684 -0.051303603 0.17817058 -0.08730038 -0.50523514 -0.14636219
-0.391469 0.36762318 -0.37941656 -0.11101711 0.09117335 -0.11152458 -0.066165686 -0.42603922
0.26452723 -0.14055522 0.20170881 0.076807134 1.061766 -0.50417364 0.1371844 -0.22640012
-0.54652995 0.0962233 -0.094317 0.7649324 0.9233205 -0.04334115 -0.34145808 -0.238534
0.6286765 -0.2710891 0.3885157 0.32676587 0.70221746 0.7391901 0.45316797 0.16232023
-1.7868115 0.6634761 -1.9124771 -0.036742426 0.40913868 0.6640355 0.34923205 -0.41516444
-2.0021775 0.00213776 0.18466042 0.60928625 -0.091966845 -1.3981702 -0.5822568 -2.2705104
1.476219 -0.4776452 0.8831521 0.160413 0.104091965 -0.28269354 -0.3355323 -0.39591607
0.178426 0.044042237 0.094338365 0.08878607 -0.28686446 0.25809798 -0.5028109 0.01073501
0.0024969776 -0.7087393 -0.46836725 0.2211799 0.4234479 -0.27059227 -0.24610034 0.54886466
-0.70467085 -0.47549263 -0.6934628 -0.75697786 0.65938 -0.18713845 -0.28973433 -0.25694922
-0.0877205 0.55376107 -0.2762125 0.2637394 -0.034055386 -0.22702324 0.47570363 -1.2278891
-0.69029534 -0.5486752 0.7651969 0.6984694 1.0159619 -0.3166923 -0.8504754 -0.057010848
-0.24371761 0.3172286 0.2581996 0.81077754 0.38938925 -0.18198162 -0.88234913 0.4179733
1.2657133 -0.7091343 0.12010913 -0.5912737 1.8841826 0.6215684 0.46979234 0.43165767
-1.562724 -1.2623984 -1.4246984 -1.2996228 -0.21757412 0.27323207 -1.4608067 -2.0288954
-1.5415627 1.6738636 -0.009840016 1.047692 -0.27706942 -2.8597906 1.0917933 -2.6044893

bias f4 [20]
00000000: fc9b 79bf d6ab 27c0 3bee 0cbf cd6a a6bf
00000010: 673e 63bd 9e8b ec3d e0a0 bcbe 6e62 c23d
00000020: e93c fb3f 5d48 ccbd 407c 53be cada 8a3f
00000030: 9ee6 87be 18db f03e 8cbb bbc0 7d74 09bf
00000040: eda0 19bf a421 46be 6eab 683f 403c 013f
-0.9750364 -2.619863 -0.5505101 -1.3001343 -0.055479433 0.11550067 -0.36841488 0.0949143
1.9627963 -0.0997474 -0.20652866 1.0848019 -0.26543134 0.47042155 -5.866644 -0.5369337
-0.6001118 -0.1934877 0.9088658 0.5048256

weight f4 [20, 20]
00000000: f8a2 9ebe 0d48 b6be 7a27 e4be ef7c 80be
00000010: 852a 973e 1e91 ac3d 7dff d2be 527e 74bd
00000020: c2fa 523e ad3a f1be de8f ccbc a778 633e
00000030: 006f 613c b6eb b5be bbbb cabd 795d 92be
00000040: dd50 c0bd 0ce0 d53d 45c1 863e 1a52 c03d
00000050: f2ea f03e 1e14 a2be 7b66 ad3d e87e c5bf
00000060: 73de 3e3f 0607 1d40 c115 28bf 0ff7 85bf
00000070: 124a 1f3f bc01 ea3d 2d67 0140 77a2 9bbf
00000080: 40cf 0d3e 0a46 8c3d 10c1 68c0 02bb d33e
00000090: f664 7340 91f3 12be 7568 f33f a28b 7abf
000000a0: e5b5 40be 3b22 1bbf 05f0 cabe 321a 27bf
000000b0: 9890 6abe eb5f c63d c40b 073d 459a 0e3e
000000c0: be41 d3bd 52ab b1be dabc 203e e52e 993e
000000d0: 9c7b 6a3d 9b9e a0be fd90 a43e b8c0 263f
000000e0: 1cf8 95bd e38d 5e3e 0fd3 cf3e 92aa 263e
000000f0: 8332 22bf fb23 43bb 8bea 6bbe e35c 28be
00000100: 3f54 27bf f8a5 2fbe 4252 04bf 9381 80be
00000110: a316 06bf f770 4cbe 306d 153e dd58 6c3e
00000120: de66 1ebe 4874 c7be e93a e73e ab20 d33e
00000130: 2ad2 90bd 7df5 4c3e 0f06 5b3e 197c 0c3f
00000140: 571d 39be c058 65bf cfc9 96bf 25b0 cdbf
00000150: fd1d ef3f 2eac 413f 9892 dfbf d810 2e3f
00000160: aa24 0940 67c7 693d df8c 4c3e 699f 603f
00000170: e585 8dbe f04e 333f 920f abbf 3478 263e
00000180: 4402 0f40 5117 2c3f a6fa ea3f 8085 61bf
00000190: 1e78 8d3f 0982 d33f 57bb de3f 47bc 0840
000001a0: d3aa 81bf 6111 243f c507 0e40 075c bdbf
000001b0: 4a1c 123f 7aaf e53f f83f 0f3f 401b 86bf
000001c0: 0291 7c3f e5de e93f 3c55 793f 1f77 91bf
000001d0: 3bcf 30be f7a3 f9bf 460a 0fc0 07ba 22bf
000001e0: d20b 853e c5e2 9f3e ce0f cfbd b5fe fbbd
000001f0: f782 e8bd 0ba6 1c3f cb73 113e 031d 91be
00000200: a143 86bd eceb 50be bd2c 003f d13c 9dbe
00000210: d4dd d53e 9ee3 a03e 880e 4cbe 2cf3 233e
00000220: b23b 8a3e 2c92 25bd bec7 ec3e c49c 523e
00000230: 0086 4f3e 1ed0 2e3f 6eff 6e3e f1f7 8e3d
00000240: 6a08 ed3e fdd0 c83e 82d6 7f3e 3cc9 95be
00000250: 4004 433e a88f 8c3e 6dc0 b1be 216c 31be
00000260: 5ffb b73d 4f2d 073f 64da bbbd 6784 04bf
00000270: 4b54 ea3e 7ad4 36bf e430 4abf 372c 6d3d
00000280: 2984 673e e24c 343e 871f ce3c 0ac1 273f
00000290: 9e7b f6bc 513e 4bbc b339 413e 1571 78be
000002a0: 9b98 f4be 1f46 553f 4708 943e 1333 abbe
000002b0: 92bc 8e3e 7c12 fa3e 7dee a5be ebfe 1abf
000002c0: 0c1e c3be 5634 0ebf 3fe8 e6bd 8dc6 ccbd
000002d0: 2bf6 843f a84b 9bbc 96bb 5f3f 3d29 41bf
000002e0: 5720 783f be3e 4140 5285 c4be 3282 79bf
000002f0: ad55 46bf cf17 8a3e 4022 7b3f c018 1cc0
00000300: 5494 4b3f 7bde 19bf f87d b4bf 3a8d dbbe
00000310: f35b 7240 60e7 87bf 7f74 cf3e 7a2d c8bf
00000320: 508f ecbe 5f1b 26bf 231f bfbe acb1 3fbf
00000330: 03fb 723e efd7 0dbe f1d9 0cbf 7680 893e
00000340: a008 cf3e f228 38bf 9b39 e3bd 81b3 bebc
00000350: 1a17 a0be 7e1b 09be 846f bb3e 3f5c de3e
00000360: a458 ad3e dc9b cb3e 0ad9 b53e dc4f c13b
00000370: 08fd 623f ad2a fabe 147e a63e 1351 cfbf
00000380: d165 b93e 8829 0840 4e9e 3abf db92 50bf
00000390: ee9a 2e3e e15e 303f 1aa2 2d40 23b9 cbbf
000003a0: 5026 ce3c 0965 843c 46f3 b5c0 88bb 9abe
000003b0: badd 9440 f16f 9a3e 15cc a63f 4ae1 b2bf
000003c0: 7dc9 6cbf 41ab d0bf 1bc4 c8bf b828 08c0
000003d0: d5a2 ae3f 3302 dfbe 8397 1bc0 ef5e bf3f
000003e0: d741 2a3f f706 85bf ad4e ea3d d246 cabd
000003f0: d0dd 89be bc86 89bf 5a9e c2bf 5002 f03f
-0.3098371 -0.35601845 -0.44561368 -0.25095317 0.29524627 0.084261164 -0.41210547 -0.05969078
0.20603469 -0.4711508 -0.024970945 0.22213994 0.013759375 -0.35531396 -0.09899088 -0.2858694
-0.093904234 0.10443124 0.26319328 0.0939066 0.4705425 -0.31655973 0.08466812 -1.5429354
0.7455818 2.4535537 -0.65658194 -1.0466021 0.622224 0.11426112 2.0219223 -1.2158955
0.13848591 0.068492964 -3.6367836 0.41353613 3.8030372 -0.14350726 1.9016253 -0.9786931
-0.18819387 -0.60599107 -0.39636245 -0.65274346 -0.2290672 0.09686264 0.032970205 0.13926037
-0.10315274 -0.3470102 0.15697041 0.2991859 0.05724679 -0.31371006 0.32141867 0.65137815
-0.07322714 0.21733813 0.40590712 0.16276005 -0.63358325 -0.0029776085 -0.2303869 -0.16441683
-0.65362924 -0.17153156 -0.51688015 -0.25098857 -0.5237829 -0.19964968 0.14592433 0.23080774
-0.15468928 -0.38955903 0.45162132 0.4123586 -0.070713356 0.20015521 0.2138903 0.5487686
-0.18077599 -0.89588547 -1.1780337 -1.606938 1.8681027 0.7565335 -1.7466612 0.6799445
2.1428628 0.05707493 0.19975613 0.8774324 -0.27641216 0.70042324 -1.3364127 0.16256791
2.2345133 0.6722308 1.8357742 -0.8809433 1.1052282 1.6524059 1.7400922 2.1364915
-1.0130256 0.6408902 2.2192242 -1.479371 0.57074416 1.7944176 0.55956984 -1.0477066
0.98658764 1.8271147 0.9739568 -1.1364478 -0.17266552 -1.9503163 -2.235002 -0.63565105
0.2598558 0.312277 -0.101104364 -0.12304441 -0.113531046 0.6119086 0.14204328 -0.28342447
-0.06555868 -0.20402497 0.50068265 -0.30710462 0.41770804 0.31423658 -0.19927418 0.16010731
0.2699867 -0.040422603 0.4624614 0.20567614 0.2026596 0.6828631 0.23339626 0.06980885
0.46295482 0.39221945 0.24984172 -0.29255092 0.1904459 0.2745335 -0.34717122 -0.17326404
0.08983492 0.5280351 -0.09172514 -0.5176453 0.45767435 -0.71417964 -0.7898085 0.057903495
0.22609009 0.17607453 0.025161518 0.6552893 -0.030088242 -0.012404994 0.18869667 -0.24261887
-0.4777268 0.8331012 0.28912565 -0.33437404 0.27878243 0.48842227 -0.32408515 -0.60545224
-0.3810886 -0.5554861 -0.11274766 -0.09998808 1.0387625 -0.018956974 0.8739561 -0.7545355
0.96924347 3.0194545 -0.38382965 -0.9746429 -0.7747448 0.2697129 0.98099136 -2.4390106
0.79523206 -0.60105103 -1.4100943 -0.42881185 3.7868621 -1.0617485 0.40518567 -1.5638878
-0.4620309 -0.64885515 -0.37328443 -0.7488048 0.23728566 -0.13851903 -0.5502005 0.2685582
0.40436268 -0.7193748 -0.11094972 -0.023278954 -0.31267625 -0.13389394 0.36608517 0.43429753
0.3385669 0.3976735 0.3551715 0.0058994126 0.88667345 -0.48860684 0.32518065 -1.6196617
0.36210492 2.1275349 -0.72897804 -0.81474084 0.17051288 0.68894774 2.713019 -1.5915874
0.025164753 0.016161459 -5.6859465 -0.302212 4.652066 0.3016353 1.3031031 -1.3975003
-0.92494947 -1.6302263 -1.5684847 -2.1274853 1.3643442 -0.43556365 -2.4311225 1.4950846
0.66506714 -1.039275 0.114407875 -0.09876789 -0.26927042 -1.0744243 -1.5204575 1.8750706

bias f4 [20]
00000000: 225f bc3e cf12 b63f 37d7 493f f609 463f
00000010: a63f 453f 007e c0bf 1813 023e a498 63bf
00000020: 6ef4 34bf 2418 b03e 382c 9f3e 113c f43f
00000030: c452 0e40 5d86 733e f272 ca3d 9bc0 cd3f
00000040: 548d cc3f 9800 9e3f bf9d afbf 6d5a 4abf
0.3679133 1.422449 0.78844017 0.7735895 0.77050245 -1.5038452 0.12702596 -0.88904786
-0.7068547 0.34393418 0.31088424 1.9080831 2.2238016 0.23781724 0.09885205 1.6074404
1.598063 1.2343931 -1.3720015 -0.7904423

weight f4 [20, 20]
00000000: 278e 3a3e d028 34bf ed9a b2be 3580 4abf
00000010: 71ce 6dbe d23b f23e 3e4b 1e3e ff7a 813f
00000020: 98a8 96bd 3ad4 92be 1e24 cfbe c086 b43d
00000030: 72a9 dc3c 1725 ab3e 9700 3cbf a626 a8bf
00000040: 8d51 21bf bff4 a7be 483a af3f e858 813f
00000050: 92b1 e3bd b0d1 7fbf 43f4 023e 24fa 37be
00000060: d079 5f3e 1ace 19bf 4720 a8be 2081 dd3e
00000070: 9075 b83e d639 8fbf f734 b93d d9d7 18bf
00000080: 837a 1d3f fe06 303f b101 d8be 2910 65bf
00000090: be62 84be abb9 9a3e fb93 043f d99f 503f
000000a0: 14a2 c13e 927d f73a b660 c53e 8833 b4be
000000b0: 2b29 c73e 4029 9b3e cb8a 533e ae4f e43d
000000c0: 4cbf 5fbe 6ea1 d03b 1e79 a6be 9c17 42be
000000d0: 7f05 333e 2d24 99bd eb0a 0b3e 23f5 5cbf
000000e0: 6584 debe d3f0 b4be cec4 9f3e b05e 3b3f
000000f0: 8f61 bdbe e455 493f 511c 7dbe 956a 8d3f
00000100: 0e0e 51bf 5965 86be 4c6d a9bd 501a 87bf
00000110: 2737 96be 50af 253f 3ec1 933e 09c4 123e
00000120: 94a0 07bf b7fd 0cbf d29d a13e 8af9 2040
00000130: c32e a43e 8a5d 9a3e bb02 113e 367f cabf
00000140: e87e 65be 3ba2 a23e 1c52 71bd 8709 e33e
00000150: 18c3 10bf c13f 26bd 5f54 fd3d b5fc 5cbe
00000160: 775d debe 8eb9 003e 12d7 073f d85b a83e
00000170: b9a9 4abf a0e6 85be c014 d5bd 031d a63f
00000180: f9e0 acbd 6c98 043e aba1 40be eaaa a0be
00000190: 9bc7 7abe 6d66 2f3d aa09 c7be ac6f 51be
000001a0: d101 9a3e f865 3dbe 401f ca3e 15a9 2a3f
000001b0: 9743 f43e da85 9ebd 6924 cabd d052 583e
000001c0: d071 093f df02 ff3d dc94 d8bd c4cb 61bf
000001d0: e1d2 00be c368 83be c0bf ed3e 5974 f13e
000001e0: 481d f4bc 40e2 54be 4443 52be 1f51 4abd
000001f0: 6ebb cf3e 5f7b 0bbf 2ad3 1a3f b108 ee3e
00000200: 51bc 2cbd 8283 3b3d 6ffe 573d 15b1 3b3e
00000210: eb31 b3bd f0e8 893d ab99 16be c60c 7dbe
00000220: ea72 50be c464 3c3d c55a 113f d938 193f
00000230: b567 123f 31e8 d63d 7dd7 ad3e 585d 033f
00000240: 4a63 98bd 43a4 bc3d b99b b3be 8019 13be
00000250: f237 9bbd a686 093f 7693 2e3f d0e9 80be
00000260: d76a febc f9a2 1fbd f463 283f 27be 983f
00000270: 3fe8 ea3e 8dd0 52bc 09de 13bf 84d7 07bf
00000280: 0f9d e8be 6da0 38c0 8aec 62be 036c 8dbd
00000290: 5b41 83c0 d98a 973f 22e4 6ebe c0cb 353f
000002a0: 0fe4 903e 3212 b9c0 05a5 01bf 117b e8bf
000002b0: e072 62c0 671d 4440 b135 b2be 48ac 073f
000002c0: 9047 67bf 3e5c d13e 4908 3e3f 1773 2a3f
000002d0: f151 96be 40a6 aebe af15 cc3e 4a3c c03c
000002e0: 9fe1 86be 606f 5d3e 078c bfbe 131d 12bf
000002f0: e1a3 b5be 025c f63d f69c f43e bfb0 0fbe
00000300: f8d1 2bbf 16ec 3f3e 92ab ec3e 1070 073f
00000310: 74e7 b43e 851d f33e c1d0 50bf b641 0bbf
00000320: 6154 d7bd 61ca 79be 5453 a4be c35b 2ebf
00000330: 2e5f cf3e 9fd5 5fbe a8cf 17be 5a0e eb3e
00000340: 94bc 073f c0e9 5dbe e0bb 93be cae9 9d3e
00000350: 06c7 00be 8ca8 193e ab67 80be 0267 86bf
00000360: aa4e f1be 9f60 80be e08e d53e bfe9 423f
00000370: d4fd 513f 0b38 87bf 3ca8 a33e 4b43 1bbe
00000380: 7924 133e 9776 043f 5984 a2be 6562 d9be
00000390: d83a 0ebf 5194 e2bd f4c5 9c3e 9a73 10bf
000003a0: b83a 02bf 6a94 d83c 5562 453d f278 233b
000003b0: 1ff7 983e bece 843e 492c 55be 051a be3d
000003c0: 051d c7be 1ff9 adbe 00be a23e a26d ecbd
000003d0: 6a2e 62be 2b26 69be 26ed eebe 6fc0 cdbd
000003e0: f2a8 bebb b2df 06bf 997c 083e fa53 f0be
000003f0: 5163 0a3e 9bdd e73d 3095 c93c 7514 113f
0.1821829 -0.70374775 -0.34883824 -0.7910188 -0.23223282 0.47311264 0.1545839 1.011566
-0.073563755 -0.2867754 -0.40457243 0.08814764 0.026936267 0.33426735 -0.734384 -1.3136795
-0.6301506 -0.32803914 1.3689661 1.0105257 -0.11117853 -0.9992933 0.12788491 -0.17966515
0.21823812 -0.6008011 -0.32837126 0.43262577 0.36027193 -1.1189525 0.09043305 -0.5970436
0.61515063 0.6876067 -0.4218879 -0.89477783 -0.25856584 0.30219778 0.517883 0.8149391
0.37818968 0.0018882027 0.38550347 -0.35195565 0.38898596 0.3030491 0.20658414 0.1114801
-0.21850318 0.0063669 -0.3251428 -0.18954319 0.17482565 -0.07477603 0.13578384 -0.8631155
-0.43460384 -0.35339984 0.31204838 0.73191357 -0.36988494 0.78646684 -0.24717833 1.1048151
-0.8166207 -0.26249197 -0.082728 -1.0554905 -0.29338953 0.6472063 0.2885837 0.14332594
-0.529794 -0.5507464 0.3156572 2.5152307 0.32066926 0.3014949 0.14161198 -1.5820072
-0.22411692 0.31764397 -0.058916196 0.44343206 -0.5654769 -0.040588144 0.12369608 -0.21580775
-0.43430683 0.12570783 0.53062546 0.3288257 -0.79165226 -0.26152515 -0.104043484 1.2977604
-0.08441348 0.1294877 -0.18811671 -0.31380397 -0.24490206 0.04282229 -0.3887456 -0.20452756
0.3007951 -0.18495929 0.39476967 0.6666425 0.47707817 -0.07740374 -0.09870226 0.2112534
0.5368929 0.124517195 -0.10575268 -0.88201547 -0.12580444 -0.25665864 0.46435356 0.4715908
-0.029799119 -0.20789433 -0.20533472 -0.04939377 0.40572685 -0.54485124 0.6047846 0.46491006
-0.04217178 0.045779712 0.05273288 0.1832927 -0.087497555 0.067338824 -0.14707057 -0.24711904
-0.20356336 0.045994535 0.5677913 0.5985237 0.57189494 0.10493506 0.33953467 0.51314306
-0.07440813 0.09211018 -0.35079744 -0.14365196 -0.0757903 0.5372108 0.6819376 -0.25178385
-0.031056805 -0.038973782 0.65777516 1.193303 0.45880315 -0.012867105 -0.57760674 -0.53063226
-0.45432326 -2.8847916 -0.22160545 -0.06905367 -4.101728 1.1839248 -0.23329213 0.7101402
0.28298995 -5.783471 -0.50642425 -1.8162557 -3.5382614 3.0642946 -0.34806588 0.52997255
-0.9034357 0.40890688 0.7423139 0.66581863 -0.2935939 -0.34111214 0.39860293 0.023466248
-0.2634401 0.21624517 -0.3741152 -0.57075614 -0.35476592 0.12029268 0.47776002 -0.14032267
-0.6711726 0.18742403 0.46224648 0.5290537 0.35332835 0.4748346 -0.81568533 -0.5439714
-0.10514141 -0.24393608 -0.32094824 -0.6810877 0.40502304 -0.21858834 -0.14825308 0.45909387
0.5302212 -0.216712 -0.28854275 0.3084243 -0.12575921 0.15005702 -0.25079092 -1.0500185
-0.47130328 -0.25073716 0.41710567 0.7613792 0.82027936 -1.0563978 0.3196429 -0.15162389
0.14369382 0.51743454 -0.31741598 -0.42457882 -0.5555854 -0.11063445 0.30619776 -0.56426394
-0.5087085 0.026437957 0.04818948 0.0024943915 0.29876038 0.25938982 -0.20817675 0.092823066
-0.38889328 -0.33979127 0.31785583 -0.11544348 -0.22088018 -0.22768466 -0.46665305 -0.100464694
-0.0058184797 -0.5268508 0.1332878 -0.4693907 0.13514449 0.11321565 0.024607271 0.5667184

bias f4 [20]
00000000: ec8f efbf 2b65 babf e36a 7ebf 0e6f 4940
00000010: 1e9a b43f 8d7d 31bf 6d4d d9bd 2ccd 823f
00000020: badb 5abf 9a65 2e3f abee 99bf 1ec8 b8be
00000030: 563f 3a3f d5da debf 2bce 623f 4341 823f
00000040: 5135 9cbf 102b 273d d259 5fbd 8ae0 30bf
-1.8715796 -1.4562124 -0.99381846 3.1474032 1.4109533 -0.693322 -0.10610471 1.0218863
-0.85491526 0.6812378 -1.2025961 -0.36090177 0.7275289 -1.7410532 0.8859584 1.0176166
-1.2203771 0.040812552 -0.05452902 -0.6909262

weight f4 [20, 20]
00000000: 5fa7 9d3e 57d3 afbe 5d25 863f 2049 bfbf
00000010: 6f00 94bf 08d1 783f 6e4a a03f bc41 7cbf
00000020: 96a1 133f 9ae3 8dbe bf14 9d3f 543e 8dbf
00000030: 91f2 a63f 68e6 14bf 30a3 ee3e f802 b3bf
00000040: 5c6b 5e3e 2f5e 5d3f 3bf8 e83e b283 0abf
00000050: 9521 913e d90d 7cbe 4f77 ccbe 6cf4 f43e
00000060: 0cb2 393f 4d50 60bf 6cd7 46bf ac1e bc3e
00000070: 8abc 18bf 43f0 ef3e 3f81 7ebe 471a 723e
00000080: d5a5 86be 11f4 113d 492f 9cbe 6611 5f3f
00000090: 87dc 56bf 7cc3 18bf 6d30 24be 3044 d83d
000000a0: c440 393f d888 f3bd b8a8 1cbe 2e3f 093f
000000b0: 391c 0bbf ba4a 9e3d 02d2 873e 7fc7 99be
000000c0: e0ad ba3e ac8d a33e d0cb 1f3f edb7 b7be
000000d0: bc91 873f 92dc 0abf f775 0040 5332 b1be
000000e0: 1e3e e23d 7f9b 8a3f 30b0 1ebf d6a5 b1be
000000f0: 881e febe 41ed 803e 3ba0 2cbf 3761 593f
00000100: 8d71 133f ea4c ccbd 017b 36bf 77dc 2e3f
00000110: 6bd3 f83c 881f 463e 4ef1 8fbe ee37 a5bd
00000120: e4e0 65be 205a f8bb 2830 a5be a03c 6f3f
00000130: 2f3b 96be 67e9 84be d08c de3d 8118 6c3f
00000140: 8db2 80be 8c6c 96be 9a7c 2bbf ce3f 813f
00000150: 4ffb da3e 0c79 e0be 6dd1 88bf afc7 023f
00000160: 8842 fdbe 170f 573e 68ee 0bbf 271d e53d
00000170: 1a46 55bf defa 02bf a94d 1cbd 4b3b 573f
00000180: b90e d9be 9de5 09bf c0a4 313f 1f13 1a3f
00000190: f204 963f 768a 8abf 5779 6b3f cc6c 9ebf
000001a0: b4e4 b4bf ca5f a73e 809c 3b3f 3bc0 7fbf
000001b0: 8613 77bf a79a c8bf dd70 7e3f 7e7e 66bf
000001c0: 0b91 1b3f b927 ecbf c620 35c0 75a7 d6be
000001d0: d4e0 643f 4025 253f 2f45 5d3f d3c8 c5be
000001e0: ee35 1bbf 6803 863e 7aee 2cbf eae3 913f
000001f0: c786 463f 7c8d c5be 777d 7fbf 21ac 2e3f
00000200: b68c 1dbe 4384 08be a85b 11bf ac0c 23be
00000210: 8bff 8cbe 38a0 96be 1df2 b0be 287b 243f
00000220: 0825 29bf 251f 46bf 4d09 c53e 527f 833e
00000230: 307d 33be 9375 25be a107 573f 86a5 ddbe
00000240: 4acb 03bf 698f 8c3e 1ca9 143f 9ac2 98bf
00000250: 971b 0dbe 8007 00bf 5161 603f 8b59 23bf
00000260: 9484 3e3f 126b f1be 7414 55be e622 30bf
00000270: 39c6 a93e e12f 323f d00b 633f 9553 a03f
00000280: 32ab 7bbe 894d 87bd 73eb dc3e 52e4 b63e
00000290: c5bc 40be 98c3 8bbe 4fac b63d 1098 bb3c
000002a0: 0128 233e 0d44 56be 8a4f e93d 6f1d 63bd
000002b0: 3978 06be bd07 a4bd 009b 56bf 85b9 d3bc
000002c0: 2866 eb3e 48c4 0ebc 74fe 98bd 6530 4a3e
000002d0: 20a3 cc3e 1eda 12bf 9fae 3b3f 1d28 4cbf
000002e0: 486b 09bf 08a0 7c3e 1484 3f3f 4775 86bf
000002f0: 000f adbd 5746 05bf 2edb 743e 82d5 30bf
00000300: 507c ec3e 63e6 c7be 381c 16bf 3ad3 04bf
00000310: ca7b 8e3d b37f 643e 92b4 f13e 1577 203d
00000320: 4579 28bf e26e efbe b27e 00bf d8ff 023f
00000330: 50cf da3d 53ba 07bf 3e49 41bf e354 e43e
00000340: 3cf3 0cbf a72f 223d a097 02be 704f 8a3e
00000350: 1498 bebe 366e a1be d7a4 c9be 1804 ec3e
00000360: cdb3 9bbe bff6 88be da0c c13c f52e aa3e
00000370: f677 8abf 1087 aebf 0072 71bf 12aa 893f
00000380: 06dd 7d3f b95f 81bf add4 6abf 0e81 903f
00000390: e9f6 22c0 2ae1 fdbe a81a aabf cb2b 0f3f
000003a0: abb5 f3bf 5cef 9cbd ecf0 fac0 c2fa c13f
000003b0: 41dd b6be 922e a1bf afdd 22be a8a2 0640
000003c0: 0322 d03d ae48 0ebe 16f4 ebbe 9959 283f
000003d0: 99a8 503f ded2 093e 98db 3cbf 1633 083f
000003e0: de80 33bf 3b52 8a3e d328 2abf e64a 003f
000003f0: a84e 2bbf 7015 1d3f 1b0c b93d bb23 993f
0.30791757 -0.34340927 1.0480152 -1.4944191 -1.1562632 0.97193956 1.2522714 -0.985378
0.57668436 -0.2771271 1.2271956 -1.1034646 1.3042775 -0.5816407 0.46608877 -1.3985281
0.21720642 0.8647184 0.45501885 -0.541072 0.28345934 -0.24614657 -0.39934775 0.4784273
0.725373 -0.8762253 -0.7767246 0.3674215 -0.5966269 0.46862993 -0.24853991 0.23642837
-0.26298395 0.03563315 -0.30504826 0.8713592 -0.8393025 -0.59673285 -0.16034098 0.10559881
0.7236445 -0.11891335 -0.15298736 0.5361203 -0.5433994 0.07729097 0.2652741 -0.30035016
0.3646078 0.31944025 0.6242037 -0.35882512 1.059135 -0.54242814 2.0072 -0.34608707
0.11047004 1.0828704 -0.6198759 -0.34696835 -0.49632668 0.2518101 -0.6743199 0.84913963
0.5759514 -0.09975608 -0.7128144 0.6830515 0.03037425 0.19347966 -0.28113788 -0.08067308
-0.2244907 -0.007579103 -0.32263303 0.9345188 -0.29342028 -0.25959322 0.108667016 0.9222489
-0.25136223 -0.2937969 -0.66987 1.0097597 0.42769858 -0.4384235 -1.0688912 0.51085943
-0.49464822 0.2100185 -0.54660654 0.11187201 -0.8331009 -0.5116404 -0.03816 0.8407485
-0.42394045 -0.5386599 0.69392014 0.60185426 1.1720259 -1.0823505 0.91982025 -1.2376952
-1.4132295 0.3269027 0.73285675 -0.99902695 -0.96514165 -1.5672196 0.99390966 -0.9003676
0.60768193 -1.8449622 -2.8301253 -0.41924635 0.8940556 0.64509964 0.8643369 -0.3862978
-0.60629165 0.26174474 -0.67551386 1.1397679 0.77549404 -0.38584507 -0.9980082 0.682314
-0.15385708 -0.13331704 -0.5678048 -0.15922803 -0.27538714 -0.29419112 -0.34559718 0.6425042
-0.6607213 -0.7739127 0.38483658 0.25683075 -0.17528224 -0.16158132 0.83996016 -0.43290347
-0.5148207 0.27453163 0.5807054 -1.1934388 -0.13780056 -0.50011444 0.87648493 -0.63808507
0.7442105 -0.47152 -0.20808583 -0.6880325 0.33159044 0.6960431 0.886899 1.2525507
-0.24577025 -0.066065855 0.43148383 0.3572107 -0.1882201 -0.27297664 0.08919584 0.022899657
0.15933229 -0.20924397 0.11392124 -0.055447992 -0.13131799 -0.080092885 -0.8383026 -0.025845299
0.45976377 -0.008713789 -0.07470408 0.19745024 0.39968204 -0.5736407 0.73313326 -0.7974871
-0.53679323 0.24670422 0.7481091 -1.050454 -0.08450127 -0.52060455 0.23911735 -0.6907579
0.46188593 -0.3904296 -0.5863681 -0.51884806 0.06957205 0.22314338 0.47208077 0.039176065
-0.6581004 -0.46764284 -0.5019332 0.51171637 0.10684073 -0.53018683 -0.75502384 0.44596013
-0.55058646 0.039596226 -0.12753153 0.2701373 -0.372254 -0.31529397 -0.39383575 0.46096873
-0.30410615 -0.26750752 0.023565698 0.3323895 -1.0817859 -1.3634968 -0.94314575 1.0755026
0.9916538 -1.0107337 -0.9173077 1.1289384 -2.5463202 -0.4958585 -1.3289385 0.559262
-1.9039816 -0.07662842 -7.8419094 1.515465 -0.35715678 -1.2592337 -0.15904878 2.1036777
0.10162737 -0.13894913 -0.4608466 0.65761715 0.8150726 0.13459346 -0.73772573 0.5320295
-0.7011851 0.27015862 -0.6646854 0.50114286 -0.66916895 0.61360836 0.09035512 1.1964029

bias f4 [20]
00000000: 8f24 04c0 1294 ae3f 365c 92be e1ce 973f
00000010: 3796 ed3f a42e 6fbe b027 d83f 76c7 4bbf
00000020: ea66 9bbc 0739 43bf 6e8b bf3f 4457 c93f
00000030: e19c 8c3f 8535 7a3f 86e8 0abf edbb 4a3f
00000040: 4029 50bf d131 cabf 5ee0 273f 07ee d4be
-2.0647314 1.3638937 -0.28585976 1.186001 1.8561467 -0.23357636 1.6887112 -0.7960123
-0.018969972 -0.7625889 1.4964426 1.5729756 1.0985376 0.97737914 -0.5426105 0.79193
-0.8131294 -1.5796453 0.6557673 -0.4158785

weight f4 [20, 20]
00000000: e2dd a53e c2e0 10be e239 ef3f a066 45bf
00000010: 52f5 493e 4cab 083f d659 8cbc 0c7a 5c3e
00000020: 0106 633d 9a60 c03d 4919 aabe bb08 e7be
00000030: 082b e4bd b191 bfbe 67f3 0c3f f5a5 ecbf
00000040: 5271 5f3e 0a3b f4be 8b81 143f cd67 2e3f
00000050: c602 66bf 0f8b 5b3f 347e 9cbf f793 473f
00000060: e094 2c3f bbca 33be 8cef ef3e 28a6 aebf
00000070: a9f3 0fbf ca7f 3dbf ab1f 843f a8f0 0140
00000080: 0b7b 723f 6733 f83e ecd1 66bf 4a77 a03f
00000090: bce7 1abf 3374 bbbe cd93 4f3f 3535 a0bf
000000a0: 80ab 3b3f 1cf8 3dbf 747a 19bf 2834 1cbf
000000b0: abaa 96bf d9df 8b3d 62ce 9bbf 8192 10bf
000000c0: 2f1e 8fbe f7a1 4b3f b0bc d2be cd61 acbd
000000d0: 7a71 d9be 792e fbbe 70c6 c93f 238f d53d
000000e0: f4a0 4e3f c599 613f 5694 9bbf 326f 2f3e
000000f0: 37e6 90be c29c 033f dbb4 133f 1c8e df3e
00000100: 5c4f 773f d0d3 413f aee7 923f 4c42 7dbf
00000110: c8e5 0ebf 2ee8 423f 6678 6e3f 33f0 b1be
00000120: 367d 4a3f e7c7 f63e 6ed4 983f 7a27 e63e
00000130: 8c5a 69bf 3c69 d2be d355 1b3f e115 1e3d
00000140: 9dd0 673f b4e5 c6bf e59b 373f f40b 4abf
00000150: 0273 c8bf abbe abbe 4723 81bf 22b6 ce3f
00000160: 3ade ba3e 1892 cfbe 0fba 94bf 9397 6fbf
00000170: fa36 9ebf a0c8 c2bf 7304 5abe fb97 a8bf
00000180: f004 493f 8eaf 133f a498 71bf 2744 1b3f
00000190: c3cc 49bf 7037 bc3f 4d40 6940 260c b33f
000001a0: 54f4 b63f ceda 3f3f 73ca c73f 161e 0bc0
000001b0: dcad d5bf c59e bbbf 56b0 d63f bd04 9bc0
000001c0: 3d15 3940 b5ae 913f 6bba d4be 480c 53c0
000001d0: abb0 ebbf 6a59 f7bf 7c8c b83f 8e7a 97bf
000001e0: f799 8a3b efb4 dcbe bb5e 9f3c b943 9abd
000001f0: 96b7 3abf 1687 2b3f 3665 48be 6941 43bf
00000200: 532f 45be 6372 013e 5cf6 2fbf b925 a2bf
00000210: fcd2 5a3e 89a5 8d3e d3f8 203f 01a3 67be
00000220: 5417 c3bd 9bad f13e 64f4 ccbf 3e77 19bd
00000230: df26 1dbe 2251 d6be d160 99bd dc26 1ebf
00000240: 4a1c 2ebf f18f 373e 9926 aabe 966a 2dbf
00000250: 7189 c93e bd66 42be a65d 233e 6675 0ebf
00000260: 89e7 d83c 2c46 823e cd8c d73d f794 40be
00000270: 550b c93e 0a71 983e 1105 9dbf 22a9 153f
00000280: 076a 7f3f d2ba aebf 13d9 59bf 7ca0 86bf
00000290: 884e 39bf 9b68 69bf fd74 04bf 1bcb 133f
000002a0: 8c4f 883e 0cf5 aabe 8b8d 84bf 0acf e63e
000002b0: bdd2 7fbd 13ef 66bf 380e 06bf 8692 1ebe
000002c0: 42e2 3c3f a207 243f 4ddf 57bf a0d0 b03b
000002d0: 8281 2c3f 3ef1 07bf a706 b0bd 869b dcbe
000002e0: 3c63 19bf d5bc 8fbb 4b77 3bbf 100d 933e
000002f0: c646 193e e250 7a3e 8d6d d6bd 78d7 41be
00000300: ecf6 07bf fe2a 1bbf 6a41 df3e f58d 173f
00000310: 8656 ae3e f598 193f 5971 0cbf b089 7dbd
00000320: e0c8 6dbe 6883 a6be 726a 2f3f 6cb1 64be
00000330: b239 50be 9992 a93f c5aa dbbe 5141 aebd
00000340: 18b0 a43f 40e7 243f ca13 bebd fba4 9ebf
00000350: dbdb 75bd cf98 42bd f8b2 5c3f b4fd 11bf
00000360: 7609 b23e f354 d93d f8a7 c83e 1a23 9b3f
00000370: 5d77 343f 54e8 2ebd 3013 483e 7701 e93e
00000380: d1a5 c13d d5fb efbe b62e 5e3f caa8 793f
00000390: 12da 6dbe 801e cb3d 527d cf3e 9824 e53e
000003a0: bafc f2be 0da6 debe f9bc 48bf 773d 933e
000003b0: 68dc b4be a052 77bf 6e09 723f cd4f e13e
000003c0: 5d49 363f 1be6 08bf f941 8440 628a 52bf
000003d0: 6a5c 46bf d7a3 37bf b7a7 33bf a5bd 6b3f
000003e0: a0ac efbe 7c62 aabe c12f 2dbf f1b2 01c1
000003f0: a8cb 06bf c870 a2be 690f e8be b53e aac0
0.32395846 -0.14148238 1.868954 -0.7710972 0.19722489 0.5338638 -0.01713268 0.21530932
0.055425648 0.09393425 -0.33222416 -0.45123848 -0.1114102 -0.3741584 0.550589 -1.8488146
0.21820572 -0.47701293 0.58010167 0.6812714 -0.8984798 0.8575906 -1.2226014 0.7796015
0.67414665 -0.17557804 0.46862447 -1.3644457 -0.5623117 -0.74023116 1.0322164 2.0303135
0.94719 0.48476717 -0.90164065 1.2536404 -0.6050985 -0.3661209 0.810849 -1.2516237
0.73308563 -0.7420671 -0.59952474 -0.61017084 -1.1770834 0.06829805 -1.2172358 -0.5647355
-0.27952716 0.79544014 -0.41159582 -0.084170915 -0.42469388 -0.49058893 1.5763683 0.10427692
0.80714345 0.8812526 -1.2154644 0.17132261 -0.2830064 0.5141107 0.5769784 0.43663108
0.9660547 0.75713825 1.1476953 -0.98929286 -0.5581937 0.7613553 0.93152463 -0.3475357
0.79097307 0.48199388 1.1939828 0.44951993 -0.9115379 -0.41095912 0.6067783 0.038595084
0.90552694 -1.553885 0.7172225 -0.7892449 -1.5660098 -0.33543906 -1.0088891 1.6149333
0.3649767 -0.40541148 -1.161928 -0.9359066 -1.2360528 -1.5217476 -0.2129076 -1.3171381
0.7852316 0.5768975 -0.94373536 0.6065087 -0.78828067 1.4704418 3.6445496 1.3988082
1.4293313 0.74943244 1.5608658 -2.1737113 -1.6693683 -1.4657828 1.6772563 -4.8443284
2.8919213 1.1381441 -0.41548476 -3.2976246 -1.841329 -1.9324162 1.4417872 -1.1834276
0.00422978 -0.4310679 0.01945435 -0.07532448 -0.7293638 0.67003 -0.19569859 -0.7627168
-0.19256334 0.12641291 -0.6873529 -1.2667762 0.21369547 0.27665356 0.62879676 -0.22620775
-0.09525934 0.47202763 -1.6012082 -0.037467234 -0.1534686 -0.41858774 -0.074891694 -0.61778045
-0.68011916 0.17926003 -0.33232573 -0.6774076 0.39362672 -0.18984504 0.15953693 -0.55647886
0.026477592 0.25444162 0.105249025 -0.18806826 0.39266458 0.29773742 -1.2267171 0.584612
0.9977116 -1.3650763 -0.85096854 -1.0517726 -0.72385454 -0.9117524 -0.5174101 0.5773179
0.2662319 -0.3339008 -1.0355695 0.45079833 -0.062456835 -0.9020855 -0.52365446 -0.15485582
0.7378274 0.64074147 -0.84325105 0.005395964 0.67385113 -0.5310248 -0.08595019 -0.43087405
-0.59917045 -0.004386524 -0.732289 0.28720903 0.14968404 0.24444917 -0.10470114 -0.18929851
-0.5311115 -0.60612476 0.43604594 0.59200984 0.34050387 0.5999902 -0.54860455 -0.061898887
-0.23221159 -0.3252213 0.685218 -0.22333306 -0.20334509 1.3247863 -0.42903724 -0.08508552
1.286624 0.6441536 -0.09281118 -1.2394098 -0.060024124 -0.04750901 0.86210585 -0.57027745
0.34772843 0.10611906 0.3919065 1.2120087 0.70494634 -0.042702034 0.1953857 0.4550893
0.09455455 -0.4687182 0.86790025 0.97523177 -0.23227718 0.09917927 0.405253 0.4475448
-0.4745844 -0.43486062 -0.7841335 0.2875783 -0.35324407 -0.9661045 0.9454564 0.44006196
0.71205693 -0.53476113 4.1330533 -0.82242405 -0.7748476 -0.71734375 -0.7017779 0.9208625
-0.4681139 -0.33278263 -0.6765099 -8.106187 -0.52654505 -0.3172667 -0.45324257 -5.3201547

bias f4 [20]
00000000: ec38 a13e 22d8 5d3f 86f8 d8bf cfda 4f3f
00000010: 8bb7 5bbf a8c3 963f 6c6c d8bf d4c0 d8bf
00000020: 4429 5abf 8962 32bf 7358 28bf 1f3e 923f
00000030: 1e35 27bf 4b04 7d3d 625d 27c0 626a 363f
00000040: 8dcb debf 12a6 903f cfab 7e3f cff3 303e
0.3148874 0.8665792 -1.6950843 0.8119325 -0.8582694 1.177846 -1.6908088 -1.6933846
-0.85219216 -0.696816 -0.6575996 1.1425208 -0.65315425 0.061771672 -2.6150746 0.7125608
-1.7405869 1.1300681 0.9948091 0.17280506

weight f4 [20, 20]
00000000: 559d f83e 3b1a dc3f 5158 e93f c774 3abd
00000010: fa34 863e 4f24 01bf 7407 0540 5e92 0140
00000020: a9d9 74bf bfa0 973f e899 f1bf bbea f0bf
00000030: b790 363f 5b64 783f 25d2 c53f 107d d6bf
00000040: 4c12 e93f 74be df3d c74e 05c0 46c0 d73f
00000050: f234 073f 3b03 9d3d c68a 7fbf e3ae c6bf
00000060: 865c 92bf 8ae7 103e 0013 533f 9887 a23e
00000070: 2579 0440 5c5d a5bf 19d6 26be a3fb 9cbd
00000080: f85a 02c0 e8d7 9a3f 6b15 08be 5852 133f
00000090: 00f9 cbbf 6739 ee3e fcfb b63f 144a 66bf
000000a0: b426 993e abb7 62bf 2cd6 8d3e 4678 1ec0
000000b0: 0479 a8bf 3045 dd3f 9e86 96bf d620 20bf
000000c0: e4a8 bb3f 36f0 333f 9661 b9bf 3278 703f
000000d0: 157d 74c0 87ce d03e daae 09bf 495e a53e
000000e0: f870 aebd 7f90 b1bf 9e7e c0bf 2517 9bbe
000000f0: 9a7c 9240 195e 8540 3c97 3440 f64b fb3e
00000100: 94bc 54be 33de 723f 6137 5140 b7f1 6c40
00000110: 0586 87c0 4fda c43f 9fcf 97c0 a5a2 5bc0
00000120: d9a8 1040 18fd c140 1815 8140 6f81 6ac0
00000130: c2c7 4c40 4810 88bf 3145 a8c0 af46 3c40
00000140: 2796 0d3f 40d9 21c0 a3ca d9bf 604f c33f
00000150: 2d25 a63f 680a 1ebf 901d 43c0 beec 17c0
00000160: 388c 51bf 613c 9dbf 2f0f fd3f 00f2 0a40
00000170: b7ce b63f 3f68 be3e e631 22c0 591e 1840
00000180: f8b4 c0bf 712d 733f 858e f63f 6d7d e8bf
00000190: 3bdf 543e 4363 62bf 56fa 21be 46ba 20bf
000001a0: e641 033f 785d ea3e 3c76 babf c9f0 bfbf
000001b0: 377e 0cbf 5238 c23d 98e4 e4be e05c ca3f
000001c0: 09a6 98be dc26 c0be 827d 5cbf e2cc aa3f
000001d0: af9b c6be ae99 87bf 97e8 fabe 0cbf 28be
000001e0: 1a68 bbc0 4a3a 1540 ae27 9e3e 85f5 94bf
000001f0: 0d1a eabf 6ca0 903d 414c 053f 93f3 a03d
00000200: 7848 3340 29c5 263e 1b72 993e 2e90 e8bd
00000210: 9106 90c0 5db0 b4c0 c680 72be da8d 263e
00000220: fca1 48bf 303c 25bf 14ac f73e 056a cb3f
00000230: b2c6 b63d 0f36 ee3d 5d2f febe 9b85 2dbf
00000240: 9782 57be 337e 32bf 72df 5a3f 8b64 b73e
00000250: 7f11 8e3f 44a7 b0be e954 38bd 9334 76be
00000260: 3ae0 e1be 6d43 74be 2286 c43e 30e6 4fbc
00000270: e799 d1be 1c1d 9b3e a17b b73e 11fb a6be
00000280: 6138 9640 d855 0e3f d888 d33b 9d05 41be
00000290: 4bc6 2e3f c171 f33e 6a84 8c3f 548c 7d3f
000002a0: c403 32bf 4883 c2bd 2376 88bf b51b 9dbf
000002b0: 0be4 843f 8f3a 3940 f16c b4bc 73d5 02bf
000002c0: bacb 103e 54d0 db3d 5b6f 003f f1d1 b8bf
000002d0: dfb6 8ebc da88 93bf a9f6 0bc0 ed2d d03f
000002e0: 118f cc3e 634b b2bf dfce c7bf 9ef5 b2bf
000002f0: 1dbf 733f b950 22c0 2027 1f3f 0149 853f
00000300: 43ad 643f 0138 d4be ffa8 d7bf 701a 0540
00000310: c0e6 0bc0 f3db f53f 2b5e 2140 6933 c4bf
00000320: e90c 93bf 0a44 34bf 2591 11c0 03ea 443f
00000330: 7d06 2b3f d022 ecbf c86f 5cbf 26ca b4bf
00000340: eb74 ed3e c20f 14c0 7828 c63f 131e 7c3f
00000350: 7748 8ebe c9fe 8abf 3e19 a1bf 9b75 c83f
00000360: 2589 18c0 d19c 0b40 1544 2640 86b8 a1bf
00000370: 4076 03c0 7155 97bf 5346 03c0 e9ec 583f
00000380: a9ae b23f 781f 04c0 1197 74bf 321f d7bf
00000390: 9e59 d2be 7c3d 0bc0 5af4 eb3f 0094 aa3f
000003a0: e486 b83e 44db dabf 00a7 ecbf 9bc9 f53f
000003b0: 48bd 1fc0 20b9 2440 361f 3d40 8512 f1bf
000003c0: 3119 903d cfea 99bf 8470 ab3f 7bcc 483e
000003d0: 6b3a 0bbf aa68 e83f da5f e63e 7d87 4e3f
000003e0: 73db 01bf 3258 a43f afab a83f 4abb 4ebf
000003f0: 9d9f a040 8a05 f53e 960f 8d3f 75d3 87bf
0.48557535 1.7195505 1.8230077 -0.045521524 0.26212293 -0.5044603 2.07858 2.0245585
-0.95644623 1.1845931 -1.8875093 -1.8821634 0.7131457 0.9702813 1.5454756 -1.6756916
1.8208709 0.10924998 -2.0829332 1.6855552 0.52815163 0.07666632 -0.99821126 -1.5522121
-1.1434486 0.14150825 0.82450867 0.31744075 2.069894 -1.2919116 -0.1629261 -0.076651834
-2.0368023 1.2097139 -0.1328942 0.5754752 -1.5935364 0.4652817 1.429565 -0.89956784
0.2991234 -0.88561505 0.27702463 -2.476091 -1.3161931 1.7286739 -1.1759832 -0.62550104
1.4660916 0.7028841 -1.4482906 0.93933403 -3.8201344 0.40782568 -0.5378243 0.32298496
-0.08517641 -1.3872222 -1.503864 -0.30291095 4.57771 4.1677365 2.8217306 0.4908139
-0.20775062 0.948703 3.269005 3.702253 -4.23511 1.5379122 -4.7440944 -3.431802
2.2603056 6.062145 4.033825 -3.66415 3.1996922 -1.0629969 -5.258446 2.9418142
0.5530724 -2.528885 -1.7014965 1.5258598 1.2980095 -0.6173463 -3.0486794 -2.3738246
-0.8185458 -1.2284051 1.9770259 2.1710205 1.4281834 0.37188908 -2.5342956 2.3768523
-1.5055227 0.94991213 1.9262244 -1.8163277 0.2078828 -0.8843271 -0.15818152 -0.6278423
0.5127243 0.45774436 -1.4567332 -1.4995357 -0.5488009 0.094833985 -0.44705653 1.5809593
-0.29814175 -0.37529647 -0.8612901 1.3343775 -0.38790652 -1.0593774 -0.49005577 -0.16479129
-5.8564577 2.3316827 0.30889648 -1.1637427 -1.82892 0.07061848 0.5206948 0.07858958
2.8012981 0.16286148 0.29969868 -0.11355625 -4.5008016 -5.6465287 -0.23681936 0.1626505
-0.7837217 -0.64544964 0.48373473 1.589173 0.08924617 0.116314046 -0.4964551 -0.6778199
-0.2104591 -0.69723815 0.854972 0.35818896 1.1099089 -0.34502614 -0.04500285 -0.24043493
-0.44116384 -0.23853846 0.38383585 -0.012689158 -0.4093773 0.30295646 0.3583651 -0.32613423
4.694382 0.5559974 0.006455522 -0.18849798 0.6827132 0.47547725 1.097791 0.9904225
-0.69536996 -0.09497696 -1.0661052 -1.227408 1.0382093 2.8941991 -0.022024604 -0.5110695
0.14140216 0.10733095 0.50169915 -1.4439069 -0.017421184 -1.1526139 -2.18693 1.6264015
0.399529 -1.3929256 -1.5610007 -1.3981206 0.9521349 -2.536177 0.62169075 1.0412904
0.89326876 -0.41448978 -1.6848449 2.0797386 -2.1859589 1.9207748 2.5213726 -1.5328189
-1.1488315 -0.7041632 -2.274484 0.76919574 0.66806775 -1.8448124 -0.86108065 -1.4124191
0.46378264 -2.3134618 1.54811 0.9848339 -0.2778966 -1.0859004 -1.2585828 1.566089
-2.3833706 2.1814463 2.5979054 -1.2634437 -2.0540924 -1.182295 -2.0511672 0.84736496
1.3959552 -2.0644207 -0.9554301 -1.6806395 -0.41083997 -2.1756277 1.8433945 1.3326416
0.36040413 -1.7098165 -1.8488464 1.920215 -2.4959278 2.5737991 2.95503 -1.8833777
0.07036055 -1.2024783 1.3393712 0.19609253 -0.54386014 1.8156941 0.44995004 0.8067549
-0.5072548 1.2839415 1.3177394 -0.8075453 5.019484 0.47855788 1.1020381 -1.0611407

bias f4 [20]
00000000: f8b5 1cc0 704c 6bbf 820d 9f3f ed37 56c0
00000010: 15d1 4f40 3b58 0440 32f1 fdbe 0def 6ebf
00000020: 7edf edbf 0346 453f 6fc1 573f 7c3f 2b3f
00000030: 0910 e0be 33c7 1dbf 4fc7 5a40 163b 96bf
00000040: 2fcf 0040 35fd 12c0 387b 1dc0 0677 15bf
-2.4486065 -0.9191351 1.2425997 -3.3471634 3.2471364 2.0678852 -0.4959808 -0.9333351
-1.8583829 0.77059954 0.8427953 0.66893744 -0.43762234 -0.6163208 3.4184148 -1.1736782
2.0126455 -2.2967045 -2.4606457 -0.5838474

weight f4 [20, 20]
00000000: d38e 6941 cbf8 a7c0 c797 5ac0 0b90 1a41
00000010: 6ebf 2bc1 e947 2441 975a 1ac1 7e9d 1ac1
00000020: 1a75 6e3e 4891 6dc1 2d83 4cc1 0216 00c1
00000030: 638f 1c41 b6da 8f3f c670 30c1 276f e740
00000040: 41f1 fa40 8aa6 9ac0 770d 1ac1 dad0 d0c0
00000050: c8e2 1940 e229 c83f 04a8 0340 a868 2fc0
00000060: a66d 643f 8a96 83bf fe8f 9640 87e4 5c3f
00000070: c9c1 4ec0 9e09 12c0 2e98 a63f 4b28 833f
00000080: 50be bdc0 ebb7 02c0 d5ee 9e3d 26ec 0a3f
00000090: 83d0 2940 3ad2 9ec0 8333 0240 941b bdbf
000000a0: 11e8 a040 40f9 04c0 eb09 9dbf 7cf0 9dbf
000000b0: dc67 58bf d81c 1540 f2c7 17c0 665b 2fc0
000000c0: 3b37 0bc0 586b 03c0 6819 40c0 4c7e a8bf
000000d0: 64eb f43f 3d1e fe3d 8b8c 17c0 123b 97bf
000000e0: 9a40 e6bf 66db a9bf 7c80 24c0 f19d 1e40
000000f0: 52a9 be3f 010a a8c0 2815 a3c0 aeb8 f4bf
00000100: 8ba8 8f3e 87f0 b040 297c 8cc0 2df3 98c0
00000110: 8518 b3c0 b233 b6c0 92a5 95c0 9a8b b4c0
00000120: c06d 7c40 6988 aa40 2d50 97c0 5ab0 f0bf
00000130: 4eb4 1dc0 7598 ccc0 4ec5 9cc0 4563 5740
00000140: 399c 7340 a0de 86c0 5d5f 65c0 204e b13e
00000150: ae5c 5dbf ff23 4840 cbf6 4bc0 1df1 3bc0
00000160: d27e 07c0 247c b0c0 0eeb 89c0 6b9f 8ac0
00000170: 8294 1e40 fe22 4e40 7849 8ec0 4df7 4fbf
00000180: 700f c3bc d3ca 60c0 5ee3 25c0 2ce3 813f
00000190: 2141 2bc0 a08c 3a40 bdc9 f73f 4285 8e3f
000001a0: ecd9 9d3e 1df9 efbf 0ac9 f33f f18a d83f
000001b0: ca46 f33f f3a8 8840 a5aa 4f40 bb5d 3040
000001c0: f3cf 7cbf 322f 0dc0 0adf 4d40 7e0f cc3f
000001d0: 8174 4e3f 2912 ea3f ccf1 9d3f 3245 d2bf
000001e0: 1614 d040 c808 22c0 e480 25c0 bb07 9d3f
000001f0: 3f1d 86c0 eaec 8740 bb10 82c0 bc5c 73c0
00000200: 15a6 29c0 6c59 6fc0 f916 96c0 0bf9 2fc0
00000210: e778 6940 b621 0740 3400 7fc0 1ae8 c33e
00000220: fa08 0dc0 77a5 cabf 4260 6bc0 7323 1b40
00000230: 68d7 27bf 8556 c63e 4ead a03e 740a ba3f
00000240: a1fb c2bf e2e7 24c0 70a6 2dc0 a436 de3f
00000250: 5412 9040 0756 7840 cb13 883e 31aa 8f3f
00000260: 3fa2 703f 70e9 c03e 73d0 9e3f 7abc d03e
00000270: a56e 8fbf 20d8 b040 9416 df3f b2cb a53e
00000280: 3f10 c8c0 dd54 10c0 6c87 2bc0 ec13 88bc
00000290: c92d b13f 0ba7 d03f 6791 58c0 95b5 ecbf
000002a0: db57 cb3f d6d0 9340 4014 58bf e19b ddbd
000002b0: d092 e040 55b4 6a40 d31c d83e 78e7 27c0
000002c0: 3f52 9bc0 fe97 b440 ef6d 39c0 d282 7b40
000002d0: e69e 6ac0 19fd 2440 2269 d53f 8e56 2ebe
000002e0: 8b0a a33f a4eb 55c0 88f9 3840 ee4f 3840
000002f0: 9a4f 883f 1c47 9c40 c969 8840 acfc 2340
00000300: 7158 1bc0 224b acbf c34a 6e40 d147 ec3e
00000310: 71b6 2f3e 9ddf fb3f ed43 1e40 5c90 61be
00000320: 9e3d 1bc1 1d3c e840 90ce cb40 b48b bac0
00000330: 8b29 0541 9f79 1bc1 42b3 1a41 63a2 1a41
00000340: 7211 dabe e56d 0f41 5263 2a41 1f60 f240
00000350: c59c 1cc1 18c4 abc0 c76d 1241 c909 95c0
00000360: 6119 1ec0 3ce8 4d40 1168 1d41 0b29 0b40
00000370: 0ab8 aa40 9bc7 c5c0 e4ac a2c0 adc2 fcbe
00000380: 619d 03c0 52fc ec40 d52a dec0 1aa1 dfc0
00000390: 17de 66c0 7a89 b5c0 d096 dbc0 acc9 bac0
000003a0: c970 de40 98b2 a140 46ac bdc0 3d6e 64bf
000003b0: fb75 19c0 34cf 69c0 9994 e2c0 2682 6340
000003c0: f501 68c1 daf6 d740 0355 aa40 3bcd efc0
000003d0: 2dc5 1941 76ea 1dc1 c43f 1641 1593 1341
000003e0: fa67 14c0 0633 3341 17d4 4141 6c72 f140
000003f0: 3d18 10c1 958f 5dc0 c104 2441 e3bc dfc0
14.597369 -5.24912 -3.4155138 9.660167 -10.734236 10.267556 -9.647117 -9.66345
0.23286858 -14.847969 -12.782025 -8.005373 9.7850065 1.123862 -11.027533 7.2323184
7.84195 -4.8328295 -9.628287 -6.5254946 2.4044666 1.5637782 2.0571299 -2.7407627
0.8922981 -1.0280316 4.705077 0.86286205 -3.2305777 -2.281837 1.3015192 1.0246671
-5.9294815 -2.0424755 0.07760397 0.54266584 2.6533515 -4.9631624 2.034394 -1.4774041
5.0283284 -2.077713 -1.2268652 -1.2339015 -0.84533477 2.3298855 -2.3715787 -2.7399535
-2.175246 -2.0534267 -3.0015507 -1.3163543 1.9134336 0.12408111 -2.367953 -1.1814902
-1.7988465 -1.327008 -2.570342 2.47839 1.4895422 -5.251221 -5.0963326 -1.911886
0.28058276 5.5293612 -4.3901563 -4.7796845 -5.596743 -5.6938105 -4.676461 -5.642041
3.9441986 5.3291516 -4.728537 -1.8803818 -2.46413 -6.3936105 -4.899085 3.365434
3.80641 -4.214676 -3.5839455 0.34629917 -0.8646954 3.127197 -3.186938 -2.9365914
-2.1171155 -5.515154 -4.309943 -4.33196 2.4778142 3.2208858 -4.4464684 -0.81236726
-0.023811072 -3.5123794 -2.5920024 1.0147452 -2.6758502 2.914833 1.9358441 1.1134417
0.30830324 -1.8747898 1.9045727 1.6917402 1.9005978 4.2706237 3.2447903 2.7557209
-0.98754805 -2.2060056 3.2167382 1.5942228 0.8064652 1.8286792 1.2339416 -1.6427367
6.502452 -2.531786 -2.5859919 1.2267984 -4.19107 4.24767 -4.0645423 -3.802535
-2.6507618 -3.7398329 -4.6903043 -2.7495754 3.6480043 2.1114326 -3.9843874 0.38263017
-2.203673 -1.5831746 -3.67775 2.4240386 -0.6556306 0.38737884 0.3138222 1.453444
-1.5233041 -2.576653 -2.7132835 1.7360425 4.5022373 3.8802507 0.265776 1.1223813
0.9399757 0.376781 1.2407364 0.40768796 -1.1205641 5.5263824 1.7428765 0.3238197
-6.251983 -2.2551796 -2.6801405 -0.016611062 1.3842098 1.6300977 -3.3838747 -1.8492914
1.5886186 4.6192427 -0.844059 -0.10820747 7.0179214 3.6672566 0.4220949 -2.6235027
-4.85379 5.6435537 -2.8973348 3.9298596 -3.6659484 2.5779479 1.6672709 -0.17025205
1.2737592 -3.3425074 2.8902302 2.8798785 1.0649292 4.8836803 4.262913 2.5622969
-2.427273 -1.3460429 3.723313 0.46148542 0.1715944 1.9677616 2.4728959 -0.22027725
-9.702543 7.257338 6.368965 -5.8295536 8.322642 -9.717193 9.668764 9.664645
-0.42591435 8.96433 10.649248 7.5742335 -9.788274 -5.367687 9.151801 -4.6574445
-2.470299 3.2172995 9.837907 2.17438 5.3349657 -6.180616 -5.083605 -0.49367276
-2.0564806 7.405801 -6.9427285 -6.9884157 -3.6073053 -5.673032 -6.8621597 -5.837118
6.9512677 5.053051 -5.9272795 -0.8923071 -2.397826 -3.6532717 -7.0806394 3.5548186
-14.500478 6.7488832 5.3228774 -7.4938025 9.610639 -9.869741 9.390568 9.223409
-2.3188462 11.199957 12.11428 7.5452175 -9.005918 -3.4618886 10.251161 -6.9918075

bias f4 [20]
00000000: 767e 1441 f429 84c0 265f eb3f 9cf4 8040
00000010: a25c ef3f ad3a 96bf 1e4d 7440 2370 35bf
00000020: fde1 9040 88a8 18c0 5bec 26c1 3a5e e140
00000030: 2aae 0fc1 7ea6 cf40 cb77 9340 eae8 8040
00000040: 6025 173f 9ef3 ad40 6a11 07c0 9fc6 31c1
9.280874 -4.130121 1.8388412 4.0298595 1.8700144 -1.1736656 3.8172069 -0.7087423
4.5275865 -2.3852863 -10.432704 7.0427523 -8.9800205 6.4890738 4.608373 4.028432
0.59041405 5.4359884 -2.1104379 -11.1109915

weight f4 [1, 20]
00000000: bb81 2ac1 bf4d f4c1 f0ec d5c0 7c46 1bc1
00000010: 352b 45bf 419f 1f41 81c0 21c1 1f99 ed41
00000020: f318 e641 2a71 0841 de74 2041 2353 01c1
00000030: d024 a240 8761 17c1 2e91 01c1 9494 1ac1
00000040: 372b f3c1 059c 76c0 1e8f df41 5510 4341
-10.6566725 -30.537962 -6.685173 -9.704708 -0.77019054 9.97638 -10.109498 29.699766
28.762182 8.527628 10.028532 -8.082797 5.0669937 -9.46131 -8.097944 -9.661274
-30.396101 -3.8532727 27.944881 12.191487

u_b f4 [2]
00000000: ec33 9f41 0ad7 1f42
19.900352 39.96

l_b f4 [2]
00000000: 6b8a 2041 0000 0000
10.033793 0.0
