Iter_03/Models/Noise_5/simulation_00_03/ff_1600.pt (torch, 72605 bytes, 23 tensors)

weight f4 [20, 2]
0.15224567 0.5642804 -0.10140715 0.10406669 -0.30440536 -0.5969807 -0.013277005 2.1654701
-0.0580988 -0.39416817 -0.12673832 -0.95967364 0.102136955 -0.91478086 0.7073901 -0.58386767
0.33552578 0.9835931 -0.24879186 -0.45261693 -0.11768421 0.42989618 0.15171361 -0.4752573
-0.027737832 -1.2162405 -0.09177855 0.51175326 0.35793385 -1.1112082 0.43854746 -0.17838657
0.5337286 -1.1648132 -0.7399236 -0.522303 0.18738759 -0.5259592 -0.086581774 -0.21043126
00000000: 4ae6 1b3e ae74 103f 8dae cfbd eb20 d53d
00000010: 05db 9bbe bad3 18bf cc87 59bc 1097 0a40
00000020: 02f9 6dbd 69d0 c9be b1c7 01be 2cad 75bf
00000030: 2e2d d13d 142f 6abf 8517 353f 5a78 15bf
00000040: 09ca ab3e c2cc 7b3f 4bc3 7ebe 68bd e7be
00000050: 6b04 f1bd 5a1b dc3e d05a 1b3e ed54 f3be
00000060: 733a e3bc c5ad 9bbf 64f6 bbbd 4302 033f
00000070: 1b43 b73e 123c 8ebf 4b89 e03e f8aa 36be
00000080: 70a2 083f 9918 95bf a26b 3dbf a6b5 05bf
00000090: 88e2 3f3e 43a5 06bf c951 b1bd 4b7b 57be

bias f4 [20]
-0.47701156 -0.02128717 0.18969053 0.8393329 -0.06048446 0.21902622 0.31561828 0.57032776
-0.27092767 0.15194575 0.069933 0.13232881 -0.02236456 -0.03330268 -0.6117302 0.43761346
0.20824221 -0.7791769 -0.25484127 0.023875488
00000000: dc3a f4be 6e62 aebc 3c3e 423e 85de 563f
00000010: 8ebe 77bd 6948 603e b898 a13e 0001 123f
00000020: 08b7 8abe ab97 1b3e 0839 8f3d 3481 073e
00000030: e235 b7bc 6468 08bd 5a9a 1cbf df0e e03e
00000040: 723d 553e 2378 47bf 8e7a 82be 8796 c33c

weight f4 [20, 20]
0.08516352 0.024818594 -0.22761169 -0.08428242 0.18538062 0.20512185 0.18584387 0.033581745
0.19915055 0.27331322 0.30432773 0.09024303 0.368601 -0.0088577615 0.6830101 -0.12310708
-0.55117977 -0.6462746 -0.11372261 0.11925207 0.25368723 0.20636898 -0.2457446 0.66980547
-0.39366874 -0.5314312 -0.38059485 -0.45784932 0.45410097 -0.048224904 0.031903088 0.10022434
-0.29020688 -0.005726713 -0.5617943 0.12983954 -0.25649035 -0.18383731 0.009969372 0.0055843745
0.25196883 0.070453 -0.11670501 -0.8260642 0.74115515 0.07697494 -0.026706075 0.33523792
0.016776659 -0.25392804 -0.2516952 0.16879341 -0.16439569 -0.049095217 0.19565593 0.037785016
0.1744274 -0.011521067 0.072305635 -0.45125976 0.26468235 0.08209856 -0.27121395 0.31093767
0.1108741 0.15352927 -0.34445783 0.094474874 -0.08971632 0.10340702 0.12979613 0.15629542
0.30134833 0.039242346 -0.013730028 -0.04605335 -0.1934423 -0.0073107984 0.17938918 0.2298958
0.4437616 0.0007521359 0.1059843 0.105155185 -0.2638443 -0.26621783 0.117003225 0.58652157
-0.03087922 -0.10207361 0.11230652 -0.05496449 -0.062087297 -0.1049766 -0.14020455 0.24266657
0.1207213 0.29473633 0.03443724 0.27423927 -0.039519046 0.15778257 0.2762347 -0.18548703
0.17368633 0.15118885 -0.22411735 -0.22075035 0.009076375 -0.20717135 0.12243322 -0.15644991
-0.2581381 -0.13119876 0.57136065 -0.07631309 -0.46422172 0.04399422 0.13541509 0.26590517
-0.4186921 -0.023951724 0.010573713 0.024646027 -0.14727682 -0.55330455 0.22044529 0.020962207
0.30084938 -0.24774389 0.16170977 -0.15246317 -0.0033944729 0.006470166 0.2445397 0.049742352
-0.11494528 -0.20321693 0.06616406 -0.19587716 0.25363383 0.48672482 0.2124689 0.16628633
0.2464817 0.04602955 -0.43119764 0.086952746 0.032986555 0.001102531 0.13443555 0.10468283
0.18290597 -0.19134733 -0.1047118 -0.32834312 -0.057443198 0.025582727 -0.23834795 0.23302487
0.23076682 -0.09742984 -0.058913976 0.19375224 -0.29420355 0.07257347 -0.26093385 0.11420076
-0.187018 -0.11558339 0.15386447 0.05971681 -0.002420543 0.056228463 -0.10346989 0.38708848
0.839567 0.4686345 0.098114006 -0.24165541 0.14598522 -0.0004119249 0.30224457 0.1606511
0.4720065 0.27149615 0.15266642 0.29382807 0.47246152 0.10705399 0.10617539 -0.26322764
-0.09896463 0.23963778 -0.18180951 0.03971472 0.52310926 -0.005482383 -0.22137485 0.029761631
0.03531836 0.24366404 -0.34008843 0.6401892 -0.44041362 -0.32934648 -0.27000263 -0.21235408
0.5870054 -0.5301599 0.07333095 -0.12360783 -0.616218 -0.17799696 -0.36179236 0.01638047
-0.8418346 0.03174567 0.09693414 -0.24135673 -0.42144692 0.09330884 0.35684216 -0.083099686
0.03785383 0.13521129 0.008685106 0.0326331 -0.35991472 0.3156705 0.060077332 0.3921542
-0.01810317 -0.079958506 0.40048146 -0.15737107 0.108278096 0.08228438 0.21796718 0.018357094
-0.3884292 0.1092256 0.17739548 -0.19591491 -0.23254412 0.36889446 0.02235653 -0.13676031
0.10613624 0.19805792 -0.17326325 0.27778867 0.23578511 -0.11174204 0.09838806 0.11285316
00000000: 366a ae3d 5d50 cb3c 0a13 69be 439c acbd
00000010: 6bd4 3d3e 760b 523e db4d 3e3e 038d 093d
00000020: 1fee 4b3e b6ef 8b3e d8d0 9b3e 56d1 b83d
00000030: 45b9 bc3e 2520 11bc c0d9 2e3f 911f fcbd
00000040: 1e1a 0dbf 4172 25bf 66e7 e8bd 6e3a f43d
00000050: 4be3 813e 6452 533e 79a4 7bbe 5f78 2b3f
00000060: f38e c9be e00b 08bf 54dd c2be 3a6b eabe
00000070: ec7f e83e 7a87 45bd d0ac 023d 6b42 cd3d
00000080: ff95 94be 27a7 bbbb c0d1 0fbf a8f4 043e
00000090: b452 83be d93f 3cbe 9456 233c 21fd b63b
000000a0: 0f02 813e aa49 903d 0903 efbd f278 53bf
000000b0: 58bc 3d3f 0aa5 9d3d b3c6 dabc 4ea4 ab3e
000000c0: 346f 893c db02 82be 31de 80be 2ed8 2c3e
000000d0: 5857 28be 1118 49bd 075a 483e 76c4 1a3d
000000e0: 199d 323e dbc2 3cbc fa14 943d 850b e7be
000000f0: 7284 873e 4a23 a83d 8edc 8abe 3933 9f3e
00000100: f611 e33d c736 1d3e c75c b0be 0b7c c13d
00000110: 31bd b7bd 0fc7 d33d 47e9 043e e80b 203e
00000120: 544a 9a3e 95bc 203d e9f3 60bc 70a2 3cbd
00000130: bd15 46be 6c8f efbb ccb1 373e ce69 6b3e
00000140: b834 e33e fc2a 453a 4c0e d93d 9a5b d73d
00000150: 9a16 87be b44d 88be 639f ef3d 4726 163f
00000160: 6bf6 fcbc f80b d1bd f600 e63d 7222 61bd
00000170: 404f 7ebd f9fd d6bd c891 0fbe 967d 783e
00000180: bb3c f73d aee7 963e 100e 0d3d 1769 8c3e
00000190: b9de 21bd c191 213e a26e 8d3e 50f0 3dbe
000001a0: d4da 313e 40d1 1a3e 057f 65be 610c 62be
000001b0: 13b5 143c ba24 54be 45be fa3d 6834 20be
000001c0: ad2a 84be f858 06be b144 123f 0a4a 9cbd
000001d0: 78ae edbe 4933 343d 41aa 0a3e b924 883e
000001e0: d05e d6be 6836 c4bc 5e3d 2d3c 77e6 c93c
000001f0: bccf 16be 5ea5 0dbf 69bc 613e efb8 ab3c
00000200: ee08 9a3e 93b0 7dbe 3f97 253e 4e1f 1cbe
00000210: ce75 5ebb b003 d43b 9d68 7a3e a3be 4b3d
00000220: 6e68 ebbd 1918 50be 0681 873d 0694 48be
00000230: 4bdc 813e ff33 f93e 7391 593e f746 2a3e
00000240: b365 7c3e 7b89 3c3d f0c5 dcbe 4814 b23d
00000250: e91c 073d cd82 903a 79a9 093e f463 d63d
00000260: b44b 3b3e 8ef0 43be 2473 d6bd 971c a8be
00000270: 8f49 6bbd de92 d13c 7c11 74be 129e 6e3e
00000280: 234e 6c3e 4c89 c7bd c84f 71bd fd66 463e
00000290: d9a1 96be 66a1 943d 1f99 85be 17e2 e93d
000002a0: a681 3fbe fcb6 ecbd a68e 1d3e 9d99 743d
000002b0: f9a1 1ebb d14f 663d 06e8 d3bd 7630 c63e
000002c0: dded 563f dcf0 ef3e ffef c83d 8474 77be
000002d0: 267d 153e a0f7 d7b9 cdbf 9a3e b981 243e
000002e0: d6aa f13e 8b01 8b3e 9654 1c3e a270 963e
000002f0: 7ae6 f13e 1f3f db3d 7c72 d93d c6c5 86be
00000300: f8ad cabd 9b63 753e 462c 3abe e7ab 223d
00000310: 7dea 053f 90a5 b3bb 17b0 62be aace f33c
00000320: fca9 103d 1183 793e 1220 aebe 70e3 233f
00000330: e57d e1be 1aa0 a8be c93d 8abe 5973 59be
00000340: fc45 163f 8fb8 07bf 8a2e 963d 1a26 fdbd
00000350: 76c0 1dbf d644 36be d93c b9be 5630 863c
00000360: 7982 57bf bf07 023d 6885 c63d 3826 77be
00000370: e4c7 d7be b518 bf3d 04b4 b63e 2b30 aabd
00000380: 9e0c 1b3d d474 0a3e fa4b 0e3c 49aa 053d
00000390: be46 b8be 909f a13e a613 763d 6fc8 c83e
000003a0: 194d 94bc 49c1 a3bd e80b cd3e e225 21be
000003b0: e8c0 dd3d b784 a83d ca32 5f3e 9e61 963c
000003c0: 31e0 c6be acb1 df3d 29a7 353e eb9d 48be
000003d0: 0c20 6ebe bcdf bc3e 0b25 b73c e50a 0cbe
000003e0: f55d d93d b2cf 4a3e ec6b 31be 513a 8e3e
000003f0: a771 713e 03d9 e4bd ae7f c93d 8f1f e73d

bias f4 [20]
0.25603673 -0.07523227 0.047166508 -0.06057304 -0.12755258 0.00813237 0.13252112 0.09492643
0.11877631 0.16477369 0.13548774 0.20564345 0.0044702236 0.494345 -0.30870304 -0.24490039
0.008347615 -0.0024396728 -0.5736115 0.15316407
00000000: 3f17 833e 6013 9abd ab31 413d 701b 78bd
00000010: 259d 02be a23d 053c 9eb3 073e ca68 c23d
00000020: fe40 f33d 6fba 283e 4cbd 0a3e 3294 523e
00000030: f47a 923b ca1a fd3e 530e 9ebe 2bc7 7abe
00000040: 6fc4 083c ebe2 1fbb 34d8 12bf 0bd7 1c3e

weight f4 [20, 20]
0.29487804 -0.410264 0.108777635 0.2521741 -0.26246104 0.0399207 0.20493017 0.44417557
-0.61301565 0.09321266 0.20698223 0.31017002 0.16112599 0.25819224 0.31307387 -0.051776476
0.47764328 -0.06792668 -0.0601774 -0.25995725 0.26276824 -0.11324982 0.1754814 0.03535374
-0.019788038 0.3860926 0.17384543 -0.22409865 -0.024237106 0.21104398 -0.42976707 0.35142788
-0.061539084 0.04090491 -0.04371418 0.5272706 0.13168155 0.5097147 0.24070224 0.09509359
-0.2702647 -0.038092997 0.07088149 -0.27787068 0.09931522 0.08379865 0.2691583 -0.009505631
0.19327585 0.2894486 -0.35722497 -0.25580952 -0.1294956 0.103107765 0.03130265 0.42220527
0.2779529 0.08387223 -0.14689477 0.14673276 0.2984238 -0.15841092 -0.13833089 -0.0037303157
-0.34722143 -0.059153084 -0.5474405 -0.3814082 -0.06402259 -0.3177509 -0.08599488 0.0452031
-0.0949334 0.18206175 -0.07380398 0.4870358 0.123660475 -0.00039121343 -0.16129576 0.52504486
0.22468477 -0.030578433 0.033533983 -0.011922892 0.24788308 -0.3711387 -0.16939957 -0.18677153
0.2758038 0.0026181373 -0.4486186 -0.35479474 -0.011477819 -0.6112348 0.5961222 0.16332605
-0.21839115 -0.20052744 0.45922303 0.18074039 -0.17802656 -0.08483441 0.08397854 -0.22265355
-0.32648155 -0.057002865 0.0686329 -0.44391698 0.1578766 0.0018380117 -0.30189902 -0.06705569
0.43361887 0.1388022 0.42342535 0.03415417 0.053211965 0.2140726 0.16746841 -0.44471192
0.31730145 -0.19731309 0.120997705 0.31850958 -0.023312386 0.14020252 -0.17273301 0.35427624
-0.060313687 0.07264229 0.10620475 0.0690446 -0.27716637 0.39107248 -0.2584402 0.45103103
0.3746264 -0.5246614 -0.40938044 0.2088506 -0.19975844 0.23252274 -0.12513274 0.19641653
0.03661686 -0.16375792 -0.22959353 0.24371454 0.46111307 0.13575718 0.14101788 -0.07654498
-0.02190663 -0.076014064 0.15365426 0.049216203 -0.20711853 0.3525547 0.066284426 0.009106253
-0.17505069 -0.077943966 -0.20624237 0.4051796 0.2614674 0.10196051 -0.07928046 -0.028765291
0.29540154 0.13316797 -0.17408834 0.2927577 -0.23519026 -0.40568796 0.3423767 -0.10344124
0.0055590877 -0.12966861 0.44829756 -0.25533712 0.5821971 -0.17726712 -0.15490234 -0.014763017
-0.33672544 0.33819106 -0.24253207 0.12382034 -0.12044849 -0.054497983 0.12412951 0.06641056
-0.17119884 -0.014529926 -0.21875474 0.36436212 -0.024539212 0.05622598 0.13954483 -0.22066611
0.24126859 -0.017035717 0.09890687 0.028978135 0.04807186 0.179974 0.13480036 -0.056501064
-0.18611136 0.097900145 -0.09623179 0.12760617 -0.027007358 0.22553633 -0.39708522 0.32122976
0.07466277 -0.3356638 -0.17733067 -0.2605365 -0.0040675835 0.17294927 -0.115290694 -0.20651312
0.22101608 -0.24645679 0.002157715 -0.08202107 -0.31898645 0.1401714 -0.21601191 -0.07395463
0.31319872 0.27298158 0.025382299 0.327589 -0.00029929692 0.6912313 -0.086185016 0.039817505
-0.4130264 0.21084638 -0.40367478 0.0013948134 0.2396975 -0.42251247 -0.03934038 0.31815374
0.067683004 0.10454182 0.30543098 -0.07807801 -0.2391432 -0.49460986 0.24774234 -0.93694156
00000000: 41fa 963e 1f0e d2be cfc6 de3d f71c 813e
00000010: 4b61 86be e383 233d 37d9 513e fb6a e33e
00000020: 98ee 1cbf 47e6 be3d 26f3 533e 9bce 9e3e
00000030: 36fe 243e c631 843e 384b a03e 9213 54bd
00000040: a98d f43e 251d 8bbd 947c 76bd 1e19 85be
00000050: 8f89 863e 86ef e7bd 65b1 333e 15cf 103d
00000060: 861a a2bc eead c53e 8904 323e 1e7a 65be
00000070: e58c c6bc ea1b 583e 6e0a dcbe 5bee b33e
00000080: 6810 7cbd e88b 273d a40d 33bd 35fb 063f
00000090: 87d7 063e aa7c 023f a67a 763e 6ec0 c23d
000000a0: 2260 8abe 6707 1cbd 512a 913d 1145 8ebe
000000b0: c765 cb3d a09e ab3d 1ecf 893e 82bd 1bbc
000000c0: 1bea 453e 9b32 943e 31e6 b6be 77f9 82be
000000d0: 7f9a 04be 2a2a d33d 3537 003d 4a2b d83e
000000e0: d84f 8e3e 34c5 ab3d 956b 16be 1d41 163e
000000f0: 01cb 983e 7936 22be 9da6 0dbe 5078 74bb
00000100: 02c7 b1be 814a 72bd 1025 0cbf f047 c3be
00000110: 471e 83bd 3fb0 a2be 151e b0bd e326 393d
00000120: 716c c2bd 656e 3a3e 8b26 97bd c25c f93e
00000130: b441 fd3d c71b cdb9 b72a 25be 5769 063f
00000140: c413 663e 9f7f fabc ee5a 093d 3c58 43bc
00000150: 10d5 7d3e e405 bebe 1577 2dbe 0941 3fbe
00000160: 2836 8d3e 0e95 2b3b 56b1 e5be a8a7 b5be
00000170: 760d 3cbc e279 1cbf 779b 183f f23e 273e
00000180: eea1 5fbe 1157 4dbe 481f eb3e 0214 393e
00000190: 984c 36be aabd adbd f1fc ab3d 4bff 63be
000001a0: 9728 a7be d67b 69bd 688f 8c3d 1649 e3be
000001b0: 67aa 213e 70e9 f03a 8292 9abe 7e54 89bd
000001c0: 4b03 de3e 2a22 0e3e 35cb d83e 3ee5 0b3d
000001d0: caf4 593d d935 5b3e d77c 2b3e 48b1 e3be
000001e0: 5675 a23e 710c 4abe a5cd f73d b013 a33e
000001f0: 9ef9 bebc 4091 0f3e ece0 30be b263 b53e
00000200: 7c0b 77bd 7bc5 943d e081 d93d 4167 8d3d
00000210: c0e8 8dbe a73a c83e 4652 84be 8aed e63e
00000220: 08cf bf3e 3650 06bf 509a d1be efdc 553e
00000230: 7a8d 4cbe 711a 6e3e cc22 00be 6a21 493e
00000240: 90fb 153d 28b0 27be 911a 6bbe 4e90 793e
00000250: 0317 ec3e ee03 0b3e fe66 103e 9dc3 9cbd
00000260: 8875 b3bc 43ad 9bbd 8b57 1d3e ee96 493d
00000270: e116 54be 0d82 b43e 21c0 873d 6532 153c
00000280: 7d40 33be 16a1 9fbd 3331 53be b373 cf3e
00000290: 0edf 853e acd0 d03d cb5d a2bd 30a5 ebbc
000002a0: df3e 973e 2f5d 083e 3744 32be 56e4 953e
000002b0: b7d5 70be 55b6 cfbe 004c af3e 00d9 d3bd
000002c0: 0229 b63b d9c7 04be 4287 e53e 8cbb 82be
000002d0: df0a 153f 8385 35be b89e 1ebe 95e0 71bc
000002e0: 4767 acbe 6127 ad3e 545a 78be 8595 fd3d
000002f0: b3ad f6bd 4739 5fbd 9d37 fe3d 4202 883d
00000300: c04e 2fbe ed0e 6ebc 3e01 60be ac8d ba3e
00000310: 7506 c9bc 374d 663d d7e4 0e3e 4cf6 61be
00000320: 1d0f 773e 7d8e 8bbc af8f ca3d 8e63 ed3c
00000330: 00e7 443d 1b4b 383e 1b09 0a3e a96d 67bd
00000340: fa93 3ebe df7f c83d 2c15 c5bd 31ab 023e
00000350: 893e ddbc fff2 663e c14e cbbe 3a78 a43e
00000360: cbe8 983d 20dc abbe 2c96 35be 0a65 85be
00000370: 5d49 85bb 9d19 313e 871d ecbd 2d78 53be
00000380: 0a52 623e 2b5f 7cbe 7368 0d3b aafa a7bd
00000390: 3152 a3be 1789 0f3e 3a32 5dbe 8675 97bd
000003a0: 955b a03e 3ec4 8b3e 8aee cf3c bfb9 a73e
000003b0: f4ea 9cb9 89f4 303f c581 b0bd ae17 233d
000003c0: 3278 d3be 1de8 573e 76ae cebe 2cd2 b63a
000003d0: 4373 753e 8e53 d8be 6123 21bd 0ce5 a23e
000003e0: 639d 8a3d 061a d63d 7361 9c3e 5de7 9fbd
000003f0: f4e1 74be 813d fdbe 2bb0 7d3e 67db 6fbf

bias f4 [20]
0.27352032 0.006921462 0.14077619 -0.027500771 -0.17742798 0.02959272 0.35058898 -0.23902427
-0.27820492 0.20013022 0.017539356 -0.22887874 -0.21383761 0.18227689 -0.08617691 -0.16879576
0.078747295 0.020412434 0.07596438 -0.10377882
00000000: db0a 8c3e 6ecd e23b a227 103e 4c49 e1bc
00000010: aeaf 35be 6f6c f23c 6680 b33e c7c2 74be
00000020: e070 8ebe f0ee 4c3e b2ae 8f3c 305f 6abe
00000030: 3ff8 5abe cba6 3a3e 857d b0bd ccd8 2cbe
00000040: 4346 a13d fa37 a73c 3693 9b3d fd89 d4bd

weight f4 [20, 20]
-0.02260175 0.22131544 0.3550142 -0.16398098 0.6513672 0.03463359 0.29555887 -0.24019715
0.18448128 -0.009340057 0.17156851 0.048391126 0.086212546 0.2977286 -0.2180048 0.02807486
0.11424069 0.43060845 0.29290408 -0.20041731 -0.029446911 0.15879418 -0.094495244 0.008979703
0.3237143 0.43157113 0.20212932 -0.04219142 -0.20238353 -0.050050024 -0.29702008 -0.16174592
-0.32083136 0.46611658 -0.5109469 -0.5560827 0.17073885 0.32114345 -0.20826635 -0.021494655
-0.43617433 -0.38054112 0.056477293 -0.009728519 -0.14275515 0.3568927 -0.72584546 0.15628213
0.31575206 0.48481792 -0.1976289 -0.14819296 0.21507655 -0.115036845 0.036298756 -0.33423233
-0.5724893 0.2957485 6.432063e-05 0.14600033 -0.099908836 -0.061878987 -0.12257413 0.13905519
-0.10699604 -0.16014285 0.18550049 0.15035301 0.0089381635 0.15635453 0.27956524 -0.5323567
0.04721037 0.32116294 -0.018279986 0.014540076 -0.17082916 0.60164213 0.04317064 -0.49840805
0.40978837 -0.3903645 -0.32974088 -0.06817965 0.042004615 0.16828652 -0.15001224 -0.03374688
0.051146593 -0.24625862 0.09923993 0.02362745 0.17958815 0.21322021 -0.15550812 -0.04104686
-0.1827399 -0.34147993 -0.50342643 0.0506874 0.07856666 0.01763393 0.11150361 0.15425317
0.082127586 -0.062825926 -0.07815441 -0.0110696815 0.15717144 0.11199246 -0.1835378 -0.32459983
-0.29420948 0.3071426 -0.26022494 0.009860104 -0.06336006 -0.02346086 0.36521578 0.25879908
-0.1292419 0.27477866 -0.01622089 -0.15822586 -0.3309551 0.36282006 -0.06306512 -0.08591345
-0.1584316 0.1886633 -0.22964522 -0.4454317 0.3896658 -0.33411747 0.23423101 0.045179993
0.47620413 0.104546994 -0.0768672 -0.3134132 -0.31363967 -0.123671785 -0.40901154 0.17010953
-0.7007479 0.32144013 0.33763188 0.19983736 -0.067515135 -0.10410667 0.43720654 -0.26667476
0.31223637 -0.31974652 -0.22225396 0.18923394 0.03966639 -0.22306886 -0.44989705 -0.10150153
0.2856986 -0.22140598 -0.37334165 -0.2967745 0.15982947 0.101923354 -0.27912074 -0.14955124
0.16307166 -0.038468648 0.05380276 -0.20422754 0.4402568 0.041595373 0.29443923 0.105189264
-0.17472199 -0.30654883 0.12662536 0.028045122 0.34023562 0.08323717 0.038866196 -0.20532662
-0.16230136 -0.11376474 -0.15067358 0.14531647 -0.09140353 0.3309861 -0.20905729 -0.1061885
-0.38749063 0.2007421 0.40899715 -0.16863304 -0.104316905 -0.45862123 -0.12666923 0.060013
0.08259972 0.40712926 0.24296734 0.26009113 -0.2365984 0.09311036 0.10646419 -0.03708914
0.23744729 0.097908966 -0.1978578 -0.08149531 -0.0200069 0.388831 0.03750234 -0.39027777
-0.051858183 -0.5054179 -0.0501145 0.011767969 0.07872859 0.11886426 -0.021087827 -0.18356532
-0.22347659 0.18803236 0.048248697 -0.17778002 -0.3252044 -0.28420416 -0.13740735 -0.1390534
-0.119807124 -0.1372794 -0.08247533 0.06252341 0.1295509 0.2731342 -0.32369256 0.12465528
0.30350655 -0.16527379 -0.058289584 0.016222294 -0.28674024 -0.49024066 0.16877596 -0.37406504
0.2857243 0.03638652 -0.0013383577 -0.22557123 0.037110742 -0.09137006 0.22884011 0.5572383
00000000: 4e27 b9bc 84a0 623e 6cc4 b53e a1ea 27be
00000010: 00c0 263f f4db 0d3d 7e53 973e 3ef6 75be
00000020: a9e8 3c3e 0a07 19bc a8af 2f3e c635 463d
00000030: 3490 b03d e26f 983e a63c 5fbe 40fd e53c
00000040: 06f7 e93d b678 dc3e 86f7 953e 323a 4dbe
00000050: a63a f1bc f19a 223e b986 c1bd 9b1f 133c
00000060: e1bd a53e e4f6 dc3e fdfa 4e3e e9d0 2cbd
00000070: a13d 4fbe 4101 4dbd 0413 98be b9a0 25be
00000080: 0244 a4be d5a6 ee3e 6bcd 02bf 705b 0ebf
00000090: 2ad6 2e3e ea6c a43e c643 55be 8f15 b0bc
000000a0: 3e52 dfbe 49d6 c2be bc54 673d 5e64 1fbc
000000b0: 682e 12be a4ba b63e 02d1 39bf 6c08 203e
000000c0: 41aa a13e 0e3a f83e 3b5f 4abe e5bf 17be
000000d0: 073d 5c3e 7098 ebbd 01ae 143d 8020 abbe
000000e0: a98e 12bf 596c 973e e0e3 8638 1c81 153e
000000f0: 019d ccbd d274 7dbd 2508 fbbd 7c64 0e3e
00000100: bd20 dbbd 7dfc 23be d7f3 3d3e 24f6 193e
00000110: 6071 123c 671b 203e 2d23 8f3e 8748 08bf
00000120: a95f 413d 786f a43e e9bf 95bc 8039 6e3c
00000130: d7ed 2ebe 3805 1a3f b2d3 303d 572f ffbe
00000140: c8cf d13e dbdd c7be ccd3 a8be c6a1 8bbd
00000150: 080d 2c3d 4d53 2c3e cf9c 19be 2b3a 0abd
00000160: 177f 513d 382b 7cbe 4e3e cb3d 5b8e c13c
00000170: f5e5 373e 6656 5a3e 853d 1fbe c120 28bd
00000180: 2b20 3bbe 75d6 aebe 8ee0 00bf 979d 4f3d
00000190: 8fe7 a03d 0875 903c 015c e43d 8bf4 1d3e
000001a0: 8232 a83d e1aa 80bd 6b0f a0bd 9c5d 35bc
000001b0: 8df1 203e 4e5c e53d 55f1 3bbe f331 a6be
000001c0: a0a2 96be cb41 9d3e 343c 85be 468c 213c
000001d0: ebc2 81bd fd30 c0bc 90fd ba3e 5081 843e
000001e0: fd57 04be caaf 8c3e ace1 84bc f605 22be
000001f0: f272 a9be 8dc3 b93e 4928 81bd 64f3 afbd
00000200: e53b 22be f430 413e 1e28 6bbe a00f e4be
00000210: 4782 c73e 7211 abbe 41da 6f3e a80e 393d
00000220: 07d1 f33e bc1c d63d 8d6c 9dbd b277 a0be
00000230: 6195 a0be a247 fdbd f669 d1be 3131 2e3e
00000240: 3764 33bf cd93 a43e 16de ac3e 2aa2 4c3e
00000250: 6045 8abd e135 d5bd 89d9 df3e 9889 88be
00000260: 72dd 9f3e d1b5 a3be 8b96 63be 8bc6 413e
00000270: 3979 223d 2a6c 64be e858 e6be 09e0 cfbd
00000280: 1647 923e 40b8 62be a326 bfbe d4f2 97be
00000290: 56aa 233e 31bd d03d eae8 8ebe f623 19be
000002a0: 42fc 263e 4d91 1dbd 4860 5c3d 0621 51be
000002b0: 5769 e13e e95f 2a3d bdc0 963e 786d d73d
000002c0: 52ea 32be f8f3 9cbe 14aa 013e e2be e53c
000002d0: 5d33 ae3e 4078 aa3d 2932 1f3d 2441 52be
000002e0: 5432 26be 7dfd e8bd 2d4a 1abe d7cd 143e
000002f0: c631 bbbd 0377 a93e 1d13 56be 5b79 d9bd
00000300: 2c65 c6be 568f 4d3e 1368 d13e 24ae 2cbe
00000310: 1aa4 d5bd 67d0 eabe 94b5 01be 31d0 753d
00000320: 0b2a a93d 3f73 d03e 6ecc 783e aa2a 853e
00000330: da46 72be a5b0 be3d e609 da3d c8ea 17bd
00000340: 6225 733e 7f84 c83d 3c9b 4abe 03e7 a6bd
00000350: 83e5 a3bc db14 c73e 0e9c 193d 7dd2 c7be
00000360: 3f69 54bd 1163 01bf dd44 4dbd 70ce 403c
00000370: 743c a13d 1b6f f33d 61c0 acbc 8cf8 3bbe
00000380: 0cd7 64be 8e8b 403e 6da0 453d f70b 36be
00000390: 3181 a6be 3583 91be 83b4 0cbe 0464 0ebe
000003a0: 705d f5bd f992 0cbe d3e8 a8bd 460c 803d
000003b0: fea8 043e 3fd8 8b3e 08bb a5be 444b ff3d
000003c0: 3665 9b3e 883d 29be 0fc1 6ebd 9ee4 843c
000003d0: 9ecf 92be d300 fbbe 9bd3 2c3e 7485 bfbe
000003e0: 754a 923e 080a 153d d56b afba 25fc 66be
000003f0: 6f01 183d 3a20 bbbd 1055 6a3e 2ba7 0e3f

bias f4 [20]
0.1879749 0.16029908 -0.16320774 0.11284217 0.15917559 0.13072707 0.041925646 -0.0106047895
-0.14504917 0.11773074 0.09219355 0.32190263 0.0010075988 0.017131792 0.31807464 0.17118374
0.15857454 -0.1934364 0.52069026 -0.13732226
00000000: 7e7c 403e 7125 243e ee1f 27be cc19 e73d
00000010: edfe 223e 51dd 053e 3aba 2b3d b6bf 2dbc
00000020: c587 14be d01c f13d f9cf bc3d 6cd0 a43e
00000030: 6811 843a f957 8c3c aeda a23e ca4a 2f3e
00000040: 5d61 223e 3114 46be f54b 053f 359e 0cbe

weight f4 [20, 20]
0.07940188 0.041087445 0.1369402 -0.07596266 0.30473286 0.07259747 -0.053157445 0.004704443
0.5307946 0.107845366 0.004204396 0.10881801 0.17290467 -0.23753045 0.19927299 -0.19335145
0.3235538 -0.15893598 -0.29862487 -0.17649913 0.045022912 -0.20959872 0.16114642 -0.16248271
-0.19601014 -0.05149934 -0.056361627 -0.256316 0.26080847 -0.191641 -0.019225495 -0.22739281
-0.15509525 0.07349299 -0.36292124 -0.3344385 -0.10671181 0.37962836 0.17053872 -0.0035331438
0.31200576 0.16133997 -0.22418998 0.09053975 -0.44502348 -0.16344541 -0.051348075 0.022585407
-0.06722087 0.045945335 0.0132070165 -0.092248425 0.0054978738 0.42303646 -0.04221512 0.026640426
0.04393522 -0.36856684 -0.35784948 -0.040199712 -0.1750284 0.2867522 0.123132735 0.08563587
0.26864305 -0.26278672 -0.027893923 0.2466388 0.008686163 -0.157695 -0.11629821 -0.0978689
0.46501234 0.19056585 0.23189074 0.265659 -0.04089641 0.35006148 0.10494952 0.24997795
-0.38529578 -0.23526044 0.6661945 0.07491004 0.030584881 -0.032539673 -0.06619755 -0.120591246
0.34812576 -0.20772715 -0.19727278 -0.21738511 -0.33218387 -0.007438222 -0.44312456 0.14504476
-0.26008525 0.16232012 -0.39082894 0.018051362 -0.44403735 0.04282919 0.14220846 -0.098520815
0.2886402 0.04436977 -0.3199801 -0.012009172 0.079042405 0.08341251 -0.15950577 -0.3560091
-0.15440445 0.167738 0.019430073 0.4740173 -0.044331774 0.020278655 -0.1183991 -0.38957083
0.23265103 -0.06843008 0.006492778 0.0076885317 -0.3774441 0.094838046 -0.07978445 0.30219314
0.09786503 0.109216414 -0.31853333 -0.052654404 0.12955391 0.120647795 0.1896689 -0.0644666
0.13097052 0.3266422 0.040374633 0.25142053 -0.29061487 -0.13441703 0.4159297 -0.017104996
0.13269496 -0.14352046 0.037974335 0.085946225 0.19128272 0.028992366 -0.026399096 -0.32283154
0.1621371 -0.0565343 -0.24365574 -0.17117262 -0.3775861 0.023643546 -0.26999077 0.32298383
-0.32666153 -0.15354265 -0.018238049 0.2313998 0.027968915 -0.31681558 -0.0095152175 -0.3133755
-0.07615087 0.30675885 0.24418108 -0.1704745 -0.11347266 0.20049916 0.098649174 -0.0022360065
-0.088791996 -0.2502937 0.037623473 -0.014890763 -0.015649159 0.11083047 0.3446689 -0.17795472
-0.1648549 -0.023192154 -0.23372 0.19736469 0.012340225 -0.19190416 0.032437056 -0.1503716
-0.523194 0.4193847 -0.24495094 -0.05035098 -0.19286032 0.12076808 -0.2678691 0.15976997
-0.12293132 -0.118162 0.30904213 0.32309806 -0.058077563 0.32019284 -0.07941389 -0.2880172
0.11943886 -0.26461473 0.32925993 0.13551904 -0.36906296 -0.16918026 -0.31539533 0.10754241
0.2626613 -0.1224525 0.3985392 -0.4220635 -0.42351884 0.016820164 -0.10468136 0.21070883
-0.3220384 0.03764917 -0.1434288 0.51878536 -0.18732238 -0.17224489 -0.004048031 0.16763517
0.30054477 0.063451394 0.107108645 -0.051581793 0.15643954 -0.12878112 0.03406056 -0.08557978
-0.28039724 -0.16752002 0.06213624 -0.16318534 -0.29443637 0.30209672 -0.14138985 -0.0829842
0.08154726 -0.09215518 0.043323934 -0.13817874 -0.22097683 0.32085666 -0.42771202 0.018988535
00000000: 749d a23d 4f4b 283d 0d3a 0c3e 5092 9bbd
00000010: f205 9c3e fbad 943d 9fbb 59bd ba27 9a3b
00000020: 28e2 073f 08de dc3d 08c5 893b fadb de3d
00000030: ec0d 313e 2f3b 73be 380e 4c3e ecfd 45be
00000040: d8a8 a53e 1dc0 22be 5ce5 98be 30bc 34be
00000050: f269 383d 0ca1 56be 9103 253e de61 26be
00000060: e2b6 48be f9f0 52bd 73db 66bd da3b 83be
00000070: b088 853e 8a3d 44be c97e 9dbc a9d9 68be
00000080: 4ad1 1ebe 7e83 963d d0d0 b9be 863b abbe
00000090: b98b dabd a65e c23e b4a1 2e3e 518c 67bb
000000a0: 38bf 9f3e 4e36 253e 0f92 65be e86c b93d
000000b0: 1eda e3be 3c5e 27be 5c52 52bd 0805 b93c
000000c0: 18ab 89bd 2d31 3c3d 3e62 583c beec bcbd
000000d0: 8227 b43b 3c98 d83e c3e9 2cbd 063d da3c
000000e0: 6bf5 333d cbb4 bcbe 0c38 b7be 74a8 24bd
000000f0: a53a 33be 2fd1 923e 042d fc3d dc61 af3d
00000100: 958b 893e fb8b 86be cc81 e4bc e28e 7c3e
00000110: 6950 0e3c cc7a 21be c22d eebd 7d6f c8bd
00000120: 1916 ee3e b223 433e c474 6d3e 7504 883e
00000130: fe82 27bd 423b b33e c6ef d63d 38fa 7f3e
00000140: 7d45 c5be 1de8 70be b98b 2a3f 6f6a 993d
00000150: 258d fa3c 5248 05bd 9592 87bd 8bf8 f6bd
00000160: 8a3d b23e 6db6 54be e001 4abe 349a 5ebe
00000170: 0114 aabe 54bc f3bb 39e1 e2be 9d86 143e
00000180: e529 85be 3f37 263e bb1a c8be 73e0 933c
00000190: dd58 e3be a96d 2f3d 189f 113e 48c5 c9bd
000001a0: a6c8 933e 13bd 353d 6fd4 a3be 1ec2 44bc
000001b0: fce0 a13d 2ed4 aa3d 7b55 23be d346 b6be
000001c0: 331c 1ebe 83c3 2b3e d12b 9f3c 65b2 f23e
000001d0: 3c95 35bd 6c1f a63c 3a7b f2bd d475 c7be
000001e0: 123c 6e3e 1225 8cbd 5fc1 d43b 14f0 fb3b
000001f0: 5a40 c1be 733a c23d 0866 a3bd 0fb9 9a3e
00000200: 766d c83d dbac df3d cd16 a3be 25ac 57bd
00000210: c8a9 043e 3116 f73d 9038 423e 1107 84bd
00000220: 231d 063e a53d a73e df5f 253d 31ba 803e
00000230: 79cb 94be 9ea4 09be bdf4 d43e c71f 8cbc
00000240: 30e1 073e 07f7 12be fa8a 1b3d 9304 b03d
00000250: 9edf 433e 6681 ed3c eb42 d8bc 2d4a a5be
00000260: 4507 263e 8390 67bd e480 79be e047 2fbe
00000270: f752 c1be 1cb0 c13c 3b3c 8abe 235e a53e
00000280: 2e40 a7be 493a 1dbe f667 95bc 12f4 6c3e
00000290: 111f e53c a735 a2be b7e5 1bbc c172 a0be
000002a0: fdf4 9bbd 7f0f 9d3e 9b0a 7a3e de90 2ebe
000002b0: 5b64 e8bd a74f 4d3e 9408 ca3d f789 12bb
000002c0: 94d8 b5bd 7f26 80be 121b 1a3d 63f8 73bc
000002d0: aa32 80bc 16fb e23d 7178 b03e c339 36be
000002e0: b9cf 28be 79fd bdbc 4c54 6fbe f819 4a3e
000002f0: a82e 4a3c 8682 44be b8dc 043d 03fb 19be
00000300: 0bf0 05bf 97b9 d63e 6bd4 7abe d43c 4ebd
00000310: 2d7d 45be 4155 f73d 2426 89be bd9a 233e
00000320: 6ac3 fbbd ebfe f1bd c53a 9e3e 1c6d a53e
00000330: bde2 6dbd 51f0 a33e c0a3 a2bd fe76 93be
00000340: 5c9c f43d 957b 87be c294 a83e 81c5 0a3e
00000350: d2f5 bcbe 973d 2dbe 7f7b a1be 323f dc3d
00000360: 8b7b 863e 60c8 fabd 540d cc3e b518 d8be
00000370: 76d7 d8be 71ca 893c 2e63 d6bd 0ec4 573e
00000380: 38e2 a4be 0436 1a3d 00df 12be 1ecf 043f
00000390: 70d1 3fbe f760 30be 58a5 84bb 8ea8 2b3e
000003a0: 01e1 993e cef2 813d c75b db3d 6e47 53bd
000003b0: b031 203e 33df 03be 1683 0b3d 7444 afbd
000003c0: 3a90 8fbe 5e8a 2bbe 9282 7e3d 0f1a 27be
000003d0: 5dc0 96be 6cac 9a3e 80c8 10be 9ff3 a9bd
000003e0: 4002 a73d dbbb bcbd 7074 313d ba7e 0dbe
000003f0: c047 62be 5347 a43e 12fd dabe d88d 9b3c

bias f4 [20]
0.03454484 -0.15981272 -0.0060035163 0.100608066 -0.44932544 0.13870706 -0.035295885 -0.37793183
0.20417143 -0.27699578 0.3329801 0.09351493 -0.28119454 0.101978354 -0.29833952 0.10606242
0.087270655 0.16145995 0.39085567 -0.15219744
00000000: e47e 0d3d f2a5 23be 25b9 c4bb 9a0b ce3d
00000010: fc0d e6be 3909 0e3e 6b92 10bd 4880 c1be
00000020: 5112 513e 64d2 8dbe 5e7c aa3e c184 bf3d
00000030: bbf8 8fbe 07da d03d f5bf 98be 4137 d93d
00000040: f5ba b23d c255 253e 3c1e c83e a5d9 1bbe

weight f4 [20, 20]
0.30763417 0.072352424 -0.14152128 0.2731673 -0.08532145 0.18416417 0.07067111 0.076672934
-0.06726352 0.09826416 0.072366774 0.12681651 0.21399032 0.20981325 -0.25941 0.121957935
0.2298421 0.27589646 -0.04391032 -0.40531012 0.16891134 0.22115998 -0.2332663 -0.22211303
0.15573676 0.25250396 -0.16887473 0.20788124 0.17084992 0.19787174 -0.054641288 -0.29368767
0.28324017 0.3486217 -0.11395765 -0.32450077 0.2498087 -0.17521639 -0.31183985 0.097830094
-0.4322031 -0.029609881 -0.08982101 -0.21761774 -0.38911632 -0.25851578 0.11834103 -0.3983082
-0.15974547 0.0024915058 -0.18048951 -0.31280285 -0.22057311 -0.20841946 0.51549447 0.27245614
0.049638633 -0.16836587 0.29990727 0.14517954 -0.36449343 0.044397354 -0.13491043 -0.29420933
-0.1577887 -0.13380527 -0.17572193 -0.26733375 -0.17098531 0.2720055 0.10622908 0.11740683
0.08523839 0.096157186 0.4829846 0.25349873 -0.5043628 0.015911514 0.15002316 -0.054649577
-0.08507384 -0.27413678 -0.09188587 -0.18454592 -0.4607477 -0.23110224 -0.28462183 -0.3215
0.09117914 -0.34417158 0.3793828 -0.06182431 -0.3151714 -0.03689818 0.031527292 -0.26015595
-0.05240787 0.019261014 0.074868955 -0.23482525 -0.09398008 -0.14503025 -0.5268787 0.20639469
-0.7254451 -0.31754598 -0.0146868415 -0.30699444 0.27365962 -0.2498018 -0.098429196 0.33481362
-0.3344676 -0.33421814 0.0031913824 0.29208618 0.30755547 0.016679471 0.027352806 0.5377002
-0.085819796 -0.09801885 -0.12382919 0.15246144 0.20698251 -0.021044249 0.07814623 -0.26312816
0.22787607 -0.07640597 0.21184875 -0.09261127 -0.22611779 -0.02776615 0.2790115 -0.5770294
-0.044526614 -0.17597963 0.07518403 -0.24577028 0.15950038 -0.032920532 -0.19011295 0.09400038
0.2733248 -0.01203372 -0.090408504 -0.15822288 0.14548098 -0.019833937 0.1638522 -0.1454534
0.094218396 0.01912131 0.0421972 -0.104191735 -0.14137731 0.17616162 -0.2916267 0.08763088
-0.11912993 -0.25864983 -0.0060499674 0.20425999 0.2782836 0.24757546 -0.016226334 0.41098106
0.6060347 0.108511716 -0.1515352 -0.16953115 0.03525948 -0.048885364 -0.10522602 0.15502462
0.29009125 -0.3974455 0.09069966 -0.14277758 -0.20538357 -0.3258274 -0.090284005 0.31037155
0.052813195 0.03379182 -0.03522765 -0.22042353 0.007528906 -0.14045534 0.055036053 -0.10515087
-0.30535895 -0.20050147 -0.11313213 -0.47674 0.06383297 -0.42816797 -0.046263285 0.10760279
0.27974468 0.22833996 0.26496714 0.058279026 -0.120429166 -0.035440296 0.30841723 -0.059402213
-0.12739572 0.26109266 -0.044625916 -0.25367445 -0.2931652 -0.041453473 -0.1278706 0.33957323
-0.037167374 -0.15790485 0.0045180894 -0.18691365 0.17941642 0.08748462 0.27171645 0.10761391
-0.45281902 0.09805165 -0.018574899 -0.38759702 0.18015704 -0.38380384 0.30859753 0.25194058
0.1041393 -0.4115173 -0.2679161 0.28269085 0.2290791 -0.31821844 0.7808676 -0.048058406
0.11705421 -0.074405104 0.4473165 -0.12160631 -0.2233523 0.047939405 -0.21718442 -0.37573975
0.10110934 0.37067 -0.109575585 -0.18129513 0.14772294 0.2205175 0.3272712 0.19176236
00000000: 3a82 9d3e 822d 943d f4ea 10be 96dc 8b3e
00000010: 03bd aebd 8895 3c3e 04bc 903d b306 9d3d
00000020: 75c1 89bd b83e c93d 0835 943d 30dc 013e
00000030: 4720 5b3e 49d9 563e 63d1 84be 15c5 f93d
00000040: ba5b 6b3e 4d42 8d3e 4fdb 33bd cf84 cfbe
00000050: 18f7 2c3e c377 623e 5cdd 6ebe 9971 63be
00000060: 7579 1f3e 3348 813e 7fed 2cbe d2de 543e
00000070: 48f3 2e3e e49e 4a3e 8bcf 5fbd 3b5e 96be
00000080: db04 913e 8b7e b23e a162 e9bd f724 a6be
00000090: dacd 7f3e ed6b 33be 79a9 9fbe 255b c83d
000000a0: ba49 ddbe 6c90 f2bc 14f4 b7bd 2fd7 5ebe
000000b0: 413a c7be 2e5c 84be c85c f23d 0def cbbe
000000c0: 5194 23be 8848 233b 3ed2 38be b227 a0be
000000d0: ebdd 61be e96b 55be 72f7 033f 5f7f 8b3e
000000e0: e151 4b3d 1a68 2cbe 728d 993e f2a9 143e
000000f0: e29e babe 00da 353d f625 0abe 9ba2 96be
00000100: 5c93 21be 4004 09be 73f0 33be f8df 88be
00000110: c616 2fbe 4e44 8b3e a28e d93d fe72 f03d
00000120: 7791 ae3d 0fee c43d c249 f73e 96ca 813e
00000130: ec1d 01bf dd58 823c ac9f 193e 3cd8 5fbd
00000140: 323b aebd a85b 8cbe a92e bcbd 9bf9 3cbe
00000150: 1fe7 ebbe 11a6 6cbe f4b9 91be a69b a4be
00000160: 21bc ba3d 4237 b0be 763e c23e 7d3b 7dbd
00000170: 255e a1be 8c22 17bd c322 013d 2933 85be
00000180: a2a9 56bd 46c9 9d3c e554 993d 0876 70be
00000190: a178 c0bd cf82 14be 86e1 06bf 2159 533e
000001a0: c5b6 39bf 6395 a2be 14a1 70bc 602e 9dbe
000001b0: 1d1d 8c3e 0bcc 7fbe 3f95 c9bd b16c ab3e
000001c0: 563f abbe a41e abbe 8326 513b 528c 953e
000001d0: e977 9d3e 63a3 883c fe12 e03c b8a6 093f
000001e0: 4ac2 afbd 1bbe c8bd 299a fdbd da1e 1c3e
000001f0: 39f3 533e fd64 acbc 210b a03d bcb8 86be
00000200: 5858 693e bc7a 9cbd e1ee 583e faaa bdbd
00000210: 6c8b 67be d675 e3bc 98da 8e3e 33b8 13bf
00000220: 8a61 36bd 0134 34be 16fa 993d 34ab 7bbe
00000230: 1154 233e aed7 06bd f8ac 42be 4583 c03d
00000240: 3af1 8b3e 1429 45bc 1828 b9bd 2e05 22be
00000250: f7f8 143e c87a a2bc dfc8 273e bcf1 14be
00000260: 93f5 c03d 4ba4 9c3c f9d6 2c3d 7a62 d5bd
00000270: 37c5 10be b663 343e 1850 95be d277 b33d
00000280: 65fa f3bd c06d 84be ce3e c6bb 8829 513e
00000290: 307b 8e3e 6c84 7d3e 17ed 84bc 1c6c d23e
000002a0: 1725 1b3f 643b de3d 0b2c 1bbe 9399 2dbe
000002b0: 3f6c 103d 053c 48bd bd80 d7bd c6be 1e3e
000002c0: d786 943e fa7d cbbe bec0 b93d 4934 12be
000002d0: 1250 52be d9d2 a6be d2e6 b8bd 05e9 9e3e
000002e0: a652 583d 4b69 0a3d de4a 10bd b5b6 61be
000002f0: 0bb5 f63b 86d3 0fbe 7c6d 613d 5759 d7bd
00000300: 0258 9cbe 4250 4dbe d1b1 e7bd 4417 f4be
00000310: dcba 823d d538 dbbe 927e 3dbd da5e dc3d
00000320: b23a 8f3e f3d1 693e c6a9 873e fdb5 6e3d
00000330: 91a3 f6bd d829 11bd dde8 9d3e bc4f 73bd
00000340: 0674 02be f0ad 853e aac9 36bd 9ee1 81be
00000350: c019 96be 1ecb 29bd 83f0 02be 8bdc ad3e
00000360: d13c 18bd cfb1 21be 7b0c 943b 4b66 3fbe
00000370: f0b8 373e 232b b33d 6b1e 8b3e af64 dc3d
00000380: e5d7 e7be 4ecf c83d 632a 98bc 1e73 c6be
00000390: 167b 383e f081 c4be 7f00 9e3e 5bfe 803e
000003a0: fc46 d53d 65b2 d2be 4d2c 89be dbbc 903e
000003b0: b693 6a3e 87ed a2be f0e6 473f e4d8 44bd
000003c0: 1eba ef3d b461 98bd ab06 e53e bb0c f9bd
000003d0: 77b6 64be 1c5c 443d 9865 5ebe f660 c0be
000003e0: 6a12 cf3d 75c8 bd3e 2a69 e0bd 6ea5 39be
000003f0: af44 173e 57cf 613e 1790 a73e 5a5d 443e

bias f4 [20]
-0.007212288 -0.15701869 0.21621111 -0.059693076 0.16421755 0.15048257 0.19459023 0.012112192
0.020932032 0.09286939 -0.038672302 0.3043833 -0.1184445 0.108023904 0.31693923 -0.35418522
-0.19102235 0.07511155 0.015047673 0.008468605
00000000: 0f55 ecbb 82c9 20be 7266 5d3e ba80 74bd
00000010: a528 283e 1a18 1a3e a942 473e 3772 463c
00000020: a779 ab3c 4f32 be3d d966 1ebd 21d8 9b3e
00000030: 0893 f2bd a33b dd3d dc45 a23e c457 b5be
00000040: 5d9b 43be 16d4 993d 848a 763c e7bf 0a3c

weight f4 [20, 20]
-0.10960345 0.14207025 -0.39518118 -0.14480205 -0.1044922 -0.15669382 0.20162795 -0.057532478
0.37599972 0.25853157 0.05369869 -0.11024952 0.031490993 -0.0098639075 -0.19593745 0.19639517
-0.33575916 0.29472378 -0.12965517 -0.094226204 0.16128545 0.47337544 0.1692337 0.19484793
-0.3091677 0.17235774 -0.31015152 -0.25897303 0.25955963 0.079807475 0.19955139 -0.13031058
-0.21735965 -0.084286526 -0.008924017 0.2613721 0.40670088 0.08713072 0.075787924 -0.03064236
-0.34531295 -0.17960727 0.49945647 0.25927415 -0.032298777 -0.1159602 -0.08828646 0.091749005
0.11992832 0.03002418 0.12538417 0.13783921 -0.33993018 -0.0039100423 0.13211006 0.6872943
0.15676731 0.11720351 -0.388294 -0.01721894 0.18037342 0.060652804 0.2720622 -0.41150028
-0.11826572 -0.05467999 -0.3932399 -0.111671604 -0.0062145474 0.26616126 -0.13203542 0.31127438
-0.17899403 0.23461084 0.057142332 0.2164321 0.33884335 0.0054934477 -0.10793706 -0.47455367
0.16736954 0.05096407 0.12150829 0.17849134 0.8408977 -0.15571193 0.3806682 0.22829603
0.10014348 0.13018042 -0.2728262 0.008033655 -0.2088972 0.031134814 0.039554175 -0.64673364
-0.24908765 0.021023428 0.17642042 0.32792097 0.17250745 -0.16621496 -0.2514502 -0.2715822
-0.3672947 0.23417744 0.3121391 0.58457863 -0.17118795 -0.17123461 0.31146443 0.20170014
-0.53528285 0.34492138 -0.06391143 0.09046959 -0.15000582 -0.11058047 0.007061359 0.28968224
-0.37221465 0.2267438 -0.24765259 -0.22617099 0.028436633 0.06454972 -0.12529981 -0.0891849
-0.022933928 -0.46521643 0.121685416 -0.272089 -0.009881395 -0.24885885 -0.23970768 -0.39976528
-0.3004993 -0.0740836 0.26236045 -0.040749937 0.37654915 -0.31862277 0.030740619 0.16795443
-0.32805517 0.13114819 -0.031796888 -0.15245745 -0.17254798 -0.16456297 -0.011095434 -0.14097646
-0.104999386 0.22016561 0.034533188 0.28429696 0.16852106 0.11639434 -0.1821405 -0.23920839
-0.06716383 -0.033622507 -0.12131632 -0.002032385 -0.006015938 -0.13675053 0.2768411 -0.0064324616
0.07775951 0.23185396 -0.09814747 0.019459276 -0.031499848 0.20439133 -0.016192228 -0.61030674
-0.24127664 0.037566014 -0.04407866 -0.22285318 0.24320956 0.33333278 -0.29393363 -0.343552
0.10321637 0.13791628 0.20559588 0.31202894 -0.19427744 -0.20594163 -0.21338964 -0.01819863
0.21589324 -0.09420867 0.2038151 0.28828466 0.1180154 0.078307465 0.09630548 -0.13369231
0.1031198 -0.26700562 -0.2194054 -0.12740044 0.24885784 -0.37162095 -0.017014576 0.13851784
0.21916471 0.056310732 -0.17793995 -0.41810474 0.099473156 -0.23809221 0.14750588 -0.059802294
-0.0028471753 -0.27092677 0.4269773 0.11591396 0.08203249 -0.083845235 0.24640706 -0.14511673
0.22463073 -0.16167909 -0.05801466 0.002345112 0.19094515 0.116447315 0.24370822 -0.07266269
0.0568669 -0.19551206 -0.07908926 -0.42754441 -0.24426621 -0.021844488 0.32102925 0.20154567
-0.25035992 -0.13175075 0.43912482 0.26884544 0.21665911 0.25596124 0.15996078 -0.040003195
-0.584984 -0.5088198 0.0042394083 0.047168523 0.42204356 -0.24382272 0.1182136 0.112502776
00000000: c677 e0bd dd7a 113e 3055 cabe fd46 14be
00000010: 0200 d6bd 5874 20be 8f77 4e3e 2da7 6bbd
00000020: 0983 c03e 405e 843e 28f3 5b3d 80ca e1bd
00000030: b3fc 003d 3a9c 21bc d4a3 48be d11b 493e
00000040: a0e8 abbe 09e6 963e 53c4 04be abf9 c0bd
00000050: 0328 253e 445e f23e 994b 2d3e 3786 473e
00000060: 3b4b 9ebe 8c7e 303e 2ecc 9ebe 1d98 84be
00000070: 00e5 843e 1a72 a33d 3357 4c3e 2370 05be
00000080: 8793 5ebe 6a9e acbd 0a36 12bc 90d2 853e
00000090: 193b d03e 9771 b23d b336 9b3d b005 fbbc
000000a0: dccc b0be f8ea 37be c2b8 ff3e 95bf 843e
000000b0: b94b 04bd 8b7c edbd 88cf b4bd e7e6 bb3d
000000c0: fb9c f53d 45f5 f53c b564 003e b925 0d3e
000000d0: 540b aebe d01f 80bb dc47 073e 85f2 2f3f
000000e0: 9c87 203e 6508 f03d 79ce c6be bc0e 8dbc
000000f0: cfb3 383e 136f 783d bd4b 8b3e 2ab0 d2be
00000100: 4c35 f2bd 20f8 5fbd bd56 c9be 15b4 e4bd
00000110: 67a3 cbbb 4a46 883e 4b34 07be 5b5f 9f3e
00000120: 364a 37be d33d 703e 140e 6a3d 60a0 5d3e
00000130: e07c ad3e 6102 b43b 1b0e ddbd b3f8 f2be
00000140: ec62 2b3e b3bf 503d 57d9 f83d 6fc6 363e
00000150: 1245 573f f372 1fbe f1e6 c23e 6fc6 693e
00000160: 0618 cd3d 044e 053e e0af 8bbe 979f 033c
00000170: 26e9 55be 700e ff3c 8f03 223d 5690 25bf
00000180: d510 7fbe 5339 ac3c 8ea7 343e 42e5 a73e
00000190: cba5 303e 4134 2abe 15be 80be d20c 8bbe
000001a0: 0d0e bcbe 36cc 6f3e b2d0 9f3e f2a6 153f
000001b0: e54b 2fbe 2058 2fbe 4478 9f3e 7b8a 4e3e
000001c0: 4c08 09bf 8999 b03e ffe3 82bd 1f48 b93d
000001d0: 209b 19be 0378 e2bd f962 e73b 3b51 943e
000001e0: eb92 bebe 872f 683e a498 7dbe 5e99 67be
000001f0: f1f3 e83c a532 843d 984e 00be 93a6 b6bd
00000200: efdf bbbc d930 eebe 3436 f93d 404f 8bbe
00000210: 93e5 21bc dbd4 7ebe ee75 75be 09ae ccbe
00000220: 0bdb 99be 24b9 97bd 1c54 863e 68e9 26bd
00000230: 0dcb c03e 8622 a3be c0d3 fb3c 3ffc 2b3e
00000240: d9f6 a7be b64b 063e 743d 02bd ce1d 1cbe
00000250: 6bb0 30be 3283 28be a0c9 35bc 225c 10be
00000260: eb09 d7bd 1873 613e ac72 0d3d 5f8f 913e
00000270: c990 2c3e 2860 ee3d 0a83 3abe 0bf3 74be
00000280: 318d 89bd c1b7 09bd b174 f8bd c331 05bb
00000290: 5821 c5bb 5508 0cbe 1ebe 8d3e 66c7 d2bb
000002a0: 6140 9f3d 206b 6d3e 8a01 c9bd 0f69 9f3c
000002b0: fc05 01bd f64b 513e 90a5 84bc 103d 1cbf
000002c0: 3911 77be d2de 193d d38b 34bd a033 64be
000002d0: ed0b 793e 98aa aa3e 787e 96be 0ce6 afbe
000002e0: 1b63 d33d ed39 0d3e ba87 523e 42c2 9f3e
000002f0: aaf0 46be 5de2 52be d082 5abe 4b15 95bc
00000300: 1e13 5d3e 7af0 c0bd e8b4 503e 0c9a 933e
00000310: 0fb2 f13d aa5f a03d cf3b c53d a3e6 08be
00000320: 7930 d33d f6b4 88be cfab 60be 4375 02be
00000330: 97d4 7e3e 1a45 bebe 2762 8bbc 9fd7 0d3e
00000340: b76c 603e 15a6 663d e435 36be d311 d6be
00000350: 95b8 cb3d 72ce 73be c80b 173e 40f3 74bd
00000360: ad97 3abb eab6 8abe c59c da3e 4c64 ed3d
00000370: a600 a83d 0db7 abbd 2252 7c3e 7b99 14be
00000380: 9905 663e 348f 25be c8a0 6dbd 73b0 193b
00000390: 2087 433e ee7b ee3d a68e 793e 2dd0 94bd
000003a0: 44ed 683d 5034 48be 8df9 a1bd 1ae7 dabe
000003b0: ec20 7abe 36f3 b2bc f25d a43e fd61 4e3e
000003c0: 2d2f 80be abe9 06be f8d4 e03e 1ca6 893e
000003d0: e3db 5d3e 5a0d 833e c2cc 233e 64da 23bd
000003e0: 83c1 15bf 0442 02bf bcea 8a3b c833 413d
000003f0: 1816 d83e aaac 79be f919 f23d db67 e63d

bias f4 [20]
-0.144517 -0.10704865 -0.12841544 -0.02810935 0.05162988 0.039869074 0.044092268 -0.11890696
0.15286769 -0.025931617 0.0020840885 0.103518315 -0.069066785 -0.13670807 -0.18085243 -0.078705706
-0.33965227 0.075607345 -0.01801966 -0.0530551
00000000: 44fc 13be 533c dbbd 567f 03be 9445 e6bc
00000010: da79 533d c14d 233d 189a 343d 7e85 f3bd
00000020: 5989 1c3e 8b6e d4bc 3495 083b 6901 d43d
00000030: e372 8dbd 33fd 0bbe 6131 39be 7530 a1bd
00000040: e7e6 adbe 06d8 9a3d f79d 93bc 4e50 59bd

weight f4 [20, 20]
0.12312399 -0.013428249 0.011445017 -0.069959335 -0.08044322 -0.34971046 -0.15414913 0.44435775
-0.31607905 0.27524388 -0.11278546 -0.31094673 0.2012999 -0.018029293 0.20441803 0.053020507
-0.33711165 0.14899538 0.04683989 -0.038445458 0.105954625 0.24866813 0.35022777 0.11436581
-0.05689988 -0.09606063 -0.019240044 0.15698871 0.095268324 0.14985831 -0.41522175 0.05751046
0.6142153 -0.17903085 -0.056287177 -0.6045943 -0.10081603 0.38278827 -0.16669443 0.050357174
-0.0069284076 0.17674659 0.5267977 0.11935725 -0.057860892 0.41069263 -0.3064095 -0.090822384
-0.00031921305 -0.44277242 -0.0916959 0.021522362 0.19902195 -0.07761298 0.1100954 -0.42675868
-0.19042335 -0.10599559 -0.24509954 -0.1408282 0.09517204 -0.19253464 -0.0851787 -0.198306
0.03857078 0.066861466 0.13689883 -0.21230587 0.38890046 -0.22158344 0.19695647 0.33870086
-0.34603462 0.21069959 -0.38533807 -0.17517751 -0.01707095 0.24551122 -0.005930662 -0.059482142
0.18881099 -0.20204882 -0.09448401 -0.0509775 0.22817001 0.29041335 0.43837667 0.2835613
-0.012823939 -0.36393967 0.010048338 0.0998772 0.19272359 0.1275522 -0.45549056 0.12482393
-0.20722166 -0.09114949 0.4493749 0.35657358 -0.16717342 0.24733396 0.15137513 0.09005796
-0.24622767 -0.20890959 -0.1659946 0.22507797 -0.30600524 -0.16965032 -0.007846607 0.031507514
0.36853576 -0.36545953 0.21050091 0.058312733 0.14563444 0.4915308 -0.2146923 0.0046878257
0.5014147 -0.035033904 -0.29746825 0.23045748 0.23859642 0.41633046 0.1249145 0.016015993
-0.036087774 -0.04919532 0.18341292 0.26837105 -0.3615988 0.17009354 -0.22314458 0.18200608
-0.07687405 0.13727161 0.079829805 0.16065474 -0.43814367 -0.11471719 0.17395873 0.42332882
-0.4006505 0.01762222 0.2135887 0.24523307 -0.16520855 -0.0035582765 0.028544843 -0.6914819
-0.25198513 0.06151329 0.22696027 -0.17214587 -0.008597598 0.05068383 0.39547282 -0.3982992
-0.14697085 0.36608955 0.3715878 0.33963543 -0.09938721 0.042456627 0.29943064 -0.11752616
-0.19191001 -0.3273015 -0.29321966 0.21881385 0.39382228 -0.3423296 -0.036646716 0.18694639
0.113366485 -0.10983863 -0.07800839 -0.015080213 -0.36165404 0.24443026 -0.06144276 -0.36527717
0.17586848 -0.2984691 0.1973473 0.08156952 0.093448386 0.171144 -0.16841991 0.40519825
-0.06337975 -0.06539452 0.058808323 -0.20754017 0.21334225 -0.23563765 -0.318388 -0.016462732
0.0314774 0.22658497 0.23623756 -0.16498038 -0.5048666 -0.5956365 0.28376862 0.08258779
0.08522004 0.33067933 -0.045030925 -0.1309559 0.19047111 0.0024702814 0.37715942 -0.3810331
0.103190705 -0.35349393 0.2753544 0.14448857 0.18628892 0.11212798 0.47519186 0.05918359
-0.0662754 0.3931299 -0.40723357 -0.34762827 0.120873585 -0.2168969 0.17349043 0.18343335
0.657381 0.3225119 0.4656385 -0.1391205 -0.48051777 0.22957963 -0.22985922 -0.13778965
0.4142571 0.21534228 -0.16489378 -0.14387235 0.07014182 0.08974354 0.20508093 -0.22401859
0.27334094 0.21052335 0.08756241 0.41133356 0.23085965 -0.0289377 -0.2600584 0.55343777
00000000: 6e28 fc3d 2902 5cbc e183 3b3c d746 8fbd
00000010: 6abf a4bd 400d b3be 45d9 1dbe dc82 e33e
00000020: 1dd5 a1be c4ec 8c3e 10fc e6bd 6934 9fbe
00000030: 9021 4e3e 2bb2 93bc f652 513e 082c 593d
00000040: e699 acbe 3f92 183e 2fdb 3f3d fc78 1dbd
00000050: bdfe d83d dca2 7e3e 0e51 b33e 9f38 ea3d
00000060: d90f 69bd 70bb c4bd 4c9d 9dbc a6c1 203e
00000070: 0a1c c33d 7574 193e f297 d4be 1790 6b3d
00000080: 373d 1d3f dd53 37be 628d 66bd b1c6 1abf
00000090: a278 cebd d3fc c33e f2b1 2abe 5343 4e3d
000000a0: b207 e3bb 0ffd 343e 37dc 063f 9371 f43d
000000b0: 8bff 6cbd 4e46 d23e b5e1 9cbe 1601 babd
000000c0: 0d5c a7b9 11b3 e2be 0fcb bbbd aa4f b03c
000000d0: 69cc 4b3e 8ef3 9ebd b279 e13d 1d80 dabe
000000e0: 57fe 42be 3714 d9bd 60fb 7abe 4535 10be
000000f0: 8fe9 c23d cd27 45be 2c72 aebd ba10 4bbe
00000100: 65fc 1d3d aaee 883d 352f 0c3e b666 59be
00000110: f61d c73e c5e6 62be f5ae 493e 336a ad3e
00000120: 732b b1be a2c1 573e 084b c5be bc61 33be
00000130: 60d8 8bbc 4b67 7b3e 0056 c2bb 8ca3 73bd
00000140: ab57 413e e3e5 4ebe d580 c1bd c8cd 50bd
00000150: 66a5 693e 0fb1 943e e872 e03e f22e 913e
00000160: 801b 52bc 4d56 babe c9a1 243c 6b8c cc3d
00000170: 5559 453e 0b9d 023e 0f36 e9be b0a3 ff3d
00000180: ea31 54be 95ac babd 7814 e63e d090 b63e
00000190: 822f 2bbe 1d45 7d3e 1502 1b3e 4f70 b83d
000001a0: 1b23 7cbe 65ec 55be 7dfa 29be d77a 663e
000001b0: b8ac 9cbe d0b8 2dbe 0e8f 00bc 060e 013d
000001c0: b8b0 bc3e 831d bbbe 8d8d 573e 55d9 6e3d
000001d0: 3221 153e eda9 fb3e 4cd8 5bbe 559c 993b
000001e0: b75c 003f b67f 0fbd c24d 98be 0cfd 6b3e
000001f0: 9f52 743e 4429 d53e 2cd3 ff3d f933 833c
00000200: c6d0 13bd 0881 49bd 99d0 3b3e ee67 893e
00000210: 7a23 b9be 002d 2e3e 0380 64be cd5f 3a3e
00000220: 2470 9dbd ee90 0c3e cf7d a33d ad82 243e
00000230: 5e54 e0be d9f0 eabd 3d22 323e 8ebe d83e
00000240: 1022 cdbe 795c 903c ffb6 5a3e 611e 7b3e
00000250: 6e2c 29be f931 69bb e0d6 e93c f504 31bf
00000260: 3204 81be 5cf5 7b3d 4668 683e 0247 30be
00000270: f1dc 0cbc d999 4f3d 6a7b ca3e dfed cbbe
00000280: 877f 16be 1770 bb3e c240 be3e b2e4 ad3e
00000290: 868b cbbd 00e7 2d3d f94e 993e 8eb1 f0bd
000002a0: 0f84 44be 1094 a7be e320 96be bd10 603e
000002b0: 13a3 c93e d345 afbe de1a 16bd e06e 3f3e
000002c0: b02c e83d 13f3 e0bd ddc2 9fbd ff12 77bc
000002d0: b82a b9be ed4b 7a3e 67ab 7bbd 9c05 bbbe
000002e0: de16 343e f1d0 98be 6915 4a3e ec0d a73d
000002f0: de61 bf3d 5f40 2f3e 4576 2cbe 2576 cf3e
00000300: 3ecd 81bd 90ed 85bd ffe0 703d 6985 54be
00000310: 6476 5a3e ff4a 71be c003 a3be dadc 86bc
00000320: 72ee 003d e405 683e 42e8 713e 9ef0 28be
00000330: f03e 01bf a27b 18bf 1f4a 913e ca23 a93d
00000340: d887 ae3d cd4e a93e 5972 38bd 4e19 06be
00000350: dc0a 433e 72e4 213b 0a1b c13e c516 c3be
00000360: a655 d33d 28fd b4be 40fb 8c3e d0f4 133e
00000370: 86c2 3e3e 5ba3 e53d 594c f33e 7e6a 723d
00000380: 66bb 87bd 5248 c93e eb80 d0be 55fc b1be
00000390: 928c f73d 391a 5ebe 7aa7 313e f4d5 3b3e
000003a0: 1f4a 283f 4820 a53e 2b68 ee3e 9b75 0ebe
000003b0: 6d06 f6be ec16 6b3e 3760 6bbe bb18 0dbe
000003c0: 8219 d43e b082 5c3e ead9 28be 4653 13be
000003d0: 84a6 8f3d 76cb b73d bc00 523e 2165 65be
000003e0: 58f3 8b3e 6f93 573e ec53 b33d 509a d23e
000003f0: 7966 6c3e c10e edbc 6026 85be 19ae 0d3f

bias f4 [20]
-0.103212155 0.05056701 -0.092464626 0.0634684 0.07228371 -0.06623056 -0.12984206 -0.076537244
-0.09021742 0.058895204 -0.063553624 -0.120009184 0.044771764 0.32829875 0.03794456 0.09814148
0.055006757 0.027989749 0.07160522 -0.0630115
00000000: e560 d3bd 5a1f 4f3d 185e bdbd b8fb 813d
00000010: 7b09 943d e3a3 87bd 51f5 04be 8fbf 9cbd
00000020: e9c3 b8bd 193c 713d 6728 82bd 60c7 f5bd
00000030: 9962 373d c616 a83e c16b 1b3d 66fe c83d
00000040: c44e 613d c24a e53c c2a5 923d 2c0c 81bd

weight f4 [1, 20]
-0.5459374 -0.96083516 -0.6859724 0.72362345 0.3890129 -0.72589177 1.0868424 -0.81601954
-0.47946995 0.12524852 -0.5683231 -0.52789164 0.44175678 -1.315322 -1.0333714 0.43094426
0.8379174 1.1152225 0.39486432 -0.79401606
00000000: 8ec2 0bbf 4bf9 75bf e39b 2fbf 633f 393f
00000010: b32c c73e 0bd4 39bf a71d 8b3f a8e6 50bf
00000020: 167d f5be 2641 003e 9f7d 11bf e823 07bf
00000030: f22d e23e 795c a8bf 8445 84bf baa4 dc3e
00000040: c181 563f 9cbf 8e3f a82b ca3e a344 4bbf

u_b f4 [2]
2.899847 39.96
00000000: 1897 3940 0ad7 1f42

l_b f4 [2]
0.03749462 0.0
00000000: f593 193d 0000 0000
