Iter_03/Models/Noise_5/simulation_00_03/ff_200.pt (torch, 39005 bytes, 23 tensors)

weight f4 [20, 2]
0	0x3eaed5d8	0.34147525
1	0x3e8507bc	0.25982463
2	0xbdafd67d	-0.08585832
3	0x3d3079a6	0.043084763
4	0xbe61817e	-0.22022054
5	0xbf1cc601	-0.6123963
6	0x3f0d9183	0.5530016
7	0x40244bc6	2.5671248
8	0x3d6c2af0	0.057658136
9	0xbf5bf56a	-0.8592135
10	0xbf283db8	-0.65719175
11	0xbefb9cab	-0.49142966
12	0xbeace657	-0.33769485
13	0xbf8a3019	-1.0795928
14	0x3f2fe1b8	0.68703794
15	0xbf535d60	-0.82564354
16	0x3f45ca2d	0.7726162
17	0x3f85c414	1.0450463
18	0xbe9da067	-0.3078644
19	0xbf72e7fa	-0.9488522
20	0x3e61f943	0.22067742
21	0x3e713ac5	0.23557575
22	0xbe3b31ab	-0.18280666
23	0xbe4af0cb	-0.19818418
24	0xbec88af3	-0.3916851
25	0xbfcb677a	-1.5890954
26	0x3de82fec	0.11337265
27	0xbe25b80d	-0.16183491
28	0x3e3a486e	0.18191692
29	0x3f363432	0.71173394
30	0xbd8c4716	-0.06849496
31	0x3f076bfe	0.5289916
32	0x3f7a29d7	0.9772009
33	0xc0164fb0	-2.3486137
34	0xbf166dea	-0.58761466
35	0xbf36eba6	-0.7145332
36	0x3d586f8b	0.05284075
37	0x3e845ab7	0.2585046
38	0x3dd59429	0.1042865
39	0xbf4d34a3	-0.8015844

bias f4 [20]
0	0xbf91419f	-1.1348151
1	0xbdfc6c5b	-0.12325355
2	0x3f64b39e	0.89336574
3	0x3fe67ee9	1.800748
4	0xbe44a713	-0.19204359
5	0x3f86fa6a	1.054517
6	0x3f0648e2	0.5245496
7	0x3fa32ba4	1.2747693
8	0xbf607737	-0.8768191
9	0x3e6fbb60	0.23411322
10	0x3ddd3c03	0.10802462
11	0x3ec4d989	0.38447216
12	0x3d8b2e5e	0.06795953
13	0xbf284260	-0.6572628
14	0xbdb9920d	-0.0906106
15	0x3f01f2ab	0.50760907
16	0x3e024109	0.12720121
17	0xbf943fda	-1.1581986
18	0x3d42be47	0.047544744
19	0x3eaf1345	0.3419439

weight f4 [20, 20]
0	0x3d3d458d	0.046208907
1	0x3cfcd2ad	0.030862177
2	0xbe76242e	-0.24037239
3	0xb9e6b2dd	-0.00044002282
4	0x3df7e733	0.121046446
5	0x3e98fdbe	0.2988109
6	0x3e824abc	0.25447643
7	0x3d1e669b	0.03867207
8	0x3e629d6b	0.22130363
9	0x3e93f517	0.28897926
10	0x3e8cdcd6	0.27512234
11	0x3e2430bb	0.16034214
12	0x3ed01fe4	0.4064933
13	0xbe059cb5	-0.1304806
14	0x3f269691	0.65073496
15	0xbd5dd8f4	-0.05416198
16	0xbeb3691a	-0.35041124
17	0xbf493b60	-0.78606224
18	0xbd9d44bf	-0.07679128
19	0x3de2c1cc	0.1107212
20	0x3ecbdd9d	0.39817515
21	0x3d18af00	0.037276268
22	0xbebe897a	-0.3721426
23	0x3ecfff23	0.4062434
24	0xbe81bae1	-0.2533789
25	0xbeea5093	-0.45764598
26	0xbf3334e8	-0.70002604
27	0xbebe177f	-0.371273
28	0x3f059548	0.5218091
29	0xbe96663c	-0.29374874
30	0x3d83f3d6	0.064429924
31	0x3c97cf8e	0.018531587
32	0xbe88219a	-0.26588136
33	0xbdb4c815	-0.08827225
34	0xbebb66ba	-0.36601812
35	0x3ec65008	0.38732934
36	0x3ea216f1	0.31658128
37	0xbe30add8	-0.17253816
38	0x3c9457a4	0.018108197
39	0xbd087b9a	-0.033321
40	0x3e82f0a4	0.2557422
41	0x3e3dd99d	0.18540044
42	0xbcbd2921	-0.0230909
43	0xbf5b36a9	-0.8563028
44	0x3f29c25c	0.66312194
45	0xbd459aa8	-0.048243195
46	0x3d653d54	0.05596669
47	0x3e43594b	0.19077031
48	0x3d6cc805	0.05780794
49	0xbe153f99	-0.14575042
50	0xbe876526	-0.26444358
51	0x3e29a7b8	0.16567886
52	0xbe3458bd	-0.17611976
53	0x3d52eae7	0.05149355
54	0x3e02eae0	0.1278491
55	0xbdf3cb84	-0.11904052
56	0x3d049151	0.032365147
57	0x3e25fd78	0.16209972
58	0x3dad2571	0.08454407
59	0xbeea4df6	-0.45762604
60	0x3e74341e	0.23848006
61	0x3d1794c0	0.037007093
62	0xbe8f4898	-0.27985072
63	0x3ee6fccd	0.45114747
64	0x3d984303	0.074346565
65	0x3e5d693b	0.21622173
66	0xbeb5798d	-0.35444298
67	0x3e282ad6	0.1642259
68	0xbe0c4851	-0.13699462
69	0x3d7bbbcc	0.061458394
70	0x3e06093a	0.13089457
71	0x3e3f3400	0.1867218
72	0x3e801cbb	0.2502192
73	0xbba94cbd	-0.0051666186
74	0xbab926d7	-0.0014125955
75	0x3d9422ab	0.07233175
76	0xbea78987	-0.32722113
77	0xbd69b24a	-0.057054795
78	0x3e3a77de	0.18209788
79	0x3e5e38b2	0.21701315
80	0x3ef49260	0.47767925
81	0xbca9d777	-0.020732624
82	0x3dbe3a32	0.092884436
83	0x3cf4ef2d	0.029899204
84	0xbe75549d	-0.23958059
85	0xbeb16791	-0.34649327
86	0xbd2775d8	-0.04088387
87	0x3f137ba6	0.5761055
88	0xbcc2de8f	-0.023787765
89	0xbe2c6883	-0.16836743
90	0x3e3ad138	0.18243873
91	0xbdf0e759	-0.11762876
92	0xbe076936	-0.13223729
93	0xbd7ce088	-0.061737567
94	0xbe139e14	-0.14415771
95	0x3e81f8bc	0.25385082
96	0xbbe7de0f	-0.007076032
97	0x3ebddf02	0.37084204
98	0xbbd99f2b	-0.0066412888
99	0x3e8bc4fe	0.2729873
100	0x3c1970d9	0.009365284
101	0x3e4b8668	0.1987549
102	0x3df10ac9	0.11769635
103	0xbed6ed00	-0.41977692
104	0x3dd70fb0	0.10501039
105	0x3d9f953b	0.07792135
106	0xbe6ef588	-0.2333585
107	0xbeefbd72	-0.46824223
108	0x3e07443c	0.13209623
109	0xbe881b5c	-0.26583374
110	0x3dae1684	0.08500388
111	0xbe179a77	-0.14805017
112	0xbe9de25b	-0.30836758
113	0xbe204e7f	-0.15654944
114	0x3f241999	0.6410156
115	0xbd95de90	-0.07317841
116	0xbf723f22	-0.94627583
117	0x3cc8e09a	0.02452116
118	0x3e2bc9ae	0.16776153
119	0x3e0f8b7b	0.14018051
120	0xbec7f64d	-0.390551
121	0xbccbd578	-0.024882063
122	0x3ba2af1c	0.0049647223
123	0xbdb1ae0c	-0.08675775
124	0xbd98d2f9	-0.07462115
125	0xbf094910	-0.5362711
126	0x3e630621	0.22170307
127	0x3d6f1bd5	0.058376152
128	0x3e733035	0.23748858
129	0xbe74978e	-0.23885939
130	0x3e04a3b4	0.12953073
131	0xbe2cb64d	-0.16866417
132	0x3d678259	0.056520794
133	0x3cbbe45d	0.02293604
134	0x3e7123e8	0.23548853
135	0x3d1997aa	0.037498154
136	0x3cc2a9f2	0.023762677
137	0xbe037062	-0.1283584
138	0x3d64f592	0.055898257
139	0xbe343215	-0.1759723
140	0x3e78eee6	0.24309883
141	0x3f0c75c3	0.5486719
142	0x3e8182ab	0.25295004
143	0x3ea39d66	0.31956023
144	0x3e330be9	0.17485012
145	0x3abb1c91	0.0014275481
146	0xbec32003	-0.3811036
147	0xbb6e12c8	-0.0036327112
148	0x3d612571	0.054967348
149	0x3cc22d34	0.023703195
150	0x3ddaf207	0.10690694
151	0x3deb66b0	0.114941955
152	0x3df68670	0.12037361
153	0xbe03c85c	-0.128694
154	0xbd261725	-0.040549416
155	0xbeb1df01	-0.3474045
156	0xbdf1de10	-0.11809933
157	0x3e4a065c	0.19728988
158	0xbe4b9dde	-0.1988444
159	0x3e3f56c3	0.1868544
160	0x3ebca444	0.36844075
161	0xbb0ca57e	-0.0021460946
162	0xbe4bb21e	-0.19892165
163	0x3e83e4cb	0.25760493
164	0xbeec92c7	-0.46205732
165	0xbe85966b	-0.26091322
166	0xbed9e5be	-0.42558092
167	0xbe637105	-0.22211082
168	0x3dad450b	0.084604345
169	0xbe394fb0	-0.18096805
170	0x3e87a1c5	0.26490608
171	0x3d2462f2	0.040133424
172	0xbe67ac6f	-0.22624372
173	0x3e11c596	0.1423553
174	0xbe49672d	-0.19668265
175	0x3e50e9c2	0.20401672
176	0x3cff075e	0.031131443
177	0x3f244bd7	0.6417822
178	0x3da462b4	0.080266386
179	0xbea06a8d	-0.31331292
180	0x3dfd73b8	0.12375587
181	0xbc1cc8b0	-0.009569332
182	0x3ebc973d	0.36834136
183	0x3e7a97e6	0.24472007
184	0x3f16143d	0.5862463
185	0x3e9a8ffe	0.30187982
186	0x3e3c2503	0.18373494
187	0x3eb33a7f	0.35005566
188	0x3ecf899c	0.40534675
189	0x3e2cafea	0.16863981
190	0x3dcba721	0.09943987
191	0xbe89e3c5	-0.26931587
192	0xbc5e3c05	-0.013564114
193	0x3e873cc8	0.2641356
194	0xbe41f447	-0.1894084
195	0xbd0dbb8e	-0.034602694
196	0x3f8cf85a	1.1013291
197	0x3d61a705	0.055090923
198	0xbe64191f	-0.22275208
199	0x3df2e3af	0.118598334
200	0x3da751d6	0.08169906
201	0x3eb73631	0.35783532
202	0xbf1ccc9f	-0.61249727
203	0x3f89ecc0	1.0775375
204	0xbf44fc07	-0.76947063
205	0xbf01bd4e	-0.5067948
206	0xbe76a35b	-0.24085753
207	0xbf17da82	-0.5931779
208	0x3f7474a2	0.9549047
209	0xbf12e32d	-0.5737789
210	0x3e0cd6a0	0.13753748
211	0xbb0f695f	-0.0021882874
212	0xbf5cb19d	-0.86208516
213	0xbe819ee6	-0.25316542
214	0xbee7216a	-0.4514268
215	0xbcc5eeee	-0.024161782
216	0xbfbc3aac	-1.4705405
217	0xbe28a594	-0.16469413
218	0x3deffb40	0.11717844
219	0xbeb523d8	-0.3537891
220	0xbee82c98	-0.45346522
221	0x3e2f1fd8	0.17101991
222	0x3e8a8c5e	0.27060217
223	0x3dfd0012	0.12353529
224	0xbda90547	-0.0825296
225	0x3d7b0804	0.06128694
226	0x3db29314	0.08719459
227	0xbe18dac7	-0.14927207
228	0xbe89c791	-0.2691007
229	0x3eb56b01	0.354332
230	0x3d872c0c	0.06600198
231	0x3ed55ee7	0.41673967
232	0xbd996450	-0.07489836
233	0xbdd25f56	-0.1027209
234	0x3eb4eff6	0.35339326
235	0xbe873dd3	-0.26414356
236	0xbe80e10a	-0.2517169
237	0xbd41a228	-0.047273785
238	0x3e6e95bf	0.23299311
239	0xbd1d42a7	-0.038393643
240	0xbeb22765	-0.3479568
241	0x3de53548	0.11191803
242	0x3e7bedc1	0.24602415
243	0xbf1a0242	-0.60159695
244	0xbe28d374	-0.16486913
245	0x3ea43510	0.32071733
246	0xbbd1c620	-0.006401792
247	0xbe1e4ccc	-0.15458983
248	0x3cd18061	0.025573911
249	0x3e68f2d9	0.22748889
250	0xbe2b8897	-0.16751324
251	0x3e554b45	0.20829494
252	0x3e944979	0.28962305
253	0xbd000c3d	-0.03126167
254	0x3d985128	0.07437354
255	0x3d2f0c5e	0.042736404

bias f4 [20]
0	0xbe883ea6	-0.26610297
1	0xbf208e2e	-0.6271695
2	0xbe9ff877	-0.3124425
3	0x3dbb33a9	0.09140713
4	0x3ea25583	0.31705865
5	0x3ea16c5a	0.31527978
6	0x3e29d2f6	0.16584381
7	0x3e9568f6	0.2918164
8	0x3ef96251	0.48707822
9	0x3ed1d409	0.40982082
10	0x3ee4496f	0.44587275
11	0x3f3cc4cf	0.73737806
12	0xbe61bdc4	-0.22045046
13	0x3ee04274	0.438007
14	0xbe284e1b	-0.16436045
15	0xbc292302	-0.010323288
16	0x3e28d24a	0.16486469
17	0x3e3fdd96	0.18736872
18	0xbf9b9528	-1.2154894
19	0x3edcda37	0.43135235

weight f4 [20, 20]
0	0x3e8be234	0.27321017
1	0xbf3eaf92	-0.7448665
2	0x3d867cfa	0.06566806
3	0x3e4639cc	0.19357985
4	0xbe9766ba	-0.29570562
5	0x3e07755c	0.13228363
6	0x3de7e1f6	0.113223955
7	0x3ebf6158	0.37378955
8	0xbf1593ed	-0.5842884
9	0x3e10b0e0	0.14129972
10	0x3e74d0bc	0.23907751
11	0x3f0d282e	0.55139434
12	0x3e93cfb0	0.2886939
13	0x3ea36666	0.3191406
14	0x3e511114	0.20416671
15	0x3d9f2f0f	0.077726476
16	0x3f2c2fe3	0.6726057
17	0xbdcc8ffb	-0.099883996
18	0xbe8fd49f	-0.28091905
19	0xbe2e9999	-0.1705078
20	0x3e828d5a	0.25498468
21	0xbe1efc92	-0.15526035
22	0x3ddf181c	0.108932704
23	0x3c4c98ac	0.012487572
24	0xbde6139b	-0.11234208
25	0x3eda454c	0.42630994
26	0x3e43dbdb	0.19126837
27	0xbe60ba14	-0.21945983
28	0xbd1f0d97	-0.03883132
29	0x3e968bc4	0.29403508
30	0xbec19a98	-0.37813258
31	0x3ef25742	0.47332197
32	0xbd9eff80	-0.077635765
33	0x3ba21313	0.0049461215
34	0xbe1a44a6	-0.1506525
35	0x3f03d416	0.5149549
36	0x3e30e20c	0.1727373
37	0x3ef8231c	0.48464286
38	0x3e2cac6b	0.16862647
39	0x3e130b9c	0.14359897
40	0xbed70ebc	-0.4200343
41	0xbd3a2476	-0.045444928
42	0x3ec9ff8c	0.3945278
43	0xbe9aae75	-0.30211225
44	0xbd7c1cd6	-0.061550938
45	0x3e170dff	0.14751433
46	0x3d2fdfdc	0.0429381
47	0x3d5cd3b0	0.05391282
48	0x3e892dae	0.26792663
49	0x3ebe9fd0	0.37231302
50	0xbf84bd88	-1.037034
51	0xbedde2c4	-0.4333707
52	0xbe3da1a3	-0.18518691
53	0x3e074ad7	0.13212143
54	0x3e7171c0	0.23578548
55	0x3efcdf95	0.4938933
56	0x3ed7fa98	0.42183375
57	0x3e8229c2	0.25422484
58	0xbbb40efb	-0.00549495
59	0x3e2f985f	0.17147969
60	0x3e6b0219	0.22950019
61	0xbe93a10e	-0.28833812
62	0xbe32b6de	-0.17452571
63	0x3ce42389	0.027848976
64	0xbee868cf	-0.45392463
65	0xba0b200a	-0.00053072034
66	0xbf04ad6f	-0.5182714
67	0xbebc1d84	-0.3674127
68	0x3d1cbda7	0.038266804
69	0xbe568374	-0.20948583
70	0xbead669a	-0.3386734
71	0x3de4bdea	0.11169036
72	0xbe1ec281	-0.15503885
73	0x3e1ab301	0.15107347
74	0xbe150212	-0.14551571
75	0x3ee37754	0.44426978
76	0x3ea4fc6e	0.3222384
77	0x3d4b5ece	0.04965096
78	0xbe9724b6	-0.29520196
79	0x3f2d3b7f	0.6766891
80	0x3e46d388	0.1941663
81	0x3e02fa94	0.127909
82	0xbc50e5b0	-0.012750074
83	0xbc9d48dc	-0.019199781
84	0x3eace638	0.33769393
85	0xbedf9eb5	-0.4367577
86	0xbe5c9349	-0.2154056
87	0xbe1c4d9e	-0.15263984
88	0x3e6c156d	0.23055048
89	0x3d5f653c	0.054539904
90	0xbf2a6d48	-0.66573
91	0xbebc2a83	-0.36751184
92	0xbd581c4a	-0.052761354
93	0xbf326a16	-0.69693124
94	0x3f215f67	0.630362
95	0x3cbb95a5	0.022898505
96	0xbe4b6d1a	-0.19865838
97	0xbdea5c68	-0.11443406
98	0x3f139927	0.57655567
99	0x3e3c9418	0.18415868
100	0xbe3884f9	-0.18019475
101	0xbb3e4aed	-0.0029036358
102	0x3df40506	0.11915021
103	0xbe8772b4	-0.264547
104	0xbe92e3fe	-0.2868957
105	0xbb519b5b	-0.0031983468
106	0x3c2d69a5	0.01058427
107	0xbed399a1	-0.41328147
108	0x3d19a621	0.03751195
109	0xbb2ead5f	-0.002665363
110	0xbf02c3a5	-0.5107978
111	0xbd1e9d6f	-0.03872436
112	0x3ed2de03	0.41185006
113	0x3df9b040	0.1219182
114	0x3eb413f6	0.3517148
115	0x3d77983a	0.06044791
116	0x3d85df79	0.06536765
117	0x3e71a33c	0.23597425
118	0x3e82b927	0.25531885
119	0xbedc9812	-0.4308477
120	0x3eaaaa70	0.33333158
121	0xbecdeba1	-0.40218833
122	0x3da64eae	0.08120476
123	0x3e4c6518	0.19960439
124	0xbdd531a3	-0.10409858
125	0x3e88fdb0	0.26756048
126	0xbe6eb924	-0.23312813
127	0x3e806a72	0.2508121
128	0xbd70b075	-0.058762033
129	0x3cc66955	0.024220148
130	0x3ecf33af	0.4046912
131	0x3eabb371	0.3353534
132	0xbd2af56b	-0.041737955
133	0x3eef6333	0.4675537
134	0xbebc4b96	-0.36776417
135	0x3f350863	0.7071592
136	0x3e4071e7	0.1879345
137	0xbf133584	-0.57503533
138	0xbf190db5	-0.5978654
139	0x3e1cce97	0.15313183
140	0xbe30f64c	-0.17281455
141	0x3edd1341	0.43178752
142	0xbe070f77	-0.13189493
143	0x3e3dc714	0.18532974
144	0xbc3ff04c	-0.011715006
145	0xbe4fa1f7	-0.20276628
146	0xbe3b3f6f	-0.18285917
147	0x3e7682c6	0.24073324
148	0x3ec01573	0.37516364
149	0x3d951a03	0.07280352
150	0xbe049fe0	-0.12951612
151	0xbe3bebc9	-0.18351664
152	0xbe0151b7	-0.12628828
153	0xbe716c76	-0.23576531
154	0x3e018dc6	0.12651739
155	0xbc8fd6b4	-0.017558433
156	0xbe413022	-0.18866017
157	0x3ea662f5	0.32497373
158	0x3e46ee36	0.19426808
159	0xbc620cdd	-0.013797012
160	0xbe465787	-0.19369327
161	0xbc3e7861	-0.01162538
162	0xbe725b59	-0.23667659
163	0x3f0b643b	0.54449815
164	0x3e9ac9a5	0.30231968
165	0x3dfbed46	0.12301116
166	0xbd536c77	-0.051617112
167	0x3cdd339c	0.027002148
168	0x3ebd636c	0.36989915
169	0x3d8a4a11	0.06752408
170	0xbe40e14e	-0.18835947
171	0x3e0d1202	0.137764
172	0xbebb5f23	-0.3659602
173	0xbef0d1a0	-0.4703493
174	0x3ec6eddb	0.38853344
175	0xbe9c25ba	-0.30497533
176	0x3e3cd400	0.18440247
177	0xbe2001cc	-0.15625685
178	0x3ee745b8	0.4517038
179	0xbe7827cc	-0.24233931
180	0x3f0df10d	0.5544594
181	0xbe1c1f6f	-0.15246366
182	0xbd788c52	-0.060680695
183	0x3c729b17	0.014807484
184	0xbe93e2fe	-0.2888412
185	0x3ed22d20	0.41050053
186	0xbe5c2a67	-0.2150055
187	0x3deb1e0e	0.11480342
188	0xbd426621	-0.04746068
189	0xbdca6006	-0.09881596
190	0xbcb1e3d5	-0.021715084
191	0x3d6afb01	0.057368282
192	0xbe652cc5	-0.2238036
193	0xbca26acb	-0.019826313
194	0xbe5fbe9d	-0.21850057
195	0x3ea5eeca	0.32408744
196	0xbcbb06d9	-0.022830414
197	0x3d4d0250	0.050051033
198	0x3d7e5c0b	0.062099498
199	0xbe295053	-0.16534548
200	0x3e5a0fb2	0.2129505
201	0x3ce78f7c	0.02826666
202	0x3db2ca18	0.087299526
203	0x3d2989c1	0.041391138
204	0x3d752e15	0.0598584
205	0x3e8d65ca	0.2761672
206	0x3e0824a8	0.13295233
207	0xbdacb749	-0.08433396
208	0xbd0d5146	-0.034501337
209	0x3d1bd7b2	0.0380475
210	0x3e244b2d	0.16044302
211	0x3e503ea8	0.20336401
212	0x3c74b339	0.014935308
213	0x3e560b30	0.20902705
214	0xbecc7643	-0.39933977
215	0x3ed14fb2	0.40881115
216	0x3d6c1c38	0.0576441
217	0xbec6acbc	-0.3880366
218	0xbe9442fc	-0.28957355
219	0xbe7a08ae	-0.24417374
220	0xbd1406fd	-0.036139477
221	0x3e0e9425	0.139237
222	0x3d39720b	0.045274775
223	0xbe311f63	-0.1729713
224	0x3e3ca954	0.18423969
225	0xbe854e00	-0.26036072
226	0xbd62a404	-0.0553322
227	0xbd5b4d92	-0.053540774
228	0xbea34a45	-0.318926
229	0x3e70af42	0.23504356
230	0xbf1a5cdd	-0.6029795
231	0xbe4d6c96	-0.20060953
232	0x3e5a624c	0.2132656
233	0x3e8977a8	0.26849103
234	0x3de9f4e6	0.11423664
235	0x3e856b32	0.26058346
236	0x3e03c768	0.12869036
237	0x3f4d9857	0.8031058
238	0xbc5fceb2	-0.01366012
239	0x3de4b852	0.11167969
240	0xbee96631	-0.45585778
241	0x3e1acea6	0.15117893
242	0xbeef781a	-0.46771318
243	0x3d9ce47e	0.07660769
244	0x3e290273	0.1650484
245	0xbea3b3cd	-0.31973115
246	0xbd278699	-0.040899847
247	0x3e94b75b	0.2904614
248	0x3eba1f29	0.36351898
249	0x3e982350	0.2971444
250	0x3eb7d4f3	0.35904655
251	0x3d14f06e	0.036362104
252	0xbe9ef5e6	-0.3104698
253	0xbf2f239d	-0.68413717
254	0x3e74687a	0.2386798
255	0xbf5ec053	-0.87012213

bias f4 [20]
0	0xbe1f2c45	-0.15544231
1	0x3bd9c37a	0.006645617
2	0x3c6002a4	0.013672505
3	0xbec683ee	-0.3877253
4	0xbec7ecc4	-0.39047825
5	0xbe543f5c	-0.20727295
6	0xbd0bc71f	-0.034125444
7	0xbe4ff98c	-0.20310038
8	0x3da362b2	0.07977809
9	0x3ea2b356	0.31777447
10	0xbe846566	-0.2585861
11	0xbdc0d182	-0.094149604
12	0xbebb9325	-0.366357
13	0x3e6c84be	0.23097512
14	0x3eb7d030	0.35901022
15	0xbe72001b	-0.23632853
16	0x3f1943b8	0.59868956
17	0x3f387551	0.7205401
18	0xbf04b089	-0.5183187
19	0x3edce7ab	0.431455

weight f4 [20, 20]
0	0x3ca6d0ec	0.020363294
1	0x3e0e0537	0.13869177
2	0x3e8c3e0b	0.27391085
3	0xbe201361	-0.15632392
4	0x3f0dded0	0.5541811
5	0xbce90388	-0.028444067
6	0x3eb1b778	0.34710288
7	0xbe84d7ab	-0.25945792
8	0x3e82443f	0.25442693
9	0x3e147b6d	0.14500208
10	0x3e7e3e32	0.24828413
11	0x3d3a353a	0.045460917
12	0x3e35e6d5	0.17763837
13	0x3e87e44b	0.2654136
14	0xbcda7893	-0.026668822
15	0x3e1c05f9	0.15236653
16	0x3e387906	0.18014917
17	0x3ee13595	0.43986192
18	0x3e8f0e90	0.27940798
19	0xbdd2e4c1	-0.102975376
20	0x3e2415c4	0.16023928
21	0x3dbfea03	0.09370806
22	0xbe79b872	-0.24386767
23	0x3e28587f	0.16440009
24	0x3e8626a5	0.26201358
25	0x3eaeaf05	0.34117904
26	0x3e8d9210	0.276505
27	0xbdef168f	-0.116742246
28	0xbe21d69c	-0.15804523
29	0x3d91916d	0.07107816
30	0xbe6ce60d	-0.23134632
31	0xbe344f24	-0.17608315
32	0xbe67a47e	-0.22621343
33	0x3f0b9d00	0.5453644
34	0xbec17523	-0.3778468
35	0x3c882e1f	0.016623555
36	0x3e48a1eb	0.19593017
37	0x3e31c860	0.17361593
38	0xbe6934ac	-0.22773999
39	0x3d679057	0.056534138
40	0xbf06a6bc	-0.52598166
41	0xbefb9979	-0.49140528
42	0x3cc748b6	0.024326663
43	0xbcbafb49	-0.0228249
44	0x3dc312c0	0.09525061
45	0x3ea3cb78	0.31991172
46	0xbf567a6b	-0.83780545
47	0x3e983daa	0.29734546
48	0x3eebdd09	0.46067074
49	0x3ebe226a	0.3713563
50	0xbe883bdc	-0.2660817
51	0xbe6c77cf	-0.23092578
52	0x3eda3558	0.42618823
53	0xbec78e4d	-0.38975754
54	0x3d307c26	0.043087147
55	0xb9af2bcb	-0.0003341123
56	0xbf3ece49	-0.74533516
57	0x3e9bfb57	0.30465195
58	0xbd36a29a	-0.044588663
59	0x3da248ef	0.07924067
60	0xbd2bcc41	-0.04194284
61	0xbd9fe49a	-0.07807274
62	0xbe09c67e	-0.13454625
63	0x3e1922d1	0.14954688
64	0xbd8e3bbf	-0.069449894
65	0xbe080d29	-0.1328627
66	0x3e194885	0.1496907
67	0x3e19858f	0.14992355
68	0x3d2bd33d	0.0419495
69	0x3e356b87	0.177168
70	0x3e813c3a	0.25241262
71	0xbf04948c	-0.51789165
72	0x3da10ca7	0.07863741
73	0x3e9b2bfc	0.30306995
74	0xbb76cc9b	-0.0037658575
75	0xbd5c3240	-0.05375886
76	0xbe2d94c4	-0.16951281
77	0x3f1cb4ed	0.6121357
78	0x3d898d7e	0.067164406
79	0xbee6b83d	-0.45062438
80	0x3f102ccb	0.5631835
81	0xbeebe03d	-0.46069518
82	0xbee1364f	-0.43986747
83	0x3d45f574	0.048329785
84	0xbd24c23f	-0.04022431
85	0x3e098d79	0.13432874
86	0xbc84b5d5	-0.016199986
87	0xbca2f8b9	-0.01989399
88	0x3c90ef74	0.017692305
89	0xbe100940	-0.14066029
90	0x3e0c5c3a	0.13707057
91	0x3bf52f78	0.0074824654
92	0x3e17c92a	0.14822832
93	0x3eaff05a	0.3436306
94	0xbcfa6a65	-0.030568311
95	0x3e0fdf05	0.14049919
96	0xbafc1e05	-0.0019235021
97	0xbe90d665	-0.2828857
98	0xbf06d813	-0.52673453
99	0x3e0a8e6f	0.13530897
100	0x3d0fd436	0.03511449
101	0x3e3a5f86	0.18200502
102	0x3e92de7b	0.28685364
103	0x3d822b3e	0.06355904
104	0x3d3ee43b	0.046604376
105	0xbcfd57f2	-0.030925725
106	0xbe043b60	-0.12913275
107	0xbda5b86b	-0.080918156
108	0x3de9869c	0.11402628
109	0x3d5e1d99	0.054227445
110	0xbe24dd09	-0.16099943
111	0xbe5e81fc	-0.21729273
112	0xbebfa2c9	-0.37428883
113	0x3eadd38e	0.33950466
114	0xbee106a3	-0.43950376
115	0xbf0bf16c	-0.54665256
116	0xbdba4d9b	-0.09096833
117	0x3d133aee	0.03594487
118	0x3ec7c86e	0.39020103
119	0x3e792dac	0.24333829
120	0xbd9423b8	-0.07233375
121	0x3e684b71	0.22685029
122	0xbddad0b4	-0.10684338
123	0xbde70e2b	-0.11281999
124	0xbec20e5c	-0.3790158
125	0x3ea0af34	0.3138367
126	0x3c5af222	0.013363393
127	0xbdc4b148	-0.09604126
128	0xbe1ac404	-0.15113837
129	0x3e8243c5	0.2544233
130	0xbe53779a	-0.20651093
131	0xbf01ccfb	-0.507034
132	0x3ed46e6a	0.4149049
133	0xbe7d75d7	-0.24751984
134	0x3e9cafc5	0.30602852
135	0x3eb08d3d	0.34482756
136	0x3f0d75de	0.55257976
137	0x3da5c54c	0.08094272
138	0xbe08c1c2	-0.13355163
139	0xbea9b572	-0.33146244
140	0xbe6cccda	-0.2312502
141	0xbe5de4b8	-0.2166928
142	0xbf0d31ad	-0.55153924
143	0x3e5004e3	0.20314364
144	0xbf6b52c5	-0.9192317
145	0x3e7bbcf0	0.24583793
146	0x3f022531	0.50838
147	0x3e2cc582	0.16872218
148	0xbdc76129	-0.09735329
149	0x3c5bc699	0.013414049
150	0x3eee98ca	0.46600944
151	0xbebb8a22	-0.36628824
152	0x3e66b95f	0.22531651
153	0xbe23f6b7	-0.16012083
154	0xbd726096	-0.059174143
155	0x3edeeace	0.43538517
156	0x3e8349d4	0.25642264
157	0xbe869440	-0.2628498
158	0xbefa3611	-0.48869374
159	0x3d43bcec	0.04778759
160	0x3dbe2dd4	0.09286085
161	0xbe7de3aa	-0.24793878
162	0xbeafea71	-0.34358552
163	0xbeb5a0d0	-0.35474253
164	0x3e9061d5	0.2819964
165	0x3d9e8fe4	0.07742289
166	0xbe9e84a2	-0.30960566
167	0xbdc0d504	-0.094156295
168	0x3e7ebdcf	0.24877094
169	0xbc84d2ea	-0.016213853
170	0x3d6bc0e9	0.05755702
171	0xbe4f0a8d	-0.20218869
172	0x3ee0e559	0.43924978
173	0xbc073351	-0.008251981
174	0x3ecb3cac	0.39694726
175	0xbd74038d	-0.0595737
176	0xbe51840d	-0.2046053
177	0xbdb9f43c	-0.09079787
178	0x3da93da2	0.08263709
179	0x3e468c6c	0.19389504
180	0x3eb45e84	0.3522836
181	0x3e6ee08e	0.23327848
182	0x3e6c88df	0.23099087
183	0xbdcb395a	-0.09923048
184	0xbe0d0cce	-0.13774416
185	0xbcbcc94e	-0.023045208
186	0xbe34b187	-0.17645846
187	0x3da28721	0.0793593
188	0xbdf30dd1	-0.1186787
189	0x3e9c4589	0.305218
190	0xbe39888a	-0.18118492
191	0x3dc317a9	0.09525997
192	0xbf14fffb	-0.58203095
193	0x3e8825eb	0.2659143
194	0x3e82a019	0.2551277
195	0xbed1864b	-0.4092277
196	0xbe56b736	-0.20968327
197	0xbf2aab53	-0.6666767
198	0xbcbd2838	-0.023090467
199	0x3c13808d	0.009002817
200	0x3de683e3	0.11255624
201	0x3ee77d0c	0.4521259
202	0x3eb4405a	0.35205346
203	0x3d72ce28	0.059278637
204	0xbebb7ba8	-0.3661778
205	0x3cd01503	0.025400644
206	0x3dd84cb5	0.10561506
207	0xbdb86315	-0.090032734
208	0x3e8af9bc	0.27143657
209	0x3c98ac2a	0.018636782
210	0xbe8a2140	-0.26978493
211	0xbd9b80e9	-0.07592947
212	0x3d1ed68a	0.03877882
213	0x3f0b5319	0.5442367
214	0xbcee5ec6	-0.029097926
215	0xbf68839d	-0.90825826
216	0x3d4a04ee	0.049321108
217	0xbe8d9fe4	-0.2766105
218	0xbd88269b	-0.066479884
219	0x3b92b2f9	0.0044769016
220	0x3ee5a456	0.4485194
221	0x3e888593	0.2666441
222	0xbac23d92	-0.0014819375
223	0x3bfb7b01	0.0076745753
224	0xbe7ef385	-0.24897583
225	0x3e3984e2	0.18117097
226	0x3d9661d9	0.07342882
227	0xbea2bb63	-0.3178359
228	0xbeae1c7b	-0.34006104
229	0xbe0b748b	-0.13618676
230	0xbd9ffe03	-0.07812121
231	0x3d36e289	0.044649635
232	0xbe052343	-0.13001733
233	0x3d6afdbd	0.05737089
234	0xbe0cca88	-0.13749135
235	0x3d4f63a8	0.05063215
236	0x3e12c2c6	0.14332113
237	0x3e80659c	0.25077522
238	0xbe6f0616	-0.23342165
239	0x3e3e764f	0.18599819
240	0x3eac3c27	0.33639643
241	0xbecc57fb	-0.39910874
242	0xbe748beb	-0.238815
243	0x3dcd8ac3	0.10036232
244	0xbeea3ee2	-0.457511
245	0xbf06ae46	-0.5260967
246	0x3ed50881	0.4160805
247	0xbeb7ff47	-0.3593695
248	0x3e9031aa	0.2816289
249	0x3e4ccc25	0.1999975
250	0x3bfaa0c7	0.0076485607
251	0xbed41973	-0.41425666
252	0xbd0ac67b	-0.033880692
253	0x3e1e89ab	0.15482204
254	0x3f02b390	0.5105524
255	0x3f455078	0.7707591

bias f4 [20]
0	0x3ea828fd	0.32843772
1	0x3ec4ba15	0.3842322
2	0x3ebbfe67	0.3671753
3	0xbcb7835c	-0.022401504
4	0x3d0e3652	0.034719773
5	0xbe82d5d7	-0.25553772
6	0x3ecd4062	0.40088183
7	0x3d26edd7	0.040754166
8	0xbec4689b	-0.38361058
9	0x3d246202	0.04013253
10	0x3d6d3c4f	0.057918843
11	0x3e9c4220	0.305192
12	0x3e6566b7	0.22402464
13	0xbeda8fd0	-0.42687845
14	0xbcc0f622	-0.023554865
15	0xbec6f71d	-0.38860407
16	0xbdb02351	-0.08600486
17	0x3e467ae4	0.19382817
18	0x3d93b53e	0.072123036
19	0x3efa8d82	0.48936087

weight f4 [20, 20]
0	0x3ccfcd95	0.025366584
1	0xbd1ffee9	-0.03906146
2	0x3e95ffb7	0.29296657
3	0xbe45e2a3	-0.19324736
4	0x3e617ae2	0.22019532
5	0x3d83e9b2	0.06441058
6	0xbdf49fdd	-0.11944554
7	0x3e1b097f	0.15140341
8	0x3eea9f44	0.45824635
9	0x3e3db957	0.18527733
10	0xbcee25b6	-0.029070716
11	0x3cf42640	0.029803395
12	0x3ea0cf48	0.31408143
13	0xbe19d66e	-0.15023205
14	0x3e583d6e	0.21117184
15	0xbe12b84b	-0.14328115
16	0x3eb718e3	0.35761175
17	0x3dc5628b	0.09637936
18	0xbefbf6ee	-0.4921183
19	0xbd603cd1	-0.0547455
20	0xbda22e2c	-0.07918963
21	0xbe9c8622	-0.30571085
22	0x3e860e78	0.26182914
23	0xbdec5b15	-0.1154081
24	0xbe2e2752	-0.17007187
25	0xbdc1c2a8	-0.09460956
26	0xbd631355	-0.05543836
27	0xbe4ccdb4	-0.20000345
28	0x3e775fbc	0.24157614
29	0xbe6db147	-0.23212157
30	0xbde9a674	-0.114087015
31	0xbe819ede	-0.2531652
32	0xbe275051	-0.16339232
33	0x3e368483	0.17823987
34	0xbec8b04f	-0.39197013
35	0xbe906ac1	-0.28206447
36	0xbdc3885d	-0.095474936
37	0x3eb9d143	0.36292467
38	0x3e406d51	0.18791701
39	0xbd818241	-0.06323672
40	0x3eb65e15	0.35618654
41	0x3dc7de0f	0.09759151
42	0xbdb1b929	-0.086778946
43	0xbc25ab0f	-0.010111584
44	0xbf073ef3	-0.5283043
45	0xbdf00635	-0.11719934
46	0xbe113a07	-0.14182292
47	0xbde95d32	-0.11394729
48	0xbde82a70	-0.11336219
49	0x3ccb8d0a	0.024847526
50	0x3d1d4da3	0.03840412
51	0xbdfc86ca	-0.123303965
52	0xbe0d7705	-0.13814934
53	0x3ed59294	0.41713393
54	0xbe3fdc3d	-0.18736358
55	0x3d71536a	0.05891744
56	0x3cee0f8f	0.029060153
57	0xbf00d5ea	-0.50326407
58	0xbf09d303	-0.53837603
59	0x3b8cbb7a	0.00429481
60	0xbea7c5cf	-0.32768103
61	0x3e25d98d	0.1619627
62	0x3d67d841	0.05660272
63	0x3d8ec91f	0.069719546
64	0x3e6e1413	0.23249845
65	0xbeac65e1	-0.33671477
66	0x3d2943bb	0.04132436
67	0x3f15d302	0.585251
68	0xbd496504	-0.0491686
69	0xbda5e8a3	-0.081010126
70	0xbea9f4fd	-0.33194724
71	0xbe3c3d4e	-0.18382761
72	0x3f447534	0.7674134
73	0x3ee939f5	0.4555203
74	0x3ee14d51	0.440043
75	0x3ea3e8b5	0.3201348
76	0xbd29554e	-0.04134112
77	0x3f5d4019	0.8642593
78	0x3e9ac493	0.302281
79	0x3e486612	0.19570187
80	0xbe97915d	-0.2960309
81	0xbebcc794	-0.36871016
82	0x3f36224b	0.71146077
83	0x3e016e11	0.12639643
84	0x3d60602d	0.05477922
85	0x3d6f4cbc	0.05842279
86	0xbe524bc9	-0.20536722
87	0xbcf9d92f	-0.030499069
88	0x3ec3cf41	0.3824406
89	0xbee012eb	-0.43764433
90	0xbe9c098d	-0.30476037
91	0xbe6ddf66	-0.23229751
92	0xbee4a154	-0.44654334
93	0x3e33a390	0.17542863
94	0xbf0562ca	-0.52103865
95	0x3e78d3ed	0.24299593
96	0xbeaf7429	-0.3426831
97	0xbd2b34a4	-0.04179825
98	0xbf2a140d	-0.66436845
99	0x3d8a2968	0.06746179
100	0xbecdc64b	-0.40190348
101	0x3db0dca1	0.086358316
102	0x3e4b6032	0.19860914
103	0xbe54ea58	-0.2079252
104	0x3e548834	0.20755082
105	0x3d54f4d8	0.051991314
106	0xbec31ec1	-0.381094
107	0xbdb20c85	-0.08693794
108	0x3a341a2e	0.0006870356
109	0x3dcb163b	0.099163495
110	0xbe2d3420	-0.16914415
111	0xbebe3b02	-0.37154394
112	0xbe70cd39	-0.23515786
113	0x3db2a5e9	0.08723051
114	0xbd9206c3	-0.07130196
115	0x3edaef06	0.42760485
116	0xbd9718c3	-0.0737777
117	0x3d45d748	0.04830101
118	0xbdbf281c	-0.09333822
119	0xbeb0203e	-0.343996
120	0x3e549055	0.20758183
121	0xbe2cbcf9	-0.16868962
122	0x3e2f6e6c	0.17131966
123	0x3ca331e5	0.019921253
124	0xbee2ff10	-0.44335222
125	0x3df9e4cb	0.12201842
126	0xbdbc31fc	-0.09189221
127	0x3e79adf2	0.24382761
128	0x3db90899	0.09034843
129	0xbbbb02f7	-0.0057071405
130	0xbedeeaf3	-0.43538627
131	0xbdd17e74	-0.10229197
132	0x3d986582	0.07441236
133	0x3e64f214	0.2235797
134	0x3deb4ba5	0.114890374
135	0xbcbce591	-0.023058685
136	0x3ceb4dd0	0.028723627
137	0x3eabdaa6	0.33565253
138	0x3e245253	0.16047029
139	0x3e3d3222	0.18476155
140	0xbe366893	-0.1781333
141	0xbec23d44	-0.37937367
142	0x3efedf67	0.49779817
143	0x3db1c40a	0.086799696
144	0x3d7620d6	0.06008991
145	0xbc844019	-0.016143845
146	0xbb0e5f15	-0.0021724154
147	0x3e241b9c	0.16026157
148	0x3e491786	0.1963788
149	0xbe809ca0	-0.25119495
150	0xbded6d3d	-0.11593101
151	0xbec3f97d	-0.38276282
152	0x3e29f720	0.16598177
153	0x3ca47c77	0.02007888
154	0xbe987fbb	-0.2978495
155	0x3caf29ed	0.021382296
156	0xbed180a9	-0.40918472
157	0xbdbe7007	-0.09298711
158	0xbeb39179	-0.35071924
159	0x3ea61389	0.3243678
160	0xbe8a464c	-0.27006757
161	0xbdadfd2e	-0.08495556
162	0xbcbba0d0	-0.02290383
163	0x3e2bcc59	0.16777171
164	0xbcd783f9	-0.026308047
165	0xbea4f981	-0.32221606
166	0xbac3cb86	-0.0014937974
167	0xbea02796	-0.31280202
168	0xbdd1f676	-0.10252087
169	0x3ebc0e4c	0.36729658
170	0x3e7a14ec	0.24422044
171	0xbe22034f	-0.15821575
172	0xbdc0810d	-0.093996145
173	0x3e227fb4	0.15869027
174	0x3df9f10c	0.12204179
175	0xbcfbe08a	-0.030746717
176	0xbd9a911e	-0.0754721
177	0xbe44f7e9	-0.19235195
178	0xbd9b5e78	-0.07586378
179	0x3d41206d	0.047150064
180	0x3c290496	0.010316035
181	0xbcd5555b	-0.026041677
182	0x3e9a72ea	0.30165797
183	0xbd4d2f7e	-0.05009412
184	0xbdb6819c	-0.0891144
185	0xbda930d6	-0.08261268
186	0xbe48d5d7	-0.19612823
187	0x3eb3e481	0.35135272
188	0xbc750935	-0.014955808
189	0xbebf0bcc	-0.37313688
190	0xbd72b4a5	-0.059254307
191	0xbdf09309	-0.11746795
192	0xbeb65610	-0.35612535
193	0x3f0f9e7f	0.5610122
194	0xbe31c258	-0.17359293
195	0x3d3d783f	0.046257254
196	0xbe22e0f9	-0.15906133
197	0x3e02a5fc	0.1275863
198	0xbe9fd2cf	-0.31215522
199	0x3e8d1420	0.27554417
200	0xbddf692c	-0.10908732
201	0xbdfbb5ab	-0.1229051
202	0x3f05379f	0.52037996
203	0x3e5bbae5	0.21458013
204	0xbe43f1d9	-0.19135226
205	0x3ea0c384	0.31399167
206	0xbdef4a62	-0.11684109
207	0xbeb8f4d4	-0.3612429
208	0x3ddef8e7	0.10887318
209	0xbe8406c5	-0.25786415
210	0x3ea8533a	0.32875997
211	0x3d6610d0	0.056168377
212	0xbf05b4ff	-0.52229303
213	0xbe84a72e	-0.25908798
214	0xbee704b9	-0.4512079
215	0x3d65f9e0	0.056146502
216	0x3e77c17e	0.24194905
217	0xbe224782	-0.1584759
218	0x3de295a3	0.11063697
219	0xbea35806	-0.31903094
220	0xbef50a5b	-0.47859463
221	0x3c2c44e3	0.010514471
222	0xbe2287e7	-0.15872155
223	0x3e60c8e5	0.21951635
224	0xbea28f71	-0.31750062
225	0xbc85e568	-0.016344741
226	0xbda325f2	-0.07966222
227	0x3f2b34d9	0.66877514
228	0xbe790734	-0.24319154
229	0xbdcc158b	-0.099650465
230	0xbdb01a7c	-0.085988015
231	0x3e213327	0.1574217
232	0x3f00e02d	0.50342065
233	0x3e08379b	0.13302462
234	0x3e6ef81a	0.2333683
235	0xbd3a4e98	-0.04548511
236	0x3e174b9a	0.14774933
237	0x3e0bcb0a	0.13651672
238	0x3e5ef811	0.21774317
239	0xbdc1559e	-0.09440158
240	0xbe880487	-0.26565954
241	0xbe8ee295	-0.27907243
242	0xbc9cff5d	-0.019164735
243	0xbe312095	-0.17297585
244	0xbe9e3718	-0.30901408
245	0x3ec0ab9d	0.3763093
246	0xbe88253d	-0.2659091
247	0xbe005319	-0.12531699
248	0x3dc049f1	0.09389103
249	0xbe143ebf	-0.1447706
250	0x3d16735f	0.03673112
251	0xbe332d9b	-0.17497866
252	0xbe881e43	-0.26585588
253	0x3ecc1536	0.39859933
254	0xbeeec883	-0.46637353
255	0x3dd94a5c	0.10609886

bias f4 [20]
0	0xbd90b13f	-0.07065057
1	0xbcd61729	-0.02613409
2	0xbe828030	-0.25488424
3	0x3c55c956	0.0130484905
4	0xbeb04def	-0.3443446
5	0xbec2b044	-0.38025105
6	0xbe142381	-0.14466669
7	0xbbc59440	-0.0060296357
8	0x3d8f22a5	0.0698903
9	0x3e5bb131	0.21454312
10	0xbdfd8137	-0.123781614
11	0x3dc3a10c	0.09552202
12	0xbea9d3a0	-0.3316927
13	0x3ee56c0c	0.44808996
14	0x3dcc5147	0.0997644
15	0xbea7eb80	-0.3279686
16	0x3e2c8fe4	0.16851765
17	0xbe3cebdc	-0.18449348
18	0xbe9d40b5	-0.3071343
19	0xbbcdab78	-0.006276544

weight f4 [20, 20]
0	0x3e52c3ef	0.20582555
1	0x3b8c2d32	0.0042778486
2	0xbde00a22	-0.10939433
3	0x3f00ca40	0.5030861
4	0xbeb951c3	-0.36195192
5	0x3e54dfa3	0.20788436
6	0x3e4dac5b	0.2008528
7	0xbc31e774	-0.010858405
8	0xbdc03557	-0.09385174
9	0xbce937aa	-0.028468926
10	0xbe3b8d6a	-0.18315664
11	0x3e73410a	0.23755279
12	0x3e487a8c	0.19577998
13	0xbe5c32a7	-0.21503697
14	0xbe8adbd3	-0.27120838
15	0x3e683cb8	0.22679412
16	0x3e870d93	0.26377544
17	0x3e49f002	0.19720462
18	0xbdd795b4	-0.105266005
19	0xbeb796e5	-0.3585731
20	0x3ed7f797	0.42181084
21	0x3dd7c04b	0.10534724
22	0xbdac05c1	-0.08399535
23	0xbeab453c	-0.3345126
24	0x3e543eba	0.20727053
25	0x3e65dbed	0.22447176
26	0xbe980553	-0.29691562
27	0x3e3a3e99	0.18187942
28	0x3e42a0c7	0.19006644
29	0x3de43724	0.1114333
30	0xbc5cefe6	-0.013484931
31	0xbea27410	-0.31729174
32	0x3e78fa98	0.24314344
33	0x3ea60d95	0.32432237
34	0xbe7ba847	-0.24575911
35	0xbf3f256d	-0.7466648
36	0x3e79922e	0.2437217
37	0x3d528ebd	0.051405657
38	0xbf156912	-0.5836345
39	0x3e3b92ef	0.1831777
40	0xbef1d4ef	-0.47232768
41	0xbe17cf4c	-0.14825171
42	0xbe568408	-0.20948803
43	0xbe2088fb	-0.15677254
44	0xbee04f4c	-0.438105
45	0xbec2bd4a	-0.3803504
46	0xbdbf11d9	-0.09329576
47	0xbf124f6e	-0.5715245
48	0xbdb27e0a	-0.08715446
49	0xbe3a481e	-0.18191573
50	0xbdc16b75	-0.09444324
51	0xbf0e88f2	-0.5567771
52	0xbeb3f7b7	-0.3514993
53	0x3dc0bbac	0.094107956
54	0x3f2ecf50	0.68285084
55	0x3ecfc15f	0.40577218
56	0x3e0bc505	0.13649376
57	0xbe0b6bba	-0.13615313
58	0x3f23ef20	0.6403675
59	0xbc68b626	-0.014203584
60	0xbece085c	-0.40240753
61	0x3dc005c2	0.09376098
62	0xbe89a617	-0.2688453
63	0xbe4b4c06	-0.1985322
64	0xbe8546b9	-0.2603052
65	0xbdcf9b16	-0.10137002
66	0xbe03c95f	-0.12869786
67	0xbd1f04f5	-0.038823087
68	0xbe2a882c	-0.16653508
69	0x3e82e071	0.2556186
70	0x3d63ca77	0.055613007
71	0x3e3bd458	0.18342721
72	0x3d274abe	0.040842764
73	0xbc0808b4	-0.008302856
74	0x3ee8ad34	0.45444643
75	0x3ee94ffa	0.4556883
76	0xbebcf177	-0.36902973
77	0xbd9bdc2b	-0.07610353
78	0x3e3a15bb	0.18172352
79	0xbd9b55a4	-0.07584694
80	0xbd85ed9d	-0.06539462
81	0xbea78cd0	-0.3272462
82	0xbe34af9d	-0.17645116
83	0xbd82c338	-0.06384891
84	0xbf0a9d5e	-0.54146373
85	0xbe9b7aa1	-0.30366996
86	0xbe93e050	-0.28882074
87	0xbe99ee10	-0.3006444
88	0x3d9b83d6	0.07593505
89	0xbed41e42	-0.41429335
90	0x3e90af81	0.282589
91	0xbb55695a	-0.0032564015
92	0xbef118b1	-0.4708915
93	0xbe04dfd1	-0.12976004
94	0x3c804897	0.015659614
95	0xbe3db493	-0.18525915
96	0x3d9d87bb	0.07691904
97	0x3b97139a	0.004610491
98	0x3dc8e678	0.098095834
99	0xbea8bd9b	-0.32957157
100	0xbd91ae15	-0.07113282
101	0xbe403228	-0.18769133
102	0xbf20d1e1	-0.6282025
103	0x3ec2e8e1	0.38068298
104	0xbf540a74	-0.8282845
105	0xbedac9da	-0.42732126
106	0xbc58b727	-0.013227261
107	0xbe8af5e4	-0.27140725
108	0x3e834807	0.2564089
109	0xbe96d7a0	-0.29461384
110	0xbe759c10	-0.23985314
111	0x3ecbca14	0.3980261
112	0xbf00b5b1	-0.5027724
113	0xbef14105	-0.47119918
114	0x3bc7eafb	0.00610101
115	0x3e9233a6	0.2855503
116	0x3eec81ff	0.4619293
117	0x3b505424	0.0031788433
118	0x3d54990e	0.051903777
119	0x3ecc6d10	0.39926958
120	0xbcbaf92e	-0.022823896
121	0xbe06399a	-0.13107911
122	0xbe0aad73	-0.13542728
123	0x3e743814	0.23849517
124	0x3df12718	0.11775035
125	0xbd648b38	-0.05579683
126	0x3e080590	0.13283372
127	0xbe9df2fe	-0.3084945
128	0x3e3da488	0.18519795
129	0xbe02afdd	-0.12762399
130	0x3dadd320	0.084875345
131	0xbcdb175a	-0.026744533
132	0xbe9d9fdd	-0.30786029
133	0xbe5fedc7	-0.21868049
134	0x3e27457a	0.16335097
135	0xbf1bcffe	-0.60864246
136	0x3cc947af	0.024570314
137	0xbdeb56f9	-0.11491198
138	0xbc9d92b7	-0.019234998
139	0xbe63dea8	-0.22252905
140	0x3d8bebc5	0.06832079
141	0x3e04f911	0.12985636
142	0xbe2f78b9	-0.17135896
143	0x3d89600e	0.06707774
144	0x3ee4a5ac	0.44657648
145	0x3de1f739	0.11033482
146	0x3de3f45f	0.111305945
147	0xbd134793	-0.03595693
148	0x3d9bb23a	0.076023534
149	0x3e40bdda	0.18822423
150	0x3dda8cef	0.10671412
151	0xbd14020c	-0.036134765
152	0x3e75bfec	0.23998994
153	0x3d81ef20	0.063444376
154	0xbc855bf6	-0.016279202
155	0xbe1de0da	-0.15417805
156	0xbe70cadf	-0.23514889
157	0x3da6f2bb	0.08151766
158	0xbf0ffc90	-0.56244755
159	0x3dbe9878	0.09306425
160	0xbe6aa14c	-0.22913092
161	0xbe9e539d	-0.30923167
162	0xbc800765	-0.015628526
163	0x3ec7b0fc	0.39002216
164	0x3e1112e6	0.14167365
165	0x3e3030b8	0.17206085
166	0x3da8378a	0.08213718
167	0x3ebde3cc	0.37087858
168	0x3eff76d3	0.49895343
169	0x3daf41ef	0.08557498
170	0xbe98af49	-0.29821232
171	0xbda93f4b	-0.08264025
172	0xbd69d1db	-0.0570849
173	0xbd28a055	-0.04116853
174	0xbd9ae7dd	-0.07563756
175	0x3e4032ed	0.18769427
176	0x3eab48e1	0.3345404
177	0xbee0f7ba	-0.43939
178	0x3dac8119	0.08423061
179	0xbe5a0e0c	-0.21294421
180	0xbe36fa77	-0.17868982
181	0xbec1a5dc	-0.37821853
182	0xbe075017	-0.13214146
183	0x3ebceac0	0.3689785
184	0xbdd4ea9a	-0.10396309
185	0xbb5ae124	-0.0033398354
186	0xbd4f2c1c	-0.050579175
187	0xbeb04b14	-0.3443228
188	0xbcaf3d12	-0.021391425
189	0xbe549c57	-0.20762764
190	0x3cd4b411	0.025964769
191	0xbe21b101	-0.15790178
192	0xbec583ea	-0.38577205
193	0xbe9c4417	-0.30520698
194	0xbd081ff7	-0.03323361
195	0xbef3a93e	-0.4759006
196	0x3d73cc9b	0.0595213
197	0xbece6e24	-0.40318406
198	0x3dcb2d3c	0.09920737
199	0x3d8e11db	0.069369994
200	0x3d0791d0	0.033098042
201	0x3ebe8cca	0.3721679
202	0x3e37d241	0.17951299
203	0x3e52ee86	0.20598802
204	0xbe0cd21c	-0.13752025
205	0x3d94a3e9	0.07257826
206	0x3f071152	0.52760804
207	0x3e5a79fb	0.21335594
208	0xbe29dfca	-0.16589275
209	0x3ee9ade7	0.4564049
210	0xbe0aec5f	-0.13566731
211	0xbdc71751	-0.09721244
212	0xbe8319e1	-0.25605682
213	0xbcf062e7	-0.029344035
214	0xbe109138	-0.14117897
215	0x3f289fa1	0.65868574
216	0xba36dcd1	-0.0006975653
217	0xbed1e21d	-0.40992823
218	0xbe2e050f	-0.16994117
219	0xbe26d285	-0.16291244
220	0x3bc82f8c	0.0061091837
221	0x3e00a041	0.12561132
222	0x3e19283c	0.14956754
223	0x3e4cf352	0.20014694
224	0xbee54c12	-0.447846
225	0x3d177d5a	0.03698478
226	0xbcd0f2b8	-0.025506362
227	0xbeb6fbcc	-0.3573898
228	0x3e679065	0.22613676
229	0xbea0fb57	-0.31441757
230	0x3e6b56b9	0.22982301
231	0x3e62b2bd	0.22138496
232	0x3db3c9e8	0.08778745
233	0xbeb1e7c9	-0.3474715
234	0xbde504ca	-0.11182554
235	0x3ef87d47	0.4853308
236	0x3e81c06a	0.25342113
237	0xbef024f1	-0.46903184
238	0x3f87e57e	1.061691
239	0xbe6458ff	-0.22299574
240	0x3e659242	0.22419074
241	0xbdcd84b6	-0.10035078
242	0x3eed4691	0.463429
243	0xbea052fb	-0.3131331
244	0xbe35d7e9	-0.17758144
245	0x3df8c308	0.12146574
246	0xbeb5e6e0	-0.35527706
247	0xbeb0deb9	-0.34544924
248	0x3e477793	0.19479208
249	0x3e9d143c	0.306795
250	0x3cce93bf	0.025216935
251	0xbe8ea0ec	-0.2785715
252	0x3e450f03	0.19244008
253	0x3e3402d2	0.17579201
254	0x3e9d402b	0.3071302
255	0x3e310080	0.17285347

bias f4 [20]
0	0x3e660172	0.22461489
1	0x3ecddbbd	0.4020671
2	0x3d4faaff	0.050700184
3	0xbd73f6d7	-0.059561577
4	0x3e627862	0.22116235
5	0x3ecd8153	0.4013773
6	0x3eaeb646	0.3412344
7	0xbed9f6c2	-0.42571074
8	0xbbe49ad4	-0.0069764648
9	0xbdd6518a	-0.10464771
10	0xbe340631	-0.17580487
11	0xbe380ca5	-0.17973574
12	0x3cbc69af	0.022999613
13	0xbe5efc6b	-0.21775977
14	0xbe3175b7	-0.17330061
15	0xbeb75925	-0.358102
16	0x3d91b6fa	0.07114978
17	0x3e9dd8f8	0.30829597
18	0x3da06732	0.07832183
19	0xbe11a683	-0.14223675

weight f4 [20, 20]
0	0xbe0d7858	-0.13815439
1	0x3e45044b	0.19239919
2	0xbefb7c2b	-0.4911817
3	0xbe50ff35	-0.20409854
4	0xbe198073	-0.14990406
5	0x3be29ad7	0.006915431
6	0x3e51842b	0.20460574
7	0xbd4285c7	-0.04749086
8	0x3e9cdc6d	0.30636922
9	0x3eb05831	0.34442285
10	0xbc0a2ff6	-0.008434286
11	0xbe10652c	-0.14101094
12	0x3d0cc41a	0.034366705
13	0x3d2df45b	0.042469364
14	0xbe1d1b6e	-0.15342495
15	0x3e6664f7	0.22499453
16	0xbe9e96d9	-0.30974463
17	0x3ec0f7b3	0.3768898
18	0xbd9f4932	-0.07777633
19	0xbe184abf	-0.14872263
20	0x3e40587c	0.18783754
21	0x3eeef1ab	0.46668753
22	0x3e351ce8	0.17686808
23	0x3e3d9470	0.18513656
24	0xbe806a0a	-0.250809
25	0x3db379dd	0.08763478
26	0xbe90975c	-0.28240478
27	0xbe6ab5ae	-0.22920868
28	0x3e8dd08b	0.27698168
29	0x3dbca54f	0.092112176
30	0x3e48f61a	0.1962513
31	0xbe0eb17f	-0.13934897
32	0xbe641d41	-0.22276784
33	0xbddcbc4d	-0.10778103
34	0xbc8303a5	-0.015992949
35	0x3e4b2ff4	0.19842511
36	0x3eb67e58	0.35643268
37	0x3d9aa9e1	0.07551933
38	0x3db9de4b	0.09075602
39	0x3cf69e7c	0.030104868
40	0xbe25b2e0	-0.16181517
41	0xbe738766	-0.23782119
42	0x3edb1375	0.42788282
43	0x3ec4a8a7	0.38409922
44	0xbe22a4f2	-0.15883234
45	0xbf3f5644	-0.74741006
46	0xbe135bea	-0.14390531
47	0xbcc94657	-0.024569673
48	0x3ea2f90c	0.31830633
49	0xbdcec279	-0.100956865
50	0x3ea9dab5	0.33174673
51	0x3de6a783	0.11262419
52	0xbefd8387	-0.4951441
53	0xbd8404b7	-0.06446212
54	0xbe1418af	-0.14462541
55	0x3f7e51c8	0.9934354
56	0x3e018dad	0.12651701
57	0x3e482a38	0.19547355
58	0xbf237551	-0.63850886
59	0xbe0ad21a	-0.1355671
60	0x3e7201b8	0.23633468
61	0xbcdfa069	-0.02729817
62	0x3ef9c513	0.48783168
63	0xbeae3891	-0.34027532
64	0x3d886054	0.06658998
65	0xbe39da90	-0.18149781
66	0xbe9c6876	-0.30548447
67	0xbe2a4a36	-0.16629872
68	0x3c03ba7e	0.008040069
69	0x3e93553f	0.28775975
70	0xbe674e66	-0.225885
71	0x3ece543d	0.40298644
72	0xbe1735c9	-0.14766611
73	0x3e87fdd9	0.26560858
74	0x3e1f151d	0.15535398
75	0x3c8cdaa4	0.0171941
76	0x3e616791	0.22012164
77	0x3d011da7	0.03152242
78	0xbdd5a3ce	-0.10431634
79	0xbea1ad75	-0.3157765
80	0x3e5306ee	0.20608112
81	0x3d06c738	0.032904834
82	0x3ddcb561	0.10776783
83	0x3df94cca	0.121728495
84	0x3f40c111	0.75294596
85	0x3dc05d4c	0.09392795
86	0x3ea2b22d	0.31776562
87	0x3e20e27a	0.15711394
88	0x3e16ca81	0.14725687
89	0x3e122f3c	0.14275831
90	0xbe7b5c18	-0.2454685
91	0x3d3fad73	0.046796273
92	0xbe9b12d7	-0.3028781
93	0x3e3f6267	0.18689881
94	0x3d706fd6	0.058700405
95	0xbefbe091	-0.49194768
96	0xbe7b302b	-0.24530093
97	0x3dc5fa8e	0.0966693
98	0x3e6f06ad	0.2334239
99	0x3e5814f4	0.21101743
100	0x3e4ad212	0.19806698
101	0xbdd60921	-0.1045096
102	0xbeeea94f	-0.46613547
103	0xbe19e5e5	-0.15029104
104	0xbf0a46f6	-0.5401453
105	0x3e95a8ee	0.29230446
106	0x3ea5c8d3	0.3237978
107	0x3f01db48	0.5072522
108	0xbe042d8e	-0.12908003
109	0xbe34e70c	-0.17666262
110	0x3ed0d5f9	0.40788248
111	0x3cc0e35b	0.023545912
112	0xbf0445b3	-0.5166885
113	0x3ea3d710	0.32000017
114	0xbe97be8e	-0.2963757
115	0x3ec28cc9	0.37998036
116	0xbd64bf72	-0.05584664
117	0xbd9e7db6	-0.07738821
118	0xbdb61bb6	-0.08892004
119	0x3d8e4871	0.06947411
120	0xbef33bba	-0.47506505
121	0x3e2c7bc5	0.1684409
122	0xbecf02f9	-0.40431955
123	0xbe1636ab	-0.14669292
124	0xbde6abb0	-0.112632155
125	0x3e5a1c81	0.21299936
126	0xbe164a16	-0.14676699
127	0xbdde4112	-0.10852255
128	0xbdcaa1fd	-0.09894178
129	0xbec5ad4b	-0.38608775
130	0x3e1df4b8	0.15425384
131	0xbeaaea06	-0.3338167
132	0x3d66bdd1	0.056333367
133	0xbeba0dc4	-0.36338627
134	0xbe93e945	-0.28888908
135	0xbe567343	-0.20942406
136	0xbe2008e7	-0.15628396
137	0xbd81ece5	-0.06344012
138	0x3e3c65ce	0.1839821
139	0xbe1e0bef	-0.1543424
140	0x3ed68932	0.41901547
141	0xbedcb2d6	-0.4310519
142	0x3e5c4b29	0.21513046
143	0x3e14bf61	0.1452613
144	0xbe393a46	-0.18088636
145	0x3d836f82	0.06417753
146	0xbd0b9503	-0.034077656
147	0xbe2de54a	-0.16981998
148	0xbe0bd23f	-0.13654421
149	0xbdf09e7d	-0.11748979
150	0xbde4a37e	-0.11163996
151	0x3ce7c176	0.028290492
152	0xbe0afc3e	-0.13572785
153	0x3e9d03b5	0.3066689
154	0x3e61e30b	0.22059266
155	0x3e0274de	0.12739894
156	0x3d018a6b	0.031626146
157	0x3e054fac	0.13018674
158	0xbdc1c87b	-0.09462067
159	0xbda95629	-0.08268387
160	0xbc976946	-0.018482815
161	0x3d1f42be	0.03888201
162	0xbe653c71	-0.22386338
163	0xbd5474e2	-0.05186928
164	0xbdd85b76	-0.1056432
165	0x3e018cdc	0.1265139
166	0x3e9cbbf2	0.3061214
167	0xbdc57145	-0.09640745
168	0x3da6e0bb	0.08148333
169	0x3e9abacd	0.30220643
170	0xbd72b8b3	-0.059258174
171	0xbdc1f06d	-0.09469686
172	0xbe0b8d4b	-0.13628118
173	0x3e97a582	0.2961846
174	0xbe2abc37	-0.16673361
175	0xbed79399	-0.42104796
176	0xbe5c7292	-0.2152808
177	0x3e0c2c64	0.13688809
178	0xbcdd171d	-0.02698856
179	0xbebec4ad	-0.37259427
180	0x3e029239	0.12751092
181	0x3eb53c4c	0.35397565
182	0xbedb234f	-0.42800376
183	0xbeada1dd	-0.33912554
184	0x3cf43907	0.029812349
185	0x3d464da4	0.048413888
186	0x3e0c666d	0.13710947
187	0x3ed94a8d	0.4243969
188	0xbe88aae2	-0.26692873
189	0xbe4d6a33	-0.20060043
190	0xbe4ac86d	-0.19803019
191	0x3d3640a4	0.04449524
192	0x3e909dd2	0.28245407
193	0xbe78d652	-0.24300507
194	0x3e5d90d1	0.21637274
195	0x3e90891c	0.28229606
196	0x3e499427	0.19685422
197	0xbcf69a4c	-0.030102871
198	0x3d582b6c	0.052775785
199	0xbdb3a6af	-0.08772027
200	0x3db52938	0.088457525
201	0xbe31c611	-0.17360713
202	0xbe9540b7	-0.29150936
203	0xbe1dad72	-0.15398195
204	0x3e6b241a	0.2296299
205	0xbe59fa12	-0.212868
206	0x3d4f1646	0.05055835
207	0x3e0a1f05	0.13488396
208	0x3e1c7f3b	0.1528291
209	0x3df104d9	0.11768503
210	0xbe601baa	-0.21885553
211	0xbf0291bc	-0.51003623
212	0x3de293c5	0.11063341
213	0xbe82296b	-0.25422224
214	0x3e1a7e59	0.1508726
215	0xbdc63b4c	-0.09679279
216	0x3cbee269	0.02330132
217	0xbe726a54	-0.23673373
218	0x3ee1d088	0.4410441
219	0x3d8afbb7	0.06786292
220	0x3dbe7e17	0.093013935
221	0xbdf7c3ca	-0.12097891
222	0x3e81a0da	0.25318033
223	0xbe205e82	-0.15661052
224	0x3df19a6b	0.11797031
225	0x3e00ca86	0.12577257
226	0xbdadf16c	-0.08493313
227	0xbda01953	-0.0781733
228	0x3e7aafaa	0.24481073
229	0x3e194b7f	0.14970206
230	0x3e8b87ba	0.2725199
231	0xbd6939ef	-0.056940015
232	0x39edc82e	0.00045353308
233	0xbd251386	-0.040301822
234	0xbd88d551	-0.06681312
235	0xbe83ffd7	-0.25781128
236	0xbe52fb0f	-0.20603584
237	0x3cd47364	0.025933929
238	0x3ebb6a2f	0.3660445
239	0x3d7e8840	0.062141657
240	0xbe79ea88	-0.24405873
241	0x3e10b1d7	0.1413034
242	0x3dc21c9d	0.09478114
243	0x3db393c6	0.0876842
244	0x3e76677f	0.24062918
245	0xbeae7c8a	-0.3407939
246	0x3e106e7c	0.14104646
247	0x3e56c8b2	0.20974997
248	0xbf0dbc00	-0.5536499
249	0xbf186cd1	-0.5954104
250	0xbd36538f	-0.04451328
251	0xbe84f267	-0.25966188
252	0x3ee5527e	0.447895
253	0xbef2a0e7	-0.47388384
254	0xbe2dc0b2	-0.16968039
255	0xbd977422	-0.073951975

bias f4 [20]
0	0x3e11c7cb	0.14236371
1	0xbcff6ce3	-0.03117985
2	0xbf242f6a	-0.6413485
3	0xbd944f77	-0.07241719
4	0x3d0eb764	0.034842864
5	0xbe292444	-0.1651774
6	0x3cafe730	0.021472543
7	0x3e323b6e	0.17405483
8	0x3d0bdcce	0.034146123
9	0x3a0780ef	0.0005169054
10	0x3d0aec48	0.03391674
11	0x3d1ba8f2	0.038002916
12	0x3dfe3493	0.124123715
13	0x3e9d8e67	0.30772707
14	0xbe0b4661	-0.13601066
15	0x3e803f0c	0.250481
16	0xbf1227d4	-0.5709202
17	0x3dc00e18	0.09377688
18	0x39a109c6	0.00030715595
19	0x3e602b2d	0.2189147
