Iter_03/Models/Noise_5/simulation_00_03/ff_3200.pt (torch, 111005 bytes, 23 tensors)

weight f4 [20, 2]
0.19365685 0.49871144 -0.043249123 0.07429962 -0.1654896 -0.58036846 0.047175772 1.8869641
-0.15292358 -0.4504042 -0.13416523 -0.8816004 0.033721 -0.6727941 0.4612524 -0.5101241
0.45383525 0.86110413 -0.2812198 -0.32001594 -0.17763864 0.41608334 0.14861053 -0.43500918
0.037105024 -1.0265548 -0.27540874 0.526952 0.3374992 -1.0009131 0.43051362 -0.04362222
0.7122232 -0.8746381 -0.6957535 -0.578496 0.2659368 -0.5188536 0.077881075 -0.24108712
00000000: fb4d 463e 1b57 ff3e fe25 31bd 662a 983d
00000010: 1b76 29be 0793 14bf 623b 413d 0a88 f13f
00000020: 0098 1cbe 619b e6be 9c62 09be 90b0 61bf
00000030: 081f 0a3d 3c3c 2cbf 4629 ec3e 7e97 02bf
00000040: 185d e83e 5271 5c3f 0bfc 8fbe 21d9 a3be
00000050: e7e6 35be e008 d53e 5c2d 183e 86b9 debe
00000060: 70fb 173d 2666 83bf 6002 8dbe 54e6 063f
00000070: b2cc ac3e ec1d 80bf 486c dc3e 37ad 32bd
00000080: 4254 363f 48e8 5fbf e71c 32bf 5018 14bf
00000090: de28 883e 97d3 04bf 1d80 9f3d 8bdf 76be

bias f4 [20]
-0.34498236 0.10880141 0.236126 0.4687827 0.07717001 -0.03830933 0.22061722 0.37903684
-0.00088579825 0.16529137 0.05786688 0.006695721 -0.12960985 0.026859634 -0.36319074 0.10705172
0.39536104 -0.599704 -0.20933312 0.04755641
00000000: 87a1 b0be 46d3 de3d 04cb 713e 4904 f03e
00000010: 4f0b 9e3d 3eea 1cbd 7be9 613e 1e11 c23e
00000020: ea34 68ba 2442 293e d205 6d3d c767 db3b
00000030: 72b8 04be bc08 dc3c 23f4 b9be ef3d db3d
00000040: c36c ca3e 3486 19bf 6c5b 56be 83ca 423d

weight f4 [20, 20]
0.10741495 0.049473498 -0.21319188 -0.08335929 0.20026381 0.17506234 0.19007234 -0.0010540085
0.21820167 0.32861704 0.3078119 0.07952506 0.337459 0.047916893 0.64764506 -0.2286026
-0.5236838 -0.49817386 -0.11673501 0.08881196 0.25730887 0.18974085 -0.25293544 0.62002486
-0.33592904 -0.5321172 -0.39783 -0.3867432 0.46989292 -0.0797355 0.024263233 0.07079735
-0.30884808 -0.007212687 -0.48573092 0.14385994 -0.11548011 -0.20702049 0.004262272 -0.003099562
0.24882899 0.09302179 -0.1076143 -0.80903566 0.7186927 0.047964614 -0.0138929775 0.27732998
0.034853533 -0.21848074 -0.24819861 0.17494835 -0.1865242 -0.025964152 0.15114385 -0.025552807
0.11029523 0.023213793 0.070276335 -0.45395428 0.23873688 0.057933196 -0.25163835 0.28768316
0.12870812 0.18489087 -0.33590016 0.1262757 -0.12509155 0.10717129 0.12218911 0.15359446
0.3127508 0.03970573 0.00094562484 -0.015562844 -0.17336755 -0.030399807 0.1748192 0.22860107
0.42500135 0.0033480607 0.10311162 0.13886002 -0.29385048 -0.23955123 0.11802932 0.54891145
-0.045594193 -0.120743126 0.10703333 -0.024924591 -0.026773823 -0.16629693 -0.123438284 0.2804065
0.049936347 0.23243567 0.058476374 0.3090064 -0.08326215 0.11318623 0.2653389 -0.13634099
0.20488282 0.24251577 -0.18629648 -0.109032154 -0.035923302 -0.20592646 0.09206747 -0.10651015
-0.2038451 -0.20605153 0.5961788 0.006013019 -0.30533257 -0.017138822 0.16765891 0.28397062
-0.41753486 -0.022247696 0.0039493223 0.043105077 -0.15468387 -0.5523417 0.21554917 0.024876589
0.2997828 -0.25102466 0.16597347 -0.14570886 -0.0046782615 -0.008086195 0.22466558 0.060476873
-0.14400724 -0.22760564 0.06625382 -0.18999717 0.19642237 0.45273706 0.23256455 0.13594769
0.2902998 0.082072996 -0.38208273 0.18506573 0.0040816185 -0.0029892656 0.090610415 0.15133049
0.21163245 -0.26802406 -0.06332831 -0.25569916 0.07571949 -0.024235863 -0.1963478 0.2536168
0.23560007 -0.09594272 -0.018091528 0.08567105 -0.3203159 0.13587293 -0.25266454 -0.019450393
-0.25938997 -0.11954287 0.15003632 0.07339014 0.10722943 0.018378865 -0.010915402 0.37883973
0.60064924 0.5344612 0.13841414 -0.20812124 0.12181525 0.007983055 0.33919972 0.12915263
0.4934951 0.28317016 0.1806592 0.29241315 0.44860545 0.12007782 0.08588058 -0.24659465
-0.06873957 0.21034285 -0.14163652 0.03349162 0.56796217 0.0020944206 -0.19544628 0.051372726
0.020880522 0.22809692 -0.32085332 0.6441529 -0.41616955 -0.30783898 -0.26726845 -0.18032911
0.56305206 -0.5322199 0.07568257 -0.13615924 -0.6019127 -0.16936468 -0.3492668 0.050555117
-0.74704885 0.0057433103 0.086681336 -0.24919425 -0.41176027 0.10611432 0.33271334 0.035172895
0.0065916367 0.1057147 -0.014750053 0.0028198273 -0.33530867 0.3218385 0.09030303 0.3877964
-0.06286415 -0.06185441 0.30392182 -0.16500878 0.038319927 0.03398452 0.18220003 0.015772067
-0.39181253 0.11386934 0.18137848 -0.16005017 -0.23307993 0.37873518 0.02989637 -0.109714635
0.10470555 0.20490119 -0.17513245 0.29075518 0.24622492 -0.13355349 0.08894395 0.121357374
00000000: 5ffc db3d b9a4 4a3d f94e 5abe 47b8 aabd
00000010: f511 4d3e 8b43 333e 53a2 423e a826 8aba
00000020: 4270 5f3e 7e40 a83e 8599 9d3e 09de a23d
00000030: 6dc7 ac3e 8144 443d 11cc 253f cd16 6abe
00000040: 2410 06bf a510 ffbe c412 efbd 0be3 b53d
00000050: fdbd 833e 6d4b 423e c180 81be f3b9 1e3f
00000060: e4fe abbe d538 08bf 60b0 cbbe 3403 c6be
00000070: ce95 f03e 5e4c a3bd b0c3 c63c 33fe 903d
00000080: 5621 9ebe 6758 ecbb b9b1 f8be 0550 133e
00000090: d680 ecbd 2efd 53be 87aa 8b3b 0522 4bbb
000000a0: 07cd 7e3e 3582 be3d e364 dcbd f61c 4fbf
000000b0: 3ffc 373f 8b76 443d 5f9f 63bc 32fe 8d3e
000000c0: 94c2 0e3d 6ab9 5fbe c727 7ebe a925 333e
000000d0: 3300 3fbe c6b2 d4bc 74c5 1a3e 1f54 d1bc
000000e0: 77e2 e13d da2a be3c 0aed 8f3d b26c e8be
000000f0: 7177 743e 5c4b 6d3d bed6 80be 354b 933e
00000100: 10cc 033e 0854 3d3e 1bfb abbe 6b4e 013e
00000110: 0018 00be 9f7c db3d 493e fa3d de47 1d3e
00000120: df20 a03e 7aa2 223d cfe3 773a 4dfb 7ebc
00000130: 4387 31be 0409 f9bc ce03 333e 6616 6a3e
00000140: c799 d93e 236b 5b3b 2f2c d33d 5231 0e3e
00000150: 9273 96be eb4c 75be 5bb9 f13d 7685 0c3f
00000160: fac0 3abd 2c48 f7bd 4a34 db3d a82e ccbc
00000170: c754 dbbc be49 2abe 36cd fcbd 7191 8f3e
00000180: 0e8a 4c3d 9e03 6e3e ec84 6f3d 1636 9e3e
00000190: 5985 aabd 2fce e73d 80da 873e f99c 0bbe
000001a0: cdcc 513e 0e56 783e 81c4 3ebe 404c dfbd
000001b0: 5024 13bd 63de 52be df8d bc3d fe21 dabd
000001c0: c5bc 50be 2cff 52be 2d9f 183f dc08 c53b
000001d0: 8d54 9cbe b766 8cbc c7ae 2b3e 9964 913e
000001e0: 21c7 d5be cd40 b6bc 5169 813b f38e 303d
000001f0: 7365 1ebe 4466 0dbf ecb8 5c3e fdc9 cb3c
00000200: 227d 993e 4e86 80be f3f4 293e b434 15be
00000210: 1a4c 99bb f67b 04bc bc0e 663e 99b6 773d
00000220: a276 13be 7411 69be 15b0 873d 9e8e 42be
00000230: f222 493e 27cd e73e 6725 6e3e df35 0b3e
00000240: 2da2 943e e315 a83d 59a0 c3be df81 3d3e
00000250: 19bf 853b 8ee7 43bb f491 b93d 61f6 1a3e
00000260: 2db6 583e 733a 89be 46b2 81bd 00eb 82be
00000270: d212 9b3d 4a8a c6bc 660f 49be 10da 813e
00000280: 2541 713e 9e7d c4bd af34 94bc 4e74 af3d
00000290: 7200 a4be 4622 0b3e 3f5d 81be 6e56 9fbc
000002a0: c3ce 84be e4d2 f4bd 1fa3 193e 924d 963d
000002b0: 1a9b db3d 468f 963c 84d6 32bc 48f7 c13e
000002c0: 26c4 193f 73d2 083f 70bc 0d3e bc1d 55be
000002d0: 467a f93d 5ccb 023c 96ab ad3e 9640 043e
000002e0: 64ab fc3e aefb 903e bafe 383e 2db7 953e
000002f0: 9daf e53e 5ceb f53d 28e2 af3d 4f83 7cbe
00000300: 55c7 8cbd 1e64 573e 2a09 11be 822e 093d
00000310: f865 113f 8c42 093b 1223 48be 356c 523d
00000320: a10d ab3c 3d92 693e e346 a4be 34e7 243f
00000330: 2d14 d5be 129d 9dbe 69d7 88be 32a8 38be
00000340: 2e24 103f 903f 08bf 77ff 9a3d 546d 0bbe
00000350: f316 1abf ef6d 2dbe 19d3 b2be e212 4f3d
00000360: 983e 3fbf 6132 bc3b fc85 b13d c72c 7fbe
00000370: 3ed2 d2be 7752 d93d 6759 aa3e 7411 103d
00000380: a8fe d73b f380 d83d 35aa 71bc dacc 383b
00000390: 94ad abbe 04c8 a43e ccf0 b83d 408d c63e
000003a0: ebbe 80bd 0d5b 7dbd a49b 9b3e 10f8 28be
000003b0: 5bf5 1c3d 5a33 0b3d a592 3a3e 6c34 813c
000003c0: a79b c8be 5434 e93d 48bb 393e 31e4 23be
000003d0: 81ac 6ebe 94e9 c13e 3be9 f43c 11b2 e0bd
000003e0: dd6f d63d 9ed1 513e ec55 33be dddd 943e
000003f0: 6322 7c3e 3fc2 08be 3f28 b63d 378a f83d

bias f4 [20]
0.20199691 0.08335807 0.043268014 -0.03521889 -0.115772605 0.080877356 0.1342493 0.11518041
-0.112734206 0.16343823 0.12300681 0.22545296 -0.044280022 0.41209581 -0.1846278 -0.17406411
0.046178393 -0.06442183 -0.41415995 0.048908725
00000000: 47d8 4e3e a3b7 aa3d cd39 313d af41 10bd
00000010: 301a edbd 07a3 a53d a678 093e b5e3 eb3d
00000020: 31e1 e6bd 5a5c 273e ffea fb3d 24dd 663e
00000030: f85e 35bd 39fe d23e 120f 3dbe dd3d 32be
00000040: 8e25 3d3d 98ef 83bd c60c d4be 8454 483d

weight f4 [20, 20]
0.30006835 -0.3177531 0.11773938 0.21129157 -0.23964663 -0.049420964 0.20625569 0.39085588
-0.63627356 0.15737551 0.2639335 0.2891672 0.11359848 0.23332548 0.23176557 -0.15054843
0.44866744 -0.1690211 0.017456222 -0.2686158 0.2687869 -0.053888947 0.14073738 0.022196338
-0.0045866817 0.37282625 0.17766026 -0.23908964 -0.08473892 0.16649109 -0.32345244 0.35025114
-0.05019353 0.015553937 -0.08783235 0.5025332 0.077302404 0.43647984 0.29041287 0.037510235
-0.25605947 -0.04296452 0.034585636 -0.2629705 0.14311726 0.07200718 0.29759103 0.0059947143
0.16819341 0.26957157 -0.310973 -0.23097709 -0.09705279 0.13471554 0.031443544 0.39257267
0.23024276 0.104944736 -0.16827464 0.11596293 0.32873216 -0.07500098 -0.14551611 -0.04617206
-0.35830873 -0.11266568 -0.5313494 -0.41401133 -0.15430872 -0.30651438 -0.01738029 0.010548336
-0.12952514 0.12631686 -0.15665737 0.39458567 0.059612118 -0.084673375 -0.06060924 0.46641824
0.2508829 -0.10543334 0.0490583 -0.00015754142 0.26299676 -0.29709095 -0.19997334 -0.17540435
0.30143824 -0.037665706 -0.5247847 -0.24653469 0.09680198 -0.5503437 0.6148234 0.24565588
-0.20935903 -0.07610905 0.3839818 0.2247988 -0.14833942 -0.07666007 0.042003836 -0.21043271
-0.29028144 -0.058264684 0.08371092 -0.4166295 0.11594843 -0.013305794 -0.29646996 -0.029771026
0.45555383 0.1744892 0.40888932 0.008227508 0.027476473 0.23492296 0.15883067 -0.47080806
0.2874471 -0.1292237 0.12357074 0.26436716 -0.04019554 0.09596354 -0.1899961 0.2939552
-0.04587976 0.094287746 0.22022423 0.06610738 -0.27024388 0.33995035 -0.24532002 0.4209587
0.31285778 -0.5915273 -0.3447461 0.18474056 -0.18695655 0.24138337 -0.12243013 0.19653298
0.039563682 -0.11633161 -0.20500974 0.26977468 0.38932356 0.116009556 0.13940957 -0.13612182
-0.06387501 -0.13337997 0.1448867 0.07659179 -0.22896183 0.3109695 0.08836144 -0.00910661
-0.1480659 -0.07896979 -0.2895133 0.4388562 0.2808857 0.09670113 -0.031494644 0.007795117
0.265915 0.13001344 -0.14886217 0.2884251 -0.26101863 -0.37406674 0.331902 -0.14963718
-0.030592795 -0.1388367 0.351186 -0.26271844 0.56811744 -0.18229611 -0.19024661 0.00029528307
-0.3121216 0.28775203 -0.23997046 0.11413578 -0.057103325 -0.02816911 0.123891465 0.091228634
-0.15051413 0.02326734 -0.20230477 0.33360714 -0.023885766 0.08375707 0.106360905 -0.22146885
0.23817201 -0.013801688 0.10745149 0.017963206 0.02717065 0.12980117 0.12923412 -0.07771903
-0.14871441 0.15335454 -0.073660724 0.15930624 -0.01064083 0.27510598 -0.40701988 0.27146605
0.09139493 -0.31926078 -0.19747792 -0.24233027 -0.004783776 0.13665682 -0.110691465 -0.20218684
0.21967028 -0.24850398 0.011630753 -0.08248735 -0.3136525 0.13689736 -0.25857976 -0.0766603
0.33563933 0.28696558 0.056503907 0.35277075 0.0021668312 0.7173946 -0.08947824 0.03835655
-0.37388 0.2529207 -0.41130564 -0.021161595 0.27912107 -0.43042046 -0.0029543634 0.29639417
0.022702836 0.11122871 0.3628052 -0.08648515 -0.29263562 -0.5022479 0.18222363 -1.0324501
00000000: 8fa2 993e 89b0 a2be 5821 f13d d15c 583e
00000010: ed65 75be a36d 4abd b134 533e 431e c83e
00000020: d3e2 22bf 0c27 213e 4b22 873e b90d 943e
00000030: 52a6 e83d e0ec 6e3e f453 6d3e 5e29 1abe
00000040: bdb7 e53e de13 2dbe 5a00 8f3c 0388 89be
00000050: 709e 893e a8ba 5cbd 761d 103e 18d5 b53c
00000060: e04b 96bb 15e3 be3e 92ec 353e ead3 74be
00000070: 998b adbd a47c 2a3e 8f9b a5be 1e54 b33e
00000080: bb97 4dbd f1d5 7e3c 72e1 b3bd 04a6 003f
00000090: b950 9e3d 497a df3e ffb0 943e 55a4 193d
000000a0: 3a1a 83be 91fb 2fbd aba9 0d3d 12a4 86be
000000b0: 558d 123e 8078 933d da5d 983e 4f6f c43b
000000c0: e53a 2c3e 4905 8a3e da37 9fbe 4285 6cbe
000000d0: 9dc3 c6bd dff2 093e f2ca 003d 49ff c83e
000000e0: c2c4 6b3e 44ed d63d 3050 2cbe f97d ed3d
000000f0: 954f a83e 1d9a 99bd 2d02 15be ea1e 3dbd
00000100: 3e74 b7be 44bd e6bd 8406 08bf 4bf9 d3be
00000110: 1b03 1ebe 74ef 9cbe 1c61 8ebc eed2 2c3c
00000120: 3da2 04be 3559 013e ca6a 20be 2207 ca3e
00000130: d62b 743d 3c69 adbd 6541 78bd 5fce ee3e
00000140: b973 803e 6fed d7bd 5bf1 483d b431 25b9
00000150: 83a7 863e 4e1c 98be d0c5 4cbe 339d 33be
00000160: 1d56 9a3e 5b47 1abd 4a58 06bf 9773 7cbe
00000170: 1e40 c63d 53e3 0cbf 1165 1d3f 378d 7b3e
00000180: 3762 56be 10df 9bbd 4399 c43e a831 663e
00000190: 4ae6 17be f4ff 9cbd 370c 2c3d ac7b 57be
000001a0: c59f 94be f3a6 6ebd a170 ab3d 7650 d5be
000001b0: 5f76 ed3d 8c00 5abc e9ca 97be 5ee2 f3bc
000001c0: 5a3e e93e 4cad 323e f159 d13e abcc 063c
000001d0: 5716 e13c a58f 703e 82a4 223e c10d f1be
000001e0: 442c 933e 3853 04be a812 fd3d 225b 873e
000001f0: 14a4 24bd 8888 c43d 568e 42be 4c81 963e
00000200: 6aec 3bbd ef19 c13d 7682 613e 4e63 873d
00000210: 685d 8abe f90d ae3e 2c35 7bbe e687 d73e
00000220: e52e a03e 556e 17bf 9082 b0be a12c 3d3e
00000230: 8a71 3fbe 342d 773e a6bc fabd f13f 493e
00000240: 870d 223d 443f eebd 13ee 51be e81f 8a3e
00000250: 6b55 c73e 6b96 ed3d 62c1 0e3e 8563 0bbe
00000260: e7d0 82bd c294 08be 2e5d 143e 28dc 9c3d
00000270: f874 6abe 6537 9f3e d8f6 b43d e433 15bc
00000280: 969e 17be eaba a1bd 163b 94be c3b1 e03e
00000290: 40d0 8f3e 3e0b c63d 8700 01bd 2e6e ff3b
000002a0: 0326 883e 3e22 053e 536f 18be 74ac 933e
000002b0: 3ca4 85be ad85 bfbe 0fef a93e 7d3a 19be
000002c0: be9d fabc 352b 0ebe a7ce b33e 0883 86be
000002d0: 2570 113f d5ab 3abe 02d0 42be 39d0 9a39
000002e0: 67ce 9fbe 3c54 933e d1ba 75be 05c0 e93d
000002f0: 2de5 69bd e8c2 e6bc cfba fd3d 14d6 ba3d
00000300: 6020 1abe 269b be3c fb28 4fbe 8ece aa3e
00000310: 15ac c3bc d488 ab3d bfd3 d93d bbc8 62be
00000320: 5de3 733e 7a20 62bc 870f dc3d 9327 933c
00000330: fc94 de3c 99ea 043e f355 043e 282b 9fbd
00000340: 9748 18be f908 1d3e 6fdb 96bd 2d21 233e
00000350: e056 2ebc b1da 8c3e e964 d0be 99fd 8a3e
00000360: 442d bb3d 2676 a3be a737 4abe 6d25 78be
00000370: 39c1 9cbb c4ef 0b3e 35b2 e2bd 110a 4fbe
00000380: 3ff1 603e d477 7ebe ea8e 3e3c 21ef a8bd
00000390: 0f97 a0be d22e 0c3e 9164 84be 1300 9dbd
000003a0: ebd8 ab3e 27ed 923e a470 673d 5e9e b43e
000003b0: 6501 0e3b 2ca7 373f 5e40 b7bd c21b 1d3d
000003c0: 336d bfbe d27e 813e a796 d2be 155b adbc
000003d0: f5e8 8e3e 1260 dcbe fe9d 41bb fac0 973e
000003e0: 4cfb b93c e1cb e33d 9ac1 b93e 201f b1bd
000003f0: 56d4 95be 5293 00bf d598 3a3e 5327 84bf

bias f4 [20]
0.2564367 -0.007585055 0.17669174 -0.036040332 -0.19439642 -0.0054257438 0.2660841 -0.25740165
-0.13494645 0.18853399 0.10048321 -0.2009922 -0.15328243 0.11241912 -0.086355396 -0.07600845
0.046406623 0.006055997 0.073120214 -0.070654266
00000000: ac4b 833e 0e8c f8bb aeee 343e 079f 13bd
00000010: db0f 47be 70ca b1bb 2d3c 883e 26ca 83be
00000020: 672f 0abe 0e0f 413e 24ca cd3d e6d0 4dbe
00000030: 12f6 1cbe ff3b e63d 19db b0bd 51aa 9bbd
00000040: df14 3e3d 6371 c63b 0dc0 953d 2fb3 90bd

weight f4 [20, 20]
-0.000119819895 0.21274704 0.35115653 -0.16469207 0.6322507 0.052493423 0.29366487 -0.19508833
0.21072932 0.003613519 0.1430694 0.06633809 0.074514166 0.23415753 -0.15304275 0.033761013
0.14061259 0.44293982 0.3327267 -0.12343362 -0.073823124 0.12680458 -0.11522464 -0.0028738794
0.30390534 0.41708434 0.20526901 -0.015628848 -0.14964242 -0.031807248 -0.31156883 -0.15616398
-0.30266663 0.42397144 -0.41490403 -0.4173621 0.19571862 0.33251023 -0.19358099 0.09101333
-0.42031685 -0.34622452 0.1143872 -0.08258189 -0.27420092 0.3338274 -0.6749723 0.16707334
0.29623783 0.47547922 -0.20002612 -0.10946036 0.21119545 -0.11041011 0.02819802 -0.4294135
-0.50339234 0.4310794 0.029990574 0.2511985 -0.12601513 -0.07484701 -0.14071587 0.1482233
-0.073187485 -0.17965218 0.17187822 0.16328281 0.03567394 0.16423519 0.27487916 -0.55796915
0.050251774 0.29825506 -0.013757921 0.06498472 -0.16746442 0.57270086 0.033363156 -0.49545974
0.3322213 -0.3893416 -0.36466926 -0.069592714 0.056854904 0.070784695 -0.12759413 -0.036143713
0.06341825 -0.2689718 0.13427171 -0.05229355 0.18747665 0.2356716 -0.16769084 0.06511689
-0.15659358 -0.34324673 -0.5650504 0.021570658 0.10228142 -0.018478086 0.06153898 0.16800135
0.12031307 -0.07306898 -0.09221516 -0.03805842 0.17454529 0.12500876 -0.16148648 -0.35983294
-0.24744424 0.29322076 -0.2808973 0.0044294223 -0.09384622 -0.07531158 0.32874137 0.18305074
-0.16022612 0.30489677 0.023769617 -0.16669282 -0.33040118 0.36542773 -0.059402633 -0.06613661
-0.16544062 0.18619779 -0.23995966 -0.422998 0.34543017 -0.34787947 0.23356508 0.059742346
0.50386935 0.12508559 -0.05350644 -0.27049312 -0.29477 -0.13927443 -0.41153485 0.17249122
-0.7114202 0.33318123 0.33287922 0.21391997 -0.08078962 -0.13001166 0.41757578 -0.2761482
0.35280433 -0.3123597 -0.20857358 0.2371246 0.04118275 -0.20186335 -0.44085413 -0.13244909
0.27597514 -0.18934938 -0.3417038 -0.2960798 0.12773368 0.061865214 -0.22068892 -0.19044769
0.09982347 -0.0781978 0.08593611 -0.20126623 0.44478208 0.15835378 0.2324091 0.090351395
-0.1838819 -0.24967152 0.09127344 -0.01592556 0.3254651 0.100159064 0.049673043 -0.19699852
-0.11925645 -0.08630621 -0.16250962 0.16278079 -0.087098345 0.3176034 -0.21485469 -0.092653655
-0.40674016 0.19601905 0.42087787 -0.21302587 -0.11933791 -0.46975398 -0.11019178 0.05638483
0.098622516 0.3135719 0.16792919 0.2639643 -0.22451568 0.035623122 0.11763798 -0.096037075
0.24358134 0.10126914 -0.16571836 -0.15036756 0.09043765 0.4452655 0.017853359 -0.32334933
-0.090570636 -0.5312691 -0.123919286 -0.07817654 0.01281152 0.13929734 -0.02129518 -0.15149479
-0.1584644 0.17623098 0.026303343 -0.15063398 -0.2611491 -0.24724048 -0.14873096 -0.13169043
-0.16436453 -0.20514326 -0.061244246 0.20988756 0.13220422 0.23117821 -0.31232244 0.19452202
0.25322124 -0.16923164 -0.044412922 0.036866438 -0.25790137 -0.521111 0.1750364 -0.35291928
0.2351971 -0.005785187 -0.021849858 -0.26018307 0.029196452 -0.045643076 0.19572015 0.6364329
00000000: d147 fbb8 5cda 593e caca b33e 0aa5 28be
00000010: 2fdb 213f 5803 573d 3e5b 963e 3cc5 47be
00000020: 6dc9 573e cad0 6c3b c980 123e 44dc 873d
00000030: e29a 983d fec6 6f3e 3db7 1cbe fd48 0a3d
00000040: bffc 0f3e 02c9 e23e 275b aa3e c4ca fcbd
00000050: 9430 97bd 0fd9 013e e5fa ebbd b257 3cbb
00000060: 7b99 9b3e 148c d53e 0a32 523e 1208 80bc
00000070: dd3b 19be 5148 02bd f385 9fbe 73e9 1fbe
00000080: 1ff7 9abe c912 d93e 4d6e d4be 7cb0 d5be
00000090: 766a 483e c83e aa3e 183a 46be 3265 ba3d
000000a0: c533 d7be 5744 b1be d643 ea3d b220 a9bd
000000b0: 1064 8cbe 6deb aa3e fcca 2cbf 4615 2b3e
000000c0: 7cac 973e 0372 f33e a6d3 4cbe c12c e0bd
000000d0: 9f43 583e b21e e2bd 89ff e63c 16dc dbbe
000000e0: 52de 00bf 70b6 dc3e cbae f53c 179d 803e
000000f0: 1c0a 01be 6449 99bd d217 10be d9c7 173e
00000100: 52e3 95bd bef6 37be d800 303e 9c33 273e
00000110: d61e 123d 452d 283e f6bc 8c3e 11d7 0ebf
00000120: ced4 4d3d e3b4 983e e768 61bc b516 853d
00000130: cb7b 2bbe 869c 123f cea7 083d e6ac fdbe
00000140: e918 aa3e c857 c7be eeb5 babe a086 8ebd
00000150: b0e0 683d 91f7 903d 09a8 02be 6e0b 14bd
00000160: 6de1 813d acb6 89be 867e 093e c331 56bd
00000170: e1f9 3f3e e553 713e 26b7 2bbe 015c 853d
00000180: 115a 20be 09be afbe 25a7 10bf f3b4 b03c
00000190: ec78 d13d 5b5f 97bc 4c10 7c3d 8c08 2c3e
000001a0: b366 f63d 30a5 95bd 4ddb bcbd 25e3 1bbd
000001b0: 00bc 323e 4c02 003e b65c 25be 063c b8be
000001c0: 0662 7dbe 0821 963e c5d1 8fbe b024 913b
000001d0: 7232 c0bd f53c 9abd ca50 a83e a771 3b3e
000001e0: 5112 24be 6e1b 9c3e 80b8 c23c 86b1 2abe
000001f0: 582a a9be 5819 bb3e 2d50 73bd a272 87bd
00000200: 4469 29be a2aa 3e3e fcb7 75be 3293 d8be
00000210: 39dc b03e 421d b2be af2b 6f3e 64b4 743d
00000220: 95fd 003f 7016 003e 9229 5bbd 137e 8abe
00000230: 18ec 96be f59d 0ebe b2b4 d2be 8aa1 303e
00000240: a21f 36bf bb96 aa3e 256f aa3e d60d 5b3e
00000250: 0775 a5bd c721 05be 7ecc d53e 4c63 8dbe
00000260: c5a2 b43e 9ced 9fbe 5094 55be cbd0 723e
00000270: 3eaf 283d 44b5 4ebe a2b7 e1be bca0 07be
00000280: 9d4c 8d3e cee4 41be cdf3 aebe c697 97be
00000290: 9ecc 023e 6166 7d3d 47fc 61be b804 43be
000002a0: 3f70 cc3d 2b26 a0bd 45ff af3d bc18 4ebe
000002b0: 7aba e33e 7e27 223e a7fc 6d3e 270a b93d
000002c0: 894b 3cbe e4a9 7fbe 92ed ba3d 5276 82bc
000002d0: 5da3 a63e 3220 cd3d f675 4b3d fbb9 49be
000002e0: ba3c f4bd 4fc1 b0bd ec68 26be 02b0 263e
000002f0: 9e60 b2bd ea9c a23e de02 5cbe 33c1 bdbd
00000300: 3f40 d0be 38b9 483e 4e7d d73e 7423 5abe
00000310: 6f67 f4bd 9883 f0be 3aac e1bd c8f3 663d
00000320: 9afa c93d 7f8c a03e a1f5 2b3e 5426 873e
00000330: 70e7 65be 8de9 113d 2eec f03d 16af c4bd
00000340: 636d 793e 3266 cf3d 13b2 29be f4f9 19be
00000350: 6037 b93d d7f9 e33e 3541 923c 0b8e a5be
00000360: 197d b9bd 4001 08bf 65c9 fdbd 061b a0bd
00000370: 69e7 513c f6a3 0e3e 3b73 aebc 7321 1bbe
00000380: 7e44 22be e575 343e 1c7a d73c cb3f 1abe
00000390: 56b5 85be 9c2c 7dbe ee4c 18be dbd9 06be
000003a0: 2d4f 28be 1311 52be 3fdb 7abd c4ec 563e
000003b0: 8b60 073e fbb9 6c3e bae8 9fbe c830 473e
000003c0: 37a6 813e 0f4b 2dbe 53ea 35bd 4301 173d
000003d0: a60b 84be 8867 05bf be3c 333e d6b1 b4be
000003e0: 82d7 703e aa91 bdbb 79fe b2bc b736 85be
000003f0: 662d ef3c 3cf4 3abd dd6a 483e 44ed 223f

bias f4 [20]
0.15868244 0.072972275 -0.13941686 0.06452067 0.06891344 0.09864503 0.005883522 0.029757526
-0.08155312 0.07108204 0.14794458 0.146191 -0.006360896 0.06049182 0.21735087 0.080267325
0.13090716 -0.24596106 0.4697721 -0.06709947
00000000: a67d 223e 7d72 953d 4bc3 0ebe 6a23 843d
00000010: 7d22 8d3d 6806 ca3d 8fca c03b 0ec6 f33c
00000020: 5205 a7bd 7693 913d c97e 173e 18b3 153e
00000030: 106f d0bb 45c6 773d 3a91 5e3e 3263 a43d
00000040: 870c 063e 37dd 7bbe f885 f03e 726b 89bd

weight f4 [20, 20]
0.1629252 0.05711952 0.090205014 -0.05099188 0.29283464 0.05185022 -0.046253692 0.005506932
0.47753245 0.05179518 -0.041974925 0.14201601 0.2172953 -0.24130975 0.20595688 -0.14646925
0.34943214 -0.16769932 -0.20537575 -0.15402527 0.033421412 -0.20771015 0.13885683 -0.12973405
-0.158256 -0.064422145 -0.04126375 -0.26899323 0.30309647 -0.1828122 -0.004949385 -0.19628069
-0.15750766 0.03724126 -0.32815143 -0.33939305 -0.08321662 0.35988238 0.18897055 -0.014357717
0.33754352 0.14562984 -0.21781565 0.12299786 -0.4291378 -0.18311365 -0.034045953 0.04271573
-0.054856077 0.014552926 -0.007408897 -0.062262975 0.030826302 0.4166773 0.00080101244 0.045782447
0.08521212 -0.3738125 -0.36038783 -0.025080258 -0.1347803 0.2855741 0.105563514 0.07100925
0.21577933 -0.26131135 -0.025286645 0.21050927 -0.029590955 -0.17430048 -0.14674003 -0.09971474
0.45674786 0.20404258 0.19704312 0.26078418 -0.05622213 0.33288497 0.1111155 0.2626429
-0.3533276 -0.12920041 0.64604163 0.10173551 0.03763264 -0.03940144 -0.052522305 -0.14297833
0.2845191 -0.19560808 -0.16787831 -0.12770274 -0.3465912 -0.08818418 -0.41702902 0.13886726
-0.21521868 0.10433014 -0.32227647 -0.01669441 -0.40705544 0.038023356 0.09879312 -0.070333175
0.30811393 0.051218573 -0.34320843 0.02738673 0.07934064 0.03464818 -0.16299908 -0.37814355
-0.12591851 0.20161568 0.024946317 0.53100824 -0.048914276 0.015253284 -0.11134646 -0.37681493
0.22924091 0.002615705 0.003986297 -0.009959505 -0.3989498 0.10016507 -0.07723184 0.1905042
0.08076504 0.15965074 -0.27590734 -0.031561904 0.032348394 0.060202476 0.15961015 -0.1036728
0.10894465 0.259988 -0.0071549616 0.23647642 -0.25722218 -0.01254133 0.34497762 0.032067418
0.1550937 -0.1438156 0.048142087 0.008709113 0.13290994 0.067836694 0.0043863254 -0.21811992
0.13518673 -0.15237293 -0.20761953 -0.16488221 -0.3305932 -0.049476117 -0.15423204 0.27444723
-0.24786164 -0.14699309 -0.016141467 0.22086903 -0.011818709 -0.30202487 -0.037134144 -0.32401925
-0.11421062 0.25326064 0.23073725 -0.19029455 -0.11881283 0.22581683 0.06084685 0.026594456
-0.10703146 -0.23322117 0.050915617 0.005348395 -0.024519382 0.11369613 0.37888953 -0.16939622
-0.16136344 -0.041411165 -0.2003033 0.21376221 0.007195822 -0.19121692 0.023955928 -0.09524292
-0.49981272 0.38257313 -0.19995771 -0.06824486 -0.15696715 0.13450524 -0.26435632 0.15595144
-0.07937353 -0.13925612 0.30098715 0.35570922 -0.05348697 0.33083564 -0.09988383 -0.21047324
0.12669496 -0.3345181 0.31913885 0.098091476 -0.34688252 -0.10483271 -0.3105565 0.14786243
0.2708905 -0.079159245 0.40176708 -0.38786918 -0.4138585 -0.011838176 -0.095561914 0.21558252
-0.3305286 0.024288835 -0.13036394 0.515649 -0.18719499 -0.19205414 -0.03423585 0.16863963
0.31192124 0.07906086 0.095342 -0.047562275 0.15982002 -0.14701241 0.026157983 -0.0635543
-0.27804646 -0.12882753 0.021088446 -0.13584428 -0.26871455 0.3002486 -0.13929275 -0.1156046
0.07785975 -0.07747438 0.05744802 -0.09721218 -0.22432637 0.27583674 -0.40477988 0.038467553
00000000: ddd5 263e 28f6 693d 68bd b83d dddc 50bd
00000010: 6cee 953e e560 543d 8374 3dbd 7e73 b43b
00000020: 227f f43e 2f27 543d e6ed 2bbd a56c 113e
00000030: a982 5e3e e719 77be 5ce6 523e 09fc 15be
00000040: c5e8 b23e 5fb9 2bbe 054e 52be cdb8 1dbe
00000050: e4e4 083d f8b1 54be 7c30 0e3e 01d9 04be
00000060: dc0d 22be c2ef 83bd 2e04 29bd 7bb9 89be
00000070: 762f 9b3e 1f33 3bbe 732e a2bb cefd 48be
00000080: b049 21be 4b8a 183d 7703 a8be edc4 adbe
00000090: 7a6d aabd 8142 b83e 7f81 413e a13c 6bbc
000000a0: 81d2 ac3e fd1f 153e 110b 5fbe 4de6 fb3d
000000b0: f3b7 dbbe 2582 3bbe c573 0bbd b0f6 2e3d
000000c0: c4b0 60bd 656f 6e3c 55c6 f2bb 7607 7fbd
000000d0: 7187 fc3c ba56 d53e 09fb 513a 6086 3b3d
000000e0: b183 ae3d 5a64 bfbe c184 b8be 1d75 cdbc
000000f0: d903 0abe c536 923e af31 d83d 4c6d 913d
00000100: 42f5 5c3e 9aca 85be f025 cfbc be8f 573e
00000110: bb68 f2bc d37b 32be 0543 16be 3e37 ccbd
00000120: dbda e93e 8af0 503e acc5 493e 8185 853e
00000130: 2d49 66bd e66f aa3e 8690 e33d 2179 863e
00000140: 5be7 b4be 1d4d 04be fc62 253f b55a d03d
00000150: af24 1a3d 6863 21bd a121 57bd e968 12be
00000160: 7dac 913e 7c4d 48be 4be8 2bbe 82c4 02be
00000170: 6774 b1be e899 b4bd d484 d5be 3833 0e3e
00000180: 4962 5cbe 0aab d53d 6c01 a5be b7c2 88bc
00000190: 9269 d0be 61be 1b3d 0c54 ca3d d70a 90bd
000001a0: 1cc1 9d3e 91ca 513d 04b9 afbe 235a e03c
000001b0: 587d a23d 40eb 0d3d 3be9 26be 089c c1be
000001c0: c8f0 00be 5774 4e3e 385c cc3c 28f0 073f
000001d0: 565a 48bd e9e8 793c 9d09 e4bd e3ed c0be
000001e0: 21be 6a3e 3f6c 2b3b 7c9f 823b 312d 23bc
000001f0: 2643 ccbe 5823 cd3d ba2b 9ebd 8813 433e
00000200: 2468 a53d 7c7b 233e ba43 8dbe 0e47 01bd
00000210: c07f 043d df96 763d d870 233e 6852 d4bd
00000220: 5f1e df3d 261d 853e 2b74 eabb e026 723e
00000230: a0b2 83be 277a 4dbc e8a0 b03e 2059 033d
00000240: e2d0 1e3e 6644 13be a330 453d abb0 0e3c
00000250: 8b19 083e f7ed 8a3d 2abb 8f3b d45a 5fbe
00000260: 646e 0a3e a607 1cbe 379a 54be e2d6 28be
00000270: 8343 a9be 78a7 4abd 01ef 1dbe 5984 8c3e
00000280: 71cf 7dbe 5b85 16be 1c3b 84bc 7e2b 623e
00000290: 42a3 41bc 01a3 9abe f919 18bd dae5 a5be
000002a0: 42e7 e9bd 61ab 813e 6346 6c3e 93dc 42be
000002b0: 2454 f3bd 873c 673e 8c3a 793d 9edc d93c
000002c0: 4f33 dbbd 88d1 6ebe e58c 503d 9741 af3b
000002d0: dfdc c8bc 84d9 e83d cffd c13e 3476 2dbe
000002e0: 753c 25be c19e 29bd 4f1c 4dbe 7be4 5a3e
000002f0: eeca eb3b 5ece 43be 393f c43c b80e c3bd
00000300: 74e7 ffbe a0e0 c33e b7c1 4cbe f6c3 8bbd
00000310: ffbb 20be bebb 093e b659 87be bcb1 1f3e
00000320: 978e a2bd 2899 0ebe fd1a 9a3e 851f b63e
00000330: 2715 5bbd 4a63 a93e e58f ccbd 4c86 57be
00000340: 53bc 013e f545 abbe 2b66 a33e 2fe4 c83d
00000350: 969a b1be 88b2 d6bd 4301 9fbe 4069 173e
00000360: 29b2 8a3e 3e1e a2bd 6ab4 cd3e ca96 c6be
00000370: 43e5 d3be e9f4 41bc f7b5 c3bd aac1 5c3e
00000380: 0b3b a9be 61f9 c63c 207e 05be 9301 043f
00000390: 0bb0 3fbe d7a9 44be e43a 0cbd deaf 2c3e
000003a0: 24b4 9f3e a9ea a13d ab42 c33d a9d0 42bd
000003b0: dca7 233e 6c8a 16be 4449 d63c c228 82bd
000003c0: 1b5c 8ebe 5deb 03be adc1 ac3c c31a 0bbe
000003d0: f494 89be 2fba 993e c2a2 0ebe 1bc2 ecbd
000003e0: ef74 9f3d e3aa 9ebd 9d4e 6b3d 2e17 c7bd
000003f0: d0b5 65be 793a 8d3e 4f3f cfbe 2790 1d3d

bias f4 [20]
0.053353805 -0.04308026 0.080378674 0.034134295 -0.34108248 0.059634224 -0.024512576 -0.2088389
0.116970114 -0.17167619 0.22850503 0.094342306 -0.20947693 0.09434855 -0.24813522 0.07094994
0.0679467 0.034672715 0.22372885 0.05467243
00000000: 8589 5a3d ed74 30bd 939d a43d 67d0 0b3d
00000010: 5da2 aebe 0443 743d 99ce c8bc ddd9 55be
00000020: 078e ef3d e2cb 2fbe 39fd 693e 8a36 c13d
00000030: 1f81 56be d039 c13d 2917 7ebe 344e 913d
00000040: a427 8b3d fa04 0e3d 2d19 653e 33f0 5f3d

weight f4 [20, 20]
0.2912994 0.04634271 -0.094251126 0.27178082 -0.11458986 0.11667454 0.09536257 0.04311415
-0.0883755 0.07815021 0.0664953 0.13665788 0.22025758 0.18987633 -0.22474408 0.14142218
0.19318397 0.26129463 -0.016300611 -0.4051477 0.16970001 0.20719679 -0.24556574 -0.20447932
0.15280217 0.2267129 -0.15360796 0.2417832 0.16777368 0.17147313 -0.06939562 -0.26838088
0.27612188 0.25737497 -0.13240053 -0.2809176 0.234273 -0.19953817 -0.25735095 0.11448315
-0.45478094 0.019168157 -0.11060327 -0.20114037 -0.37347686 -0.16080306 0.13278443 -0.3667184
-0.12287116 0.042601336 -0.23607326 -0.28119066 -0.17166959 -0.30634904 0.508409 0.3157127
0.09057381 -0.171655 0.26624155 0.2684096 -0.38298422 0.09645218 -0.17906302 -0.2563879
-0.11897808 -0.06449324 -0.15858002 -0.21589488 -0.14527175 0.30874917 0.06624373 0.13149473
0.09747582 0.098394975 0.46559194 0.25505668 -0.46065107 0.0074934354 0.1381519 -0.09965012
-0.108461924 -0.24096733 -0.09456775 -0.13487577 -0.44451752 -0.18750615 -0.24707697 -0.26953906
0.08670931 -0.326919 0.33155772 -0.02217478 -0.3038911 -0.043979824 -0.024292296 -0.21252735
-0.018060446 -0.002787274 0.024474466 -0.25114715 -0.114072524 -0.08074451 -0.5047128 0.16911927
-0.6641227 -0.3096695 -0.007318355 -0.27909657 0.28459626 -0.19675526 -0.08525376 0.30844477
-0.28734592 -0.25572178 0.0301382 0.27211228 0.2769141 -0.012809479 0.00076738006 0.53260744
-0.12111195 -0.049032252 -0.102042705 0.15258285 0.2367249 -0.0361919 0.12728828 -0.21972588
0.21287665 -0.043761395 0.18035732 -0.08035816 -0.18297382 -0.05473598 0.27976075 -0.54551226
-0.064793214 -0.22660942 0.039061222 -0.25694045 0.1562088 -0.03253544 -0.18380387 0.11972662
0.2581177 -0.015517828 -0.058292612 -0.14122243 0.12673597 -0.02734592 0.13120145 -0.117686726
0.097502954 -0.062063117 0.0048563057 -0.055363882 -0.12114838 0.17834629 -0.3229742 0.118442886
-0.1490747 -0.27563956 0.020942537 0.19567205 0.25215852 0.21548156 0.0004826055 0.37907305
0.58428085 0.10843775 -0.1368923 -0.17032078 0.047486514 -0.0255206 -0.08011177 0.17315856
0.25155392 -0.4044481 0.11693781 -0.12279475 -0.24257281 -0.31969422 -0.08448796 0.3534047
0.032371737 0.06046883 -0.01129008 -0.20710671 0.004975313 -0.13288686 0.027487835 -0.07502043
-0.28974152 -0.21767814 -0.13596636 -0.41168177 0.07609429 -0.41973934 -0.044784 0.15558265
0.29578736 0.24009265 0.26762894 0.0531458 -0.11589634 -0.045685865 0.3071399 -0.052171472
-0.11577815 0.26159704 -0.04807196 -0.2620651 -0.29793543 -0.008228946 -0.13456193 0.31655687
-0.028467037 -0.15066636 -0.028992182 -0.22073632 0.17113133 0.11337907 0.30165544 0.13364252
-0.4313861 0.12928852 0.00702709 -0.3497297 0.19248348 -0.37346575 0.27363926 0.26000145
0.12447486 -0.3480595 -0.30297175 0.3056415 0.26228523 -0.28578466 0.6756526 -0.053814903
0.1363486 -0.03909547 0.4040645 -0.10352749 -0.16614681 0.0834822 -0.21659458 -0.32660457
0.111145854 0.3863747 -0.1355736 -0.19405492 0.12541138 0.21383187 0.30386826 0.13643883
00000000: 3225 953e dad1 3d3d bc06 c1bd db26 8b3e
00000010: 17ae eabd 10f3 ee3d 734d c33d 7798 303d
00000020: 37fe b4bd 380d a03d b02e 883d 0bf0 0b3e
00000030: 348b 613e f16e 423e 5023 66be fad0 103e
00000040: 05d2 453e 69c8 853e dc88 85bc 856f cfbe
00000050: d7c5 2d3e 652b 543e 9675 7bbe 0763 51be
00000060: 2c78 1c3e 6d27 683e 684b 1dbe 0496 773e
00000070: ddcc 2b3e a796 2f3e 4a1f 8ebd 3869 89be
00000080: d95f 8d3e a7c6 833e 0194 07be 6fd4 8fbe
00000090: 43e5 6f3e bc53 4cbe 81c3 83be 2476 ea3d
000000a0: 0cd9 e8be 8a06 9d3c f883 e2bd bef7 4dbe
000000b0: 5c38 bfbe 8fa9 24be a4f8 073e 84c2 bbbe
000000c0: e0a3 fbbd bd7e 2e3d 30bd 71be 39f8 8fbe
000000d0: 27ca 2fbe c8d9 9cbe 1827 023f 18a5 a13e
000000e0: c37e b93d 54c6 2fbe d050 883e fc6c 893e
000000f0: 8216 c4be b888 c53d 4c5c 37be 4645 83be
00000100: c8aa f3bd 0815 84bd cd62 22be 8c13 5dbe
00000110: 1ec2 14be 5f14 9e3e cbaa 873d 8ea6 063e
00000120: 67a1 c73d 4e83 c93d 1162 ee3e ca96 823e
00000130: 75da ebbe 7e8b f53b b177 0d3e 5d15 ccbd
00000140: 4921 debd 24c0 76be bdac c1bd e01c 0abe
00000150: cd97 e3be 9d01 40be bf01 7dbe 0601 8abe
00000160: a794 b13d ed61 a7be efc1 a93e e2a7 b5bc
00000170: 9d97 9bbe 3024 34bd a300 c7bc c5a0 59be
00000180: 80f3 93bc b3aa 36bb ad7e c83c 5c96 80be
00000190: db9e e9bd 615d a5bd dc34 01bf 9a2d 2d3e
000001a0: f203 2abf 008d 9ebe d0ce efbb bfe5 8ebe
000001b0: 9ab6 913e 367a 49be 8699 aebd 79ec 9d3e
000001c0: 011f 93be f7ed 82be 63e4 f63c 4d52 8b3e
000001d0: afc7 8d3e d9de 51bc 012a 493a f658 083f
000001e0: 8b09 f8bd 0bd6 48bd c4fb d0bd ae3e 1c3e
000001f0: 0368 723e f53d 14bd dc57 023e d2ff 60be
00000200: 56fc 593e 263f 33bd 97af 383e d292 a4bd
00000210: 7d5d 3bbe d632 60bd cd3c 8f3e b1a6 0bbf
00000220: 4eb2 84bd 4d0c 68be a9fe 1f3d b38d 83be
00000230: 33f5 1f3e e243 05bd 1537 3cbe 3b33 f53d
00000240: 0128 843e 7d3e 7ebc 3cc4 6ebd 9d9c 10be
00000250: 13c7 013e 8d04 e0bc ac59 063e bd05 f1bd
00000260: a1af c73d e535 7ebd a521 9f3b 3dc5 62bd
00000270: a41c f8bd 69a0 363e e05c a5be 2f92 f23d
00000280: 0aa7 18be a120 8dbe af8f ab3c 415e 483e
00000290: ec1a 813e 33a7 5c3e 3706 fd39 dd15 c23e
000002a0: 6e93 153f 9c14 de3d 7f2d 0cbe 9268 2ebe
000002b0: 3881 423d 9410 d1bc a411 a4bd 7a50 313e
000002c0: adcb 803e d213 cfbe 177d ef3d d07b fbbd
000002d0: 0265 78be f6ae a3be 0608 adbd 76f1 b43e
000002e0: 3a98 043d 2aae 773d 07fa 38bc c813 54be
000002f0: f307 a33b 7e13 08be 2b2e e13c 50a4 99bd
00000300: 0059 94be 05e7 5ebe c43a 0bbe f4c7 d2be
00000310: 53d7 9b3d 13e8 d6be 6d6f 37bd 0f51 1f3e
00000320: 7171 973e d9da 753e a906 893e 69af 593d
00000330: 0f5b edbd 1a21 3bbd 7141 9d3e c1b1 55bd
00000340: 181d edbd 0cf0 853e 1be7 44bd 662d 86be
00000350: fe8a 98be b3d2 06bc 9aca 09be be13 a23e
00000360: b433 e9bc 4848 1abe 0381 edbc b408 62be
00000370: 0d3d 2f3e 4933 e83d 9572 9a3e 96d9 083e
00000380: a4de dcbe 3664 043e 8143 e63b c50f b3be
00000390: 641a 453e e736 bfbe 721a 8c3e e91e 853e
000003a0: adec fe3d db34 b2be 1d1f 9bbe 0b7d 9c3e
000003b0: 404a 863e 5e52 92be 92f7 2c3f 046d 5cbd
000003c0: f89e 0b3e 9222 20bd 8be1 ce3e 3806 d4bd
000003d0: 6422 2abe b7f8 aa3d f8ca 5dbe b738 a7be
000003e0: 70a0 e33d e8d2 c53e ced3 0abe 55b6 46be
000003f0: d76b 003e bef6 5a3e 9f94 9b3e 9fb6 0b3e

bias f4 [20]
-0.02790262 -0.13343512 0.10469121 -0.11459638 0.12695947 0.104558416 0.111746676 0.017351327
-0.0007664026 0.0178519 -0.0034888894 0.23545873 -0.089276865 -0.05677392 0.18722358 -0.19510867
-0.15464462 0.04137373 -0.010090582 0.033989497
00000000: 0994 e4bc 37a3 08be 5868 d63d 82b1 eabd
00000010: aa01 023e b922 d63d 71db e43d 5f24 8e3c
00000020: 68e8 48ba 263e 923c daa5 64bb 181c 713e
00000030: cad6 b6bd c58b 68bd 8ab7 3f3e 91ca 47be
00000040: 295b 1ebe 8077 293d f852 25bc 9238 0b3d

weight f4 [20, 20]
-0.12963174 0.13269576 -0.36436144 -0.11025475 -0.10398132 -0.16593865 0.2226017 -0.06902806
0.36164892 0.24471174 0.06718837 -0.08909221 0.053351663 -0.064142115 -0.21292533 0.21095182
-0.31581038 0.28648606 -0.20210923 -0.11955788 0.1725677 0.47529903 0.16138242 0.18572205
-0.28346604 0.15461858 -0.29580522 -0.24450824 0.2565731 0.08696582 0.1945596 -0.15324657
-0.21422115 -0.08134542 -0.010774785 0.228604 0.3874619 0.08727132 0.098098636 -0.0023408246
-0.2991304 -0.16588153 0.47090527 0.20958947 -0.016366007 -0.051022965 -0.09995395 0.1000297
0.16758214 0.04092338 0.11693283 0.08475864 -0.40106055 0.07459168 0.16924088 0.6692422
0.10924959 0.1327201 -0.336394 0.012656914 0.20401019 0.0696082 0.23767571 -0.3921628
-0.08054449 -0.111943565 -0.36664647 -0.08760685 -0.0195478 0.26996568 -0.14862978 0.26471782
-0.1253931 0.23325568 0.061248492 0.1656808 0.3076634 0.016527008 -0.09456821 -0.41576275
0.17272153 0.051315315 0.11246415 0.1620252 0.802693 -0.11922538 0.35471228 0.20004167
0.12766461 0.13210018 -0.25865602 0.05475983 -0.24860312 0.05438428 0.035952423 -0.59983903
-0.23737748 0.02627593 0.16583367 0.28429717 0.1414662 -0.17668606 -0.22070049 -0.26262504
-0.36532664 0.23226394 0.26968303 0.5913396 -0.2059256 -0.18919827 0.31361538 0.2214085
-0.5040573 0.31658217 -0.044302005 0.09804835 -0.12587976 -0.11341922 0.0061484743 0.26923656
-0.42860723 0.20879513 -0.18638463 -0.1861279 0.010353529 0.11463807 -0.14872387 -0.10407895
-0.04322968 -0.47251093 0.1113762 -0.19956604 0.00971239 -0.28642252 -0.20933634 -0.36411807
-0.27080372 -0.09705413 0.21373549 -0.07322944 0.39614666 -0.35006678 0.043322884 0.18208313
-0.24124034 0.11796626 0.012957686 -0.14551091 -0.18490937 -0.14089182 -0.01737978 -0.14949065
-0.07524647 0.21491504 0.06603202 0.21080098 0.12598917 0.11027566 -0.19122794 -0.18204023
-0.093403324 -0.028270062 -0.114439964 0.002142618 -0.057268653 -0.12106784 0.24295136 -0.019192446
0.07791501 0.21671294 -0.09197705 0.04164508 -0.038132563 0.192145 -0.03313416 -0.5521462
-0.20255189 0.03669117 -0.063947365 -0.27422187 0.24238141 0.35167712 -0.30582902 -0.3459857
0.09703624 0.1279094 0.22276956 0.3121078 -0.17540759 -0.20681971 -0.21220735 -0.041237652
0.20350744 -0.10652863 0.18904266 0.3011878 0.12537922 0.06795002 0.08147695 -0.14357959
0.08732042 -0.27945358 -0.18982406 -0.13584477 0.2532716 -0.3313258 -0.026929041 0.13521318
0.19117628 0.06325183 -0.17539448 -0.36754912 0.10188952 -0.2385626 0.17940244 -0.065358356
-0.0049255267 -0.26186866 0.44189864 0.11266895 0.05597364 -0.09025047 0.2760358 -0.1372868
0.16979635 -0.1516376 -0.09964008 -0.025478821 0.20636097 0.09303261 0.26051885 -0.0268154
0.046461083 -0.2079347 -0.09413706 -0.3579698 -0.20021658 -0.03669292 0.28844503 0.13634615
-0.22138959 -0.015208744 0.29336008 0.18425032 0.15794744 0.18346573 0.17801951 -0.006578003
-0.50645524 -0.53288424 0.01886058 -0.08593499 0.34514222 -0.27092326 0.030513383 0.1281558
00000000: 2fbe 04be 66e1 073e 958d babe 3ecd e1bd
00000010: 29f4 d4bd d2eb 29be b3f1 633e 955e 8dbd
00000020: 0c2a b93e b795 7a3e 0e9a 893d fa75 b6bd
00000030: 4687 5a3d f15c 83bd 1909 5abe c103 583e
00000040: e6b1 a1be 4dae 923e b9f5 4ebe c3da f4bd
00000050: 96b5 303e 655a f33e 6f41 253e ec2d 3e3e
00000060: 7622 91be 5554 1e3e c873 97be 5e60 7abe
00000070: 8d5d 833e 231b b23d a23a 473e abec 1cbe
00000080: ca5c 5bbe 6d98 a6bd b988 30bc 2b17 6a3e
00000090: 6861 c63e 4ebb b23d f0e7 c83d 8568 19bb
000000a0: 9f27 99be d9dc 29be 7f1a f13e 9f9e 563e
000000b0: 0112 86bc 75fd 50bd a8b4 ccbd 5fdc cc3d
000000c0: a79a 2b3e 469f 273d 7b7a ef3d f095 ad3d
000000d0: cf57 cdbe 86c3 983d 7b4d 2d3e 7553 2b3f
000000e0: 40be df3d c7e7 073e d63b acbe f25e 4f3c
000000f0: 0ce8 503e be8e 8e3d 4361 733e 90c9 c8be
00000100: 82f4 a4bd ab42 e5bd 16b9 bbbe 386b b3bd
00000110: b522 a0bc f138 8a3e 6832 18be 1889 873e
00000120: 0c67 00be 94da 6e3e b3df 7a3d 3aa8 293e
00000130: 0f86 9d3e a663 873c faac c1bd dbde d4be
00000140: eadd 303e 0230 523d 9b53 e63d efe9 253e
00000150: 4a7d 4d3f 702c f4bd d99c b53e b9d7 4c3e
00000160: 83ba 023e 4545 073e 906e 84be d84b 603d
00000170: d191 7ebe 0dc2 5e3d d942 133d 0d8f 19bf
00000180: 1513 73be 9f40 d73c 4dd0 293e 668f 913e
00000190: 84dc 103e 31ed 34be 4fff 61be ca76 86be
000001a0: 180c bbbe 99d6 6d3e e513 8a3e 0862 173f
000001b0: 29de 52be 31bd 41be 3292 a03e e9b8 623e
000001c0: e609 01bf 0f17 a23e 0576 35bd 93cd c83d
000001d0: a0e6 00be 5648 e8bd 2479 c93b 60d9 893e
000001e0: 6872 dbbe 64ce 553e 9ddb 3ebe 5098 3ebe
000001f0: d9a1 293c 5dc7 ea3d 124b 18be 5827 d5bd
00000200: 9b11 31bd f4ec f1be 3519 e43d 0a5b 4cbe
00000210: b720 1f3c f9a5 92be 445c 56be af6d babe
00000220: c9a6 8abe 51c4 c6bd 7add 5a3e 51f9 95bd
00000230: bcd3 ca3e f43b b3be 5673 313d 0074 3a3e
00000240: b507 77be 4b98 f13d 794c 543c d000 15be
00000250: e258 3dbe f245 10be 0a60 8ebc 1414 19be
00000260: d21a 9abd b012 5c3e cc3b 873d 36dc 573e
00000270: 4e03 013e 35d8 e13d 42d1 43be c168 3abe
00000280: 3e4a bfbd 9e96 e7bc 805f eabd 2a6b 0c3b
00000290: 8992 6abd 6af2 f7bd 3ec8 783e 7a39 9dbc
000002a0: e891 9f3d ffe9 5d3e 775e bcbd 0894 2a3d
000002b0: e430 1cbd a9c1 443e afb7 07bd 7459 0dbf
000002c0: c369 4fbe 7b49 163d d6f6 82bd cf66 8cbe
000002d0: d532 783e 060f b43e 9f95 9cbe 0a25 b1be
000002e0: f0ba c63d affa 023e b41d 643e 98cc 9f3e
000002f0: 0c9e 33be 8cc8 53be e24c 59be d0e8 28bd
00000300: 4164 503e af2b dabd 6694 413e 4a35 9a3e
00000310: 6963 003e 6129 8b3d 63dd a63d 8706 13be
00000320: 0cd5 b23d 8a14 8fbe 3d61 42be e41a 0bbe
00000330: d1ac 813e 89a3 a9be 4b9a dcbc 5375 0a3e
00000340: b7c3 433e 2d8a 813d 9c9a 33be 662f bcbe
00000350: 74ab d03d c149 74be 46b5 373e 9ada 85bd
00000360: 5066 a1bb a613 86be 8a40 e23e fabe e63d
00000370: 9e44 653d 3dd5 b8bd 9054 8d3e e994 0cbe
00000380: 18df 2d3e e346 1bbe 1910 ccbd f6b8 d0bc
00000390: 4a50 533e e287 be3d ba62 853e f8ab dbbc
000003a0: fa4d 3e3d d6ec 54be eeca c0bd d147 b7be
000003b0: 9305 4dbe 514b 16bd 11af 933e 539e 0b3e
000003c0: f4b3 62be 192e 79bc 4b33 963e 1eac 3c3e
000003d0: f9bc 213e 71de 3b3e bf4a 363e 4a8c d7bb
000003e0: 0da7 01bf 1a6b 08bf 8181 9a3c affe afbd
000003f0: 7bb6 b03e 74b6 8abe 34f7 f93c 463b 033e

bias f4 [20]
-0.09630464 -0.077829696 -0.0591703 -0.03207218 0.0642239 0.049688846 0.03038196 -0.05391435
0.0993613 -0.030667892 0.026363688 0.05976141 -0.06610188 -0.02487765 -0.10011958 -0.06970307
-0.1508665 0.054733034 -0.055257317 -0.018750425
00000000: 5e3b c5bd 2d65 9fbd 8e5c 72bd 1e5e 03bd
00000010: d287 833d 8886 4b3d 97e3 f83c 4bd5 5cbd
00000020: f07d cb3d 3b3b fbbc a9f8 d73c 61c8 743d
00000030: 6c60 87bd 37cc cbbc 7f0b cdbd 7cc0 8ebd
00000040: bf7c 1abe bf2f 603d 7f55 62bd 7e9a 99bc

weight f4 [20, 20]
0.116176315 -0.037617248 -0.017632758 -0.092924275 -0.04228976 -0.3376987 -0.15513846 0.42936623
-0.2988643 0.27316537 -0.09667276 -0.29328427 0.19069146 -0.027500639 0.1810698 0.06031389
-0.34377018 0.15891506 0.06484397 -0.022185039 0.1126434 0.22559728 0.30402637 0.0955836
-0.017217629 -0.07352768 -0.0038110968 0.14047448 0.11481372 0.17036434 -0.3633714 0.06618677
0.56747013 -0.2079361 -0.121127225 -0.5841779 -0.117943734 0.36689436 -0.15284885 0.10273686
-0.014267301 0.13411824 0.48224306 0.08126352 0.013392944 0.44561213 -0.28050455 -0.12277596
0.02519418 -0.40649858 -0.036916263 0.051061515 0.15098014 -0.12336565 0.045723867 -0.3887843
-0.22768755 -0.10824733 -0.2270256 -0.09908862 0.096634276 -0.16380495 -0.035794314 -0.15952644
-0.017381968 0.04479401 0.12124376 -0.18253043 0.3690074 -0.23682019 0.15828803 0.31428212
-0.3180541 0.20533651 -0.34219307 -0.20388284 -0.028552763 0.24515516 -0.022743264 -0.08878563
0.17535664 -0.19259234 -0.058976933 -0.026771855 0.18706982 0.26186013 0.4224842 0.3029158
-0.026741918 -0.38391092 -0.017909145 0.084243596 0.23262982 0.12429343 -0.40314907 0.094526276
-0.21181543 -0.07917197 0.42964658 0.32314506 -0.16487788 0.22590254 0.11862526 0.069630556
-0.19340335 -0.17670928 -0.16355418 0.2067778 -0.2812691 -0.16538067 0.012231467 0.05234648
0.32921138 -0.38559806 0.15318748 0.06760405 0.12107444 0.49221033 -0.18583007 0.03849172
0.43767384 -0.06843362 -0.24819864 0.25874728 0.2361036 0.3836889 0.10314945 0.0198469
-0.036697615 -0.0982164 0.14603467 0.28772217 -0.29981467 0.11748394 -0.116978765 0.12609203
-0.11531703 0.20040412 0.05502065 0.108291395 -0.43950713 -0.1616469 0.117502 0.38425612
-0.31663933 0.061042063 0.22583966 0.20687251 -0.13181147 0.030322516 0.09265218 -0.6558505
-0.31694484 0.023793405 0.14481358 -0.14247848 -0.029770687 0.047055267 0.42848754 -0.34693798
-0.15278435 0.34022763 0.3406524 0.31005496 -0.04395161 0.06855665 0.31079492 -0.14529303
-0.17351356 -0.319739 -0.2598191 0.24539995 0.36316508 -0.35001323 -0.07757452 0.20911632
0.10871433 -0.10961314 -0.058173712 0.00887609 -0.36165187 0.25455862 -0.04566625 -0.3531371
0.15257335 -0.31187508 0.19256254 0.092962675 0.085591055 0.16406065 -0.1857712 0.39406106
-0.0479363 -0.059727464 0.078743726 -0.21810494 0.2164832 -0.2325001 -0.32961056 -0.029317806
0.03666507 0.21526892 0.20649108 -0.18827349 -0.47774053 -0.58674115 0.29765522 0.06749619
0.093745984 0.33784118 -0.025681162 -0.118977934 0.17823553 0.0206976 0.3549293 -0.35955036
0.12271807 -0.35570583 0.2788587 0.16228104 0.16664433 0.05235815 0.417816 0.018259386
0.03932085 0.44271278 -0.38108325 -0.3975759 0.16079703 -0.1927629 0.23629041 0.23797384
0.59214175 0.24848786 0.40945333 -0.104309306 -0.53929216 0.24349326 -0.19783741 -0.09628284
0.42564255 0.23908307 -0.14058761 -0.122882396 0.040505413 0.08429597 0.20077085 -0.21007802
0.2593653 0.21597135 0.07114737 0.39471093 0.24130094 -0.011809689 -0.24507971 0.54660356
00000000: d9ed ed3d 8b14 1abd 9372 90bc 154f bebd
00000010: 0738 2dbd d8e6 acbe 9edc 1ebe e4d5 db3e
00000020: be04 99be 55dc 8b3e 5efc c5bd 5b29 96be
00000030: 9f44 433e 0549 e1bc 5d6a 393e b30b 773d
00000040: a502 b0be a1ba 223e eacc 843d 66bd b5bc
00000050: 95b1 e63d f902 673e 58a9 9b3e 56c1 c33d
00000060: fc0b 8dbc ae95 96bd 98c3 79bb 8bd8 0f3e
00000070: 7523 eb3d fd73 2e3e d10b babe ee8c 873d
00000080: b945 113f 33ed 54be 8d11 f8bd af8c 15bf
00000090: 7c8c f1bd 94d9 bb3e 6984 1cbe b467 d23d
000000a0: 66c1 69bc 4b56 093e 90e8 f63e 7d6d a63d
000000b0: 146e 5b3c 4627 e43e 4b9e 8fbe f671 fbbd
000000c0: 0664 ce3c 9520 d0be 8235 17bd e125 513d
000000d0: 8a9a 1a3e 21a7 fcbd f348 3b3d bc0e c7be
000000e0: ed26 69be c7b0 ddbd 6679 68be f9ee cabd
000000f0: 31e8 c53d 7cbc 27be 0f9d 12bd e65a 23be
00000100: a164 8ebc ed79 373d a64e f83d 42e9 3abe
00000110: 8aee bc3e fe80 72be 4216 223e 96e9 a03e
00000120: fdd7 a2be bc43 523e ee33 afbe aac6 50be
00000130: 7ce7 e9bc f409 7b3e 1550 babc 3ed5 b5bd
00000140: b190 333e ed36 45be cc91 71bd a650 dbbc
00000150: 3b8f 3f3e 8812 863e d94f d83e c817 9b3e
00000160: de11 dbbc f98f c4be 33b6 92bc e887 ac3d
00000170: 8336 6e3e 8e8d fe3d 8e69 cebe fe96 c13d
00000180: 25e6 58be ea24 a2bd a3fa db3e 4573 a53e
00000190: bfd5 28be ff52 673e cdf1 f23d 779a 8e3d
000001a0: 870b 46be 47f3 34be bf7a 27be 8fbd 533e
000001b0: 8102 90be 8d59 29be 7e66 483c 4369 563d
000001c0: 658e a83e 1c6d c5be 2edd 1c3e fe73 8a3d
000001d0: e0f5 f73d fe02 fc3e 3d4a 3ebe 7ea9 1d3d
000001e0: c916 e03e ed26 8cbd c927 7ebe 867a 843e
000001f0: 24c5 713e df72 c43e 0540 d33d f795 a23c
00000200: 3d50 16bd ae25 c9bd 1d8a 153e 5250 933e
00000210: 4f81 99be 6c9b f03d 9092 efbd 451e 013e
00000220: 562b ecbd bd36 4d3e 555d 613d e1c7 dd3d
00000230: 1407 e1be c486 25be e3a4 f03d 38bd c43e
00000240: 8d1e a2be 3e07 7a3d 8342 673e 63d6 533e
00000250: 96f9 06be ed66 f83c 6dc0 bd3d d2e5 27bf
00000260: 9846 a2be 63ea c23c 034a 143e e1e5 11be
00000270: a8e1 f3bc 06bd 403d b862 db3e dba1 b1be
00000280: 8073 1cbe 5132 ae3e fe69 ae3e 86bf 9e3e
00000290: 9a06 34bd 6e67 8c3d 8320 9f3e b2c7 14be
000002a0: 8aad 31be d5b4 a3be 0207 85be 204a 7b3e
000002b0: c6f0 b93e ef34 b3be 64df 9ebd 9722 563e
000002c0: 9ea5 de3d db7c e0bd 8f47 6ebd 056d 113c
000002d0: 6f2a b9be 8255 823e 890c 3bbd 63ce b4be
000002e0: 303c 1c3e 17ae 9fbe 1d2f 453e 3763 be3d
000002f0: 5d4a af3d 84ff 273e ce3a 3ebe 5fc2 c93e
00000300: db58 44bd c9a4 74bd 6444 a13d e756 5fbe
00000310: c6ad 5d3e 8214 6ebe b7c2 a8be e52b f0bc
00000320: 1d2e 163d 756f 5c3e 6672 533e c4ca 40be
00000330: 689a f4be ab34 16bf 4466 983e 713b 8a3d
00000340: e5fd bf3d 85f9 ac3e 4d61 d2bc b4aa f3bd
00000350: 6083 363e 038e a93c 4bb9 b53e fc16 b8be
00000360: 9d53 fb3d 131f b6be 91c6 8e3e 002d 263e
00000370: d0a4 2a3e 8075 563d fbeb d53e b594 953c
00000380: e60e 213d 40ab e23e 581d c3be 128f cbbe
00000390: faa7 243e a363 45be 1df6 713e 6aaf 733e
000003a0: 9a96 173f 9a73 7e3e dea3 d13e 1ea0 d5bd
000003b0: 0d0f 0abf 4c56 793e e495 4abe f02f c5bd
000003c0: d2ed d93e 31d2 743e 33f6 0fbe c4a9 fbbd
000003d0: 01e9 253d 5ea3 ac3d e096 4d3e b11e 57be
000003e0: 87cb 843e 9827 5d3e b6b5 913d 8d17 ca3e
000003f0: 9817 773e 6d7d 41bc 2df6 7abe 36ee 0b3f

bias f4 [20]
-0.06610006 0.036156703 -0.037413552 0.03361841 0.048718486 -0.030191487 -0.049998328 -0.030391254
-0.051256493 0.045283988 -0.044560913 -0.03432103 0.01443726 0.11781835 0.0041887397 0.0625031
0.015736917 -0.0052511026 0.043913655 -0.026791412
00000000: 785f 87bd 0d19 143d f43e 19bd 75b3 093d
00000010: 098d 473d 2354 f7bc 0ccb 4cbd 14f7 f8bc
00000020: 54f2 51bd b47b 393d 8185 36bd 3594 0cbd
00000030: 428a 6c3c bf4a f13d b241 893b a001 803d
00000040: b5ea 803c 7111 acbb cede 333d aa79 dbbc

weight f4 [1, 20]
-0.4069834 -0.77830034 -0.54085964 0.5678612 0.22583312 -0.51364535 0.90584856 -0.6721273
-0.36642125 0.16596134 -0.3961408 -0.40193602 0.30126542 -1.1917369 -0.8098737 0.3784412
0.64967805 0.95455754 0.3117477 -0.6617999
00000000: 2160 d0be b13e 47bf c775 0abf 5a5f 113f
00000010: cc40 673e 437e 03bf b1e5 673f 8910 2cbf
00000020: 919b bbbe c5f1 293e f8d2 cabe 8fca cdbe
00000030: 763f 9a3e d68a 98bf e253 4fbf 0cc3 c13e
00000040: 4d51 263f e25d 743f 659d 9f3e b86b 29bf

u_b f4 [2]
2.899847 39.96
00000000: 1897 3940 0ad7 1f42

l_b f4 [2]
0.03749462 0.0
00000000: f593 193d 0000 0000
