Iter_03/Models/Noise_5/simulation_00_03/ff_400.pt (torch, 43805 bytes, 23 tensors)

weight f4 [20, 2]
00000000: d53d 973e 7301 d83e 6592 45bd a2d6 403d
00000010: 7023 34be ae53 19bf 6590 35be f88d 0140
00000020: b64a 8b3d 0318 febe fe24 14be 0ee5 ffbe
00000030: cd48 55bd dbc4 d0be 4827 483f 73d1 45bf
00000040: 4fca de3e 641b 5a3f 438b 45be 4af9 74be
00000050: 4ef8 0cbe 12d8 c13e d862 a03d 239d a5be
00000060: a929 a63d 11a0 59bf 9b63 03be b730 873e
00000070: 4d4d a83e 0088 623d 8791 84b8 c8b9 933c
00000080: 79b0 513f e16f 83bf b6df 11bf e77e 1fbf
00000090: 60e3 5e3e 5924 afbe 278e 283e 0f06 ddbe
0.29539362 0.42188606 -0.048235316 0.04707969 -0.17591643 -0.5989331 -0.17730863 2.02429
0.06801359 -0.49627694 -0.14467236 -0.49979442 -0.05207138 -0.4077519 0.7818494 -0.7727272
0.43513724 0.85198045 -0.19291405 -0.23923221 -0.13766596 0.3786016 0.07831353 -0.32346448
0.08113415 -0.85009867 -0.12830965 0.26404354 0.32871476 0.05530548 -6.321357e-05 0.018032923
0.819099 -1.0268518 -0.5698198 -0.6230301 0.21766424 -0.3420742 0.16460477 -0.43168685

bias f4 [20]
00000000: 2e10 f0be a5ca 0c3c 1a24 873e 5858 353f
00000010: b131 debd 3fea 9c3e 683f 953e 98a0 453f
00000020: dbf5 8e3c c15c 9e3d aaa1 4e3c 73de 043e
00000030: 2455 0cbe 8529 56be 123c f6bc f22d ee3d
00000040: 4d5f 083f 7e9d 0abf d9dd a2bb 92d8 c4bc
-0.46887344 0.008593236 0.2639473 0.70837927 -0.10849322 0.30647466 0.29149938 0.7719817
0.017451217 0.07732535 0.012611786 0.12975483 -0.13704354 -0.20914276 -0.03005794 0.11629857
0.5327042 -0.54146564 -0.004970294 -0.02402905

weight f4 [20, 20]
00000000: f01b be3d 9a22 b33d 34d8 86be 6fc4 eb3d
00000010: 9e20 5e3d fea5 033e 380d 3d3e 548d 3d3b
00000020: 554c ca3e 66a8 863e c794 ab3e 0175 093e
00000030: 0c96 5a3e 259e 2cbd be3c 0c3f 09a7 f5bd
00000040: c397 e9be 8491 1ebf 76b6 f7bd 5685 bd3d
00000050: 230b 683e 10d0 c73d 26d7 1dbe f855 ef3e
00000060: b89f 71be ef97 b0be 3a5c ebbe e771 53be
00000070: faad 9c3e aba9 06be beb2 723a 39ac 713d
00000080: a4c0 5cbe 96ae afbd 7277 a2be b89b 953e
00000090: 338c 1c3e 67a1 44be a71a ce3c 96d1 c03c
000000a0: 4ba3 7f3e f025 153e 31a5 debd 2d3b 3abf
000000b0: ea69 2f3f db36 10bc bc89 b93c 297a 6f3e
000000c0: a83f aa3d f246 47be 72e6 7ebe 95a8 523e
000000d0: 0a71 49be 0feb 44bc bdfe 5d3d d36e b4bd
000000e0: 2472 dd3d 8e53 c83c 0e30 a53d e100 d5be
000000f0: a7ed 603e e2a3 ea3c 58dc 7abe 1566 9b3e
00000100: 12e5 0a3e 47a8 643e 2ad4 b5be 801b 603e
00000110: 03cb 0ebe 767e 8b3d 61f8 ff3d 9495 133e
00000120: c7e1 9b3e aeba dc3b 3d5d 983d a3dd 843d
00000130: 7dc3 1fbe df58 4fbd 89a6 2e3e 6df3 553e
00000140: b13d d83e 877c 9bbb a9e5 2e3e 95d7 a93d
00000150: 5154 67be ce76 93be 7e6e 953d 84ad 2c3f
00000160: 222c b1bd 70dc c1bd caae 0e3e 1b28 c6bd
00000170: 1e4f a5bd c990 b8bd 5e75 adbd 3b3f 5f3e
00000180: 1e00 d6bc b2b0 8f3e 1a10 153c 6275 953e
00000190: 2739 abbd 851d f73d 3c40 a83e aa0d e9be
000001a0: 5945 8f3e de0a 633e 2289 1dbe 014d 31be
000001b0: 524d 7bbd 1c3b 41be 3d10 613d 7296 f5bd
000001c0: 40fd 1fbe d458 30be 7ecb 1f3f af3c 1ebd
000001d0: d546 adbe 21b2 b93d f5de 443e 3bfe 973e
000001e0: b3df dcbe c08b c0bc 8680 123d d7fc f43c
000001f0: e6e7 0cbe a808 08bf ca57 603e b16c 3d3d
00000200: 2d15 873e 231e 78be 71b9 263e 39ac 1bbe
00000210: 48b4 ee3a 8d1b 8dbb 8fd5 7a3e a9e3 803d
00000220: 7be6 aebd 5580 4ebe d2bb 7c3d a8de 42be
00000230: dee8 7b3e 4403 f03e 3ff9 653e 4b39 d23d
00000240: 8ce1 8a3e 0fcd 903d 136a cebe a54e cc3d
00000250: e149 adba e065 dcbb 53ef cb3d 007c c13d
00000260: b062 623e 3240 33be 3996 533c 3dc8 96be
00000270: 6ec5 a6bd 7801 9b3d d3d8 58be f037 4e3e
00000280: 1b2f 823e f9c4 b6bd d9ab febc be80 213e
00000290: 8199 93be 0d0e 213c 17e7 86be fec0 7b3d
000002a0: 48f1 7cbe f8bc babd f1c1 1b3e 85cd 413d
000002b0: ce1c 513d e12b 873d 4d17 bfbb 2463 983e
000002c0: 3eb5 e83e 3c68 073f a0b5 043e aa8f 61be
000002d0: 239c f13d e35b e63c beee c23e 4b3d 3a3e
000002e0: a369 f33e 1101 883e 47a3 243e f0de 803e
000002f0: 6214 e43e 4fa9 163e e608 ee3d 2c50 99be
00000300: b4d6 fdbd 60b8 903e 23c3 f1bd a5a7 f5bc
00000310: 040b e43e 29d5 3a3d 278b 6fbe 7e04 393c
00000320: daf8 1bbd a26d 893e 9e48 5cbe 6c98 0d3f
00000330: 72e7 edbe 4e2b 91be f0ba 11be 38ed 73be
00000340: 7520 0a3f 8313 e0be 3a21 403d 25e2 b0bd
00000350: 4025 11bf 5aae 38be cb41 7cbe 6d97 313d
00000360: 0b9e 62bf fefb 9d3d 64d6 f33d 2b15 96be
00000370: e29e e7be be5b 163e a4e2 ce3e 9e78 44bd
00000380: 067e 8abb 1152 b33d 22af 433d 0931 98bd
00000390: 2a64 abbe efd9 c03e e1fd 873d 8ceb c73e
000003a0: 3613 67bd 6a3e 18bd 5272 a43e d9dd 72be
000003b0: 58da b6bc 7937 1c3e 8f90 503e 5a53 c93b
000003c0: 3f96 bdbe 9523 e63d c22c 243e e321 5bbe
000003d0: 9d6d 62be e6b2 b13e 76cf 0cbc 7560 13be
000003e0: fad3 d03d 0a03 493e 9efe 22be bd49 953e
000003f0: c1c6 803e 8175 04be 35be be3b 987f 963d
0.092826724 0.08746834 -0.26336825 0.11512076 0.054230325 0.1285629 0.18462074 0.002892335
0.39511362 0.26300353 0.33511946 0.1342354 0.21346301 -0.042143006 0.54780185 -0.1199475
-0.45623598 -0.6194079 -0.120953485 0.092539474 0.22660498 0.09756482 -0.15414104 0.46745276
-0.23596084 -0.34490916 -0.459688 -0.20648919 0.30601484 -0.1315066 0.0009258202 0.059002135
-0.21557862 -0.085782215 -0.31731755 0.29220366 0.15287857 -0.19202195 0.025159193 0.023537438
0.24964635 0.14565253 -0.108713515 -0.72746545 0.6852099 -0.008802141 0.022648685 0.23386444
0.08312923 -0.19460657 -0.24892595 0.20572121 -0.19672027 -0.012018933 0.054198015 -0.088102005
0.10812786 0.024453904 0.08065806 -0.41602233 0.21965657 0.028642599 -0.24498117 0.3035132
0.13563946 0.22329818 -0.3551343 0.2188549 -0.1394463 0.0681123 0.124985464 0.14412528
0.30445692 0.006736121 0.07439659 0.06487586 -0.15601917 -0.050621863 0.17055716 0.20893641
0.42234567 -0.0047450694 0.17079796 0.08293072 -0.22590758 -0.28801578 0.07296465 0.67452264
-0.08650996 -0.09465873 0.13933864 -0.09675618 -0.08071731 -0.090119906 -0.08469652 0.21801464
-0.026123103 0.28064495 0.009098077 0.29191118 -0.0836051 0.12066177 0.32861507 -0.45518237
0.27982596 0.22172114 -0.15384343 -0.17314531 -0.061353035 -0.18870205 0.054947127 -0.11991586
-0.15623951 -0.17221385 0.6241988 -0.03863209 -0.33843103 0.090671785 0.19225676 0.2968615
-0.4313942 -0.023504138 0.0357671 0.02990572 -0.13760337 -0.5313821 0.21908489 0.046246234
0.26383343 -0.24230246 0.16281678 -0.15202416 0.0018211687 -0.004306263 0.24495529 0.06293423
-0.085400544 -0.20166142 0.061702557 -0.19030249 0.2460055 0.4687749 0.22458361 0.10264834
0.27125204 0.07070362 -0.40315303 0.09975938 -0.001322087 -0.0067260116 0.09957757 0.09447479
0.22107959 -0.17504957 0.012914234 -0.29449645 -0.081431255 0.075686395 -0.21176462 0.20138526
0.25426564 -0.08924288 -0.031087803 0.15771767 -0.28828052 0.00983001 -0.26348183 0.06146335
-0.24701416 -0.09118074 0.15210702 0.04731514 0.05105286 0.06600166 -0.005831635 0.29763138
0.45450777 0.52893424 0.1295991 -0.2202746 0.11797359 0.028119987 0.3807277 0.18187444
0.47541532 0.26563314 0.1607791 0.25170088 0.445468 0.14713024 0.11622791 -0.2994398
-0.12394467 0.28265667 -0.118047975 -0.029987166 0.44539654 0.04561344 -0.23392926 0.011292575
-0.03807912 0.26841456 -0.21512076 0.553107 -0.4646564 -0.2835335 -0.14231467 -0.2382096
0.53955775 -0.43764886 0.046906687 -0.08636884 -0.56697464 -0.1803526 -0.24634473 0.0433573
-0.88522404 0.07714079 0.11906126 -0.29313025 -0.45238405 0.14683434 0.40407288 -0.047966592
-0.004226449 0.08755887 0.04777444 -0.07431228 -0.33474857 0.3766627 0.066402204 0.39046896
-0.056414805 -0.037168898 0.3211847 -0.2371744 -0.022320911 0.15255536 0.20367645 0.0061439695
-0.3702869 0.112372555 0.16032699 -0.21399646 -0.22112127 0.347068 -0.008594384 -0.14392264
0.10196681 0.19630066 -0.15917441 0.2915782 0.25151637 -0.12935449 0.0058210143 0.07348555

bias f4 [20]
00000000: 43c2 213e b248 82bd 06f1 413c d831 35bb
00000010: 2564 d0bd 3783 fc3d 6b4c f33d 290c 643d
00000020: 7278 703c 7708 313e 7b8b bc3d 37c5 3a3e
00000030: 8f66 963c be60 873e 7ae0 93be 3dd8 cd3d
00000040: 83ff f43d 8a2a ddbd a60d bebe 0518 b63d
0.15796761 -0.06361522 0.01183725 -0.0027648117 -0.10175351 0.12329715 0.1187981 0.05567566
0.014677154 0.17288385 0.09206291 0.18239294 0.01835945 0.26440996 -0.288822 0.1005101
0.119627975 -0.10799129 -0.37119788 0.088913

weight f4 [20, 20]
00000000: 6c97 7c3e 12cf c3be 8174 943d 029d 483e
00000010: 0691 6cbe dc3a 1dbd 8e06 443e 1729 c23e
00000020: d950 13bf b30b b03d 2cb4 aa3e 34b2 ad3e
00000030: 2a0f 543e 60db 8b3e b809 953e 5f61 75bd
00000040: e64a d63e 2dfc 01be d80d 45bd 4236 9bbe
00000050: e5a8 8c3e 2891 69bd 60b0 af3d d778 873c
00000060: 4bb6 f83c d85d a83e 91b9 623e d234 67be
00000070: 73e3 dabd 6bfa 543e dded a6be a471 c93e
00000080: 343f c6bc de5a 813d 0592 e9bd 0b30 dc3e
00000090: 3344 9e3b cd06 f33e daf0 8d3e f943 073d
000000a0: 7f1d a0be fadf b3bd b257 0f3e 054d 85be
000000b0: 6eaa db3d 2a5b 053e 2bc9 533e 2e3e afbb
000000c0: 84c5 3f3e f57f 753e a788 e4be ffe4 8cbe
000000d0: 949a debd df8c 153e 8fa4 9f3d f434 e63e
000000e0: 8a34 a23e 9a40 8f3d 443a e7bd 15c9 f13d
000000f0: f477 8b3e 69d6 8dbd ecb2 62be 5890 473b
00000100: ef47 97be 5cbf 26be d433 fbbe b543 c9be
00000110: 51f0 88bd 3f8e aabe 2c6c 853c b1ca cbbc
00000120: 85fc bcbd 6136 373e a2f2 3abd 53a2 bb3e
00000130: b930 f6bb da80 0fbd 82aa cbbd 80a0 e83e
00000140: d843 873e 5893 f03c ab82 b3bd 4fc7 ea3c
00000150: 7d49 b23e bfe5 c2be 566d 09be 32c0 12be
00000160: b6d8 573e 80e8 29bc 63d0 07bf 8631 a8be
00000170: 5160 d1bc c0be 17bf e766 0f3f 4caa 993d
00000180: 4826 85be fce8 70be 7318 d93e d441 313e
00000190: 21f5 19be 6072 34bd 40c0 2b3c cacf 4cbe
000001a0: 5243 87be 9695 63bd b366 df3d 7211 d2be
000001b0: e9f5 933d 487f 3bbd 27d4 9bbe db1a 70bd
000001c0: e80d de3e 657c 373e adfd b93e 94a7 a93c
000001d0: 859d c23a 761c 443e 202b 4a3e 0887 f6be
000001e0: 6449 a43e fdf1 16be 3f93 373d 8049 583e
000001f0: 834e c8bc 0efb af3d 4115 02be e12c 873e
00000200: 0fd2 e2bd 0d55 a03d 595f bd3e 1364 573e
00000210: 3616 32be f093 ad3e 17b1 b2be 54cb d13e
00000220: 85d8 403e 49bf 09bf a411 e3be 93f5 083e
00000230: 4053 e7bd 8386 953e 7806 35be a399 733e
00000240: 2c1d 0f3d 3963 0bbe 9c9d 02be 7799 883e
00000250: 0842 c03e acc7 963d 2bab db3d 064f 45be
00000260: acd0 f6bd b263 00be 19b7 f93d 8883 733d
00000270: 51e5 58be 547e 993e 98ba ba3d b29c 913b
00000280: b0f6 3ebe 0b41 aabd 06cf 86be 3275 f33e
00000290: 0c33 8d3e 80f0 103e 9fc5 97bd 8390 1c3d
000002a0: 9eb3 9e3e c963 273e f054 a8be 64db 663e
000002b0: 02a2 abbe 32c5 cebe d3fb ab3e a312 52be
000002c0: 2ac8 eb3d da00 f7bd 869b c23e 6f31 4bbe
000002d0: 99b4 013f 2e67 4dbe d489 bbbc c3ea 0abd
000002e0: 5b7f aabe ccf2 af3e 84e7 abbe 3123 923d
000002f0: 63f8 1abd 3a73 a9bd 6235 3a3e 08de 853d
00000300: 0d59 d2bd 06d9 de3b 0f84 0ebe 2492 ba3e
00000310: 6429 30bd a394 733c 8ff9 003e 305c 83be
00000320: a5e9 4e3e cb25 29bd a2ca 863d 9f9e e23c
00000330: 3c2b 5c3d d690 1d3e 26ce 083e f127 4cbd
00000340: e637 07be 9c0a 2f3e e58f 9dbd d915 4f3e
00000350: e782 c0bb e4c3 723e f39b e3be ad55 833e
00000360: d7d1 fd3d a817 8cbe b180 66be 259b 56be
00000370: e12b cc3b 2361 223e edb7 7cbd 9ee5 2abe
00000380: 71fa 683e b031 8cbe 81c4 323a d8d9 9ebd
00000390: e4cf a9be f049 043e 972b a9be f8ee 09be
000003a0: f87c 9d3e 6615 9b3e 5dc6 9f3d a6ac a13e
000003b0: dacb debb cb90 363f 00c4 e5bc fc55 b73c
000003c0: cf03 c3be ed43 0b3e de19 dbbe bc35 203d
000003d0: c9d7 823e 7d2c d2be 1cb3 903c c9e6 9f3e
000003e0: 9d23 4f3e 5b82 463e a4de 283e cc20 e2bd
000003f0: 1ad2 9fbe ad82 09bf c84b 933e 6861 5bbf
0.24667138 -0.3824392 0.07248784 0.19591144 -0.23102197 -0.03838621 0.19143125 0.37921974
-0.5754524 0.085959814 0.33340585 0.3392502 0.2070891 0.27315807 0.29108977 -0.059907313
0.41854018 -0.12693854 -0.048108906 -0.30314833 0.27472606 -0.057023197 0.08578563 0.016537113
0.030360362 0.32884097 0.221411 -0.22578743 -0.10687914 0.20798652 -0.3260335 0.39344513
-0.02420006 0.0631616 -0.11404804 0.43005404 0.0048299073 0.47466126 0.27722818 0.03302381
-0.31272504 -0.087829545 0.13998297 -0.26035324 0.10725866 0.13023058 0.20682208 -0.0053479886
0.1872769 0.23974593 -0.44635507 -0.2751846 -0.10869327 0.1460452 0.07795059 0.44962275
0.3168071 0.06994744 -0.1129041 0.118059315 0.27239954 -0.06925661 -0.22138566 0.0030451026
-0.29547068 -0.16283935 -0.4906298 -0.3930947 -0.06686462 -0.3331165 0.016286932 -0.024876924
-0.09227852 0.17891838 -0.04564155 0.3664728 -0.0075131324 -0.03503499 -0.09944631 0.45434952
0.26418948 0.029367134 -0.08765157 0.02865949 0.34821692 -0.38065907 -0.13420615 -0.14331129
0.21078762 -0.010370374 -0.5305235 -0.32850283 -0.025558623 -0.59275436 0.5601639 0.07503185
-0.2600577 -0.23526376 0.42401466 0.17310268 -0.15034916 -0.04405439 0.010482848 -0.2000114
-0.2641855 -0.05556258 0.1090826 -0.41028935 0.07224638 -0.04577568 -0.30435297 -0.05861936
0.43369985 0.17918546 0.36326352 0.02070979 0.001484797 0.19151482 0.19743013 -0.48149896
0.32087243 -0.14740749 0.04481816 0.21121788 -0.0244515 0.08592807 -0.1270342 0.26401427
-0.11075222 0.07828722 0.36986807 0.21034269 -0.17391285 0.3390193 -0.34900734 0.4097544
0.18832596 -0.53807503 -0.44349396 0.13374929 -0.112951756 0.29204187 -0.17678249 0.23789077
0.03493993 -0.13612069 -0.12755436 0.26679584 0.37550378 0.07362303 0.10726007 -0.19268426
-0.1205152 -0.1253803 0.12193126 0.05945161 -0.21181227 0.29979193 0.09117621 0.0044437284
-0.18648791 -0.08313187 -0.2632982 0.4755035 0.27578008 0.14154243 -0.0741074 0.038223755
0.30996412 0.16346659 -0.32877302 0.22544628 -0.3352204 -0.40384823 0.33590564 -0.20514922
0.11512788 -0.12060709 0.3800928 -0.19843076 0.50666195 -0.20058891 -0.02289287 -0.033915292
-0.3330029 0.34364927 -0.3357507 0.071356185 -0.037834536 -0.08273931 0.18184426 0.0653649
-0.10270891 0.0068007736 -0.13917564 0.3643962 -0.043008223 0.014866981 0.12595199 -0.2565627
0.20206316 -0.041295808 0.06581618 0.027663527 0.05375217 0.15387282 0.1335989 -0.04984278
-0.13204917 0.17093891 -0.07693461 0.20223178 -0.00587498 0.23707539 -0.44454917 0.25651303
0.123935394 -0.27361798 -0.2251003 -0.2095762 0.0062308167 0.15857367 -0.061698843 -0.16689155
0.22751786 -0.2738166 0.00068194425 -0.07756394 -0.3316642 0.1291883 -0.3304107 -0.13470066
0.30759406 0.30289763 0.07801507 0.31577033 -0.0067992033 0.71314687 -0.028047562 0.022379868
-0.38088843 0.1360013 -0.42793173 0.039113745 0.25555256 -0.41049567 0.017663531 0.31230763
0.20228429 0.19385664 0.1649118 -0.11041412 -0.31214982 -0.5371502 0.28768754 -0.85695505

bias f4 [20]
00000000: ec0d df3d 9117 793d 392e be3d a667 bdbc
00000010: eb5f 20be 3126 963d c9a3 6b3e 3921 84bd
00000020: 1ac8 11be 016c ef3d 7d58 cd3c e85d 28be
00000030: 533c 2fbe 0cb4 023d f32e 57bd 493b e4ba
00000040: 304c 0b3d 29fc 04be f588 b9bc 3915 3dbd
0.10891327 0.06081349 0.0928616 -0.023120712 -0.1566159 0.07331503 0.23011698 -0.06451649
-0.14236489 0.11690522 0.025066609 -0.16442072 -0.17112856 0.031909987 -0.05253501 -0.0017412688
0.034008205 -0.12986816 -0.022648314 -0.046162818

weight f4 [20, 20]
00000000: 5e3f 563d 8340 4a3e 795d 9a3e add7 0fbe
00000010: 6667 0c3f 4c03 a0bc 660a a33e df7c 8cbe
00000020: cbc8 5e3e 0621 403d 2d17 3f3e 7d30 2c3d
00000030: 4b1f 223e 7f64 933e 4dd8 4abe 8824 613e
00000040: 50ef 143e 0628 ce3e c44d 8e3e 75f3 04be
00000050: 26dd 32bd 8323 4a3d ac32 70be c4b6 1f3d
00000060: 800b 903e cd16 a13e 9329 7f3e b388 53bd
00000070: a43a 12be eda7 e73c c595 8abe 8d19 77be
00000080: 3d1a 74be 943a f83e bdc3 c2be 7897 8b3d
00000090: 12e9 7f3e 1feb 8b3e a892 9fbe 5153 823d
000000a0: dfce eebe dadf babe 9479 cd3d 2ed9 edbc
000000b0: ca15 e9bc cb1b a93e ff40 2ebf 7a39 653e
000000c0: 8e2b a43e db89 d03e 4b93 73be ec58 42be
000000d0: be66 e93d 2c46 01be a14c 3ebd 45f3 90be
000000e0: 1a66 08bf defa c63e f5d4 10bd 7325 163e
000000f0: 058d fbbd f64b 8ebd 5c0b febd 39e4 123e
00000100: 0fbb abbd 7ff4 23be 23a8 273e a40e 2c3e
00000110: dcc1 fd3c 8fb2 293e eb1d 873e bc82 07bf
00000120: e1d8 553d 1057 9d3e 8031 ac3a 42b3 253d
00000130: fde6 1abe bf16 1a3f 42fc 253d cd10 f4be
00000140: 68f0 c53e 0a2e cabe 053d aebe c7f5 b0bc
00000150: efc6 ef3c 0c12 b93d 9a22 43bd ed17 f4bc
00000160: 2476 6eba 7779 50be 59d4 083e 9fe4 133c
00000170: d530 613d 1d03 a93e 0a74 00be 39de ff3d
00000180: 2636 4cbc 81fc a8be 692c 0fbf 55c2 c13d
00000190: e278 6f3d 7120 ebbb 9197 f83d bf52 033e
000001a0: 95fa 053e 20e2 7d3c c3b4 11be ea64 213c
000001b0: b74b 623e 0039 da3d e913 56be 8e1e 96be
000001c0: d7ec 6bbe 217d 563e 9b56 54be d44e aabe
000001d0: cbcd 16be f76d 3bbd b203 df3e 67d1 8b3e
000001e0: 9146 bfbd a426 993e 9f58 6bbc f130 b4bd
000001f0: 79ca b3be e6ae ba3e 2ffa 1dbb e411 03be
00000200: 0091 78be 1f76 723e bc3d 2ebe 4a7e e4be
00000210: a7e2 863e 90f7 73be b5b5 493e a857 4a3e
00000220: f07b 0c3f 33b4 ca3c 6fb4 f6bd 35d8 a7be
00000230: 0b07 9abe 7362 10be e867 d9be fb67 2c3e
00000240: 25e2 4abf 780b 943e 2bf9 b13e 94de 653e
00000250: b730 d9bd 5e81 d5bd 245c cb3e d405 8cbe
00000260: a14f b43e dada 8fbe eaa1 3ebe 36a2 be3e
00000270: 2ca5 dc3d 3f59 32be 39aa dbbe 597e ecbd
00000280: f842 4f3e a267 b3bd f9e9 61be e474 adbe
00000290: ad7a 5d3e 9bc2 c63d 6b0a 86be d680 c4bd
000002a0: aa58 d13d 0445 00be a881 6f3a 479e cdbd
000002b0: b33b b83e cfa9 d93d bc13 5d3e b080 25be
000002c0: 830d 25be 908f d6bd ddae 443e 7d47 683c
000002d0: a626 af3e 638f 283d c8c8 36ba 4347 49be
000002e0: 6ca9 3fbe 8e48 f4bd 007f 07be 2151 0b3e
000002f0: d401 f6bd 6d10 ab3e c23c 4abe eee1 1bbe
00000300: 525c c8be 4bed 6d3e f594 d83e 8373 00be
00000310: 94a0 8abd 37af fcbe ae84 2abe c80b ef3c
00000320: 20ab 8a3d 700d b23e f9c2 913e 8a28 803e
00000330: 3a6f 78be 9980 2a3e 5eae 853d 88f8 0fbd
00000340: 4c7e 753e de70 783d 46ef 6fbe 4d9a 32bd
00000350: 43c0 933c 71ac c03e 4f29 c03d f9d3 39bf
00000360: 5ede 74bd df7c 04bf 8a9a 4c3c 082e 133d
00000370: 4fa4 8d3d 061e 4d3e 447c 73bc 3296 fcbd
00000380: 05da 47be d18b 073e 014d 573d 47b8 2ebe
00000390: ff7d a5be e986 1cbe 1465 f1bd 0a76 6bbd
000003a0: 47df 59be 45dc d5bd 9849 dabc 7563 a03e
000003b0: 4a60 443e 11a6 603e 73ec a2be 9fd7 483e
000003c0: f465 5c3e b002 5ebe a328 f9bc 2674 973d
000003d0: 3ddc 69be 4184 debe 710b 403e 84b0 9ebe
000003e0: f9cc 183e e950 11bc e4d3 64bd 6a97 85be
000003f0: 51ab 9dbd 76bf 023d 784c 7a3e 5112 4a3f
0.052306525 0.19751172 0.3014944 -0.14047118 0.54845273 -0.019532822 0.3184387 -0.2743902
0.21756284 0.046906494 0.18661185 0.04203843 0.1583225 0.2878761 -0.19809075 0.21986592
0.14544415 0.4026491 0.27793705 -0.12983496 -0.043667935 0.049350273 -0.2345683 0.03899266
0.28133774 0.31462708 0.24918203 -0.05164404 -0.14280182 0.028278315 -0.2706739 -0.2413084
-0.23838134 0.48482192 -0.3803996 0.06816 0.24991253 0.2732782 -0.31166577 0.063635476
-0.46642205 -0.3649891 0.10032955 -0.029034223 -0.028452773 0.33029017 -0.68067926 0.22385207
0.3206448 0.40730175 -0.23786657 -0.18979234 0.1139655 -0.12624425 -0.046459798 -0.283106
-0.53280795 0.3886327 -0.03535934 0.14662723 -0.12282757 -0.06948082 -0.124045104 0.14344873
-0.08385288 -0.16011237 0.16372733 0.1680246 0.030976228 0.16572021 0.26390013 -0.5293386
0.052208785 0.30730486 0.0013137311 0.040454157 -0.15127178 0.6019096 0.040523775 -0.47669068
0.38659978 -0.3948825 -0.3403093 -0.02160157 0.029269664 0.09036645 -0.04764042 -0.029796565
-0.0009096584 -0.20358835 0.13362254 0.0090266755 0.05497821 0.33010188 -0.12544265 0.124935575
-0.012464082 -0.33005145 -0.5592714 0.09460894 0.058464892 -0.007175498 0.12138284 0.12824534
0.1308387 0.015495807 -0.14229111 0.00985072 0.22099195 0.10655403 -0.20906033 -0.29320186
-0.23039566 0.2094617 -0.20736162 -0.33263266 -0.14726941 -0.045759168 0.43557507 0.273082
-0.09339631 0.29912293 -0.014364391 -0.08798397 -0.35115412 0.36461562 -0.002410542 -0.12799793
-0.24274063 0.23677872 -0.17015737 -0.446276 0.26344797 -0.23824906 0.19698222 0.1976
0.54876614 0.024744129 -0.12046134 -0.3278214 -0.30083498 -0.14100055 -0.42462087 0.1683654
-0.7925132 0.28915 0.34760413 0.22448188 -0.10604995 -0.104250655 0.39718735 -0.27348197
0.35217002 -0.28096658 -0.18616453 0.37233132 0.107736915 -0.17416857 -0.42903307 -0.115475364
0.2024039 -0.08760001 -0.2206191 -0.33878243 0.21628828 0.09705087 -0.26179823 -0.09594886
0.102219895 -0.12526327 0.0009136447 -0.10039955 0.35983047 0.106280915 0.2158956 -0.16162372
-0.16118436 -0.10476601 0.1920733 0.0141772 0.34209174 0.04115237 -0.0006972668 -0.1965609
-0.18716973 -0.11927901 -0.1323204 0.13605167 -0.120120674 0.3341097 -0.1974974 -0.15222904
-0.39132935 0.23235051 0.42301145 -0.12544064 -0.06768909 -0.49352428 -0.16652176 0.029180422
0.06770921 0.34775877 0.28469065 0.2503093 -0.2426118 0.16650619 0.065273985 -0.035149127
0.2397396 0.060654514 -0.2343112 -0.043604184 0.018036013 0.37631562 0.09382879 -0.7258907
-0.05978238 -0.5175304 0.012488017 0.03593257 0.06916105 0.20030984 -0.01486117 -0.12333335
-0.19516762 0.1323693 0.05256367 -0.17062484 -0.3232269 -0.15285839 -0.11786857 -0.057485618
-0.2127658 -0.10442404 -0.02664642 0.3132588 0.19177356 0.2193835 -0.3182102 0.19613503
0.21523267 -0.21680713 -0.030414885 0.073952004 -0.2283792 -0.43460277 0.18754365 -0.30994046
0.14921941 -0.008869388 -0.055866137 -0.26092082 -0.07698692 0.031920873 0.24443233 0.789342

bias f4 [20]
00000000: 1d48 383e 1645 953d 2727 02be 38a6 1e3d
00000010: ce81 8c3d e353 063d 63fb 883d d93e 293d
00000020: 2292 07be 330c 113e 9612 8d3d 455b 5a3e
00000030: b5ec d1bd 048c 973d ca96 0d3e 5895 3d3d
00000040: b399 b83d ec19 0cbe 6d62 973e 8b1b 18be
0.17996259 0.07288568 -0.12710248 0.038732737 0.06860696 0.032794844 0.06688573 0.0413197
-0.13239339 0.1416481 0.068883106 0.21323879 -0.102502264 0.07399753 0.13827053 0.046285003
0.09013691 -0.13681763 0.2956728 -0.14854257

weight f4 [20, 20]
00000000: c718 643e fe5e c53d 1a02 e23d 4774 a0bd
00000010: 610d 6e3e 8f32 793c 7ac3 f5bc c61d 6ebd
00000020: bccd b73e 497c 663d f63d 1cbe 3cac 2f3e
00000030: e15f 873e 8232 66be c6a3 5f3e 45d9 f5bd
00000040: fc13 993e 933d c0bd 542a babe 3fcf d5bd
00000050: d841 c33c d2aa 83be 7110 2b3e ad01 25be
00000060: ccee 37be d5f0 c2bb f925 dcbd 7f4c 96be
00000070: 39f8 ac3e 1d36 24be c598 fb3d b4fa 65be
00000080: 372d 7cbe ca06 233d 6973 d0be 860d bebe
00000090: 5901 d8bd 7e22 a13e 9f11 6e3e 0391 eabc
000000a0: 8238 933e defd 503e b69d 84be 16aa b93d
000000b0: b567 c5be 1f03 29be 9cbb 7bbd 09a8 893d
000000c0: c644 91bd 84ee 813d 0e91 743d 2b2f 8fbd
000000d0: 165d 7bbb 56b9 db3e 21a8 03bd 6ba6 b73c
000000e0: 0fc4 443d e67a acbe e7da bdbe 2777 8ebd
000000f0: 69a1 91bd 4ca3 9b3e db85 7d3d 2144 f33d
00000100: bcc7 543e d434 b1be 088e 0b3d 4ec7 993e
00000110: 2e93 12be 7d9c 62be 2323 cdbe 53cc 0abd
00000120: f1d7 1e3f d2b8 a43e 9e3c 8f3e 4fdd c13e
00000130: 11d1 8fbd 6fd6 ee3e 754f b83d 696d 8f3e
00000140: 3bd0 7fbe 0b7c efbd 13b2 203f 0952 093e
00000150: 884f 053d d08f c93c b8b3 f5bd b52e 9dbe
00000160: 056d 8c3e b2bc 8ebe 2e1f 35be e42c 16be
00000170: 2d0a ddbe 78bf f0bd 3fc7 e5be 5891 233e
00000180: bb47 8abe 993f acbc 8dd2 ffbe b7f4 99ba
00000190: 1e06 d8be 9e2d 7f3d e53a 503e 0b9e 0bbe
000001a0: 9021 733e e86b b93c 8da9 a5be ddf2 c3bc
000001b0: ab4e 053d b244 9c3d 46fb 4dbe 8efa bfbe
000001c0: 7b3e 22be 17c5 2e3e cc40 abbc a2a6 e33e
000001d0: 7933 acbd a5c8 a53d ffec 1cbe 2472 a3be
000001e0: 0467 7a3e 6b4a acbd 6fca 2d3d c08d 013d
000001f0: 6c4d d7be d9c8 053e c129 b8bd 042c 623e
00000200: a1ae f73d 2e42 9c3d 21a2 a8be b112 10bd
00000210: ab0a 493d 7e1c e93d 274e 193e c140 88bd
00000220: 593a b93d 9ad3 723e e688 efbb d4d6 723e
00000230: 86eb 4abe e5f2 e0bd fab9 a53e bb45 c03b
00000240: 5ebc de3d 225a 52bd dbb9 b6bc 09ff f1bd
00000250: cded 183e 6bd5 a0bc 694c 95bc 7fe2 84be
00000260: 558c cd3d b7f8 d5bd 5248 78be c84d 1bbe
00000270: 3512 cfbe d4b2 1fbe 91db 84be 6777 4a3e
00000280: fb62 6cbe 39df dcbd 4d21 6fbd 38c4 613e
00000290: bb5c 35bc 0695 bfbe bfab fc3c e847 9bbe
000002a0: 39f6 48be 3ce4 973e e15e 173e 00c3 f3bd
000002b0: 6757 3bbd c8f8 793e 5430 db3d 96a7 1e3d
000002c0: 7f7a 91bd 256d 50be 1093 9c3d 1950 e13c
000002d0: f982 0a3d ec6e d43d 6997 8d3e 7f8f 04be
000002e0: ee84 08be 0002 3cbc 5227 80be 46ef 3e3e
000002f0: 0bf2 63bb 08ba 66be 9030 ad3d 2fb5 dbbd
00000300: f560 febe 0395 bf3e b133 44be 66b6 3abc
00000310: 7fe3 0dbe be00 1a3d df3c 7dbe a3b3 1c3e
00000320: f02e ffbd eba1 d6bd 8749 c43e b4f4 7d3e
00000330: 7e74 e3bd 9b6b 9f3e e614 ecbd 4b5a 85be
00000340: 3d9b d73d 4a1d 7bbe f2fc ae3e 9fbe a73d
00000350: 86bc dfbe 7e13 14be ccbc d6be a160 783d
00000360: e890 533e 238b 9ebc 9d22 b23e df29 a9be
00000370: 7020 dabe 5852 dbbc d29d efbd 637c 2a3e
00000380: 2d65 c3be 66ae db3c e223 12be fa9c 033f
00000390: 7ff7 73be 033a 16be 917d 80bd 8f59 193e
000003a0: c225 b13e 8757 ff3d ab52 a53d 1429 83bc
000003b0: 304f 0b3e c016 90bd 4ba8 ca3d 8f91 cebd
000003c0: 8cf8 41be 8548 43be f03e 8b3d b11b b6bd
000003d0: e81a a4be 3a0f a93e a169 37be 87e7 38be
000003e0: b05c b23d ae72 16be 7bd9 0d3d 058f c3bd
000003f0: 9984 8bbe 6461 913e 0835 e9be 53ed 753d
0.22275077 0.09637259 0.11035557 -0.07834678 0.23247291 0.015209808 -0.030000437 -0.058133863
0.3589915 0.05627087 -0.15258011 0.17155546 0.26440337 -0.22480205 0.21839818 -0.120043315
0.2989806 -0.09386744 -0.3636042 -0.1043992 0.023835108 -0.25716263 0.1670549 -0.1611392
-0.17962188 -0.0059491196 -0.1074943 -0.29355237 0.3378313 -0.16036268 0.12284998 -0.22458917
-0.24626623 0.039801396 -0.4071305 -0.37119693 -0.10547132 0.31471628 0.2324891 -0.0286336
0.2875405 0.20409343 -0.25901574 0.090656444 -0.38555685 -0.16505097 -0.061458215 0.06721503
-0.070931956 0.06344321 0.059708647 -0.069914185 -0.0038355044 0.42914838 -0.032142762 0.022418221
0.04803854 -0.33687514 -0.37081072 -0.0695632 -0.07110865 0.30398023 0.061895233 0.11878229
0.20779318 -0.34610617 0.034071 0.3003487 -0.14313957 -0.22130008 -0.4006587 -0.033886265
0.6204825 0.32172257 0.27975935 0.37864158 -0.07022298 0.46647975 0.0899953 0.2801316
-0.24981777 -0.11693581 0.6277172 0.134102 0.03254655 0.024604708 -0.11997169 -0.30699697
0.27426925 -0.27878338 -0.17687675 -0.14665562 -0.43171826 -0.1175527 -0.44878575 0.15973413
-0.2700785 -0.02102642 -0.49965325 -0.0011745904 -0.42192167 0.062299363 0.20334966 -0.13634507
0.23743272 0.022634462 -0.3235592 -0.023919517 0.032545727 0.0763029 -0.20115384 -0.37495846
-0.15844147 0.17067371 -0.020904921 0.44463068 -0.08408255 0.080949105 -0.15324782 -0.3192302
0.2445336 -0.084126316 0.042429384 0.031629324 -0.42051256 0.13064899 -0.08992339 0.22087103
0.12093855 0.0762981 -0.32936195 -0.035174076 0.04908244 0.113823876 0.14971219 -0.06652976
0.09044332 0.23713532 -0.0073100207 0.23714763 -0.19816408 -0.109838285 0.3236845 0.0058676875
0.10875772 -0.05135549 -0.02230542 -0.11816222 0.14934464 -0.019633016 -0.018224912 -0.25954053
0.10036532 -0.10447829 -0.24246338 -0.1516639 -0.40443578 -0.15595561 -0.25948766 0.19772111
-0.23084633 -0.10784764 -0.058381367 0.22047508 -0.011069472 -0.37418383 0.030843614 -0.30328298
-0.19625176 0.29666317 0.14782287 -0.11902428 -0.04573765 0.24411309 0.10702577 0.03873404
-0.071034424 -0.20354135 0.076452374 0.027504014 0.03381631 0.10372719 0.2765458 -0.12945364
-0.13331959 -0.011475086 -0.2503 0.18645963 -0.003478172 -0.22531903 0.08456528 -0.107279174
-0.49683347 0.37418374 -0.19160344 -0.011396026 -0.13856314 0.037598364 -0.24730252 0.15302901
-0.124601245 -0.10480102 0.38337347 0.24800378 -0.111062035 0.31136784 -0.115274236 -0.2604545
0.10527656 -0.24522892 0.34177357 0.08190655 -0.4369852 -0.1446056 -0.41940916 0.060639028
0.20660746 -0.019353455 0.34792033 -0.33039758 -0.42602873 -0.026772663 -0.11700024 0.16649012
-0.38163128 0.026816558 -0.142715 0.514114 -0.23824881 -0.14670567 -0.0627395 0.1497557
0.3459912 0.124678664 0.08072408 -0.016010799 0.13604426 -0.07035589 0.098953806 -0.10086357
-0.1894247 -0.19070633 0.06799114 -0.088920005 -0.32051778 0.3301943 -0.17911388 -0.1805707
0.08709085 -0.14692184 0.034631234 -0.09548763 -0.272496 0.28394616 -0.45548272 0.060040783

bias f4 [20]
00000000: aa8b 12bc 127b 81bd b667 9d3d c3e5 04bd
00000010: c7db 94be 054d e73b 486c c0bd f97e 96be
00000020: 2604 273e 21c7 afbd 96c7 ca3d 9af1 3cbc
00000030: ae30 43be 91da 6f3d 2981 3fbe 9305 6d3d
00000040: 778d a13d 8de2 0c3e 7a4c 703e e0ef 36bd
-0.008944431 -0.06322302 0.07685797 -0.03244568 -0.29073927 0.007058742 -0.09395653 -0.29393747
0.16310176 -0.08582903 0.09901349 -0.011532212 -0.19061539 0.05855805 -0.18701614 0.057866644
0.078883104 0.13758297 0.23466673 -0.044662356

weight f4 [20, 20]
00000000: a09a 8b3e b811 c8bd 3dec b33a ed41 bf3e
00000010: 8951 7cbe 02c7 233d 60b0 1d3e cc36 ffbc
00000020: 2cd4 a0bd 584a 27bd 41ba 13bd 88c9 2d3e
00000030: 10f3 043e e0db 3f3e e4ae 46be 33dd 293e
00000040: 9d09 303e 8ff9 8f3e e40d 1b3b e948 e0be
00000050: 6811 833e 641c 133e 4a5a 2fbe 55fa 92be
00000060: 5b96 093e a79a 4d3e fdbf 36be ca28 7f3e
00000070: 2c51 503e 3e11 e33d caf3 82bd 5a09 a5be
00000080: 4813 6e3e e72a 963e 1039 1abe 65f9 c3be
00000090: 334a 603e 8fb1 25be 72ad d3be 2e35 0c3e
000000a0: 80cb c5be a87f f93b f267 1abe 6e19 0dbe
000000b0: 0b67 edbe a50f 73be 883d e93d 2a6e dbbe
000000c0: 8e2b 27be 0123 b63c 6f76 38be 65a1 63be
000000d0: a54d 7dbe 739f 12be f8e6 c23e 7636 8f3e
000000e0: 1baf 193e dbaa 23be 2a18 983e bac0 0b3e
000000f0: 8b69 c6be 8939 3a3e a03c 71be 43a1 81be
00000100: c505 10be 1887 44bd b8dd 11be 24fd 33be
00000110: ca87 15be 45f7 aa3e e72e 1c3e 2a1e 0b3e
00000120: 331d 083e fc87 a93d f662 cb3e 57cb 8d3e
00000130: bcfb e5be 3692 a4bd 23ce b33d 1bf4 5dbd
00000140: 7cf1 d5bd 0d86 8bbe 0352 13be 343c c3bd
00000150: 6664 04bf 9a13 68be 8f81 89be 7bb6 90be
00000160: 453f a53d 1f19 b7be d4b8 923e 538e 3db9
00000170: e9e6 bcbe d7c3 0cbe bf94 7cbc 4ab8 40be
00000180: bd88 973c 5128 87bc 23c2 733d 1db2 85be
00000190: a09d c6bd ee72 09be d488 02bf 700d 7a3e
000001a0: 5195 44bf 668d babe bfb8 593c 3c21 9cbe
000001b0: 792f 8e3e 384c 82be 8460 13be baa3 b73e
000001c0: 9860 b7be a72f 99be f713 d9bc 43d0 9c3e
000001d0: b46c ad3e c8b3 c1bb e8fa 583c 9643 033f
000001e0: ee0f fabd 25ed 07be 504d a2bd 80e8 6b3e
000001f0: 9f77 233e 660e 80bd 8eda 1c3e 6c2e 86be
00000200: 034f 4a3e f83c cfbd 7cea a23d 39f7 febc
00000210: 000e 7ebe 4bde e8bd 8e56 883e 0dee 01bf
00000220: 2553 04bc fcf5 3dbe 2901 623d 239b 89be
00000230: 2759 073e 5fdd 2b3c f798 02be a39e b63d
00000240: f1d5 ad3e f1b0 33bd 9936 9fbc c0cb e0bd
00000250: 6d3e 023e efef 6f3d f02f 023e e88e 2dbe
00000260: 0bde f53d e172 c83d 68e6 f23c 6a8b 11be
00000270: 34cf 3bbe ba88 133e b6e3 ecbe e5d3 2d3d
00000280: 6821 26be 8179 babe 2c00 5a3d 03ac 8d3e
00000290: 996c 573e 651c 3e3e b8a6 6a3c fca0 aa3e
000002a0: c0c3 103f 030d 5c3d d91d 77be 6bf9 e6bd
000002b0: c4b2 e4bc 62da d7bd 4fa2 79bd b0f4 603e
000002c0: 960f 8b3e 4faf b3be 535f 383e c433 08be
000002d0: 0027 76be 4b2b babe d1b3 cbbd e52a f23e
000002e0: ea4b b7bc cba2 0e3c fd5e e83b 58bd 83be
000002f0: 836e 0fbd 159c 1cbe 67db a1bd b5bc c9bc
00000300: 2ab1 cdbe ef77 91be 7ab2 0cbe 7bd8 c1be
00000310: c54f 003e a9e0 ccbe ea03 553c 8377 873d
00000320: 0aa6 8c3e 9503 943e d6a7 893e c40b 6c3d
00000330: 17bf 8cbd 66b3 be3c f1bc a53e 605e c6bc
00000340: d406 fcbd 8283 a73e 92ea debc 2b7c 8abe
00000350: b154 76be 8f28 c93d 4a5d fbbd 9484 963e
00000360: 9112 1abd 0e1c 21be 511d babd 3f81 4ebe
00000370: 797f dd3d b6b3 543e 98a6 743e d59a 4a3e
00000380: 830a cfbe 50c6 c13d d448 203d 7fcc a7be
00000390: 2989 153e a309 86be 7843 553e 6e27 983e
000003a0: 8c73 0d3e d4e2 a1be c5cc 83be c4bd b13e
000003b0: da66 9b3e 61b5 89be bf92 3b3f 9848 47be
000003c0: 5693 3e3e f7d6 b0bd e4e4 bd3e fc93 b6bd
000003d0: 1f99 77be 3222 a03d 0054 85be 74af adbe
000003e0: 5b7e ff3d 896f a73e c5a1 cabd 8080 35be
000003f0: cac7 b73d 1d5e 333e 54c1 5f3e 12bb 0f3e
0.27266407 -0.097690046 0.0013727021 0.37354985 -0.24640478 0.03998471 0.15399313 -0.031154059
-0.078529686 -0.040842384 -0.036066297 0.1697141 0.12983346 0.1873622 -0.19402653 0.16588287
0.17191167 0.28120086 0.0023659403 -0.43805626 0.25599217 0.14366299 -0.17124286 -0.28706613
0.13436262 0.20078526 -0.17846675 0.24917904 0.20343465 0.11087273 -0.06394155 -0.32233697
0.23249543 0.29329607 -0.1506083 -0.3827621 0.21903305 -0.16181014 -0.41343266 0.13692161
-0.3863182 0.0076140948 -0.15078714 -0.13779232 -0.46367678 -0.23736437 0.11388689 -0.42857486
-0.16325209 0.022233488 -0.18013929 -0.22229536 -0.2473665 -0.14318638 0.3806684 0.27971238
0.15008204 -0.15983145 0.29705936 0.13647738 -0.38752398 0.1818601 -0.23558283 -0.25318345
-0.14064701 -0.047980398 -0.14244735 -0.17577034 -0.1460258 0.33391777 0.15252267 0.13585725
0.13292389 0.0827789 0.3972394 0.27694198 -0.4491862 -0.080357 0.08779552 -0.054187875
-0.1044645 -0.2725071 -0.14386754 -0.09532967 -0.51715696 -0.22663727 -0.26856658 -0.28264222
0.08068708 -0.35761353 0.28656638 -0.00018077464 -0.3689492 -0.13746582 -0.015416323 -0.188203
0.01849782 -0.016498717 0.059511315 -0.26112452 -0.09698033 -0.13422748 -0.50990033 0.24419188
-0.7679034 -0.36436003 0.013288676 -0.30494106 0.27770594 -0.25448775 -0.14392287 0.358671
-0.35815883 -0.29919168 -0.026498778 0.3062764 0.33871996 -0.005911324 0.013243414 0.51275
-0.122100696 -0.13274057 -0.079249024 0.2303791 0.159636 -0.06252746 0.15317747 -0.26207292
0.19756703 -0.10119051 0.079548806 -0.031123744 -0.24810028 -0.11370524 0.26628536 -0.5075386
-0.008076464 -0.18550867 0.055176888 -0.26876172 0.13217603 0.010489791 -0.12753664 0.08916976
0.33952287 -0.043869916 -0.019435214 -0.10976362 0.12719126 0.058578428 0.12713599 -0.16949046
0.12005242 0.097875364 0.029650882 -0.14213338 -0.1834076 0.14407626 -0.4626748 0.042438406
-0.16223681 -0.36420825 0.05322282 0.27670297 0.2103752 0.18565519 0.014321975 0.33325946
0.5654869 0.053723346 -0.2413248 -0.112780415 -0.027917273 -0.105397 -0.060945805 0.21968341
0.2716033 -0.35094687 0.18005113 -0.13300997 -0.24038315 -0.36361155 -0.09946407 0.4729835
-0.022375066 0.008705805 0.0070914016 -0.25730395 -0.0350175 -0.15293916 -0.07903176 -0.024626115
-0.40174228 -0.28411815 -0.13739958 -0.37860474 0.1253043 -0.40015152 0.0130014215 0.06614592
0.27470428 0.28908983 0.2688586 0.057628408 -0.06872385 0.023278903 0.32370713 -0.024214923
-0.1230599 0.3271752 -0.027211461 -0.27047858 -0.24055745 0.09822189 -0.12273653 0.29398024
-0.037615363 -0.15733358 -0.09087623 -0.20166491 0.10815329 0.2077168 0.23891675 0.19785626
-0.40437707 0.09461653 0.039131954 -0.32773206 0.14603104 -0.26179227 0.20826519 0.29717582
0.13813609 -0.3161837 -0.25742164 0.34715092 0.30351907 -0.26896194 0.7327079 -0.19461286
0.18610892 -0.08634751 0.37088692 -0.089149445 -0.24179505 0.07819022 -0.2604065 -0.33922923
0.12475272 0.32702282 -0.09894136 -0.177248 0.089736536 0.1751637 0.21851093 0.14036205

bias f4 [20]
00000000: 67e7 e53c 40c5 61bc 864f 4b3e 14cc 0fbe
00000010: b8fe 513e adb9 043e 1762 103e 8cf5 b7bd
00000020: d78a db3b 3d14 463d fc23 00be 0581 133e
00000030: fc27 d93d 0595 30bd b2b0 cc3d 5bda b7be
00000040: 6273 a8bd dae6 4f3d f46e cc3d 759f 99bd
0.028064443 -0.013779938 0.19854555 -0.14042693 0.20507324 0.12961455 0.14099918 -0.08982381
0.0066999006 0.048359144 -0.12513727 0.14404686 0.106033295 -0.043110866 0.099946395 -0.3590878
-0.082251325 0.050757267 0.099821 -0.07501117

weight f4 [20, 20]
00000000: dcf0 14be 0787 dc3d 0553 a2be a7ed 10be
00000010: af7a 9dbd 545d 11be 5cab 203e d135 56bd
00000020: ba79 ae3e c501 8b3e e8b6 0a3c bb03 b3bd
00000030: 17f4 ab3d f064 dfbc 18eb 9dbd 21ad 623e
00000040: 3b2d b1be 0473 9c3e c2b9 acbd 4119 b6bd
00000050: f592 1d3e c899 f93e 50a3 1e3e 8549 5a3e
00000060: f13b 9cbe 3870 0d3e c843 99be 57c2 69be
00000070: 06c6 7e3e bde8 7e3d 1953 413e 47e0 18be
00000080: 886d 51be 355e e1bd c203 69bc 7a15 693e
00000090: cfe6 d03e 44a5 523d 9489 8d3d 50c7 90bb
000000a0: a5d6 92be f5f0 fabb accd 993e 3eb2 a73e
000000b0: 8c91 4dbe 8591 c5be bf40 bebd 2212 363e
000000c0: cdbc 073e c9e3 90bd 86e4 253e af38 6bbd
000000d0: 2b07 b3be 8ded e3bd 899c cebd f53a 393f
000000e0: 5fc9 643e a615 a23d 1ae5 10bf 41f8 a1bc
000000f0: a4bd 6d3e 22a8 4b3d e9e8 783e 6829 aebe
00000100: 5497 a6bd 7a37 1cbe 6843 a3be 0ff0 a6bd
00000110: 45e8 02bd 12bb 683e a4db 0bbe c96a 8d3e
00000120: 4c4f babd 59e1 793e dbd2 433d b72d f33d
00000130: 32f7 8d3e 8332 023d bae6 f5bd 3550 c4be
00000140: 2356 2d3e e5da a13c 4a3c 193e 7eb2 0f3e
00000150: ffd7 553f 06a3 62bd c434 af3e 34f6 3c3e
00000160: 12c1 093e e260 1d3e 6c47 86be c8f0 823d
00000170: 06be 7ebe 9fd2 cd3d 68b6 983d 9672 13bf
00000180: e277 7dbe e2a9 943d e17d 5e3e 98f0 943e
00000190: fb77 0f3e d4a9 ebbd 1c4d 8cbe da0e 53be
000001a0: 7961 dcbe d771 d33d 4073 a23e 1514 1c3f
000001b0: fcb0 58be 4fc3 65be c220 b03e ab5f 833d
000001c0: 9eef d8be 8caf 5a3e 376f 38be 966e f53d
000001d0: 9b6c abbd 5163 ccbd 0041 b6bd 4f54 6d3e
000001e0: 34a8 efbe f0ac 8d3e c218 5fbe 7797 46be
000001f0: 62d0 7cbc 0072 4b3d 5d68 1bbe ca32 81bd
00000200: c2aa 1dbd 509a eebe 4d53 e03d d35d a0be
00000210: 35fd 9e3c 8efa c9be 4829 6dbe b3b5 a0be
00000220: 19a1 5cbe f2a2 06be f2ed 253e 014e 0dbe
00000230: cf16 c53e fd7a c6be 63c2 4a3d 0d0d 303e
00000240: 2cab 5fbe c92b 033e 5686 b93c d697 13be
00000250: 304f 45be add8 12be 4a17 1dbd 9aa7 4dbd
00000260: c783 c6bd 24f9 9c3e 4020 253e 0c69 373e
00000270: 729f c93d 1533 ec3d 9a72 11be f846 1abe
00000280: 0910 63bd 369e 01bd a064 d8bd d8fa cbbc
00000290: d34f 6ebd be2f febd e964 683e 3eba 38bd
000002a0: a787 a03d 2877 6c3e 584f a5bd ea19 a5bc
000002b0: 6a61 c0bc 10e3 433e 63ec 92bd 83ad 0bbf
000002c0: f700 5fbe 8a4f b63d b3fd 2abd acdf 93be
000002d0: 1b7d 6e3e ee34 bc3e 0716 aebe 2a05 c4be
000002e0: 8ed1 d03d 5c7d 0a3e b530 673e fbbb a93e
000002f0: 4bc3 33be a737 3ebe 57e3 50be 9738 ccbc
00000300: 3018 143e 68ea cebd df23 4f3e 5a26 923e
00000310: e621 013e ccb1 5d3d 1e57 c13d cff0 17be
00000320: e11c 923d 8fd2 86be c184 17be d90d 00be
00000330: 6fa1 803e 47cb b1be a130 01bd ff02 053e
00000340: 1500 4c3e 4f48 a63d bdfe 41be 007f dcbe
00000350: bf70 f53d 3396 86be 61e8 223e 0d9e 46bd
00000360: fba5 fe39 2340 83be 7b13 df3e 97fc b13d
00000370: 0e4d 843d bae6 e0bd 7af8 953e 703d 10be
00000380: c4ff 263e 68ea 06be a2b0 f9bd e170 20bd
00000390: a787 5f3e 9867 d73d d882 813e 76d7 89bd
000003a0: e433 8d3d 5113 36be baf8 afbd 5ccb a1be
000003b0: 3828 56be a006 373c f62d ab3e 45c6 083e
000003c0: 90fc 89be 4ac8 d83d 78ad 893e 9542 6a3e
000003d0: 7677 e13d 7ba6 4b3e ce09 ac3d 623b 8d3d
000003e0: 1bd0 09bf dcf0 1fbf 2fd4 eebc dd93 78bd
000003f0: d538 b73e 6cd6 dfbe 40dd c83d a0dd 0a3e
-0.14545006 0.10767942 -0.31703964 -0.14153157 -0.07689416 -0.14195758 0.15690368 -0.052297417
0.34077245 0.27149788 0.00846646 -0.08740946 0.08396166 -0.02726981 -0.07710856 0.22136356
-0.3460482 0.305565 -0.08433868 -0.088915356 0.15388091 0.48750138 0.15491986 0.21317108
-0.30514482 0.1381234 -0.29934525 -0.22828041 0.24880227 0.062233675 0.18879355 -0.14929305
-0.20451939 -0.11004297 -0.014222087 0.22762099 0.40801093 0.05142714 0.069110066 -0.004418291
-0.28679386 -0.007658119 0.30039728 0.32753175 -0.20075053 -0.38587585 -0.09289693 0.17780355
0.13255616 -0.070746966 0.16200456 -0.057427105 -0.34966406 -0.111292936 -0.100884505 0.72355586
0.22342442 0.07914285 -0.5659958 -0.019771697 0.23216873 0.04972089 0.24307598 -0.34015965
-0.08134332 -0.15255538 -0.31887364 -0.08151256 -0.03195979 0.22727612 -0.13658005 0.27620533
-0.09097156 0.2440237 0.04780851 0.11873954 0.27727658 0.031786453 -0.12006898 -0.38342443
0.1692739 0.019757697 0.14964405 0.14032933 0.8353271 -0.055331253 0.34219944 0.18453294
0.13452557 0.15368989 -0.26226366 0.06393582 -0.24877176 0.100499384 0.07456666 -0.5759672
-0.24752763 0.07258965 0.21727706 0.29089808 0.14010613 -0.115070015 -0.2740258 -0.20611134
-0.43043116 0.103244476 0.31728554 0.6096814 -0.21161264 -0.22437786 0.34399992 0.064147316
-0.42370313 0.21356028 -0.18011175 0.11983983 -0.08370324 -0.099798806 -0.088991165 0.23176692
-0.46808016 0.27671003 -0.21786788 -0.19393717 -0.015430542 0.049669266 -0.1517653 -0.06308515
-0.038492925 -0.46602106 0.10953388 -0.31321582 0.019407848 -0.3944897 -0.23160279 -0.31388626
-0.21545829 -0.13148096 0.1620405 -0.13799287 0.38493964 -0.38765708 0.049501788 0.17192478
-0.2184264 0.12809671 0.022647064 -0.1441339 -0.19268489 -0.14340468 -0.03835229 -0.050208665
-0.09693103 0.3065883 0.16125584 0.17911166 0.09844865 0.115331806 -0.14203873 -0.15066135
-0.055435214 -0.031645022 -0.10566068 -0.024899885 -0.058181595 -0.1241145 0.22694744 -0.04509949
0.07838374 0.2309233 -0.08071774 -0.020153958 -0.02348395 0.19129586 -0.071739934 -0.5456163
-0.21777712 0.089018896 -0.041745853 -0.28881586 0.23289911 0.36759132 -0.3400118 -0.3828519
0.101962194 0.13524383 0.22577174 0.3315123 -0.17554967 -0.18575917 -0.20399223 -0.024929328
0.14462352 -0.10103303 0.20228527 0.28544885 0.12610587 0.05412464 0.094404444 -0.14837955
0.071344145 -0.26332518 -0.14796735 -0.12505282 0.25123164 -0.347254 -0.031540517 0.12989424
0.19921906 0.081192605 -0.18944831 -0.43065643 0.11984395 -0.26286468 0.15908958 -0.048490573
0.0004857032 -0.2563487 0.4356955 0.08690756 0.064600095 -0.109815076 0.29291135 -0.14085937
0.16308504 -0.13175356 -0.12191893 -0.03917015 0.21829091 0.10517806 0.25295138 -0.06730549
0.06894663 -0.17780806 -0.08592363 -0.31600463 -0.2091378 0.011171013 0.33433503 0.13356884
-0.26950502 0.10585077 0.2689016 0.22876962 0.110091135 0.19887726 0.084003076 0.06896092
-0.5383317 -0.624769 -0.029153911 -0.06068789 0.35785547 -0.43718278 0.09807825 0.13561106

bias f4 [20]
00000000: cf7e b1bd 4e54 d5bd 0e53 9bbe 54d1 973c
00000010: f529 473d 7129 94bd 9ee9 b5bb 50fb 34bd
00000020: 4658 fc3d 80ee 063c 0abf 153d 1809 e13c
00000030: 75e4 31bd 186d a0bc be68 0cbd f188 d6ba
00000040: 18c5 50be 43dd a63c dd86 50bd 4262 f43b
-0.08666765 -0.104164705 -0.30336803 0.018532433 0.048623998 -0.07234467 -0.005551531 -0.044184983
0.12321524 0.008235574 0.036559142 0.027470157 -0.043430764 -0.01958327 -0.034279577 -0.0016367716
-0.20387685 0.020369178 -0.050909866 0.0074580023

weight f4 [20, 20]
00000000: 00c8 013e 805e 16bd ef41 76bb 0ecd c8bd
00000010: 1731 73bd 226c 9cbe 7c24 25be 327f de3e
00000020: b465 98be 251d 8f3e 495b d4bd 81c1 9abe
00000030: a339 4e3e 57f2 4bbd 0cfd 263e 9a21 3e3d
00000040: 59fb b1be a62f 233e ec7a c43d b044 f6bc
00000050: d4a1 2d3e 9712 713e 74c1 963e 7111 733d
00000060: 53eb 50bd 32c4 bb3c ec57 febb 2cd0 1b3e
00000070: 26f4 003e fc5c 383e c2db bdbe b746 553d
00000080: 3e03 0b3f a1f4 4cbe 4f09 40be cd14 15bf
00000090: 36f2 79bd cddf bc3e c112 adbd 2164 043e
000000a0: 0789 5a3d 0b5b 363e b9a6 e13e 8729 633d
000000b0: 943f 84bd 957b f43e 5f2e 8abe 2a94 d5bd
000000c0: 89d6 4c3c 071f cdbe f0b7 19bd be0f 1e3c
000000d0: 4f48 123e 025d 64bd 3ceb 65bb a559 b3be
000000e0: 029a e7bd a728 e5bd 9a19 78be 9129 91bd
000000f0: ca20 a43d 8f90 3abe a239 34bd 161d 0fbe
00000100: 116f 823c 7273 d3b9 1bc0 d53d e0ec 28be
00000110: 1b03 bf3e 2a69 79be adc0 2f3e d3d8 b13e
00000120: f685 babe 772b 633e be9f a6be b14c 61be
00000130: d8d9 11bd 2a2c 833e 8c3c 03bd da98 9abd
00000140: 546c 2b3e 1d66 48be 0755 44bd 3694 48bc
00000150: 8da3 3a3e ea96 533e e0a9 d63e f4f6 9f3e
00000160: 478f 09bd 9d87 c4be cef3 8ebc 5ed2 ab3d
00000170: 333f 823e e985 133e 7948 bcbe d272 ab3d
00000180: 3736 52be 5526 a1bd f6ad cc3e 3f50 9e3e
00000190: c795 0dbe 5f8f 5b3e 0c11 d53d 9910 613d
000001a0: f000 3abe be6e edbd 5d3b 2abe d3e4 473e
000001b0: da21 84be 7c97 17be 437c 2f3c d84e 593d
000001c0: 2055 a43e 14ee d6be 625e cc3d 3fe1 8f3d
000001d0: b872 be3d 271a fe3e 9bed 09be 32e3 513d
000001e0: 3783 dc3e 96e0 c3bd e42b 96be 1880 823e
000001f0: 0c36 873e 6885 853e e2c1 a73d 6551 1a3d
00000200: 9702 0fbd f6be e2bd 9b47 403e 084f aa3e
00000210: cacd aebe af77 eb3d 2bfe 26bd e43a f03d
00000220: 0d8e dabd a4ee 633e 712d 113d fb6f c23d
00000230: 377b c0be 89e4 1dbe b198 ab3d b89a a43e
00000240: 785e b2be 8148 033e 7e57 823e f5d1 423e
00000250: ef4d e1bd 7f79 053d a66e a13d 8ebe 2dbf
00000260: 9e48 97be e470 2b3d 727f b13d 3e62 e8bd
00000270: 45b0 f93c 98ce 7a3d 7e12 dd3e a3cf a3be
00000280: 1542 1cbe e980 b43e 6dd5 ab3e 3df9 953e
00000290: 5964 8abd b75f cc3d 9cc0 a23e 34f9 1abe
000002a0: 632f 3cbe f732 9dbe b44d 87be 18c8 643e
000002b0: 8182 c83e 9ae0 bcbe 09f8 b0bd d80f 683e
000002c0: 5d3a f03d 20e8 ebbd a3f3 44bd a8c3 183b
000002d0: edce bcbe 3d13 893e ebb4 0ebd 49e4 aebe
000002e0: 0fa3 133e 43be a9be fa20 4a3e 624e ba3d
000002f0: 59f4 923d f8ba 253e 9aa9 3ebe cd34 c63e
00000300: 1cb5 11bd c30e a4bc 340a c63d 28a3 55be
00000310: 20d3 6c3e 664f 7bbe 0ca6 b5be cf32 1cbd
00000320: b57c 3b3d b1d3 6c3e b697 5d3e ef63 3ebe
00000330: 7bf7 00bf 7db5 0dbf 0245 953e 5f63 9e3d
00000340: 22ce ae3d babe af3e b4c6 25bd eb4d 0fbe
00000350: 32f6 483e 55dd 003c 5380 ae3e 44b6 babe
00000360: af29 fd3d eaa9 b8be bd9c 993e 85d1 263e
00000370: b863 363e 0816 6f3d 0d42 c83e 3dbe c9bc
00000380: 13e0 713c d99b ea3e 6056 c2be c4cd ccbe
00000390: 91aa 1e3e 7016 4dbe 2657 813e 8656 6a3e
000003a0: 1ca9 1c3f 1662 733e 30ce d23e bbe5 9cbd
000003b0: 8cd6 fcbe a0c3 813e aa1e 3dbe 2af8 d6bd
000003c0: 697f d93e 9251 743e aa3e 0dbe 79a4 00be
000003d0: 78cf 443d 793c b43d 99a9 613e b1f3 6abe
000003e0: 16a0 883e c67d 623e badb 9e3d 7e98 ca3e
000003f0: 6be3 7b3e 8c97 eabb ef91 80be c1cc 0c3f
0.1267395 -0.036711216 -0.003757592 -0.09804736 -0.059372988 -0.3055125 -0.16127199 0.43456417
-0.29765093 0.27951923 -0.10368974 -0.30225757 0.20139174 -0.04979166 0.16307467 0.046418764
-0.34762076 0.15936145 0.09593758 -0.03006205 0.16956264 0.23542248 0.29444468 0.059342805
-0.051005673 0.022920702 -0.007761946 0.1521613 0.12593135 0.1800422 -0.37081724 0.052069392
0.5430182 -0.20015194 -0.18753551 -0.58234864 -0.061022006 0.36889496 -0.08450843 0.12928821
0.053353336 0.17808168 0.44072512 0.055459525 -0.06457439 0.47750536 -0.26988503 -0.10428651
0.012502321 -0.40062734 -0.037528932 0.009647308 0.14285396 -0.05575276 -0.0035082838 -0.3502933
-0.113086715 -0.111893944 -0.24228516 -0.07088006 0.080140665 -0.18219207 -0.044000275 -0.13975939
0.015922101 -0.0004033107 0.10437032 -0.1649661 0.37307057 -0.24356523 0.17163344 0.34735736
-0.3643033 0.2218455 -0.3254375 -0.22001912 -0.035608143 0.25619632 -0.032040164 -0.07548685
0.16740543 -0.19570203 -0.04793265 -0.0122423675 0.18226452 0.20663038 0.4192648 0.31243098
-0.033583906 -0.38384715 -0.01745024 0.08389734 0.25438842 0.14406551 -0.36774042 0.083715096
-0.20528494 -0.078686394 0.39976472 0.30920598 -0.13826667 0.2144141 0.10403642 0.05494747
-0.1816442 -0.11593388 -0.16624208 0.19520883 -0.25807077 -0.1480388 0.010710779 0.053053707
0.32096195 -0.41978514 0.099789396 0.07025384 0.092992246 0.49629328 -0.13469546 0.05124206
0.4306886 -0.09564321 -0.2933036 0.25488353 0.26408422 0.26078343 0.08191277 0.03767528
-0.03491458 -0.11071579 0.18777315 0.3326342 -0.3414138 0.11497437 -0.040769737 0.117299825
-0.10671625 0.22259003 0.035443727 0.09494015 -0.37594005 -0.1541921 0.08378733 0.3214929
-0.348377 0.12820627 0.25457376 0.19025405 -0.11001193 0.03258657 0.07882433 -0.6786889
-0.2954759 0.041855708 0.086668864 -0.11346863 0.03047956 0.06123218 0.4317817 -0.31994352
-0.15259583 0.352546 0.33561268 0.29291716 -0.06757421 0.09979194 0.31787574 -0.15134126
-0.18377452 -0.30702946 -0.2642647 0.22341955 0.39162067 -0.36890107 -0.08641059 0.22662294
0.11729882 -0.11518884 -0.048083913 0.002330998 -0.36876622 0.2677249 -0.034840506 -0.34158543
0.1441767 -0.3315297 0.19739142 0.090969816 0.07175512 0.16184604 -0.18619385 0.3871216
-0.03557311 -0.02002657 0.09669915 -0.2086302 0.23127413 -0.24542007 -0.35478246 -0.038134392
0.045773227 0.23127629 0.21639904 -0.18592809 -0.50377625 -0.55355054 0.2915421 0.07733797
0.085354105 0.343252 -0.0404727 -0.13994567 0.19625166 0.00786527 0.3408228 -0.36467183
0.12361466 -0.36067134 0.30002394 0.16290863 0.17811477 0.05837062 0.39112893 -0.024626845
0.014762896 0.45822027 -0.37956524 -0.40000737 0.15494753 -0.2002809 0.252618 0.22884569
0.6119554 0.23767886 0.41172934 -0.07661005 -0.49382436 0.25344563 -0.18468729 -0.10496552
0.4248002 0.23859242 -0.13793436 -0.12562741 0.04804942 0.08800597 0.22037353 -0.22944523
0.26684636 0.22118291 0.07756753 0.39569467 0.24598472 -0.007159179 -0.25111338 0.5499993

bias f4 [20]
00000000: b65b dcbd 94c0 623d 8edc b7bd 630b 2f3d
00000010: 8a30 9d3b a230 abbb 1f93 fcbd 4d18 52bb
00000020: cbdb 5dbd a4be ff3c f71e 8bbd 1a74 20bd
00000030: c4b3 223d 800c ca3d baa5 d43d 4485 893d
00000040: 3c2e 5f3d ed68 84bd 9e21 063d 44b9 a63c
-0.1075968 0.055359438 -0.08977614 0.04273547 0.004797046 -0.0052243033 -0.123327486 -0.0032057941
-0.05416469 0.031218834 -0.067930155 -0.039173223 0.03972222 0.098656654 0.10383172 0.067148715
0.054487452 -0.064653255 0.032746904 0.020352013

weight f4 [1, 20]
00000000: 1866 c9be 9b72 43bf 4856 f2be 0bd1 103f
00000010: 6556 823d 0ac1 e6be 6c47 533f 1119 1bbf
00000020: a2af c4be adb9 923e 241f bcbe d401 a7be
00000030: 4f90 843e 8c99 b1bf 8279 43bf c3d9 d43e
00000040: d739 043f 1ffa 563f e947 ba3e 3379 31bf
-0.39335704 -0.7634675 -0.47331452 0.56568974 0.06364135 -0.45069152 0.82530856 -0.60585123
-0.38415247 0.28657284 -0.36742508 -0.32618582 0.2589135 -1.3874984 -0.7635728 0.4157239
0.51650757 0.83975405 0.36382988 -0.6932556

u_b f4 [2]
00000000: 1897 3940 0ad7 1f42
2.899847 39.96

l_b f4 [2]
00000000: f593 193d 0000 0000
0.03749462 0.0
