Iter_03/Models/Noise_5/simulation_00_03/ff_800.pt (torch, 53405 bytes, 23 tensors)

weight f4 [20, 2]
000000 09 e8 a4 3e 46 4d 7b 3e 99 3f 24 bd 40 b0 8c 3a
       0.3220828 0.24541196 -0.040099714 0.0010733679
000010 92 56 74 be 43 5e 49 bf 79 73 c6 3e 32 78 12 40
       -0.23861149 -0.78659457 0.38759974 2.2885861
000020 e4 5c 83 3d aa 48 07 bf a6 9b d8 be b6 84 9f be
       0.06414202 -0.5284525 -0.4230625 -0.31155938
000030 f5 2b 8b be 19 20 8b be 43 1d f2 3e 58 e1 6e bf
       -0.27181974 -0.27172926 0.4728795 -0.933126
000040 39 c6 f4 3e 68 f1 43 3f 4d b2 6c be ee 18 ca be
       0.47807482 0.7654023 -0.23114891 -0.39472145
000050 00 4f 07 3e 29 59 14 3e 11 2a 21 be 17 c7 b4 bd
       0.1321373 0.14487137 -0.15738703 -0.08827036
000060 a0 98 3b be 44 3d 72 bf 28 dd 32 3d 82 21 29 3d
       -0.1831994 -0.94624734 0.043667942 0.04129172
000070 14 70 d3 3e c5 78 6f 3f 35 1f 62 be 80 ca 6d 3e
       0.41296446 0.93543655 -0.22082217 0.23221779
000080 ea c4 00 3f dc 5f c1 bf ce 3b f2 be e3 c1 6a bf
       0.50300467 -1.5107379 -0.47311252 -0.917021
000090 1d f8 fa bc 67 61 c9 bd 05 1c fb 3d df 22 5f bf
       -0.030635888 -0.09833031 0.12261204 -0.87162584

bias f4 [20]
000000 e1 e3 46 bf 3b 3d 05 bd 54 5a e7 3e b5 91 dc 3f
       -0.77691466 -0.032529097 0.45186102 1.7231966
000010 61 d7 aa bc b2 cb 3e 3f 2d 19 b0 3e 33 67 87 3f
       -0.020854654 0.74529564 0.34394208 1.0578369
000020 6a bc 07 bf 09 48 2f 3c 62 3e ed 3d c0 80 b0 3d
       -0.5302187 0.010698327 0.11584164 0.08618307
000030 4b 4d f8 bd 68 a4 bd be 12 24 49 3d fc 28 4e 3e
       -0.121241175 -0.37039495 0.049106665 0.20132822
000040 64 0e b4 bd cb 62 45 bf 7f 9c 45 bd 29 36 2b bc
       -0.08791807 -0.7710387 -0.04824495 -0.0104499245

weight f4 [20, 20]
000000 16 53 a2 3d 48 f6 9f 3d ef 57 9a be 39 ee 83 bd
       0.07926004 0.07810646 -0.30145213 -0.06441922
000010 10 73 5d 3d 72 d7 0b 3e 20 5d 72 3e 56 1b f1 bd
       0.05406481 0.13656405 0.23668337 -0.11772792
000020 14 9a af 3e 10 3d a0 3e 7c 26 96 3e 75 48 17 3e
       0.3429724 0.31296587 0.29326236 0.14773734
000030 05 12 8c 3e 79 ef 84 3b 23 57 24 3f 44 60 21 be
       0.27357498 0.0040568677 0.6419546 -0.15759379
000040 54 4e b9 be 56 09 1c bf 14 9b cd bd c2 13 64 3d
       -0.36192572 -0.60951746 -0.100393444 0.055682905
000050 55 99 ac 3e e5 41 54 3d 2f 2c d9 bd a5 76 00 3e
       0.33710733 0.051820654 -0.106041305 0.1254526
000060 a0 d7 a8 bd 16 ab b5 be 35 41 09 bf cb c8 02 be
       -0.08244252 -0.3548209 -0.53615123 -0.12771909
000070 f9 d1 80 3e 6d 84 22 be 52 74 cf bc 34 48 b2 bc
       0.25160196 -0.15870829 -0.02532402 -0.021762945
000080 68 ea e7 bd 70 c1 1b bd e0 72 8d be cb 26 97 3e
       -0.11324006 -0.038026273 -0.27626705 0.29521784
000090 39 a8 b0 3e 88 1f 93 3c 04 1f 1f 3d 39 b2 8e 3d
       0.34503344 0.017959371 0.03884794 0.06967587
0000a0 2c 7c 85 3e 6d ca 34 3e db 6d 29 be 7b 2b 1d bf
       0.26071298 0.17655344 -0.16545813 -0.6139447
0000b0 ec 5e 15 3f d2 71 9c bd 05 e0 d3 3c fd 79 31 3e
       0.58347964 -0.07638897 0.025863657 0.17331691
0000c0 d7 97 2d 3e 45 80 40 be ca 06 65 be 0a 9c 59 3e
       0.16952454 -0.18798931 -0.22365871 0.2125093
0000d0 a4 6d 89 be 62 64 9a 3b f8 2d 00 3d 08 d1 d9 bd
       -0.26841462 0.0047116736 0.03129384 -0.10635573
0000e0 33 fc b7 3c 21 8c 0b bb 56 eb 86 3d 81 3a f1 be
       0.022459125 -0.002129324 0.065878555 -0.47114947
0000f0 f1 5d 8f 3e b0 81 8e 3d a4 3c 8c be 72 ec a6 3e
       0.2800136 0.0695833 -0.27390015 0.32602268
000100 8b 65 d1 3d e5 13 17 3e ae 5d ae be 1d 4f 08 3e
       0.10224446 0.14753683 -0.34055847 0.1331143
000110 cc 63 de bd b0 d8 d1 3d b2 29 f9 3d de 20 2a 3e
       -0.108588785 0.10246408 0.12166156 0.166141
000120 f9 61 a6 3e 3d bd 38 3d 59 75 60 bc 85 89 16 3c
       0.32496622 0.045102347 -0.013699853 0.009188061
000130 60 bb b9 be 1a 64 44 3d 16 c8 33 3e e6 9e 4b 3e
       -0.36275768 0.047947027 0.17556795 0.19884834
000140 5c d5 ff 3e da 21 25 bd 45 cc 6b 3e c3 ba dd bd
       0.49967468 -0.040315486 0.23027141 -0.108266376
000150 91 cb 01 be 2c 27 80 be 5f 95 1d 3c 1e 20 29 3f
       -0.1267531 -0.25029886 0.009618132 0.6606463
000160 19 0b 3c be 26 a6 06 be a2 0d 1b 3e 78 89 08 be
       -0.18363608 -0.13149318 0.1514192 -0.1333369
000170 2b 61 ec bb 93 c2 b4 bd dc 12 50 be d2 59 85 3e
       -0.0072137318 -0.088261746 -0.20319694 0.2604509
000180 16 39 d3 3b 18 ae d1 3e c0 d1 16 bc c3 8a c7 3e
       0.006446014 0.40953135 -0.009205282 0.38973054
000190 a7 6e 07 be 7f 49 d5 3d 11 c0 a5 3e a8 13 04 bf
       -0.13225804 0.10414409 0.32373098 -0.51592493
0001a0 95 67 5a 3e 7e 5b 99 3e fc 00 e6 bd 94 a8 e0 bd
       0.21328576 0.29952615 -0.112306565 -0.10969654
0001b0 8c 32 15 be f1 9b 26 be 3e cd 6a 3d fc f7 cd bd
       -0.14570063 -0.16270424 0.05732464 -0.10057065
0001c0 5c 79 31 be f9 eb 32 be 66 a9 20 3f 28 21 e5 3c
       -0.17331451 -0.17472829 0.6275848 0.027969912
0001d0 fe 2b 9d be a1 9a b2 3d f2 1b 19 3e 35 ab 81 3e
       -0.30697626 0.087208994 0.14952067 0.25325933
0001e0 fb f2 d3 be 65 cb 1d bd 27 45 f3 3b 56 cd ba 3b
       -0.41396317 -0.03852405 0.007424015 0.0057007475
0001f0 1d ae d2 bd 9e 4e 08 bf 6e dc 4e 3e 27 02 c5 3d
       -0.10287116 -0.5324496 0.20201275 0.09619551
000200 9b a8 8e 3e 36 da 85 be bf 70 21 3e 68 16 22 be
       0.2786301 -0.26143044 0.15765665 -0.1582886
000210 08 de d3 3c bb 32 8e bc 80 3c 80 3e 9c 18 72 3d
       0.025862709 -0.017358175 0.25046158 0.0591055
000220 03 33 58 3d a7 48 68 be 8c 7a 94 3d 87 f3 24 be
       0.052783024 -0.22683965 0.072499365 -0.16108523
000230 fa bc 91 3e 84 d1 fe 3e 57 ac 81 3e dd cc 8d 3e
       0.2846449 0.49769223 0.25326797 0.2769536
000240 81 a5 81 3e b8 15 e2 3c e2 5d db be 5e 03 29 3e
       0.25321582 0.027598247 -0.42845064 0.1650519
000250 25 24 b2 3c 52 c4 a2 bc 6e 53 03 3e 06 f8 ed 3d
       0.02174575 -0.019869003 0.12824795 0.11619572
000260 cc 07 5e 3e b3 5e 4a be fa a8 96 bd 58 a2 95 be
       0.21682662 -0.19762687 -0.073564485 -0.2922542
000270 14 04 66 bd 8a b6 0f 3e 3f 3d 4e be d0 e8 80 3e
       -0.056156233 0.14034477 -0.20140551 0.25177622
000280 cd 32 a3 3e 83 ad 22 bd a0 20 21 3c 0c 1b 0a 3e
       0.31874695 -0.039716255 0.009834439 0.1348688
000290 5f f8 9c be 11 bb 9f bd 98 71 9b be 39 9a 9a bd
       -0.30658242 -0.07799352 -0.30360103 -0.07548947
0002a0 cd 52 3c be 24 87 ba bd 3e ab 34 3e 5f 1d 24 3d
       -0.18390961 -0.09107807 0.17643449 0.040067073
0002b0 38 e6 ab 3c d8 c0 af 3d 30 a2 17 be c5 87 8a 3e
       0.0209838 0.08581704 -0.14807963 0.2705671
0002c0 26 85 10 3e 82 18 23 3f d4 10 ff 3d da d1 4d be
       0.14113292 0.6370927 0.124543816 -0.20099583
0002d0 bb 3b 43 3e 8d ef a2 3c 13 e2 c1 3e e1 39 3e 3c
       0.19065754 0.019889617 0.37867793 0.011610479
0002e0 a1 95 07 3f 37 8b 5d 3e f3 cd ac 3d 7a 07 96 3e
       0.5296269 0.21635137 0.08437719 0.2930258
0002f0 7b 35 e7 3e f1 33 dc 3d 35 bd f1 3d bd e8 b2 be
       0.4515799 0.107520945 0.118036665 -0.3494319
000300 99 5a df bd ee 94 a5 3e 83 50 48 bd 5d 07 04 bd
       -0.10905952 0.32340187 -0.048904907 -0.032233585
000310 cc d6 15 3f 58 28 42 3e f2 69 61 be 6d 16 5a 39
       0.5853088 0.18960702 -0.22013071 0.00020798454
000320 e2 d7 c0 bb 68 93 95 3e 49 59 db be a8 39 3b 3f
       -0.0058851102 0.29214025 -0.42841557 0.7313485
000330 6b 98 11 bf 07 d5 b7 be 2a 4c 24 be 01 d1 cc be
       -0.56873196 -0.35904714 -0.1604468 -0.40003207
000340 74 e3 2c 3f 01 e5 f5 be 9e da 58 3d 2a 67 06 bd
       0.67534566 -0.4802628 0.052942865 -0.03281323
000350 e3 88 25 bf 31 83 34 be a8 c0 8e be 97 22 b5 3c
       -0.64662 -0.1762817 -0.2788136 0.02211122
000360 34 03 93 bf 62 41 8c 3c 59 dd e6 3d f0 df bf be
       -1.1485353 0.01712102 0.112726875 -0.37475538
000370 36 d1 e1 be 49 fb 3e 3e 33 31 a8 3e 35 4c 6c 3d
       -0.44104928 0.18650545 0.32850036 0.057689864
000380 1b 5e c5 bd 64 9e fa 3c d0 c2 bd 3d 64 a5 0f be
       -0.0963709 0.030593105 0.09265673 -0.14027935
000390 4f 6b 8a be 10 25 cf 3e 6e 1d 90 3d bb c5 e2 3e
       -0.27034995 0.40457964 0.07036863 0.4429148
0003a0 2d 5d a2 bd 75 f6 18 bd 8c 9d 83 3e 9d 7f 92 be
       -0.07927928 -0.037344415 0.25706136 -0.28612986
0003b0 c1 eb 3d be 76 93 da 3d 60 47 5a 3e ce 42 88 3b
       -0.18546964 0.10672657 0.2131629 0.0041583544
0003c0 1d 88 e7 be 34 e6 da 3d 8a a0 44 3e 63 20 87 be
       -0.45221034 0.10688439 0.19201866 -0.26391897
0003d0 2d 4e 79 be 35 a5 d2 3e d3 80 18 3d 0c 3e 60 be
       -0.24346228 0.41141668 0.03723223 -0.21898669
0003e0 d9 93 6c 3d c2 9c 61 3e fc e5 23 be 2d b5 8a 3e
       0.057758186 0.22032455 -0.16005701 0.2709135
0003f0 f0 9c 5d 3e d8 9c f2 bd 23 2f 58 3d 23 a5 a2 3d
       0.21641898 -0.11846322 0.052779328 0.079416536

bias f4 [20]
000000 42 eb 57 be 1d 2c 07 bf a3 fc 42 bd fd e0 77 bc
       -0.21085837 -0.52801687 -0.047604214 -0.015129325
000010 f2 f0 62 3c 2b 18 0c 3e d2 b1 6e 3e aa 19 4d 3e
       0.013851391 0.13681094 0.2331002 0.20029321
000020 28 16 4a 3e 40 03 86 3e 9e 4f c9 3e 19 21 b1 3e
       0.19735014 0.26174355 0.39318556 0.34595564
000030 99 e9 b0 bc 08 ad a4 3e b5 46 f3 bd 46 87 3f bd
       -0.021595763 0.32163262 -0.11878721 -0.046759866
000040 9d e9 df 3e e6 34 4d 3d b3 d8 10 bf a0 80 82 3e
       0.4373292 0.050099276 -0.56580657 0.25488758

weight f4 [20, 20]
000000 a5 88 96 3e 13 74 e2 be a5 6a 3e 3c c6 f6 2b 3e
       0.29401127 -0.44229183 0.011622106 0.16793355
000010 96 bd 71 be 30 92 a2 bd ae c5 5c 3e 49 53 b1 3e
       -0.23607478 -0.07938039 0.21559784 0.34633854
000020 96 ab 1a bf fa 89 29 3e a8 1d 60 3e 17 c6 de 3e
       -0.6041807 0.1655654 0.21886313 0.43510506
000030 5c 43 93 3e f6 63 a4 3e 13 78 80 3e ae f3 8d bc
       0.2876233 0.32107514 0.2509161 -0.01732811
000040 e4 22 b5 3e 9d 7c a9 bd 4a 2d 3b bd 48 37 9d be
       0.35378182 -0.08275721 -0.045697488 -0.3070624
000050 ff 95 8d 3e 13 9f 80 bc 7a f0 07 3e d0 55 30 bd
       0.276535 -0.015700852 0.13275328 -0.043050587
000060 23 90 25 bd 47 16 b1 3e 4f a5 57 3e 14 7f 85 be
       -0.040420663 0.3458731 0.21059154 -0.26073515
000070 ec da cd bd 34 19 94 3e d8 98 b7 be f8 e7 b9 3e
       -0.10051522 0.28925478 -0.35858798 0.3630979
000080 6f d9 61 bd c7 ea e8 bb 72 41 fb bd 20 62 ed 3e
       -0.055139 -0.0071080658 -0.12268342 0.46363926
000090 87 cf bc 3c 0e 76 fb 3e 6a 7a c8 3e 95 a3 4c 3d
       0.023048175 0.49113506 0.39155895 0.04996069
0000a0 2d e5 b8 be b8 0e f2 bb 33 eb 4e 3e 37 79 9a be
       -0.36112347 -0.0073870085 0.20206909 -0.30170605
0000b0 38 1c f4 3d 69 f4 2d 3e cf 43 21 3e 89 51 48 3d
       0.11919445 0.16987766 0.15748523 0.048905883
0000c0 09 e6 31 3e 58 28 f7 3e 87 c8 44 bf 28 fe b2 be
       0.17372908 0.48272967 -0.7686848 -0.3495953
0000d0 29 4a 39 be 4b 08 09 3e 29 f6 d3 3d da aa d6 3e
       -0.18094696 0.1338207 0.10349686 0.41927224
0000e0 88 3a b4 3e af cc 88 3e c0 de 65 3c 4c 89 53 3e
       0.35200906 0.2671866 0.0140301585 0.20657843
0000f0 20 bb 87 3e 97 a5 26 be 2a 5f 26 be ad b6 7d bd
       0.26509953 -0.16274105 -0.1624724 -0.06194179
000100 53 b7 ac be d6 f6 cc bd 70 84 0a bf f0 32 d1 be
       -0.33733615 -0.10008018 -0.54108334 -0.40859175
000110 06 24 98 bd c3 ba 93 be 86 40 6a bc ca ed 55 3d
       -0.07428746 -0.28853425 -0.01429761 0.052228726
000120 dd 4a 0f bd 7a 65 57 3e be 8d ac bd cf fc f9 3e
       -0.034983505 0.21034804 -0.08425473 0.4882569
000130 b1 f4 03 bb 03 c6 c1 3a 1f f1 1b be ff eb ec 3e
       -0.002013486 0.0014783744 -0.15228699 0.462738
000140 63 fc 6a 3e 89 b4 2c 3e e6 d5 d6 bc 84 00 7b 3d
       0.2294784 0.16865744 -0.026225042 0.06127979
000150 c5 d6 ba 3e 37 95 c0 be a0 f9 f9 bd 19 14 e3 bd
       0.3649198 -0.37613842 -0.12205815 -0.11087818
000160 35 9a 7e 3e 8b 00 ed bd e7 73 98 be 96 66 f2 be
       0.24863513 -0.11572369 -0.29775926 -0.47343892
000170 08 05 00 be fa 6e 2d bf 1f dc 1a 3f c4 0d d2 bb
       -0.1250192 -0.6774746 0.6049213 -0.0064103324
000180 42 9b 78 be 5a 0f b4 be e7 bf 06 3f 66 cc 07 3e
       -0.24277976 -0.35167962 0.5263657 0.13261566
000190 27 f7 28 be f6 c4 ac bd 06 cc b0 3d 83 87 6c be
       -0.16500531 -0.08436005 0.086326644 -0.23098569
0001a0 70 56 b5 be e1 03 85 3c c8 df 5f 3d 55 50 d5 be
       -0.3541751 0.016237201 0.054656774 -0.4166285
0001b0 87 eb a2 3d b7 0f 2a 3c 68 99 be be bc 0b f0 bc
       0.079550795 0.010379723 -0.37226415 -0.02930247
0001c0 91 82 ce 3e 2a 2f 0c 3e c1 09 a7 3e 8b ae a2 3d
       0.4033399 0.13689867 0.3262463 0.07943448
0001d0 d8 ff c2 3d b4 e4 49 3e 4e 2b 3a 3e 79 72 dc be
       0.095214546 0.1971615 0.18180582 -0.43056086
0001e0 b0 35 af 3e 42 d4 0b be 7e fb 16 3d 98 a9 49 3e
       0.34220648 -0.13655189 0.036860935 0.19693601
0001f0 bd e7 a1 3c 4a 7e fd 3c b1 fa 11 be a5 5b 46 3e
       0.019763822 0.030944008 -0.14255787 0.19370897
000200 18 28 6a bd 01 6c cc bc a7 60 bb 3e 6c f2 5a 3e
       -0.057167143 -0.024953844 0.36597177 0.21381539
000210 4b 0f 0b be 13 cc 9a 3e 09 d5 96 be eb c0 df 3e
       -0.13580053 0.3023382 -0.29459408 0.43701872
000220 b0 b2 b6 3d f3 7c 2b bf 25 01 c2 be b5 7e a9 3d
       0.08920801 -0.6698753 -0.37891498 0.082761206
000230 4d cf 4f be 20 63 80 3e 6e ff ed bd 2c 6e 71 3e
       -0.20293923 0.25075626 -0.11620985 0.23577183
000240 31 57 a2 3d b4 bf c6 bd 23 41 7d be 53 9d a2 3e
       0.07926787 -0.09704533 -0.24731879 0.31760654
000250 24 28 d0 3e bd 84 14 3e 75 e0 00 3e 49 d0 18 be
       0.40655625 0.1450376 0.12585624 -0.14923204
000260 4c ca 98 bd ae a3 bf bd 95 be 31 3e 68 d4 e3 3d
       -0.0746046 -0.09357391 0.17357858 0.11124498
000270 a7 f0 15 be 23 ee c1 3e cd 72 a9 3d f6 1d 81 bc
       -0.14642583 0.37876996 0.0827385 -0.015761357
000280 94 da 37 be dc 05 65 bc 26 9b 48 be 46 eb 02 3f
       -0.17954475 -0.013978448 -0.19590434 0.5114025
000290 e1 5e 8a 3e 0c 96 16 3e f8 80 a6 bd e5 1c 8d 3d
       0.27025512 0.14705676 -0.081300676 0.06890277
0002a0 5e 45 97 3e 0e 9f 9e 3d 05 6e fb bd 8a fd 15 3e
       0.2954511 0.07745181 -0.12276844 0.14647499
0002b0 8a e8 b7 be 5b 9d d1 be 7b bd c5 3e 9a cb 68 be
       -0.359196 -0.40940365 0.38621125 -0.22733918
0002c0 d1 23 a5 3d 03 46 36 be ae 74 d0 3e 76 d0 87 be
       0.08063472 -0.17800145 0.4071402 -0.2652623
0002d0 e9 ab 0d 3f 14 1d a0 be b5 fa 48 bd ca 32 4d bd
       0.5534044 -0.31272185 -0.049067218 -0.050097264
0002e0 ad 19 ba be bc 83 c1 3e 4c 49 92 be 4f c6 b6 3d
       -0.36347714 0.37795818 -0.28571546 0.08924543
0002f0 d6 d6 e9 bd 4d 66 07 bd ad 19 2d bd 3d 05 02 3e
       -0.1141793 -0.033056546 -0.042260814 0.12697311
000300 cb 90 fc bd 50 88 93 3d aa ed 6a be ee 64 b8 3e
       -0.123323046 0.07203734 -0.22942224 0.36014503
000310 df 70 1c bd 7c 61 e3 3d 57 ea e9 3b d6 ec 12 be
       -0.03819358 0.11102578 0.007138531 -0.14348158
000320 6c 29 65 3e 1d 87 8b 3a 75 67 25 3e f7 b4 1b 3c
       0.22379082 0.0010645125 0.16152747 0.009503595
000330 cf 7f bb bc bb 1b 0c 3e e8 3f e6 3d ea 6a f5 bd
       -0.022888092 0.13682453 0.11242658 -0.11983283
000340 56 a1 c9 bd 0d 68 67 3d 13 ca 04 be 94 36 07 3e
       -0.098452255 0.056495715 -0.1296771 0.13204414
000350 7e 59 28 3c 4c e3 71 3e c2 67 b6 be c5 0a ab 3e
       0.010275243 0.23621863 -0.35626036 0.33406654
000360 fe f6 0e 3d 5c 94 ab be 0e e6 78 be 34 b7 83 be
       0.03490352 -0.33511627 -0.24306509 -0.2572571
000370 ce e0 16 bd f3 ce 13 3e b7 51 f0 bc 4a 21 18 be
       -0.036835484 0.14434414 -0.02933584 -0.14856449
000380 1c ce 7c 3e b2 18 5e be 9c 65 4f 3c c9 0e 66 bc
       0.24688 -0.21689108 0.012658503 -0.014041611
000390 5e 30 ab be b9 f3 4d 3e e0 6c ce be 6d dc 51 be
       -0.3343534 0.20112504 -0.4031744 -0.20494242
0003a0 6e 3f 63 3e b3 3c 9a 3e 7b 4a b1 3d 1d 6c 70 3e
       0.22192165 0.30124435 0.08656784 0.23478742
0003b0 bd 32 b5 3d b6 80 4c 3f 01 d1 2b bc 1d f5 e9 3d
       0.08847568 0.798839 -0.010486842 0.11423705
0003c0 25 b7 d1 be 34 aa 47 3d e0 9b b8 be 89 2f b7 3d
       -0.4096004 0.048746303 -0.36056423 0.089446135
0003d0 79 f2 41 3e d7 74 a9 be 05 60 8d bd 82 9e c6 3e
       0.18940152 -0.33096954 -0.0690308 0.38792807
0003e0 06 84 61 3e 95 ed 6a 3e 9b c7 8c 3e c8 7a a3 bd
       0.22023019 0.22942193 0.27496037 -0.07982403
0003f0 bd 3e a8 be 0b bb 05 bf a8 c1 94 3e 06 8e 47 bf
       -0.32860366 -0.5223853 0.29053998 -0.77951086

bias f4 [20]
000000 50 14 90 bd cf 85 00 bd a7 6e fd 3d e6 3f ce be
       -0.07035124 -0.03137761 0.12374621 -0.40283126
000010 5b bf fb bd 92 19 0d bd 07 5c 60 3c 53 ca 61 be
       -0.122923575 -0.034448214 0.013693816 -0.22049837
000020 b6 37 f1 3b 2e b2 71 3e d8 0d dd bd f3 c5 22 bd
       0.0073613776 0.23603126 -0.10793656 -0.03973956
000030 c7 01 71 be 5e 01 26 3e 8d 55 0d 3e 1f 31 91 be
       -0.23535834 0.16211459 0.13802166 -0.2835779
000040 9f 35 98 3e 2d 6c 95 3e 8d 9a fb bd 0c 0d 5d 3e
       0.2972841 0.29184094 -0.122853376 0.21587008

weight f4 [20, 20]
000000 1f 5d 3e 3c 86 49 30 3e 3f 7d 90 3e fc 09 2f be
       0.0116188815 0.17215547 0.28220555 -0.17093652
000010 84 f3 1e 3f 9b 0a 88 bc e9 90 91 3e 72 af 84 be
       0.62090325 -0.01660662 0.2843087 -0.25915104
000020 d9 ef 93 3e 17 7e ff 3c 07 51 15 3e c7 08 bb bb
       0.28893927 0.031188054 0.1458169 -0.0057078335
000030 3f 71 6f 3e da dc 5b 3e bd 3c 75 be 51 82 5e 3e
       0.23383044 0.21470967 -0.23948951 0.217294
000040 37 82 c4 3d 8c 69 d7 3e ff 5e 88 3e c1 9d 11 be
       0.09595149 0.42072713 0.26634976 -0.14220335
000050 53 f2 05 bd 8b 1f 5e 3d 70 a1 6c be e4 1a de 3c
       -0.0327018 0.0542293 -0.23108459 0.027112432
000060 d6 90 ae 3e 35 e8 ac 3e f7 b7 6a 3e 8b 0e 16 bd
       0.34094876 0.3377091 0.2292174 -0.036634963
000070 92 3d 9b bd d1 0e 67 bc d7 8c 8b be 53 8c 81 be
       -0.07580103 -0.014102654 -0.2725589 -0.2530237
000080 13 31 1f be 3a d1 c9 3e 5f 4e dd be e3 f9 bb bd
       -0.15546064 0.3941744 -0.43223855 -0.091785215
000090 27 d9 4a 3e 6a b7 87 3e a9 87 72 be 08 79 a8 3d
       0.198094 0.2650712 -0.23684563 0.0822621
0000a0 2e c6 c3 be 41 2a 99 be bd 48 31 3e 6d be e5 bd
       -0.38237137 -0.2991505 0.17312904 -0.112179615
0000b0 d6 b5 fd bd 53 8d 80 3e 39 72 27 bf 58 d5 5c 3e
       -0.12388198 0.25107822 -0.65408665 0.21565759
0000c0 77 e5 a5 3e 0f a4 d5 3e 09 c0 61 be 59 b2 05 be
       0.3240163 0.4172673 -0.22045912 -0.13056315
0000d0 fc 37 64 3e 37 e9 31 be 32 e1 13 be 71 36 c2 bd
       0.22286981 -0.1737412 -0.14441374 -0.0948304
0000e0 be 91 02 bf 67 be ea 3e 1b 29 6f 3d 4f 41 2c 3e
       -0.51003635 0.4584839 0.05838881 0.16821788
0000f0 84 29 01 be f4 07 9e bd b0 a8 39 be 31 61 3e 3e
       -0.12613493 -0.07716361 -0.18130755 0.18591763
000100 e8 56 98 bd 44 b6 2a be 59 6b 3b 3e a6 6d 2c 3e
       -0.07438451 -0.16671091 0.18302669 0.16838703
000110 5c 6e 18 3d 03 fd 51 3e 03 88 95 3e ea c4 11 bf
       0.037214622 0.20506673 0.2920533 -0.5694109
000120 12 cc 42 3c dd b6 a9 3e 88 04 0e 3d 21 ce 08 3e
       0.0118894745 0.33147326 0.03467229 0.13359882
000130 93 5f 21 be b4 65 13 3f 5c 74 d0 3c 09 71 ff be
       -0.15759115 0.5757706 0.02544611 -0.49890926
000140 3a 6e da 3e 00 45 d0 be 09 5b d6 be 8e 25 1e 3c
       0.4266222 -0.40677643 -0.4186633 0.009652508
000150 b7 dd e6 3b 32 59 03 3e 7d 1f 31 bd 44 b5 37 3c
       0.0070454734 0.12826994 -0.04324292 0.011212651
000160 61 4d a0 3d 92 5f 1c be d7 7e 1d 3e 69 6c 01 3c
       0.07827259 -0.15270832 0.15380417 0.007899382
000170 32 73 c7 3d ce 02 af 3e 1a d1 ba bc 1e 74 08 3e
       0.09738769 0.34181827 -0.022804786 0.13325545
000180 c0 d7 a7 bd 87 bc 97 be 97 69 03 bf 8f 11 00 3e
       -0.08195448 -0.29636022 -0.5133299 0.12506698
000190 19 32 56 3d 18 4a e7 3c 05 21 f8 3d c9 24 0c 3e
       0.05229387 0.028233573 0.12115673 0.13685907
0001a0 bc 38 69 3d 3d 9c bd bc 44 98 06 be d1 ec 59 bd
       0.05693887 -0.02314579 -0.13144022 -0.05320436
0001b0 29 a0 25 3e fa e3 23 3e d6 76 2b be 4e ea 8d be
       0.16174378 0.16004935 -0.16744551 -0.27717823
0001c0 4b f7 9f be 6f 9a a5 3e 4c e3 3e be e2 02 52 be
       -0.31243357 0.32344386 -0.18641394 -0.20508912
0001d0 ff 9c b3 bd 89 ef 29 bd aa 63 b0 3e f3 52 99 3e
       -0.08770179 -0.041488204 0.34451038 0.29946098
0001e0 6a 2b da bd ed bf 99 3e 11 fd 74 bc 40 6b 11 be
       -0.10652812 0.3002924 -0.014952914 -0.14201069
0001f0 8e 3b a6 be cc e2 ab 3e ce 3e 11 bd 8d 41 a4 bd
       -0.32467312 0.3357147 -0.035460286 -0.08020315
000200 19 13 21 be 1e ad 59 3e 97 d2 5e be ed 8e e6 be
       -0.15729941 0.21257445 -0.21760021 -0.4503092
000210 57 ff c9 3e a6 32 a1 be bb b8 58 3e 6c f9 62 3e
       0.3945262 -0.31483954 0.21164219 0.2216546
000220 77 44 f9 3e c7 99 ef 3d eb bf a0 bd 1b c4 9b be
       0.48685047 0.116992526 -0.078491054 -0.30423054
000230 a8 d3 9c be 71 15 54 be 0a 99 04 bf 0d 76 85 3e
       -0.3063023 -0.20711304 -0.5179602 0.26066628
000240 7b ba 36 bf 8a 94 b1 3e f8 1b d6 3e b3 19 3c 3e
       -0.71378297 0.3468364 0.41818213 0.18369178
000250 63 38 cb bd 95 33 9f bd 65 17 ea 3e 6e 06 ae be
       -0.09922864 -0.0777351 0.45720974 -0.3398928
000260 2d c2 69 3e 4f 0d 64 be 8b 33 1c be 96 17 42 3e
       0.22827978 -0.22270702 -0.15254037 0.1895431
000270 7f f1 c5 3d e3 b4 99 be da fa f1 be 80 90 b8 bd
       0.09665202 -0.30020818 -0.47261697 -0.09011936
000280 ac c5 a9 3e 5e 38 be bd e1 4c 8b be 06 ef 89 be
       0.33158624 -0.09288095 -0.2720709 -0.26940173
000290 0d 1e 19 3e 9f 09 ef 3d f8 3d 2c be 89 95 20 be
       0.1495287 0.11671757 -0.16820514 -0.15682043
0002a0 4a 2c 76 3d 2f 49 69 bd a2 ed a7 3d 9f 2a e7 bd
       0.06010083 -0.05695456 0.08199622 -0.11287426
0002b0 4a b2 84 3e 39 4d 68 3e 3d 49 41 3e e2 83 9e bd
       0.25917274 0.22685708 0.18875594 -0.077399984
0002c0 18 85 fe bd ff 93 25 be 48 a7 27 3e fa 0e ea bc
       -0.12427729 -0.16169737 0.16372406 -0.028571595
0002d0 50 21 b2 3e 8e 3b d6 3d ab c6 44 3d 1c 0c 27 be
       0.3479104 0.10460578 0.048041027 -0.16313213
0002e0 b9 ba 1e be 14 9d 4f bd 4c af 23 be 98 e5 cd 3d
       -0.15500917 -0.05068691 -0.15984839 0.10053557
0002f0 b0 37 05 be 00 0b a6 3e f1 d1 18 be fc 9e 9d bd
       -0.13009524 0.32430267 -0.14923836 -0.076963395
000300 39 4b ef be d3 fe 68 3e fb a9 d5 3e ca d1 91 be
       -0.46737078 0.22753458 0.41731247 -0.2848037
000310 46 d3 0d be ae 3f 12 bf 9b 4e 0f be 95 cf c6 3d
       -0.13850126 -0.5712842 -0.1399483 0.09707562
000320 9d 17 1b 3e 9b 92 f6 3e f6 13 90 3e 1f 87 87 3e
       0.15145727 0.48158726 0.2814023 0.26470277
000330 31 4c c4 be a0 29 d4 3d 26 ba c7 3d 6a 44 eb bd
       -0.3833938 0.10359502 0.09752302 -0.11487658
000340 4f 2a 20 3e 90 a5 2e 3e ee 71 14 be d1 91 f7 bb
       0.1564114 0.17055345 -0.14496586 -0.0075552245
000350 0e 7b c6 bd 8e 80 03 3f ee e4 82 3d cd 3b 1d bf
       -0.096914396 0.51368034 0.06391321 -0.61419374
000360 ca cf 0f bd 9f ee 0d bf 95 70 cd bc ce 0a b1 bc
       -0.035110272 -0.5544223 -0.025078097 -0.021611597
000370 34 93 1e 3e 62 b3 83 3e 5c 32 2b bd a9 22 04 be
       0.15485841 0.25722796 -0.041796073 -0.12903847
000380 3c 32 5d be 43 fa 15 3e 3e 53 2f 3d 7c ed 50 be
       -0.21601194 0.14646249 0.042803995 -0.20403093
000390 53 18 74 be 24 d6 e7 bd 4a c8 8b bd 9a 94 9d bd
       -0.23837404 -0.11320141 -0.068253115 -0.07694359
0003a0 2e 24 14 be 9e 7e de bd 42 a5 af bd 22 b5 77 3e
       -0.14466926 -0.10863994 -0.08576442 0.2419019
0003b0 94 2c 01 3e bd fc 5a 3e 6d d0 8c be 70 c4 78 3e
       0.12614661 0.21385475 -0.27502766 0.24293685
0003c0 17 25 99 3e 9a fa 72 be 0a d0 ac bd 8f 7d fd 3d
       0.2991111 -0.2372841 -0.08438118 0.12377464
0003d0 b5 12 80 be 15 70 c4 be 5c b0 75 3e e3 21 9a be
       -0.25014272 -0.38366762 0.23993057 -0.3010398
0003e0 cd a5 5c 3e 44 c8 58 3d 07 b4 e2 bc c8 04 66 be
       0.21547623 0.052925363 -0.027673734 -0.22462761
0003f0 85 32 8e bd ae ee 86 3d cf ea ad 3e 5a 67 07 3f
       -0.069432296 0.06588493 0.33968207 0.52892077

bias f4 [20]
000000 67 e4 80 3e 1a bd 3e 3e 52 8a 51 3e 53 fa 80 3c
       0.25174257 0.18626824 0.20462921 0.015744364
000010 7e 20 f2 bc 80 6d 2a be 44 07 2f 3e ae 37 9e bd
       -0.02955651 -0.16643333 0.17092615 -0.07725464
000020 65 48 e3 bc 4e 51 db bb 4c f7 ff 3c ec f4 8a 3e
       -0.027744481 -0.006693042 0.03124585 0.27139986
000030 22 e6 22 bc 78 31 33 be d5 2c 69 bd a9 c5 99 be
       -0.009942563 -0.1749934 -0.05692752 -0.30033615
000040 1d c9 03 3b ce 86 6d 3d 6f 22 2b 3e 11 34 88 3e
       0.0020108887 0.057989888 0.16712354 0.26602224

weight f4 [20, 20]
000000 04 21 71 3e 8a 61 d2 3c 5f b1 dc 3d ed a4 b1 bd
       0.2354775 0.025681276 0.10776018 -0.08674035
000010 16 49 4d 3e 02 f8 fb 3d 2d f5 f8 bd 47 de da bd
       0.20047411 0.12303163 -0.121561386 -0.10686927
000020 be 35 e7 3e 0d 77 83 3d 03 4f 6e bc 34 a3 c0 3d
       0.4515819 0.064191915 -0.014545205 0.094061285
000030 b5 7a 73 3e 48 8f 43 be 56 df 4d 3e fe 28 39 be
       0.23777278 -0.19097626 0.20104727 -0.18082044
000040 5c 6b 98 3e f5 f5 21 be d2 4f e1 be 4e 1c 21 be
       0.2976941 -0.15816481 -0.4400621 -0.15733454
000050 4e eb 97 3b d9 19 7c be 23 c3 15 3e fb c6 5a be
       0.004636205 -0.24619235 0.1462522 -0.21364968
000060 01 b6 16 be 90 a0 8e bd c3 e4 b6 bd f7 dc 8d be
       -0.14717866 -0.069642186 -0.089303516 -0.27707645
000070 35 f7 ad 3e 6c 74 4e be f6 d6 4b 3d 87 da 38 be
       0.33977666 -0.20161599 0.04976555 -0.18052112
000080 c8 c3 5f be 33 da 05 3c be 66 be be 49 1b c2 be
       -0.21852028 0.0081696985 -0.3718776 -0.37911442
000090 6b d0 65 bd f7 fd b8 3e 76 18 67 3e fc 81 81 bd
       -0.056106966 0.3613126 0.22567925 -0.06323621
0000a0 13 74 bc 3e c7 b5 17 3e 63 af 60 be 6a 06 4e 3d
       0.36807308 0.14815436 -0.21941905 0.050299086
0000b0 5a bc f0 be cf e3 1c be ca 8e b8 bd 58 28 d6 bc
       -0.470187 -0.15321277 -0.0901161 -0.026142284
0000c0 78 e9 84 bd 03 43 f7 bb a5 28 ac 3b 40 78 b3 bd
       -0.06489843 -0.00754583 0.0052538686 -0.0876317
0000d0 76 da 02 bd 4a 13 ce 3e 65 2e b5 bd 5c 77 fc 3b
       -0.03194662 0.4024909 -0.0884674 0.0077046584
0000e0 11 b3 23 3d 6d 7b ec be c8 31 ed be ef 8b 4b bd
       0.039965693 -0.46187916 -0.46327043 -0.049693998
0000f0 dc ea 4a be 3e bc 8d 3e 97 62 ab 3d 40 73 a8 3d
       -0.19816154 0.2768268 0.08368414 0.08225107
000100 17 b8 7a 3e 24 07 7b be aa e0 8a bd 3d 34 a2 3e
       0.24484287 -0.24514443 -0.067811325 0.3168048
000110 3e 30 5f bd 08 1a 0c be ae 33 53 be bf c4 32 be
       -0.054489367 -0.13681805 -0.20625183 -0.17457865
000120 53 fd f9 3e 38 1f 98 3e 79 01 85 3e d8 85 a5 3e
       0.48826084 0.29711318 0.25977686 0.32328677
000130 fb 00 e0 bd 3f cc 17 3f f5 8a 01 3d ca 1f 56 3e
       -0.10937687 0.5929603 0.03162666 0.20910564
000140 1e 7b 47 be 0b c0 1d be 1b 6a fb 3e 51 d0 32 3e
       -0.19480559 -0.1540529 0.4910439 0.17462279
000150 82 22 1d 3d b5 a9 9d ba 31 33 b1 bd 37 4e 4a be
       0.038362987 -0.0012028726 -0.08652342 -0.19756399
000160 16 a9 81 3e 04 8b b6 be c2 55 98 be d0 4e bc bd
       0.25324315 -0.35652936 -0.29752928 -0.0919472
000170 bf c0 a6 be df a8 64 bd f2 c9 b2 be 27 e3 3f 3e
       -0.3256893 -0.05582511 -0.34919697 0.18738995
000180 e6 19 4a be d9 4f e9 bc ec 2a f4 be fe a7 37 bd
       -0.19736442 -0.028480457 -0.47688997 -0.044837944
000190 28 42 f5 be 0a 7e 8f 3d 39 44 4a 3e f7 6c fd bd
       -0.47902036 0.07006462 0.19752587 -0.12374299
0001a0 da 61 69 3e 2a 2a 1e 3d 83 db a3 be 9b eb 25 bd
       0.22791234 0.03861443 -0.32003412 -0.040507894
0001b0 62 86 38 3d 2a b1 2b 3e d1 cc d6 bd 30 1b ca be
       0.045050032 0.16766801 -0.104882844 -0.39473867
0001c0 fb d5 2b be 59 a8 1f 3e 44 f9 16 bd 3f 47 ec 3e
       -0.16780846 0.15591563 -0.036858812 0.46148106
0001d0 2d 39 78 bd 39 2a db 3d fb f3 fc bd e8 ba c6 be
       -0.060601402 0.10701413 -0.12351223 -0.38814473
0001e0 e9 2e 5d 3e cb f7 30 bd 9e 32 d9 3c 7e 41 bb bc
       0.21599926 -0.043205064 0.026513394 -0.022858378
0001f0 7d 87 aa be a0 c9 b8 3d e3 fd d3 bd a0 3c 92 3e
       -0.33306494 0.09022832 -0.103511594 0.28561878
000200 39 fe f8 3d 46 26 b8 3d e2 44 bd be ec a8 f5 bc
       0.12157864 0.08991675 -0.36966616 -0.029987775
000210 7f 87 68 3b b3 0d 00 3e 5c 69 1e 3e 57 7d db bd
       0.0035481153 0.12505226 0.15469879 -0.10717266
000220 a0 96 6f 3d 9f 73 f2 3e 4e c2 e9 3d d3 1d 76 3e
       0.058493257 0.47353837 0.11414014 0.24034815
000230 f3 5a 0e be f0 7c 08 be 61 66 3b 3e ad 8b a6 3d
       -0.13901882 -0.1332891 0.18300773 0.0813211
000240 ff 0c 3a 3e 4d 00 d9 bd 2b ca 92 3c 41 3d 17 3d
       0.1816902 -0.105957605 0.017918667 0.03692365
000250 bf 05 16 3e ae d7 e4 bd d6 41 2d be 29 4c 5a be
       0.1465063 -0.1117395 -0.16919646 -0.21318115
000260 9f b5 56 3e c1 28 8d bc b5 2f aa bd 05 0c c4 bd
       0.2096772 -0.017231347 -0.08309881 -0.09572605
000270 0d 1d a9 be 12 44 50 bd e6 fc 47 be 31 ae 61 3e
       -0.33029976 -0.050846167 -0.19530067 0.22039105
000280 de 15 9d be 13 9a 28 be 20 97 a3 bc 57 41 5f 3e
       -0.30680746 -0.16465025 -0.019969523 0.21802269
000290 d0 9a 91 bd 8a 82 99 be 9b 09 3f bb 59 6b b5 be
       -0.07109606 -0.29982406 -0.0029150012 -0.35433462
0002a0 8b 81 10 be ef f5 ba 3e f9 11 92 3e fc b7 51 be
       -0.14111917 0.36515757 0.28529337 -0.2048034
0002b0 7d 97 24 bd 40 76 76 3e 38 cb ad 3d 40 95 08 3d
       -0.040183533 0.24068546 0.084860265 0.03334546
0002c0 92 2d a3 bd b0 89 65 be b3 bb cd 3c d5 4f ce bc
       -0.07967676 -0.22415805 0.025113916 -0.025184551
0002d0 7e 10 a8 3d cd 19 56 3d ef 77 58 3e a7 20 05 be
       0.08206271 0.0522707 0.21139501 -0.13000737
0002e0 e2 74 0f be 26 cf da bc 17 ee 6d be 9d 4b 74 3e
       -0.14009431 -0.026710104 -0.23235355 0.23856969
0002f0 51 59 b2 bb 49 3d b0 be b3 30 2a bd d0 85 a0 bd
       -0.0054427763 -0.34421757 -0.04155035 -0.07838023
000300 cc 22 e6 be 8c 7f e8 3e 67 a8 3a be 62 50 34 3c
       -0.44948423 0.4540981 -0.18228303 0.011005493
000310 5b 66 0f be 01 ee 24 3c 18 b4 a9 be 35 fb 1e 3e
       -0.1400389 0.01006651 -0.33145213 0.15525515
000320 02 c6 e3 bd 5c 38 ca bd fe 9c bd 3e 54 4a 95 3e
       -0.11121751 -0.09874031 0.37033838 0.2915827
000330 da 41 26 be cf ec 8d 3e 3e 7f 8d bd 7a 86 92 be
       -0.16236058 0.27719733 -0.06909035 -0.28618222
000340 24 ce 15 3d 96 a5 7b be f6 8f 9b 3e 31 e1 bb 3d
       0.036573544 -0.24574885 0.3038327 0.09173811
000350 8e 8c a8 be 22 6f 1f be 8f 1f cb be c9 24 10 3e
       -0.32919735 -0.15569738 -0.39672515 0.14076532
000360 ad 91 65 3e 93 12 9f bd 7e 6d ae 3e 1e 6d 9e be
       0.22418852 -0.077672146 0.3406791 -0.30942625
000370 2b fb e9 be e1 e2 10 bd 11 00 2f bd a9 7d 30 3e
       -0.45699438 -0.03537262 -0.042724673 0.17235436
000380 5e a4 b9 be 05 2b 82 3d a8 24 25 be 03 95 00 3f
       -0.36258215 0.063558616 -0.16127264 0.50227374
000390 81 b1 37 be 21 c6 f8 bd 41 ae 72 3c 06 14 cf 3d
       -0.17938806 -0.12147165 0.014812053 0.10111241
0003a0 44 ee a3 3e 36 18 e0 3d da cd b3 3d 35 78 ab bd
       0.3201772 0.10942118 0.087794974 -0.08372537
0003b0 34 58 f9 3d e3 74 11 bd 5b 49 0a 3d 91 cc 8d bd
       0.121750265 -0.035511862 0.033761363 -0.069237836
0003c0 3f cc 5f be fa d1 20 be fc f3 72 3d 86 3b 03 be
       -0.21855257 -0.157051 0.059314713 -0.12815675
0003d0 e1 67 91 be a3 d4 a0 3e f9 aa 22 be 36 7c 2b be
       -0.28399566 0.3141223 -0.15885533 -0.16746601
0003e0 f9 78 ef 3d 98 ad 24 be 01 05 20 3c 9c 51 c8 bd
       0.116929956 -0.16081846 0.009766818 -0.09781191
0003f0 ca 2c a0 be 53 f4 8f 3e 8e fc e2 be 0b 01 e4 bb
       -0.3128417 0.28116092 -0.4433331 -0.006958132

bias f4 [20]
000000 dd 37 cf bb f9 47 2a 3d 05 83 53 bd db 3c 99 bd
       -0.006323798 0.041572545 -0.05163862 -0.074823104
000010 62 14 e0 bd b3 ea 36 be dc b5 d0 bd 07 6c 45 3d
       -0.10941388 -0.17862968 -0.10190937 0.048198726
000020 82 29 29 3d 68 0c b0 3d 80 84 65 3d d0 0c 19 bd
       0.04129935 0.08596116 0.056034565 -0.037365735
000030 38 90 40 be de 34 08 3e ab ab 27 3d d8 3f 67 be
       -0.18805015 0.13301417 0.0409352 -0.22582948
000040 89 6f 9d bc ad 8e 09 3d 3e 7f 84 be 60 83 6f bd
       -0.019218223 0.03358333 -0.25878328 -0.0584749

weight f4 [20, 20]
000000 92 93 77 3e b0 97 18 3d 0c 5b cf bd 2b 59 ec 3e
       0.24177387 0.037254035 -0.10124788 0.4616178
000010 a4 a3 23 be 23 e2 6c 3e d3 f4 72 3e 85 9b 4f 3c
       -0.15980393 0.2313314 0.23726206 0.012671356
000020 64 c1 04 be 5e 71 aa 3d 54 cb bd bd 05 86 62 3e
       -0.12964398 0.08322404 -0.092672974 0.22121437
000030 e8 ec 5f 3e 7d 5c 99 3d 22 5a 9d be 87 a6 44 3e
       0.21867716 0.07488344 -0.30732828 0.1920415
000040 9a ab 93 3e da 9c 9c 3e 59 cb 27 be 44 0a c8 be
       0.2884186 0.30588418 -0.16386165 -0.39070332
000050 62 56 8e 3e 07 23 22 3d 72 36 fe bd 1c 8e 40 be
       0.2780028 0.039584186 -0.12412728 -0.1880421
000060 e5 b1 33 bc 0f 4e ee 3d 7b 30 2f be 61 2e 25 3e
       -0.010967706 0.11635982 -0.17108338 0.16130973
000070 bf 41 50 3e 51 d4 22 bc 88 72 0e be 89 69 78 be
       0.2033758 -0.0099383155 -0.13910878 -0.24259008
000080 44 f8 1d 3e 40 1f 16 3e 49 a3 6a be d2 75 cd be
       0.15426737 0.14660358 -0.22913851 -0.40128952
000090 6d 36 84 3e 3f 1d 7f bd 72 6b cf be 9a 6a 2c 3e
       0.25822774 -0.06228375 -0.40511662 0.1683754
0000a0 d5 ca f6 be dd 30 c2 bc 92 46 67 be ca 96 7e be
       -0.48201624 -0.02370494 -0.22585514 -0.24862209
0000b0 2e 78 ad be 66 8b 86 be 86 5c 42 3d 00 99 b2 be
       -0.33880752 -0.26278228 0.04745152 -0.34882355
0000c0 8c ac 23 be 50 e1 43 3d dd 2b 9c bd 5c 22 96 be
       -0.1598379 0.047822297 -0.07625554 -0.2932309
0000d0 cd f6 6d be 1c 88 f2 bc 96 d9 04 3f 73 3a a1 3e
       -0.23238678 -0.029605918 0.5189451 0.31489906
0000e0 45 04 a1 3d 05 64 5e be f2 85 ae 3e b3 f2 12 3e
       0.078621425 -0.21717842 0.34086567 0.14350395
0000f0 19 ac b9 be cb 48 fa 3d 1c d3 83 be 0e 30 6c be
       -0.36264113 0.122209154 -0.25747 -0.23065206
000100 9b d8 10 be 30 86 0c be 0f d9 33 be 19 7f 3e be
       -0.14145128 -0.13723063 -0.1756327 -0.18603171
000110 01 ef 31 be b7 72 95 3e 1c 2c 0f 3e c0 de 27 3e
       -0.17376329 0.29189083 0.1398167 0.16393566
000120 57 31 2e 3d ff e5 3a 3d 9e 9f c7 3e 6d 0b 95 3e
       0.042527523 0.045629498 0.38988966 0.2911028
000130 92 f2 c9 be dc 04 9b bc 43 49 24 3e 8d 0d 09 be
       -0.3944288 -0.018923216 0.16043572 -0.13384075
000140 a7 b8 15 be 21 19 79 be 3c ca 1e be 73 db f6 bd
       -0.1462122 -0.24325992 -0.15506834 -0.12053575
000150 93 09 ff be 84 c0 3a be ae 3b 85 be 4e b2 89 be
       -0.49811992 -0.18237501 -0.26022094 -0.26893848
000160 c0 7e d9 3d d7 0a ad be 4b 2c a3 3e ea f6 9a bc
       0.10619879 -0.33797333 0.3186973 -0.018916566
000170 07 ee a8 be e1 58 13 be 85 23 a9 bc e9 af 34 be
       -0.329941 -0.14389373 -0.02064682 -0.1764523
000180 36 96 6c bb d1 b3 5e bd f8 48 29 3d 30 83 65 be
       -0.0036100275 -0.054370705 0.041329354 -0.22413325
000190 47 48 09 be c2 3b 91 bd 4e 26 17 bf d6 d6 4f 3e
       -0.13406478 -0.07091476 -0.59042823 0.20296797
0001a0 84 95 34 bf 3f f7 9a be 3d 23 e9 bc 89 eb 8b be
       -0.7054064 -0.3026676 -0.028459186 -0.27328137
0001b0 6b 86 9c 3e 4a 46 59 be 3b 80 95 bd e8 2f a1 3e
       0.30571303 -0.2121822 -0.07299849 0.31481862
0001c0 39 dd a9 be 29 de be be ab ac 9b bc e0 8a 9b 3e
       -0.33176592 -0.3727887 -0.019003233 0.3037939
0001d0 bb a4 a1 3e 87 00 7e bd e2 bd 04 3c 2c cf 0b 3f
       0.31570992 -0.06201222 0.008101912 0.54612994
0001e0 b9 f8 f8 bd 02 88 ea bd 86 05 d9 bd a0 e0 39 3e
       -0.12156815 -0.11451723 -0.10596757 0.18152094
0001f0 c4 c8 34 3e 11 0c a3 3a 64 e7 cd 3d 0c 47 6b be
       0.17654711 0.0012439509 0.100539 -0.22976321
000200 a3 7f 7c 3e 69 7c b5 bd 87 43 04 3e 3d 63 29 bd
       0.24658065 -0.0886162 0.12916385 -0.041354407
000210 99 ac 6e be da c2 28 be 65 fb 74 3e 35 91 16 bf
       -0.23308028 -0.1648058 0.23924024 -0.5881532
000220 5c 33 3d bd c6 82 40 be 09 ca dc 3b 14 71 4d be
       -0.04619156 -0.18799886 0.0067379517 -0.20062667
000230 90 7c 3f 3e ab 9a 4a bc 92 7b ae bd 25 9e 54 3d
       0.1869986 -0.012365977 -0.08519663 0.05190863
000240 19 2c a2 3e 2d d1 9f bd 42 b7 72 bd a4 5f f0 bd
       0.3167427 -0.07803569 -0.0592568 -0.11736992
000250 76 58 0f 3e b7 1d b0 3c 93 76 e9 3d 1a 13 43 be
       0.13998589 0.021498544 0.11399569 -0.19050255
000260 5c 6b f3 3d d9 ed b9 3d d5 39 a4 3d 70 e6 78 be
       0.118857116 0.09078569 0.08018843 -0.24306655
000270 5a 4b 5a be 7a 0f 3a 3e d3 71 ec be 26 b4 7b 3c
       -0.21317807 0.18169966 -0.4618059 0.015362775
000280 45 1b 41 be fc d9 ba be c4 99 f5 3c 2c 60 98 3e
       -0.18858059 -0.36494434 0.029980548 0.29760873
000290 a4 9e 3d 3e 65 d1 64 3e 30 6a 67 3d 73 3f b3 3e
       0.18517548 0.22345503 0.056497753 0.35009345
0002a0 d1 08 11 3f 45 89 6f 3d 68 a5 86 be 11 a7 af bd
       0.5665408 0.05848052 -0.2629807 -0.08576787
0002b0 8c 8d c1 3b 32 51 e0 bd 9e 3c 88 bd d9 e0 77 3e
       0.0059067663 -0.10952987 -0.06652187 0.24206866
0002c0 91 aa 9b 3e 25 dd b7 be d6 a0 01 3e b7 3d 08 be
       0.3040357 -0.35910907 0.1265901 -0.13304792
0002d0 38 c7 99 be 81 0e a7 be 32 f5 1c be 36 eb ce 3e
       -0.30034804 -0.32628253 -0.1532791 0.40413827
0002e0 3a f6 c6 ba f0 27 2e 3d fe d9 fc 3c 8a 4c 3c be
       -0.0015179582 0.042518556 0.030865666 -0.18388572
0002f0 df e4 af 3b 01 18 f0 bd 6c b9 18 bd c6 e1 4c bd
       0.0053678597 -0.117233284 -0.037286207 -0.05002
000300 16 c7 af be 9d e8 64 be b9 9c d6 bd 83 0a d7 be
       -0.34331578 -0.2235436 -0.10479111 -0.42000207
000310 f7 ec ae 3d d4 3b fc be 6f 20 86 bd 18 b5 a9 3d
       0.08541291 -0.49264395 -0.06549155 0.08286494
000320 74 70 80 3e 47 be 80 3e 00 14 63 3e 68 08 8b 3d
       0.25085795 0.2514517 0.22175598 0.06788713
000330 29 b7 ab bd 1a 41 d2 bc d5 1b a5 3e 27 27 51 bd
       -0.083845444 -0.025665808 0.32247797 -0.05106273
000340 39 bf 24 be 5c 35 99 3e bb e8 1b bd ac d2 83 be
       -0.1608857 0.29923522 -0.038063746 -0.25746667
000350 e6 dc 8e be 9b d4 70 b9 3e d2 c2 bd 3c 87 c6 3e
       -0.27902907 -0.00022967385 -0.09512757 0.3877505
000360 93 55 b8 bb ef a6 f9 bd c1 0f 13 3d 28 ca 6a be
       -0.0056254356 -0.12190043 0.035903696 -0.22928679
000370 b3 33 a8 3d e2 9d 8d 3e 55 85 39 3e 9f 73 fe 3d
       0.08212986 0.27659518 0.18117268 0.12424397
000380 5f 5f 92 be 64 d5 f0 3d 53 91 2f 3b 1c e4 8b be
       -0.28588387 0.11759451 0.00267895 -0.2732247
000390 de 95 63 3e 66 0e 68 be 38 8a a5 3e a5 b3 1f 3e
       0.22225139 -0.22661743 0.32332015 0.15595873
0003a0 86 c2 48 3e ca a2 9e be 42 80 0a be 8d ec 93 3e
       0.19605455 -0.30983573 -0.13525489 0.2889141
0003b0 ea 1f 6d 3e 16 f3 e9 be b2 9d 4e 3f 47 0d dc bd
       0.23156705 -0.45693272 0.80709374 -0.1074472
0003c0 ee 12 3d 3e d9 e0 24 bc da e2 ce 3e a5 ab 1e be
       0.18464252 -0.0100633735 0.4040745 -0.15495165
0003d0 4b f5 2d be c2 22 95 3d f2 56 8a be bb 4f a6 be
       -0.16988103 0.0728202 -0.2701946 -0.32482705
0003e0 11 31 fd 3d d2 bf c2 3e 35 34 2d bd 2f 71 59 be
       0.12362874 0.38036972 -0.042286117 -0.21234582
0003f0 cb dc 10 3e 6a d3 50 3e 1e b0 6c 3e 82 88 20 3e
       0.14146726 0.20393148 0.23114058 0.15677074

bias f4 [20]
000000 e2 c9 c0 3d 55 3c 87 3e bc 4e b0 3b 50 8f 2f bb
       0.09413506 0.26413217 0.0053804796 -0.0026788302
000010 01 a8 9d 3d 72 03 0a 3e 46 c1 6f 3e eb 10 b2 bd
       0.0769806 0.13477877 0.23413572 -0.08694633
000020 99 70 17 bd 9b 90 01 be 95 e1 26 bd 32 b1 16 be
       -0.036972616 -0.12652819 -0.040742476 -0.14716032
000030 ca b3 31 bc 0a 39 14 be fd 15 60 bd 7a 74 5d be
       -0.010846088 -0.14474884 -0.05470847 -0.21626464
000040 dd 58 38 bd 36 91 d6 3d d5 fe 46 bd 7c 9b 66 3d
       -0.04500662 0.104769155 -0.04858287 0.056300625

weight f4 [20, 20]
000000 cf 50 03 be 4e 7f ae 3d 97 00 d2 be 50 59 58 be
       -0.12823795 0.08520375 -0.41016075 -0.2112782
000010 64 34 1f bd c2 1b 2d bd 83 69 36 3e b7 78 03 bd
       -0.038868323 -0.0422628 0.17813687 -0.032097545
000020 5b ee 9e 3e 4a 2b a2 3e a8 63 96 39 ae ac 8e bd
       0.31041226 0.31673652 0.0002868448 -0.0696653
000030 ed 04 3f 3d 3a 49 e8 3d 0a fc 52 bd d5 90 26 3e
       0.046635557 0.11342092 -0.051509894 0.16266187
000040 bf eb c9 be c5 e7 a6 3e 5d d3 80 3c 52 13 91 bd
       -0.39437672 0.325987 0.015725786 -0.07083763
000050 fb 8b 5f 3e 07 19 ed 3e 87 1c 42 3e cc 47 3e 3e
       0.21830742 0.46308157 0.18956195 0.18582076
000060 16 b6 85 be 3a 89 18 3e 00 4f 94 be 94 1e 85 be
       -0.26115483 0.14896098 -0.28966522 -0.25999892
000070 9c 8d 8c 3e 1e 15 b7 3d a6 ac 56 3e 0f 3c 12 be
       0.2745179 0.08939575 0.20964298 -0.14280723
000080 be 0b 80 be 7a 10 b3 bd 15 c1 1f bc 10 14 64 3e
       -0.2500896 -0.08743377 -0.009750624 0.22273278
000090 90 31 b7 3e ad e5 de 3d d2 6a de 3d 9c 8a 1e 3c
       0.3578 0.10883651 0.10860218 0.009676602
0000a0 34 af 4e be 65 71 11 be 7b 29 d2 3e 43 2e a2 3e
       -0.20184022 -0.14203413 0.41047272 0.3167592
0000b0 42 6f 27 3b 56 20 c7 be c3 15 a0 bc 47 56 02 3e
       0.0025548493 -0.38891858 -0.019541627 0.12728225
0000c0 8f db c0 3d 59 36 11 bd 44 9e 15 3e e2 bf 3e bd
       0.094168775 -0.03545222 0.14611155 -0.046569712
0000d0 7a 7c 81 be e2 5d cc bd 6d 76 b6 bc 14 f6 04 3f
       -0.2529028 -0.09978844 -0.022273267 0.51937985
0000e0 ce a0 ab 3d aa 7a 54 3e f3 e1 df be 90 35 04 3e
       0.083802804 0.20749918 -0.43727073 0.12911057
0000f0 2f 11 8d 3e 43 d4 43 3d 54 2e a4 3e 6e d8 96 be
       0.27552173 0.04780985 0.32066596 -0.29461998
000100 c0 e9 fb bd dd 63 68 be d2 1d bc be 41 c6 01 be
       -0.12300444 -0.22694345 -0.367415 -0.12673284
000110 c4 17 00 3d 99 79 54 3e 62 4c d3 bd 50 fc 88 3e
       0.031272665 0.20749511 -0.10317303 0.26755
000120 43 25 c0 bd 36 f5 17 3e 74 59 ef ba 1e c9 55 3e
       -0.09382107 0.14839634 -0.0018260912 0.20877501
000130 23 8f 9b 3e dd c5 4c 3b 54 a9 51 be 62 29 d6 be
       0.30382642 0.0031245865 -0.2047475 -0.41828448
000140 50 92 2d 3e 4e a2 40 3d fe b3 d7 3d ca f4 15 3e
       0.16950345 0.047029786 0.10532378 0.14644161
000150 66 bf 48 3f f4 71 6b bd af ba ad 3e 45 82 48 3e
       0.7841705 -0.05748172 0.3393149 0.19580944
000160 3b 96 e5 3d 1c 15 0c 3e af 9b 87 be 34 cf 6e 3d
       0.11210295 0.13679928 -0.26485965 0.058303073
000170 c2 d6 79 be 4f 73 d9 3d 86 d2 a8 3d 03 5e 09 bf
       -0.2439833 0.106176965 0.08243279 -0.53659075
000180 1c 84 5a be 85 2b 61 3d ce 34 3f 3e 6e 14 83 3e
       -0.21339458 0.054973144 0.18672487 0.25601524
000190 18 9c 12 3e f9 71 ff bd a2 25 99 be 82 9b 53 be
       0.14317358 -0.124729104 -0.29911524 -0.2066479
0001a0 ac 7b df be 13 e9 0d 3e f3 68 b0 3e d4 5b 1e 3f
       -0.43649042 0.13858442 0.3445507 0.6185887
0001b0 55 0d 72 be 40 23 68 be 2a 21 ad 3e 8d ff ad 3d
       -0.23637898 -0.22669697 0.33814365 0.08496008
0001c0 eb 8f d6 be 1b ab 8d 3e 8e a2 13 be 2e 19 03 3e
       -0.41906676 0.27669606 -0.14417478 0.12802574
0001d0 91 3d ac bd 33 47 b7 bd ec fc 99 bd c3 96 84 3e
       -0.0841018 -0.08949127 -0.07518944 0.25896272
0001e0 83 32 e9 be 85 08 60 3e a5 51 70 be 9c 89 79 be
       -0.4554635 0.2187825 -0.23468645 -0.243689
0001f0 dd 36 6c 3d c2 c6 38 3e 97 34 c7 bd 7e 95 be bd
       0.05766951 0.1804457 -0.097268276 -0.09305857
000200 98 f0 ca bd 07 e2 db be 05 0a f4 3d 5c f0 65 be
       -0.09909171 -0.42945883 0.119159736 -0.22454971
000210 39 8d 01 3c 90 09 5d be 60 9b 3f be 32 b9 c1 be
       0.007907205 -0.21585679 -0.18711615 -0.37836605
000220 ba bb 7e be bc 70 7c bd 43 fa 87 3e 5e 74 dc bd
       -0.248763 -0.06163095 0.26558122 -0.10764383
000230 17 5d ff 3e 8e d6 ba be bb cf 7e 3d 75 46 21 3e
       0.4987571 -0.36491817 0.062209826 0.15749533
000240 11 bd 89 be 80 05 a4 3d b6 db 3c bd 15 a4 13 be
       -0.2690206 0.080088615 -0.04610797 -0.14418061
000250 83 c8 14 be 62 96 13 be 5f 04 ba bc 60 5f 06 be
       -0.14529614 -0.14412835 -0.022707162 -0.1312232
000260 d7 7c da bd 6c 66 8f 3e f5 2c b0 3d 55 da 75 3e
       -0.106683426 0.2800783 0.08602325 0.24009068
000270 62 51 6e 3d 8d 8a 04 3e a2 58 db bd 66 58 17 be
       0.05818308 0.12943478 -0.10710265 -0.14779815
000280 ea e9 f0 bd 60 d3 2b bb c8 03 18 be c0 b4 16 bc
       -0.117633656 -0.0026218519 -0.14845192 -0.009198368
000290 d8 6b 77 bd 46 ec 99 bd 82 0d 93 3e 91 83 31 bc
       -0.060405582 -0.07515769 0.28721243 -0.0108345905
0002a0 7b e6 42 3d 6f 4e 67 3e 8e cd 97 bd d5 7a 83 bc
       0.047583085 0.22588514 -0.07412253 -0.016049782
0002b0 4b ee ed bc 18 cc 54 3e 57 97 7a bd a9 59 06 bf
       -0.029044291 0.2078098 -0.061179485 -0.5248056
0002c0 5d 8a 2a be 39 27 65 3d e6 77 c7 bd 79 65 9f be
       -0.16654344 0.05594561 -0.09739666 -0.31132105
0002d0 fe 24 6a 3e fe b8 ae 3e 05 b1 9c be aa dd c4 be
       0.22865674 0.34125513 -0.30603805 -0.38450366
0002e0 06 39 f5 3d 3c 75 12 3e f6 44 4f 3e f6 84 a8 3e
       0.11973767 0.14302534 0.2024115 0.3291394
0002f0 fb ca 44 be 54 e2 3d be 10 2c 5e be f5 64 ed 3c
       -0.19218056 -0.18543369 -0.21696496 0.028978804
000300 ee 52 38 3e 06 9c 95 bd bb 24 67 3e 47 bf 7a 3e
       0.18000385 -0.0730515 0.22572605 0.24487029
000310 a4 68 d2 3d 7d 0e 5a 3d 0f 73 18 3e 1c 6f fa bd
       0.10273865 0.053236473 0.14887641 -0.12228224
000320 ef cd 1c 3d ec 88 7d be cb c0 6f be ca e8 13 be
       0.03828233 -0.24759263 -0.23413388 -0.1444427
000330 65 82 7a 3e a0 00 96 be 5b 20 46 bb 25 d0 20 3e
       0.24463804 -0.29297352 -0.0030231688 0.15704401
000340 5e fc 3b 3e da df a4 3d b7 0f 3e be a5 48 d4 be
       0.18357989 0.08050509 -0.18560682 -0.41461673
000350 61 d1 e2 3d 62 3a 5c be 72 6b 32 3e 56 42 82 bd
       0.11075092 -0.21506646 0.174238 -0.06360309
000360 b1 7c ab 3c 0e c8 8f be c5 9f dd 3e ce ff c4 3d
       0.020933481 -0.28082317 0.43285957 0.09619103
000370 12 56 0c 3d a9 26 da bd 09 d3 81 3e 15 e1 2b be
       0.03426177 -0.10651905 0.2535632 -0.1678508
000380 46 fc 3c 3e 44 c6 27 bd 59 ab be bd 08 18 fb bc
       0.1845561 -0.040960565 -0.09310026 -0.030651107
000390 e9 77 48 3e 72 90 09 3e c4 57 6e 3e 0e 69 5d bd
       0.19576992 0.13434008 0.23275667 -0.054055266
0003a0 11 fa 1a 3d d2 6a 04 be a1 e0 23 bd 74 51 a0 be
       0.03783614 -0.12931374 -0.040009145 -0.31312144
0003b0 36 5e 3f be 31 18 d3 bb 68 5e a7 3e 77 58 dd 3d
       -0.18688282 -0.006442093 0.32689214 0.10807889
0003c0 46 d4 95 be 52 21 97 3d a8 47 a3 3e 5d ff 1a 3e
       -0.29263514 0.07379402 0.31890607 0.15136476
0003d0 42 f1 6f 3e a3 40 2f 3e 1a 5b 2d 3e c0 4c 6f 3d
       0.23431876 0.171145 0.16929284 0.058422804
0003e0 be 28 12 bf 33 30 07 bf 5f 3a 43 bc 38 ee 2a bd
       -0.5709342 -0.5280792 -0.011915772 -0.04173109
0003f0 f8 e1 a7 3e a9 6f c5 be a1 4f 4d 3d 69 26 27 bd
       0.32789588 -0.38561752 0.05012477 -0.040808115

bias f4 [20]
000000 c3 6c 22 3e ba 56 00 bd f4 38 68 be 81 17 28 be
       0.15861802 -0.03133271 -0.22677976 -0.16415216
000010 7a e5 51 3d d8 4c aa bd 51 5d c6 3d e0 c9 52 3d
       0.051244237 -0.08315438 0.096857674 0.051462054
000020 56 80 1c 3d 77 93 77 3d b9 e3 a2 3c d4 0a 61 3d
       0.03820833 0.060443368 0.019883977 0.054941967
000030 3c 79 c6 3d da c9 c2 3d f8 61 75 be a1 33 10 3e
       0.09691092 0.095111564 -0.23963153 0.14082195
000040 0a 5c b8 bd 92 cf 34 3d c6 25 5c bd 3c 68 9d 3d
       -0.0900193 0.044143267 -0.05374696 0.07685897
