Iter_03/Models/Noise_5/simulation_00_03/pidnn_200.pt (torch, 61021 bytes, 23 tensors)

weight f4 [20, 2]
0.00039147155 0.23073062 -0.23562026 -0.57562083 0.60930926 -0.23043807 0.018556114 0.17586696
0.40798438 0.12866382 0.06858037 -0.7840194 0.13363786 0.14488956 -0.10191974 0.2447489
0.012405655 -0.15209727 -0.5084256 0.018991485 -0.14133763 0.09208177 -0.30105832 -1.35045
-0.16332723 0.11183016 0.008706151 -0.40183508 -0.2517426 0.40948784 -0.01662438 1.8492584
0.1391982 0.008881886 0.15054287 0.16635978 0.047649898 -0.07325766 0.14820401 -0.28509226
00000000: 6c3e cd39 a644 6c3e 7046 71be e35b 13bf
00000010: b1fb 1b3f f5f7 6bbe fe02 983c 7816 343e
00000020: 54e3 d03e 73c0 033e dd73 8c3d 7fb5 48bf
00000030: 5dd8 083e ee5d 143e 4cbb d0bd 759f 7a3e
00000040: 1741 4b3c 63bf 1bbe 2e28 02bf 0894 9b3c
00000050: d0ba 10be 5e95 bc3d 5124 9abe 8cdb acbf
00000060: 413f 27be 3607 e53d 3ea4 0e3c 54bd cdbe
00000070: 68e4 80be 64a8 d13e da2f 88bc 80b4 ec3f
00000080: f989 0e3e 5485 113c e927 1a3e 385a 2a3e
00000090: 8a2c 433d 1d08 96bd cbc2 173e 9df7 91be

bias f4 [20]
0.13642454 -0.37302408 0.2579071 0.23466158 0.62970865 -0.047897276 -0.30092368 -0.11827578
0.4864791 0.08856901 0.23296231 -0.49875796 -0.26346016 -0.18086018 -0.41887152 0.31227088
-0.5946063 0.3948022 -0.38802055 0.42536274
00000000: e0b2 0b3e 03fd bebe 660c 843e 204b 703e
00000010: 9634 213f ef2f 44bd ab12 9abe 923a f2bd
00000020: ca13 f93e ab63 b53d ac8d 6e3e 345d ffbe
00000030: 40e4 86be 6933 39be 5476 d6be f8e1 9f3e
00000040: 1e38 18bf 8423 ca3e a1aa c6be 25c9 d93e

weight f4 [20, 20]
0.07816048 -0.5025702 -0.05481002 0.039149724 0.24455477 -0.09765425 -0.45564526 -0.13260818
-0.117727 -0.11166263 0.12251558 -0.06094629 0.43118986 0.15663569 0.07678246 0.35329592
-0.1366871 0.332654 -0.20496458 -0.21633819 0.3375775 -0.13937584 -0.25315705 0.28571972
-0.008814325 -0.042240944 -0.2129975 0.007982972 -0.4029706 0.0053483755 -0.06598214 -0.15719943
-0.06371853 0.4947301 0.039799616 0.14764546 -0.05143031 0.2141771 -0.37253925 -0.13175364
0.27217713 0.054404497 -0.029788082 0.12248274 -0.32711592 -0.18791075 -0.24308234 0.220783
-0.27856326 0.24457225 0.20752154 -0.7921159 0.272393 -0.016800385 -0.29403406 0.3559334
-0.108039975 0.21415064 0.040480338 -0.21437794 -0.06465896 0.3075958 -0.11716382 -0.10654809
0.11506442 0.11689945 -0.25533804 -0.012585044 -0.29069185 0.38289738 -0.28442103 0.25699276
0.03633939 0.19978924 0.20708455 -0.13740826 -0.12678333 -0.070334055 -0.20200936 -0.105892375
-0.38949406 0.13431258 0.3565637 -0.06750555 -0.3619299 0.6039422 0.09149686 -0.30884665
-0.057630885 0.07946753 0.02599686 0.5425728 -0.41555634 0.16095726 -0.45906118 -1.0382488
-0.008364021 0.20673038 -0.065710686 0.28891116 -0.052713502 -0.10130786 0.1830585 -0.15575868
0.279036 0.34718734 0.058152836 0.03393666 -0.08623963 -0.21922328 0.015795503 -0.34905624
-0.3026982 0.39842296 -0.18462151 -0.0016727329 -0.1565397 0.0562067 -0.27115184 -0.024653414
0.26856482 0.34078327 -0.14697514 0.08779102 -0.55196923 0.03754016 -0.23793447 0.14992104
-0.10922953 -0.18540397 0.27268797 -0.021476522 0.20640755 0.110248074 0.005804666 0.60269797
-0.09397114 0.37461412 0.120001264 0.013971265 -0.5463373 -0.4700862 0.29409957 -0.13897036
0.22289626 0.04185003 0.28420126 0.2151406 -0.46703592 -0.38052407 -0.30860877 0.17026407
0.39375424 -0.17708042 -0.054744307 -0.23250172 0.43908444 -0.23961633 0.13351692 0.0071158507
0.20330517 -0.25719237 0.04387171 -0.0917417 -0.07915515 -0.27705586 0.104670726 0.13390425
-0.082281984 0.19546653 -0.08574015 -0.4256395 -0.048800692 -0.3867393 0.07571606 0.44891453
0.12073776 -0.124677114 -0.07644582 0.20235272 -0.19142042 -0.33515027 -0.14221051 0.24139388
0.20742348 0.10418429 -0.16908771 0.33735028 -0.08177243 0.25126266 0.07955876 -0.06798679
-0.39875337 -0.43158755 0.03643308 0.41544878 0.16250628 0.19569573 -0.3144606 0.19837064
0.018957533 0.05082297 0.5517424 0.27338398 0.4036344 0.039386507 0.058275662 -0.2154659
0.3538633 -0.3107218 -0.2322377 -0.18254036 -0.39388826 -0.09737486 -0.22953016 -0.42823553
-0.26549968 -0.0056427303 0.045695666 0.09388065 -0.38367048 0.23749235 0.0614679 -0.3772168
-0.19145606 0.586049 -0.06783359 0.22745109 0.11443511 0.11305534 -0.22349982 0.107456766
-0.24949998 0.63805735 -0.17279895 -0.34888303 0.06432843 -0.0045269635 0.065468356 -0.06513274
-0.12228887 -0.18897185 0.21648262 0.117092036 0.33391935 -0.060133453 0.16419822 -0.18571672
-0.09237316 0.26618978 -0.008376028 -0.063498765 0.010476653 -0.09182525 -0.16024992 -0.028589917
00000000: 9a12 a03d 71a8 00bf 7980 60bd 765b 203d
00000010: 916c 7a3e f4fe c7bd 564a e9be 70ca 07be
00000020: da1a f1bd 61af e4bd 73e9 fa3d d1a2 79bd
00000030: ebc4 dc3e 1b65 203e 1f40 9d3d 34e3 b43e
00000040: b4f7 0bbe a051 aa3e 3ce2 51be c287 5dbe
00000050: f5d6 ac3e 8ab8 0ebe cd9d 81be db49 923e
00000060: f569 10bc d704 2dbd 041c 5abe 03cb 023c
00000070: 2a52 cebe 6d41 af3b a521 87bd e3f8 20be
00000080: dc7e 82bd 434d fd3e ec04 233d 5f30 173e
00000090: 97a8 52bd 3e51 5b3e 77bd bebe 6dea 06be
000000a0: cd5a 8b3e 40d7 5e3d 2306 f4bc 3bd8 fa3d
000000b0: bd7b a7be ad6b 40be 94ea 78be f014 623e
000000c0: d89f 8ebe 2671 7a3e 8780 543e 1cc8 4abf
000000d0: 1877 8b3e f6a0 89bc a28b 96be e73c b63e
000000e0: 1044 ddbd 4e4a 5b3e b6ce 253d e485 5bbe
000000f0: eb6b 84bd 327d 9d3e 96f3 efbd e335 dabd
00000100: e5a6 eb3d fb68 ef3d abbb 82be 8031 4ebc
00000110: 90d5 94be 200b c43e a29f 91be 8e94 833e
00000120: 9dd8 143d 8d95 4c3e f90d 543e c0b4 0cbe
00000130: 7dd3 01be 4d0b 90bd 8bdb 4ebe 1ade d8bd
00000140: c46b c7be 3d89 093e 848f b63e 5a40 8abd
00000150: e04e b9be f59b 1a3f b562 bb3d 2621 9ebe
00000160: 5d0e 6cbd dfbf a23d 5ef7 d43c 0de6 0a3f
00000170: cdc3 d4be fbd1 243e 110a ebbe 56e5 84bf
00000180: 3f09 09bc 21b1 533e 5393 86bd 2aec 933e
00000190: 1dea 57bd 7f7a cfbd b073 3b3e 347f 1fbe
000001a0: cedd 8e3e 8ac2 b13e ab31 6e3d 2b01 0b3d
000001b0: 679e b0bd 117c 60be 9265 813c 80b7 b2be
000001c0: 42fb 9abe 18fe cb3e 6c0d 3dbe 9a3f dbba
000001d0: f14b 20be ff38 663d 6ad4 8abe f5f5 c9bc
000001e0: 5481 893e 257b ae3e a780 16be c7cb b33d
000001f0: db4d 0dbf b6c3 193d 18a5 73be e784 193e
00000200: bbb3 dfbd 8ada 3dbe c29d 8b3e 88ef afbc
00000210: 805c 533e bec9 e13d 1135 be3b 6a4a 1a3f
00000220: f173 c0bd 6ccd bf3e 39c3 f53d bce7 643c
00000230: c3dc 0bbf 23af f0be 3894 963e 3f4e 0ebe
00000240: eb3e 643e f06a 2b3d d482 913e d14d 5c3e
00000250: 551f efbe 0dd4 c2be f801 9ebe b459 2e3e
00000260: 289a c93e 9254 35be 913b 60bd ee14 6ebe
00000270: adcf e03e fc5d 75be a9b8 083e 152c e93b
00000280: 3b2f 503e b8ae 83be d2b2 333d 13e3 bbbd
00000290: 181c a2bd 44da 8dbe 9b5d d63d 321e 093e
000002a0: 7583 a8bd 6128 483e 8898 afbd 6ced d9be
000002b0: 3ce3 47bd b202 c6be 0611 9b3d 20d8 e53e
000002c0: 5c45 f73d b756 ffbd a08f 9cbd 8d35 4f3e
000002d0: b703 44be d198 abbe a29f 11be f52f 773e
000002e0: d266 543e 935e d53d 5425 2dbe 2db9 ac3e
000002f0: 4e78 a7bd 80a5 803e b4ef a23d a83c 8bbd
00000300: 6729 ccbe 0bf9 dcbe da3a 153d b4b5 d43e
00000310: 0c68 263e 7664 483e fb00 a1be ac21 4b3e
00000320: d44c 9b3c bf2b 503d fd3e 0d3f fcf8 8b3e
00000330: 2ba9 ce3e bf53 213d 76b2 6e3d 18a3 5cbe
00000340: 922d b53e ee16 9fbe b8cf 6dbe dceb 3abe
00000350: b9ab c9be 786c c7bd f409 6bbe b041 dbbe
00000360: 93ef 87be a7e6 b8bb 612b 3b3d 8044 c03d
00000370: 7570 c4be 3231 733e c4c5 7b3d 8f22 c1be
00000380: 0f0d 44be 4f07 163f 56ec 8abd f0e8 683e
00000390: f45c ea3d 8f89 e73d 23dd 64be 4b12 dc3d
000003a0: ec7c 7fbe ba57 233f 35f2 30be cca0 b2be
000003b0: a0be 833d ec56 94bb 4614 863d 5064 85bd
000003c0: 9672 fabd d681 41be 9fad 5d3e f3cd ef3d
000003d0: 7af7 aa3e 7f4e 76bd 9423 283e 862c 3ebe
000003e0: 242e bdbd 074a 883e 9c3b 09bc a40b 82bd
000003f0: 45a6 2b3c e00e bcbd 8e18 24be 6735 eabc

bias f4 [20]
0.14153078 -0.33847028 0.045984663 -0.099191114 -0.11504281 0.35062215 -0.49478307 -0.13546805
-0.16776124 0.18873726 0.40924704 -0.25492257 0.21254885 0.037373908 0.528564 -0.028613994
0.046901997 0.018622935 -0.5567735 -0.16755806
00000000: 72ed 103e fa4b adbe 6a5a 3c3d b624 cbbd
00000010: 919b ebbd bf84 b33e 3554 fdbe 23b8 0abe
00000020: 9ac9 2bbe 5744 413e d488 d13e 3685 82be
00000030: 68a6 593e 6215 193d f84f 073f e567 eabc
00000040: 4f1c 403d 208f 983c b588 0ebf 5794 2bbe

weight f4 [20, 20]
-0.050559364 0.5627726 0.15888038 -0.10181391 0.17488812 -0.41244325 -0.2541607 -0.115676455
0.11318624 0.005447915 -0.2819916 0.31358936 0.23664054 -0.22399636 -0.3330321 0.12754123
-0.13116665 -0.13790476 0.6611023 -0.030572603 0.18115756 0.31357405 -0.06478368 0.26663628
0.13157196 -0.16884816 0.16347547 -0.6625879 0.16317166 -0.15360668 0.05645328 -0.077846855
0.17557774 -0.24361733 -0.09840405 0.10515563 0.21787961 0.32204098 -0.12011198 -0.07490502
0.14220394 0.031670794 -0.07542074 0.33404022 -0.41514677 0.0015632303 -0.04694635 0.29386553
0.40748265 -0.13292858 0.2953229 -0.21631901 -0.010008768 0.26964837 -0.35466623 0.108636774
-0.104637064 -0.2160907 0.33888605 -0.17002264 0.16272493 0.24694929 0.060194883 0.23219356
0.014661301 0.009515322 0.41391626 -0.26796386 -0.3370952 0.38100684 0.21563259 0.06301599
0.3579216 -0.24175195 0.46571907 -0.124094725 -0.031895816 0.078061156 -0.428711 -0.50582993
-0.28091943 0.45535752 -0.10158932 0.110193565 0.05693262 -0.23092014 0.3072439 -0.15765977
-0.2425083 0.1255579 -0.103697285 -0.10973756 -0.42647064 -0.2029986 -0.16798554 0.42012626
0.039706074 -0.08988392 -0.28204378 0.44803315 0.03628314 0.36304948 0.08816432 -0.21217613
0.14001946 -0.0176334 0.40887138 -0.46167684 0.06737446 0.2987583 -0.06880752 -0.06207722
-0.3807869 -0.019463832 -0.56110847 -0.32701495 0.23696375 -0.03568154 -0.02383142 -0.0140968505
0.24899688 -0.1288657 0.2748022 -0.08703512 0.044487737 -0.036296748 -0.31704018 0.035193507
0.22244729 0.0957568 0.015125404 0.011052702 -0.2491512 -0.026395956 0.057934012 -0.07701872
0.19518675 -0.11673065 0.3755971 -0.19584368 0.08901736 0.20183934 0.4950292 -0.56557846
-0.19001904 0.06745492 -0.02061616 0.13556203 0.23769392 0.18124902 -0.35459486 0.122859396
0.14613213 0.13095811 -0.10432047 0.023283701 0.18745339 0.27886418 -0.24777927 -0.22044443
0.2102878 -0.15009838 0.36721915 -0.4199855 -0.3966311 0.17658755 0.16967921 0.17907432
0.20020013 0.16966255 0.27109808 0.10885612 -0.011297782 -0.010983413 -0.19816448 0.023319555
0.0655079 -0.35663876 0.012498082 0.059237618 -0.061918814 -0.18113862 -0.56273633 -0.22633858
0.29910132 -0.16405998 0.06940516 0.3511239 0.27062404 -0.05988129 0.43464017 -0.2321495
0.076060586 0.03998135 -0.20799166 0.2689827 0.115607895 -0.33044964 0.11061641 -0.027204694
-0.51334345 -0.35389942 -0.053934176 0.2102543 0.09262254 0.14602922 -0.2482341 -0.40633643
-0.4868556 -0.096767865 0.009288135 0.7400211 -0.25303963 -0.30819795 -0.20386262 0.0390995
-0.2630507 -0.028093249 0.008161388 0.5166886 0.38849375 -0.38517794 -0.024645228 -0.18695627
-0.19523272 0.099365 -0.117986344 -0.013143091 0.29873562 0.15677938 -0.55728006 0.35550037
0.08951923 -0.027989898 -0.21363646 -0.20698722 -0.34460452 0.08094545 -0.20029247 -0.20535836
0.07869539 0.16740988 0.17203787 0.39043066 -0.35054383 0.20268613 0.17788917 -0.6105648
-0.039595004 -0.1162544 -0.043830354 0.018817922 -0.10416399 -0.13531463 0.06428977 0.35918334
00000000: 5617 4fbd dd11 103f 8ab1 223e d083 d0bd
00000010: df15 333e c32b d3be 5a21 82be c7e7 ecbd
00000020: 30ce e73d 6c84 b23b 3461 90be c98e a03e
00000030: e651 723e 4d5f 65be 2f83 aabe 2b9a 023e
00000040: 8d50 06be e836 0dbe 003e 293f 6573 fabc
00000050: 5e81 393e c78c a03e 4ead 84bd 8d84 883e
00000060: cdba 063e 88e6 2cbe 1d66 273e 5c9f 29bf
00000070: 7916 273e 124b 1dbe 8e3b 673d 2c6e 9fbd
00000080: a7ca 333e d276 79be 1088 c9bd d65b d73d
00000090: d51b 5f3e 8ee2 a43e 45fd f5bd ce67 99bd
000000a0: e99d 113e 3cb9 013d 3076 9abd 5207 ab3e
000000b0: 1e8e d4be 4ee5 cc3a d14a 40bd 8b75 963e
000000c0: 91a1 d03e 6e1e 08be 9034 973e bb82 5dbe
000000d0: d1fb 23bc 5a0f 8a3e d096 b5be f57c de3d
000000e0: f54b d6bd e146 5dbe 7982 ad3e 6a1a 2ebe
000000f0: 5da1 263e 46e0 7c3e e98e 763d 26c4 6d3e
00000100: f435 703c 27e6 1b3c d5ec d33e 8f32 89be
00000110: be97 acbe 5413 c33e cace 5c3e 870e 813d
00000120: 8041 b73e d38d 77be bb72 ee3e 6025 febd
00000130: 30a5 02bd 87de 9f3d 0280 dbbe 127e 01bf
00000140: acd4 8fbe 9f24 e93e 100e d0bd 2aad e13d
00000150: 2e32 693d 5476 6cbe 134f 9d3e 9071 21be
00000160: 1954 78be 4092 003e 3e5f d4bd 16be e0bd
00000170: 5c5a dabe ddde 4fbe 6704 2cbe ca1a d73e
00000180: d6a2 223d 1015 b8bd 0b68 90be 9a64 e53e
00000190: a19d 143d 9fe1 b93e 7f8f b43d b344 59be
000001a0: 4361 0f3e ec73 90bc 9757 d13e e860 ecbe
000001b0: 9ffb 893d d9f6 983e f5ea 8cbd af44 7ebd
000001c0: 80f6 c2be 9d72 9fbc cea4 0fbf 816e a7be
000001d0: a0a6 723e ce26 12bd 1c3a c3bc 7af6 66bc
000001e0: 0af9 7e3e 5ff5 03be e0b2 8c3e 783f b2bd
000001f0: c638 363d e6ab 14bd 1753 a2be 1127 103d
00000200: 39c9 633e 241c c43d 8bd0 773c 6416 353c
00000210: 7e21 7fbe 553c d8bc 374c 6d3d febb 9dbd
00000220: 09df 473e 7b10 efbd 434e c03e 3f8b 48be
00000230: bc4e b63d f9ae 4e3e 7874 fd3e c0c9 10bf
00000240: 5a94 42be ce25 8a3d 39e3 a8bc c6d0 0a3e
00000250: 0966 733e 5899 393e 758d b5be b59d fb3d
00000260: a9a3 153e e219 063e f8a5 d5bd 76bd be3c
00000270: c8f3 3f3e 49c7 8e3e d9b9 7dbe 2fbc 61be
00000280: af55 573e 64b3 19be 2604 bc3e 5708 d7be
00000290: 3b13 cbbe 5ed3 343e 63c0 2d3e 425f 373e
000002a0: 4301 4d3e 05bc 2d3e 5ecd 8a3e f5ef de3d
000002b0: 551a 39bc c6f3 33bc a1eb 4abe a708 bf3c
000002c0: 0229 863d 5b99 b6be c1c4 4c3c 25a3 723d
000002d0: 959e 7dbd 677c 39be 7d0f 10bf 4dc5 67be
000002e0: cf23 993e 57ff 27be 4b24 8e3d 83c6 b33e
000002f0: 3c8f 8a3e 1546 75bd 2889 de3e 99b8 6dbe
00000300: a7c5 9b3d 7cc3 233d c4fb 54be 1ab8 893e
00000310: d5c3 ec3d b230 a9be db8a e23d 61dc debc
00000320: 7a6a 03bf 4e32 b5be 15ea 5cbd e74c 573e
00000330: e3b0 bd3d af88 153e 1431 7ebe 540b d0be
00000340: 2345 f9be 3b2e c6bd 432d 183c 0672 3d3f
00000350: 698e 81be 1fcc 9dbe 5dc1 50be cc26 203d
00000360: 95ae 86be d023 e6bc 58b7 053c b445 043f
00000370: a7e8 c63e 0b36 c5be cae4 c9bc 7771 3fbe
00000380: 16eb 47be e17f cb3d d3a2 f1bd 1f56 57bc
00000390: e0f3 983e c68a 203e e8a9 0ebf 2504 b63e
000003a0: dc55 b73d 124b e5bc 84c3 5abe 75f4 53be
000003b0: 0170 b0be bac6 a53d 7819 4dbe 7649 52be
000003c0: 0c2b a13d 7f6d 2b3e b22a 303e 87e6 c73e
000003d0: 7b7a b3be f48c 4f3e 9428 363e fa4d 1cbf
000003e0: 5f2e 22bd c916 eebd 7587 33bd 0b28 9a3c
000003f0: ee53 d5bd eb8f 0abe 5baa 833d e1e6 b73e

bias f4 [20]
-0.30773747 -0.19182426 -0.1481489 0.20676263 -0.13780928 -0.074016124 -0.0015021726 0.056781836
-0.16359656 -0.06355613 -0.22406325 -0.06631225 -0.0002499496 0.14408214 -0.07531206 0.022015413
0.018414905 0.5225239 0.37660456 0.07235722
00000000: c48f 9dbe 946d 44be 58b4 17be 95b9 533e
00000010: e01d 0dbe c495 97bd 8ce4 c4ba 1294 683d
00000020: db85 27be b729 82bd d670 65be b8ce 87bd
00000030: ab0b 83b9 458a 133e 363d 9abd ab59 b43c
00000040: dbda 963c 20c4 053f 50d2 c03e 0630 943d

weight f4 [20, 20]
-0.3135538 0.027523998 -0.16724534 0.44728696 -0.015956763 0.36768132 -0.2482136 0.002645461
-0.04239745 0.30590853 0.2402683 0.3499567 -0.10811983 -0.09887311 -0.06890893 0.31479618
0.23114274 -0.15855299 0.0019494558 0.109898925 0.48736566 -0.303932 0.25906372 -0.13712387
0.17202975 0.22983284 0.13495122 -0.11484717 -0.06949666 -0.12801394 -0.5839314 -0.31454504
0.20556341 -0.043142106 -0.093357556 -0.32147956 -0.51427805 0.39820287 -0.043419152 0.32885322
-0.14577167 0.106364824 -0.154009 -0.20741585 -0.007984346 -0.16384608 -0.030225866 -0.12146838
0.115418024 0.2647107 0.11597113 -0.13684915 -0.26118857 -0.07667631 -0.09809946 -0.14350252
0.1382222 -0.123495586 -0.10284042 -0.13575749 -0.2574625 0.3767089 -0.25995716 0.05227987
-0.03574209 0.011953164 0.0710302 -0.11262967 -0.5232788 0.093889974 0.057196084 -0.13664837
-0.16558854 -0.5862642 0.056504764 0.07911927 0.47991517 0.28300053 -0.11451587 0.06447492
0.5302482 0.2223194 0.0013574449 0.301365 0.22525516 0.023477936 0.13232419 -0.26363954
-0.19871756 0.2451446 0.26304108 -0.03455899 -0.11554402 -0.01710506 0.20742303 -0.24375822
-0.08154373 0.19311528 -0.025637314 -0.05939143 -0.21812195 0.16051044 0.05293833 0.43288308
-0.09328736 0.33467782 -0.37847897 0.0383765 0.14738373 0.065782756 0.25234106 -0.3585471
-0.20975442 -0.09080477 0.46535987 0.11313073 0.02012304 -0.2035433 0.024850806 0.38535377
0.104470015 0.4514521 0.45631197 0.1209711 -0.015885577 0.36782622 0.009788121 0.47340155
0.15976611 0.047039203 -0.2444233 0.029913835 0.31471232 0.4070196 0.4054254 -0.38064083
-0.75608814 -0.6132775 0.087877795 -0.022346405 -0.09090821 0.22923861 -0.0885615 0.41734532
-0.29130062 0.026360543 0.25391304 0.013936102 0.34079206 -0.20519468 0.10225486 -0.18158364
0.31594616 -0.18330005 0.2902481 0.018986054 -0.3654 -0.14990543 -0.053783834 0.1629444
0.15198597 0.4682953 0.08972713 0.098129265 0.11359747 0.3482 -0.004231614 -0.30677783
-0.38840553 -0.37278166 0.24719745 -0.07689966 0.1654298 -0.028515713 -0.20743328 0.05968104
-0.19381498 -0.22376321 -0.024525195 -0.24502108 0.046206985 0.31859657 -0.3563366 0.041134357
0.3783589 0.35271904 0.03317806 0.25159672 -0.23571746 -0.4265644 -0.11252893 0.23381929
0.1588023 -0.20778736 -0.17467207 0.67937464 -0.017551616 -0.32619092 0.3573368 0.5192161
0.21260862 -0.24710026 -0.35163817 0.0853742 0.4671414 -0.12096962 -0.14767885 0.44157755
-0.0072617196 -0.011854806 -0.0630984 -0.35359713 0.37894714 -0.10170112 0.3316256 -0.2084679
-0.00420385 0.13373682 -0.1055881 0.08283383 -0.51146424 0.19057421 0.3107354 0.33386904
-0.46001014 0.4159195 0.17304577 0.46429333 -0.16167863 -0.29806355 -0.14315154 0.35864097
0.28427327 0.31692567 -0.14821734 0.045438446 -0.51947933 -0.6517655 -0.14013056 -0.21726368
0.10335644 0.02530542 -0.21378407 0.38296738 0.046036948 0.20270029 0.10007326 0.07166201
-0.3159104 -0.021108499 -0.24517795 -0.1154252 -0.040285785 -0.0034968678 -0.059914988 0.17467651
00000000: 208a a0be 027a e13c 5d42 2bbe cc02 e53e
00000010: c2b7 82bc ba40 bc3e b52b 7ebe 785f 2d3b
00000020: f3a8 2dbd 0ba0 9c3e e508 763e 862d b33e
00000030: ee6d ddbd fc7d cabd 2020 8dbd f72c a13e
00000040: afb0 6c3e b75b 22be e284 ff3a b012 e13d
00000050: fe87 f93e fa9c 9bbe 00a4 843e 336a 0cbe
00000060: 9128 303e 4d59 6b3e a730 0a3e fe34 ebbd
00000070: 4454 8ebd 1616 03be 877c 15bf 0c0c a1be
00000080: 377f 523e c7b5 30bd 3f32 bfbd f898 a4be
00000090: baa7 03bf 3fe1 cb3e 48d8 31bd 735f a83e
000000a0: 2b45 15be cdd5 d93d 89b4 1dbe d264 54be
000000b0: c6d0 02bc 44c7 27be 3c9c f7bc 6ac4 f8bd
000000c0: 4960 ec3d 2988 873e 4682 ed3d 2f22 0cbe
000000d0: 82ba 85be 7808 9dbd 5fe8 c8bd 53f2 12be
000000e0: 1f8a 0d3e 41eb fcbd 009e d2bd 0304 0bbe
000000f0: 20d2 83be fddf c03e 1b19 85be 6b23 563d
00000100: 4c66 12bd 34d7 433c 4878 913d 62aa e6bd
00000110: 99f5 05bf 6349 c03d 7146 6a3d 8ded 0bbe
00000120: 0b90 29be 6915 16bf 8a71 673d 4909 a23d
00000130: 71b7 f53e 72e5 903e 4c87 eabd 6d0b 843d
00000140: 59be 073f b2a7 633e 4bec b13a 834c 9a3e
00000150: 4aa9 663e cd54 c03c fe7f 073e c3fb 86be
00000160: 9e7c 4bbe 3007 7b3e 52ad 863e ba8d 0dbd
00000170: 58a2 ecbd e91f 8cbc b466 543e c19b 79be
00000180: 6600 a7bd 03c0 453e 5805 d2bc 6e44 73bd
00000190: 5c5b 5fbe d95c 243e ddd5 583d daa2 dd3e
000001a0: 720d bfbd e45a ab3e ffc7 c1be ad30 1d3d
000001b0: c3eb 163e 1cb9 863d d932 813e 7c93 b7be
000001c0: ddc9 56be daf7 b9bd a643 ee3e 16b1 e73d
000001d0: 13d9 a43c a86d 50be eb93 cb3c 174d c53e
000001e0: 60f4 d53d bb24 e73e b9a1 e93e b2bf f73d
000001f0: 7822 82bc b853 bc3e 5b5e 203c b061 f23e
00000200: ba99 233e 2eac 403d 1a4a 7abe dc0d f53c
00000210: f921 a13e df64 d03e eb93 cf3e 5be3 c2be
00000220: fe8e 41bf c1ff 1cbf 46f9 b33d cf0f b7bc
00000230: 152e babd 87bd 6a3e bb5f b5bd 49ae d53e
00000240: 5b25 95be 11f2 d73c e400 823e 4054 643c
00000250: 4c7c ae3e 8e1e 52be ff6a d13d 10f1 39be
00000260: b2c3 a13e 02b3 3bbe 669b 943e a488 9b3c
00000270: b515 bbbe cf80 19be 704c 5cbd e6da 263e
00000280: 36a2 1b3e 67c4 ef3e dcc2 b73d fff7 c83d
00000290: caa5 e83d 4547 b23e 5aa9 8abb fc11 9dbe
000002a0: 17dd c6be 3ddd bebe 5421 7d3e 927d 9dbd
000002b0: 6e66 293e c999 e9bc 6469 54be 1b74 743d
000002c0: 6f77 46be 2f22 65be 10e9 c8bc cee6 7abe
000002d0: 8943 3d3d 171f a33e c071 b6be 807c 283d
000002e0: 42b8 c13e 9797 b43e b8e5 073d 49d1 803e
000002f0: eb5f 71be a666 dabe 9175 e6bd 536e 6f3e
00000300: 129d 223e 36c6 54be 3cdd 32be 7feb 2d3f
00000310: 68c8 8fbc 7f02 a7be d9f4 b63e 59eb 043f
00000320: 13b6 593e da07 7dbe eb09 b4be abd8 ae3d
00000330: 282d ef3e ecbe f7bd 2039 17be 7416 e23e
00000340: b8f3 edbb a93a 42bc bc39 81bd af0a b5be
00000350: 5c05 c23e ad48 d0bd d5ca a93e 9c78 55be
00000360: 73c0 89bb 4ef2 083e 933e d8bd c8a4 a93d
00000370: 52ef 02bf e325 433e b618 9f3e e2f0 aa3e
00000380: 7386 ebbe 67f3 d43e e932 313e dbb7 ed3e
00000390: 158f 25be c99b 98be 5196 12be ca9f b73e
000003a0: 448c 913e 1544 a23e 49c6 17be aa1d 3a3d
000003b0: 99fc 04bf 1bda 26bf 637e 0fbe 5f7a 5ebe
000003c0: 8bac d33d 504d cf3c 36ea 5abe 4d14 c43e
000003d0: 3d91 3c3d aa90 4f3e 36f3 cc3d 88c3 923d
000003e0: 02bf a1be bbeb acbc ee0f 7bbe 0c64 ecbd
000003f0: b502 25bd b52b 65bb 6b69 75bd 66de 323e

bias f4 [20]
0.027493415 0.06519157 0.016870566 -0.039796855 -0.043762237 0.08027482 -0.11504497 -0.04887613
-0.08240279 -0.2826252 0.08837298 0.1946426 0.059100635 0.19521676 -0.1703222 0.07051793
0.012028542 0.03688567 -0.17178755 -0.024235107
00000000: df39 e13c 2883 853d 2434 8a3c 0702 23bd
00000010: 0840 33bd 2067 a43d b29c ebbd 5632 48bd
00000020: cbc2 a8bd 40b4 90be e5fc b43d 6450 473e
00000030: 8213 723d e7e6 473e f168 2ebe b46b 903d
00000040: 5d13 453c 6e15 173d 13e9 2fbe b488 c6bc

weight f4 [20, 20]
0.13251036 -0.15812783 0.23771587 0.27931678 0.4278727 0.117673635 0.21243915 0.14295886
-0.14598827 0.5404545 -0.30309394 0.02815771 -0.25260803 -0.14619571 0.15006733 0.32581693
-0.3263449 -0.14236283 0.30904832 0.13012204 -0.09625816 -0.054771427 -0.013207271 -0.017653836
-0.13989624 0.5208311 0.38996106 0.11450771 -0.15943582 -0.28102332 -0.028564293 0.41724783
-0.17080532 -0.34793746 -0.16650625 0.24583362 0.10282177 -0.035940487 -0.021672493 0.32643536
-0.07037467 0.043972492 -0.1428202 -0.4905588 -0.12417293 0.17082402 0.31923485 -0.0936905
0.13043302 0.5293697 -0.10757901 0.050871015 -0.21748152 -0.014202474 0.42512187 0.13079767
-0.04256588 0.053232532 -0.090329684 -0.30636904 0.30672288 0.19358854 -0.23625913 -0.074148595
-0.28279954 -0.24309242 0.21938016 -0.022959992 0.13377815 0.0055585057 0.06912964 -0.0541108
0.038030554 -0.1044237 -0.29756007 0.42177838 0.09269612 -0.090258986 0.16087233 -0.52228856
-0.14454989 0.041395664 0.122443564 -0.022714695 0.07311142 0.1322111 -0.29112712 0.33384892
0.0096809715 0.21194887 -0.1030323 -0.039169364 -0.27884555 0.100913025 0.48495534 0.60147566
-0.0783203 0.09254039 0.042045828 -0.43489784 -0.2452844 0.31516653 -0.31364697 -0.059533484
-0.3343801 -0.186534 -0.06834935 -0.11112472 -0.23045932 -0.18296023 0.20022176 0.08992021
-0.48948884 0.1560844 -0.11434643 -0.31707036 -0.28865704 -0.11558814 -0.19797972 0.15327822
0.020512292 0.51492244 0.2992912 0.013293625 -0.066893294 0.000477343 0.08454835 -0.5411862
-0.34252977 -0.29577795 0.030482726 -0.038283486 -0.47658038 0.3192184 -0.36090916 -0.2948099
0.1870334 0.16545752 0.09517702 0.252882 0.31985795 -0.15421613 0.1686113 0.42903912
0.14908466 0.36441258 -0.189304 -0.2104156 -0.17321564 -0.49457255 0.102979876 -0.028480588
0.4098733 -0.2011405 -0.48608392 0.12865344 -0.05891558 0.13813171 -0.008936063 -0.25393587
-0.08196465 -0.35975063 0.41019136 0.45187333 -0.09987675 0.008375567 -0.16916299 -0.22335128
-0.18675417 -0.047028434 0.1289017 -0.47535366 -0.22158574 0.018750004 0.040477414 -0.07663895
0.03738362 -0.03784091 -0.14004196 0.30074722 0.20416377 0.06893626 0.008660305 -0.34938568
0.14004529 0.30503044 0.4553233 -0.02379758 -0.05626471 0.09842349 -0.14176099 0.19497102
0.08200338 -0.19526091 0.09565274 0.16856533 0.2412522 -0.039135445 -0.01778131 0.0260565
0.07477676 0.20822513 -0.024664598 0.1569636 -0.17140281 -0.018852316 0.4394722 -0.08351623
-0.21408027 0.234629 0.018845664 -0.24390441 0.1380442 -0.31663173 0.15629816 -0.028186427
0.29571393 0.27444386 -0.10937997 0.27364472 -0.06907837 -0.10520194 0.025640326 -0.4806303
-0.031804584 -0.1859928 0.24681748 0.14421372 0.051926 0.092193544 -0.06208259 0.26126575
0.06858019 0.09776944 0.47325644 0.012330773 0.41976452 0.19522418 -0.023792608 0.08950391
0.08399045 -0.15194215 -0.18627067 -0.22487085 0.15904067 0.06439262 0.14414993 -0.31024978
-0.010508981 0.055181604 -0.3712945 -0.25243366 0.062993996 -0.2647616 -0.29006132 0.4232682
00000000: ccb0 073e 43ec 21be ca6b 733e 9c02 8f3e
00000010: 2112 db3e e0fe f03d a689 593e cf63 123e
00000020: f37d 15be 3a5b 0a3f 212f 9bbe ffaa e63c
00000030: d755 81be 54b4 15be 40ab 193e 7ad1 a63e
00000040: ae16 a7be 90c7 11be 953b 9e3e b63e 053e
00000050: 0023 c5bd 0158 60bd 4f63 58bc c79e 90bc
00000060: f640 0fbe 3055 053f faa8 c73e 0583 ea3d
00000070: 2543 23be 4ae2 8fbe aaff e9bc 82a1 d53e
00000080: 97e7 2ebe dc24 b2be 9d80 2abe cfbb 7b3e
00000090: 3894 d23d 5536 13bd 838a b1bc 8922 a73e
000000a0: 9820 90bd 801c 343d 753f 12be 862a fbbe
000000b0: 614e febd 7eec 2e3e c072 a33e cee0 bfbd
000000c0: 3c90 053e c684 073f 6252 dcbd 205e 503d
000000d0: 7ab3 5ebe 7eb1 68bc 93a9 d93e d3ef 053e
000000e0: 8f59 2ebd 5b0a 5a3d c5fe b8bd 67dc 9cbe
000000f0: c80a 9d3e 133c 463e eaed 71be 38db 97bd
00000100: 1acb 90be 38ed 78be 31a5 603e 9816 bcbc
00000110: 24fd 083e 2024 b63b d793 8d3d 49a3 5dbd
00000120: edc5 1b3d 18dc d5bd cb59 98be 56f3 d73e
00000130: 77d7 bd3d b4d9 b8bd b7bb 243e b4b4 05bf
00000140: e304 14be 808e 293d b1c3 fa3d 2b14 babc
00000150: 71bb 953d 5962 073e 9d0e 95be 3fee aa3e
00000160: f09c 1e3c 2009 593e 9902 d3bd 0e70 20bd
00000170: d8c4 8ebe 7dab ce3d 114c f83e 4ffa 193f
00000180: 6566 a0bd d185 bd3d 3f38 2c3d eeaa debe
00000190: d52b 7bbe 825d a13e 5696 a0be 62d9 73bd
000001a0: de33 abbe c502 3fbe befa 8bbd 5b95 e3bd
000001b0: 87fd 6bbe ed59 3bbe ef06 4d3e 1628 b83d
000001c0: 489e fabe 97d4 1f3e 762e eabd 0c57 a2be
000001d0: dbca 93be 7ab9 ecbd 32bb 4abe f7f4 1c3e
000001e0: 6509 a83c f5d1 033f b23c 993e 81cd 593c
000001f0: 5aff 88bd e543 fa39 af27 ad3d 2e8b 0abf
00000200: 1060 afbe 3570 97be e9b6 f93c 25cf 1cbd
00000210: 5802 f4be 9870 a33e 16c9 b8be 53f1 96be
00000220: af85 3f3e b26d 293e 2bec c23d c079 813e
00000230: 6cc4 a33e d5ea 1dbe 71a8 2c3e 04ab db3e
00000240: a6a9 183e 4994 ba3e e8d8 41be 3077 57be
00000250: 715f 31be 9d38 fdbe 1de7 d23d 1f50 e9bc
00000260: eada d13e c6f7 4dbe fedf f8be babd 033e
00000270: 7751 71bd 6672 0d3e 9168 12bc e203 82be
00000280: 15dd a7bd 3c31 b8be 9a04 d23e f15b e73e
00000290: 2e8c ccbd ad39 093c 1039 2dbe 33b6 64be
000002a0: 7c3c 3fbe e3a0 40bd cffe 033e 8e61 f3be
000002b0: 5fe7 62be 9c99 993c a5cb 253d e2f4 9cbd
000002c0: 911f 193d 12ff 1abd 2967 0fbe 8afb 993e
000002d0: 4f10 513e 742e 8d3d f4e3 0d3c aee2 b2be
000002e0: 0868 0f3e f32c 9c3e 2320 e93e 24f3 c2bc
000002f0: d375 66bd 4192 c93d cb29 11be 7ca6 473e
00000300: 63f1 a73d 7af2 47be 95e5 c33d 649c 2c3e
00000310: d10a 773e 7d4c 20bd 1caa 91bc 7174 d53c
00000320: 8f24 993d f838 553e 690d cabc 11bb 203e
00000330: 3884 2fbe 2c70 9abc 8002 e13e 8f0a abbd
00000340: dc37 5bbe 9642 703e 3962 9a3c 14c2 79be
00000350: 755b 0d3e 8e1d a2be a00c 203e 39e7 e6bc
00000360: d167 973e e883 8c3e 9b02 e0bd 291b 8c3e
00000370: f678 8dbd 1d74 d7bd a90b d23c 2d15 f6be
00000380: 8645 02bd e674 3ebe b9bd 7c3e c3ac 133e
00000390: 5bb0 543d f8cf bc3d 504a 7ebd a0c4 853e
000003a0: c573 8c3d 583b c83d ab4e f23e 0307 4a3c
000003b0: 60eb d63e d9e8 473e b7e8 c2bc d34d b73d
000003c0: 2f03 ac3d b996 1bbe bdbd 3ebe 8b44 66be
000003d0: 8fdb 223e 47e0 833d 0a9c 133e 0fd9 9ebe
000003e0: dc2d 2cbc 1b06 623d 501a bebe fc3e 81be
000003f0: ff02 813d d58e 87be eb82 94be 9cb6 d83e

bias f4 [20]
-0.12637207 0.27421853 -0.0798775 -0.086373016 -0.11234368 0.033253442 0.24771087 0.0005656273
-0.08699064 -0.18747309 -0.18382365 0.20580569 -0.081860304 -0.08148195 -0.06081495 0.05955344
0.21369582 0.17948447 0.10979061 -0.06441165
00000000: ae67 01be 5f66 8c3e d196 a3bd 56e4 b0bd
00000010: 7114 e6bd c334 083d eba7 7d3e 9b46 143a
00000020: 2628 b2bd f2f8 3fbe 443c 3cbe babe 523e
00000030: 60a6 a7bd 02e0 a6bd 1919 79bd 4fee 733d
00000040: 14d3 5a3e c7ca 373e e6d9 e03d 41ea 83bd

weight f4 [20, 20]
-0.3924927 0.18446918 -0.46572587 -0.048327744 0.047558296 0.30914387 0.56232184 0.15302925
0.25006327 0.2853463 -0.213165 0.041584115 -0.40109345 -0.07383114 -0.022066643 -0.069790855
-0.23960757 -0.008955119 0.035123594 0.004987821 0.07603515 0.13927685 -0.08510139 -0.3158863
-0.09827415 -0.03555766 -0.041770767 -0.40563646 -0.015619225 -0.17663676 0.09952904 0.068695314
-0.12508082 -0.114344165 0.22613692 0.25346226 -0.2995613 0.27831516 -0.15380415 -0.06053231
-0.15284854 -0.032129046 -0.09657983 -0.056719005 0.26368144 0.25714892 0.31120762 -0.16532959
-0.005452338 -0.124529615 0.45657527 0.49071506 -0.13180695 0.2154316 -0.21997516 -0.14816195
0.4881387 0.31496847 -0.010425856 0.3469824 -0.33198407 0.05494029 0.049356 0.001313366
-0.022921234 0.18038417 -0.26612654 0.4785271 -0.16320439 -0.002213176 0.22678816 0.19605291
-0.06925712 0.2503083 0.12247818 -0.27801535 0.097959355 -0.280329 -0.10071873 -0.0648971
-0.013478269 0.0777264 -0.43973833 -0.27254602 -0.09055016 -0.068371885 0.029664798 0.2216595
-0.40012673 0.14942698 0.4579689 0.027743166 0.015305801 -0.15121374 -0.2248874 -0.1397955
-0.057626512 -0.71469945 0.060613625 0.08136621 -0.074349955 0.130508 -0.04145764 -0.16910832
0.18233013 -0.073858894 0.40299895 -0.11696685 0.106792055 0.008438605 0.12883808 -0.11318473
-0.54991275 0.3516634 -0.028249292 0.047273453 -0.29146641 0.10426172 0.0161089 0.0833786
-0.0015395434 -0.30322477 -0.10573354 0.14519148 0.3713397 0.120574616 -0.056835942 0.17156361
0.29810116 -0.450256 -0.18358985 -0.3552309 0.24070254 -0.2666141 -0.05541897 0.7166047
0.300675 0.65667236 0.45563787 0.086445965 -0.017072974 -0.04734844 -0.029456366 0.049685087
-0.07033338 0.4147636 0.28753823 0.33950505 -0.023795761 0.21870086 -0.24719436 -0.4509126
-0.015289145 0.3411007 -0.1497501 -0.06994779 0.22338855 0.6474372 -0.2954936 -0.33974603
-0.23176037 -0.2174549 -0.025557846 -0.025895605 -0.12107739 0.16272074 0.3369783 -0.14380465
-0.35218805 -0.080370694 -0.10321607 -0.066458985 -0.11080589 0.31139466 0.17131355 0.3759419
-0.22472134 -0.17625715 0.26348928 0.098287575 0.048565004 0.06816515 0.0481512 0.041805588
-0.29108253 0.09842079 -0.34237128 -0.25035065 -0.089579456 -0.040023435 -0.43856174 0.4713181
-0.004695765 -0.14419371 0.045318644 -0.34533098 0.20732042 0.26418412 -0.03693266 -0.2916928
0.11964035 0.052281227 -0.07555082 0.3403457 -0.044899456 -0.7844118 -0.30882153 0.16387402
-0.34935865 0.14229913 0.07546686 -0.20409107 0.45513904 0.12653925 0.03908053 0.14474273
0.24587916 -0.026111778 0.043703295 0.17950398 -0.04507005 -0.22926317 -0.23331438 -0.0002951301
0.071867764 0.09466908 0.21045364 -0.20267735 0.5755427 -0.27905178 -0.1942958 0.14211085
-0.013155332 0.03071223 0.0017688253 0.5150927 0.3272168 0.22958083 0.18783326 0.089574516
0.17455402 0.049843382 0.09296191 -0.08675155 0.18814483 0.21782511 0.019608315 -0.36057225
-0.25199488 0.037059724 0.29664636 0.05975271 0.07387187 0.27859458 0.009058476 0.52603304
00000000: cef4 c8be 7de5 3c3e 9f73 eebe 50f3 45bd
00000010: 7dcc 423d 1b48 9e3e 53f4 0f3f b3b3 1c3e
00000020: 4b08 803e e918 923e ed47 5abe 1b54 2a3d
00000030: 1f5c cdbe c834 97bd 1bc5 b4bc 82ee 8ebd
00000040: b05b 75be 7eb8 12bc c2dd 0f3d e070 a33b
00000050: 51b8 9b3d 979e 0e3e a349 aebd d9bb a1be
00000060: f543 c9bd e9a4 11bd d317 2bbd 95af cfbe
00000070: c7e7 7fbc 44e0 34be e2d5 cb3d 21b0 8c3d
00000080: 3015 00be 462d eabd 7090 673e cec5 813e
00000090: 1960 99be 537f 8e3e d67e 1dbe baf0 77bd
000000a0: 5484 1cbe bf99 03bd a5cb c5bd 3052 68bd
000000b0: 4101 873e 06a9 833e 9b56 9f3e 294c 29be
000000c0: 87a9 b2bb 6209 ffbd 3cc4 e93e 013f fb3e
000000d0: 67f8 06be 1a9a 5c3e 2b41 61be c4b7 17be
000000e0: 51ed f93e 8c43 a13e 36d1 2abc ada7 b13e
000000f0: d1f9 a9be 1209 613d 8429 4a3d 4025 ac3a
00000100: 50c5 bbbc a1b6 383e bd41 88be 8101 f53e
00000110: 0d1f 27be ef0a 11bb 283b 683e 18c2 483e
00000120: add6 8dbd 6928 803e d7d5 fa3d 0758 8ebe
00000130: ea9e c83d 4887 8fbe 9f45 cebd c5e8 84bd
00000140: f5d3 5cbc 052f 9f3d 6225 e1be 278b 8bbe
00000150: 5d72 b9bd 8f06 8cbd 9703 f33c b5fa 623e
00000160: 69dd ccbe 6303 193e e67a ea3e a345 e33c
00000170: 2fc5 7a3c c6d7 1abe e248 66be 8d26 0fbe
00000180: c709 6cbd 8bf6 36bf fe45 783d 54a3 a63d
00000190: ca44 98bd e4a3 053e 7ccf 29bd bb2a 2dbe
000001a0: c0b4 3a3e 5543 97bd e155 ce3e 518c efbd
000001b0: cbb5 da3d 1342 0a3c 21ee 033e 65cd e7bd
000001c0: 15c7 0cbf 3a0d b43e 0f6b e7bc cfa1 413d
000001d0: 163b 95be 2b87 d53d d0f6 833c 66c2 aa3d
000001e0: 81ca c9ba 4740 9bbe d48a d8bd 13ad 143e
000001f0: 3d20 be3e d3ef f63d cecc 68bd 5fae 2f3e
00000200: b7a0 983e f487 e6be fafe 3bbe d3e0 b5be
00000210: ba7a 763e a581 88be 00ff 62bd 6873 373f
00000220: 13f2 993e ae1b 283f 5e49 e93e 950a b13d
00000230: 9fdc 8bbc 70f0 41bd 7a4e f1bc 9782 4b3d
00000240: f20a 90bd e55b d43e 3638 933e 9bd3 ad3e
00000250: 54ef c2bc 1ef3 5f3e 8520 7dbe 04de e6be
00000260: 527f 7abc c0a4 ae3e 1758 19be c940 8fbd
00000270: f8bf 643e 72be 253f f04a 97be 31f3 adbe
00000280: 9752 6dbe 7fac 5ebe b05e d1bc 0523 d4bc
00000290: 6cf7 f7bd 44a0 263e 6b88 ac3e 8741 13be
000002a0: fe51 b4be 6499 a4bd f262 d3bd a61b 88bd
000002b0: 33ee e2bd 1f6f 9f3e d26c 2f3e 757b c03e
000002c0: 5a1d 66be c17c 34be 11e8 863e ff4a c93d
000002d0: 19ec 463d 2c9a 8b3d 313a 453d 563c 2b3d
000002e0: c508 95be d790 c93d 4a4b afbe f62d 80be
000002f0: 6f75 b7bd 9def 23bd 2a8b e0be 9b50 f13e
00000300: efde 99bb 84a7 13be 0ba0 393d 39cf b0be
00000310: ce4b 543e 2443 873e b346 17bd c258 95be
00000320: 0006 f53d d724 563d 63ba 9abd cb41 ae3e
00000330: 7ee8 37bd 36cf 48bf db1d 9ebe 97ce 273e
00000340: 23df b2be ddb6 113e 5e8e 9a3d 40fd 50be
00000350: fc07 e93e 8193 013e e812 203d 7037 143e
00000360: bfc7 7b3e 5ee8 d5bc 3a02 333d e4cf 373e
00000370: 5f9b 38bd f7c3 6abe f7e9 6ebe b1bb 9ab9
00000380: 682f 933d dde1 c13d 2981 573e a78a 4fbe
00000390: c456 133f e0df 8ebe 7af5 46be 8285 113e
000003a0: 7689 57bc 3798 fb3c eed7 e73a 1ddd 033f
000003b0: f688 a73e 3d17 6b3e 5d57 403e d872 b73d
000003c0: 4abe 323e 9328 4c3d d062 be3d ccaa b1bd
000003d0: 0aa9 403e 8c0d 5f3e 9ea1 a03c ed9c b8be
000003e0: 7905 81be f0cb 173d 08e2 973e 42bf 743d
000003f0: 234a 973d f3a3 8e3e 016a 143c 1aaa 063f

bias f4 [20]
0.25199553 0.109446384 0.121696204 -0.09181296 0.29319537 0.14420979 -0.18258275 -0.09025109
0.1102929 0.15383826 0.10009211 -0.19541737 -0.20383951 0.1263151 -0.25642875 -0.010746112
-0.045292787 -0.20652065 0.070187606 0.074977405
00000000: 8f05 813e 6d25 e03d dc3b f93d 6f08 bcbd
00000010: b41d 963e bbab 133e f9f6 3abe 90d5 b8bd
00000020: 3ee1 e13d c787 1d3e 18fd cc3d 7e1b 48be
00000030: 4ebb 50be bf58 013e a14a 83be 7610 30bc
00000040: ee84 39bd 267a 53be 85be 8f3d c18d 993d

weight f4 [20, 20]
0.24064855 0.0041692457 0.091610305 -0.06780416 -0.23443641 0.11994588 -0.3783717 0.03132673
0.0038175625 -0.29822627 -0.7313046 -0.075243816 -0.53506035 0.2920994 -0.6401914 0.248056
-0.15989742 0.027995422 0.14962466 0.4388841 -0.14937575 -0.062596075 0.042019144 -0.04068108
0.021587761 -0.10925779 0.3248091 0.2371479 -0.22605538 -0.08972918 -0.14264505 -0.06149354
0.35943586 -0.19951108 0.25141197 0.0369471 -0.03687661 0.34857565 -0.17807923 -0.25382125
0.02452043 -0.22862875 0.075031884 0.18208635 -0.40337917 0.05065877 0.14775813 -0.13464902
-0.37281454 -0.24030063 -0.050452672 0.025342587 0.14219576 0.11665462 0.16610236 -0.12591876
0.10761006 0.30544695 -0.15733686 -0.16730554 -0.35982022 -0.48891604 0.040584393 -0.1269342
-0.049679708 -0.43234402 0.25824958 -0.24013865 -0.23591816 -0.19208477 -0.26344442 -0.04192624
0.2076479 -0.12548612 0.43990022 -0.25785846 -0.11439306 0.21758662 -0.34124395 -0.42741567
-0.34069952 -0.62635756 -0.08219084 0.20012647 0.21229145 -0.27655473 0.1724504 0.22451743
-0.1260733 0.21924934 0.32868356 -0.14017656 -0.064175464 -0.13387483 0.20610891 -0.09259634
-0.21526986 0.29735783 -0.3181837 -0.017084477 0.152627 -0.039838277 -0.07285649 0.016971825
-0.19912401 -0.03289279 0.04550608 -0.047473267 0.03652069 0.5549881 0.13982743 -0.38091645
-0.07980709 0.3094179 -0.279795 -0.09525874 -0.31700903 0.019599998 -0.16040465 0.04603558
-0.079424605 0.17448166 0.26914454 0.30677637 0.23729008 0.40097165 -0.2640797 -0.022085963
0.06806857 0.04933186 -0.15829757 -0.34303614 0.009446257 0.46471867 0.58887064 0.021029223
0.09181031 0.15754999 -0.49977723 -0.20585991 -0.0102579 -0.2250641 -0.26095238 0.16676562
-0.51125014 -0.37972245 0.2823893 0.53639805 -0.02122258 -0.08941222 0.29917905 -0.17871149
0.28811848 -0.16276532 0.4469501 -0.27038786 0.102786526 0.118481666 0.031108635 0.012058101
-0.38037 0.17934473 -0.2996081 0.027226636 -0.3562907 -0.08448899 -0.11153566 -0.040336892
0.06144109 0.391387 -0.34527293 -0.007742682 -0.1325921 -0.30251443 0.34864345 -0.28236842
-0.37983635 -0.26641816 -0.23883723 -0.26336715 0.13432705 -0.12140035 -0.010222408 -0.122342035
0.1890531 0.01879963 -0.5383525 -0.38431215 0.0124719115 0.122768715 -0.47971272 -0.24237594
-0.27667433 0.4307086 0.27610525 -0.042664986 -0.10183971 0.08282388 -0.118330486 -0.31375632
-0.016337965 0.022930615 0.002803074 -0.28084233 -0.3087152 -0.30973414 0.60320497 0.3752509
-0.13715334 0.17171146 0.18342029 0.2024266 0.19253846 -0.10084187 0.18352255 0.035646003
-0.10175444 0.31406727 -0.14661708 0.29043162 0.15628621 -0.40265355 -0.16272983 0.307801
0.102401994 0.20357487 -0.13345498 0.33015192 0.25726327 -0.018041966 -0.23652032 -0.21285293
0.23240507 -0.074789904 0.13439558 0.118666574 -0.089267544 -0.14787553 -0.11866016 -0.091137454
0.06849963 -0.26107088 -0.025207823 -0.4628286 0.30582973 -0.10689272 -0.18566073 -0.14523973
-0.18364389 -0.045018163 0.09062011 -0.1866403 -0.27475536 -0.23653172 -0.18868388 -0.09222909
00000000: 936c 763e 2b9e 883b 2f9e bb3d e8dc 8abd
00000010: 1910 70be 2fa6 f53d efb9 c1be 7550 003d
00000020: 1230 7a3b 1db1 98be c736 3bbf 6e19 9abd
00000030: b7f9 08bf 0d8e 953e 95e3 23bf 6402 7e3e
00000040: 26bc 23be a856 e53c 3537 193e 6bb5 e03e
00000050: f5f5 18be 5f32 80bd 441c 2c3d 34a1 26bd
00000060: d1d8 b03c 8cc2 dfbd 614d a63e e6d6 723e
00000070: 107b 67be efc3 b7bd 8b11 12be a6e0 7bbd
00000080: fa07 b83e a24c 4cbe 12b9 803e d855 173d
00000090: ee0b 17bd 8278 b23e 675a 36be dcf4 81be
000000a0: 12df c83c a81d 6abe 51aa 993d d874 3a3e
000000b0: b787 cebe 927f 4f3d e84d 173e 6fe1 09be
000000c0: 8ce1 bebe 5e11 76be 76a7 4ebd 429b cf3c
000000d0: c49b 113e 9ee8 ee3d bd16 2a3e d9f0 00be
000000e0: aa62 dc3d 8b63 9c3e ea1c 21be 2552 2bbe
000000f0: 5b3a b8be 3453 fabe d23b 263d 0afb 01be
00000100: f37c 4bbd 325c ddbe 4a39 843e e8e6 75be
00000110: 8894 71be dfb1 44be 30e2 86be d9ba 2bbd
00000120: a7a1 543e 6f7f 00be 9a3a e13e 0606 84be
00000130: e946 eabd 07cf 5e3e 87b7 aebe 3ad6 dabe
00000140: 2b70 aebe f858 20bf ac53 a8bd f4ed 4c3e
00000150: ee62 593e 9598 8dbe d696 303e e6e7 653e
00000160: 5c19 01be e682 603e 3649 a83e 728a 0fbe
00000170: 6d6e 83bd 7c16 09be 370e 533e 26a3 bdbd
00000180: b46f 5cbe 493f 983e f9e8 a2be bff4 8bbc
00000190: 414a 1c3e 762d 23bd c935 95bd 7f08 8b3c
000001a0: 2ae7 4bbe 97ba 06bd 9564 3a3d 5473 42bd
000001b0: b896 153d b313 0e3f ec2e 0f3e 7b07 c3be
000001c0: e671 a3bd 066c 9e3e 4a41 8fbe 0417 c3bd
000001d0: 024f a2be 2d90 a03c 1e41 24be ce8f 3c3d
000001e0: 5ea9 a2bd 52ab 323e 50cd 893e cb11 9d3e
000001f0: 2cfc 723e 284c cd3e 7435 87be 9fed b4bc
00000200: 8967 8b3d 3410 4a3d c218 22be 6fa2 afbe
00000210: 79c4 1a3c 9bef ed3e 3ac0 163f 7a45 ac3c
00000220: 0b07 bc3d c954 213e cde2 ffbe f1cc 52be
00000230: c010 28bc 3477 66be 8d9b 85be 9bc4 2a3e
00000240: 4ae1 02bf fb6a c2be 5595 903e 6251 093f
00000250: fada adbc c11d b7bd ff2d 993e 2500 37be
00000260: 4484 933e f4ab 26be a5d6 e43e 4770 8abe
00000270: be81 d23d 84a6 f23d 89d7 fe3c 578f 453c
00000280: dbbf c2be 25a6 373e 3c66 99be 650a df3c
00000290: bc6b b6be 9008 adbd cf6c e4bd 4c38 25bd
000002a0: a7a9 7b3d e063 c83e 9dc7 b0be 53b6 fdbb
000002b0: 39c6 07be 2ce3 9abe 6581 b23e 9892 90be
000002c0: e979 c2be f667 88be bf91 74be 0fd8 86be
000002d0: 088d 093e bfa0 f8bd e37b 27bc 768e fabd
000002e0: 2397 413e af01 9a3c 78d1 09bf 90c4 c4be
000002f0: fd56 4c3c 2a6e fb3d e89c f5be 6631 78be
00000300: 42a8 8dbe d685 dc3e ab5d 8d3e 7bc1 2ebd
00000310: 5691 d0bd 919f a93d 4157 f2bd aba4 a0be
00000320: 32d7 85bc fcd8 bb3c c7b3 373b 91ca 8fbe
00000330: eb0f 9ebe 7995 9ebe a46b 1a3f e320 c03e
00000340: ed71 0cbe 21d5 2f3e 87d2 3b3e eb48 4f3e
00000350: cd28 453e 2f86 cebd 56ed 3b3e 8b01 123d
00000360: a264 d0bd 6dcd a03e ca22 16be 74b3 943e
00000370: 7e09 203e 9b28 cebe a6a2 26be 1898 9d3e
00000380: 23b8 d13d ee75 503e 6ca8 08be ac09 a93e
00000390: 03b8 833e bfcc 93bc 6232 72be 1ef6 59be
000003a0: 98fb 6d3e 732b 99bd ff9e 093e 7607 f33d
000003b0: e7d1 b6bd af6c 17be 1904 f3bd 46a6 babd
000003c0: 8949 8c3d 15ab 85be a380 cebc dff7 ecbe
000003d0: b795 9c3e 92ea dabd d91d 3ebe b9b9 14be
000003e0: 250d 3cbe f764 38bd 0997 b93d a31e 3fbe
000003f0: bcac 8cbe 5f35 72be 5936 41be 9be2 bcbd

bias f4 [20]
0.06604863 -0.14994237 -0.17768052 -0.08554772 -0.058936376 0.18107983 0.2250321 -0.28822988
-0.122466825 0.19523144 -0.12938651 -0.016694646 0.22794713 0.10407618 0.1017055 -0.016559627
0.11556922 0.018852128 0.037230622 0.010611732
00000000: 8144 873d 7e8a 19be e2f1 35be a533 afbd
00000010: 4567 71bd fe6c 393e d16e 663e de92 93be
00000020: e3cf fabd c0ea 473e e67d 04be 36c3 88bc
00000030: f96a 693e e425 d53d f94a d03d 0ea8 87bc
00000040: 8eaf ec3d c76f 9a3c 237f 183d d4dc 2d3c

weight f4 [20, 20]
-0.21998867 -0.06083753 0.29836684 0.08858678 -0.07519507 -0.03467816 -0.017975248 0.1388171
0.16400218 -0.14998622 0.23577389 0.37642515 -0.19802442 0.23936214 0.1739541 -0.10435913
0.08885047 -0.085621305 -0.30838424 0.006558529 -0.026806531 -0.33449116 0.3766851 0.043071188
0.30603534 -0.0895272 -0.23238686 -0.09989399 0.20760106 -0.13921283 -0.08422071 0.13291213
0.048072003 0.3024876 0.18496148 -0.20623235 -0.1204904 0.16919564 0.13493809 0.02156874
-0.10007787 -0.18491243 -0.12889533 0.15137535 -0.057887595 -0.025660645 -0.026784277 -0.16888335
-0.12337499 -0.4618001 0.48973042 -0.24561386 -0.21869302 -0.22914432 -0.19751683 0.0372981
0.36935753 -0.29446024 0.4564452 0.051786125 -0.029861687 0.1799926 0.2442222 -0.14990209
-0.2586276 0.17156897 0.011141445 -0.51326746 -0.21075071 0.17888646 0.055068973 0.018230617
0.18488051 0.014462214 0.119049266 -0.18527578 0.36175874 0.4733681 0.18752551 0.4663103
-0.3922233 0.072617985 0.10877025 0.3346503 0.12990558 -0.060051415 -0.14765543 0.32258815
0.10893503 0.034627013 0.3382772 0.07687193 -0.35035136 0.027481943 -0.46035814 -0.043584626
-0.033926334 0.2410925 0.02634492 -0.35949275 -0.17889564 0.19316666 0.021603897 -0.06437878
0.18167505 -0.22618943 -0.4512151 0.5471578 0.5089817 -0.18030967 0.07357808 -0.23892729
0.05967445 -0.068940245 -0.13729094 -0.08785598 -0.21093656 -0.25585243 -0.08823412 -0.11917645
0.29318285 -0.22534975 0.47462794 0.3220109 0.36591926 0.2919766 0.29331952 0.10895861
0.41559395 0.15180804 -0.18481292 -0.29166213 -0.023958543 0.54077154 0.7820534 -0.19790947
-0.20393525 0.33719358 -0.19723669 0.586606 -0.1618275 0.3581563 0.045271795 0.13284168
-0.17481706 0.3597372 -0.3077228 0.28304946 -0.3098347 -0.38272136 0.07669774 0.18520695
-0.29271328 -0.41660202 -0.038823716 -0.2390199 0.037940625 0.13994893 -0.28265855 -0.17874368
0.06321053 0.3479466 0.1451812 0.08534629 0.021131717 0.1376129 0.02871762 -0.3168181
0.05377264 -0.37177548 -0.05150789 -0.25322306 0.17969018 -0.08396827 -0.084335074 0.544564
-0.39941522 -0.0018002688 0.037067298 -0.04720024 0.2534399 -0.32701737 0.6455316 -0.048311062
-0.6367661 0.41453496 -0.19645469 -0.08524034 0.2757114 -0.15729886 0.13285534 0.12048258
-0.34742245 0.1904121 0.71653306 -0.39257282 0.24154946 0.62079185 0.2540733 0.0026566517
0.20072336 -0.43134114 0.056080356 -0.04170886 0.21362786 0.11698055 0.13946088 0.006745587
0.02899977 0.13495505 -0.15786555 -0.39130616 0.43169117 0.040147085 0.032967985 -0.23036265
0.2656684 -0.14717096 -0.25344238 0.32102853 0.23856343 -0.28906816 -0.37996182 -0.18029365
-0.2649118 0.530288 0.063204154 -0.0029420413 0.37364113 0.13068467 -0.07479707 0.12672019
-0.1344991 -0.047379073 0.39038172 0.04346581 0.12317265 0.24811587 0.036524676 0.3396249
0.4047853 0.096416034 -0.22550447 -0.34258705 -0.12183601 0.15614474 0.09203618 -0.48027498
-0.095296934 0.28489056 0.00625042 0.0560729 -0.11883819 -0.0227828 0.020213047 -0.2655268
00000000: b644 61be c630 79bd 8ac3 983e fc6c b53d
00000010: dfff 99bd b00a 0ebd d440 93bc 1226 0e3e
00000020: 30f0 273e fd95 19be b66e 713e ccba c03e
00000030: eac6 4abe 591b 753e 0621 323e 3dba d5bd
00000040: 3cf7 b53d 395a afbd 8ae4 9dbe eee8 d63b
00000050: 5f99 dbbc 6d42 abbe dfdc c03e 6a6b 303d
00000060: aab0 9c3e 095a b7bd d2f6 6dbe 3895 ccbd
00000070: 5f95 543e cf8d 0ebe e87b acbd 1e1a 083e
00000080: 26e7 443d a8df 9a3e 8b66 3d3e 932e 53be
00000090: acc3 f6bd 9f41 2d3e 362d 0a3e edb0 b03c
000000a0: a0f5 ccbd af59 3dbe 23fd 03be 2402 1b3e
000000b0: 8b1b 6dbd 4636 d2bc b36a dbbc c2ef 2cbe
000000c0: 07ac fcbd 1071 ecbe f2bd fa3e 3382 7bbe
000000d0: 10f1 5fbe cfa4 6abe da41 4abe e4c5 183d
000000e0: 6e1c bd3e 7ec3 96be 2fb3 e93e b01d 543d
000000f0: 7fa0 f4bc fb4f 383e 6215 7a3e ef7f 19be
00000100: d66a 84be c7af 2f3e 9b8a 363c 7f65 03bf
00000110: 09cf 57be 032e 373e 0190 613d 6058 953c
00000120: 5151 3d3e ecf2 6c3c 1ad0 f33d efb8 3dbe
00000130: 7138 b93e 4e5d f23e b006 403e 39c0 ee3e
00000140: 7ed1 c8be bdb8 943d f0c2 de3d 4957 ab3e
00000150: f805 053e 79f8 75bd fc32 17be 462a a53e
00000160: 5419 df3d 0ed5 0d3d ab32 ad3e 086f 9d3d
00000170: 4161 b3be d021 e13c 10b4 ebbe cb85 32bd
00000180: 57f6 0abd f4e0 763e 4dd1 d73c 6f0f b8be
00000190: 6b30 37be 7bcd 453e a8fa b03c 06d9 83bd
000001a0: 0609 3a3e 349e 67be aa05 e7be 8912 0c3f
000001b0: a04c 023f 19a3 38be 1bb0 963d 5ba9 74be
000001c0: 326d 743d 8b30 8dbd ff95 0cbe d6ed b3bd
000001d0: c1ff 57be 17ff 82be 17b4 b4bd c812 f4bd
000001e0: 101c 963e 16c2 66be 6f02 f33e 9dde a43e
000001f0: c559 bb3e f57d 953e fa2d 963e b125 df3d
00000200: bbc8 d43e 9173 1b3e 993f 3dbe bd54 95be
00000210: b544 c4bc 0170 0a3f a734 483f c8a8 4abe
00000220: 67d4 50be a3a4 ac3e 6af8 49be d02b 163f
00000230: 1cb6 25be 4360 b73e eb6e 393d a607 083e
00000240: 3e03 33be 792f b83e d88d 9dbe dceb 903e
00000250: a7a2 9ebe 0ef4 c3be b413 9d3d e4a6 3d3e
00000260: 84de 95be dc4c d5be 9e05 1fbd a2c1 74be
00000270: a167 1b3d c64e 0f3e 9fb8 90be 9508 37be
00000280: 8674 813d 0f26 b23e 61aa 143e 09ca ae3d
00000290: 6c1c ad3c 65ea 0c3e 3741 eb3c fb35 a2be
000002a0: b340 5c3d 5b59 bebe f0f9 52bd 74a6 81be
000002b0: b400 383e 8ef7 abbd deb7 acbd 8c68 0b3f
000002c0: 2780 ccbe fff6 ebba e1d3 173d 0a55 41bd
000002d0: e0c2 813e d26e a7be 8f41 253f d2e1 45bd
000002e0: 1a03 23bf ed3d d43e 6b2b 49be 7d92 aebd
000002f0: 0b2a 8d3e f412 21be 3b0b 083e 92bf f63d
00000300: 5be1 b1be 64fb 423e b66e 373f 4eff c8be
00000310: be58 773e 37ec 1e3f e515 823e 381b 2e3b
00000320: 6d8a 4d3e bfd8 dcbe 84b4 653d e9d6 2abd
00000330: 43c1 5a3e 8093 ef3d d5ce 0e3e 160a dd3b
00000340: ed90 ed3c a831 0a3e 82a7 21be 4859 c8be
00000350: a006 dd3e 4571 243d 7009 073d 30e4 6bbe
00000360: b005 883e fcb3 16be 33c3 81be da5d a43e
00000370: f949 743e be00 94be 5b8a c2be e69e 38be
00000380: 85a2 87be f4c0 073f 2e71 813d 43cf 40bb
00000390: e44d bf3e 34d2 053e 352f 99bd f0c2 013e
000003a0: 22ba 09be 8f10 42bd 1de0 c73e 3509 323d
000003b0: f141 fc3d 1612 7e3e e69a 153d 51e3 ad3e
000003c0: 0540 cf3e c575 c53d a5ea 66be 9267 afbe
000003d0: 2885 f9bd 68e4 1f3e 777d bc3d 9ae6 f5be
000003e0: 0a2b c3bd 2ddd 913e 53d0 cc3b b2ac 653d
000003f0: 7061 f3bd ffa2 babc d595 a53c 21f3 87be

bias f4 [20]
-0.039579123 -0.15751047 -0.09844723 0.16384773 -0.14117403 -0.13448454 0.16936569 -0.051043067
-0.1516958 0.103390805 0.253317 -0.090810925 0.18338221 -0.010547495 -0.028431356 -0.30722255
0.20583715 0.20332861 0.105025 0.25332382
00000000: b81d 22bd 6d4a 21be b49e c9bd b3c7 273e
00000010: ed8f 10be 51b6 09be 336e 2d3e 8912 51bd
00000020: 2556 1bbe 8fbe d33d c4b2 813e 14fb b9bd
00000030: 8cc8 3b3e 67cf 2cbc e0e8 e8bc 464c 9dbe
00000040: f9c6 523e 6035 503e 5917 d73d a9b3 813e

weight f4 [1, 20]
-0.080713965 0.11956576 -0.4027932 0.8288809 -0.9926019 -0.7638646 0.96021414 -0.35566616
-0.47876692 0.9514043 1.3138906 0.4463463 1.1694249 0.5334595 -0.730087 -1.1465632
1.0685697 1.3309247 0.71996045 0.94277054
00000000: 5d4d a5bd e5de f43d e93a cebe 8a31 543f
00000010: 281b 7ebf a18c 43bf 98d0 753f e019 b6be
00000020: f020 f5be 3b8f 733f 912d a83f 8187 e43e
00000030: b7af 953f cd90 083f fbe6 3abf 95c2 92bf
00000040: e4c6 883f be5b aa3f 544f 383f 6959 713f

u_b f4 [2]
2.899847 39.96
00000000: 1897 3940 0ad7 1f42

l_b f4 [2]
0.03749462 0.0
00000000: f593 193d 0000 0000
