Iter_03/Models/Noise_5/simulation_00_03/pidnn_400.pt (torch, 87453 bytes, 23 tensors)

weight f4 [20, 2]
000000 21 4a fa bd d9 6b d0 3f 71 73 0d 3f b1 17 f4 bd
       -0.1222117 1.6282912 0.55254275 -0.11918581
000010 40 c3 11 3f c1 96 f5 3e a3 b4 5e 3e c6 7e 90 be
       0.5693855 0.4796658 0.21748595 -0.2822172
000020 4c ed 39 be 44 33 f9 bd 69 ab 3b be b4 43 4c bd
       -0.18156928 -0.12167981 -0.18327107 -0.049869254
000030 0b 17 52 be d9 b4 bd bd 88 a0 4c be 52 cb 4e 3e
       -0.20516603 -0.092630096 -0.19983113 0.20194748
000040 af 6d b2 3c 8c 3b 62 3f 3a 37 ba 3b ac 3f 7c 3c
       0.021780817 0.8837211 0.005682853 0.01539604
000050 06 a7 32 be 71 74 50 3d 7e 81 b0 be b3 12 51 bf
       -0.17446527 0.050892297 -0.34473795 -0.8166916
000060 c4 1e 6e be a5 03 5d 3f f9 ec fc 3d 46 27 4d 3e
       -0.23253924 0.86333686 0.123498864 0.20034513
000070 61 56 fe be f9 fb 71 be e9 2a 91 3e 2f ce 96 3f
       -0.49675277 -0.23631276 0.2835305 1.1781672
000080 6b 34 bc be 8a 08 0b be fe 4a 47 3d ce 4e ef 3d
       -0.36758742 -0.13577476 0.048655502 0.11684953
000090 a4 dc 57 bd bc 8d 87 bd 3a f8 ed 3d a4 86 66 3e
       -0.052700654 -0.066188306 0.11619611 0.22512299

bias f4 [20]
000000 34 67 b9 3e 87 3c 86 3d 4d f3 4a 3e 21 4f 86 3d
       0.3621155 0.065545134 0.19819374 0.065580614
000010 5e e9 b2 bd b3 48 1d bc 5b 64 ee be d6 16 13 3d
       -0.087359175 -0.009599852 -0.4656094 0.03591045
000020 19 61 81 ba 04 29 13 3e fd ce 2e 3e 03 7c 18 bf
       -0.0009870856 0.14371115 0.17071147 -0.59564227
000030 f3 65 67 3e be 54 2a 3e 97 d3 67 be 8e 82 13 be
       0.22597484 0.16633889 -0.22639309 -0.14405271
000040 45 97 08 3d b1 4f c4 be b4 c7 47 be 20 de be 3d
       0.033347387 -0.3834205 -0.19509774 0.09319711

weight f4 [20, 20]
000000 e6 b1 30 bf 35 74 28 be 34 51 b9 3d 25 7b 11 3e
       -0.6902145 -0.1645058 0.090486914 0.14207132
000010 54 21 70 3e f9 97 57 3d 39 13 62 be 3b 42 4c be
       0.23450214 0.052635167 -0.22077645 -0.1994714
000020 1d b6 ec be 15 e8 12 bd f1 eb bc be 3a e5 18 3f
       -0.4623269 -0.035865862 -0.3689876 0.5972477
000030 aa 10 3d be 5f f5 b6 bd 1a e0 82 be 1f 17 1f bf
       -0.18463388 -0.089335196 -0.255616 -0.62144655
000040 33 db 5a be 26 b9 03 be a9 d4 6f 3e ba 18 0d be
       -0.2137268 -0.12863597 0.23420967 -0.13778964
000050 14 16 bf bd 2a be cf 3e 05 e3 07 3e 7d 44 05 bf
       -0.09330383 0.4057477 0.13270195 -0.5205763
000060 f2 82 c9 3d e3 e6 45 be 1b 83 3a be b5 b1 ca bd
       0.09839429 -0.19326358 -0.18214075 -0.09897176
000070 37 64 55 be 70 ab ed 3d d8 0d ce 3e 92 72 1e be
       -0.2083901 0.11604965 0.40244937 -0.15473393
000080 18 8b db 3d 5d 7e a0 3c c9 62 47 3e 28 78 8e bc
       0.107198894 0.019591505 0.19471277 -0.01739128
000090 7c 33 3a 3e 44 7b 32 bc 66 e6 00 3e bf 23 55 3d
       0.18183702 -0.010893647 0.1258789 0.052036043
0000a0 a0 a2 65 bb 09 f0 61 be 11 28 31 3e a1 14 37 3e
       -0.003503956 -0.22064222 0.1730044 0.17878963
0000b0 03 71 13 3d 36 3b c8 bd 94 e1 e2 be 27 45 2f 3e
       0.03599645 -0.097769186 -0.44312727 0.17116223
0000c0 bb 13 54 3e 8d 46 8d bd d9 ad c6 bd 5a b0 13 be
       0.20710652 -0.06898222 -0.097011276 -0.14422742
0000d0 14 1c 45 3c 2d d5 6b 3d f4 a5 85 3e 2e 6c b8 3e
       0.01203062 0.057576347 0.26103175 0.36020035
0000e0 12 9d 13 bf 9e 1b 8c bd 4c 40 3b 3e e7 db e8 be
       -0.57661545 -0.06841205 0.18286246 -0.45480272
0000f0 2c 63 68 be c8 d3 13 bf fa 19 cd 3e 2e a9 69 bd
       -0.22694081 -0.5774503 0.4005888 -0.057046108
000100 2a f4 3c be 7f 36 7c 3e 8e 5e 8b be e9 65 f0 be
       -0.18452516 0.24630164 -0.27220577 -0.4695275
000110 59 24 61 3e ca e3 17 3e 20 e4 f4 3e a8 ec 96 be
       0.21986522 0.14832988 0.47830296 -0.2947743
000120 ff a2 78 bd 6a 27 8f be 74 1c e2 3e fc 0c 2a 3e
       -0.06070232 -0.27959758 0.44162333 0.16606516
000130 05 da 8c 3e 35 04 27 be 13 bd a6 3c 80 6e 66 3b
       0.27510086 -0.16310199 0.02035383 0.0035161078
000140 56 a9 02 bf 98 d1 92 3e 4d b7 bd be 9f 44 ba 3e
       -0.51039636 0.28675532 -0.3705391 0.3638048
000150 ee 2a 2e 3e 32 cd db 3a 67 bb 82 bd d9 f3 06 bf
       0.17008564 0.0016769527 -0.063834004 -0.5271583
000160 31 10 f3 be 81 0c 23 bd b3 22 75 3e c3 5a 43 3e
       -0.4747329 -0.039806847 0.23939018 0.19077592
000170 ff 83 00 bf 7e e7 4b be de 75 e5 be 86 f0 76 be
       -0.5020141 -0.19912526 -0.44816488 -0.2411519
000180 4f e3 4f 3e 67 3f 4e be b8 12 1e be bf a4 83 3e
       0.20301555 -0.20141374 -0.15436828 0.2571163
000190 a1 65 81 be 94 9c cf 3e cb 2f f9 3c 79 b1 1b bc
       -0.2527285 0.40549147 0.030418297 -0.009502762
0001a0 23 91 63 3e c8 c7 fc 3d b8 3a 3f be 90 da 8c be
       0.22223334 0.12342793 -0.18674743 -0.275105
0001b0 76 bb 7e bd 2b 5b 95 3e 27 14 f2 bd 2e 62 49 3a
       -0.062190495 0.29171118 -0.1182025 0.00076821714
0001c0 af d1 23 bf 0e f7 ae bc 06 dd 8d be 1b 76 da bd
       -0.63991827 -0.02135804 -0.2770769 -0.10667058
0001d0 a8 57 ed bd 5d e0 4f be 84 4a 10 be 91 60 e6 3e
       -0.11588985 -0.20300432 -0.14090925 0.4499555
0001e0 e3 e0 8a be 30 a8 11 bf 6d 04 e5 3e 1e 3b 52 be
       -0.271247 -0.5689726 0.4472994 -0.20530364
0001f0 1c 88 8d 3d 9a 24 9a bb 6a fa 24 bf 1f f3 e5 bd
       0.069107264 -0.0047040703 -0.644446 -0.11228012
000200 95 e2 8e be 33 f2 be 3e c5 10 f6 bd 54 cf 54 be
       -0.27907243 0.37294158 -0.12014917 -0.20782214
000210 ba 1e d0 bd 8a 87 17 3d 76 0b 41 3e 1b e6 52 be
       -0.101621106 0.036994494 0.18852028 -0.20595591
000220 b5 8f ad bd 97 a3 62 bd b1 cc 0e 3e cc f0 88 bd
       -0.084746756 -0.055331793 0.13945271 -0.06686553
000230 e3 e0 fe 3e 17 74 ca 3c ec 4f b8 bd 96 b2 c8 bc
       0.4978095 0.02471356 -0.08999619 -0.024499219
000240 8d 2d 15 bd 02 65 b9 3d fa 22 8f 3e db 15 19 3f
       -0.036420394 0.09052469 0.27956372 0.59798974
000250 77 59 1c 3f 07 84 ae be 87 d5 98 be 50 c6 a4 be
       0.6107401 -0.34085104 -0.29850408 -0.3218255
000260 58 01 d6 3d 83 ab 77 bd 7e 56 87 bc ac 3f 59 3e
       0.10449475 -0.0604663 -0.016520735 0.21215695
000270 13 d3 39 be ee e3 93 3e 0b 03 ba 3d f7 4d 6a 3e
       -0.18146925 0.28884834 0.09082612 0.22881304
000280 f8 bc 10 bf 73 6d e1 3e 74 31 1d 3d 51 cb 5f 3e
       -0.56538343 0.44028816 0.03837724 0.21854903
000290 5e 27 10 be 80 bf 0c be db b1 f1 3d 2a d8 8d bd
       -0.14077517 -0.13744926 0.11801501 -0.06925996
0002a0 40 8a 9f be bf f0 0c be 34 99 be 3e d3 37 15 bf
       -0.31160164 -0.13763712 0.3722626 -0.58288306
0002b0 a4 fa 5a 3e 6a 16 14 3d 47 de cf be d7 52 89 be
       0.21384674 0.03615419 -0.40599272 -0.26821014
0002c0 49 8c d5 3d 62 75 6c 3d 31 50 a5 3e 21 21 2e be
       0.10427148 0.057729132 0.32287744 -0.17004825
0002d0 34 f3 ee 3e 43 46 12 bf 0d bd bb 3e c5 3e f6 be
       0.46669924 -0.5713846 0.36667672 -0.48094764
0002e0 86 a9 97 be a0 53 f8 bd 27 80 38 3e 61 7b bf 3e
       -0.29621524 -0.12125325 0.18017636 0.37398818
0002f0 5c 05 e0 3e 63 83 34 bc ce de 19 be e9 9d 90 be
       0.4375409 -0.011017653 -0.150264 -0.28245476
000300 ad e9 36 bd 66 2d bf be f9 2b 65 be d4 62 79 3f
       -0.044656444 -0.37339324 -0.22380055 0.97416425
000310 d8 cf 0e 3d ec 38 5c 3e 87 d2 b1 be 7d 76 f2 3e
       0.034866184 0.21506089 -0.34730932 0.47356024
000320 d2 93 0e 3f 29 d9 fa be 99 d0 59 3e 67 4e 07 be
       0.55694306 -0.48993805 0.2127098 -0.13213502
000330 f3 0a 91 be a5 8a 58 3d 00 f4 6d be ee 1a bf 3e
       -0.28328666 0.052866597 -0.2323761 0.37325233
000340 9b fa 07 3f 25 8b 93 3c a6 58 52 3d e0 e0 95 be
       0.5311677 0.018010685 0.051354073 -0.29273129
000350 76 ab df 3e c6 94 ab 3e c0 b3 cf 3d 7d 3a 0d 3f
       0.43685502 0.33511943 0.101417065 0.5516737
000360 6c 02 e3 3e f5 8a 03 3e 04 08 61 3e 76 45 15 3e
       0.44337785 0.12845977 0.21975714 0.14577278
000370 5b d0 4b be 89 05 37 3c 94 6c 5b bb bf 78 ab 3d
       -0.199037 0.011170753 -0.0033481466 0.0837264
000380 32 83 e9 bc 1e 71 ba 3e 5f e9 b6 3d a5 bd a5 3e
       -0.028504942 0.36414427 0.08931231 0.3237125
000390 d2 a1 a4 be 6e 11 02 be 2d df bf be 99 8c bf 3d
       -0.3215471 -0.12701961 -0.37474957 0.09352989
0003a0 c3 c0 93 be bb 91 cb bd c3 e2 85 3c a0 04 a3 be
       -0.28858003 -0.09939905 0.01634348 -0.31839466
0003b0 a7 62 48 be b6 fc 72 3e bd 5a ba bd 70 6f 79 3e
       -0.19568883 0.23729214 -0.09099338 0.24358916
0003c0 a9 b4 a3 bc 37 b0 41 be 77 d2 6a 3c 46 6c 86 3d
       -0.019983606 -0.18914877 0.014332405 0.0656362
0003d0 52 07 db 3c 58 a8 40 be 78 8a af be 38 19 af be
       0.026736889 -0.18814218 -0.3428533 -0.34198928
0003e0 16 04 6a be b5 43 97 3e 44 bb 03 bd 3f 5a 57 be
       -0.22853121 0.29543844 -0.032161012 -0.2103052
0003f0 83 69 81 be d5 6e 33 bf 61 81 3d bd 60 b1 8c be
       -0.25275812 -0.7009099 -0.046265963 -0.27479076

bias f4 [20]
000000 4a 63 b3 be 7e 4c f3 bd af b5 ed 3d 9b 97 63 3e
       -0.3503669 -0.11879824 0.11606919 0.22225802
000010 c5 1e 1b 3e 36 90 1c 3a d2 d2 53 3e 8f 11 0f 3e
       0.15148456 0.0005972417 0.2068589 0.13971542
000020 77 3b ce 3d f8 e9 00 3e 82 63 8f 3e 46 f6 48 3d
       0.10069936 0.12589252 0.28005606 0.04906299
000030 db a0 14 bd 34 3f 0b bf 25 29 50 3e 60 3e 9d 3d
       -0.036286216 -0.54393315 0.20328195 0.07677913
000040 dd 55 cf bd 66 7a 8e 3e 87 c1 a3 3e ff 9b bf 3c
       -0.10123799 0.27827758 0.31983587 0.023389814

weight f4 [20, 20]
000000 60 b3 5e 3e 5e d4 5b be 01 83 80 be be c5 37 bd
       0.21748114 -0.2146773 -0.25099948 -0.044866316
000010 64 b7 5d 3f 05 7c 4f 3e 3b 8c 27 be 2a c9 bb be
       0.86607957 0.20262153 -0.16362087 -0.36676913
000020 df 29 c2 3e 7a b4 fa be 7d 16 8b be 0a e8 80 3c
       0.3792257 -0.48965818 -0.27165595 0.015735645
000030 59 33 81 3e 60 eb ec 3d 1a e0 fe be 48 4a 37 bf
       0.25234488 0.11568332 -0.4978035 -0.7159772
000040 9e 4f 10 3e 96 ff c3 be 1c c5 a5 3e a1 2d 1d be
       0.14092872 -0.38280934 0.32376945 -0.15349437
000050 c7 41 7c be 23 22 2e 3e 31 76 90 3e d7 01 d1 3e
       -0.24634467 0.1700521 0.28215173 0.40821716
000060 d6 3e 19 be e1 98 40 3e 57 eb 3b 3f 10 09 9e be
       -0.14965376 0.18808319 0.73405975 -0.3086629
000070 2e 1b aa 3d 63 0c 11 be 1f 24 8e 3d 79 6f a7 be
       0.08305965 -0.14164881 0.06940483 -0.32702234
000080 49 9d fd 3e 81 fa ec 3d 28 9f 99 bc cf 2c 15 3e
       0.49534062 0.11571217 -0.01875265 0.14567874
000090 20 7b 51 3d 18 af 55 be f8 15 b4 3d 35 2d e2 3d
       0.05114281 -0.20867574 0.08793253 0.11043779
0000a0 2b 49 92 3e b3 c4 ce be 4f a6 1a be b1 c9 af be
       0.28571448 -0.40384445 -0.15102504 -0.34333566
0000b0 08 a8 3a 3e 85 c2 2f 3e b0 ce 66 3e 6a 45 cb bd
       0.18228161 0.17164047 0.22539783 -0.09925349
0000c0 32 53 93 bc 93 60 b0 bd c9 b6 28 3e 43 8c 64 3e
       -0.017984007 -0.0861217 0.16475977 0.2231913
0000d0 7a 51 79 3e ea c2 8b 3e 1c 3b 2a be 25 bb 83 3e
       0.24347487 0.27297145 -0.16624111 0.25728717
0000e0 0a 6c 1b 3e 62 44 04 be 46 9d 0f 3e 43 01 ac 3d
       0.15177932 -0.12916711 0.14024839 0.08398678
0000f0 00 c1 d7 bd 27 f5 36 3e 9f ac 44 3d a2 c5 e4 3d
       -0.10534859 0.17866956 0.048016187 0.11170508
000100 ce c5 94 be 5a 78 87 be 8a 06 d0 be e7 48 a8 be
       -0.29057163 -0.26459008 -0.4062999 -0.3286812
000110 c2 10 12 bf fc 48 96 3e a1 fa d9 3e aa 4c 5c 3e
       -0.5705682 0.29352558 0.42574027 0.2151362
000120 a7 d3 c8 bd 66 51 4f 3e de 51 ff bd b9 86 5e 3e
       -0.098059945 0.20245895 -0.12466787 0.2173108
000130 48 50 ab 3e 21 a6 78 3b 9e 74 99 be d3 a5 dc 3e
       0.33459687 0.0037940817 -0.29971784 0.43095264
000140 6f b0 68 be 5f c6 06 3e 67 a7 19 bf 8a 33 e0 bc
       -0.22723554 0.1316161 -0.6002106 -0.027368326
000150 4b 45 10 3e 61 dc f2 3e 93 f2 d8 be 4d 9d 93 3e
       0.14088933 0.4743376 -0.4237257 0.28830948
000160 c7 27 27 3e 77 27 87 3e b9 25 9d be cb 5d b8 3e
       0.16323768 0.26397297 -0.30692843 0.36009058
000170 2c 81 f7 bd 51 f6 ac 3e a8 9e e0 3d 69 13 e2 bd
       -0.120851845 0.33781675 0.10967761 -0.110388584
000180 bd ee 5a bd a6 bc 9e be 20 68 ce 3e cc e7 0d 3e
       -0.053450335 -0.31003302 0.40313816 0.13857955
000190 d9 ff 36 bc f3 64 8c be 00 6d 02 3d 93 e7 49 be
       -0.011169397 -0.27420768 0.03184223 -0.19717245
0001a0 9a 39 af 3e f5 8a be be d1 98 bb 3c c9 6f a0 3d
       0.34223634 -0.3721539 0.022900017 0.07833821
0001b0 db e3 09 3d 00 f1 3d 3e cd 4f a3 be 5f 32 3b 3e
       0.033664566 0.18548965 -0.3189682 0.18280934
0001c0 7a b0 60 be c0 5e 20 3f 55 65 80 be 24 89 8e 3e
       -0.2194232 0.6264458 -0.2507731 0.27839005
0001d0 51 d0 d7 3d 3d e6 83 be 97 a0 f7 bd 1e fd a4 be
       0.1053778 -0.25761595 -0.12091177 -0.32224363
0001e0 e2 f8 a5 3e f2 e7 9c 3e 01 f9 f4 bd f8 a6 0c 3e
       0.32416445 0.3064571 -0.11961556 0.13735569
0001f0 ef 7b 5d 3e 25 83 aa 3e 95 1e a5 3e 9d c2 b8 be
       0.21629308 0.3330318 0.32249895 -0.36085978
000200 ca a9 27 3e 1e b6 d7 be 3a 5d 58 bc 52 44 ee bd
       0.16373363 -0.42131132 -0.013205821 -0.11634125
000210 73 98 1b 3f 47 93 e6 3e 11 09 07 3e 3d e1 e0 3c
       0.60779494 0.4503424 0.13187052 0.027451152
000220 c9 ab 41 3c 03 11 59 be 79 36 ed 3e 57 0b 4b 3e
       0.011820742 -0.21197896 0.46330622 0.19828545
000230 42 ce b1 be 0a 08 0e 3f 0d 51 00 3d c6 bc 97 bc
       -0.34727675 0.55481017 0.031327296 -0.018522631
000240 d1 80 dd 3d ac 73 25 3e 2f 09 60 3e f2 1d f6 bd
       0.108155854 0.16157407 0.21878503 -0.1201743
000250 33 5a a4 3d 1d b2 07 3d 20 e6 a7 be a4 ff b6 bd
       0.08025017 0.033128846 -0.3279276 -0.08935478
000260 9d e9 0a bd 70 b4 9e bd 23 29 61 3e b3 fd 04 be
       -0.033914197 -0.077492595 0.21988349 -0.12987404
000270 e3 df 3a 3e 35 09 a1 be bd 79 28 bf 51 e5 73 3e
       0.18249469 -0.31452337 -0.6581076 0.23817946
000280 41 4b 97 be ff 0a 39 bd 7c 2c 66 be 95 3b f1 3e
       -0.29549602 -0.045176502 -0.22477907 0.4711577
000290 87 11 d5 bd ce 42 3d be 8c 29 9d 3c a3 fa 45 3d
       -0.10403734 -0.18482515 0.01918485 0.04833473
0002a0 94 d8 e6 be 9c 33 1b 3f c4 cd ad 3e 3d 94 80 be
       -0.4508711 0.60625625 0.3394605 -0.25113097
0002b0 de f1 6f 3e ec 1a 48 bd e1 02 72 3c 33 51 05 be
       0.23432109 -0.0488538 0.014771194 -0.13019256
0002c0 1e c0 b8 be 0d da 7a bd 05 54 00 3e cb c8 a7 bc
       -0.36084074 -0.061243106 0.12532051 -0.020481488
0002d0 7d 4b ed 3d 18 c4 08 bf c7 96 83 3e d3 9e 00 bf
       0.11586664 -0.53424215 0.2570097 -0.50242347
0002e0 25 cf b4 bd e2 13 a6 bb 10 31 df be fe 86 90 be
       -0.08828572 -0.005068288 -0.4359212 -0.2822799
0002f0 45 7b 87 3e be 9c c5 3b 7d 5a 76 3d d8 c1 de bc
       0.26461235 0.006030648 0.06014489 -0.027192041
000300 6b 27 de be 1d 14 b1 be 78 06 08 bd ba c7 df bd
       -0.4338945 -0.34585658 -0.033209294 -0.10926767
000310 78 c3 20 3d de ac 8e be 53 04 08 3e b8 e8 9b be
       0.039248914 -0.27866262 0.132829 -0.30450988
000320 c3 59 f3 bd 8c 19 58 be c6 ad 6c 3c 4c 62 85 be
       -0.11882355 -0.21103495 0.014445728 -0.26051557
000330 01 3a b0 bd 70 ca 5b 3d 1a 5a ae bd 42 62 04 bd
       -0.08604813 0.053659856 -0.08513279 -0.03232027
000340 64 9f 8c 3e fa de b8 be f6 70 2d 3e 51 ad 71 bd
       0.27465355 -0.36107618 0.16937622 -0.059003178
000350 6d df e2 bd 2b 5a 5f 3e ea 61 49 3e 04 27 a3 3d
       -0.11077771 0.2181174 0.19666258 0.07966426
000360 f6 c0 2d 3e ef 6d 0a 3e f9 3f 10 be 8e 90 5c 3e
       0.1696814 0.13518499 -0.14086904 0.21539518
000370 85 de 81 be 65 f9 c2 be 38 1c f8 3d 4e a7 53 3e
       -0.2536508 -0.38080898 0.12114757 0.2066929
000380 c5 8d 24 be 9e f3 57 be 0a c9 de 3e 12 f9 d7 bd
       -0.16069706 -0.21089026 0.43512756 -0.10545553
000390 65 28 43 be 86 e8 4b 3d be f5 26 3e c1 33 e4 3c
       -0.19058378 0.0497823 0.1630468 0.02785671
0003a0 4b 3c 93 3e 46 a6 ed be 24 0f 34 be c7 32 a4 be
       0.28756937 -0.4641592 -0.175839 -0.3206999
0003b0 27 25 cb bd 1d 23 08 3e 7a b5 f5 be 21 00 6c bc
       -0.099191956 0.13294645 -0.47990018 -0.014404328
0003c0 c2 56 b5 3d 0c 91 b4 3d 49 85 2a 3c bd a4 fd 3e
       0.08854438 0.08816728 0.010407754 0.49539748
0003d0 83 61 4e be 7a 2c 91 bc 92 0b 2c be 0a 4e 4b 3e
       -0.20154385 -0.017721403 -0.16801289 0.19853988
0003e0 c9 34 13 be ad aa d6 3e d2 6a 5b 3e bf 9a e9 bc
       -0.14375605 0.4192709 0.21427467 -0.028516172
0003f0 d9 70 6a bd be d9 e4 3e da a4 06 bf c3 9e 2f 3e
       -0.057236526 0.44697374 -0.52595294 0.17150407

bias f4 [20]
000000 eb 55 5d 3c 40 db 8a 3d 4b 28 59 3e 97 bf 7e 3e
       0.013509254 0.067801 0.21206777 0.24877773
000010 2b 0f fd bd 2c 02 bd bd bf e4 07 bc d0 c4 62 bd
       -0.12356409 -0.0922893 -0.008294283 -0.055363476
000020 87 29 96 bd 1b d9 e2 bd 32 5e 9a 3d 65 2f ae 3d
       -0.073321395 -0.11076566 0.075374976 0.085051335
000030 64 fc 58 bd 28 73 1d 3d 4e 9a da bc fd 3b c3 3e
       -0.052975073 0.0384399 -0.026684906 0.38131705
000040 22 a0 f4 3d c0 ce d2 bd a7 3e 95 be 8b ae a5 be
       0.119446054 -0.10293341 -0.29149362 -0.32359728

weight f4 [20, 20]
000000 1d 82 12 3f 8a c9 bb be 77 63 02 bd 3b 3d 02 bf
       0.5722979 -0.366772 -0.03183314 -0.5087468
000010 2c 18 de be 62 34 05 3f a5 e1 3b 3d 01 c8 31 3e
       -0.43377817 0.52033055 0.04586949 0.17361452
000020 d4 1f 50 bf 49 05 9a 3e eb 8d 0d 3e da 5b 97 be
       -0.81298566 0.30082157 0.13823669 -0.29562265
000030 b1 4a 1e bf e3 d8 f9 3c 56 fc b8 3d 36 7f eb be
       -0.6183272 0.030498927 0.09032504 -0.45995492
000040 04 81 24 be cb b7 48 3e 94 2a 61 3e ce 29 17 be
       -0.1606484 0.19601361 0.21988899 -0.14762041
000050 7a 99 b1 be 7f e7 d9 bd d5 56 40 3d 39 c7 ab 3e
       -0.34687406 -0.106398575 0.04695781 0.33550432
000060 31 a6 5e 3e 57 4b 71 bc ee 4c 99 be ad 42 c5 bd
       0.21743084 -0.014727435 -0.29941505 -0.09631858
000070 58 a2 4f 3e c2 db 52 bc 93 08 e1 3e c7 28 80 bd
       0.20276773 -0.012869777 0.43951854 -0.06257778
000080 96 c5 ce 3e a6 7a 91 3e 06 c6 ac bd c8 7b 57 be
       0.4038512 0.28413886 -0.084362075 -0.21043313
000090 73 13 9b 3d cb 1a a8 3e f9 6a 0b bb 58 e2 dc 3c
       0.07572069 0.3283294 -0.0021273477 0.026963398
0000a0 66 de b8 3e 5d 7e ea 3e ca ef b6 3e 31 d5 87 be
       0.36107177 0.45799533 0.3572982 -0.2652984
0000b0 08 8b 93 bd 71 d3 41 3e 8a 86 e5 3e ef 0b b7 3d
       -0.072042525 0.18928315 0.44829208 0.08937823
0000c0 02 93 9d be 8e 9e 6a 3d ff 36 82 be 44 d5 89 bd
       -0.3077622 0.057280116 -0.25432584 -0.0673013
0000d0 b8 7f dc bc 40 b8 4b 3b 4f 8e 90 3e 12 e7 f6 be
       -0.02691637 0.0031085163 0.28233573 -0.48223168
0000e0 61 2e 30 bf ba 13 19 bf 4e de b9 3e 12 64 82 3e
       -0.6882077 -0.59795725 0.36302418 0.25466973
0000f0 7c e8 3e 3e 53 6f 01 bf 29 cd a5 3d 16 c4 4f 3e
       0.18643373 -0.5056049 0.08095772 0.20289645
000100 84 37 2b 3f 60 b4 0d 3d e1 63 7b be e9 dd 29 bf
       0.66881585 0.034595847 -0.2454982 -0.66354233
000110 a9 7f 78 3d f5 84 67 3e 79 12 f9 bd e3 2d 85 be
       0.06066862 0.22609313 -0.121617265 -0.2601157
000120 06 81 7a bd a8 84 a0 bd 00 07 15 be b5 59 5d 3f
       -0.061158203 -0.07837802 -0.14553452 0.8646501
000130 b5 c9 23 3f dc 52 2d 3f 16 20 80 be 0f a1 9f 3e
       0.63979656 0.6770456 -0.2502448 0.31177565
000140 67 64 e3 3e 11 5e 73 be 2e 44 6e 3e ef 10 48 bd
       0.44412538 -0.23766352 0.23268196 -0.048844274
000150 a0 84 0d be db ff 75 3e b2 2c 5e 3e 27 a4 b6 bc
       -0.13820124 0.24023382 0.21696737 -0.02229507
000160 21 5a d4 be 5d ed 0b be d1 4d a3 3e e1 d2 a1 3d
       -0.41475013 -0.13664766 0.31895307 0.0790155
000170 67 b7 1f bf 74 20 88 3e 72 3a 0a be ff 58 f0 3d
       -0.62389225 0.2658726 -0.13498858 0.11735725
000180 d8 9a bb bc c8 e2 06 3e b0 88 d7 be 94 96 04 3f
       -0.022900984 0.13172448 -0.42096472 0.51792264
000190 84 04 00 be 56 25 b6 be fd 13 0b be 9a da 3d 3e
       -0.12501723 -0.3557536 -0.13581844 0.18540421
0001a0 df ce 35 3c a5 c3 72 3e 15 44 06 be c3 9b 6b 3e
       0.011096685 0.23707445 -0.13111909 0.23008637
0001b0 da 7f 44 3e 08 14 18 3e d5 a6 cc 3d cb 01 46 3c
       0.19189397 0.14851391 0.09992758 0.012085388
0001c0 5b 51 ab 3e cb c5 06 be 3e 7f 8d 3d ac 44 95 be
       0.33460507 -0.1316139 0.06909035 -0.29153955
0001d0 5d e6 8b 3e e4 32 7d 3d 8e 6e cb 3e e3 c6 5f 3d
       0.2732419 0.06181611 0.39732784 0.054633033
0001e0 24 2e dd 3e d1 ed b5 be c5 1a 90 bd 91 cb c3 bc
       0.43199265 -0.35533002 -0.07036356 -0.023900779
0001f0 10 93 26 3f f6 52 03 bf ab 0b 13 3f 12 cc 36 3e
       0.6506815 -0.51298463 0.5743968 0.17851284
000200 b6 bc 69 be 6d 35 27 3e e0 28 14 3e 84 b5 a9 bd
       -0.22825894 0.16328974 0.14468718 -0.082865745
000210 be df 9f be b3 40 37 3e 87 c8 31 3e 3e de 84 3e
       -0.3122539 0.17895775 0.17361651 0.25950807
000220 f0 d0 9e 3d 03 83 f1 3e 29 f5 18 bc 2e 4e b1 3e
       0.077546954 0.47170267 -0.0093357945 0.3462996
000230 52 3c 9f 3e 73 81 02 be fb c9 1a 3e ff 5f 70 3e
       0.31100708 -0.12744693 0.15116112 0.2347412
000240 77 71 89 3e 0a 3d e5 3c 32 f1 e7 be aa 88 73 3e
       0.2684438 0.027983207 -0.45301205 0.23782602
000250 fe 19 94 3e 68 8d b7 3d c8 37 be 3e 92 ed 38 bd
       0.2892608 0.08962518 0.37151933 -0.04514844
000260 91 79 bc 3e 68 a5 34 bc 6e 9d 3b 3e d4 1c c3 3e
       0.36811498 -0.011025764 0.18321773 0.38107932
000270 64 61 7a 3e 16 77 4d be 24 93 2c 3c 9e f9 8d 3e
       0.24451214 -0.20064959 0.010533128 0.27729505
000280 e3 7a df bc ad 38 9a bc 4f 3d d4 3d 1f e1 d0 bd
       -0.027280277 -0.018825853 0.10363256 -0.101991884
000290 9e a7 fb bb 5e 65 27 3d 7e aa 00 bd 01 1b 8a 3c
       -0.0076798936 0.040868156 -0.031412594 0.01685858
0002a0 e6 54 e1 3d 79 1b eb bd 59 6f 21 be 55 3b bf be
       0.11002521 -0.11479849 -0.15765132 -0.37349954
0002b0 8b 59 d6 3d 32 eb 31 be 67 b1 42 be 94 ae 0e bf
       0.10466298 -0.17374876 -0.19012986 -0.55735135
0002c0 66 c6 0e be 7e 0e 9d be 4d b6 43 be 29 8c 53 3e
       -0.1394287 -0.3067512 -0.19112511 0.20658936
0002d0 1d 44 22 bf 80 5a 66 be 09 7b e9 3d 31 d9 ab be
       -0.6338518 -0.2249546 0.1140042 -0.3356414
0002e0 07 0b c0 3d f7 b4 b8 bc d8 46 50 be 4a f2 75 be
       0.09377103 -0.022547228 -0.20339525 -0.24018207
0002f0 20 31 af 3b 74 ca 8a 3e a4 d0 5f 3e 98 19 3b 3d
       0.0053464323 0.27107584 0.21856934 0.045678705
000300 86 8e f4 be 1b 27 1d 3d ec fb 2e 3e d4 ed c4 3e
       -0.47764987 0.038367372 0.17088288 0.38462698
000310 67 ba a8 3d a8 f1 84 3e ad 08 03 bf 1a 83 18 be
       0.082386784 0.2596562 -0.51185113 -0.14893761
000320 f4 cb 0e 3c ae cd 77 3d 9c 40 0f be 18 0c 8a be
       0.008715618 0.060498886 -0.1398949 -0.26962352
000330 28 3d 98 bc f6 32 44 be a1 b9 f1 bd bb 11 4c ba
       -0.01858385 -0.19160065 -0.11802984 -0.00077846245
000340 a2 cf 2a 3e 4d ef 91 3e 25 2a c1 3d 99 35 99 3d
       0.16680768 0.28502885 0.094318666 0.07480926
000350 87 1f 11 bf 8b 34 5d 3d 7f b8 9e 3e 92 2d ec ba
       -0.5668873 0.054005187 0.31000134 -0.0018018952
000360 23 48 6b be ff 98 76 bd 4f e4 07 be 2f a9 44 be
       -0.22976737 -0.060204502 -0.13270687 -0.19205163
000370 1c 0a b0 3e 5c b5 45 be b3 74 2d 3c 42 ee 25 be
       0.34382713 -0.19307464 0.010586905 -0.1620417
000380 d5 6b a5 bd f0 18 33 3b 2a 99 78 3e af bf fd bd
       -0.08077208 0.0027328096 0.24277177 -0.12390076
000390 ca 58 bd be f0 ed 77 be 9e 66 94 3e 84 2c 4c be
       -0.36981803 -0.2421186 0.2898454 -0.19938856
0003a0 ad 86 c7 be 32 6b 0a 3e c9 a3 a1 bd 09 e5 79 3d
       -0.38969937 0.13517454 -0.07892568 0.06100944
0003b0 75 be 4f be cd 47 82 be 4b b5 ca 3b 09 21 89 bc
       -0.20287497 -0.25445405 0.0061861626 -0.016739385
0003c0 04 b9 e6 be 53 a9 ca 3c ca 21 e1 3d c1 9f ed be
       -0.4506303 0.024738943 0.10992773 -0.46410945
0003d0 b8 b0 47 be f6 c0 97 3d 26 97 c2 bc 36 cc 9e 3e
       -0.19501007 0.07409851 -0.023753714 0.31015176
0003e0 3c 2d 8f 3e 4d 30 44 be 5f e5 3b be 5b af d6 bd
       0.279642 -0.1915905 -0.18349217 -0.10482665
0003f0 eb 23 0c 3c 37 21 54 3e a5 f1 4f be f2 1a 13 be
       0.008553485 0.20715795 -0.20307024 -0.14365748

bias f4 [20]
000000 36 94 92 be cd be e7 3d 17 e2 13 be 1a a7 c6 3e
       -0.286287 0.11315689 -0.14441715 0.38799363
000010 1d ce 9c 3e 86 d1 aa bd 83 96 bf 3d 75 0c 59 3d
       0.30626002 -0.08340745 0.0935488 0.052990396
000020 9e 5d 7d 3e b0 b5 26 bd a7 e5 50 bd 4a 28 7f be
       0.24742743 -0.040700614 -0.051000264 -0.24917713
000030 b3 57 78 3e 98 a8 90 bd bb cb c7 bb 04 1f 97 3e
       0.24252205 -0.07063407 -0.0060972846 0.2951585
000040 29 47 f4 bd 07 44 79 3d 94 d6 1d 3e f9 d0 d2 bc
       -0.11927635 0.06085589 0.15413886 -0.025734412

weight f4 [20, 20]
000000 e4 15 81 3c cc 38 85 3e 26 6a 1b be cc 2a 86 be
       0.015757509 0.26019895 -0.15177211 -0.26204526
000010 60 fd 2d be 45 82 e4 3d 41 7f bd be f7 80 c2 3d
       -0.16991186 0.111576594 -0.3701115 0.09497254
000020 9b 04 3c 3e b2 cc 06 be 2f 52 77 3e 66 76 d0 be
       0.18361132 -0.13164023 0.24152444 -0.4071533
000030 ae 70 c1 3e 0e 6f 2a be 0d ae d4 3d 59 35 ec 3d
       0.3778128 -0.16643927 0.1038476 0.11533613
000040 45 c3 40 3d 73 77 b7 bd ab 9f b6 bd db ac 13 3f
       0.047061224 -0.0895833 -0.08917173 0.5768563
000050 fd fd 2c 3e e1 ec 1d be 78 e8 50 3e 9d e5 e4 3d
       0.16893764 -0.15422393 0.2040118 0.11176608
000060 06 0d bf 3e a7 2a 18 bf 77 67 1b 3e e9 22 06 be
       0.37314624 -0.5944008 0.15176187 -0.13099255
000070 c2 ca 86 be 1e f9 99 3e 64 15 a3 3e c4 be 0c 3e
       -0.26326567 0.30072874 0.31852257 0.13744646
000080 bb d9 55 3e 20 49 ce 3d 1f 2b bf be 99 a8 56 3d
       0.20883839 0.10072541 -0.37337586 0.05240688
000090 0b 5c 30 be 80 bd b8 bc 6a bb 07 3d 20 f9 ea 3d
       -0.17222612 -0.022551298 0.033137716 0.11473298
0000a0 3d 6f f7 3e a8 1d 8b 3d 02 79 23 bf 70 90 57 3f
       0.48327056 0.06792766 -0.6385652 0.8420477
0000b0 34 40 85 be db 6a 73 be be c4 8c ba b3 8e ed 3d
       -0.26025546 -0.23771231 -0.0010739786 0.11599483
0000c0 d7 35 60 3e ba 9e 37 3f 15 78 c3 3e 69 e7 5f bd
       0.21895538 0.7172657 0.38177553 -0.05466405
0000d0 b1 4a 28 bd 0a b7 c6 3e a8 b3 8a 3d 19 4e 9e bd
       -0.041086856 0.38811523 0.06772548 -0.0772974
0000e0 34 df 75 bc 72 4a 9c bd 2b a8 5f be 24 6b 84 3d
       -0.015006829 -0.07631387 -0.21841495 0.06465748
0000f0 0d 27 f9 be ef 3d 05 3e 1b 6d ba be 80 91 90 3e
       -0.48662606 0.13011907 -0.36411366 0.28236008
000100 f9 9b 15 3b ec 47 b0 3e a9 31 ca bb 6b 82 12 3e
       0.0022828563 0.34429872 -0.0061704707 0.14307563
000110 22 6a 0c 3e df e6 80 3e 98 fc 23 3e 18 81 c7 be
       0.13712361 0.2517614 0.16014326 -0.38965678
000120 15 b5 90 3e 9e 71 27 be ac b5 85 bd cc a3 90 bc
       0.28263155 -0.16351935 -0.06528792 -0.01765623
000130 80 aa 45 be 1d 57 90 3d 33 95 5d 3e 46 b2 18 3e
       -0.19303322 0.070478655 0.21638946 0.14911756
000140 64 d3 08 be 37 00 d0 bd 76 1b e6 bc d3 8b da 3e
       -0.13361889 -0.10156291 -0.028089266 0.42684802
000150 94 76 19 be 2f 0d cd 3b e0 45 2f 3d 37 b7 46 be
       -0.1498664 0.006257675 0.042791247 -0.19405828
000160 c3 a0 b8 3b 84 a3 72 3d ca 2a ec bd b8 74 6e 3d
       0.0056343987 0.059237972 -0.11531599 0.05821678
000170 be 48 55 be 9f 54 c9 be 93 4e 6b 3e 28 66 d7 bd
       -0.2082853 -0.39322373 0.22979192 -0.10517532
000180 75 f4 0d 3e f9 3c d1 3c 84 91 f7 3e 8d b6 2e 3e
       0.13862784 0.02554177 0.48353207 0.17061825
000190 e9 85 8a 3e ba d4 1f 3e 48 8e 2b be 81 80 36 3f
       0.2705529 0.15608492 -0.16753495 0.7128983
0001a0 0b 5e 93 3e 63 31 80 be a6 dc dc 3e 23 00 02 3d
       0.28782687 -0.2503768 0.4313709 0.03173841
0001b0 cb 75 ae bd e1 66 77 3d 05 ec b3 3e 44 9d 81 3e
       -0.08518561 0.060400847 0.35141006 0.25315297
0001c0 a6 01 33 be 7d 1c 55 be cf 1a 6f 3d 4d 5f 73 be
       -0.17481098 -0.20811649 0.058375176 -0.23766823
0001d0 85 32 03 3f 5a 6a ab bd e8 58 a6 be 6b b4 5e bf
       0.5124896 -0.08369894 -0.32489705 -0.86994046
0001e0 c3 fc 07 bf 6a 61 f9 3e 63 65 0b be 20 be e0 3e
       -0.5312006 0.48707134 -0.13612895 0.43895054
0001f0 14 2d 08 3e b0 71 b9 3d c8 90 24 bd 31 61 bb bd
       0.13298446 0.09054887 -0.040177137 -0.09149397
000200 c5 85 88 3e f9 5c af be ac df 2d be 7b 87 2f be
       0.26664558 -0.3425062 -0.16979855 -0.17141525
000210 8c fe bc 3e e2 e8 48 be 67 cc a3 3d 44 c1 c8 be
       0.36912954 -0.19620088 0.07997971 -0.3920995
000220 7a 6b 53 be de 02 8c be 1b 54 0d 3e de 8b 96 be
       -0.20646468 -0.27345937 0.13801615 -0.29403585
000230 c2 12 41 3e d4 79 c0 be fc 1e bf 3d b2 10 39 bd
       0.18854812 -0.37592947 0.09332082 -0.045181938
000240 77 1f 5c 3e 81 48 aa 3e 34 4a 87 be 0b 84 a3 be
       0.21496378 0.3325844 -0.264238 -0.31936678
000250 43 99 a0 be d5 3f 9a bd a8 94 d3 3d 26 50 81 be
       -0.3136693 -0.07531706 0.10331088 -0.2525646
000260 7d 20 ca 3d 6e 51 a2 be d9 41 6f 3e 63 de d6 bd
       0.09869478 -0.3170275 0.23364963 -0.10491636
000270 ab a4 5c be 27 3c 7a 3d c3 2f 64 3e ce f1 b3 3e
       -0.21547191 0.061092522 0.22283845 0.3514542
000280 ec 0d 36 3d da a3 e9 be 6e da b2 3e d7 cb 97 3e
       0.04444687 -0.4563282 0.34932274 0.29647705
000290 5e 51 91 3c e8 79 8c be c9 71 a1 3d bd c4 8b 3e
       0.017738994 -0.27436757 0.07883031 0.27298537
0002a0 bb b7 dd 3d 13 14 30 3d 0d 12 62 be fc 8e 4a 3e
       0.108260594 0.042987894 -0.22077198 0.19781107
0002b0 d0 39 77 3d 87 c1 bc bd 90 6e 9e 3d bd 4e 93 3e
       0.06035787 -0.092166 0.07735932 0.2877101
0002c0 71 85 5f 3e fa e7 78 3e 28 a8 9a be 6d 9b 9f be
       0.21828248 0.24307242 -0.30206418 -0.31173268
0002d0 8c d8 97 3e 48 7e 76 bd ee 02 63 bd ae 47 05 be
       0.296574 -0.060179025 -0.055422716 -0.13015625
0002e0 ba 12 8b 3c d3 7e b3 bd 7e 57 31 39 89 63 df be
       0.016976703 -0.08764424 0.00016912629 -0.43630627
0002f0 a4 55 65 bd 58 94 92 3d ba a6 8d be da 8f 79 be
       -0.055989876 0.071572006 -0.27666265 -0.24371281
000300 06 2d 81 3d 4b bb 22 3e 62 fd e6 3d 1d 34 1a bd
       0.06307416 0.15891759 0.11278798 -0.037647355
000310 b3 22 5e be 1f 25 be be 73 6f 64 be bf 22 96 bb
       -0.21692924 -0.37137696 -0.2230814 -0.004581779
000320 85 dc 21 bf 12 b4 8d be dc 57 90 be 92 eb 42 3e
       -0.6322711 -0.27676445 -0.2819203 0.19035175
000330 4c 2a 26 be e7 a9 9c bd 95 f2 23 3d 03 4b c0 bd
       -0.16227072 -0.07649594 0.040026266 -0.09389307
000340 18 8a 90 be 6c 5b 33 3d f3 31 c4 3d 9d 31 cf 3e
       -0.28230357 0.04378836 0.095798396 0.4046754
000350 01 d1 02 3d 47 74 b0 be 12 f5 a5 bd ea 96 df be
       0.031937603 -0.34463713 -0.08103384 -0.43669826
000360 0a cd ce 3c 58 4a 06 bd 96 2b 2c be dd 72 a7 be
       0.025244255 -0.032785743 -0.16813502 -0.3270482
000370 40 69 87 bd 65 71 46 be fb 5b 79 3c 3d 08 c3 3e
       -0.06611872 -0.19379194 0.015219684 0.38092223
000380 2f 7b 9b 3e 2b e9 e5 3d b1 47 f6 3e ce f7 14 3d
       0.3036742 0.11226114 0.4810157 0.036369137
000390 88 fc dd be 6a ef be 3e 12 a1 84 bd 69 3c 74 be
       -0.4335673 0.37292033 -0.06476034 -0.2385117
0003a0 16 f0 8f bd 25 e0 e5 be 23 d2 04 bf 22 07 8c bd
       -0.07028215 -0.4489757 -0.51883143 -0.06837298
0003b0 f8 88 c0 3d f8 b6 a6 be 1d 01 9e 3d 03 4a 78 be
       0.09401125 -0.3256147 0.07715056 -0.24246983
0003c0 aa d1 31 3e cf d7 80 be dd 10 eb 3e 61 22 29 be
       0.17365137 -0.2516465 0.45911303 -0.16517021
0003d0 f9 6c d4 bc 39 f5 b5 3e 72 f0 5e 3d 4e 24 a7 be
       -0.025930868 0.35538653 0.054428525 -0.32644886
0003e0 45 5a 73 be 25 2c 6f bd d8 c6 82 bd 2d 17 a8 bc
       -0.23764904 -0.05839171 -0.06385583 -0.020518864
0003f0 e9 3c d9 3d cb 40 b9 3e fa 1e c4 3d 54 6d d5 3e
       0.10607321 0.36182246 0.09576221 0.41684973

bias f4 [20]
000000 ff 8a b0 3d 15 27 3a 3e 4f 65 00 3c ba f7 9f 3e
       0.086202614 0.18178971 0.007836654 0.31243688
000010 6b ee e7 3d 07 ad 81 3d c7 29 a5 3e dd 9c 8a bd
       0.113247715 0.063318305 0.32258436 -0.067682005
000020 2e 26 65 bd 2b f1 05 bc 6b 98 89 be 8c b3 77 be
       -0.055944614 -0.008175175 -0.26874098 -0.24189585
000030 bd a3 88 bd 05 a1 71 3e ba 4f 01 be 2c ab bc bd
       -0.066718556 0.2359658 -0.1262807 -0.09212336
000040 a8 f4 c4 bd 64 5a e5 be 2f 7b d6 bd 26 fb a7 3c
       -0.09616977 -0.44795525 -0.10472714 0.0205055

weight f4 [20, 20]
000000 ed 9e c9 be a1 cc 28 be a9 09 9a 3e 53 dc fd be
       -0.39379063 -0.1648431 0.30085495 -0.49582157
000010 8c c1 27 3e 0f f2 35 3e 65 80 63 be 92 c7 95 be
       0.16382426 0.1776812 -0.22216947 -0.29253823
000020 0e e1 d5 ba fe 44 a8 be 6b ba 68 be 56 09 2e bd
       -0.0016317682 -0.32865137 -0.22727363 -0.042489372
000030 46 a7 4b be 2f 0b f4 3d 89 82 1d 3c 4f 6d 96 3e
       -0.19888029 0.119161956 0.009613642 0.2938027
000040 04 b0 9e 3e df 3c 47 be e0 9a be 3e cb a8 e0 3d
       0.30993664 -0.19456814 0.37227535 0.10969695
000050 de 0d 65 3e c6 91 af bc d4 79 04 be c6 4b 4d be
       0.22368571 -0.021431815 -0.12937099 -0.20048437
000060 b1 fb 96 be 97 60 00 3e 92 cc 81 be f1 18 7c be
       -0.294889 0.12536846 -0.25351387 -0.2461889
000070 d2 13 02 3c 5d b5 36 be e0 9f 3e 3e e4 28 89 3d
       0.007939296 -0.17842622 0.18615675 0.066972524
000080 fa 31 89 3e 62 28 13 bf 9d 8d ec bd 19 9d b3 bd
       0.26795942 -0.57483494 -0.11550448 -0.087701984
000090 fc df 38 3e e2 ac 38 3e 35 87 31 bd b8 43 b5 bd
       0.18054193 0.180347 -0.043341834 -0.08850807
0000a0 aa 1e 75 3e d7 0e 1c 3d bb b2 22 be a8 8d 3c 3e
       0.23937479 0.03810009 -0.15888493 0.18413413
0000b0 48 cf 58 be da be be 3e f1 86 44 be a5 86 e2 bd
       -0.21172822 0.37254983 -0.19192101 -0.11060838
0000c0 04 1e 04 bf 83 54 05 3e d4 36 94 3e 03 f9 a9 3e
       -0.516083 0.1302052 0.2894808 0.33197793
0000d0 98 d3 79 be 12 79 48 3d c9 c1 92 3e f1 98 a3 be
       -0.24397123 0.048943587 0.2866347 -0.31952623
0000e0 91 27 a7 bd 52 8e 6a be d2 4b fe 3d 3b 5f e4 bd
       -0.081618436 -0.22905853 0.12416805 -0.11150976
0000f0 6f d2 8b be 42 90 38 be 18 87 89 be 52 c1 9a be
       -0.27308986 -0.1802378 -0.2686088 -0.30225617
000100 b7 3c 6c 3e f1 92 42 3e 10 87 82 3e 94 a0 70 be
       0.23070036 0.19001366 0.2549367 -0.23498756
000110 77 ba 89 be a1 79 14 3e ea 4a 1f 3e 09 0d bd 3e
       -0.26900074 0.14499523 0.15555921 0.36924008
000120 65 3a f0 3e 11 d0 41 be d1 9a a9 bd a5 7f da be
       0.46919551 -0.18927027 -0.08281482 -0.4267551
000130 a2 83 13 be 0b af 03 3f 2d 93 95 be 87 30 e8 be
       -0.14405683 0.5143897 -0.2921385 -0.45349523
000140 ff c9 b9 be ad 58 f7 be 5d 5e 39 be 1e 89 f5 3d
       -0.36286923 -0.48309842 -0.18102403 0.11989044
000150 af 23 c9 be 32 da b2 3d f1 61 8c 3d 44 be ca bc
       -0.39285037 0.08733024 0.06854618 -0.024748929
000160 d2 f1 cc 3e 66 72 e2 be 71 b6 6f bb 2f 89 28 be
       0.40028244 -0.44227904 -0.003657725 -0.16458581
000170 0c 1f f9 3d 34 1a 50 be f7 84 ef bd df 2b 80 bc
       0.12164125 -0.20322496 -0.11695283 -0.01564592
000180 fb 71 a5 be 9e 5a 0b bf 7f ec b3 bd a1 86 85 3d
       -0.32313523 -0.54435146 -0.087853424 0.06519819
000190 16 d0 65 3d 25 da c8 bd 9d d7 06 3e 0e 80 b1 3e
       0.05610665 -0.09807233 0.13168187 0.3466801
0001a0 1b 35 30 bd 74 13 f3 bd ff 33 8f bd 43 ce 68 3b
       -0.043019395 -0.11868945 -0.06992339 0.0035523332
0001b0 48 db dd 3d 76 46 a8 be e7 82 57 3e fd ac 62 3e
       0.1083284 -0.32866257 0.21046029 0.22136302
0001c0 34 c4 40 be cf d4 d6 bd 00 47 b6 3d 12 cd 92 3e
       -0.18824846 -0.10489809 0.08900261 0.2867208
0001d0 63 20 7b be cb df 64 be 39 75 f5 3d 7b df 8d bd
       -0.24524073 -0.22350995 0.11985249 -0.06927391
0001e0 29 6e 9c 3e b3 d5 40 be 5b 46 43 bd d7 d2 8f 3e
       0.30552796 -0.1883152 -0.047674518 0.28090546
0001f0 cb 8d 8b be 25 68 21 be 1f 8c 8b bc cb 7a 15 3d
       -0.27256617 -0.15762384 -0.017034588 0.036494058
000200 1b a8 79 be 54 76 a5 3e c1 92 72 bf 9b 79 71 bf
       -0.24380533 0.3231684 -0.9475518 -0.9432618
000210 fb 1b a1 3e e7 24 5c 3d d8 81 25 bd 84 ba 01 be
       0.3146666 0.05374613 -0.04040703 -0.12668806
000220 8a d8 ad be ad f4 c1 3e c0 e5 88 bf d7 8c 0c bf
       -0.3395427 0.37881985 -1.0695114 -0.54902405
000230 7e 07 c4 3e 6b 8d 51 be c9 c7 06 bf 6b 8a 03 be
       0.38286966 -0.20464103 -0.526486 -0.12845771
000240 18 37 82 bc fb 73 40 bf 18 40 61 3c df 71 09 3e
       -0.015895411 -0.7517697 0.013748191 0.13422345
000250 51 24 11 3e 50 1b 0f bd 65 9d e8 bd f6 5f ce be
       0.1417401 -0.034938157 -0.113581456 -0.40307587
000260 1e 0a d8 3d e8 86 22 3e 08 c2 3d bf be 40 30 be
       0.10548805 0.15871775 -0.74124193 -0.17212197
000270 be fc 69 3d 6f 61 e6 3e 95 50 d2 bd 94 20 66 bd
       0.0571258 0.4499621 -0.10269276 -0.056183413
000280 a2 a7 da 3e 32 63 fe be 59 75 9d be 2b 6a 6c be
       0.4270602 -0.49685055 -0.30753592 -0.23087375
000290 7e 7b 49 3e 2b 15 4d be 44 8c d8 3e f6 46 a8 be
       0.19676015 -0.20027606 0.42294514 -0.3286664
0002a0 9e 83 10 3e d7 41 59 3e 1d 7f 63 be 21 83 90 bd
       0.14112708 0.21216522 -0.22216459 -0.07056261
0002b0 e0 98 92 3e 8c 77 b4 bd 5d 7d 05 3d 53 01 81 bc
       0.2863226 -0.08811864 0.03259026 -0.015747702
0002c0 3b da 18 be 52 18 a0 be 29 b7 b3 3c 36 cb 8c 3c
       -0.14926998 -0.31268555 0.021937924 0.017186742
0002d0 89 ea 27 3f 3e 70 c8 3d 9d 4b 7b 3e 21 2c db bd
       0.6559225 0.097870335 0.24540563 -0.10701776
0002e0 1b b9 ce 3c 53 ef a2 3e 2c 85 69 be 10 21 4d 3e
       0.02523475 0.31823215 -0.22804707 0.20032144
0002f0 a7 95 06 3e 72 24 ec 3d 68 03 b5 3e 10 93 85 be
       0.13143025 0.11530389 0.3535416 -0.26088762
000300 17 af 0d 3c 69 85 b9 be bd 6c 35 3e 29 20 fb 3d
       0.008647702 -0.36234596 0.17717262 0.122619934
000310 0d 62 10 be 17 5d bc bc 79 46 33 3d d4 f0 85 bc
       -0.14099903 -0.022993607 0.04376838 -0.016350187
000320 28 33 58 3e 1c 06 38 3e d8 8a 8d bd c0 07 72 3e
       0.21113265 0.1797108 -0.06911248 0.23635769
000330 8f 80 50 3e 55 cb b7 be b5 33 ab be b7 5f fd bd
       0.20361541 -0.35897318 -0.33437887 -0.12371772
000340 e1 af ed bd cd b0 3a be 8b 06 39 be 40 b9 8b 3c
       -0.11605812 -0.18231507 -0.18068902 0.017056108
000350 88 09 f6 3e b7 47 98 be c8 32 27 3c 45 9e b7 bd
       0.48054147 -0.29742214 0.010204978 -0.089657344
000360 9c 1b 3b 3e 82 7a 9e 3e c2 b4 6e 3f 85 7e 27 be
       0.18272251 0.3095284 0.93244565 -0.16356857
000370 6b 89 06 3f 56 1c 6e be ec e6 73 be c8 15 da 3e
       0.52553433 -0.23252997 -0.23818558 0.42594743
000380 e7 28 b1 bd 61 7e 21 bf 5b 18 f6 3e 92 96 3b 3c
       -0.0865038 -0.63083464 0.48065457 0.011449473
000390 6b dc ce be 70 16 30 3e 05 8f c4 3e 6f 3e 7d 3d
       -0.4040254 0.17196059 0.38390365 0.06182712
0003a0 c7 9a f6 be 50 ef 0f be 2d 1f f2 be 15 50 c7 3e
       -0.4816496 -0.14056134 -0.4728941 0.38928285
0003b0 95 9a 8d bd f7 26 84 be 9c f4 df 3e 04 dc 99 3d
       -0.0691425 -0.25810978 0.4374131 0.07512668
0003c0 2e 4b ca 3e ed 7c ae 3b b1 c4 d1 be b2 2f 80 be
       0.39510483 0.005324951 -0.40970376 -0.2503639
0003d0 46 8b 83 3d 21 85 e3 be a4 8c 83 ba f0 49 d8 3e
       0.06423049 -0.44437507 -0.0010036421 0.4224391
0003e0 46 d1 04 3c 69 ea 14 be 33 37 4a be 01 25 04 bf
       0.008106535 -0.14542545 -0.1974762 -0.51618963
0003f0 2d f2 33 3e c2 e0 6d 3d 9f 80 44 bf b5 c9 03 bf
       0.17572851 0.058075674 -0.7675876 -0.51479656

bias f4 [20]
000000 76 aa 8b bd 77 f0 d9 bd d8 36 d7 bd 21 ea 9f be
       -0.06819622 -0.10641568 -0.105085075 -0.31233314
000010 00 a7 46 3c 27 85 07 bc 82 b0 b1 3d 4a 8d 04 be
       0.012124777 -0.008271492 0.08676244 -0.12944523
000020 4d 01 3c 3e 9e 3f 2c be e4 bf df 3c ba 43 85 3e
       0.18359871 -0.16821143 0.02731318 0.26028234
000030 ab 05 8b 3e 28 87 92 bd 3c 85 a8 be 23 dc 11 3e
       0.27152762 -0.07154685 -0.3291415 0.14244132
000040 d5 bb 4d be b8 bb 89 3d 89 6e df 3d 93 11 ee 3a
       -0.20091183 0.06725258 0.10909755 0.0018163197

weight f4 [20, 20]
000000 fa 82 bd be 2e 3b 63 bd 73 b6 7a 3e e5 ff 8a 3e
       -0.3701399 -0.05547636 0.24483661 0.27148357
000010 e9 ab 89 be e3 36 e1 be dd 45 69 3e 95 d4 77 3e
       -0.2688897 -0.43987188 0.22780557 0.24202187
000020 9c a4 3c 3d 8f a1 0c 3e 3e 15 3b 3f 5e 8e a0 3e
       0.04605542 0.13733505 0.7307929 0.31358618
000030 a1 9e 05 3e 1d 7f 1d be 63 bc 17 3c a0 91 7d 3e
       0.13048793 -0.15380521 0.0092612235 0.24762583
000040 82 a3 1e 3e a2 8b a7 3e 57 16 61 be 60 e6 aa bd
       0.15492061 0.3272372 -0.21981178 -0.08344722
000050 5f 69 df be 81 7b 43 3e 72 8d c5 3e bc fe 40 be
       -0.4363508 0.19090082 0.38584477 -0.18847173
000060 11 8d 43 be 46 19 33 bd 7d 1d ab 3e d6 28 0b 3d
       -0.19096781 -0.043725275 0.33420935 0.03397449
000070 ea d1 60 be e6 4a 59 3c 56 32 bf 3e 35 81 9e be
       -0.21955076 0.013262486 0.3734309 -0.30957952
000080 0e d7 30 3e dc 85 0f 3e b8 08 b5 3d 9d 38 92 3e
       0.17269537 0.14015907 0.088395536 0.28558818
000090 14 93 0c be f0 12 17 be 29 bc aa 3e 8b 4d 31 3e
       -0.13727981 -0.14753318 0.3334668 0.17314737
0000a0 a8 b8 e0 bc 12 71 16 3e dd 09 c2 3d a4 31 8f 3e
       -0.027431801 0.1469157 0.094745375 0.2796756
0000b0 03 a7 85 3e 05 cf 91 be 26 41 cc bd c2 c3 9c 3e
       0.26103982 -0.28478256 -0.099733636 0.306181
0000c0 f5 41 5d bd ab eb 76 be 92 7e b0 be 16 16 ea bc
       -0.05401798 -0.24113338 -0.34471565 -0.028574985
0000d0 71 cf 7a be fb f7 65 be 0e 8c 4c 3e 57 74 97 be
       -0.24493195 -0.22457878 0.19975302 -0.29580948
0000e0 a3 8b 0f 3c 5b 2b 7b 3e 34 88 32 3b 89 ac 1a 3f
       0.008761319 0.24528258 0.0027241828 0.6041952
0000f0 c8 aa 52 bc 3c 65 12 3f d5 33 4d be 80 53 0f be
       -0.0128581 0.5718572 -0.20039304 -0.13996696
000100 42 16 7d 3e d3 34 d3 be b5 56 24 be c1 27 01 3e
       0.24715522 -0.4125124 -0.16048701 0.12612821
000110 02 61 be be 11 41 26 be 22 2c 11 3f 7e 2a 5e be
       -0.37183386 -0.16235758 0.56707966 -0.21695897
000120 26 9a 8a 3e c4 e3 62 3d 05 a8 a4 3e 24 39 ee 3c
       0.2707073 0.055392995 0.3215944 0.029079981
000130 25 ef 27 bd e3 c5 40 3e 40 16 9a bd 59 6b 6b be
       -0.04099955 0.18825488 -0.07523775 -0.22990169
000140 b3 1c fc 3e 71 d8 27 be df 30 34 3e a8 96 9e be
       0.49240646 -0.1639116 0.17596768 -0.30974317
000150 d6 1e 86 3c cf 82 95 3d 0d 3f ae be ed e1 7e 3e
       0.016372126 0.073003404 -0.3403248 0.24890871
000160 84 5d 39 3c 6f 85 a1 3d 44 b0 75 3e cc cf 36 be
       0.0113138 0.078867786 0.23993021 -0.17852706
000170 bb b2 2c bd bb 49 e4 3e 73 e5 91 be d9 9c 98 3d
       -0.04216264 0.44587502 -0.28495368 0.07451791
000180 24 15 25 be da 31 c0 bd d8 2c 5b be e7 3c 8e 3e
       -0.16121346 -0.093845084 -0.21403825 0.2778084
000190 4d ba b2 3b 38 02 50 3e 6b db fe bd ed e1 9b be
       0.0054543377 0.20313346 -0.124441944 -0.30445805
0001a0 7b ef 37 3e 88 71 65 be e5 71 48 be 86 c4 bb be
       0.17962448 -0.2240659 -0.19574697 -0.36673373
0001b0 26 95 78 bd bb 09 84 be d8 b7 10 be ae 50 86 3e
       -0.060689114 -0.25788674 -0.14132631 0.2623343
0001c0 30 8e 69 be 3f 6d 8d bd 25 08 12 be c9 58 f9 3e
       -0.22808146 -0.06905603 -0.1426092 0.4870055
0001d0 45 2e 13 be b8 31 fe 3d fd 25 d6 3e 11 ec a8 3c
       -0.14373119 0.12411827 0.41825858 0.020620378
0001e0 b2 2f da be 0d 84 1b 3e db 5b 2f bd a0 66 11 3e
       -0.42614514 0.15187092 -0.04281221 0.14199305
0001f0 a8 7d 13 bd f9 49 be be 6f 6d fe 3e 16 33 86 3e
       -0.036008507 -0.37165812 0.49692866 0.2621085
000200 58 4a 34 3e f4 b6 14 bc b5 30 a3 3d 9e 52 b0 3d
       0.17606485 -0.009076823 0.079682745 0.08609508
000210 23 e7 ac 3e 1d b0 a9 3d 47 b6 9f 3e 91 6f f8 3d
       0.33770093 0.08285544 0.31193754 0.121306546
000220 fb 60 ea be 16 40 51 be d2 03 bc 3d 52 56 8a 3e
       -0.45777115 -0.20434603 0.09180416 0.27018982
000230 ed 1d 91 bd d7 d4 a0 bb 39 04 29 be 37 d3 8b be
       -0.07085786 -0.004908185 -0.16505517 -0.27309582
000240 5a f9 6f be 30 8a a2 be 59 2f 2b 3f ca 16 70 3e
       -0.23434964 -0.31746054 0.6686912 0.23446193
000250 4d 16 19 3f 3c cd 6a 3e 82 e5 47 3d 88 b7 86 3d
       0.59799653 0.22929853 0.04880286 0.065779746
000260 2e 4c b1 3e 9d 86 e5 bd 39 20 1d 3f 54 a7 91 3c
       0.34628433 -0.11207316 0.6137729 0.017779984
000270 ba 8d 5b 3e da 8c 96 be 00 e9 01 bf 92 ef ff 3d
       0.21440783 -0.29404336 -0.50746155 0.12496866
000280 b0 2b 7a be 3f 16 1c be 87 70 2d be c6 3a 83 3e
       -0.24430728 -0.15242861 -0.16937457 0.25630778
000290 b0 23 a6 3c c8 2b e2 3b 2e f3 18 3f 0f 4a 17 3f
       0.020280689 0.006902192 0.5974606 0.5909738
0002a0 82 b7 da 3d ae 2c 80 be 84 3b 06 3d ee 05 a0 bb
       0.106795326 -0.25034088 0.032771602 -0.0048835194
0002b0 f3 14 8b 3f 69 97 92 be d4 80 1b be 89 d9 21 3d
       1.0865768 -0.28631142 -0.15185863 0.0395141
0002c0 a3 66 6b be f7 e6 2c bf 83 65 dd be fd 97 84 3e
       -0.22988372 -0.67539924 -0.4324151 0.25897208
0002d0 3d a4 f9 3d d0 3f 40 be 02 6a 06 3c 65 35 b0 3e
       0.12189529 -0.18774343 0.008203985 0.34415737
0002e0 86 f3 1c be bd 26 90 be 68 e5 66 bd 67 af 29 3e
       -0.15327272 -0.28154555 -0.056371123 0.16570817
0002f0 8f 72 90 be 16 1a 05 be fb 36 4f be a4 52 62 bd
       -0.282124 -0.12998232 -0.20235817 -0.055254593
000300 21 13 87 3d 6c 88 64 be de 21 02 3e 94 d9 a5 3e
       0.065954454 -0.22317666 0.12708232 0.3239256
000310 41 bc 4d bc 88 71 ff bc f9 84 08 bf 8b dc 1a be
       -0.01255709 -0.031182066 -0.533279 -0.15123193
000320 9b 96 34 be fb d2 c4 3d 7b 60 2b be 83 f7 c5 bd
       -0.17635576 0.09610554 -0.16736023 -0.0966635
000330 48 24 41 bc 8e 0d 8d be cf 56 a0 3e ca 3d 4b be
       -0.011788435 -0.27549404 0.3131623 -0.1984779
000340 0e 15 81 be 92 f6 0c 3d 7d 53 3b 3e 82 0b 24 bf
       -0.25211376 0.034414835 0.18293567 -0.6408006
000350 cd b3 70 bd 43 5c 6a 3d e1 8f 89 3e 3e 75 e1 bd
       -0.05876522 0.057216894 0.26867583 -0.1100869
000360 f9 06 8e 3d 95 87 85 3e 3f 67 c1 bb d9 38 44 3d
       0.06934924 0.26080003 -0.0059022005 0.047905777
000370 a4 44 a9 be f0 d9 81 3c 6f 23 a0 3b ac 79 51 be
       -0.3306018 0.015850991 0.0048870365 -0.2045657
000380 f1 a6 c8 3e 2a cd 5b be cf 53 ef 3e 6a d2 f2 bd
       0.39189866 -0.21464983 0.46743628 -0.118565395
000390 17 21 54 be be 39 c8 3d bf 03 0b be 52 ed 86 3c
       -0.20715748 0.097766384 -0.13575648 0.016470585
0003a0 8d dc e5 3d 65 8e d2 3d 1d b7 fc 3d 88 72 e0 3d
       0.11223707 0.10281066 0.123396136 0.10959345
0003b0 f8 be 3a be 5c 74 f7 3d 1c 6c 3f be 84 b7 20 3e
       -0.18236911 0.12082741 -0.18693584 0.15695006
0003c0 05 3b 40 be 0f 68 b3 be 57 3d 1e 3e 9d 50 1c be
       -0.18772514 -0.35040328 0.15453087 -0.15265127
0003d0 38 ac ae 3d 18 86 36 be fc 87 5f bf 67 47 04 bf
       0.08528942 -0.1782459 -0.8731687 -0.5167145
0003e0 3a 2a 1d be d1 cf 0b be c1 b7 c9 bc 9e b0 a8 3e
       -0.1534814 -0.13653494 -0.024623754 0.32947248
0003f0 1c 0f 68 3e 80 bb 21 be 0a 91 e5 be 52 6b a2 3e
       0.22662014 -0.15794182 -0.4483722 0.31722504

bias f4 [20]
000000 f0 b2 f0 3c c0 50 1d be be 61 12 3b 56 c0 07 be
       0.029382199 -0.15362835 0.002233609 -0.13256964
000010 07 fd d2 3d 68 92 ff 3d b5 98 c2 3d 2a e6 9e bb
       0.103021674 0.12479097 0.09501783 -0.004849215
000020 c3 f1 55 bd 7d 0f dc bd fb 81 fd bd a7 e2 6e bd
       -0.052232515 -0.10745142 -0.123783074 -0.05832162
000030 f8 ed 0b 3e 13 08 45 3d 76 19 9d bd 00 99 96 be
       0.13664997 0.048103403 -0.07670872 -0.29413605
000040 93 e4 57 bd 45 2d 44 be 8c 55 a8 be 3c 9a 76 3e
       -0.05270822 -0.19157894 -0.32877767 0.24082273
