Iter_03/Models/Noise_0/simulation_00_10/ff_1600.pt (torch, 72861 bytes, 23 tensors)

weight f4 [20, 2]
-0.11997788 0.27364695 -0.7391855 0.24815972 -0.08705295 -0.5330396 0.9617313 0.2184371
-0.7070495 -0.48644885 0.4469853 -0.21151097 -0.28600848 -0.16463481 -0.23159003 -0.28022072
-0.9060398 0.6621523 -0.70368665 -0.25571302 -0.16049072 0.12705547 0.5813475 -0.09350869
0.23875315 -0.61047393 -0.74265015 -0.10494077 -0.97030383 -0.063212045 1.4464343 -0.476339
0.6505121 -1.9236752 -0.66140234 -0.3117484 0.52162844 -0.048449468 0.13335387 -0.33374214
00000000: f6b6 f5bd 741b 8c3e 433b 3dbf 951d 7e3e
00000010: d148 b2bd 4975 08bf 0634 763f faad 5f3e
00000020: 3201 35bf d30f f9be 42db e43e 5596 58be
00000030: b46f 92be 0796 28be f025 6dbe 1779 8fbe
00000040: 39f2 67bf d082 293f cf24 34bf d1ec 82be
00000050: ae57 24be d41a 023e 31d3 143f 7c81 bfbd
00000060: b57b 743e 0548 1cbf 521e 3ebf 30eb d6bd
00000070: d565 78bf 5175 81bd c224 b93f b5e2 f3be
00000080: f687 263f fd3a f6bf aa51 29bf 7c9d 9fbe
00000090: 7189 053f f372 46bd eb8d 083e 40e0 aabe

bias f4 [20]
0.21138524 0.26462117 0.2796305 -1.1726302 1.1561257 -0.22741166 0.27261966 0.71946275
0.83072865 0.22004987 0.2162802 -0.6176365 -0.96723664 0.5783786 0.80449426 -1.5182996
-0.38312986 -0.37841406 -0.47732 0.09180217
00000000: 5f75 583e 6d7c 873e bb2b 8f3e bf18 96bf
00000010: edfb 933f 9ade 68be ce94 8b3e b62e 383f
00000020: a2aa 543f c154 613e 8f78 5d3e 6d1d 1ebf
00000030: d29c 77bf 9f10 143f 56f3 4d3f a457 c2bf
00000040: 9929 c4be 7dbf c1be 4963 f4be c702 bc3d

weight f4 [20, 20]
0.25416723 0.31693026 0.18515037 -0.12925276 -0.100654155 -0.25318992 0.2987128 -0.13752948
0.0857805 0.679847 0.2861063 0.09386347 0.43402722 0.4230222 0.2703613 -0.16954991
-0.60021275 0.51593655 -0.10467285 0.07258583 0.3182612 0.23012075 0.15043491 -0.17046021
-0.17790999 -0.5933781 -0.33554596 -0.2948546 0.16486196 0.0914776 -0.035785474 -0.094147116
-0.18584444 0.27716544 -0.30236068 0.1419428 -0.038340364 0.44892967 0.0064491443 -0.0496049
0.3266995 0.2065563 -0.110262655 -0.62601656 0.6678165 -0.12399133 -0.014995612 0.21063106
0.19736789 -0.14848879 -0.1986653 0.16434994 -0.25325322 0.08949808 0.017726377 -0.1377744
-0.001516114 0.10382484 0.0050291754 -0.43947366 0.053934257 -0.4012808 -0.124829166 0.21639521
0.01074701 0.39812338 -0.24551384 0.21624461 -0.23485881 0.013706366 0.0037561234 0.25129154
0.17579435 -0.11161066 -0.23183064 0.04000133 -0.48093477 -0.17925891 0.29003844 0.25092083
0.2642827 -0.102495655 0.10507045 0.21577956 -0.2912587 -0.16607612 0.17847556 0.4209357
-0.07366017 -0.06943806 0.11018054 0.0041272137 -0.16942617 -0.20442745 -0.18148832 0.46540967
-0.40954506 -0.116650306 0.025645556 0.31371868 -0.13788895 -0.061439157 0.23783492 0.023657644
0.15077953 0.3621985 -0.20248288 -0.044865318 0.069470115 -0.34851882 0.0649249 -0.063788295
-0.3257085 -0.32496753 0.5221976 0.013579897 -0.23613518 -0.12346395 0.20563179 0.2935351
-0.51865995 -0.21349406 0.08782748 -0.037293963 -0.16185571 -0.39746776 0.21311828 0.0895149
0.15328541 -0.39570788 0.09370554 -0.12090177 -0.0005657225 -0.051267214 0.20640352 0.1718954
0.06706293 -0.29742154 0.11534396 -0.15732689 0.20653251 0.28090215 0.23040244 0.08136929
0.04803446 -0.041361038 -0.27580678 0.07888227 -0.026444068 -0.17877322 0.048165996 0.08061674
-0.0043674093 -0.18946335 -0.31930134 -0.21699007 -0.8108249 -0.14486906 -0.11387876 0.16211721
-0.027017355 -0.3616208 -0.6412735 0.62481076 -0.2052951 0.7120307 -0.6004322 -0.0065539093
-0.18704157 -0.6003847 0.079111405 0.36300236 0.39115015 -0.78339803 0.26751187 0.8951426
1.077218 -0.61537886 0.33999234 -0.03485474 0.10761435 0.10616525 0.47736275 -0.048419278
0.541231 0.16709626 0.2497689 0.119462006 0.39242563 0.2711779 0.09228051 -0.3021157
-0.04357326 0.40587792 -0.11448525 -0.04459666 0.40239805 0.119728535 -0.24763212 0.042043597
0.13043271 0.46166316 -0.5961708 0.69569004 -0.2915321 -0.33092383 -0.3569333 -0.18818073
1.0122874 -0.53050226 0.114270486 -0.1155214 -0.45945805 -0.33389044 0.09006912 -0.5073014
-1.0105693 -0.053406477 0.11075706 -0.18977371 -0.41411605 0.1359275 0.14038126 0.38611832
-0.093667924 0.13034889 -0.057011515 -0.13557307 -0.1071267 0.2314314 0.096200824 0.5128773
-0.060632396 -0.2534466 0.2590672 -0.25114983 0.09230498 -0.16831993 0.25297585 0.07002806
-0.3917173 0.058750737 0.13255218 -0.10054255 -0.22422263 0.46460015 -0.06883747 -0.10036984
0.072918765 0.14145604 -0.14906098 0.28186873 0.2618513 -0.18521674 0.05799267 0.1950969
00000000: 3522 823e af44 a23e 0f98 3d3e d65a 04be
00000010: c423 cebd 1ca2 81be e2f0 983e 87d4 0cbe
00000020: b0ad af3d 740a 2e3f 867c 923e 7e3b c03d
00000030: d138 de3e 5e96 d83e cc6c 8a3e 7e9e 2dbe
00000040: 8ba7 19bf 6b14 043f b85e d6bd e1a7 943d
00000050: 22f3 a23e c6a4 6b3e 9c0b 1a3e 1f8d 2ebe
00000060: 092e 36be a1e7 17bf aecc abbe 2ff7 96be
00000070: 93d1 283e 9c58 bb3d ca93 12bd 34d0 c0bd
00000080: 014e 3ebe a1e8 8d3e 05cf 9abe 7459 113e
00000090: c90a 1dbd 1cda e53e 5853 d33b 822e 4bbd
000000a0: 2845 a73e 7f83 533e 63d1 e1bd 9f42 20bf
000000b0: 06f6 2a3f 2bef fdbd 28b0 75bc abaf 573e
000000c0: cf1a 4a3e 720d 18be eb6e 4bbe 5a4b 283e
000000d0: 68aa 81be c54a b73d e836 913c bb14 0dbe
000000e0: 58b8 c6ba 1ea2 d43d c8cb a43b b102 e1be
000000f0: 2bea 5c3d ad74 cdbe 6fa6 ffbd b596 5d3e
00000100: 3a14 303c d4d6 cb3e fb67 7bbe 3a6f 5d3e
00000110: d47e 70be aa90 603c 4b29 763b 49a9 803e
00000120: 6f03 343e 2194 e4bd 0365 6dbe 6fd8 233d
00000130: 153d f6be a68f 37be eb7f 943e b278 803e
00000140: 1050 873e 3ee9 d1bd 2d2f d73d 51f5 5c3e
00000150: dc1f 95be dc0f 2abe 4cc2 363e e284 d73e
00000160: 25db 96bd 8b35 8ebd 56a6 e13d 943d 873b
00000170: 0e7e 2dbe 6e55 51be 13d8 39be 2d4a ee3e
00000180: e4af d1be 5be6 eebd a116 d23c bc9f a03e
00000190: c332 0dbe a0a7 7bbd ff8a 733e adcd c13c
000001a0: f365 1a3e 1572 b93e ac57 4fbe b2c4 37bd
000001b0: 5946 8e3d 0f71 b2be 59f7 843d 70a3 82bd
000001c0: 44c3 a6be 2562 a6be beae 053f 377e 5e3c
000001d0: 6ccd 71be abda fcbd 2491 523e 3c4a 963e
000001e0: e6c6 04bf 309e 5abe e5de b33d 8ec1 18bd
000001f0: 81bd 25be e580 cbbe ae3b 5a3e 9753 b73d
00000200: daf6 1c3e 399a cabe b1e8 bf3d 599b f7bd
00000210: ff4c 14ba 92fd 51bd 725b 533e 5905 303e
00000220: 4a58 893d a347 98be 7439 ec3d 4d1a 21be
00000230: 427d 533e 68d2 8f3e 9eee 6b3e f1a4 a63d
00000240: c8bf 443d 316a 29bd 8c36 8dbe 078d a13d
00000250: 3ba1 d8bc 5410 37be b549 453d 641a a53d
00000260: 7c1c 8fbb ae02 42be 777b a3be a532 5ebe
00000270: 3892 4fbf 8e58 14be 4439 e9bd 0e02 263e
00000280: 8053 ddbc 5d26 b9be 802a 24bf 99f3 1f3f
00000290: e138 52be a547 363f edb5 19bf 2dc2 d6bb
000002a0: d387 3fbe d0b2 19bf 2905 a23d 72db b93e
000002b0: d544 c83e c68c 48bf 51f7 883e 1128 653f
000002c0: 48e2 893f 7889 1dbf 7a13 ae3e d8c3 0ebd
000002d0: ea64 dc3d 2b6d d93d e468 f43e 4b53 46bd
000002e0: 1d8e 0a3f 481b 2b3e 6bc3 7f3e 7fa8 f43d
000002f0: 03ec c83e d4d7 8a3e 90fd bc3d e9ae 9abe
00000300: e079 32bd 3bcf cf3e 3e77 eabd fdaa 36bd
00000310: 1e07 ce3e 3c34 f53d 4693 7dbe e835 2c3d
00000320: 2790 053e 1d5f ec3e a69e 18bf be18 323f
00000330: b243 95be d96e a9be f6bf b6be 73b2 40be
00000340: a292 813f ffce 07bf a506 ea3d 7c96 ecbd
00000350: 163e ebbe b0f3 aabe 2976 b83d 81de 01bf
00000360: 565a 81bf c0c0 5abd 99d4 e23d 0a54 42be
00000370: 0507 d4be 9430 0b3e 1bc0 0f3e 4db1 c53e
00000380: f8d4 bfbd 2e7a 053e e884 69bd abd3 0abe
00000390: 3e65 dbbd 5afc 6c3e f004 c53d ed4b 033f
000003a0: ad59 78bd c1c3 81be 75a4 843e b696 80be
000003b0: 650a bd3d 0f5c 2cbe 0d86 813e df6a 8f3d
000003c0: 2c8f c8be 9da4 703d c2bb 073e 41e9 cdbd
000003d0: 9e9a 65be 12e0 ed3e a9fa 8cbd b48e cdbd
000003e0: 6f56 953d dad9 103e 71a3 18be 1951 903e
000003f0: 6011 863e 75a9 3dbe b989 6d3d 7bc7 473e

bias f4 [20]
0.38275328 0.33428752 0.21030077 0.12965411 0.41034016 0.11318248 0.07888028 0.52449787
-1.6940011 0.60877997 -0.2641805 0.1301088 -0.9878763 -0.37277758 -1.0262841 -0.18641488
0.51386255 -1.1136099 0.076823205 0.28058586
00000000: 3df8 c33e bc27 ab3e 1659 573e 0cc4 043e
00000010: 1b18 d23e 37cc e73d fc8b a13d 7e45 063f
00000020: 07d5 d8bf 01d9 1b3f ab42 87be 3e3b 053e
00000030: 76e5 7cbf b4dc bebe 475d 83bf 8be3 3ebe
00000040: 7f8c 033f c58a 8ebf 7c55 9d3d f3a8 8f3e

weight f4 [20, 20]
0.34865054 -0.09979008 0.13345413 -0.07199026 0.030113235 -0.16873789 0.041774917 0.3190362
-0.9913066 0.30967978 0.0954196 0.45441115 0.105608344 0.02136327 0.08616408 -0.3977252
0.28359333 -0.24832304 0.21866107 -0.3703845 0.24746718 0.03266094 0.091078274 -0.085225895
0.11502163 0.3012432 0.23267232 -0.11414423 -0.09324801 0.35883993 -0.33651102 0.38323882
-0.07741212 0.02164591 -0.043206546 0.20858324 -0.08282587 0.3548776 0.29886368 -0.017208034
-0.35454428 -0.11218019 0.04418192 -0.57986975 0.08060491 0.07395074 0.093272634 -0.28180602
0.11665806 0.32502422 -1.2422068 -0.09970743 0.03141117 0.037509672 -0.013960372 0.46909901
0.24245836 0.26825756 -0.2754121 0.13551557 0.2567825 0.1973091 -0.079518735 -0.108833894
-0.25364468 -0.11476461 -0.6472523 -0.044947747 -0.08951951 -0.047234576 -0.36476105 0.06349039
0.009462211 0.033259593 -0.060902394 0.20640144 -0.21974635 0.056665312 0.16658795 0.40017816
0.30795032 0.03858487 -0.059304964 -0.027564164 0.48102805 -0.36521128 -0.06503795 -0.17140082
-0.024592435 0.026425792 -0.10036748 -0.30954102 -0.2022457 -0.712027 0.4340973 -0.20222247
-0.29868877 -0.42621928 0.2231555 0.07515367 -0.26826102 -0.16662472 -0.035900943 -0.00048863963
-0.31812394 -0.031795796 0.1437925 -0.29245633 0.4381255 -0.10609035 -0.070999324 -0.13890499
0.43127438 0.22638424 0.6170628 0.027118672 0.088885404 0.24866024 0.06031826 -0.47828156
0.44401917 0.18470706 -0.04065492 0.04315458 0.3853818 -0.16189727 -0.17658 0.26265115
-0.50141853 0.15868181 0.40330914 0.24146867 -0.2842656 0.17103179 -0.41467246 -0.059620805
-0.047439825 -0.8162695 -0.19651052 -0.07006761 -0.21852517 0.019261561 -0.122056514 0.3221798
-0.1380878 -0.09006809 -0.24070932 0.17796993 0.5815372 0.00052074547 0.028676748 -0.10895511
-0.029154288 -0.021040455 0.21099424 0.32109734 -0.046326134 0.48041904 -0.053117488 0.052581258
-0.08262396 -0.08614727 -0.30918667 0.46998125 0.17810711 0.09094267 -0.052932967 -0.12577115
0.17018163 -0.027683629 -0.27008086 0.2599954 -0.26276597 -0.2928878 0.23682138 -0.008374787
0.019719679 -0.16022758 0.29424065 -0.28486198 0.3958162 -0.28890544 -0.16220564 -0.0033986054
-0.35041463 0.34593555 -0.37967116 0.050644398 0.119236454 -0.008201783 -0.16789389 0.16616482
-0.00017315257 -0.010417093 -0.11809613 0.4257128 0.0764342 0.2568385 0.13985309 -0.16912384
0.16686328 0.10777259 0.11167236 -0.11823055 0.23375955 0.05352804 0.10636599 -0.10173315
-0.2673421 0.2517684 -0.08090488 0.1884495 -0.134161 0.105255775 -0.41617587 -0.018614823
0.04289822 -0.5218207 -0.19504146 -0.32181248 -0.019865142 0.06298537 -0.11216341 -0.273214
0.2537755 -0.2481773 0.014899287 -0.20525111 -0.3708966 0.17920956 -0.33303028 -0.03944953
0.30567998 0.26727107 -0.0015656365 0.22432429 0.060475882 0.72360396 -0.23061879 0.056817602
-0.5895197 0.122403644 -0.29959175 -0.053696897 0.14357258 -0.33026624 -0.012280041 0.21263453
0.045937847 0.068734 0.119858116 -0.14383979 -0.29436982 -0.46208298 0.24393114 -0.6854126
00000000: 5382 b23e be5e ccbd 33a8 083e a16f 93bd
00000010: 08b0 f63c a0c9 2cbe 2d1c 2b3d b658 a33e
00000020: 45c6 7dbf 598e 9e3e 5a6b c33d 94a8 e83e
00000030: 3049 d83d 0602 af3c cb76 b03d a3a2 cbbe
00000040: 2533 913e 6548 7ebe b0e8 5f3e 0aa3 bdbe
00000050: 0968 7d3e 7ac7 053d 3f87 ba3d ea8a aebd
00000060: 7690 eb3d 8c3c 9a3e a741 6e3e 73c4 e9bd
00000070: d0f8 bebd deb9 b73e 2c4b acbe e137 c43e
00000080: 3f8a 9ebd c352 b13c 59f9 30bd d896 553e
00000090: 9ca0 a9bd 84b2 b53e a904 993e ddf7 8cbc
000000a0: d486 b5be babe e5bd 1af8 343d 5872 14bf
000000b0: 3014 a53d 7c73 973d b905 bf3d e148 90be
000000c0: 6cea ee3d 9369 a63e a200 9fbf 6933 ccbd
000000d0: 00a9 003d bea3 193d 0bba 64bc bf2d f03e
000000e0: 0147 783e 0e59 893e d102 8dbe 98c4 0a3e
000000f0: ff78 833e 660b 4a3e b8da a2bd 4ee4 debd
00000100: b7dd 81be b509 ebbd 54b2 25bf 211b 38bd
00000110: 0156 b7bd 0b79 41bd f6c1 babe 4007 823d
00000120: 6407 1b3c 363b 083d ca74 79bd e65a 533e
00000130: 3005 61be e319 683d 0896 2a3e 27e4 cc3e
00000140: aaab 9d3e 2b0b 1e3d c3e9 72bd 3ece e1bc
00000150: 4f49 f63e f9fc babe 9e32 85bd b283 2fbe
00000160: 1376 c9bc e77a d83c 778d cdbd 297c 9ebe
00000170: 7f19 4fbe 6747 36bf 0042 de3e 6813 4fbe
00000180: bced 98be 6a39 dabe e082 643e 2bea 993d
00000190: 8259 89be ac9f 2abe de0c 13bd 0d18 00ba
000001a0: 24e1 a2be 4f3c 02bd 573e 133e d6bc 95be
000001b0: fc51 e03e e645 d9bd 1868 91bd 1c3d 0ebe
000001c0: ffcf dc3e 45d1 673e d4f7 1d3f fa27 de3c
000001d0: 8d09 b63d caa0 7e3e 4810 773d 52e1 f4be
000001e0: 7b56 e33e d923 3d3e c685 26bd dbc2 303d
000001f0: c350 c53e 66c8 25be 63d1 34be 367a 863e
00000200: f75c 00bf 7c7d 223e 897e ce3e 9043 773e
00000210: 438b 91be f522 2f3e f34f d4be f234 74bd
00000220: 4350 42bd 0af7 50bf 0e3a 49be 9b7f 8fbd
00000230: 10c5 5fbe 6cca 9d3c c4f8 f9bd c0f4 a43e
00000240: e366 0dbe 9e75 b8bd 817c 76be c03d 363e
00000250: 9fdf 143f a382 083a 80eb ea3c db23 dfbd
00000260: f9d4 eebc 085d acbc e00e 583e df66 a43e
00000270: 79c0 3dbd 7cf9 f53e b991 59bd 725f 573d
00000280: c036 a9bd fb6d b0bd b74d 9ebe 62a1 f03e
00000290: b661 363e 2740 ba3d 3dd0 58bd 27ca 00be
000002a0: 1844 2e3e c7c8 e2bc 0a48 8abe 1e1e 853e
000002b0: 4389 86be 64f5 95be 4e81 723e 6736 09bc
000002c0: 2a8b a13c b312 24be b6a6 963e 6ed9 91be
000002d0: 6ca8 ca3e 6aeb 93be 3c19 26be 23bb 5ebb
000002e0: 8c69 b3be 771e b13e 4264 c2be 8070 4f3d
000002f0: 3e32 f43d c560 06bc 60ec 2bbe 1c27 2a3e
00000300: 4a90 35b9 74ac 2abc 62dc f1bd 07f7 d93e
00000310: 8989 9c3d 5680 833e a635 0f3e cd2e 2dbe
00000320: 35de 2a3e e0b7 dc3d 7ab4 e43d dc22 f2bd
00000330: aa5e 6f3e 3840 5b3d 6ad6 d93d 7859 d0bd
00000340: 10e1 88be cae7 803e 75b1 a5bd e8f8 403e
00000350: 8061 09be 5790 d73d 0115 d5be 1d7e 98bc
00000360: 0bb6 2f3d 0b96 05bf f3b8 47be 9bc4 a4be
00000370: 39bc a2bc 79fe 803d eeb5 e5bd b5e2 8bbe
00000380: ddee 813e 3122 7ebe 241c 743c 592d 52be
00000390: 29e6 bdbe b682 373e f282 aabe d595 21bd
000003a0: 1682 9c3e c1d7 883e 0b36 cdba 44b5 653e
000003b0: 8fb5 773d 1c3e 393f 5527 6cbe 93b9 683d
000003c0: c3ea 16bf c3ae fa3d 1764 99be 47f1 5bbd
000003d0: b104 133e a818 a9be 3a32 49bc debc 593e
000003e0: 5329 3c3d 69c4 8c3d 2c78 f53d bd4a 13be
000003f0: a4b7 96be 2496 ecbe 16c9 793e 3377 2fbf

bias f4 [20]
0.21709274 0.4694278 -0.30819842 -0.3646761 0.49882716 -0.40635762 0.9079442 -0.5281845
-0.06701957 -0.7824425 0.5274543 -0.17949963 0.24923742 0.058209486 -0.49106073 1.0163366
0.80748326 0.24733198 -0.17773893 -0.5048234
00000000: 8f4d 5e3e d758 f03e 2fcc 9dbe d3b6 babe
00000010: 4666 ff3e 1b0e d0be 086f 683f 1937 07bf
00000020: 8e41 89bd 274e 48bf 3f07 073f c0ce 37be
00000030: 1838 7f3e 126d 6e3d 506c fbbe 5117 823f
00000040: 39b7 4e3f 9844 7d3e 3201 36be 1b3c 01bf

weight f4 [20, 20]
0.17383781 0.083821744 0.14796373 -0.16576435 0.5520338 -0.15241897 0.39007473 -0.41301692
0.2917775 0.023485024 0.2734994 -0.05728844 0.30127394 0.32180375 -0.30656508 0.5901022
0.20128754 0.49961734 0.11322377 -0.14164829 0.09256844 -0.09676935 -0.49551886 0.16740926
0.15321784 0.4033223 0.34854582 0.0726963 0.035770163 0.3237534 -0.3627693 -0.3140177
-0.3601174 0.41367668 -0.093583785 -0.40483382 0.12953457 0.28801894 -0.3212686 0.24707684
-0.66300404 -0.14178747 0.52166975 0.06167209 -0.4166899 0.7239318 -0.6878843 0.6978888
0.032442573 0.7894946 -0.43572763 0.19443806 -0.6709139 -0.14785996 0.615266 -1.2121751
-0.45078456 -0.07600989 0.6059517 0.42216542 -0.20464447 -0.0700295 -0.06598503 0.26108283
-0.035686795 -0.05244113 0.118223436 0.20169687 0.13035108 0.21739694 0.2503434 -0.44696078
-0.016457904 0.28257182 0.0674698 -0.03765766 -0.21895678 0.5083226 0.24759981 -0.4616525
0.15939449 -0.23001702 -0.33266062 0.123663075 0.109410375 0.39501968 -0.25123727 0.18986645
0.046931878 0.037342563 0.017525353 0.15039057 -0.31972492 0.14619844 0.08099535 -0.33839744
-0.39079255 -0.38730115 -0.4477856 0.12787288 -0.08413483 0.02521172 0.18468796 -0.12238955
0.17983966 -0.04720416 -0.3916379 -0.09415236 0.09559325 -0.013443636 -0.18714096 -0.2196172
-0.09538042 0.07659726 -0.54385173 0.17686592 -0.20674056 0.11893995 0.32835746 0.15400526
-0.061146524 0.4572086 0.041972194 -0.0042686407 -0.30833483 0.3942864 0.071211405 -0.051278293
-0.2593926 0.29784006 -0.15336093 -0.374493 0.1359652 -0.27399847 0.2996236 -0.011269096
0.5562443 -0.119395524 0.060187604 -0.32434398 -0.14611831 -0.13020673 -0.4797751 0.24528416
-0.60133356 0.24566668 0.41965014 0.092526294 -0.060118105 -0.13322386 0.502263 -0.38582948
0.40102682 -0.2899456 -0.3223433 0.39269632 -0.049420167 -0.18983784 -0.57249373 -0.22134322
0.28374013 -0.38607687 -0.5094423 -0.15991554 0.13479277 0.08623593 -0.08610235 -0.13699792
0.6820872 -0.18629916 0.015460543 -0.35386473 0.53254896 -0.018281125 0.34864807 -0.2699432
0.106493734 -0.11495521 0.15778494 0.1149851 0.32291967 0.11083552 0.037993215 -0.24098016
-0.07254076 -0.14263023 -0.16456571 0.12522797 -0.09433236 0.28115228 -0.21340509 -0.1830006
-0.3723926 0.12645741 0.34805554 -0.29077783 -0.11508611 -0.4203839 -0.23541911 0.023195062
0.047897678 0.46918616 0.08622106 0.41059837 -0.02511343 0.084216245 -0.09274679 -0.16175704
0.27269465 0.17423464 -0.119990714 0.031064346 0.1256771 0.40516964 -0.10653235 -0.036183503
-0.43312886 -0.5613435 -0.0016460548 -0.11234247 0.06146949 0.11677474 -0.17437953 0.10846261
-0.19276589 0.28673583 -0.0010849199 -0.081019476 -0.13208084 0.08449032 -0.17019005 -0.05618637
-0.3129774 -0.2506724 0.11878373 0.07187893 0.16356236 0.1532469 -0.19172356 0.24625883
0.24031435 -0.0037973537 0.03294609 0.18127419 -0.1374456 -0.25911918 0.14862274 -0.30463046
0.14418294 0.08393608 0.011988738 -0.051997665 -0.19820768 -0.046087306 0.2964086 0.5669451
00000000: 8a02 323e bcaa ab3d ce83 173e 21be 29be
00000010: 1652 0d3f b813 1cbe e0b7 c73e f476 d3be
00000020: dc63 953e aa63 c03c 1d08 8c3e 49a7 6abd
00000030: 9440 9a3e 76c3 a43e 19f6 9cbe f010 173f
00000040: 521e 4e3e d8cd ff3e dde1 e73d 400c 11be
00000050: 8694 bd3d 022f c6bd a6b4 fdbe 556d 2b3e
00000060: 23e5 1c3e 4380 ce3e 9974 b23e cce1 943d
00000070: bc83 123d 01c3 a53e e6bc b9be eec6 a0be
00000080: 4f61 b8be 6ecd d33e dba8 bfbd 6146 cfbe
00000090: b6a4 043e 3877 933e 517d a4be b601 7d3e
000000a0: a2ba 29bf bc30 11be 268c 053f e09b 7c3d
000000b0: 6158 d5be 9853 393f 2f19 30bf d7a8 323f
000000c0: 81e2 043d 511c 4a3f b117 dfbe c51a 473e
000000d0: 03c1 2bbf 9a68 17be 1382 1d3f 8e28 9bbf
000000e0: 3ccd e6be 13ab 9bbd a71f 1b3f 1126 d83e
000000f0: 528e 51be a06b 8fbd 2923 87bd a6ac 853e
00000100: 512c 12bd 83cc 56bd 211f f23d a089 4e3e
00000110: c17a 053e 4e9d 5e3e 032d 803e 0bd8 e4be
00000120: bad2 86bc 41ad 903e 9b2d 8a3d eb3e 1abd
00000130: 3536 60be 6e21 023f ce8a 7d3e b75d ecbe
00000140: 4f38 233e 9589 6bbe 7e52 aabe 1143 fd3d
00000150: 8c12 e03d 0540 ca3e 2ca2 80be 5a6c 423e
00000160: a43b 403d 84f4 183d 5491 8f3c fcff 193e
00000170: fcb2 a3be 0bb5 153e e4e0 a53d 6e42 adbe
00000180: f615 c8be 564c c6be 2744 e5be 1cf1 023e
00000190: e24e acbd cf88 ce3c d71e 3d3e 5fa7 fabd
000001a0: e327 383e 2659 41bd c384 c8be f4d2 c0bd
000001b0: 65c6 c33d b242 5cbc e1a1 3fbe 55e3 60be
000001c0: cf56 c3bd 06df 9c3d de39 0bbf 571c 353e
000001d0: ccb3 53be ca96 f33d 781e a83e 8eb3 1d3e
000001e0: c774 7abd 3f17 ea3e 09eb 2b3d f4df 8bbb
000001f0: 10de 9dbe e8df c93e 49d7 913d 3009 52bd
00000200: 1bcf 84be 7e7e 983e a60a 1dbe 8cbd bfbe
00000210: 763a 0b3e 8749 8cbe 4468 993e 04a2 38bc
00000220: 0766 0e3f a485 f4bd 4787 763d 6a10 a6be
00000230: 0aa0 15be ea54 05be 15a5 f5be c52b 7b3e
00000240: fff0 19bf 0c90 7b3e 62dc d63e 6d7e bd3d
00000250: 673e 76bd d66b 08be 4f94 003f 718b c5be
00000260: 6353 cd3e c073 94be 2e0a a5be 7e0f c93e
00000270: cd6c 4abd da64 42be f38e 12bf cca7 62be
00000280: 6346 913e deab c5be d06a 02bf e6c0 23be
00000290: 1e07 0a3e 779c b03d 6e56 b0bd 2f49 0cbe
000002a0: 449d 2e3f 35c5 3ebe 384e 7d3c c22d b5be
000002b0: 2155 083f 4cc2 95bc 0082 b23e ff35 8abe
000002c0: 6319 da3d a36d ebbd 6092 213e 4f7d eb3d
000002d0: ba55 a53e bcfd e23d c69e 1b3d 81c3 76be
000002e0: 4090 94bd a90d 12be ea83 28be c33b 003e
000002f0: 5331 c1bd 31f3 8f3e dd86 5abe 8264 3bbe
00000300: 3eaa bebe 0d7e 013e 5634 b23e d5e0 94be
00000310: 44b2 ebbd 8f3c d7be b511 71be 9203 be3c
00000320: 5b30 443d 2b39 f03e ab94 b03d f339 d23e
00000330: aeba cdbc 9179 ac3d 07f2 bdbd a3a3 25be
00000340: a29e 8b3e 916a 323e b1bd f5bd a87a fe3c
00000350: 7fb1 003e 6572 cf3e a22d dabd 2735 14bd
00000360: 11c3 ddbe 35b4 0fbf 6fc0 d7ba cf13 e6bd
00000370: 6fc7 7b3d 9827 ef3d 8c90 32be a521 de3d
00000380: 6c64 45be 0acf 923e df33 8eba 8aed a5bd
00000390: 3340 07be 4309 ad3d 4d46 2ebe ae23 66bd
000003a0: 933e a0be 2258 80be e244 f33d 4335 933d
000003b0: e47c 273e c1ec 1c3e 2e53 44be 462b 7c3e
000003c0: f714 763e 06dd 78bb 7bf2 063d f19f 393e
000003d0: 8abe 0cbe 45ab 84be 8f30 183e 86f8 9bbe
000003e0: b1a4 133e aee6 ab3d 696c 443c 81fb 54bd
000003f0: f4f6 4abe 0bc6 3cbd dec2 973e 5023 113f

bias f4 [20]
0.54735434 0.36480027 -0.8829181 -0.025976514 -0.10732917 -0.44592714 0.11720034 0.5087577
0.14410259 -0.072989546 -0.324869 0.24790764 0.4525481 0.36738324 0.20750955 -0.28073186
-0.12026646 0.0740956 -0.2776127 0.55579853
00000000: 6a1f 0c3f 1ac7 ba3e ec06 62bf b3cc d4bc
00000010: 65cf dbbd 9050 e4be bb06 f03d f23d 023f
00000020: a18f 133e 8b7b 95bd 3b55 a6be 80db 7d3e
00000030: 62b4 e73e a819 bc3e 627d 543e 16bc 8fbe
00000040: 434e f6bd 6fbf 973d 4023 8ebe d048 0e3f

weight f4 [20, 20]
0.17268822 0.2141364 0.16839926 0.025777841 0.32226977 0.120050214 -0.12916316 -0.036772616
0.56580144 0.18448384 -0.020231323 0.1305868 0.12040135 -0.16810101 0.10429276 -0.25530365
0.2013912 0.03810034 -0.21413831 -0.2065787 0.11636487 -0.029472746 0.32365134 0.2161501
0.107376866 -0.06312908 -0.07420835 -0.015727093 0.6612348 -0.5489878 -0.07524052 -0.15652029
0.092774555 0.03867913 -0.23132262 -0.71277046 -0.07772581 0.6109409 -0.16297112 0.2508572
0.3616919 0.4814372 -0.029457372 0.3804675 -0.21588227 -0.3467347 0.15713386 0.26829314
0.037815124 -0.13326459 -0.008384667 0.15597446 0.16211411 0.46624476 -0.10279402 -0.2525997
-0.046516553 -0.10954845 -0.55801743 0.26120988 -0.19123748 0.40792155 0.3387556 0.1498207
0.28856185 -0.17954028 -0.09287209 0.031249043 0.018884465 0.0052058934 -0.041723125 -0.09162685
0.24161194 0.14378233 0.044569973 0.26172096 -0.21932341 0.43515712 -0.033175237 0.20079358
-0.85355526 -0.016034016 1.2734212 -0.34586295 -0.46171933 0.10840505 0.028608715 -0.5521447
0.075608686 0.66425705 0.38800582 -0.28639546 -1.0812538 -0.36404714 -0.81962824 -0.046380553
-0.3040342 0.367578 0.04826401 -0.47407857 -0.42143404 0.01907659 0.26741576 -0.12376948
0.20367318 -0.0056364764 -0.26440048 -0.089845486 0.057036772 -0.061897393 -0.29127887 -0.36708468
-0.25121352 0.12253062 -0.18273564 0.3669167 -0.21002676 0.06675435 -0.3576735 -0.16326338
0.17910011 0.0038310424 0.22979902 -0.046690933 -0.42262253 -0.014460113 0.12974146 0.20131344
0.16335797 -0.016663866 -0.45291626 0.052064817 0.016272616 0.019012298 0.077755325 -0.29714274
0.056474738 0.26196468 -0.219334 0.23595113 -0.7038921 -0.052699097 0.82518506 -0.37017223
-0.2525762 -0.0053552585 0.11000477 -0.27530688 -0.053374626 0.77097535 0.41939563 -0.3594974
-0.34515923 -0.27857405 -0.4420949 -0.24864778 -0.35821062 0.1737601 0.13536279 -0.18441637
-0.31699932 -0.2700047 0.080108464 -0.037746523 -0.3070795 -0.287578 -0.04534398 -0.41727412
-0.14120054 0.40120903 0.20749849 -0.3469249 -0.37760776 0.36914045 -0.17616601 -0.031663626
-0.2931563 -0.07650097 0.065709114 -0.028347228 -0.15242045 0.415852 0.53385895 0.17956172
0.098893054 0.098123714 -0.34566543 0.39751953 0.13454807 0.011209504 0.34857795 -0.18857744
-0.42261216 0.402717 -0.105554394 -0.12490468 -0.09353314 0.5703142 -0.09727479 0.053642448
0.009085289 -0.31013095 0.17574607 0.26358104 -0.20882037 0.38937855 -0.21980947 -0.27864087
0.01481777 -0.45063204 0.3101131 -0.03521563 -0.33206066 -0.06269232 -0.3812597 0.25524753
0.23126927 -0.13459444 0.34145978 -0.20441179 -0.31006038 -0.028814385 -0.19602585 0.27406323
-0.26779062 0.048184577 -0.19689651 0.59487677 -0.13959068 -0.30547437 -0.08479996 0.15283667
0.41434515 0.212913 0.16841222 -0.0023534012 0.13782693 -0.14460148 -0.06459312 -0.018107278
-0.29405025 -0.23674119 -0.033256847 -0.25836584 -0.3983065 0.30430725 -0.118776366 -0.20575497
0.059337888 -0.049160708 -0.0101018185 -0.09662208 -0.22152959 0.20345336 -0.2993513 0.005425986
00000000: 2ed5 303e 9346 5b3e db70 2c3e 0d2c d33c
00000010: 8b00 a53e e3dc f53d 5943 04be e29e 16bd
00000020: 5dd8 103f 55e9 3c3e 29bc a5bc 8cb8 053e
00000030: fc94 f63d ac22 2cbe 7197 d53d 29b7 82be
00000040: 7f39 4e3e 1a0f 1c3d 1347 5bbe 5e89 53be
00000050: b450 ee3d d470 f1bc a1b5 a53e 7456 5d3e
00000060: 67e8 db3d d249 81bd 8cfa 97bd 1bd6 80bc
00000070: af46 293f 778a 0cbf b417 9abd db46 20be
00000080: 9600 be3d 026e 1e3d d6df 6cbe 2078 36bf
00000090: b62e 9fbd 9f66 1c3f e7e1 26be 5b70 803e
000000a0: ae2f b93e f07e f63e 9650 f1bc a3cc c23e
000000b0: 3e10 5dbe 3687 b1be b3e7 203e b85d 893e
000000c0: 08e4 1a3d 8376 08be d85f 09bc c5b7 1f3e
000000d0: 3e01 263e a2b7 ee3e ac85 d2bd bf54 81be
000000e0: 2488 3ebd f05a e0bd 3bda 0ebf 4dbd 853e
000000f0: c2d3 43be 18db d03e 6071 ad3e 996a 193e
00000100: 61be 933e 68d9 37be b933 bebd fefd ff3c
00000110: 98b3 9a3c 3396 aa3b dee5 2abd dca6 bbbd
00000120: 1f69 773e ad3b 133e 018f 363d 4a00 863e
00000130: 5196 60be eacc de3e c2e2 07bd d59c 4d3e
00000140: 9982 5abf c559 83bc 77ff a23f f314 b1be
00000150: 7a66 ecbe 7803 de3d d35c ea3c 5b59 0dbf
00000160: bad8 9a3d c00c 2a3f b3a8 c63e 6da2 92be
00000170: 8666 8abf 6364 babe 28d3 51bf 89f9 3dbd
00000180: 5faa 9bbe 2f33 bc3e 7cb0 453d 6dba f2be
00000190: 34c6 d7be 8246 9c3c b8ea 883e da7a fdbd
000001a0: b48f 503e 31b2 b8bb 805f 87be e900 b8bd
000001b0: 649f 693d 1f88 7dbd 8122 95be 86f2 bbbe
000001c0: 0f9f 80be 55f1 fa3d 0d1f 3bbe 81dc bb3e
000001d0: 4111 57be 81b6 883d fb20 b7be 842e 27be
000001e0: 0566 373e 3a12 7b3b 6f50 6b3e fe3e 3fbd
000001f0: fb61 d8be 1cea 6cbc f2da 043e 1c25 4e3e
00000200: 5047 273e a982 88bc a4e4 e7be eb41 553d
00000210: 264e 853c aebf 9b3c 2f3e 9f3d 1823 98be
00000220: 0e52 673d 3c20 863e 1899 60be 2c9d 713e
00000230: 4632 34bf 02db 57bd 543f 533f 3787 bdbe
00000240: ab51 81be 2a7b afbb 2e4a e13d 06f5 8cbe
00000250: 5a9f 5abd a45e 453f 06bb d63e 0b10 b8be
00000260: b6b8 b0be 42a1 8ebe 435a e2be 869d 7ebe
00000270: 6267 b7be 2bee 313e 8b9c 0a3e a5d7 3cbe
00000280: bc4d a2be 0e3e 8abe e80f a43d 199c 1abd
00000290: 8639 9dbe 6c3d 93be 9cba 39bd f4a4 d5be
000002a0: e096 10be 456b cd3e 7c7a 543e 24a0 b1be
000002b0: ce55 c1be faff bc3e dd64 34be b8b1 01bd
000002c0: 9518 96be 8aac 9cbd 8092 863d 7238 e8bc
000002d0: 1b14 1cbe 8eea d43e fbaa 083f 07df 373e
000002e0: 7188 ca3d 16f5 c83d 0ffb b0be ae87 cb3e
000002f0: f8c6 093e 11a8 373c cf78 b23e 721a 41be
00000300: 9f60 d8be ec30 ce3e e72c d8bd 06ce ffbd
00000310: 4e8e bfbd 1d00 123f 0138 c7bd 2fb8 5b3d
00000320: 77da 143c 7cc9 9ebe c7f6 333e 18f4 863e
00000330: 02d5 55be a05c c73e bc15 61be 04aa 8ebe
00000340: 3bc6 723c 3eb9 e6be 25c7 9e3e 443e 10bd
00000350: db03 aabe d564 80bd 7934 c3be ceaf 823e
00000360: dad1 6c3e 20d3 09be d1d3 ae3e 5351 51be
00000370: 3cc0 9ebe 250c ecbc 00bb 48be 0452 8c3e
00000380: da1b 89be 315d 453d 3d9f 49be d849 183f
00000390: dcf0 0ebe 2367 9cbe 9aab adbd 3781 1c3e
000003a0: 0c25 d43e de05 5a3e 4174 2c3e 853b 1abb
000003b0: 8122 0d3e 6912 14be 6649 84bd b755 94bc
000003c0: c18d 96be 486c 72be 5538 08bd 8748 84be
000003d0: d4ee cbbe 29ce 9b3e 0641 f3bd 6eb1 52be
000003e0: 490c 733d bd5c 49bd 1982 25bc cce1 c5bd
000003f0: a7d8 62be 1456 503e 9344 99be 78cc b13b

bias f4 [20]
0.3828141 0.3549881 0.35630733 0.22958504 -0.5669946 -0.36191458 -0.197165 -0.1741594
-0.27232626 0.5387675 -0.34636116 0.3388718 -0.07174291 0.28146785 0.123713195 0.3242345
0.2991474 0.265176 -0.37997168 -0.21313049
00000000: 3600 c43e 00c1 b53e ea6d b63e 5718 6b3e
00000010: 8f26 11bf de4c b9be 9fe5 49be d756 32be
00000020: 596e 8bbe abec 093f 4056 b1be 9b80 ad3e
00000030: f2ed 92bd 8e1c 903e 585d fd3d 1002 a63e
00000040: d929 993e 26c5 873e a68b c2be e13e 5abe

weight f4 [20, 20]
0.2683804 -0.04614624 0.013120367 0.23868948 -0.31621173 0.15123962 0.11246426 -0.13660173
-0.09707968 -0.04939805 0.079511404 0.20014979 0.21775001 -0.015882537 -0.19464229 0.31704527
0.04957974 0.269571 0.10147656 -0.18015417 -0.25963357 0.41403085 -0.35962042 -0.6470979
0.037591886 0.62509245 -0.08090181 0.04864039 0.45582613 0.09640329 0.29752573 -0.4452765
0.6771297 -0.26888794 0.28195688 0.06683722 -0.16771224 -0.83678204 0.4240165 0.7413593
-0.39647135 -0.18248509 -0.11384396 -0.17975208 -0.31272206 -0.2493113 0.07902037 -0.28291333
-0.13444856 0.045674074 -0.23849511 -0.33527604 -0.22484678 0.1519352 0.40715954 0.09835589
0.22627556 -0.040379573 0.031357888 -0.20374492 0.11145139 -0.15935504 -0.15773632 0.34773105
-0.08938037 -0.4763497 -0.27193412 -0.062415343 -0.4602834 0.2832715 -0.274015 0.3933825
-0.48562008 0.45616817 -0.03527538 -0.05869188 0.0073996107 0.74318415 -0.5686955 -0.6543152
-0.49412036 -0.41999876 -0.060347788 -0.5214738 -0.61953396 0.0014179657 -0.22771455 -0.36177656
0.31020224 -0.38366967 0.4878402 -0.18147732 0.124593474 -0.065315746 0.18649347 -0.014892861
-0.2165286 -0.46966663 0.28612489 -0.17998087 -0.034654364 -0.4558945 -0.47229403 0.23849587
-0.96298015 -0.2601359 0.01768124 -0.40481275 0.2478044 -0.4580048 -0.20338409 0.42708686
-0.3445102 -0.3642302 -0.169206 0.35672325 0.35149863 0.07520204 -0.22068831 0.36800733
-0.2518647 0.40329167 0.074171185 0.13025106 0.45786536 -0.02199356 0.25871447 -0.13302426
0.18697649 0.3230228 0.18561906 -0.14559314 -0.07462044 -0.005803905 0.37722823 -0.48914972
-0.13802296 -0.29873794 0.042849075 -0.2125606 -0.07747263 0.2331093 -0.041422073 -0.23677523
0.17457783 0.120926574 0.08043074 -0.33473963 0.19003749 0.021834318 0.3335519 -0.20360732
0.4428294 -0.33260995 0.20994137 0.20098977 -0.46616402 -0.1753476 -0.061984293 0.50389975
-0.24334879 0.55556345 0.20283188 0.290558 0.85886043 0.093991265 0.12563969 0.7399166
0.5269441 0.8683645 -0.18526171 -0.29611945 0.07188416 0.26946115 0.075512774 -0.014773629
0.30672464 -0.33820963 0.06358183 -0.2509915 -0.28557903 -0.6713403 -0.1283591 0.16922744
-0.12359416 0.03543092 -0.07798737 -0.3006138 0.1033375 -0.38657933 0.14920093 -0.12927085
-0.16764458 -0.098383926 -0.10352533 -0.4908411 -0.0342616 -0.5139714 -0.1370339 0.07529309
0.7628961 0.15303378 0.46403438 0.57857805 -0.092475206 -0.48305005 0.20184763 -0.04920913
-0.51247877 0.36121917 -0.36258635 -0.0037048948 -0.82195544 0.2452249 -0.5006545 0.16200943
0.229875 0.56770194 -0.55944693 -0.49020416 0.15518394 0.16580112 0.3619562 0.074354716
-0.21095254 0.07658228 0.073981255 -0.15328139 0.21463451 -0.1975769 0.18392867 0.15486473
0.22466658 0.061704352 -0.2930327 0.08524824 0.31872654 -0.23843928 0.4074906 -0.6035963
0.28788817 -0.6534417 0.24686396 -0.06608709 -0.63308936 0.054869182 -0.30330467 -0.5262778
0.09960596 -0.17572927 -0.21802615 -0.0307474 -0.002014631 0.011913166 0.06676452 0.22388211
00000000: 2869 893e d703 3dbd cff6 563c 046b 743e
00000010: 81e6 a1be 8fde 1a3e a953 e63d 53e1 0bbe
00000020: b6d1 c6bd 9c55 4abd e0d6 a23d 11f4 4c3e
00000030: dcf9 5e3e 181c 82bc 4f50 47be c253 a23e
00000040: 2014 4b3d 3605 8a3e f1d2 cf3d 567a 38be
00000050: b1ee 84be dafb d33e 2b20 b8be 35a8 25bf
00000060: f3f9 193d 0f06 203f d9af a5bd 253b 473d
00000070: 0b62 e93e 176f c53d 4b55 983e 48fb e3be
00000080: 5f58 2d3f aeab 89be a75c 903e f4e1 883d
00000090: c2bc 2bbe 5937 56bf b118 d93e b9c9 3d3f
000000a0: 4bfe cabe 5fdd 3abe 0627 e9bd ee10 38be
000000b0: 1b1d a0be 764b 7fbe 6fd5 a13d 04da 90be
000000c0: e2ac 09be bd14 3b3d 1038 74be 4da9 abbe
000000d0: 3c3e 66be e794 1b3e 3777 d03e d06e c93d
000000e0: c8b4 673e 0d65 25bd 2171 003d 82a2 50be
000000f0: a040 e43d f82d 23be a185 21be ce09 b23e
00000100: 0e0d b7bd 1ce4 f3be f33a 8bbe 3ba7 7fbd
00000110: 44aa ebbe f608 913e b24b 8cbe 6e69 c93e
00000120: 32a3 f8be e08e e93e eb7c 10bd e666 70bd
00000130: 6f78 f23b 5141 3e3f 0796 11bf 3381 27bf
00000140: 58fd fcbe 140a d7be 3e2f 77bd 4f7f 05bf
00000150: c799 1ebf 09db b93a 012e 69be c73a b9be
00000160: d4d2 9e3e 5a70 c4be 31c6 f93e 31d5 39be
00000170: dd2a ff3d 43c4 85bd 25f8 3e3e 3001 74bc
00000180: acb9 5dbe 2578 f0be f67e 923e e84c 38be
00000190: bcf1 0dbd 016b e9be 86d0 f1be 4338 743e
000001a0: de85 76bf 8830 85be 3fd8 903c 9e43 cfbe
000001b0: 70c0 7d3e 9b7f eabe eb43 50be 21ab da3e
000001c0: a463 b0be 617c babe 5644 2dbe 6ea4 b63e
000001d0: a1f7 b33e 8703 9a3d 1efc 61be 756b bc3e
000001e0: 69f4 80be 3f7c ce3e 10e7 973d 8960 053e
000001f0: 546d ea3e d72b b4bc 3976 843e 8337 08be
00000200: c476 3f3e 3f63 a53e ec12 3e3e 5e16 15be
00000210: 9ad2 98bd af2e bebb 0f24 c13e d571 fabe
00000220: e455 0dbe 2ef4 98be 8382 2f3d 7ca9 59be
00000230: f8a9 9ebd 34b4 6e3e 31aa 29bd 3575 72be
00000240: 88c4 323e 5aa8 f73d dfb8 a43d fe62 abbe
00000250: 3099 423e e2dd b23c 51c7 aa3e 707e 50be
00000260: 89ba e23e da4b aabe dffa 563e 43d0 4d3e
00000270: 0dad eebe 528e 33be 3ee3 7dbd 93ff 003f
00000280: 6d30 79be 6839 0e3f 29b3 4f3e 05c4 943e
00000290: 47de 5b3f 7e7e c03d b1a7 003e 2d6b 3d3f
000002a0: cfe5 063f 234d 5e3f 3fb5 3dbe f89c 97be
000002b0: 0138 933d d0f6 893e 71a6 9a3d 170d 72bc
000002c0: 030b 9d3e d029 adbe 3137 823d f581 80be
000002d0: 6a37 92be f5dc 2bbf 9170 03be f549 2d3e
000002e0: ef1e fdbd 0320 113d d8b7 9fbd 0dea 99be
000002f0: 9ca2 d33d baed c5be 21c8 183e 945f 04be
00000300: 05ab 2bbe 837d c9bd 1705 d4bd 864f fbbe
00000310: e455 0cbd a193 03bf 9d52 0cbe 4333 9a3d
00000320: 294d 433f e3b4 1c3e ea95 ed3e b11d 143f
00000330: a463 bdbd 5652 f7be 25b1 4e3e 838f 49bd
00000340: cf31 03bf b8f1 b83e eba4 b9be d2cd 72bb
00000350: ac6b 52bf 3c1c 7b3e e52a 00bf cde5 253e
00000360: 5a64 6b3e ea54 113f ea37 0fbf 0afc fabe
00000370: 8ae8 1e3e c5c7 293e 5352 b93e 4947 983d
00000380: f103 58be 2cd7 9c3d 7c83 973d ccf5 1cbe
00000390: 26c9 5b3e 9951 4abe cc57 3c3e dc94 1e3e
000003a0: ff0e 663e b4bd 7c3d 6208 96be a196 ae3d
000003b0: 2030 a33e 6d29 74be 9ca2 d03e 4a85 1abf
000003c0: 1466 933e f547 27bf e8c9 7c3e ab58 87bd
000003d0: 2512 22bf 82be 603d c04a 9bbe 24ba 06bf
000003e0: 36fe cb3d 60f2 33be 3f42 5fbe f9e1 fbbc
000003f0: e607 04bb 712f 433c d6bb 883d 5a41 653e

bias f4 [20]
0.5701827 -0.33643728 -0.4332929 0.5137045 -0.6128784 0.26059622 -0.04368787 -0.2531366
0.1786736 -0.25356543 0.79316676 -0.40179327 0.0194966 0.10324202 -0.4217663 -0.17595376
-0.39310542 -0.10309222 0.27231148 0.5409448
00000000: 7ef7 113f 8241 acbe 91d8 ddbe 2382 033f
00000010: 99e5 1cbf de6c 853e 0df2 32bd 1f9b 81be
00000020: 36f6 363e 54d3 81be fa0c 4b3f d9b7 cdbe
00000030: 55b7 9f3c 8d70 d33d c1f1 d7be 392d 34be
00000040: 1d45 c9be 0422 d3bd 696c 8b3e 5c7b 0a3f

weight f4 [20, 20]
-0.3145311 -0.111325406 -0.10204464 0.37146997 -0.4486907 -0.3070647 0.2733443 -0.327136
0.6164336 0.027322883 0.44512224 0.18651845 0.028556 -0.24902798 0.11030874 0.48725063
-0.20521733 0.11506508 -0.28896677 -0.19026792 -0.30120644 0.4267287 0.64643914 0.22870949
0.4428593 0.5908169 -0.49999508 -0.31017873 0.017718999 0.41136664 -0.4401594 0.2682579
0.07619761 -0.29044816 0.47533584 0.5785103 0.88305986 -0.40561402 -0.33602887 -0.45297953
-0.28055415 0.009688154 0.38942444 -0.049049996 0.30855945 0.16157445 -0.096980326 0.2886367
-0.076370865 0.21456985 -0.20373444 0.023730947 -0.35971367 0.12517364 0.15450399 0.43775374
0.086270034 0.13011965 -0.28770936 0.058157083 0.27145618 0.28611863 0.10976787 -0.71796894
0.15138528 -0.081909545 -0.3192543 0.14765209 -0.14482957 0.41756162 -0.47676802 0.124339364
-0.10090732 0.312455 -0.0323002 -0.07912356 0.20874953 0.057475846 -0.0139896935 -0.34632647
-0.15319678 -0.37118423 0.48447594 0.83333915 0.21183996 -0.5526995 0.35585442 -0.18124293
0.6995198 -0.28293985 0.22685215 0.34035876 -0.19261293 -0.22562835 0.241013 -0.35031974
0.029995248 -0.27088165 -0.23256071 0.14572951 0.02107779 -0.38646993 -0.01371118 0.11303809
-0.54165125 0.1422027 0.20697203 0.45047525 -0.1820015 -0.36767206 0.5392404 0.3917608
-0.29128215 0.14816906 0.1924146 0.26724648 -0.02163656 -0.24132656 -0.1756925 0.19588216
-0.6377155 -0.23815204 0.10417306 0.44954145 -0.60191417 -0.25361124 -0.17188811 -0.46869555
0.43271193 -0.88469094 0.72179997 0.102258734 0.06925284 -0.45539495 0.11983207 -0.20168668
-0.16461258 -0.26711175 0.0032410496 -0.12928614 0.5339231 -0.30496758 -0.10434791 0.055576406
-0.2932924 0.1660289 0.005383383 -0.100360446 -0.20934121 -0.11481089 0.023454342 -0.25660503
-0.15501183 0.34020022 -0.09234152 0.08625265 -0.05569234 0.20224172 0.025501417 -0.05720798
-0.27591804 -0.45627287 0.12995058 0.7008693 -0.8081816 -0.7129951 0.30639434 -0.365858
0.63232917 -0.2713579 0.6221527 0.26219544 0.008811563 -0.028217508 0.16474472 -0.47030225
-0.11384763 -0.077264465 -0.3478947 -0.30406502 -0.82860744 0.29003718 0.8266289 -0.07029184
1.1749828 1.1068953 -0.2546261 0.114647105 -0.4734782 0.06610332 -1.3955789 1.0881073
0.6376132 -0.81966066 1.1107439 1.4101745 1.2717652 -1.4949157 -1.2073706 -1.4381189
0.19177674 -0.43141457 -0.2554861 0.14613284 -0.21089852 -0.6276418 0.038284093 -8.1590224e-05
0.38337755 -0.20242192 0.31366086 -0.41424733 0.065320835 -0.24170026 0.16445598 -0.09535436
-0.13976003 -0.10416688 0.51245284 0.24461083 0.001262638 -0.31762767 0.38765636 0.25210765
-0.17737684 -0.32444113 -0.08784831 -0.24428059 0.3910929 -0.120443 0.6332344 0.06666945
0.083295576 -0.3203273 -0.002257742 -0.16602203 -0.12452106 -0.04657563 0.17713267 0.11041877
-0.072154924 0.25726825 0.12970112 -0.2407537 0.40966293 0.49618387 0.13181357 0.22072619
-0.6614208 -0.29913902 -0.28526896 -0.18342613 0.17410967 -0.050570175 -0.09426287 -0.038687326
00000000: 380a a1be 93fe e3bd c8fc d0bd 5031 be3e
00000010: caba e5be 9637 9dbe c9f3 8b3e 5f7e a7be
00000020: 98ce 1d3f 3dd4 df3c 10e7 e33e b1fe 3e3e
00000030: 46ee e93c 3101 7fbe 8ce9 e13d ea78 f93e
00000040: 7e24 52be 3ea7 eb3d 74f3 93be 98d5 42be
00000050: bb37 9abe 2f7c da3e 097d 253f d232 6a3e
00000060: 74be e23e c73f 173f 5bff ffbe bfcf 9ebe
00000070: 6f27 913c a69e d23e 935c e1be 1959 893e
00000080: 7e0d 9c3d 9fb5 94be 385f f33e 4019 143f
00000090: 3610 623f a4ac cfbe fa0b acbe efec e7be
000000a0: cba4 8fbe 10bb 1e3c a462 c73e a6e8 48bd
000000b0: 81fb 9d3e c673 253e 9f9d c6bd 31c8 933e
000000c0: 5468 9cbd 33b8 5b3e c39f 50be 6767 c23c
000000d0: 642c b8be 852d 003e 4b36 1e3e 4221 e03e
000000e0: 58ae b03d 163e 053e a44e 93be 1f36 6e3d
000000f0: 4efc 8a3e 247e 923e facd e03d d0cc 37bf
00000100: be04 1b3e 31c0 a7bd 4d75 a3be 1c32 173e
00000110: 344e 14be a3ca d53e f01a f4be a3a5 fe3d
00000120: 7fa8 cebd 1afa 9f3e 374d 04bd 880b a2bd
00000130: 70c2 553e cb6b 6b3d 0735 65bc b451 b1be
00000140: 9edf 1cbe dc0b bebe 3b0d f83e b755 553f
00000150: 93ec 583e b77d 0dbf 8d32 b63e bf97 39be
00000160: bb13 333f 7edd 90be ee4b 683e 8143 ae3e
00000170: 533c 45be 1e0b 67be 1dcc 763e 1c5d b3be
00000180: 98b8 f53c 00b1 8abe 6524 6ebe 1e3a 153e
00000190: 54ab ac3c 63df c5be dba4 60bc 8480 e73d
000001a0: a8a9 0abf 969d 113e 7af0 533e b1a4 e63e
000001b0: 9a5e 3abe 833f bcbe a90b 0a3f df94 c83e
000001c0: ef22 95be a1b9 173e 5508 453e 88d4 883e
000001d0: 283f b1bc 4f1e 77be bce8 33be 5595 483e
000001e0: 5341 23bf 21de 73be af58 d53d 4c2a e63e
000001f0: 0c17 1abf 55d9 81be 7003 30be ddf8 efbe
00000200: 6b8c dd3e 1b7b 62bf e2c7 383f 076d d13d
00000210: 6fd4 8d3d 8729 e9be 846a f53d f486 4ebe
00000220: 3390 28be dfc2 88be ca67 543b 9663 04be
00000230: 2faf 083f b624 9cbe 5bb4 d5bd 16a4 633d
00000240: 6c2a 96be 7b03 2a3e 1767 b03b c789 cdbd
00000250: 8b5d 56be f921 ebbd 5223 c03c bc61 83be
00000260: 6cbb 1ebe b92e ae3e 8d1d bdbd 3ba5 b03d
00000270: a71d 64bd 7418 4f3e 59e8 d03c ea52 6abd
00000280: 2145 8dbe 999c e9be c411 053e 2c6c 333f
00000290: fde4 4ebf d986 36bf b8df 9c3e bd51 bbbe
000002a0: 53e0 213f 6cef 8abe 6645 1f3f 7b3e 863e
000002b0: 605e 103c 6728 e7bc d7b2 283e 75cb f0be
000002c0: f228 e9bd d53c 9ebd 411f b2be 69ae 9bbe
000002d0: 9e1f 54bf c17f 943e f49d 533f 2bf5 8fbd
000002e0: d665 963f bfae 8d3f 5a5e 82be 1acc ea3d
000002f0: bc6b f2be 2d61 873d 54a2 b2bf 1a47 8b3f
00000300: 9e3a 233f 48d5 51bf db2c 8e3f 9980 b43f
00000310: 34c9 a23f 6659 bfbf 1f8b 9abf 4814 b8bf
00000320: 1f61 443e 5fe2 dcbe 13cf 82be d9a3 153e
00000330: c8f5 57be 22ad 20bf c8cf 1c3d 6b1b abb8
00000340: 104a c43e b147 4fbe 2898 a03e 3a18 d4be
00000350: eec6 853d 4680 77be 2667 283e 2649 c3bd
00000360: 411d 0fbe 7255 d5bd 1c30 033f 437b 7a3e
00000370: 1a7f a53a 18a0 a2be e57a c63e 4114 813e
00000380: 46a2 35be 261d a6be d1e9 b3bd b124 7abe
00000390: 543d c83e d2aa f6bd a61b 223f fe89 883d
000003a0: df96 aa3d f101 a4be a0f6 13bb ae01 2abe
000003b0: e604 ffbd 16c6 3ebd 4462 353e 3c23 e23d
000003c0: f6c5 93bd aab8 833e 5fd0 043e 2388 76be
000003d0: 57bf d13e d00b fe3e 23fa 063e 0c06 623e
000003e0: e052 29bf c028 99be c60e 92be 0fd4 3bbe
000003f0: ce49 323e ac22 4fbd e40c c1bd 9a76 1ebd

bias f4 [20]
0.41135642 -0.7145438 -0.3919378 -0.3228218 -0.24326272 0.04788186 -0.03158612 0.39127228
-0.21175788 -1.5463048 0.3498419 0.29640234 -0.118059345 -0.02972855 -0.60684806 0.80885565
0.47039175 0.39295983 0.17162257 0.2520725
00000000: 4f9d d23e 58ec 36bf 12ac c8be e648 a5be
00000010: dd19 79be c51f 443d 7360 01bd d754 c83e
00000020: 0fd7 58be 51ed c5bf 7a1e b33e 0cc2 973e
00000030: 19c9 f1bd 4a89 f3bc 655a 1bbf 2a11 4f3f
00000040: 30d7 f03e 0832 c93e d4bd 2f3e a60f 813e

weight f4 [20, 20]
0.24151678 0.30643803 -0.16439517 -0.07522137 0.29246435 -0.23775807 -0.16778302 0.2195955
-0.38934496 1.7767626 -0.1799041 -0.38286322 0.037003256 -0.00847875 -0.022016937 0.25170583
-0.32756022 -0.27900618 -0.08301161 0.11140347 0.16755453 0.4344646 0.16000521 0.20981042
0.6180079 -0.068959735 0.13865149 -0.23939165 0.3210235 1.718533 -0.36824125 0.08931213
0.38783297 -0.08398853 -0.21827054 -0.48768133 -0.06846132 -0.059464637 -0.3988986 0.1355435
-0.22964455 0.45072857 0.62693256 0.40210047 0.42176867 0.25205916 -0.3612402 -0.43353096
-0.13866 1.7336633 -0.32459015 -0.15784542 0.29777774 -0.33650804 0.16000067 -0.5137063
-0.46948525 -0.6298676 -0.67456985 -0.31502286 -0.2853304 -0.6085145 0.47427866 0.048650376
-0.8883122 -0.36649114 -0.17463888 0.21835902 0.12932646 -2.401852 0.05924712 0.17849274
0.205821 -0.04941763 0.17358588 -0.66072387 -0.2945948 0.85905445 0.00967153 -0.49975815
-0.15645933 -0.49086422 0.34206414 0.1424296 -0.51396555 -0.073375374 0.15792902 0.6544887
-0.32435602 -1.7269725 -0.18004443 -0.057873275 0.68713576 -0.17848134 0.0044451775 -0.29753965
-0.4373432 0.34871233 0.4060811 -0.0073407628 -0.40980253 0.41717166 0.2955935 0.38283902
0.12010954 -0.38394752 -0.27873802 0.0060032974 -0.47141954 1.6030539 -0.26006263 -0.11483104
0.47062665 -0.6983167 0.29606274 -0.13246855 -0.15304673 0.10855113 -0.57755417 -0.18664907
0.44067374 -0.14726305 -0.07531557 0.10693787 -0.24507117 0.39479864 0.0028719034 0.29836407
-0.2919412 -1.1431946 0.17909367 0.2727875 -0.19971837 0.018788978 -0.012659779 0.15729947
-0.13389799 0.4323744 0.25400084 0.029606694 -0.5805955 0.05033431 0.06748186 0.6076378
0.3483328 -0.07304443 0.2994955 -0.20606837 -0.052712105 2.1597776 -0.049468737 -0.71518487
-0.28512597 -0.115148544 0.19475189 -0.18365858 -0.17084259 -0.43551117 0.016268449 -0.47450626
-0.2538969 0.87708986 0.31574732 0.5450656 0.61048406 0.019208638 0.26506945 -0.53651226
-0.36923164 2.6723158 -0.5439653 0.06528242 0.3360266 -0.5772537 -0.12265352 0.20940594
-0.060850322 -0.8651997 -0.5192194 -0.057244107 -0.4009477 0.65656793 0.07250363 -0.14621633
0.37326652 -0.3888459 0.021720972 -0.08231615 -0.1499354 1.8656311 -0.47552142 0.1570526
0.055638496 -0.13782063 0.086894244 -0.21457537 0.019426858 -0.7531033 -0.58150446 -0.13432248
0.22522475 0.6407285 -0.0720269 -0.23845918 0.12610969 -0.36332354 0.39166915 -0.2289069
0.11937769 2.3755777 -0.072781995 -0.13449512 -0.115493946 0.07874121 0.048706375 -0.12072481
0.20454338 -0.91632056 0.15613887 0.37847108 -0.0038728 0.46160108 0.45692673 0.2943232
0.54181296 0.2544414 -0.46978465 -0.77577424 -0.027656892 2.3601446 -0.055128258 0.014776127
0.7284883 0.11648435 0.47803617 -0.15327422 -0.69896716 -0.37849212 -0.7111968 -0.24967793
0.57227504 0.07579287 -0.36597314 -0.34765905 -0.0038908545 0.27509525 0.34973744 -0.11489257
0.46908012 -0.63574594 0.26686558 0.5708329 0.080380656 0.13926536 -0.40982428 0.67426836
00000000: 2d50 773e 72e5 9c3e 3557 28be a90d 9abd
00000010: e3bd 953e da76 73be 50cf 2bbe a5dd 603e
00000020: 3958 c7be f56c e33f c838 38be a606 c4be
00000030: ba90 173d 74ea 0abc dd5c b4bc 96df 803e
00000040: f9b5 a7be e6d9 8ebe fe01 aabd 8127 e43d
00000050: 6a93 2b3e 2572 de3e 68d8 233e 8bd8 563e
00000060: c435 1e3f c33a 8dbd a8fa 0d3e 1623 75be
00000070: 315d a43e e4f8 db3f 1e8a bcbe 47e9 b63d
00000080: 0b92 c63e 2e02 acbd 5082 5fbe 5eb1 f9be
00000090: 7335 8cbd 3191 73bd 703c ccbe eacb 0a3e
000000a0: f127 6bbe e5c5 e63e a77e 203f 1de0 cd3e
000000b0: 10f2 d73e e60d 813e 7af4 b8be c5f7 ddbe
000000c0: e3fc 0dbe aee8 dd3f ae30 a6be 3ba2 21be
000000d0: 5376 983e c84a acbe 37d7 233e 4282 03bf
000000e0: 5f60 f0be 013f 21bf 9cb0 2cbf ad4a a1be
000000f0: d416 92be 9bc7 1bbf a7d4 f23e 9e45 473d
00000100: 6e68 63bf baa4 bbbe 89d4 32be 8299 5f3e
00000110: 286e 043e f1b7 19c0 1cad 723d cdc6 363e
00000120: bdc2 523e 246a 4abd 7fc0 313e 3325 29bf
00000130: 21d5 96be feea 5b3f 5675 1e3c 4de0 ffbe
00000140: e036 20be 8e52 fbbe 0823 af3e 11d9 113e
00000150: 3f93 03bf d445 96bd 25b8 213e 928c 273f
00000160: fe11 a6be 6f0d ddbf 915d 38be 870c 6dbd
00000170: 21e8 2f3f d0c3 36be daa8 913b 1e57 98be
00000180: 73eb dfbe 6c8a b23e dde9 cf3e c88a f0bb
00000190: a3d1 d1be 8697 d53e 0858 973e 7a03 c43e
000001a0: fefb f53d c594 c4be c0b6 8ebe 4fb7 c43b
000001b0: e75d f1be df30 cd3f ee26 85be 892c ebbd
000001c0: faf5 f03e e2c4 32bf 8995 973e d6a5 07be
000001d0: 48b8 1cbe 0e50 de3d 97da 13bf ef20 3fbe
000001e0: fd9f e13e 20cc 16be 0d3f 9abd 3e02 db3d
000001f0: f0f3 7abe 0c23 ca3e 8b36 3c3b 2dc3 983e
00000200: 5179 95be 3354 92bf 5564 373e ceaa 8b3e
00000210: f982 4cbe 58eb 993c f66a 4fbc 1d13 213e
00000220: 8e1c 09be 2d60 dd3e 660c 823e bd89 f23c
00000230: e8a1 14bf 592b 4e3d ee33 8a3d 278e 1b3f
00000240: ad58 b23e 5198 95bd 7957 993e 9603 53be
00000250: a6e8 57bd cc39 0a40 bb9f 4abd 5b16 37bf
00000260: 08fc 91be 00d3 ebbd 0a6d 473e ff10 3cbe
00000270: 5cf1 2ebe 52fb debe 6945 853c 7cf2 f2be
00000280: c6fe 81be f688 603f a2a9 a13e 6b89 0b3f
00000290: af48 1c3f 6f5b 9d3c 2fb7 873e de58 09bf
000002a0: ee0b bdbe 3907 2b40 4f41 0bbf cab2 853d
000002b0: ae0b ac3e e6c6 13bf c531 fbbd 836e 563e
000002c0: 303e 79bd ba7d 5dbf 90eb 04bf cc78 6abd
000002d0: 0449 cdbe d614 283f c87c 943d bcb9 15be
000002e0: ca1c bf3e cf16 c7be 2ef0 b13c 5f95 a8bd
000002f0: aa88 19be 00cd ee3f 8b77 f3be 66d2 203e
00000300: 31e5 633d da20 0dbe 9cf5 b13d a5b9 5bbe
00000310: 1325 9f3c 61cb 40bf 7add 14bf d58b 09be
00000320: 51a1 663e c806 243f d782 93bd a52e 74be
00000330: e622 013e 8b05 babe dc88 c83e 9266 6abe
00000340: 4a7c f43d 7709 1840 ba0e 95bd 17b9 09be
00000350: 1788 ecbd 1243 a13d 5680 473d 923e f7bd
00000360: d273 513e fc93 6abf dee2 1f3e f6c6 c13e
00000370: cdce 7dbb fa56 ec3e 4df2 e93e 88b1 963e
00000380: 41b4 0a3f 2546 823e 9d87 f0be 2499 46bf
00000390: b590 e2bc 9c0c 1740 2bce 61bd 9217 723c
000003a0: 367e 3a3f 598f ee3d 28c1 f43e ebf3 1cbe
000003b0: 83ef 32bf b8c9 c1be fe10 36bf 92ab 7fbe
000003c0: 9e80 123f 4b39 9b3d d560 bbbe 5e00 b2be
000003d0: b5fd 7ebb 49d9 8c3e c910 b33e cc4c ebbd
000003e0: 452b f03e 3fc0 22bf 9ba2 883e 1b22 123f
000003f0: 9d9e a43d 949b 0e3e 7dd4 d1be da9c 2c3f

bias f4 [20]
0.15039107 -0.5656869 -0.52847606 -0.17659996 -0.02820981 -0.39409536 0.7657781 -0.7195625
-0.2618877 0.080280975 0.16955385 -0.45559955 0.118177675 -0.7267114 -0.304998 -0.08938162
0.08373204 0.9490956 0.19535331 -0.21306923
00000000: 1e00 1a3e dbd0 10bf 354a 07bf 9fd6 34be
00000010: 4218 e7bc dec6 c9be 090a 443f 3f35 38bf
00000020: 2516 86be 5a6a a43d 869f 2d3e 5844 e9be
00000030: 2307 f23d c209 3abf b328 9cbe b60d b7bd
00000040: b47b ab3d eef7 723f b30a 483e d22e 5abe

weight f4 [1, 20]
-2.5578294 -2.959432 -2.324927 2.5455954 2.8142478 -1.8616222 2.977837 -2.600397
-2.7650597 -4.5871105 -3.117986 -2.585129 1.8560314 -2.846027 -2.060085 2.1988106
2.6478739 2.852053 2.889273 -2.5750537
00000000: 7ab3 23c0 5567 3dc0 9bcb 14c0 09eb 2240
00000010: a31c 3440 a349 eebf e294 3e40 e86c 26c0
00000020: bdf6 30c0 9cc9 92c0 158d 47c0 c172 25c0
00000030: 7092 ed3f 4e25 36c0 6fd8 03c0 50b9 0c40
00000040: c476 2940 0988 3640 d9e9 3840 aecd 24c0

u_b f4 [2]
9.921032 39.96
00000000: 8cbc 1e41 0ad7 1f42

l_b f4 [2]
0.040675044 0.0
00000000: e09a 263d 0000 0000
