Iter_03/Models/Noise_0/simulation_00_10/ff_200.pt (torch, 39197 bytes, 23 tensors)

weight f4 [20, 2]
00000000: fab6 68be 5190 d13e 9b49 61bf 8431 f53e
00000010: fb2c f2bd 6d15 27bd 2cbf 893f 1329 043e
00000020: 9054 9fbf 9894 c3bd 2908 9c3e 6fbc e7be
00000030: d0a4 f4bd 9dd7 8bbe 6d1f c8be 41fe 93bd
00000040: d363 71bf f152 cd3e 5e5b 61bf 2e26 9fbe
00000050: e989 babe 8332 493e 85f2 0e3f f471 39be
00000060: cafc 163e 2176 45bf e428 46bf 262f 303c
00000070: 5c44 9fbf 7ade b9bd 2afe d83f 0cae fcbe
00000080: 2ba9 a33e 74a4 fdbf 9cdd 9fbe 1b87 71be
00000090: abe3 4d3f 2fd0 77bc 6fe0 cbbd 32e9 bcbd
-0.2272605 0.40930417 -0.8800294 0.4788934 -0.118249856 -0.040791918 1.0761466 0.12906294
-1.2447681 -0.095498264 0.30474976 -0.4526095 -0.11945498 -0.27312937 -0.39086476 -0.072262295
-0.94292945 0.40102342 -0.8803004 -0.31083816 -0.36433342 0.19648175 0.55838805 -0.18109876
0.14744869 -0.77133375 -0.77406144 0.010753429 -1.2442737 -0.09075637 1.6952565 -0.49351537
0.31965002 -1.9815812 -0.31223762 -0.23586695 0.8042552 -0.015125318 -0.09954917 -0.09224166

bias f4 [20]
00000000: 5e5f 4b3e 39e9 ec3e c545 383f 188e dfbf
00000010: a3e4 ab3f e8ff 08bf 16e5 303f 4618 663f
00000020: 2bee 993f 389e 053f c705 673e 8adf 5abf
00000030: d400 a1bf 6d5b 813f f665 a03f d8a3 08c0
00000040: 5706 00bf 1537 083e f8b1 09bf 642f 58bd
0.19860598 0.46271685 0.7198146 -1.7465239 1.3429149 -0.5351548 0.6909956 0.8988079
1.2025808 0.5219455 0.22560798 -0.85497344 -1.2578378 1.0106026 1.2531116 -2.1350002
-0.50009674 0.13302262 -0.53787184 -0.05277957

weight f4 [20, 20]
00000000: bc73 a63e d9f6 ca3e 622e da3e fda6 2dbf
00000010: 888f 4b3e f9df c0be a32c dd3e 2df3 e23d
00000020: 7cec 823e fb02 4f3f c02a a63e b9fd 22be
00000030: d425 593e 79d7 3c3f f9df ff3e d689 2fbf
00000040: a388 22bf 55e4 3b3f fca1 85be cca6 843c
00000050: d7a2 b63e f076 523e 2c85 1d3e 4ef7 34be
00000060: f2a6 62be 9530 29bf 2ed9 93be f17a 8dbe
00000070: aece 333e 1bed 773d a754 ddbc 80cb 26be
00000080: 9735 a1be 9a16 ab3e 2caf b5be 7707 093c
00000090: 2768 3fbe a43b dd3e e0e1 86bb 7c4e d2bd
000000a0: 009b bc3e 39b8 603e 8e65 16be cae0 18bf
000000b0: f44f 203f e78e 34be f056 913b 8cb2 4f3e
000000c0: 0ba7 6a3e 2895 1bbe 06f9 2fbe 61a8 013e
000000d0: 8045 a5be 3789 043e ae9a 8bbc e8d2 4ebe
000000e0: 9c26 6fbd 4357 c83d 3c1f a8bc 4ed8 f9be
000000f0: e634 053e 427c a6bd a717 a0be 6c82 e33e
00000100: 7c4c 273c 15ea 8a3e 75ca 95be db11 b83d
00000110: a525 cfbd e7f2 b03c 8670 453d 731a 863e
00000120: fa13 903e 0409 1dbe f3fa 4bbd f783 35bd
00000130: e822 07bf fc8b 2abe ad3e 903e ccd0 7b3e
00000140: d4b8 663e b518 3ebe 70aa d1bd 413e be3e
00000150: 9866 bebe 7f8e d2bd 853f 293e 0403 ae3e
00000160: 8cf5 82bd 7b18 45be b0d2 a53d 592b 4f3d
00000170: 6911 34be c044 9abe d185 4bbe e152 c13e
00000180: e78d a9be 8611 8ebe 0fe9 9d3d ff53 7e3e
00000190: e394 a4bc a394 1b3e 4c18 2ebd 6620 893e
000001a0: 5c7b 073e e05e 7e3e be37 82be c147 28be
000001b0: a68f 293e 4e68 a9be fbab 243e 5c65 70bd
000001c0: 355d c4be d38f b1be 1028 0d3f 0eea 1a3e
000001d0: 5a03 08bf 2d3e c6be c28d 0d3e f9cc 843e
000001e0: 6249 ddbe 8fad 06bd 0a6f 12bd 46e0 2bbb
000001f0: 757d c2bd 5481 f1be 5939 203e 83dc 1b3d
00000200: 0799 843e a28a 8cbe 939b 213e 38bb ebbd
00000210: 86c0 aa3d fa1f 35bd 9bde 983e 459e 6b3e
00000220: 0e85 143d 2861 9abe c59f 843d d4f9 32be
00000230: dfa3 843e a15b 243f 0992 453e 3ee7 f93d
00000240: a567 953d 6080 f5bd d50d c1be bae5 11be
00000250: 5be7 903d d791 763d 62e9 cc3d a7c4 4d3e
00000260: 5064 a43e 61fc 7cbe 6e02 2bbe f6b3 9bbe
00000270: fa3d 4bbf af10 733d dc6a 1cbe 8bda 893e
00000280: 759d ecbd 3030 bfbe f82a 2ebf 26c4 273f
00000290: 149e 0dbe 79d1 553f 742b 32bf 9a81 9bbb
000002a0: cd07 26be 44c7 26bf 4223 0f3d 835e ed3e
000002b0: b90d 1d3f 4aa5 75bf e948 ad3e a46c 853f
000002c0: d2eb c23f 849a 36bf 6e6e c53e 609c 7e3d
000002d0: b574 e23d 8940 553d 65d5 e53e bf3e 27bc
000002e0: 82a5 f33e b541 393e 0cee 833e 00da ec3d
000002f0: 870c d63e 2d90 7b3e 7cc3 ac3d a52f 9cbe
00000300: 98d9 9ebd 4376 ca3e c9e5 1abe 77d7 f3bd
00000310: bcbb ce3e 616d f43d b87a 69be e3eb 633b
00000320: 4a11 83bd a155 973d 047d 84be ac83 e13e
00000330: 8d01 9dbe 9869 29be fa55 2bbe 9ec8 463c
00000340: 1c51 053f 383c 1bbf 1270 a5bc cbe5 cabd
00000350: 7c78 20bf 6d15 aebe e702 6ebd ac48 15bd
00000360: 546d 6ebf 47a9 54bc 5f37 523e 8361 34be
00000370: 4f56 d5be f535 fd3d 434c 113e 579d bd3e
00000380: 8c42 cabd b9c6 f03d 201c 04bd a1af fabd
00000390: cee5 f3bd 0f8f 3c3e b06a b43d 2520 003f
000003a0: 3af2 e5bd 08b1 85be 1d11 873e b81e 7ebe
000003b0: 3c37 383d d515 63be 6aa5 8d3e 173d 593d
000003c0: e325 cfbe 867f 903a 1102 103e 3628 02be
000003d0: f7b7 59be e694 013f 0cae 6bbd 1e4f 7fbd
000003e0: 14c6 003c eb55 e63d c094 20be c8fb 8a3e
000003f0: 00a4 753e dddc 44be b42c 8b3d cf2c 793e
0.32510173 0.39641455 0.42613512 -0.6783293 0.19878972 -0.37670878 0.43198118 0.11081538
0.25571048 0.8086392 0.3245449 -0.159171 0.21205837 0.73766285 0.49975565 -0.68569696
-0.6348974 0.7339528 -0.26100147 0.016192816 0.35671112 0.20553184 0.15382832 -0.17672464
-0.22133997 -0.66089755 -0.28876632 -0.2763286 0.17559311 0.060528856 -0.027017904 -0.16288567
-0.31486198 0.3341568 -0.35485208 0.008363596 -0.18692075 0.43209565 -0.004116282 -0.10268876
0.36837006 0.21945275 -0.14687178 -0.59718 0.62622 -0.17632638 0.0044354126 0.20282954
0.22915284 -0.15193617 -0.17184839 0.12661888 -0.32279587 0.12942968 -0.01704153 -0.20197642
-0.05838643 0.09782269 -0.020522706 -0.4879784 0.1300846 -0.08129169 -0.31268045 0.44435441
0.010211106 0.27131715 -0.29256025 0.08987781 -0.10114602 0.0216002 0.048203014 0.26192054
0.2814024 -0.1533547 -0.04979987 -0.044315305 -0.5278764 -0.16654962 0.28172818 0.24591368
0.22531444 -0.18564112 -0.102375865 0.3715687 -0.37187648 -0.10281085 0.16528137 0.33986676
-0.063944906 -0.1924762 0.08096826 0.05057845 -0.17584766 -0.30130577 -0.19875266 0.37758544
-0.33116075 -0.27747744 0.07710468 0.2483673 -0.020090526 0.15193419 -0.04250364 0.2678253
0.13230652 0.2484088 -0.25433153 -0.16433622 0.16558704 -0.3308739 0.1608123 -0.058690414
-0.3835236 -0.34680042 0.55139256 0.15128347 -0.53130114 -0.3871931 0.13823608 0.25937632
-0.4322005 -0.032880362 -0.035750426 -0.0026226207 -0.09496585 -0.47168982 0.15646876 0.038052093
0.25898 -0.27449518 0.15782003 -0.115103185 0.08337502 -0.04421995 0.29857334 0.23009594
0.036259703 -0.3015225 0.06475786 -0.17478114 0.25906274 0.64202315 0.19293989 0.12202309
0.07295159 -0.11987376 -0.37705866 -0.1424779 0.070753776 0.060197677 0.10005452 0.20094548
0.32107782 -0.2470565 -0.16700146 -0.30410737 -0.79391444 0.059342083 -0.15275139 0.26924548
-0.1155347 -0.37341452 -0.68034315 0.65533674 -0.13829833 0.83522755 -0.69597554 -0.0047456743
-0.16213913 -0.65147805 0.034945734 0.4636117 0.61349064 -0.95955336 0.3384469 1.042378
1.5228217 -0.7132952 0.38560814 0.06216085 0.11057416 0.0520635 0.4488937 -0.010207831
0.4758721 0.18091471 0.25767553 0.11565018 0.41806433 0.24566717 0.08435723 -0.305051
-0.077563465 0.39543352 -0.15126719 -0.11906331 0.40377605 0.11934925 -0.2280072 0.003477805
-0.06399782 0.07389379 -0.2587663 0.4404577 -0.30665246 -0.16544187 -0.16732016 0.012132792
0.5207689 -0.6063876 -0.02019504 -0.09907111 -0.62683845 -0.34000722 -0.058108237 -0.03644626
-0.9313557 -0.012979812 0.20528935 -0.17615323 -0.4166741 0.12363807 0.14189248 0.37034103
-0.09875974 0.11756653 -0.032253385 -0.1224053 -0.11909066 0.18413948 0.088094115 0.5004905
-0.11227842 -0.26111627 0.26380244 -0.24816406 0.04497455 -0.22176297 0.27665263 0.053036775
-0.40458593 0.0011024333 0.14063288 -0.12710652 -0.21261583 0.50617826 -0.05753903 -0.06233131
0.0078597255 0.11246856 -0.15681744 0.2714522 0.23988342 -0.19224878 0.06795636 0.243335

bias f4 [20]
00000000: 7da6 773f 9136 123f b6fc c43e fc64 01be
00000010: 73fa f23e c061 653d 9bc8 a4bd 21af f63d
00000020: 2041 13c0 ac72 553f db9d 86bd 5bea 4e3e
00000030: 6abd 8fbf 21c5 d6be 5cfb abbf bae4 cc3d
00000040: 73b5 303f 3335 9fbf 5da8 853e 2271 083f
0.96738416 0.5711451 0.38474053 -0.12636179 0.47456703 0.056001425 -0.08046075 0.12045122
-2.30085 0.833781 -0.06573077 0.20206587 -1.122968 -0.41947272 -1.3436084 0.10004564
0.6902687 -1.243811 0.26105013 0.53297627

weight f4 [20, 20]
00000000: 8dcb c93e 194d 52bd f363 3e3e fcb3 1dbe
00000010: 79d5 a33d 945a 1abe 3e8c 0c3b 5c65 9c3e
00000020: 56b5 91bf 8df5 b83e 6049 ea3c f6d6 f73e
00000030: 056f 693d 83f0 1dbd e0ed 7abc 4f4d e7be
00000040: 9406 913e 0484 96be 2a19 843e d91c b4be
00000050: ce2c 9c3e 238e 8a3d 9076 ab3d d206 d6bd
00000060: a2d1 d03d c897 763e 9eb9 513e 748a 5cbe
00000070: f9d1 dfbd 5fba ac3e 9374 57be bf1c b93e
00000080: 1699 11be a341 acbd d6b8 92bd 052e ac3d
00000090: 9f6b a5bc ee07 923e e41f 9a3e ca01 39bd
000000a0: 5c3b 16bf 8595 b4be ec99 82bc 0018 f4be
000000b0: 6b09 cebd f482 bd3d 4c8e a43d d6d8 02bf
000000c0: 8070 363e 4894 883e 8a0e 42bf ad88 91bc
000000d0: 3aff ed3d 07a4 c43d bfef ba3d 2012 9c3e
000000e0: 3818 8b3e eb9a b93e ae99 04bf b772 953d
000000f0: 0b09 e83e c05d 653e 316f cf3d 26cf c7be
00000100: d1f8 3cbe 2c95 12be ca4c 2dbf 6984 b1be
00000110: 5679 c3be cc93 143e 3df1 64be a91e 613d
00000120: aacc 9fbe 604b 34be 0980 c0be d40e ba3c
00000130: 15dc 603d 07d1 7cbe 7d06 ac3e a046 0b3f
00000140: f541 ce3e 439e da3c dc7c 99bc 7eac 89bd
00000150: fe67 0b3f e532 bdbe 790b babd c207 1abe
00000160: 63bb f4bd fd53 783d a2f2 1cbe de16 84be
00000170: ae3d 83be 80b4 33bf 5d17 ba3e 9a0f 3bbe
00000180: 6669 9fbe f387 f5be 28b9 893e 24f4 b03d
00000190: 8382 bcbe c229 46be 4e49 eebd 8017 8e3d
000001a0: 3013 96be 5642 50bd eebc 293e 7f81 8ebe
000001b0: 73a3 193f c216 1dbe 7cdd 7dbc 9db8 11be
000001c0: 407d e23e 6d73 773e a97c 3a3f 4653 513c
000001d0: 4b47 a63d 8652 893e 2e03 f5bc c80d 02bf
000001e0: 0694 e53e e9b5 583e 652f 84bd 2e6f aa3c
000001f0: 1e84 e23e 17ba 3abe e422 3dbe aac3 943e
00000200: 0f84 0bbf 088a 313e d42b dc3e eff0 873e
00000210: 5669 95be 8dc5 173e dfa9 dabe c295 0bbe
00000220: 5ee6 78bd 285e 54bf bff6 5abe a2dc c5bd
00000230: dc04 28be 83f6 db3d 4cf2 d9bc 83c6 a03e
00000240: 3675 3abe 4f7a 11bc d2ce 51be d9ea ad3e
00000250: ffec 123f 3b40 ac3d 3935 7e3d 947c 47be
00000260: 40b0 b2bd 1653 f0bc e397 313e ecbc b23e
00000270: 7108 66bd 829a dc3e 4ee2 273d bf21 123e
00000280: 1827 c3bd c69f 5cbd e9bb 60be 5ca8 eb3e
00000290: 4931 093e 09a7 a83d 53ac 1dbc b8e3 f83d
000002a0: e3fe 243e 56d3 bc3c 4fbd 37bd 33f3 8d3e
000002b0: 784e 81be 891c 86be 7141 463e 1a12 ac3d
000002c0: 9b09 5dbd 4dc6 37be ff90 ca3e 391b 5dbe
000002d0: ba62 a33e 6654 c0be 2cf9 3dbe a8d9 703c
000002e0: 91a3 98be fdb8 c53e 6ffd bdbe 362d 88bd
000002f0: 4950 083e 5f3a 21bd ee4b 88bd b878 5e3e
00000300: 4fc3 2b3c 0295 483c be80 c8bd 54f7 ba3e
00000310: 5ca6 9d3c 509e 8f3e deff 4e3d 161d 4bbe
00000320: bf0a 0b3e 3005 ae3d 0948 ea3d 919f f5bd
00000330: 075a 9a3e 6a66 dd3c 4f91 dc3d 268a 11be
00000340: 4acd 90be 1e81 883e 4e23 d4bc 61b9 4d3e
00000350: de27 60be 3665 493d 7b2d d6be d816 0abe
00000360: 7762 933d 7bf5 1bbf 9220 88be 7454 abbe
00000370: 930a c13c 5aea 1bbe 566a acbd 3127 9bbe
00000380: df20 5d3e f237 48be e14d d73c bee9 28bf
00000390: c6c1 04bf 7779 3a3e 1683 fcbe 120e 903d
000003a0: 375a 553e 2dd7 683e c8a5 d0bd 1ea3 233e
000003b0: 6f79 273e 9a0d 213f 95db b1be e3ed 523d
000003c0: c7b0 11bf 1b6d fd3d a045 bebe 5125 f4bb
000003d0: 5db0 343d 4b13 d2be 0111 b5bd 2b63 c53e
000003e0: 336a 833e 0303 9ebb 8372 3b3c 50b0 c4bd
000003f0: 8b9b 04be 3fd2 b0be 2da4 d43e 66ef f9be
0.3941311 -0.051343057 0.18592815 -0.1540069 0.07999701 -0.15073615 0.0021445896 0.3054608
-1.1383464 0.3612484 0.028599441 0.4840619 0.056990642 -0.038559448 -0.015315503 -0.4517617
0.2832533 -0.29397595 0.2580045 -0.3517826 0.30502933 0.06765392 0.083722234 -0.104505196
0.10196234 0.24081337 0.20480964 -0.2153719 -0.10928721 0.3373594 -0.21040563 0.36154744
-0.14218554 -0.08410957 -0.07164161 0.08407215 -0.02019292 0.28521675 0.30102456 -0.04516772
-0.58684325 -0.35270324 -0.015942536 -0.4767456 -0.1006039 0.09253493 0.080349535 -0.51112115
0.17816353 0.2667563 -0.75803435 -0.017765367 0.11620946 0.09601598 0.09127759 0.30482578
0.27166915 0.36251006 -0.51796997 0.07297271 0.453194 0.22399044 0.1012863 -0.3902523
-0.18454291 -0.14314717 -0.67695296 -0.34671333 -0.3817851 0.14509505 -0.2235765 0.05496088
-0.31210834 -0.17606878 -0.37597683 0.022712149 0.054897387 -0.24689113 0.335987 0.5440464
0.40284696 0.026686793 -0.018736295 -0.067223534 0.54455554 -0.36952892 -0.090842195 -0.15042022
-0.11949804 0.060626972 -0.15326932 -0.25798696 -0.25632995 -0.70197296 0.3634595 -0.1826767
-0.311351 -0.47955284 0.26899076 0.08640316 -0.36818323 -0.19351867 -0.116350755 0.06938076
-0.29311514 -0.050844513 0.16575977 -0.27833173 0.6001503 -0.15340713 -0.0154947005 -0.1423058
0.44236183 0.24165125 0.72846466 0.012776202 0.08119067 0.26820773 -0.029908743 -0.5080228
0.44839495 0.21163143 -0.06454352 0.020804968 0.44241422 -0.1823505 -0.18470341 0.2905553
-0.5449838 0.17337811 0.43002188 0.26551005 -0.29181927 0.14821453 -0.42707726 -0.13631347
-0.06076657 -0.8295617 -0.21383189 -0.09661223 -0.16408104 0.10740378 -0.026604794 0.31401452
-0.18208775 -0.008879258 -0.20489052 0.33968237 0.5739288 0.084106885 0.062062476 -0.19481117
-0.08725023 -0.029336493 0.17343096 0.3490976 -0.056160394 0.4308663 0.040987305 0.14270686
-0.09528941 -0.05386331 -0.21946682 0.46026886 0.13397707 0.082349844 -0.009623605 0.12152809
0.16112857 0.023049992 -0.044858273 0.2772461 -0.2525518 -0.26193646 0.19360901 0.0840189
-0.05396424 -0.1794674 0.39563748 -0.21592416 0.3191126 -0.3756439 -0.18552083 0.014700331
-0.2981229 0.38617697 -0.37107417 -0.06649248 0.13311876 -0.039362308 -0.066551074 0.21725738
0.010483577 0.0122425575 -0.097901806 0.3651682 0.019244365 0.2805047 0.050536983 -0.19835314
0.13578318 0.08497083 0.11439521 -0.119933255 0.3014681 0.027026374 0.10769903 -0.14212856
-0.28281623 0.2666101 -0.02589574 0.20090248 -0.21890208 0.049168788 -0.41831574 -0.13485277
0.07196515 -0.6092145 -0.2658735 -0.3346287 0.023564612 -0.15226117 -0.084187195 -0.30303338
0.2159457 -0.19552591 0.026282253 -0.6598166 -0.51858175 0.18210398 -0.4931876 0.07033934
0.20835195 0.22738333 -0.1018787 0.15980193 0.16354917 0.6291138 -0.3473784 0.051496398
-0.56910366 0.12374326 -0.37162495 -0.0074507375 0.044113506 -0.41030344 -0.08841134 0.38552222
0.2566696 -0.0048221364 0.011440876 -0.096039414 -0.1294996 -0.34535405 0.41531506 -0.4881546

bias f4 [20]
00000000: 0cea a43e 9b42 293f 8a9e a7be 9ff1 20bd
00000010: aa5e 1f3f 7342 08bf 5e51 8d3f fa39 18bf
00000020: a4fd 03be 9991 65bf a7ab 383f e516 10bd
00000030: 369b 9b3d ca47 d1bd db8a 2abf 63e4 973f
00000040: 1b85 303f 79de 303e 34f1 f3bd 285e 0dbf
0.32209814 0.66117257 -0.32738143 -0.039292928 0.6225382 -0.53226393 1.1040456 -0.59463465
-0.12889725 -0.8967529 0.7213692 -0.035178084 0.075979635 -0.10218771 -0.66618127 1.1866573
0.689531 0.17272367 -0.1191124 -0.55221796

weight f4 [20, 20]
00000000: e80d 423e e4d1 0a3d 671b ec3d 8fd4 52be
00000010: 6cb5 053f 142a 30be 6e73 c23e 00dd d5be
00000020: 4f9d a73e 7679 af3b a8ae 7e3e 3e35 bdbd
00000030: 7586 b83e 3e6d a43e fa79 9dbe 05db 193f
00000040: 0a8d 5c3e 765c 0f3f ca74 8e3d 7789 f6bd
00000050: 5234 a23e 3636 ee3d 4c37 02bf 66b9 163e
00000060: 43be ab3e 5b5c 533e 88c0 0b3f 9045 cabc
00000070: 8f76 28bd 4e89 043e 9592 4cbe e3ac f3be
00000080: 5c93 7ebe 1df8 da3e 72b9 50be 995f 98be
00000090: 5d82 493e f9bc 863c db43 20be e316 e93d
000000a0: 81f5 3bbf 4ce9 04be eed8 133f df52 c23d
000000b0: 2f1a d1be 5b90 553f 2bdf 30bf 478e 503f
000000c0: 0482 c03c 6c7c 543f 1f44 fbbe 6ef6 763e
000000d0: b5bb 49bf b06d 4abe d852 483f 7197 b2bf
000000e0: a88d ecbe 088c 42be 1494 393f 81ad ed3e
000000f0: 43c2 60be 6374 a93b 1fa2 b2bd 16e1 5c3e
00000100: 9746 09bd 61eb f2bc 6e8d de3d e9c6 803e
00000110: f6f3 95bc 1d8f 753e c7b7 6f3e 9d59 e4be
00000120: a054 e4bd f8cb 433e 9c6b ec3d 4cf0 4fbd
00000130: 952f 91be 8487 f93e cbc4 583e 0d3e efbe
00000140: eeed 3b3e aac9 09be 8e18 7bbe 5e62 da3d
00000150: 4c55 633e 4233 b93e 9f9b 26be 68ee 0a3e
00000160: 1dbe 89bd 5fb9 f8bd cd5a 103e 8fe6 223e
00000170: e7e4 65be 94cc 0b3e f263 023d c3a6 41be
00000180: 1d16 94be cf59 09bf 50ed 5bbe e6e6 223d
00000190: 456f 233e cd55 3f3e 0142 e73d bae5 4e3e
000001a0: cb39 b73e c8f8 a2be 4552 32be 6e76 ccbe
000001b0: fe98 b43d e462 c7bd e422 343d 3af5 b4be
000001c0: 3e97 1cbb c120 993e 0cea 5ebf 9655 003f
000001d0: 1df1 9fbe 80b3 a13c 9358 fc3d 5806 dfbd
000001e0: cf96 42be d5c5 b73e ecf3 983d fac3 8bbd
000001f0: d666 d4be 8b0d 0a3f da18 25bd d774 c33d
00000200: 14f1 85be 32b4 c83e 03bf 86be b95c 8fbe
00000210: 58d4 6e3d 860f a0be eb1b f23e 462b 10be
00000220: b575 053f 28a1 23bd 2a02 213e 0cb6 49be
00000230: 08fd 79be 51ae 93be 45e1 1ebf ca0f cc3d
00000240: c1b9 31bf 60ac ad3e c5af 983e 2f04 843e
00000250: a53c 4f3d a410 b8bd a512 ad3e 36aa f9be
00000260: 67fb 1f3f 4586 26bf e2f4 23be 77f1 603e
00000270: f660 093d c0f6 13bd a2ba dcbe ce70 66bd
00000280: c4ff bf3e ee47 bcbd d6e3 e3be 78cd b1be
00000290: 8a2d 853e 065e 713c a06d e3bc 8a60 7cbd
000002a0: 01d7 683e f489 3bbe 0997 1e3d 3030 c4be
000002b0: d046 843e d1f4 e13c c96e ad3e 17a7 a5be
000002c0: 381b 9bbb be01 86be e6f8 9b3e e670 463d
000002d0: 0df8 973e 5401 ae3d 6610 04bb 8431 82be
000002e0: 3fdc a2bd cc16 09be 5a62 38be 876b 113e
000002f0: 1db8 adbc 40c2 843e fb91 6abe 2bbb 6fbe
00000300: 737d 93be 3099 bd3d 2894 bb3e ab59 9cbe
00000310: 991e 12be 4b52 c5be b904 3dbe 721f 683d
00000320: c4e5 0e3e 1a55 223f 66d0 f33d b9b9 e83e
00000330: 68e4 723d b4f5 2c3c d81f 69bd f95f 8abe
00000340: 6b95 063e 944e 233e aa8d 4dbb 3a29 5b3d
00000350: 1b22 8b3d 4cbf a73e 0a41 83be d3a6 0f3e
00000360: 1b26 efbe 76e2 27bf 2e24 bfbc c32b 71be
00000370: 40b2 7d3d db99 503e 2621 1abe bb66 31ba
00000380: c52b c4bd eddc 873e 9ad3 223d 6386 39bd
00000390: ec1e a0be 8849 e1bc d3bb 14be c901 06be
000003a0: 6d73 8ebe 3d10 99be 9337 283e 3ef2 bc3d
000003b0: 9a4e a5bc 5cbb 6e3d b19e c5bd c8e1 7a3e
000003c0: 0780 693e b841 1bbc de10 4fba bb0f 473e
000003d0: d447 16be a913 60be 170e 023e 8c74 8cbe
000003e0: 0cf4 183e c9f8 083e 45cc 6c3b f706 e1bc
000003f0: baf1 63be 6fa4 76bd 1396 b83e ba9f 163f
0.18950617 0.033891574 0.11528664 -0.20588897 0.5222995 -0.17203552 0.3797869 -0.41770172
0.32737204 0.0053550554 0.24871314 -0.09238671 0.36040083 0.32114595 -0.30757123 0.6009982
0.21538177 0.5600046 0.069558695 -0.12037938 0.31680542 0.11631434 -0.50865626 0.14719161
0.33543596 0.206407 0.54590654 -0.024691373 -0.04112869 0.12943003 -0.19977792 -0.4759284
-0.248609 0.4276742 -0.20383242 -0.29760435 0.19678636 0.016447531 -0.15650885 0.113813184
-0.73421484 -0.1297962 0.57752883 0.09488463 -0.4084029 0.83423394 -0.6909053 0.814671
0.023499496 0.8300235 -0.4907541 0.24117443 -0.78802043 -0.19768405 0.7825141 -1.3952466
-0.46201825 -0.1899873 0.72491574 0.46421435 -0.21949105 0.005171345 -0.087223284 0.21570238
-0.033514585 -0.029653253 0.10866819 0.25151756 -0.018304806 0.23980375 0.23409949 -0.4459962
-0.111489534 0.19120777 0.11543962 -0.050766274 -0.28356615 0.48736203 0.2116882 -0.46727028
0.18352482 -0.13455835 -0.24521086 0.10663293 0.22200507 0.3617192 -0.16270302 0.13567507
-0.06725714 -0.12144732 0.14097138 0.15908264 -0.224506 0.13652259 0.031833597 -0.18911271
-0.2892312 -0.5365266 -0.21477246 0.039770983 0.15960415 0.18685074 0.11291886 0.20204821
0.3578628 -0.3183043 -0.17414196 -0.39934105 0.088182434 -0.09735659 0.043978587 -0.35343343
-0.0023893858 0.29907802 -0.8707588 0.50130594 -0.31238642 0.019738913 0.12321582 -0.10889882
-0.19002841 0.3589312 0.074683994 -0.06824489 -0.41484708 0.53926915 -0.040306903 0.0954377
-0.2616049 0.39199978 -0.26317605 -0.2800043 0.058307976 -0.31261843 0.47286925 -0.14079008
0.5213273 -0.039948612 0.15723482 -0.19698352 -0.2441293 -0.2884393 -0.62062484 0.09963949
-0.6942406 0.33920574 0.29821602 0.25784442 0.050594945 -0.08987549 0.33803287 -0.48762673
0.62492985 -0.6504863 -0.16011384 0.21967112 0.033539735 -0.03612399 -0.4311114 -0.056259923
0.3749982 -0.09193407 -0.44509763 -0.34727073 0.26011306 0.01473189 -0.027762234 -0.061615504
0.22738267 -0.18314344 0.038718257 -0.38318014 0.25835276 0.027582558 0.33873585 -0.32354042
-0.0047334693 -0.26173204 0.30463332 0.048447512 0.29681435 0.08496347 -0.0020151376 -0.25428402
-0.07952165 -0.13387603 -0.18006268 0.14201175 -0.021205956 0.2592945 -0.2290725 -0.23411243
-0.28806648 0.09257734 0.36636472 -0.3053716 -0.14269485 -0.38539347 -0.18458833 0.056670614
0.13954836 0.63411105 0.11904983 0.45454195 0.059299856 0.010556627 -0.056915134 -0.27026346
0.13142936 0.15947944 -0.0031364956 0.053506114 0.067936145 0.32763135 -0.25635558 0.14028482
-0.4670876 -0.65579927 -0.023332682 -0.2355185 0.06193757 0.20371191 -0.15051708 -0.0006767322
-0.09578661 0.2653574 0.03975258 -0.045294177 -0.31273592 -0.027500883 -0.14524774 -0.13086618
-0.27822438 -0.298952 0.1642745 0.092258915 -0.020179082 0.05828415 -0.096494086 0.24500191
0.22802745 -0.009476118 -0.0007898937 0.19439594 -0.14675838 -0.218825 0.12700687 -0.27432668
0.14936846 0.13376154 0.0036132496 -0.027469141 -0.2226018 -0.06021541 0.36051998 0.58837473

bias f4 [20]
00000000: 1f1b 2e3f cbf0 143f df76 8abf 729a 2cbd
00000010: 6ef2 83bd bd3e 6bbe ddbe 3b3b 147b f03e
00000020: cdba 373e e1a1 f1bd bcc3 a6be bf45 a63e
00000030: bdd4 043f aa69 c33e 6b9b 723e 1c3e e6bd
00000040: 28ba 56bd 12ce f83d ad70 38be 5887 fe3e
0.68010134 0.5817992 -1.0817527 -0.042139478 -0.06442724 -0.22973152 0.00286477 0.469689
0.17942353 -0.11798454 -0.32571208 0.32475087 0.5188711 0.38166553 0.236921 -0.11242315
-0.052423626 0.1214868 -0.18011732 0.49712634

weight f4 [20, 20]
00000000: dcb1 fd3d 1020 4c3e 9227 8f3e 1a79 81bd
00000010: 6c5f 113e f2d9 e93d 4f88 0cba 89f7 9f3d
00000020: d2a0 203f d267 7d3e 53ca d93d 1fb1 eb3d
00000030: 6c88 a33d 6b46 8bbd 266a 673d e2cf a9be
00000040: dce0 443e 47b3 2e3e 1c5e 41be f653 9cbd
00000050: 733d df3d 1ecc e53d b587 d23e e9c2 313e
00000060: 9e6d 593e 2eeb 2bbe eabf 1b3e e37c bfbc
00000070: cac5 093f 7c2c 09bf 3335 94bd d829 493d
00000080: 366b 0c3e f631 f7bc 9133 60be 8ba3 3bbf
00000090: 050d a5bb 52d4 013f 108d 63bd f4d5 aa3e
000000a0: 6afa 943e f071 163f 04fc 4c3e 21fc ed3e
000000b0: 4a4d 4fbe f0eb eebe 4c78 ae3e 674b ae3e
000000c0: 73d1 313e b0a1 0cbe 84dc 67bd a595 743e
000000d0: f7b2 ec3d 3591 e53e 2314 80be 57ca f7be
000000e0: fbbe 46be 3b01 063e 78f0 30bf bb9c e93e
000000f0: 7baa 33be fb1d a83e 930a b03e 23c0 ca3c
00000100: fed6 cc3c b8d8 39be 7470 743c 02db 0a3e
00000110: 0da1 7c3d edf4 20b9 39ab 3fbd ee69 11be
00000120: 14a1 873e 1d3b 873e cf56 9a3d 7423 2b3e
00000130: d9c8 30be 8eea 013f c3d6 943d 999c a53e
00000140: 2009 70bf 0fff 79bc 237a b73f 6103 dfbe
00000150: c5cc 18bf 93ad fc3d 00ba 6b3d bccf 0dbf
00000160: e746 a83d 4d54 4d3f 3c7f f23e c4bc acbe
00000170: 6cae 9dbf 8e65 a6be 7378 70bf bdfc febd
00000180: 5a1d b2be 97d0 f33e 0ccc 503d 33f2 09bf
00000190: 857f 91be fcdf 353d ec84 0d3e 719d f8bd
000001a0: ad54 823e 00cc ad3b 2652 a2be 1280 82bd
000001b0: aca5 ff3c 3aa6 40be b8af 97be 93c8 a6be
000001c0: dc25 0dbe 9776 323e 87e9 a9bd c264 e63e
000001d0: 4000 ebbd 5aaf 6dbd f008 b1be b53e 6dbe
000001e0: 314c 443e f86c 293e 6a58 8e3e abc9 0d3e
000001f0: 59e0 3ebe 429e 9abc 6326 c13d 74a4 633e
00000200: 6445 b23d 9f27 0e3c 2d5e a3be 6d05 373e
00000210: 2bb3 653d 69ee e2bc 2ea4 593d c70a 9dbe
00000220: a4eb 063d 0c4b 873e 202b 7bbe 3bc0 b23e
00000230: 1d73 40bf 87e4 33bd dc42 643f 7591 d8be
00000240: 27e8 aabe 2b25 76bb 28e1 0f3e 9981 81be
00000250: 7afa fabc 3133 5c3f 6482 f33e 2a9e c8be
00000260: 5067 e1be 622b 64be eaaa 05bf 769c a3be
00000270: aed7 cabe f5b4 883e b52a 063e 7b57 68be
00000280: cffe 8fbe eaa7 a8be f632 b0bc 9804 d6bd
00000290: 4d49 b4be 0a70 73be 3b95 0bbe 74c0 e3be
000002a0: 127e 5cbe 5c0c e43e 3004 4c3e 65cf ccbe
000002b0: 5b6c d4be f41c da3e 9a86 2fbe 5a84 c83d
000002c0: f70a 87be 0e41 13be dcf3 163e 01f0 39be
000002d0: b3bc 88be 7c7c 793e 3d7e 2f3f 9dbf f9bd
000002e0: dac5 dabd 50a7 8e3d 3cac 1cbe 6209 d83e
000002f0: e5b5 413e a043 133e e348 b63e 6593 66be
00000300: e273 03bf 1f77 d93e 285c 27be 3c06 85be
00000310: 77b8 28bd 74ac 063f f089 c53d c720 b73d
00000320: d3c9 1f3c 820f 8abe 5879 2a3e fcda 513e
00000330: 2ed3 40be 6e43 8a3e 7c11 05be 7f20 bfbe
00000340: 8bbb 00bc 3cd2 f1be 9700 e03d 8dd9 4d3d
00000350: fb61 b8be f59a 07be c4dd d8be efb6 4b3e
00000360: 9bc5 313e f04c 12be 57f4 8e3e d9a4 93be
00000370: cd9e 9dbe cc45 813a eb8f 27be 8c77 8e3e
00000380: 6b91 80be 5544 6d3d b8b5 2ebe aaf8 1c3f
00000390: 396c a7bd ba97 acbe 627f 7bbd 5a94 283e
000003a0: 2b3e e23e 4fcb 513e 6425 333e f1fb 25bd
000003b0: c59d 123e 0e32 d4bd 0b04 b7bd 8592 023d
000003c0: 967a d0bd 0c61 66be 8e40 8abe 3ec5 67be
000003d0: 08ee 7ebe 1d3f 073f 64e9 b7be a749 01be
000003e0: 6cb0 373c 3b29 2ebe b769 583e 16a9 dfbd
000003f0: 6b6e 76bc 7aa7 9c3e 5f26 8ebd 8a4d a23e
0.123874396 0.19934106 0.27959877 -0.063219264 0.14196557 0.11418523 -0.0005360888 0.078108855
0.6274539 0.24746636 0.106342934 0.115083925 0.07985005 -0.068005405 0.056497715 -0.33166414
0.19226402 0.17060576 -0.18883556 -0.07633202 0.109003924 0.11220573 0.4111916 0.17359509
0.21233222 -0.16788933 0.15209928 -0.02337498 0.5381743 -0.535835 -0.072367094 0.04911217
0.13712773 -0.03017519 -0.21894671 -0.7329642 -0.0050369524 0.507146 -0.05555445 0.33366358
0.290973 0.58767605 0.20018011 0.46481422 -0.20244327 -0.4666438 0.34076154 0.34041902
0.17365055 -0.13733554 -0.056606784 0.2388521 0.11557572 0.44837347 -0.25015363 -0.4839656
-0.19408791 0.13086407 -0.69116926 0.45627388 -0.17545502 0.32835373 0.34383067 0.024749821
0.02500486 -0.18149078 0.014919389 0.13560107 0.061677027 -0.00015350031 -0.04679415 -0.14200565
0.2649008 0.26412287 0.07536089 0.16712743 -0.17264117 0.5074853 0.07267525 0.32346037
-0.93763924 -0.015258565 1.4334148 -0.43557265 -0.59687454 0.12337794 0.05755043 -0.553951
0.082166485 0.8020676 0.47362697 -0.33737767 -1.2318854 -0.32499355 -0.9393379 -0.1245055
-0.34788018 0.4762008 0.050975844 -0.5388519 -0.28417602 0.04440306 0.13820237 -0.121394046
0.25455227 0.0053038597 -0.317033 -0.06372084 0.031206928 -0.1881341 -0.2962625 -0.325749
-0.13783973 0.17428051 -0.08296495 0.44998747 -0.11474657 -0.058028556 -0.3457713 -0.23168452
0.1916969 0.16545475 0.2780183 0.13846461 -0.1864027 -0.018874291 0.0943115 0.22230703
0.087046415 0.008676439 -0.31907788 0.17873164 0.05607907 -0.027701573 0.05313509 -0.30672285
0.03293957 0.26424444 -0.2452817 0.34912285 -0.7517565 -0.043919113 0.8916452 -0.42298475
-0.33380243 -0.0037558775 0.14050734 -0.25294188 -0.030637015 0.8601561 0.47560418 -0.3918317
-0.44024134 -0.22282174 -0.5221392 -0.31955308 -0.39617676 0.2670056 0.13102229 -0.22689621
-0.2812409 -0.32940608 -0.021508675 -0.10450095 -0.35212174 -0.23773208 -0.13631146 -0.44482768
-0.21532467 0.4454068 0.19923472 -0.4000198 -0.4148892 0.42600214 -0.1714119 0.09790869
-0.26375553 -0.14380285 0.14741462 -0.1815796 -0.26706466 0.24363893 0.68552 -0.121947505
-0.106822684 0.06965506 -0.15300077 0.4219466 0.18917044 0.14381266 0.35602483 -0.22517164
-0.513487 0.42473695 -0.16343749 -0.2598132 -0.041191544 0.5260689 0.0964545 0.08941799
0.0097527085 -0.26964957 0.16647851 0.20493692 -0.18830559 0.2700457 -0.12994951 -0.3732948
-0.007857214 -0.4723071 0.109376125 0.0502563 -0.36012253 -0.13242705 -0.42356694 0.19894002
0.17360537 -0.14287162 0.27920792 -0.28836706 -0.30785218 0.000986272 -0.16363494 0.27825582
-0.25110945 0.057926495 -0.17061508 0.6131693 -0.08174939 -0.33709508 -0.06140078 0.16462842
0.44188055 0.20487712 0.17494732 -0.040523473 0.14317997 -0.1036111 -0.08936318 0.031878013
-0.101796314 -0.22497958 -0.27002376 -0.22633836 -0.24895489 0.5283068 -0.3592025 -0.12625752
0.011211496 -0.17007916 0.21134077 -0.109209225 -0.015040974 0.30596524 -0.069409125 0.31699783

bias f4 [20]
00000000: e844 dc3e 14cd e33e d306 da3e e5bb 993e
00000010: 037e 31bf f7ca 9fbe b605 14be 62c8 34be
00000020: 93bf c2be 6927 063f b908 d8be bbd3 e03e
00000030: 5927 fe3d 65c3 243e 8dd1 643e 9d73 bb3e
00000040: 79f7 a43e 7153 ec3e e076 9fbe fb37 64be
0.4302132 0.444924 0.4258333 0.30026165 -0.69332904 -0.31209537 -0.14455304 -0.17654565
-0.38036785 0.52403885 -0.42194155 0.43911538 0.12409849 0.16090162 0.22345562 0.36611643
0.32220057 0.4615741 -0.31145382 -0.2228698

weight f4 [20, 20]
00000000: e782 3d3e 47ea 78bc a527 c1bd e01f 0a3e
00000010: 794c 83be 2796 793e 9a15 c33d ba4c 92bd
00000020: 170e 8dbb 050d 14bd 8d69 1b3e a799 023e
00000030: 7a38 b13e 6369 3cbd 4abf edbd 7582 8f3e
00000040: 67e3 363d 735e f53d dd5b 4e3e d5ae 2ebe
00000050: c9e9 dabe 0a24 ff3e 9ad7 98be c14e 6cbf
00000060: 4ea2 d0bd 6f5d 503f 5b6d 923c 1d70 febd
00000070: b49a 0a3f 432b 60bd 41b9 eb3e 8362 f1be
00000080: 874f 593f b4be 04bf a014 c73e 77c2 8e3e
00000090: a4ee ccbe d034 95bf b84b 2a3f dfd7 803f
000000a0: 7e9e aabe cc24 41be f7b1 903c 3c14 e7bd
000000b0: 9ae4 b8be 0857 81be 7787 e23d ba14 a6be
000000c0: 3551 0bbe 8c22 b63b 31b4 91be d838 9fbe
000000d0: 2bb8 e8be 2059 403e 4c0d c03e dbd3 003e
000000e0: e5e4 6e3e 7a7f 993d f4ce d83c bd2a 49be
000000f0: 0141 3b3e b636 62be 68d1 3abe 689c ce3e
00000100: 6288 dabd a46b 04bf 7b40 8bbe 31de 64bd
00000110: 6b47 00bf 334d 8a3e 6653 a8be a7f2 da3e
00000120: 8654 f1be 5e53 ee3e 7d79 ddbd e581 a4bd
00000130: 3001 373d 0765 4e3f d2dd 2bbf 77d7 2cbf
00000140: a94a ebbe 735a 83be b92d 8c3d 7250 e3be
00000150: 7fba 30bf 76f5 0c3d 063a 05be 33d3 e3be
00000160: 5979 a03e 1a44 b5be 6d88 bf3e a51e 46be
00000170: 2326 bdbd 5818 9fbd 9b75 893e 8418 843d
00000180: cda9 22be 41c1 c3be d242 af3e 40e8 aebe
00000190: 80a1 55bc 0a64 19bf 68b2 0ebf 316f 7f3e
000001a0: 47db 82bf 8d34 81be 586c 09bd a43a d9be
000001b0: dc49 8e3e 68bb 11bf db8e 57be 2f73 d43e
000001c0: ffa9 b8be d681 cdbe 5ffa 45be 8561 b73e
000001d0: 3a39 b83e 5d47 bf3d d76b 69be 81fb ba3e
000001e0: 32d0 90be 6638 083f d8f7 353e e4db 103e
000001f0: 9a6c 0e3f 57b4 d2bc 6d28 993e c489 74bd
00000200: 68e0 243e 9be6 f13e 1377 3c3e 41e2 17be
00000210: c2bc 7dbd e160 b13d 7eeb d43e 3258 0abf
00000220: 11a1 debd 1054 98be 6db9 3a3d 5051 86be
00000230: 1b58 1cbe 3460 8e3e e79e 1bbd 8646 91be
00000240: b6fd 873e 648e 533e d32a 713d 1687 84be
00000250: b586 923e 4c8c 633d 8edf d83e f309 a1be
00000260: d531 e53e a31c 80be eb2e b33e 54b7 073e
00000270: f0fd ecbe d16e 8bbe 3cab 663d dfd6 f43e
00000280: e016 9bbe 7532 423f 0365 db3e f1c3 823e
00000290: 1959 613f 9ca6 fb3d a472 7e3e 46f2 363f
000002a0: 60ea ea3e 967b 833f 7140 32be 3cf3 78be
000002b0: d9f5 ef3d 7740 883e 81a1 ed3d 7524 403d
000002c0: 1a53 883e 3546 c7be f766 d93d a66b 5dbe
000002d0: a13f a7be 9bac 2abf 4af3 56be 94f2 ea3d
000002e0: d146 2dbe aec8 dc3d 9df4 8cbd 2da7 a3be
000002f0: b533 5d3e 3b22 f9be 5f16 383e 3b49 65be
00000300: 046d 86be efd2 e0bd 2bc9 ecbb 1ff2 f9be
00000310: e2d4 bbbc 9b36 16bf 15a9 04bd f86d 2d3c
00000320: 1733 2f3f 1079 ef3e 6410 b33e 88b4 223f
00000330: f260 8c3e 7707 00bf e1f0 a63e 0058 a23e
00000340: d71b bcbe 09b1 333f 838e d1be 288c 3bbe
00000350: 18a4 7cbf 943e 0e3f 8564 b0be 7809 2cbe
00000360: e3ac 023f e02f 003f 960c 16bf 5433 6bbf
00000370: 4d8b 8d3e f4ba e4bc 2e4f eb3e ed41 4b3e
00000380: 5227 bbbe a1d5 033d 45b4 9dbc a508 98be
00000390: bb93 c73d c771 94be 6f88 f33d 6dbc 8b3e
000003a0: 63f1 203e aa52 be3c 9836 dcbe d74f 463e
000003b0: 3e82 8e3e 43f1 b2bc 5162 aa3e 35bc e0be
000003c0: 234d aa3e e134 5dbf 8a23 c83d 330c bc3c
000003d0: e3c5 28bf 4247 2a3d fbde d6be 2f11 01bf
000003e0: 62e0 1a3e 90bf 8dbe 5078 75be 8654 9abd
000003f0: 03e7 93bd 7882 343d feb9 213d f2ec 2f3e
0.18506967 -0.015192575 -0.0943139 0.13488722 -0.25644282 0.24373685 0.095256045 -0.07143541
-0.004304658 -0.03614523 0.15176983 0.12753926 0.346134 -0.045998942 -0.11608751 0.28029218
0.04465046 0.119809054 0.2015223 -0.1705888 -0.4275649 0.49832183 -0.2985199 -0.9230767
-0.10187207 0.8139257 0.01787441 -0.12423728 0.5414231 -0.054728758 0.46039775 -0.4714547
0.84886974 -0.5185349 0.38882923 0.2788274 -0.40025818 -1.1656742 0.6652179 1.0065879
-0.33324045 -0.18861693 0.017662985 -0.11283156 -0.3611191 -0.25261712 0.11060994 -0.32437688
-0.13605197 0.0055583175 -0.28457788 -0.31098056 -0.4545301 0.18783998 0.37510145 0.12580816
0.23329504 0.07495017 0.02646587 -0.1964521 0.18286516 -0.22091183 -0.18243945 0.40353703
-0.10670544 -0.51726747 -0.27197632 -0.05587596 -0.50108975 0.27012023 -0.32876128 0.42763254
-0.471348 0.4654798 -0.10814188 -0.08032588 0.044678867 0.80622905 -0.67135346 -0.67516273
-0.459554 -0.25654945 0.068446584 -0.44397312 -0.6903457 0.034413777 -0.13010415 -0.4449707
0.3134258 -0.3540352 0.37408772 -0.19347627 -0.092357896 -0.07768315 0.26847538 0.064499885
-0.15885086 -0.3823338 0.34230667 -0.34161568 -0.013038993 -0.5991827 -0.55740976 0.2494476
-1.0223168 -0.25235406 -0.03355059 -0.42427552 0.27790725 -0.56926584 -0.21050589 0.41494128
-0.36067197 -0.4013812 -0.1933379 0.3581659 0.3598116 0.09339783 -0.22795044 0.36520007
-0.2828384 0.5321106 0.17770326 0.14146382 0.5563446 -0.025720758 0.29913655 -0.059701696
0.16101229 0.4724625 0.18404798 -0.14832403 -0.06194759 0.08661056 0.41585916 -0.54040825
-0.10870565 -0.29751635 0.045586992 -0.26233912 -0.15267985 0.27807772 -0.037993338 -0.28374118
0.26560754 0.20659786 0.05887873 -0.25884312 0.28618398 0.05555372 0.4235806 -0.31452903
0.4476458 -0.25021848 0.34996733 0.13253528 -0.4628749 -0.27232984 0.056315646 0.47820184
-0.3029089 0.7585824 0.42850503 0.25540116 0.8802658 0.122876376 0.2484842 0.7146343
0.4588194 1.027209 -0.17407395 -0.24311537 0.117168136 0.26611683 0.1160307 0.046909768
0.266259 -0.3892075 0.10615342 -0.21623096 -0.32665733 -0.66669625 -0.20991245 0.11472049
-0.16921546 0.10780464 -0.06882594 -0.31963482 0.21601756 -0.48658928 0.17977284 -0.22391216
-0.26255047 -0.109777324 -0.0072261295 -0.48817536 -0.022928659 -0.5867707 -0.03238781 0.010585301
0.6843733 0.4677205 0.34973443 0.6355672 0.27417713 -0.5001139 0.3260565 0.31707764
-0.3673999 0.7019201 -0.4092904 -0.18315184 -0.9868789 0.55564237 -0.3445169 -0.16800487
0.51045054 0.5007305 -0.58612955 -0.91875196 0.2764534 -0.027921177 0.45958847 0.19849367
-0.36553437 0.032186154 -0.019250998 -0.29694095 0.09744974 -0.28993055 0.11891257 0.27292195
0.15717082 0.023232777 -0.43010402 0.19366394 0.27833742 -0.021843558 0.33278134 -0.4389359
0.33261976 -0.8640881 0.097724035 0.022955036 -0.6592695 0.041571863 -0.41966996 -0.50416845
0.15124658 -0.27685213 -0.23971677 -0.07535653 -0.07221796 0.044069737 0.039484017 0.17180231

bias f4 [20]
00000000: d0f0 073f 0e74 0abf 0e8d fdbe b547 0d3f
00000010: 1bbb 2ebf 2ea4 a73e f5a3 8bbd 0772 cfbe
00000020: 1e17 063e 69a8 d5be 0c59 243f 4f5a a9be
00000030: 84e0 9c3d dba0 943d bf5d c6be 1963 19bd
00000040: 81a0 dabe 3cc6 d7bd 5804 a83e 3d5e 163f
0.53101826 -0.54083335 -0.4952168 0.5518754 -0.6825425 0.32742447 -0.06818382 -0.40516683
0.13094756 -0.4173005 0.64198375 -0.33076712 0.076600105 0.07257243 -0.38743398 -0.037448023
-0.4270058 -0.10535857 0.32815814 0.58737546

weight f4 [20, 20]
00000000: df88 aabe 6f41 96be b431 2cbe ba54 ff3e
00000010: 9449 18bf 848b c6be 9c5d 873e 9895 b6be
00000020: 9c53 253f 7a71 79bd 01bb 063f 5ce8 3c3e
00000030: 88ea 573d 1bdd 9dbe dc4a d13d 586d 1f3f
00000040: a769 38be e1cd 023d b673 acbe 354e 21be
00000050: 1d93 37bf c4fc d23e 70ab 953f 1a47 b33e
00000060: 2b9b 703f 6602 903f 6058 4fbf ac67 cebe
00000070: 1e48 47be b07a 043f 4ada 4bbf c183 563f
00000080: 63ef b73e 640a 1cbf 3021 6f3f 9e19 5e3f
00000090: 400b 9f3f 3977 70bf 51d8 4ebf 0617 75bf
000000a0: 2883 82be f202 013e de60 ca3e ef89 11be
000000b0: 1ec4 cc3e 546f 353e 31fb 90bd f07d a33e
000000c0: 16e5 b6bd d29f 8d3e 2759 63be e977 c1bc
000000d0: a2f5 c2be 489d 173e 4ee5 bb3d 3b6d b23e
000000e0: 5c1e 983d 1798 3f3e 2133 8bbe e475 143d
000000f0: c005 a23e de5f db3e c7e2 a33d 8fe3 57bf
00000100: 957b 653e 4614 91bd ce60 98be 5444 6f3e
00000110: 5579 09be ae6d f63e 4a8e 05bf bdc3 9e3d
00000120: 1bfa 10be ded1 b53e 5181 c4bd 22c2 3dbe
00000130: 20b4 223e 8d0a 063e f652 3c3d 4d3b aabe
00000140: 4700 81be c187 4cbf f8b6 343f 541b 913f
00000150: c576 c13d 8524 06bf 40a9 6a3e bc1f f7be
00000160: 4d9b 1e3f 8898 f0be 14b3 f33e 4878 0b3f
00000170: 9d04 e6bc 11d2 8dbe 7652 d73e 79db babe
00000180: 2619 303d fc06 b6be 4b11 a5be f504 d93d
00000190: 9c65 b4bd 6639 e5be 06b1 7a3c da1b 183e
000001a0: f057 0abf 1608 803d 19c0 713e d693 e13e
000001b0: 4790 d8bd 68d9 c7be ce12 0a3f 1b9f d93e
000001c0: 432c 9abe f461 443d 3579 463e c8e0 ac3e
000001d0: 9949 853d 02f4 acbe 0c48 92be ad6d 023e
000001e0: 6ce7 2dbf bf63 1abf 69a2 023e b444 273f
000001f0: 681b 44bf fc5c aebe d7cb 71be d94c 19bf
00000200: 04de da3e a6b4 85bf d573 7e3f 67ce 423e
00000210: 132b 2e3e 6129 fbbe c4ca 473e 27e4 2bbe
00000220: 2b8c 41be 6a93 9abe ce9d 96bd 3fff 02be
00000230: 1651 0b3f 0097 82be 686c 25be 013f a73c
00000240: a794 a1be 75a3 f83d ac60 443d a598 89bd
00000250: 3422 1fbe 2af4 acbd 7a5c 5abd 83ac 9ebe
00000260: 8927 4dbe deab c53e b44a c0bd fde4 dd3d
00000270: 4fd4 4fbd 82ed 6d3e 6031 a33d d7dd 88ba
00000280: 4063 a1be 0e28 5fbf c9eb 1d3e b00b 723f
00000290: 7c83 80bf c79c 4ebf 0906 5e3e c792 04bf
000002a0: a399 1e3f 0f73 f2be 4ca1 5b3f 9e1e b93e
000002b0: 5ca8 133e 9180 9dbd f525 813e ebef cabe
000002c0: 5ef9 f0bd fac4 26be 0195 e5be 919b 99be
000002d0: 2696 4bbf 6717 6e3e 2e42 603f 278c 183d
000002e0: bd0a bc3f b1c6 c23f 2903 09bf 7773 293e
000002f0: 1f87 3cbf 8382 923e dc39 f0bf 6977 983f
00000300: f38a 6c3f 097f 31bf 27ec b63f 4e44 cd3f
00000310: 6868 ae3f 3ab0 b3bf 9507 8bbf 8fbd a4bf
00000320: e012 1f3e be27 11bf 3ca2 a3be a1c7 513e
00000330: 4367 91be accc 3dbf 6817 513d 50ea 7c3c
00000340: 25c7 e13e 6fcc 6cbe f4ee ae3e d4f6 e5be
00000350: 98cf 953d 8bf6 94be 3524 0b3e ef23 c23c
00000360: 7b1d b1bd b78c 2cbe 9397 df3e ec3d 783e
00000370: 0cb0 c63d 7199 ebbe b2b1 863e 6af1 a93e
00000380: ede6 c8be f1d5 d7be e1c7 8fbd cbaa 94be
00000390: 4d54 c63e fbb4 85be 684d 553f dfd1 373c
000003a0: 7883 953d 8d81 8ebe dcfa 70bd bad4 47be
000003b0: d33e 74be e8de 063d 0449 853e 1132 6c3e
000003c0: 8f2b 1fbe 1176 ea3e c5e0 483e 35bf d5be
000003d0: 7d9f 133f fc80 f13e 60e5 5c3e 809d 8f3e
000003e0: f80d 14bf 5f2f 3cbe ed1b bdbe 8d79 2bbe
000003f0: 289e ad3d c2ac 1fbd e207 d0bd d054 36be
-0.3330755 -0.29346797 -0.16815835 0.4986933 -0.5948727 -0.38778317 0.26438606 -0.35661006
0.645807 -0.060899235 0.52629095 0.18448013 0.0527139 -0.30832753 0.102193564 0.6227622
-0.18009053 0.031934623 -0.3368203 -0.1575249 -0.7170885 0.4120847 1.1692944 0.35015184
0.9398677 1.1250732 -0.80994225 -0.4031347 -0.19461104 0.51749706 -0.7962996 0.8379479
0.35924825 -0.60953355 0.93410015 0.8675784 1.2425308 -0.9393192 -0.8079882 -0.95738256
-0.2549069 0.1259878 0.3952703 -0.14212774 0.39993376 0.1771825 -0.07079161 0.3193202
-0.089304134 0.27660996 -0.22201978 -0.023616748 -0.38078028 0.14806092 0.09174596 0.3484896
0.074276656 0.18710361 -0.27187446 0.03624524 0.31645012 0.42846578 0.08002239 -0.843316
0.22410424 -0.07083945 -0.29761356 0.23365909 -0.13425191 0.48130554 -0.5217024 0.07752178
-0.14157908 0.35511678 -0.09594978 -0.18531087 0.15889025 0.13089962 0.045977555 -0.33248368
-0.25195524 -0.79894644 0.7059169 1.1336465 0.094464816 -0.52399474 0.22916126 -0.482664
0.6195572 -0.46991372 0.47597563 0.5448041 -0.028078372 -0.2769933 0.420551 -0.3649557
0.042992733 -0.35552204 -0.32239756 0.105966486 -0.08808443 -0.44770354 0.015300995 0.14854375
-0.5404043 0.06251542 0.23608436 0.44058102 -0.10574394 -0.39033055 0.53934944 0.425042
-0.30111894 0.047944978 0.19382174 0.33765244 0.06508178 -0.33779913 -0.28570592 0.1273715
-0.67931247 -0.6030845 0.12757267 0.6533921 -0.7660432 -0.34055316 -0.23612915 -0.59882885
0.4274751 -1.0445755 0.99395496 0.19024049 0.17008619 -0.49055007 0.19510943 -0.16786252
-0.18901126 -0.30190593 -0.073543176 -0.12792681 0.544206 -0.2550583 -0.16154635 0.020415785
-0.31558725 0.12140552 0.047943756 -0.06718568 -0.15540391 -0.08445008 -0.05331085 -0.3099099
-0.20034613 0.38607687 -0.093892485 0.10834692 -0.050739583 0.23235133 0.07968402 -0.001044209
-0.31521034 -0.87170494 0.15421976 0.94549084 -1.0040126 -0.80707973 0.2168199 -0.51786464
0.6195318 -0.47353408 0.85792994 0.36156172 0.14419693 -0.07690538 0.2522427 -0.39636168
-0.11766313 -0.16286078 -0.44840243 -0.300015 -0.79525983 0.23251115 0.8760098 0.037243035
1.4690777 1.5216886 -0.53520447 0.16547953 -0.7364368 0.28615198 -1.8767657 1.1911441
0.9239952 -0.69334465 1.4290818 1.603647 1.3625612 -1.4038155 -1.0861689 -1.2870349
0.15534544 -0.56701267 -0.31959713 0.20486309 -0.28399095 -0.7414043 0.051047713 0.015436724
0.44097248 -0.2312486 0.34166682 -0.44914877 0.07314986 -0.29094347 0.1358803 0.023698775
-0.08648201 -0.16850553 0.4367033 0.24242371 0.09701547 -0.46015504 0.26307446 0.33191997
-0.39238682 -0.42155412 -0.07020546 -0.29036555 0.3873619 -0.2611464 0.8332124 0.011219471
0.07300466 -0.27833214 -0.05883299 -0.19514742 -0.2385209 0.032927424 0.2603227 0.23065974
-0.1554396 0.45793203 0.19616993 -0.41747442 0.57665235 0.4716872 0.21571875 0.2804985
-0.57833815 -0.18377446 -0.36935368 -0.16745587 0.084774315 -0.038983114 -0.101577535 -0.17805791

bias f4 [20]
00000000: 1136 003f 0602 9ebf afa2 debe 663e a2be
00000010: ec57 9abe a0a9 98bd 9f37 c4bc 00b1 d93e
00000020: e7ad 87be be17 b9bf abf2 a13e 08a1 f33e
00000030: 0cc7 74be 6483 22bd c641 35bf 9f1a 853f
00000040: c241 ff3e 6276 2f3f 6bb7 813d 678f c03e
0.500825 -1.2344368 -0.43483493 -0.3168823 -0.30145204 -0.074542284 -0.023952303 0.42517853
-0.26499864 -1.446037 0.31630453 0.47583795 -0.23904055 -0.039676085 -0.7080349 1.0398749
0.49854857 0.6854001 0.06333812 0.37609407

weight f4 [20, 20]
00000000: f0cf 7e3e aefd 353f a018 85be 2057 08be
00000010: a0a6 d43e e1b3 20be 560b 14be 4463 613e
00000020: da8f d7be e490 1340 ca97 4cbe 5bd7 d2be
00000030: 97dc c7bb c7e4 f7bd 0f1a ebbd cb2c 9c3e
00000040: 54cf 89be 7ada ffbe 1500 47bd 1137 2b3e
00000050: ab7a 413e e101 433f b395 4b3d 78be 233e
00000060: 5824 503f 80a3 8ebb 7c3b 863e c196 86be
00000070: 0d53 e23e f108 0640 2672 c7be dfb7 0c3e
00000080: c098 bf3e 118f 24be 1463 9dbe 1ca6 f3be
00000090: 9c8c f5ba 7aa6 63be 6d96 c6be 210b 6d3e
000000a0: 462a 2fbe cbed 803f b5dd 083f 00e6 c43e
000000b0: bde3 2d3f 1399 9e3e c206 a1be ebff 10bf
000000c0: 2851 86bd 9456 0f40 d0c9 abbe 862a 3abe
000000d0: 660f 713e 2435 96be c715 913d ea85 e1be
000000e0: 08c7 e0be 3424 76bf 00f1 30bf 10af 75be
000000f0: fc43 e2be 888c 92bf d50d 343f 6a82 543e
00000100: 8a52 98bf b68d 11bf 9a78 a3be 1fe3 a33e
00000110: 64db a9bc 044d 36c0 b0cb 64bc fce7 e23d
00000120: b5dd c13e ea92 0abe 754e cc3e 0e41 60bf
00000130: aef8 e9be aecb 933f 86b8 cebd 2368 32bf
00000140: f49e 6cbe b1ec 57bf 0e55 e53e d23d 503e
00000150: e0f6 34bf 759a 20be 1fb4 ad3d 270e 423f
00000160: 3921 debe ecf5 00c0 fda5 35be 6a8a abbd
00000170: 8f75 3d3f 15dc 89be ed01 e13d dfbd c2be
00000180: 2118 00bf 60e5 0d3f bb05 c63e 9803 dbbd
00000190: 8a87 fabe 3a79 653f 2058 c13e 3fd4 033f
000001a0: c76d 923e f166 efbe 1f99 afbe 3eac fbbd
000001b0: 149b f5be 552a 0840 bd2f bbbe e129 75be
000001c0: 75cc 0d3f 2520 3bbf 47b9 bc3e e16c 4bbe
000001d0: 583d 85be d12b 52be 25c6 32bf 9dea 8cbe
000001e0: 84dd d53e b314 ccbe f9f4 183d 6a54 0f3e
000001f0: 1f31 cfbe 982f bb3e ee37 3dbd d76f a63e
00000200: 8c14 c4be 872d afbf 5be0 463e eb2a 7d3e
00000210: 793d 3fbe 3871 d63c 7a70 3f3d 2e8e 1e3e
00000220: d471 38be 9685 093f ad6e 883e 50ff 9cbd
00000230: ecea 30bf 9c6e 203f 77ce f73d 4d39 3c3f
00000240: 94f4 063f a7c2 34be 8b8e 573e eba5 a5be
00000250: 6b2c bbbd 8781 3240 8e53 2abe 6b41 58bf
00000260: 4cc5 2dbe d393 4cbe 48ed 8d3e f717 91be
00000270: cf53 88be f4bc 45bf 6107 f6bd 5f20 10bf
00000280: 969f 95bd 8919 cd3f ead2 193e b3af fe3e
00000290: b753 863f 50ef 163e aebe af3e dfb8 48bf
000002a0: 0e74 39be 606d 5740 0cf1 07bf 8782 303d
000002b0: 7f6c 403e c482 cabe 82ed 93be a326 bf3e
000002c0: 1503 c3bc e8a9 abbf d828 03bf a995 a33d
000002d0: fd2b 80be f2e0 8d3f 2f73 26be 42da bdbe
000002e0: 320b 213f 5a8a 17be d840 543e 3420 c1bd
000002f0: c9a9 dd3c 11f0 0840 8c2e d4be 2455 8e3e
00000300: 6eb8 25be 3a11 08be ae4d 29be 5593 a2bc
00000310: f1a6 5a3e 4f0e 72bf 437b e2be 2526 023e
00000320: a759 b83e e7f1 953f e9e5 88be c1c6 bebe
00000330: dbf7 bc3e e331 44be 01e9 fc3e 7439 a8be
00000340: d6c5 323e 31ac 3840 2d18 f7bc 163d cebd
00000350: 5998 85be 856e 1c3e 3657 19be 74f0 bc3d
00000360: cd86 a83e 5d80 9cbf 0790 6c3e d283 0c3f
00000370: b0af 263c 925b 943f 1086 d53e ad22 ad3e
00000380: bd72 513f c594 7e3e dcba ebbe cf1e 71bf
00000390: a387 d3bb 3f56 4440 a217 fcbd 4e84 60bd
000003a0: b17a 373f 079b fa3d c657 e13e 4e3a 03be
000003b0: 9688 3bbf e9c5 4dbf 8c46 4dbf 0028 5fbe
000003c0: 743a 243f 0931 4cbe f0b6 ffbe ad9f f3be
000003d0: de8b f5bd 1e95 d43e a40f c73e 57f7 aebc
000003e0: 7c4a e83e e362 7ebf c00c c13e 436e 273f
000003f0: 60d1 82bc 8ed7 283e 37ad 04bf 9bcb 413f
0.2488401 0.7109021 -0.2599535 -0.13314486 0.41533375 -0.15693618 -0.1445745 0.22010523
-0.42101938 2.3057184 -0.19979778 -0.41179928 -0.0060992944 -0.12104183 -0.1147958 0.30502924
-0.2691599 -0.49971372 -0.048584063 0.16720225 0.1889445 0.7617474 0.04970331 0.15990627
0.81305456 -0.004352987 0.26217258 -0.2628689 0.44203988 2.0942957 -0.38954276 0.13742016
0.37421227 -0.160702 -0.30739653 -0.4758767 -0.0018733921 -0.22231475 -0.3878664 0.23148777
-0.1710597 1.0072569 0.534633 0.38456726 0.67925626 0.3097616 -0.31450468 -0.566405
-0.06558448 2.2396593 -0.33552408 -0.18180284 0.2354103 -0.29337418 0.07084232 -0.4404748
-0.4390185 -0.9614899 -0.69117737 -0.23992562 -0.44192493 -1.1449137 0.70333606 0.20752874
-1.1900189 -0.5685686 -0.3192795 0.32009217 -0.020734496 -2.8484507 -0.0139645785 0.11079404
0.37864462 -0.13532606 0.39903608 -0.87599266 -0.4569754 1.1546533 -0.10093789 -0.6969015
-0.23107511 -0.8434554 0.44791454 0.20336083 -0.706892 -0.1568392 0.08481621 0.75802845
-0.43384722 -2.0150099 -0.17739101 -0.0837601 0.74007505 -0.26925722 0.109866954 -0.38035485
-0.5003682 0.55428123 0.38676247 -0.10694045 -0.48931533 0.896381 0.37762547 0.51495737
0.28599378 -0.46758226 -0.3429651 -0.12288712 -0.47969878 2.1275837 -0.3655986 -0.23941757
0.553901 -0.73095924 0.36860105 -0.19865753 -0.26023364 -0.20524527 -0.69833595 -0.27522746
0.41770566 -0.39859542 0.037343 0.13997045 -0.40467164 0.3655975 -0.046195917 0.32507202
-0.38296926 -1.3685769 0.19421522 0.24723403 -0.18675794 0.026177034 0.046738125 0.15483925
-0.18012172 0.5371946 0.2664694 -0.076658845 -0.6910846 0.62668777 0.12099927 0.73524934
0.52716947 -0.17652379 0.2105047 -0.32353148 -0.091393314 2.7891557 -0.16633436 -0.8447482
-0.16969794 -0.19978265 0.27720094 -0.28338596 -0.2662644 -0.77241445 -0.12013126 -0.56299394
-0.07305829 1.6023418 0.15021864 0.49743423 1.0494298 0.14739728 0.34325165 -0.7840709
-0.18110678 3.3660507 -0.53102183 0.04309323 0.18791388 -0.3955289 -0.28892142 0.37334165
-0.02380518 -1.3411226 -0.512342 0.0798753 -0.2503356 1.1084273 -0.16254877 -0.3708058
0.6290771 -0.1479887 0.20727861 -0.094299704 0.027058499 2.1396525 -0.41441762 0.27799332
-0.16183636 -0.13287821 -0.16533539 -0.019845644 0.21352746 -0.94553083 -0.44234666 0.12709863
0.360059 1.1714448 -0.26737908 -0.37261012 0.3690785 -0.19159655 0.49396518 -0.32856333
0.17458281 2.8855097 -0.030162895 -0.10070245 -0.26092795 0.15276535 -0.14974675 0.0922555
0.32915345 -1.2226673 0.23101817 0.5488864 0.010173723 1.1590445 0.41703844 0.33815518
0.818157 0.24861439 -0.46041 -0.94187635 -0.006455378 3.067764 -0.12309195 -0.054813676
0.7167159 0.122366 0.44012278 -0.1281521 -0.7325529 -0.8038011 -0.8018577 -0.21792603
0.6415169 -0.1994058 -0.49944258 -0.4758276 -0.11989568 0.41520017 0.3887912 -0.021358175
0.45369327 -0.9936964 0.3770504 0.6540262 -0.015968978 0.16488478 -0.51826805 0.757013

bias f4 [20]
00000000: 7080 9d3e 2447 0dbf b400 fabe 05a8 c9be
00000010: bd49 babd dd1b 03bf c4a3 4d3f a3c2 5fbf
00000020: 4de4 0ebe 651f d63e 7ab2 cc3e 5d16 f4be
00000030: beb6 7b3e fe20 44bf 5ac7 84be 4928 5dbe
00000040: e295 063c 3711 913f 6fb9 c23e a5f8 0abf
0.30762053 -0.55186677 -0.4882866 -0.39386 -0.09096096 -0.5121439 0.8032801 -0.8740637
-0.13954277 0.41820827 0.39979917 -0.47673312 0.2458143 -0.7661284 -0.25933343 -0.21597399
0.008214446 1.1333379 0.380321 -0.5428565

weight f4 [1, 20]
00000000: 8765 32c0 93ab 68c0 32f3 3cc0 3e7a 4740
00000010: b1a9 5b40 9c3e 18c0 a9a4 6240 7aaf 45c0
00000020: ac96 65c0 ef9c aec0 dc32 76c0 5dab 4bc0
00000030: 7cb1 1440 454f 57c0 6c2b 30c0 1b44 1e40
00000040: 9546 4d40 28f9 5940 9ed5 5f40 f506 45c0
-2.7874467 -3.635472 -2.9523435 3.116836 3.4322321 -2.3788214 3.5413 -3.0888352
-3.5873213 -5.456657 -3.8468542 -3.1823342 2.3233328 -3.3642132 -2.7526503 2.4729068
3.207433 3.4058323 3.4974132 -3.0785496

u_b f4 [2]
00000000: 8cbc 1e41 0ad7 1f42
9.921032 39.96

l_b f4 [2]
00000000: e09a 263d 0000 0000
0.040675044 0.0
