Iter_03/Models/Noise_0/simulation_00_10/ff_3200.pt (torch, 111261 bytes, 23 tensors)

weight f4 [20, 2]
00000000: 6183 bbbe aecf 363f 232e 92bf 43be 3c3f
00000010: 65c3 693d 7c47 e6bf c296 6f3f 12dc d43f
00000020: dc6c 76bf 261b 3cbf a44c 573e b6c5 32bf
00000030: 781b 0b3d 1b22 ebbe e11c cebe 770c 61bd
00000040: 8236 aabf e324 db3f ec25 01bf 4656 1fbf
00000050: 928c c9be d16a 943e afe1 b73e 65fd 37be
00000060: 4a87 a5bd b229 05bf 17b0 58be dcaa 4cbe
00000070: be4d 94bf e4b4 e8be 1442 0840 3856 82be
00000080: 17dc 383e 2bab 6bbf 81fc 8cbd b388 9abf
00000090: ecf8 b93e ad21 543d 2441 ddbe 0f27 b7be
-0.36623672 0.71410644 -1.142033 0.73727816 0.05707111 -1.7990565 0.93589413 1.662966
-0.96259856 -0.73478925 0.2102533 -0.6983293 0.033961743 -0.45924458 -0.40256408 -0.054943528
-1.3297884 1.7120632 -0.5044849 -0.6224102 -0.3936506 0.28987744 0.3591437 -0.17967756
-0.08082445 -0.52016747 -0.21160923 -0.19987053 -1.1586225 -0.4545051 2.129033 -0.25456405
0.18052708 -0.92058057 -0.06884099 -1.2072967 0.36322725 0.05178993 -0.4321376 -0.35771987

bias f4 [20]
00000000: 9824 75bd 33e7 203d 8579 adbd 51c7 edbe
00000010: 0268 893f 2c7e d9be dc0b d93e 6e37 1d3f
00000020: 0c90 c03e 1743 843c 7b8d 99bd 3a60 66bf
00000030: 4a71 adbf dc4a 7b3f 0266 473f 779f 03bf
00000040: d205 9fbe 1f29 94be ce21 f3be 460b a2be
-0.05984935 0.03928299 -0.08470444 -0.4644113 1.0734866 -0.42479074 0.4239186 0.61412704
0.376099 0.016145272 -0.074976884 -0.8999058 -1.3550198 0.981611 0.77890027 -0.514152
-0.31059128 -0.28937623 -0.47486728 -0.31649226

weight f4 [20, 20]
00000000: 1c08 a73e 2489 eb3e c33d 303e b7fc 193e
00000010: e3d6 92be 14de 9ebe d66e 8e3e 806f 6ebe
00000020: 75c5 223e f2d2 143f da34 be3e dae9 253e
00000030: f0f2 013f 0928 c53e 190d 533d 01c1 bcbe
00000040: 3828 08bf e338 f53e fe0d cfbd 8bf5 ce3d
00000050: 7090 ad3e db71 663e 1b05 1d3e baa1 99bd
00000060: fd60 abbe 9abc 22bf 3cd6 a7be b07f a8be
00000070: 1817 be3e 58bf cebc f87c 4abd 38b6 f9bd
00000080: a3aa 81be 4fd4 9a3e 1129 f9be 37f2 a4bc
00000090: f40d 4cbd 3f7d e43e 291d 3e3d cb7a 12be
000000a0: dafe 9e3e 018b 213e 660d fcbd ba30 f0be
000000b0: 9f79 233f ffce 08be 34a7 df3c f471 5b3e
000000c0: ce58 173e 69c6 5dbe c337 4dbe 0ab6 023e
000000d0: d9f2 bbbe f9a6 093e d3ff 07bd 8faf 10be
000000e0: 4066 98bc 7428 1c3d 9491 8cbc 28e8 01bf
000000f0: 3e0f 923e 2245 8a3c 3dbb 0fbf da86 3a3e
00000100: 5cd5 4d3e ab3f 473e 4260 9cbe f937 443e
00000110: f7a8 2abe 8c59 0e3e ebe2 213e a51c 233e
00000120: 8343 4d3e 1172 25bd a663 233e a694 103e
00000130: 85c0 fcbe 867d 98be 1935 1b3e 897a 763e
00000140: 5063 ad3e e786 2b3c 5721 a8bd 6533 983e
00000150: 561a b1be 9c5a 5cbe 7bff 663d 238f 943e
00000160: 7e1b 0a3e 8325 15be b723 113e 6380 5a3d
00000170: 86a0 31bd 40e0 96be c160 32be 1299 2d3e
00000180: db97 b9be ac11 1abe 2177 593d 5cca a43e
00000190: f573 b3bd 1679 de3c f9c4 1a3e 70e3 55be
000001a0: 6cee ad3e 66c0 a33e e0c5 2dbe 9990 a63c
000001b0: fd76 a73d 3126 6cbe 744a b43d 9667 09be
000001c0: 718f a8be 85e6 80be c076 423f 2499 a93d
000001d0: 68bc 04be 245f bcbd de34 1d3e 2076 8c3e
000001e0: 821f f8be 6469 c7bd 67d9 7b3d 3961 43bc
000001f0: ea92 80bd b447 ebbe 5a4b 5e3e 83cb 893d
00000200: 026c 5e3e ba13 85be 2bee 013e 5ee6 0abe
00000210: 6427 033d 3b61 12bd b1bb 943e a61b e53d
00000220: f5c5 44bd 2504 77be a707 8a3d 52b5 1dbe
00000230: 70a7 a63e e785 1a3f 2413 4b3d 52b4 033e
00000240: c0d2 be3d 6cf0 1dbe 91ba bcbe b7f4 2cbd
00000250: 2b8f 4b3e 0330 97bd d87d d73d 214b d43d
00000260: 3b9e 6b3e c44f 1abe 76f9 4ebe 94bf efbe
00000270: 8199 fcbe b18e e0bc 11ac 10be a1b6 0c3e
00000280: facd b4bc e585 9abe 386e 31bf 6c8f 263f
00000290: a106 f5bd fbf4 463f dfdf 25bf c474 f7ba
000002a0: bf5f 40be 7596 03bf 21a2 e23d 718f e93e
000002b0: 1046 073f 410e 60bf fb3c bd3e de05 553f
000002c0: 3cc8 8b3f ff2c 30bf 44eb a43e 603a 983d
000002d0: b45d af3d b34c c53d 6246 ff3e 7913 e03d
000002e0: fb46 f43e e05c 323e c58d 843e d19d 993d
000002f0: 0ec6 de3e 2036 4a3e 880c ab3d fb88 95be
00000300: f86e a2bd 8c67 c63e 0628 34be 333d 88be
00000310: 0590 a73e fdef 1c3e d82f 6abe 2f05 083c
00000320: 3c9e a73e dee2 f53e bd84 7dbf f8cb 7f3f
00000330: 5b76 b4be e62e 01bf 0d4b 91be 68c6 60bd
00000340: 6e7e 873f d2ab 30bf 6877 6b3e 13e6 77be
00000350: 5418 52bf 0a02 3bbe dd6a c9bd e4e8 afbe
00000360: afb5 91bf f67e febe 62c1 6d3d 7ff7 adbe
00000370: 2eb6 e7be 871c d43d f26b 313e 0980 a53e
00000380: 0904 a5bd 1c09 203e ed60 11bd 7547 03be
00000390: 860c 62be 6bae 753e d73b 943d 2ec2 033f
000003a0: b5b0 36bd 9dc8 74be 8f88 933e 099d 0cbe
000003b0: 47f4 2f3e 4eb9 05be 7faa 823e db09 5a3d
000003c0: 5ac3 c4be e59f 843d 7da7 0c3e d6b7 c2bd
000003d0: ae36 58be 450f f83e 6825 95bd 5e77 a5bd
000003e0: 7dfa a23d 3d43 113e 3842 0bbe 6b3d 953e
000003f0: c948 8e3e 166f 4fbe 8481 a33d b553 413e
0.32623374 0.46003067 0.1721106 0.1503781 -0.2867957 -0.31028807 0.27818936 -0.23284721
0.15895636 0.58134377 0.37149698 0.16202489 0.5076132 0.38507107 0.051526163 -0.36866
-0.5318637 0.47894964 -0.10110091 0.10105427 0.3389926 0.2250437 0.15333979 -0.0750155
-0.33472434 -0.63569033 -0.32780635 -0.32909918 0.37126994 -0.025237724 -0.049435586 -0.121929586
-0.25325498 0.30240104 -0.48664144 -0.020135028 -0.049817994 0.44626805 0.046414528 -0.14304654
0.3105381 0.15775682 -0.12307243 -0.46912175 0.63857454 -0.13360213 0.027301408 0.21430188
0.1477997 -0.21657719 -0.20040803 0.12764755 -0.36708716 0.13442601 -0.033202957 -0.1412947
-0.018603444 0.038124517 -0.01715926 -0.5074487 0.28527254 0.016878668 -0.5614508 0.18215504
0.20100921 0.19457881 -0.3054219 0.19161977 -0.16666017 0.13901347 0.15809219 0.15928896
0.20045285 -0.040391985 0.15955982 0.14119205 -0.4936563 -0.29783267 0.15156974 0.24070181
0.33864832 0.010469175 -0.08209484 0.2972671 -0.34590405 -0.2151894 0.05639599 0.29015455
0.1348705 -0.14565091 0.1417378 0.053345095 -0.043365978 -0.29467964 -0.17419721 0.16952923
-0.3624867 -0.15045804 0.053092126 0.32185638 -0.087623514 0.027157348 0.15114202 -0.20887542
0.33970964 0.31982726 -0.16970015 0.020332621 0.08176992 -0.23061444 0.08803263 -0.13418421
-0.32921937 -0.25175872 0.7596245 0.082811624 -0.12962496 -0.09197834 0.15352198 0.27433872
-0.4846154 -0.097368985 0.061486628 -0.011925035 -0.06278022 -0.45953143 0.21708432 0.0672827
0.21720889 -0.25991613 0.1268851 -0.1356444 0.032019988 -0.035737257 0.29049447 0.11186914
-0.04804035 -0.24122675 0.06739741 -0.154012 0.3254962 0.6036057 0.0495788 0.12861755
0.09317541 -0.15423745 -0.3686109 -0.042225566 0.19878833 -0.073822044 0.1052205 0.10365892
0.23009579 -0.1506949 -0.2021235 -0.4682585 -0.49335864 -0.02741179 -0.14128138 0.13741542
-0.022070874 -0.30180278 -0.69308805 0.65062594 -0.11964155 0.7771756 -0.64794725 -0.0018879403
-0.18786524 -0.51401454 0.1106608 0.4561725 0.5284128 -0.8752175 0.36960587 0.8321208
1.0920482 -0.6881866 0.32210743 0.07433009 0.08562794 0.0963377 0.49858385 0.10941214
0.47710404 0.17418242 0.25889412 0.07500804 0.4351048 0.1974721 0.083519995 -0.2920607
-0.07931322 0.38750875 -0.17593393 -0.2660919 0.32727066 0.15325923 -0.22869813 0.008302017
0.3273791 0.48024648 -0.9903067 0.99920607 -0.35246548 -0.50462186 -0.28377572 -0.054876715
1.0585458 -0.69012177 0.22994769 -0.2420886 -0.8206837 -0.18262497 -0.09834836 -0.3435737
-1.138357 -0.49706239 0.058045752 -0.33977887 -0.4525618 0.10357004 0.17326334 0.32324246
-0.0805741 0.15628475 -0.035492826 -0.12820227 -0.2207509 0.23992316 0.07237976 0.5146817
-0.044602115 -0.23904653 0.28815123 -0.13731779 0.17183028 -0.1305897 0.25520703 0.053232055
-0.3843029 0.0647581 0.13735767 -0.0950772 -0.21114609 0.4844915 -0.07282525 -0.08079408
0.07957933 0.14185806 -0.13599479 0.2914842 0.27789906 -0.2025722 0.079836875 0.18879588

bias f4 [20]
00000000: 02ef ca3e 6917 fd3e 91a3 da3e 0225 8f3c
00000010: 4f00 093e 0537 003e 144b 83bd 7bd9 1d3e
00000020: aab6 03c0 fe2f 223f 916a cc3d 8d23 f93d
00000030: 6edb 8bbf d7ce bfbe 0c62 a9bf 66a2 1ebd
00000040: 1d91 043f fb48 bbbf a6bd 0b3e 3769 c53e
0.39635473 0.49431923 0.42702916 0.017473701 0.13379024 0.12520988 -0.064108044 0.15414993
-2.058024 0.6335448 0.099812634 0.12164984 -1.092634 -0.37462494 -1.3233047 -0.038729094
0.51783925 -1.4631647 0.13646564 0.38556835

weight f4 [20, 20]
00000000: 5f55 ba3e 9ce2 c3bd 4ad8 e03d 2fb6 00be
00000010: 3f19 1e3c 5d48 06be 6213 5d3c 8695 ab3e
00000020: 845c 82bf 7c45 b13e 6c6e 923c 8a05 fe3e
00000030: e329 053e 3aa8 cf3c 9143 f73b e378 babe
00000040: 8076 933e 832f 5abe 4c9e 643e a760 b1be
00000050: dc8d 8b3e 5be2 b03d f071 883c 9f62 fabd
00000060: 0cc1 9abb 552e a33e 1213 453e 676a 3dbe
00000070: 3157 ac3c 2b7b b43e c822 e0be 1cd2 e13e
00000080: 969c bfbd e2a8 a9bd 140c ccbd fca8 6b3e
00000090: 0a5b 5a3c b2a2 a03e 5eae 133e 4bfa 44bc
000000a0: d680 a6be 9279 54bd 7134 0c3e 0bcf 1dbf
000000b0: e202 65bc 6c84 663e 09cc 123d 8dc3 d8bd
000000c0: acf7 e8bc 03dd db3e d73b 37bf b78c 9cbd
000000d0: 5ac9 d8bd 339e d8bd 67fa 9cbe 3252 cf3e
000000e0: d7fb a53e 96bf d43d 3e6a babd 211d 323e
000000f0: 68fe 3f3e b262 8f3e 7b29 0fbe fb0b 81be
00000100: ea2c 06be 7ce1 7abe e7be 22bf 265b a8be
00000110: bec4 97be aae9 313c e947 0cbf 9dd9 d33d
00000120: 66c1 56be 7877 4bbe 593a 84be 1548 db3d
00000130: e288 75be 2ef5 20be 124f 913d b1ea e53e
00000140: f14d d73e 6674 ac3c 7b67 99bd 1ef8 e43c
00000150: 87b8 f83e 690c c5be 3e07 90bd 4e97 e2bd
00000160: 5666 ae3c 73b1 173b 6913 b1bc 7488 84be
00000170: 2dce 20be d6d0 19bf be11 053f 8c58 04be
00000180: 095c c1be cc2d bebe 389c 913e de16 843d
00000190: c508 38be 19d3 79be 6565 b4bd f1a4 be3d
000001a0: 4bf7 32be 3b39 d1bc 0fcd 463e 6149 91be
000001b0: 285d fa3e 474e 1bbe c326 443e bffe e5bd
000001c0: 8c3e c63e 0955 7d3e 23be 2a3f 2982 52bd
000001d0: 39ad 823d e22a 5e3e da8c 04bc f139 f7be
000001e0: 476c ea3e 1b33 483e 8c54 21bd 1a5b e23c
000001f0: 1fa6 d43e a370 2cbe c339 2fbe 21f5 773e
00000200: 02a1 09bf 7515 223e 1fe0 db3e c505 813e
00000210: 4ea3 9bbe 737a 1f3e 60ed debe 1dd1 dfbd
00000220: 3418 88bd 2bbd 5abf 3b84 52be 8cc1 a9bd
00000230: 388c 8cbe eda3 7a3d a099 2dbd fe6a 9d3e
00000240: d864 a9bd 9ded 7bbc b6f3 40be fa0e 923e
00000250: 97ee 0c3f a880 5e3d bc60 0e3e 9492 37be
00000260: 6cd2 d9bd 1c23 4fbd c6b2 4d3e 2770 7f3e
00000270: 4b79 83bd cd4b d53e c5b4 9ebc cada cb3d
00000280: c9ac 79bb dd1d 13be 26e6 90be 2c92 003f
00000290: d531 7c3e 18ed eb3d e97d 263d ca95 8bbd
000002a0: 1866 143e cf1c 10be 9215 643e 45b1 4d3e
000002b0: eb51 6dbe e050 70be 18e5 a83e 383f 21bd
000002c0: 2b1d adbd 8f05 24be 0cb6 ca3e 693d 99be
000002d0: cfd2 153f b577 61be 7b69 f4bc de85 c4bd
000002e0: 4a6e ccbe 7e56 d43e f8bb c5be b1d3 603e
000002f0: 53fd 58bd 7201 0c3e e77d 9dbd 4b2c 143e
00000300: ead8 c9bd 4bf7 66bd 3361 92be d432 dc3e
00000310: 841d 253e 0d14 423e 33af 9c3e e2c3 51bd
00000320: 59bf 3e3e ff13 0f3e 32e8 9a3d 9f7f 00be
00000330: 7aba 5f3e e17e a93c 7aef b93d c51d 19be
00000340: 191d 91be 9328 853e 36e9 38be 1e62 643e
00000350: b80f 06be 9457 9b3d db65 e6be e8f2 aebc
00000360: 6644 9f3b 43d8 05bf b52e 6dbe 03da b0be
00000370: a393 b8bd c8d2 3fbc 58e3 42be 4399 29be
00000380: 1083 833e 8110 82be 965c 36bc f637 e6bd
00000390: f9c5 88be 1433 af3d 8282 53be f9a1 243d
000003a0: fd8e cf3e 9e43 a43e b0a8 c93d 84d5 6e3e
000003b0: 9c02 04bd a3ff 533f 2711 88be 399a 893b
000003c0: 485b 83be be8b 1e3e bca5 8cbe 5568 263d
000003d0: c476 833e 7dd7 a8be e9ab 0b3d a808 8e3e
000003e0: cb3f 343d 9952 773d 6da1 a63e c3d8 0cbe
000003f0: 40e2 87be 9f64 c9be b9dc 773e fc71 3fbf
0.36393258 -0.09564707 0.10978754 -0.12569498 0.009649574 -0.13113542 0.013493391 0.33512515
-1.0184484 0.34623325 0.017874919 0.496136 0.1300426 0.025348771 0.0075458963 -0.36420354
0.28801346 -0.21307187 0.2232601 -0.34644052 0.27256668 0.08636924 0.016655892 -0.12225842
-0.00472272 0.31871286 0.19245556 -0.1849762 0.02103767 0.3525022 -0.43776536 0.44105613
-0.09356038 -0.08284165 -0.09963241 0.23013681 0.0133273695 0.31374127 0.14421985 -0.012022565
-0.3252017 -0.05187375 0.1369188 -0.6164405 -0.013977738 0.22511452 0.035839114 -0.10584173
-0.028438412 0.42942056 -0.71575683 -0.07644027 -0.1058528 -0.10577049 -0.30659792 0.40492398
0.324187 0.103881046 -0.09102295 0.17393924 0.18749392 0.28004986 -0.13980667 -0.25204453
-0.13103071 -0.24500078 -0.63572544 -0.3288204 -0.2964229 0.0108589325 -0.54797226 0.10344241
-0.20972213 -0.19869792 -0.25825766 0.10707108 -0.23977998 -0.15718529 0.070951596 0.44905618
0.42051652 0.021051597 -0.074904405 0.027950343 0.48578283 -0.3848603 -0.07032631 -0.11064015
0.021289032 0.002314654 -0.0216157 -0.25885355 -0.1570365 -0.60084283 0.519802 -0.12924403
-0.3776553 -0.37144315 0.28439498 0.06449674 -0.17972095 -0.24396934 -0.08808402 0.09308804
-0.17477147 -0.025539985 0.19414161 -0.28376296 0.48899198 -0.15166579 0.19155411 -0.112302296
0.38719594 0.2473947 0.66696376 -0.05139366 0.06380696 0.21696046 -0.008090222 -0.48286393
0.45785734 0.19550745 -0.03938727 0.027631331 0.4153299 -0.16839842 -0.17111878 0.24214603
-0.53761303 0.15828498 0.42944428 0.25199714 -0.3039803 0.15574054 -0.43540478 -0.10928557
-0.066452414 -0.854449 -0.20558254 -0.08288869 -0.27450728 0.061191488 -0.042382836 0.3074569
-0.082711875 -0.015376476 -0.18842968 0.2852705 0.5505156 0.054321915 0.13904089 -0.17927009
-0.10635838 -0.050570592 0.20087728 0.24945126 -0.06419619 0.41659394 -0.019373307 0.0995384
-0.0038097373 -0.1436686 -0.2830059 0.5022304 0.24628384 0.115198314 0.04064742 -0.06815679
0.1449207 -0.1407349 0.22273853 0.20087154 -0.2317578 -0.23468351 0.32987285 -0.03936693
-0.08452829 -0.16017745 0.39592016 -0.29929665 0.58524793 -0.22018321 -0.029835453 -0.09595846
-0.39927894 0.41472238 -0.3861997 0.21955754 -0.052975964 0.13672426 -0.076900296 0.14470021
-0.09855826 -0.05638818 -0.28589782 0.4300753 0.1612454 0.18952961 0.30602416 -0.0512122
0.18627681 0.13972472 0.07563819 -0.12548684 0.21848479 0.020690383 0.0907888 -0.14952762
-0.28342512 0.26007518 -0.18057713 0.22303054 -0.13091934 0.075850636 -0.44999585 -0.021356061
0.0048604487 -0.52283114 -0.23162349 -0.3454133 -0.090125345 -0.011707969 -0.19032037 -0.16562371
0.2568593 -0.25403216 -0.011130473 -0.112411425 -0.2671354 0.08554664 -0.20655254 0.04019353
0.4053878 0.32082838 0.09846628 0.23323637 -0.03222905 0.82811946 -0.26575586 0.004199293
-0.2565558 0.15482995 -0.27470195 0.040626843 0.25676548 -0.32976905 0.034099493 0.2774098
0.04400615 0.060381506 0.32545033 -0.13754563 -0.26539803 -0.3933458 0.24205293 -0.747833

bias f4 [20]
00000000: 9f23 5a3e 2d04 163f d190 a5be 5424 97bd
00000010: bd3c e73e a0f7 b6be 1208 873f c3d3 0abf
00000020: 1882 46be 2a1a 5abf e66c 123f fefe b7be
00000030: 5c9c 6e3e e7b3 aebb fbf8 0fbf def5 993f
00000040: fcf4 303f 3862 953d 0abe febe bca5 1bbf
0.21302651 0.5860012 -0.3233705 -0.07379976 0.45163527 -0.35735798 1.0549338 -0.5422937
-0.19385564 -0.85196173 0.57197416 -0.3593673 0.23301834 -0.0053315046 -0.5623929 1.2028158
0.69123816 0.07294124 -0.49754363 -0.60799766

weight f4 [20, 20]
00000000: 34c6 293e 0606 933d 48b1 063e 9fdf 29be
00000010: b966 0c3f e0ad 21be b86c c63e 3704 e8be
00000020: 3b0d 973e df55 32bb 6e31 953e 96ce b2bd
00000030: c22a a53e 71fb ab3e ea9e adbe b306 233f
00000040: 9767 4f3e 86f6 fc3e bc8c 863d 1b69 28be
00000050: d767 9e3d 5d5a 06be 52a8 16be 18b6 133d
00000060: 1b1b 7c3e 7816 bc3e f721 d43e ead1 213d
00000070: 4551 0cbe 6662 313e a7cd a5be fb03 a8be
00000080: 97c2 bdbe 4e1f 153f f92b e1bd 796b c6be
00000090: b997 a13e 2206 283d bbd3 cabd d18c 533e
000000a0: 731a 2fbf 9190 02be 6d98 0a3f 313e c63d
000000b0: fb0c d1be 3937 4b3f ec56 39bf 070c 3f3f
000000c0: 6176 113c 9ccb 513f a8e3 f0be a271 6b3e
000000d0: f3bb 3dbf 4ff2 1fbe a7d9 2c3f 6113 a5bf
000000e0: 9daa fabe bdcb 1bbe c938 293f a8f1 d43e
000000f0: f3bf 70be ad27 8cba 1322 043e c617 773e
00000100: 9f8f ecbc a592 6ebd 377e 393e 229f 2a3e
00000110: 670a 52bd 2ad5 f33d add1 9a3e 4319 f4be
00000120: d3e1 50bd 715a 863e 2882 ff3c 318f ee3c
00000130: bfbf 06be 4b83 dd3e 3b9c 2c3e 2199 07bf
00000140: 613a 4e3e 84bc 68be c1e6 7bbd 6cb4 753c
00000150: 6352 313e be68 9b3e b7c8 cbbd f60e c33d
00000160: 60f2 dabc 434a 35be 06e2 fb3d ed2b 9c3d
00000170: 5bf9 28be a213 1e3e 47f2 b2bb e901 5abe
00000180: 2d53 41be 46c0 08bf baf4 82be b303 f03c
00000190: 94c7 a33c 72f5 183e cd23 2c3e cfad 3f3e
000001a0: f57c 343e 21a6 15be f0a4 abbe ee57 50be
000001b0: 59e4 b23d 129f f53d 668e ccbd 561c 1cbe
000001c0: 07ed 0bbe 2b6a 973e 6b46 30bf 8d81 8f3e
000001d0: 60ec c3be bec1 4e3e 3d65 7e3e 21ac 763d
000001e0: 9a80 05be 5915 cd3e 5bda ea3d ee37 acbd
000001f0: 11aa b7be 4b0c f03e cf60 623d bd9b 8dbc
00000200: 9a47 6cbe d1d4 5d3e e143 34be ada7 cabe
00000210: ddd8 063e 04b4 a1be 1679 bf3e d3a5 1bbd
00000220: bedb 213f 60db 3cbe 3756 de3d 3945 8abe
00000230: a74d f7bd 76e1 f9bd e739 d4be 0eda 933e
00000240: a096 0ebf a546 583e 4b37 ef3e 6559 c73c
00000250: e9d3 a6bd d0a9 20be 731c 0e3f 3d86 e4be
00000260: 3d2a ba3e 63db 6bbe b9b9 bfbe b8d4 f03e
00000270: 86f4 c3bd 5325 83be 69b5 1bbf de9c 8cbe
00000280: cc6b 873e a507 c7be 1d1c 15bf a5da d6be
00000290: a0ed 523e 425e dc3d 0541 56be 7320 983d
000002a0: 92e3 b23e a9e1 85be 353d 35be 059e 88be
000002b0: 0feb f43e f9e1 043e dee4 093f 9600 f1be
000002c0: 4635 2a3e 9d71 673d 37d7 483e 7d65 4b3e
000002d0: fb4d b53e 9d61 023e d898 8e3c 3a4d 66be
000002e0: 05e0 80bd af21 4bbe 8a07 0bbe 5e94 ba3d
000002f0: 96a2 b9bd 4078 c93e 4b70 36be caaa 41be
00000300: 3aea bebe f37f 113e 0394 993e 7f29 86be
00000310: 9698 3bbe 1de9 ecbe b175 5ebe c877 403c
00000320: 530f 1f3e 7029 103f f396 803c 20e3 b53e
00000330: 024f 843b 7db4 cbbc df3b 86bd 09be 30be
00000340: 1598 423e f9b3 853e 8fd1 9fbd 2594 883d
00000350: de54 443e 21fa 233e fd7b 24be e768 593c
00000360: 1f5a e4be bf7e 1cbf 72c1 8e3d b75b f4bd
00000370: aa15 d53d 4fd3 863e 7ee6 293e 91e8 e83c
00000380: ac46 ddba 5d39 363e 1e63 543e 9ac3 82be
00000390: 1e24 d2be 7b7c 9ebe aa14 9d3c 7bdb 53be
000003a0: 1908 12be 361a 9cbe c654 45bd a74b 8a3e
000003b0: 8628 413e 40e7 efbd beda 69be 7215 083d
000003c0: 31d2 6a3e d374 1abb 196a 163e 467a 833e
000003d0: e63b 3dbe b6fe 39be 5fb7 bb3d ae21 8dbe
000003e0: 1073 b13d b403 e73d 159f babc cf1b aabc
000003f0: 90f4 88be 816e 7fbd b2c4 9d3e 2591 063f
0.16579515 0.07178883 0.13153565 -0.16589211 0.5484424 -0.15788984 0.3875482 -0.45315716
0.29502282 -0.0027211828 0.29139274 -0.087308094 0.32259184 0.33590272 -0.33910304 0.636821
0.2025436 0.49406832 0.06569812 -0.16446345 0.0773465 -0.13120408 -0.14712647 0.03606233
0.24619715 0.36735892 0.41432163 0.03950683 -0.13702877 0.17322692 -0.32383463 -0.32815537
-0.37062523 0.5825089 -0.10994715 -0.3875387 0.31561068 0.041021474 -0.09903666 0.20659186
-0.68399733 -0.1275046 0.54138833 0.09679831 -0.40830216 0.7938114 -0.7239826 0.7462773
0.008878321 0.8195131 -0.47048688 0.22992566 -0.7411491 -0.15619777 0.6751961 -1.2896539
-0.48958293 -0.15214439 0.6610227 0.4159062 -0.23510723 -0.0010692977 0.12903623 0.24130163
-0.028877078 -0.05824532 0.18114553 0.16662267 -0.05127945 0.11905892 0.30238095 -0.47675523
-0.050996613 0.26240876 0.031189993 0.029121013 -0.13159083 0.4326423 0.16856472 -0.5296803
0.20139457 -0.22728163 -0.06149936 0.014996629 0.17316584 0.3035335 -0.09950393 0.09524338
-0.026726902 -0.1770411 0.1229897 0.07625566 -0.16501372 0.15437177 -0.0054610106 -0.21289791
-0.18879385 -0.53418386 -0.25577337 0.029298639 0.019992627 0.1493738 0.16810532 0.18718646
0.17625792 -0.14614154 -0.33524275 -0.20346043 0.0873496 0.11993231 -0.09988098 -0.15245184
-0.13664638 0.29573187 -0.6885745 0.28028527 -0.38266277 0.20191094 0.24843307 0.06022275
-0.13037339 0.4005535 0.11467429 -0.08409105 -0.35871938 0.4688438 0.055268105 -0.017286176
-0.23074189 0.21663214 -0.17604019 -0.3958105 0.13168664 -0.31582654 0.3739707 -0.03799994
0.63225925 -0.1844306 0.10856288 -0.27005938 -0.12075358 -0.122012064 -0.41450426 0.288773
-0.55698586 0.21120699 0.46721873 0.024334619 -0.081458874 -0.15689778 0.5551216 -0.44633666
0.3636035 -0.23032908 -0.37446383 0.47037292 -0.095681235 -0.25614414 -0.60823685 -0.2746343
0.2644943 -0.3887302 -0.5824602 -0.41963688 0.20598459 0.10760166 -0.2092324 0.07428064
0.34939247 -0.26148728 -0.1769913 -0.2668306 0.47835585 0.12976827 0.5386485 -0.4707076
0.16621885 0.056504834 0.19613348 0.19862933 0.35411057 0.12732549 0.017406866 -0.22490397
-0.06292728 -0.19837068 -0.13577095 0.0911033 -0.09064214 0.39349556 -0.17816274 -0.18912807
-0.37288076 0.14208965 0.29995736 -0.26203534 -0.18319926 -0.462716 -0.21724583 0.011747308
0.1553319 0.5631323 0.015696978 0.35524845 0.004037739 -0.024866337 -0.06554388 -0.17259993
0.19003327 0.2611387 -0.07803642 0.06668881 0.19173 0.16013385 -0.16062923 0.01326964
-0.44600007 -0.611309 0.069704905 -0.11931556 0.10404523 0.2633309 0.16591832 0.028431209
-0.0016882024 0.1779532 0.20740935 -0.25539857 -0.4104318 -0.30954346 0.019174892 -0.20689194
-0.14260902 -0.30488747 -0.04817655 0.27010843 0.18863115 -0.11714029 -0.2283735 0.033223577
0.22931744 -0.0023568168 0.1468891 0.25679225 -0.1847988 -0.18163571 0.09165835 -0.27564758
0.086645246 0.11280003 -0.022780934 -0.020765213 -0.26749086 -0.062361244 0.3081413 0.5256522

bias f4 [20]
00000000: 31d7 0c3f 9450 083f aa5a 82bf f7c9 b33d
00000010: 9253 1e3e 7368 e6be 0e0e 063e 7620 223f
00000020: a757 b93d f2cb ddbd 057f b2be b890 1e3f
00000030: 0b74 103f 2b55 dc3e d530 5c3e 9f09 35be
00000040: 14be 69be c6f3 453e 7556 adbe 86f5 0a3f
0.55015856 0.5324795 -1.0183918 0.08778756 0.15461567 -0.45001563 0.13091299 0.6333078
0.090499215 -0.10829915 -0.34862533 0.61939573 0.5642707 0.43033728 0.21503003 -0.17679451
-0.22826415 0.19331273 -0.33855024 0.5428089

weight f4 [20, 20]
00000000: 28c2 a33d a1ca 4d3e 0088 893e fd00 883c
00000010: ceb9 3b3e ef42 1e3e 232f 86bd 52bf 74bd
00000020: d214 183f d9e5 b23e 4f7a e03d 6d3a 8d3d
00000030: 90c5 033d f02f 3fbe cdd1 b53c 2d0f 89be
00000040: 5d82 c83d 1a3d e63d c52c 68be e061 acbd
00000050: 2fea 753d 05b5 9a3d 9191 d23e 1d78 153e
00000060: edb3 af3d c1a7 88be cf65 e53d 3db3 a5bd
00000070: 4907 2e3f 7364 e3be 61a7 bcbe 6346 c3bd
00000080: 0f72 513c 09df 04bd 18b1 8ebe 0a44 3abf
00000090: a4a3 55be 4800 233f f15c 80be 38fb 293e
000000a0: 22db cd3e a288 d13e 30af 33bd 7435 b03e
000000b0: 5e4f 84be bb33 bdbe 7109 6e3e f3d4 a63e
000000c0: 95d3 36bd 8e90 34be 5dd9 17bd 2adc 703e
000000d0: 8fbf 563e 2faf ff3e 4a71 9dbd d5cb aabe
000000e0: ff0c efbb 3fa1 03be 1888 08bf 84f3 a83e
000000f0: 4357 55bd 1352 6d3e 8f4f 593e dd60 763d
00000100: 4d86 9d3d bc41 c3bd 59f3 6abd 75f4 4f3e
00000110: b347 efbd b9d8 8cbd 426a 9d3c 49c4 bebd
00000120: bdae bb3e 5089 a43e 13b4 453e 98ab 363e
00000130: baa1 94bd a9a4 b43e 470d 583d c10d 8b3e
00000140: b8b1 70bf 299b a83b e938 b63f e1d2 bfbe
00000150: 688d f5be c6e8 f03d 7c68 8d3d 2a44 14bf
00000160: 0012 dd3d 8cda 3f3f 17d0 ee3e 2b71 9abe
00000170: 28f6 95bf 184c d0be 05ed 5ebf 2841 e5bd
00000180: 2a93 b5be 329f df3e 8787 c13b 9b69 f8be
00000190: 4723 96be 605b 3a3e beca 3c3e 69a7 a53d
000001a0: 8a70 b43e 12d1 893b 5400 c2be efb5 593b
000001b0: 75d4 2d3e 1910 45be c750 9ebe eb3f bebe
000001c0: 458c 1ebe 7dda 4f3e 0186 bcbd ac9e fb3e
000001d0: cc2f 2abe 744f 37bc 18a8 c5be 1ccb e3bd
000001e0: 657f 633e 97f5 cb3e 5923 483e fe7c b23e
000001f0: 7bca 29bd 665b de3d 08f1 fbbd adf5 883e
00000200: 738b ec3d ad08 21be 4b96 7dbe e871 f43d
00000210: 8b7f ba3d 197d 2d3d 508d 173e 512e 60bd
00000220: a9d9 aa3d 8afd 913e b549 66be 3577 c73e
00000230: 6b42 5bbf 7cc7 b8bd c4dd 7e3f 6f83 ebbe
00000240: bb1d 96be 23ba 2a3d ecee ee3d 9c3e acbe
00000250: f6ac 23bd dad6 6a3f 87a7 093f 97a3 d6be
00000260: 7fbe edbe f1c3 b4be 046f fbbe 6450 81be
00000270: 864f ccbe 4ed4 5b3e c0f4 133e 7c9d 86be
00000280: b11d a7be 4818 5fbe d5fd b13d e682 10bc
00000290: 0429 78be ef13 8dbe c67d c8bd 8387 e8be
000002a0: 49cd cfbd 0c4b cf3e b2a2 573e 7da2 bdbe
000002b0: 405b d5be 20a6 bc3e b6a4 53be 8421 5e3d
000002c0: 8aac aabe 1e8d a4bd d316 2a3d c072 d0bd
000002d0: 3a91 6bbe 2676 e93e d49c 1f3f 3325 a73a
000002e0: 9185 26bd 514b 85bb e52b 97be 4c72 bd3e
000002f0: f840 0c3f 4236 453e 04a0 353e 015f 73be
00000300: aea8 0abf 60d6 d03e 7012 11be d378 b2be
00000310: bef1 afbe 7491 503f fe03 30be 6608 413d
00000320: efa7 553d dd67 95be 6e95 023e 6d38 4d3e
00000330: 2536 4dbe d8a6 853e 8e85 e2bd cf4b 8fbe
00000340: 959e ec3b 8ea4 04bf 639b df3d 4c2e 923d
00000350: bb7c a9be 17c7 41bd cfaf c6be f5d0 523e
00000360: a845 6d3e 69ce 48be 162d b73e 4f54 8cbe
00000370: b362 b3be f1a9 99bd 4c5d 42be 8fad 6c3e
00000380: a2eb 98be 84ef 8c3d 6c90 47be d6f0 0f3f
00000390: 7c97 1bbe 16b2 82be 5dab 7cbd 631a e13d
000003a0: d926 c33e be10 473e b685 133e 5a28 28b9
000003b0: 21fe f33d f98c 11be e577 36bd 640f 17bd
000003c0: 55c6 d8be 6c5d 72bd 5d6c e13d c772 d5bd
000003d0: 597f 3ebe 400d a93e 3c37 5dbe acfc 96be
000003e0: cb49 583e a39b 34bc ea09 b33d 6e52 5ebe
000003f0: 4487 9bbe 5f23 a03d fb14 c6be 6225 fd3d
0.07996017 0.20096828 0.26861572 0.016602034 0.18332598 0.1545522 -0.06551959 -0.05975277
0.5940677 0.34940985 0.109608285 0.068959095 0.032170832 -0.1867063 0.022194767 -0.2676939
0.0979049 0.11242123 -0.22673328 -0.08417106 0.060037788 0.07554058 0.41126683 0.14596601
0.0857924 -0.26690486 0.11201059 -0.080908276 0.67979866 -0.44412574 -0.3684645 -0.095349096
0.012783541 -0.032439265 -0.27869487 -0.7276007 -0.20863205 0.63672304 -0.2507091 0.16599739
0.40206248 0.40924555 -0.043868244 0.34415781 -0.25841802 -0.3695353 0.23245789 0.32584342
-0.044635374 -0.17633268 -0.03707253 0.23521486 0.20971511 0.49938342 -0.07687624 -0.33358636
-0.0072952504 -0.12854479 -0.5333266 0.32998288 -0.052085172 0.2317584 0.21221755 0.06015097
0.076916315 -0.09534022 -0.05736098 0.20308097 -0.116835974 -0.06877274 0.019215707 -0.09314782
0.36656752 0.3213601 0.19306974 0.17838895 -0.072574094 0.35281876 0.052747037 0.2715893
-0.9402118 0.0051454497 1.4236118 -0.37465575 -0.47959447 0.11763148 0.069046944 -0.5791651
0.10794449 0.7494285 0.46643135 -0.30164465 -1.1715746 -0.40683055 -0.87080413 -0.11194068
-0.3546384 0.43676144 0.0059060487 -0.4851807 -0.2932379 0.1819892 0.18436715 0.080885716
0.3524211 0.0042058313 -0.37890875 0.0033220013 0.16975577 -0.19244422 -0.30921003 -0.3715814
-0.15483196 0.2029819 -0.09205247 0.49144495 -0.16619796 -0.011188377 -0.38604808 -0.111227244
0.22216566 0.39835808 0.19544734 0.34860986 -0.041452866 0.108572766 -0.123018324 0.26749936
0.11550035 -0.15725966 -0.24764363 0.119357884 0.09106358 0.04235563 0.148 -0.05473167
0.08342297 0.28513747 -0.22489055 0.38958135 -0.8564822 -0.090224236 0.9955714 -0.45998713
-0.29319558 0.04168142 0.116666645 -0.33641517 -0.03995987 0.9173409 0.5377125 -0.41921684
-0.464344 -0.3530574 -0.49108136 -0.25256646 -0.39904422 0.21467707 0.14448833 -0.26292026
-0.3263984 -0.21786606 0.08690993 -0.008820271 -0.24234396 -0.2755427 -0.097896144 -0.45415887
-0.10146577 0.40486944 0.21058157 -0.3703803 -0.4167118 0.36845493 -0.20668301 0.05423118
-0.33334762 -0.080347285 0.041525673 -0.10178137 -0.23004618 0.45597953 0.62348676 0.0012752175
-0.040654723 -0.0040678163 -0.29525676 0.37001264 0.54786634 0.19258979 0.17736822 -0.2376671
-0.54163635 0.40788555 -0.1416719 -0.34857807 -0.34364122 0.81471944 -0.17189023 0.04712715
0.052162107 -0.29180804 0.12752315 0.20041056 -0.20040186 0.26103854 -0.1106063 -0.27987525
0.007221053 -0.5181359 0.109183095 0.07137737 -0.33102974 -0.047309007 -0.38806006 0.20587523
0.23171103 -0.19609989 0.35776585 -0.27408072 -0.3503624 -0.07503117 -0.18980902 0.23113082
-0.29867274 0.068816215 -0.19488686 0.5622686 -0.15194505 -0.25526494 -0.061686862 0.10991361
0.38115576 0.1943998 0.14406475 -0.0001603676 0.119137056 -0.14213933 -0.044547934 -0.036879912
-0.42338815 -0.059171125 0.11006997 -0.10422283 -0.18603267 0.3301792 -0.21603101 -0.29489648
0.211219 -0.011023435 0.08742125 -0.21711132 -0.30376637 0.078192465 -0.38687882 0.12360646

bias f4 [20]
00000000: 0dcd c13e 8bff 953e f5e0 d93e 11cf f53e
00000010: f854 08bf 6eb4 95be e6c5 86be 111f 67be
00000020: d83b babe d3c6 123f a795 d8be b69e a33e
00000030: 1cd2 22be ae0b 393e 5016 593e 214d b23e
00000040: 79e9 c43e 7755 423f 81d6 bcbe be3a bbbe
0.37851754 0.29296526 0.4255444 0.48009542 -0.5325465 -0.2923922 -0.2632286 -0.22570445
-0.36373782 0.5733463 -0.42301676 0.31957024 -0.15900463 0.18070862 0.21199918 0.3482447
0.38459376 0.7591166 -0.36882403 -0.36568254

weight f4 [20, 20]
00000000: c8f7 173e fccf 533d 2a3a d6bd 7a66 e23d
00000010: 68c2 64be 3bd4 603e 52a6 9b3d de96 80bd
00000020: e1a7 0fbd a4f4 c43c b4a1 d13d cc5d 0e3e
00000030: 96df a03e 9e57 a2bc 4add fcbd 86b4 8c3e
00000040: 8bef ee3d 1661 7b3e e25b 123e 9ddc 4fbe
00000050: e3e4 8fbe 3ae6 003f 16ba a4be f69a 38bf
00000060: e8c3 b43b 6667 2a3f 1452 d0bc 9c28 63bc
00000070: 3a30 d93e ab38 b03d 190d 9d3e 89da dcbe
00000080: 5ba1 3d3f 97ea b9be 62e0 873e 72d3 193e
00000090: b970 6dbe ec6e 5dbf efd2 e03e 3b52 513f
000000a0: c96e 6fbe 8373 b4be f2da 8b3d b5fe f4bc
000000b0: 08df 06bf 4f0b b5be 4438 ab3d 7a30 e3be
000000c0: 8fe5 90be 0d19 19be 32f8 8cbe 7b8b 34be
000000d0: fd1e bfbe 2e88 a63d b158 6f3e 8a5e 503e
000000e0: 1eb2 fe3d d3e3 c63d 8850 9abd e301 e5bd
000000f0: bc14 583d a6c6 7ebd fda5 6fbe 7578 913e
00000100: 6f87 b1bc a168 0fbf 11cd 86be e234 c23c
00000110: 2a75 cebe 1517 c43e 050e 8ebe 162c ad3e
00000120: 2ae6 d5be 92ed 0d3f 1be2 c33c 3128 22be
00000130: 7fca a23d 6583 1f3f 6104 1fbf da15 45bf
00000140: 3765 0cbf a148 20bf e8b3 453e 3b0c e1be
00000150: 227c 66bf 0f8a 88be b89b 2cbe 4b57 18bf
00000160: a665 153e 0e1f 55bf 3c80 c73e c665 983a
00000170: d9d3 f6bd 934c 86be 2e42 8a3c 9e36 573e
00000180: a278 13bf f6f2 8cbe 9ba8 d03e 2894 8ebe
00000190: ca4b d5bd a21a 14bf 8fbf febe 01c6 253e
000001a0: b602 7bbf d225 38be d11a f4bc b8b6 d4be
000001b0: 8ad5 993e 4b2d 0fbf 488f 08be 15e0 d13e
000001c0: 239e 87be 4ce8 dabe 990e 14be e074 c13e
000001d0: 7201 9b3e c8c5 6e3b 2caf 01be 01f5 033f
000001e0: e887 82be 531c 003f 5195 b63d 5cc6 223e
000001f0: e42d fb3e 26f2 e53b c261 963e 40da 0ebe
00000200: c532 3e3e 031f cf3e f502 2f3e 357d 34be
00000210: 067b bebd d32d a23c d8e5 ca3e 6c3f eebe
00000220: 38d1 00be 4511 8abe fbce 593d b73e 87be
00000230: 6293 33bd a965 513e 5113 6dbd 760a 3dbe
00000240: 3ef3 763e 780e 743e 3e35 4b3d a92c 97be
00000250: 9613 603e 7a5f 183d 48e7 ba3e b40f 86be
00000260: 5d11 ca3e 7180 95be 96d5 7b3e 9e37 263e
00000270: b771 e4be 968a f2bd e838 eebc 8b5c 033f
00000280: 41f4 56be 4c73 333f bfbf 893e ae67 a73e
00000290: d960 5d3f 4ae1 e73d 5845 473e 2e11 303f
000002a0: 8863 f83e ea40 7a3f 1a7b 66be 18f1 9abe
000002b0: 075f 203d 3951 823e 2e58 823d f4d6 863d
000002c0: 696b 933e 0694 8ebe 054a 553d 2dfc 95be
000002d0: c900 5cbe 6aac 53bf b8af d9bc 8aff 303e
000002e0: 7f0a 7abe 0859 00be 9457 77bd 3070 cabe
000002f0: f95e 393b 4d8d 0bbf 0b9d cf3d 176c febc
00000300: ec7c 8abe 1f18 13be 6771 2abe b1a4 dfbe
00000310: 690f 60be f6ba e3be 0153 0abe 75cb 4fbd
00000320: 2217 133f 84e6 9a3e a00e a03e 3078 e53e
00000330: 27fa 873d 9ca3 1cbf fefd 663e e963 cd3d
00000340: 35a9 debe 77b2 003f 2c97 b2be 9e66 c3bd
00000350: 98c6 3ebf c0e7 cc3e 807d cdbe 2f90 e93c
00000360: 4914 8a3e 8026 eb3e 988c 13bf 7ee9 33bf
00000370: 0057 6f3e 05d4 9ebd ffd6 ff3e 5784 8f3e
00000380: 9cb3 acbe 444c 8e3d 256c 7e3d 3257 77be
00000390: 14d2 0e3e 89e8 aebe 01b9 333e ee09 783e
000003a0: 8145 f53d 3b1b 813d d0b6 d7be 1846 143e
000003b0: 00b5 7b3e 538c 07be 9d31 ac3e de89 d8be
000003c0: 428a 8e3e bee9 4ebf 1400 793e b9b9 55bc
000003d0: a680 2dbf a063 aa3d e918 b2be d0ea 07bf
000003e0: b717 df3d 47a9 82be 5326 4fbe cb1f e7bb
000003f0: 9411 18bd 2a6e 883b 2d4a 883d a906 5a3e
0.14840615 0.05171202 -0.10460313 0.11054702 -0.22339785 0.2195596 0.076000825 -0.06278776
-0.03507221 0.024042435 0.102359205 0.13902968 0.31420583 -0.01981717 -0.12346895 0.27481478
0.11666783 0.24548754 0.14292863 -0.20299001 -0.28104314 0.503513 -0.32173222 -0.7211145
0.005516518 0.66564023 -0.025429763 -0.0138646625 0.42419606 0.086045586 0.30674055 -0.4313548
0.74074334 -0.3631179 0.26538378 0.15022066 -0.23187532 -0.8649738 0.4391093 0.817661
-0.23382105 -0.35244378 0.0682887 -0.02990661 -0.5268407 -0.3536019 0.08360341 -0.44372922
-0.2830014 -0.14950962 -0.27533108 -0.17631333 -0.3732833 0.08131443 0.23373677 0.20348564
0.12436317 0.09711423 -0.07534891 -0.111820005 0.05275415 -0.062201165 -0.23403163 0.28412214
-0.021671025 -0.56019026 -0.26328328 0.023706857 -0.40323764 0.3829886 -0.2774507 0.33822697
-0.41777164 0.5544063 0.023911526 -0.15835644 0.07948779 0.6230987 -0.62116057 -0.7698647
-0.5484194 -0.6261082 0.1930691 -0.43954644 -0.9003316 -0.2666783 -0.16856277 -0.595082
0.14589557 -0.8325051 0.38965023 0.001162701 -0.120521255 -0.26230296 0.01687726 0.21016929
-0.57605946 -0.27529114 0.40753636 -0.2784741 -0.10414846 -0.5785314 -0.49755523 0.16188814
-0.9805101 -0.17983177 -0.029797943 -0.41545653 0.3004573 -0.55928487 -0.13335907 0.40991274
-0.26487836 -0.42755353 -0.14458694 0.3778448 0.3027454 0.0036433805 -0.12664479 0.5154572
-0.25494313 0.5004322 0.089151986 0.1589598 0.4905845 0.0070173917 0.29371458 -0.13950443
0.18574055 0.40453348 0.17090972 -0.17625888 -0.093008086 0.019797241 0.39628482 -0.46532762
-0.1257981 -0.269663 0.053175908 -0.26415035 -0.043841727 0.20448937 -0.05787975 -0.18461022
0.24116227 0.23833644 0.049611323 -0.2952626 0.21882471 0.03720043 0.3650458 -0.26183856
0.39466372 -0.29199556 0.24593195 0.16232154 -0.44618008 -0.118428394 -0.02907987 0.51313084
-0.20991613 0.70097804 0.26904103 0.3269629 0.864759 0.11322267 0.19460046 0.68776214
0.48513436 0.977553 -0.22507897 -0.30262065 0.039153125 0.25452593 0.06364475 0.06583968
0.28792885 -0.27847308 0.052072544 -0.29293957 -0.21484675 -0.8268496 -0.026573047 0.1728498
-0.24418066 -0.12533963 -0.060386255 -0.39538717 0.0028285368 -0.5451248 0.101373754 -0.0310574
-0.27048433 -0.1436467 -0.16644822 -0.43680337 -0.21880879 -0.44478577 -0.13508226 -0.05073114
0.5745717 0.30253994 0.31261158 0.44818258 0.0663951 -0.6118715 0.22557828 0.10028822
-0.4348847 0.50272316 -0.3488096 -0.09541057 -0.7452178 0.4002056 -0.4013481 0.028511135
0.269686 0.4592781 -0.57636404 -0.70278156 0.23373032 -0.07755283 0.49968717 0.28030655
-0.3373078 0.0694814 0.062114853 -0.24154356 0.13947326 -0.34161785 0.17551042 0.24222538
0.119761474 0.06304022 -0.42131662 0.14479864 0.24580765 -0.13237123 0.33631602 -0.42292684
0.27839857 -0.8082541 0.24316436 -0.013044768 -0.67774427 0.08319783 -0.3478463 -0.5309267
0.10893195 -0.25519773 -0.20229463 -0.0070533506 -0.03712614 0.004163523 0.06654773 0.21291603

bias f4 [20]
00000000: 1a31 013f 286d 7abe 5b73 8fbe 5281 dc3e
00000010: 0858 09bf 7ce1 2d3e 403c 4bbd aee3 67be
00000020: 60c0 6f3e 9cf0 e8bd 1bac 313f cf33 b6be
00000030: de9d d1bc cc72 ea3d d76f e2be b775 6ebe
00000040: 8ee4 f7be 08c5 a63d 3f50 d23e f844 123f
0.5046555 -0.24455702 -0.28017697 0.43067414 -0.5364995 0.16980547 -0.049618006 -0.22645447
0.23413229 -0.113740176 0.6940324 -0.35586402 -0.025587972 0.11447677 -0.44225952 -0.23287092
-0.4841656 0.081430495 0.41076848 0.5713649

weight f4 [20, 20]
00000000: 2bdc bcbe ca49 c0bd d5b5 55bd 4716 d33e
00000010: a606 25bf 08d2 d8be 3e85 9f3e 4038 96be
00000020: 9756 2e3f e218 66bd 196e d73e f573 343e
00000030: 998f ae3c c590 93be 6c8f 043e fc9d 0a3f
00000040: 9a27 00be eede 773d 826f a3be c239 42be
00000050: 4ef8 84be f838 b63e b32f 2d3f 8aa9 993e
00000060: f837 ec3e 767b 413f ee27 24bf aa6c afbe
00000070: 26e5 fabd e234 ae3e de2f bfbe 3ad4 ca3e
00000080: 8cf7 343e b49d acbe efad 063f 191e 1a3f
00000090: 6393 543f d1b4 fabe 8ae4 d3be ff6d 09bf
000000a0: c326 4ebe ecf0 c3bd a0ce d23e 0cce 57bc
000000b0: 447e f53e 5eb2 8f3e b238 26be f91b 633e
000000c0: afcc 3abe cd86 8d3e 9dbe f3bd 6b05 963d
000000d0: 4ece 87be e118 303e 7fcf 2a3e d951 c33e
000000e0: 9a09 843c 400e 353e 1205 adbe c9f0 873c
000000f0: 359a ae3e 4868 823e 2990 723d 439b 4dbf
00000100: cb07 a13e e35c 7f3d 8085 cabe 9a08 3e3e
00000110: 5a92 6bbe 50c7 fd3e 49c3 f1be da98 113e
00000120: 8b7c 7cbd 29b9 bd3e 4390 d8bb 7f31 0ebe
00000130: dfc0 c93d 87b8 023e 22d2 813d 0b23 b2be
00000140: 0da2 0abe d098 05bf 19ee 0e3f f54e 663f
00000150: 3c24 a53e 0ef3 f3be 23f0 4a3e cd8c 53be
00000160: c6f0 1d3f 0901 72be b7ab a53e a677 f03e
00000170: 0ca2 4ebd b1ee 0cbe 75bd d53e 715a d1be
00000180: 7186 3abd a485 84be 02d2 81be 3924 f13d
00000190: 459e abbb 801f 8cbe 5a7f c5bd 6b70 f53b
000001a0: a331 38bf 4eaf 06bc 66a1 a83e dbe2 0d3f
000001b0: 4281 a3bd d3ee f3be 312c f03e 1a53 9b3e
000001c0: 50fe c8be 0c15 c53d 37ce be3d e3eb 933e
000001d0: d04b 103d b624 78be 0e63 1dbe a27d 583e
000001e0: 31c8 36bf 5625 5bbe 31e6 123e 9c84 d53e
000001f0: d3a9 43bf 4e18 b8be e6c5 0fbe 5ac9 c8be
00000200: 8589 0d3f ef1b 78bf c32c 323f 3a3a 1e3e
00000210: 39ec 473d 594c f9be 6286 443e 4daf 49be
00000220: e98b e9bd ebcc b5be 5357 17bd ef1b 19be
00000230: fae9 f83e 0683 92be 8c0e 2cbd d9d7 903d
00000240: 504e 9bbe d34e 1c3e 769d e53c 68db 0cbe
00000250: 8fa9 2fbe b088 9fbd 06a9 1fbd 84d1 85be
00000260: 27e7 3cbe 57a2 bc3e b379 51bd 023f 9d3d
00000270: 1c78 dfbc 38a9 613e e53a 9c3d abd7 0abc
00000280: 9e13 74be 5534 afbe 2ca7 553d ed4b 1b3f
00000290: c0fa 83bf e4e9 61bf 96ad dd3e 37d7 80be
000002a0: f7dd 403f 8fb5 b9be 4754 263f 4d65 363e
000002b0: ea2a c6bd 06e3 12bd 161c 873d 7f87 09bf
000002c0: 2f4a 0dbe dfea 50bd 472e a8be c61c 7dbe
000002d0: 2a94 6fbf ba1d 8e3c 4b29 763f b70f 3cbe
000002e0: 7d4c c73f 27bf aa3f 9bb4 f5be 03da 123d
000002f0: c1b4 1dbf ea67 9a3e 035a c1bf fd3e b03f
00000300: ace6 5d3f bfd4 2dbf 959c bf3f 1615 af3f
00000310: fc3a a73f 36c4 bbbf 5975 9dbf 4cdc c2bf
00000320: 0056 1e3e bdd4 b2be 8c32 88be c0ab ff3d
00000330: 39e7 d4be 12e1 49bf 90f8 243e 48ff 753d
00000340: 2bc4 023f 325e 94be d26b 8f3e c210 ffbe
00000350: 6e4d 9abc 3be1 99be 1f48 863d d253 7ebd
00000360: aeec 6abd 1958 0fbe f290 ed3e a90e 7e3e
00000370: 4a08 383c 3e14 b7be 60eb dd3e 7a3f 983e
00000380: 4d39 67be 13c5 b6be a50b ecbd 1a7f 7fbe
00000390: d3c7 bc3e b88f 0abe e13b 293f df4c 3c3d
000003a0: d698 013e f5d1 95be 0188 883c 1bd6 2ebe
000003b0: adfc f7bd 31cb 3ebd fb83 233e 3fbd de3d
000003c0: d2a5 b0bc 77fd 5c3e 226b fe3d 34cd 99be
000003d0: 5096 1a3f 9ce1 1b3f 778e ca3d 1d69 3f3e
000003e0: 2afb 36bf acdd 49be 3b34 96be 74ff 16be
000003f0: 50ff 453e 1b42 2b3d c58e 2dbd 94e3 17be
-0.36886725 -0.09389074 -0.05217536 0.41227934 -0.6446327 -0.4234774 0.31156343 -0.2933979
0.68100876 -0.056176074 0.42076185 0.17622359 0.021308707 -0.28821388 0.12945336 0.54147315
-0.12515107 0.060515337 -0.3192101 -0.18967345 -0.2597069 0.3559034 0.6765091 0.3001216
0.4613645 0.7557901 -0.6412343 -0.34262592 -0.12250738 0.3402472 -0.37341207 0.3961504
0.17672557 -0.33714068 0.5260915 0.60202175 0.83037394 -0.48966077 -0.413853 -0.53683466
-0.20131974 -0.095674366 0.41173267 -0.013171684 0.47947896 0.2806577 -0.16232565 0.2217864
-0.18242143 0.27641907 -0.11901591 0.07325252 -0.26524585 0.1719699 0.16680716 0.38148382
0.01611786 0.17681217 -0.3379293 0.016594307 0.34102026 0.25470185 0.059219513 -0.80315036
0.31451258 0.062344443 -0.39554977 0.18557969 -0.23005047 0.49566126 -0.47219303 0.14218464
-0.06164221 0.37055328 -0.006608994 -0.13886069 0.0985124 0.12765704 0.06338908 -0.3479236
-0.1353838 -0.521863 0.5583206 0.8996423 0.32254207 -0.47646374 0.19818167 -0.2065918
0.61695516 -0.23633207 0.3235757 0.46966285 -0.05044751 -0.13762929 0.41746107 -0.40889314
-0.04553837 -0.2588321 -0.25355536 0.11774487 -0.005237373 -0.27367783 -0.09643431 0.007490208
-0.7195074 -0.008220507 0.32935637 0.5542428 -0.07983638 -0.47643146 0.46908715 0.3033684
-0.39256525 0.09623155 0.09316676 0.28890905 0.03522855 -0.24232754 -0.15369818 0.21141675
-0.7139922 -0.21400961 0.14345624 0.41702735 -0.76431006 -0.35956043 -0.14040336 -0.3921612
0.55287963 -0.96917623 0.6959955 0.15451899 0.048809264 -0.4869106 0.19191888 -0.19695778
-0.11403639 -0.35507903 -0.036948513 -0.14952062 0.4861601 -0.28615588 -0.04200606 0.0707242
-0.30333185 0.15264444 0.028029185 -0.13755572 -0.17154525 -0.07789743 -0.038979553 -0.2613641
-0.18447553 0.36842605 -0.051141452 0.076780334 -0.027278952 0.22037208 0.07628421 -0.008474271
-0.23835608 -0.34219614 0.05216138 0.6066273 -1.0310898 -0.88247514 0.43296498 -0.25164196
0.7533869 -0.3627133 0.6497235 0.1781208 -0.09676154 -0.035861038 0.06597154 -0.53722376
-0.1379783 -0.05100524 -0.32847807 -0.24718007 -0.93585455 0.01734816 0.9615676 -0.1836537
1.5570217 1.3339585 -0.47989354 0.035852443 -0.61603934 0.30157405 -1.5105594 1.3769222
0.866801 -0.6790275 1.496966 1.367831 1.3064876 -1.4669254 -1.2301437 -1.5223479
0.15462494 -0.3492793 -0.26601064 0.124839306 -0.4158266 -0.78859055 0.16110444 0.06005791
0.5108058 -0.28978115 0.28011948 -0.49817473 -0.01883575 -0.3005465 0.06556725 -0.062091656
-0.05735462 -0.1399845 0.46399647 0.2481028 0.011232445 -0.3575763 0.4334364 0.2973593
-0.22580452 -0.3569723 -0.115256585 -0.24950829 0.36871204 -0.13531387 0.6610699 0.045971747
0.12655959 -0.29261747 0.016666414 -0.17073862 -0.12108741 -0.046580497 0.15968315 0.108759396
-0.021563444 0.21581064 0.12422778 -0.3003937 0.6038561 0.6089113 0.09890454 0.18692441
-0.71476996 -0.19713467 -0.29336724 -0.14745885 0.19335675 0.04181109 -0.042372484 -0.14832908

bias f4 [20]
00000000: 93b1 f23e 6a55 2fbf 6957 97be ed31 9cbe
00000010: e1f9 2cbe ba2b 353d 9b74 e0bd 920b b43e
00000020: 26cf 31be 4f51 ccbf 763c a63e 5a07 d03e
00000030: d542 93bd fd0f 1c3d 7f5e 16bf 9f36 7d3f
00000040: 232c fa3e e1e9 d73e 6a7a 48bd a71a b73e
0.47401103 -0.68489707 -0.29558876 -0.3050684 -0.16892196 0.044231154 -0.10959741 0.35165077
-0.17364177 -1.5962313 0.32468003 0.4063061 -0.071904816 0.038101185 -0.5873794 0.9891147
0.488618 0.42170623 -0.04894487 0.35762522

weight f4 [20, 20]
00000000: cf95 0f3d ac0c 753e 1342 e83c f48c 843d
00000010: f704 ec3d 01a9 e9be e121 9fbe 0587 9f3e
00000020: 1a5f 0bbf bae6 dc3f daa4 9abe c5f6 eebe
00000030: 66b6 823e 9f80 66be 32af 393e 5047 f83b
00000040: b7fa f5be 13db 37be f6a0 50be 8f3a 82bd
00000050: 1609 f13d 7c6a df3e b137 5c3e 9956 6e3e
00000060: 5b78 3a3f 6d89 3abe b940 cd3d b2f7 62be
00000070: 3332 4d3e 75b3 ec3f ec90 e5be b22c 403e
00000080: fa4e d83e 812c 6fbe d00d e7bd 0c84 20bf
00000090: fe6d 59be f6bf 103d c21f f8be 2308 cd3d
000000a0: cfe8 80be 1808 eb3e d37e 203f 11e9 d33e
000000b0: db7e e43e c97f 473e 03c4 c7be 5e6a d4be
000000c0: bc8f 7bbe 63b8 fb3f 1ae2 b8be ffd4 33be
000000d0: 1b10 9f3e e0ef d3be cbdd 3d3e a272 0fbf
000000e0: 4bbc 09bf 4d17 1fbf 90ac 35bf 4a63 a4be
000000f0: 6dba c5be 7331 33bf 27bf 113f 2701 053e
00000100: 1528 59bf ebae d3be 3fd4 17be 55ee 563e
00000110: 13db 9f3e 34f4 27c0 69d4 733d 9ef4 433e
00000120: 80ae 953e 6d7e 13bd dee1 823e 00e2 3cbf
00000130: b042 9abe 045a 633f d8f4 5abc b6a0 14bf
00000140: b3db 6dbe 28d4 02bf a370 dd3e 3e10 653e
00000150: fa5a f9be 7e2b 00be fcb3 123e 0a70 243f
00000160: 6618 61be d388 eebf a689 3cbe bfe2 a0bd
00000170: a5b2 413f 873b 1ebe 64a6 933d 7243 adbe
00000180: cc3b ecbe fa3b ae3e 20ba bc3e 4cea 93bd
00000190: a82c b8be 7c5e fa3e 9aba 703e 5b95 9b3e
000001a0: cb84 523e b33b c5be 6f27 99be a575 bf3c
000001b0: 990f 17bf 70db dd3f 4955 8cbe 6bbf a3bd
000001c0: 404a cd3e 2ab9 37bf 66e3 753e 16cf b0bd
000001d0: 7e5f 3ebe 2bdb bb3d 5f90 13bf 19bd b7bd
000001e0: eb47 df3e f365 d0bd f3d1 9dbd 7622 a63d
000001f0: b129 a7be c687 f53e df83 8bbc 17e1 ac3e
00000200: fc15 9dbe 139b 97bf ac7a 5f3e 5384 793e
00000210: c45d 65be 3d14 853c 1bfe 6cbd 5fca 863e
00000220: 2297 8fbd 4009 c83e 95e0 913e ead1 8a3c
00000230: fedc 10bf 564c 373d 6372 713d 1baa 1a3f
00000240: 77fc e43e be86 e9bd c4b4 a33e ef6d 77be
00000250: d799 e3bd 6787 1640 6e61 66bd 8ade 30bf
00000260: 4d17 a1be 275f 1bbe 396f 553e f9b9 59be
00000270: 8cc8 6abe 5f03 e0be 667a 983b 4f2a f3be
00000280: b737 acbe 4531 5d3f 9659 af3e 26a3 133f
00000290: 1221 193f 0304 c0bd fdc9 053e fa02 e7be
000002a0: 9246 1cbf 50b7 3640 bdf5 21bf ea66 863d
000002b0: ee1d cd3e dfdd 40bf 8409 3cbd 8873 003e
000002c0: 336f 60be bab5 46bf d526 1bbf 9a95 a8bd
000002d0: df48 08bf a6de 1f3f 4561 d03d 0a74 2dbe
000002e0: be62 ac3e ed9b fcbe 0077 01bd c0ac a33d
000002f0: 9ce4 78be 7e28 ee3f 249f 09bf d9e5 623e
00000300: 694c ec3d 29c8 bbbe 363e 2d3e 55f0 aebe
00000310: 57b7 4ebd e74b 1cbf 5fd7 24bf c62e e4bd
00000320: ff0a 463e f07d 1f3f 6837 8ebd 8cc9 6ebe
00000330: a789 8cbc abea c9be 0b2a ac3e 6d1c 3bbe
00000340: 6059 3dbd feee 1c40 78d8 c4bd a3bb 44be
00000350: 0edc 95bd a6b1 35bc 7aa2 863d 3abd 02be
00000360: 8ded 273e 17a1 63bf 1732 0f3e 9010 b73e
00000370: 5286 91bd 2a48 ee3e e620 eb3e c0e2 a63e
00000380: d74d ff3e 9e86 233e 1260 12bf ad9b 33bf
00000390: 05d6 5ebe 7869 2640 6b26 febd 6b3e 6bbc
000003a0: f5c4 443f 02ab aabc 2bda 0c3f e383 85be
000003b0: 7d52 4fbf bfa5 a4be dae1 46bf efaf 89be
000003c0: b1ae 0e3f 680d 023d cb66 a7be c48e 97be
000003d0: 85e6 2e3d e567 793e 7c6d c23e 9e74 15be
000003e0: 9076 123f f90b 30bf 0558 893e 56b3 113f
000003f0: 861a 143e 63bc 363e 3c07 ccbe 364b 2f3f
0.035054978 0.23930615 0.02835182 0.06472197 0.115243845 -0.45636752 -0.31080535 0.311577
-0.5444199 1.7257912 -0.30203897 -0.46672645 0.25529784 -0.22510003 0.18133238 0.0075768605
-0.48042843 -0.17954664 -0.20373902 -0.063588254 0.11769311 0.4363593 0.2150562 0.23275222
0.728399 -0.18216486 0.100221105 -0.22164801 0.2003868 1.8492266 -0.4483713 0.1876705
0.42247754 -0.2335682 -0.112819314 -0.6270149 -0.21233365 0.03533932 -0.4846173 0.100113176
-0.2517762 0.45904613 0.6269352 0.41388753 0.44628033 0.1948234 -0.39016733 -0.41487402
-0.24566549 1.9665645 -0.36110002 -0.1756172 0.31066975 -0.41393948 0.18541639 -0.5603429
-0.5380294 -0.6214493 -0.70966434 -0.32107002 -0.38618794 -0.6999733 0.569323 0.12988721
-0.84826785 -0.4134439 -0.14827059 0.20989354 0.31221828 -2.62428 0.059528742 0.19136283
0.29234695 -0.03600924 0.25562948 -0.7378235 -0.30129004 0.8880923 -0.013364039 -0.58057725
-0.2322834 -0.51104975 0.43249997 0.22369477 -0.48702222 -0.12516591 0.14326471 0.6423346
-0.21981964 -1.8635505 -0.18411884 -0.078557484 0.75663215 -0.15452395 0.07209471 -0.3384052
-0.4613937 0.34030133 0.36860752 -0.07222423 -0.3597157 0.4890021 0.23508683 0.30387387
0.20558469 -0.3852211 -0.29912898 0.023371527 -0.59008175 1.7332592 -0.27408817 -0.079954945
0.4009571 -0.7176691 0.24012527 -0.086332485 -0.18591115 0.09172662 -0.5764217 -0.089716144
0.43609557 -0.10175695 -0.0770606 0.08112042 -0.32648996 0.4795515 -0.017030654 0.3376548
-0.30680835 -1.18442 0.2182414 0.24366884 -0.2239905 0.016245002 -0.05785952 0.26326272
-0.07011248 0.39069557 0.28491655 0.016945798 -0.5658721 0.044750534 0.05894698 0.6041581
0.44723865 -0.11402653 0.3197385 -0.2416303 -0.11113327 2.3520143 -0.05624526 -0.6908957
-0.3146309 -0.15173016 0.2084321 -0.21262349 -0.22928065 -0.43752572 0.004653263 -0.47493216
-0.33636257 0.86403304 0.34248036 0.5767082 0.59816086 -0.09375765 0.13065334 -0.45119458
-0.6104518 2.8549385 -0.6326559 0.06562598 0.40061897 -0.7533855 -0.045907512 0.12544072
-0.21917419 -0.7762104 -0.6060613 -0.08231659 -0.5323619 0.6244911 0.10174803 -0.16938797
0.33669084 -0.49337712 -0.031607628 0.07991934 -0.24305958 1.8606107 -0.53758454 0.22157992
0.115380116 -0.36676148 0.16918263 -0.34167734 -0.050467815 -0.6105332 -0.6439113 -0.11141734
0.19340132 0.6230154 -0.06944162 -0.23319072 -0.017155482 -0.3943685 0.33625826 -0.18272562
-0.046227813 2.452087 -0.09611601 -0.19212203 -0.07317363 -0.011089718 0.06573959 -0.12767497
0.16399212 -0.8891768 0.13983952 0.35754824 -0.07105698 0.46539432 0.45923537 0.32594872
0.49864075 0.15969321 -0.5717784 -0.7015942 -0.2176133 2.6001873 -0.124096714 -0.014358143
0.7686303 -0.020833496 0.550204 -0.26077184 -0.8098524 -0.32157704 -0.7768837 -0.2689204
0.5573531 0.031751066 -0.32695612 -0.2960111 0.04270031 0.24356039 0.37974155 -0.14595267
0.5721216 -0.6876827 0.26824966 0.5691427 0.14463243 0.17845301 -0.3984927 0.6847414

bias f4 [20]
00000000: ad77 80bc 171d 24bf dc27 15bf 56f9 69be
00000010: 6581 5dbd 92e4 a5be 793e 753f d238 62bf
00000020: d39b 7abe 2528 2f3e 2cfc d33d 5f27 eabe
00000030: 7e39 113d ad32 4abf 4ec7 8abe 8d8c ea3c
00000040: a2d4 af3d aff7 823f 54a7 ce3e fbab b3be
-0.015682066 -0.6410689 -0.58263946 -0.2284902 -0.05407848 -0.32400948 0.9579845 -0.8836795
-0.24473505 0.17105158 0.10350832 -0.45733163 0.03545522 -0.78983575 -0.27105182 0.028631473
0.08585478 1.0231837 0.40362036 -0.35092148

weight f4 [1, 20]
00000000: d753 7cc0 b80a 5bc0 a493 2bc0 1c2f 4840
00000010: 90e1 4c40 afd2 f6bf af96 5640 02a0 31c0
00000020: eada 56c0 693c a9c0 f3cf 7ac0 ca9b 42c0
00000030: 1063 0c40 877a 4ec0 9a8a f4bf 6ebe 6440
00000040: 13b7 4540 d2e2 5140 6bfa 5d40 0a8a 2ec0
-3.9426172 -3.4225292 -2.6808863 3.1278753 3.2012672 -1.9283046 3.352947 -2.775391
-3.3571115 -5.2886243 -3.9189422 -3.0407586 2.1935463 -3.2262285 -1.9104798 3.574123
3.089299 3.279469 3.4684093 -2.7271752

u_b f4 [2]
00000000: 8cbc 1e41 0ad7 1f42
9.921032 39.96

l_b f4 [2]
00000000: e09a 263d 0000 0000
0.040675044 0.0
