Iter_03/Models/Noise_0/simulation_00_10/ff_400.pt (torch, 43997 bytes, 23 tensors)

weight f4 [20, 2]
00000000: f42c 2bbe f695 193f 2613 1bbf 5770 cc3e
00000010: d949 343e b3cd babe 1882 593f 1486 bc3e
00000020: 201a 65bf 4fb6 aabe 869c 1e3e 8cf8 12bf
00000030: 1761 2e3e a267 9fbe e768 e7be 84b3 f23d
00000040: b16b 4cbf 9ac4 c23e 6639 18bf 897e e9be
00000050: d52d b3be 0df9 c13e 6238 d43e eadc 7dbe
00000060: c096 333e 42cd 4bbf c8de 13bf 8142 12bd
00000070: e3a6 39bf b127 eabe 37b0 9d3f 8041 e1be
00000080: 846b 833e 64fc f2bf abf4 34be c26e b3be
00000090: 20b7 303f 2227 26be 8916 d1bd 9645 4ebc
-0.16716367 0.5999445 -0.60576093 0.39929458 0.17606296 -0.3648506 0.8496413 0.36821043
-0.8949299 -0.33342215 0.15489396 -0.574105 0.17029224 -0.31133753 -0.45197222 0.11850646
-0.79851824 0.3804062 -0.59462583 -0.4560435 -0.34995905 0.37885323 0.41449267 -0.24791303
0.17537975 -0.79610074 -0.5776181 -0.035707954 -0.72520274 -0.45733407 1.2319402 -0.43995285
0.25667965 -1.8983274 -0.17671458 -0.3504544 0.69029427 -0.16225865 -0.10209376 -0.012589833

bias f4 [20]
00000000: 5470 933e 9c0a 043f f5d5 2a3f 7e12 cebf
00000010: 15a8 a13f 2cc9 17bf f6bf 513f 2aca 4a3f
00000020: fb4c 863f 190a 1e3f c96c 213e 4d09 60bf
00000030: 483f 92bf 4c0c 883f fe02 953f e007 0ac0
00000040: 142f 1dbf efcb 2b3e 19f6 1abf 22c7 eebd
0.28796637 0.5157869 0.6673272 -1.6099393 1.262942 -0.5929134 0.81933534 0.7921473
1.0492243 0.6173416 0.15764154 -0.8751419 -1.1425562 1.0628753 1.1641538 -2.1567307
-0.6139996 0.16777013 -0.60531765 -0.11659075

weight f4 [20, 20]
00000000: 5289 973e b4cc 8c3e 04dd c13e a130 1abf
00000010: 5f41 163e 57e7 91be 9a04 d43e b69b 083e
00000020: a9f0 0e3e c2b3 313f b973 9c3e e72a 06be
00000030: 09a2 2f3e 9084 243f be85 f13e 9145 04bf
00000040: 47ea 08bf 5665 173f 87a7 55be a3cc 55b9
00000050: 9550 ae3e 6fef 363e 77e1 053e 122f 3bbe
00000060: 166a 52be 4391 21bf 3a97 99be 7bc2 89be
00000070: f7e0 163e 5094 733d 89ba dfbc 1c9e 17be
00000080: ebd5 9cbe af6e a93e 1d64 afbe 724f 543d
00000090: 825a 3cbe 354f d53e d6b6 04bc dc18 cbbd
000000a0: 1f6f a73e 8de1 2c3e 0fe8 1cbe 66cb 19bf
000000b0: 92dd 1d3f 9fc8 c7bd 51e7 febc bdb9 573e
000000c0: c5c2 173e 0a89 2ebe 7c24 44be 0c00 2a3e
000000d0: 4291 88be ed5d 9d3d f281 39bc 190a 8dbd
000000e0: 7cef a23d 9738 c73d c392 273c 19b8 f3be
000000f0: b487 0e3e 722b c0bd 1405 86be b882 d83e
00000100: 141c af3c 63c3 7b3e 7c84 8abe a4df 713d
00000110: c857 0ebe 7f0c 823d 0e1e 1f3d 861e 843e
00000120: fe97 993e f80d d2bd 2139 75bc 85e4 c4bc
00000130: 4f93 0abf aa0f 15be eb21 8a3e 3e7d 653e
00000140: c53d b53e c18a 19bd 7a3a f7bd 87e8 c03e
00000150: 276b a6be c73c 86be 5b5e 213e e6b5 a63e
00000160: 7d86 c83d 2e15 3cbe 8fd8 1a3e 0333 87bc
00000170: 1202 80be 6992 61be 90ab 43be f516 623e
00000180: b042 11bf 07f6 a7be 3c82 cfba 1be8 763e
00000190: d2f0 e3bd dfef 90bd a8ab 733d f0cd 7b3e
000001a0: 5165 39bc 166a ab3e a787 71be b9ed 6dbe
000001b0: 105a bcbd c642 c5be 1d94 863d f613 473d
000001c0: 3526 8abe e3f3 d8be 2f1b dc3e b8ef 803e
000001d0: 298f bcbe 74ae 92be 66a6 8b3e cf62 813e
000001e0: 9cff e8be c471 f7bd a159 78bd 583c 483d
000001f0: aaae 4abe c492 dfbe e110 233e 4404 f43c
00000200: 442e 393e ba05 c1be 1a56 173e e5e1 bebd
00000210: 08e5 9e3d c76f c1bd 6c90 273e 3364 793e
00000220: fb1d 923d 0046 bbbe bbdb d63d 6925 43be
00000230: f0d6 6c3e 6f25 fa3e a694 6e3e 969d d83b
00000240: 7693 083e 5225 cfbd 7139 92be 7751 a0bd
00000250: 5013 7b3c 2f2a c23c 5cb9 923d 569c 1e3e
00000260: 9cbc 3b3e 6aa0 2dbe 3981 02be c5bb d6be
00000270: 5a30 48bf 0528 ba3b 5433 18be 7347 583e
00000280: bce5 c1bd 1ecc 87be 0956 17bf 1bea 0f3f
00000290: 5a91 d4bd 6912 423f 7527 2dbf eeab 25bd
000002a0: ae9d c2bd 3bb4 0cbf 2687 153d 8746 e63e
000002b0: c718 2b3f 3394 62bf 4128 b63e a9f3 673f
000002c0: a2ec b73f 433a 0bbf e64b ba3e bc77 af3d
000002d0: 6f66 bf3d a0e5 823b 8c0f d53e 356f 5e3b
000002e0: ead3 ef3e 9051 6a3e 7399 793e 6ee5 0e3e
000002f0: 0621 bc3e 6941 5a3e a942 a63d b026 98be
00000300: c1c9 cdbd 72bd bb3e 1bce 1fbe d1f5 b3bc
00000310: 0a80 ce3e cef9 5f3d e598 61be 5b30 04bc
00000320: a107 453d 4e9c 833e 8523 a5be fc89 f23e
00000330: 6cc7 92be 383a 94be 621a 69be 07d3 b4bc
00000340: 106b 303f 87c2 19bf 3763 223d b820 17be
00000350: 8b5d 17bf b2ff 90be 6591 5dbd 3789 0ebe
00000360: 12c9 71bf 2a8d ce3a e50a 113e bf27 3bbe
00000370: 0764 d0be 294b 143e 19af 103e ceb3 c83e
00000380: e7f8 cbbd 45fe e63d b903 08bd 9387 01be
00000390: e751 05be d5f5 6e3e a64b bf3d d02d 013f
000003a0: dc65 9ebd 043d 80be c20d 8c3e d91e 34be
000003b0: c8a2 993d 704a 40be bf24 813e 690d 7a3d
000003c0: 3acc cebe baac d23c c3ad 273e 5e2a 18be
000003d0: 448e 57be 2832 f93e 61f1 4fbd 969b 9bbd
000003e0: ed77 d63c ad41 0a3e f00b 25be 9e26 8c3e
000003f0: 8119 853e b081 36be e6d6 873d 4c78 5d3e
0.29596955 0.27499926 0.37863934 -0.6023045 0.14673375 -0.2849681 0.4140976 0.13340649
0.13958992 0.69414914 0.3055704 -0.13102303 0.17151655 0.64264774 0.4717235 -0.5166865
-0.5348248 0.59139 -0.20864688 -0.00020389496 0.34045854 0.17864774 0.1307429 -0.18279675
-0.20548281 -0.63112277 -0.2999819 -0.2690619 0.14734255 0.059467614 -0.027310627 -0.14806408
-0.30631956 0.33092257 -0.34256068 0.051833577 -0.18393901 0.41661993 -0.008100232 -0.09916851
0.32701966 0.16882916 -0.15322898 -0.60075986 0.61666214 -0.09755062 -0.03111616 0.21066947
0.14820392 -0.17044464 -0.19154543 0.1660158 -0.26673323 0.076839305 -0.011322485 -0.068866916
0.07955834 0.097275905 0.010227862 -0.47601393 0.13918954 -0.093832865 -0.2617575 0.4228723
0.021375693 0.24586253 -0.27054203 0.05905117 -0.13900673 0.0635004 0.03884702 0.25804538
0.29998773 -0.102565706 -0.014967234 -0.024034748 -0.54131025 -0.14556757 0.26979002 0.22411057
0.3539869 -0.03748584 -0.120717004 0.37677404 -0.32503626 -0.26218244 0.1575865 0.32560652
0.097912766 -0.18367454 0.15121673 -0.016503816 -0.2500158 -0.22028507 -0.19108415 0.2207907
-0.5674238 -0.3280489 -0.001583166 0.24111979 -0.11129917 -0.07077002 0.059489876 0.24590278
-0.01131566 0.33479375 -0.23586904 -0.23235215 -0.091968656 -0.38527507 0.06571219 0.04860302
-0.26982275 -0.4237357 0.4298949 0.2518289 -0.36827973 -0.28648722 0.2727539 0.25270697
-0.45507514 -0.12082246 -0.06063235 0.048885673 -0.19793192 -0.4366666 0.15924408 0.02978719
0.18084055 -0.37699682 0.14778939 -0.0932043 0.07758528 -0.09445148 0.16363686 0.24354629
0.071346246 -0.36576843 0.10491129 -0.1905724 0.23128867 0.48856685 0.23298892 0.0066105826
0.13337502 -0.1011454 -0.2855945 -0.07828038 0.015324429 0.023701755 0.07164261 0.15489325
0.18333668 -0.16955724 -0.12744607 -0.41940132 -0.7819878 0.00568104 -0.1486333 0.21121006
-0.094676465 -0.26522917 -0.59115654 0.5621659 -0.10379286 0.7580934 -0.6763833 -0.040447168
-0.09502731 -0.5496251 0.03650584 0.44975683 0.6683468 -0.88507384 0.35577586 0.9060617
1.436909 -0.54385775 0.3638603 0.085677594 0.093457095 0.0039946586 0.41613424 0.0033940796
0.46841365 0.22882676 0.24374942 0.13954708 0.36743945 0.21314014 0.08118183 -0.29717016
-0.10048247 0.36667973 -0.15605967 -0.0219678 0.4033206 0.05468159 -0.22030981 -0.0080681695
0.04810298 0.2570519 -0.32253662 0.473709 -0.28667772 -0.28950667 -0.2276397 -0.022073282
0.68913364 -0.6006245 0.0396454 -0.14758575 -0.5912711 -0.2832008 -0.054093737 -0.13919531
-0.94447434 0.0015758623 0.14164312 -0.1827688 -0.40701315 0.14481796 0.14129294 0.3919968
-0.09959584 0.11278967 -0.033206675 -0.12649374 -0.13019525 0.23335965 0.09340601 0.5046053
-0.07734272 -0.2504655 0.27354246 -0.17589892 0.07501751 -0.18778396 0.25223348 0.061047945
-0.40390188 0.025717128 0.16374879 -0.14859912 -0.21050364 0.4867108 -0.050767306 -0.07598035
0.026180232 0.13501616 -0.16117835 0.27373213 0.2599602 -0.1782291 0.066327855 0.21627921

bias f4 [20]
00000000: c721 793f 1258 013f 9a08 a13e 8b47 b2bd
00000010: 45ea f73e e848 9fbd 04c4 95bd b414 9b3e
00000020: f6a7 11c0 a6d3 513f 1eed fcbc e724 343e
00000030: 9757 91bf 4802 d5be d84c 9ebf adb5 c53d
00000040: 3957 133f c52a b1bf cc6d f13c cded fd3e
0.97317165 0.5052501 0.31451875 -0.08705052 0.4842092 -0.07777578 -0.07312778 0.30289233
-2.2758765 0.81963575 -0.030874785 0.17592202 -1.1354855 -0.41603303 -1.2367201 0.096537925
0.57554966 -1.3841177 0.0294713 0.4959549

weight f4 [20, 20]
00000000: 56ac aa3e 5e2a a2bd b40e 353e 8f41 ffbd
00000010: a725 5c3d 7254 08be 64e4 0a3c a7db 963e
00000020: 4695 86bf 3742 ac3e 4df3 d43c eeb9 f03e
00000030: b213 753d 6f0c eabc 7ace e53c 8928 dcbe
00000040: 86c2 9b3e 6efe 92be d313 713e 1dd2 acbe
00000050: 179e 4b3e cac9 2f3d bcd8 de3d 0016 76bd
00000060: b5d5 223e f0ec 803e d63c 6d3e f092 84be
00000070: 0fdc b9bd c6d9 a33e 2abd 3dbe 3a72 b13e
00000080: d88f 4dbe bb1c e7bd 40b4 a6bd d379 643d
00000090: caaf 5cbc 5719 623e ed07 693e 4fc6 d7bc
000000a0: 85a6 1ebf 4477 c8be a211 3b3d e6e3 04bf
000000b0: 784e c2bc d220 493d 6a22 f03d 4584 21bf
000000c0: a21e 3e3e 6ee5 943e 1300 73bf ea48 0ebc
000000d0: 704b 623d c5ce 9e3d c7d4 423d 731d ce3e
000000e0: 1846 c33e 18c5 893e aea5 1cbf 8cb8 fa3d
000000f0: 92cd 863e 5a1a 473e 11e4 9a3d 0a11 aebe
00000100: f56e 41be ea40 09be cc62 34bf df6e b9be
00000110: a9cc 8ebe e161 a63d f7a2 5fbe 745d 113d
00000120: 9b67 9dbe c85c 3dbe b2a4 a4be 9142 533c
00000130: 1463 8f3d bf5b 81be b978 763e 063d 0f3f
00000140: 34e0 ce3e 2763 3a3d a679 85bb bcee afbd
00000150: 32e5 ff3e 8bbe c0be 633d a6bd a345 04be
00000160: 2e09 d5bd 45b0 b13d 660f 21be 5d22 95be
00000170: 0798 95be 432a 38bf d474 bf3e 9536 58be
00000180: 9ff0 95be b783 04bf dc51 893e 79ce d03d
00000190: 3ea4 9bbe 12f6 30be 6aa1 a5bd 692a 1c3d
000001a0: 9101 92be dd5f 07bd 9a19 233e 4595 8cbe
000001b0: 2090 fc3e bb9b fabd e1c9 0abd 2e89 0dbe
000001c0: f3e2 d23e 50fa 693e aee5 283f f361 99bb
000001d0: aaf4 b63d c58b 733e 01f0 ac3c f65f fdbe
000001e0: e25c e33e dd28 513e b2f7 5bbd b592 ed3c
000001f0: 9a55 df3e 2575 31be 6df4 31be e94b 893e
00000200: ddb3 08bf faa9 2d3e 16d6 de3e c3c1 813e
00000210: 354f a2be c545 143e d76b dabe 6df8 0fbe
00000220: 0920 61bd d2fa 5abf 2b0d 61be 1ba0 b8bd
00000230: 50c4 0cbe b7ad d23d 1b51 a2bc f69f 963e
00000240: 5441 34be 7d5d 813b 1484 59be 689f a73e
00000250: 2345 043f 6fca c33d 09db 4b3d f1c0 3bbe
00000260: f275 cebd cd05 1cbd 9d69 103e 985f ab3e
00000270: 5b70 64bd 9121 d73e 4923 683d 56b1 103e
00000280: 3133 983c 3765 93bd ee94 93be 7cbd de3e
00000290: 4a88 5f3e 4561 103e 1350 eb3c 4ded f6bc
000002a0: 0cbb 233e 8d14 1ebd 8cf3 7f3c 9a1d 913e
000002b0: 313c 71be d9bf 89be 5553 4f3e 7f32 a03c
000002c0: f6a8 a9bd bfbd 2ebe ece4 d73e 0b13 a3be
000002d0: 2da9 993e 0cdf a7be 0a20 61be e4a0 063c
000002e0: 03a0 adbe e532 b73e 0530 bebe 2f93 ed3b
000002f0: 4d9f 403e b86e 72bd 14c6 a8bd 4525 573e
00000300: e12b 963d d2d9 103d 7882 7ebd 98ab df3e
00000310: 8624 3dba 2395 ad3e 8219 7a3d 2f4b 59be
00000320: ee3c af3d 3115 963d a2f3 d13d ffbb c4bd
00000330: ed8b a13e 7117 133d ec06 e43d ac79 17be
00000340: bd38 67be 6962 763e fddb e3ba 3055 4d3e
00000350: 42d6 4ebe ec5c 663d 1d58 c6be 5fca 08be
00000360: beac 963d da96 18bf 7753 96be 5075 acbe
00000370: 324b d1bb 33cc 0cbd a9c1 8abd ad9e a0be
00000380: c82a 543e 98d1 a2be 7497 813d 00e5 e1be
00000390: d9e5 02bf d0f6 643e 237a dcbe 54d5 7cbc
000003a0: c2ef 4f3e d742 5e3e 4768 e3bd 486c 403e
000003b0: f286 fa3d ac1a 1d3f b1c0 c0be 143c 6f3d
000003c0: f986 e5be 2a66 683e c341 abbe 1d42 de3d
000003d0: 7106 873e 65ad 88be bde6 d3b9 98bc 1a3f
000003e0: e152 553e 279e 92bb b495 d23e 6a67 10be
000003f0: b4ee 49be bd77 bfbe 1435 b83e 24ef 22bf
0.33334607 -0.07918237 0.1768139 -0.12463676 0.053746846 -0.13313463 0.008477304 0.29464456
-1.0514305 0.33644268 0.025994921 0.47016853 0.059833236 -0.028570382 0.028052557 -0.42999676
0.30421847 -0.2870974 0.23542719 -0.33754054 0.19884525 0.04291705 0.108811826 -0.060079575
0.15901835 0.2518077 0.23167738 -0.25893354 -0.09075176 0.32002085 -0.18529192 0.3465746
-0.20074403 -0.11284777 -0.08139849 0.055780243 -0.013469646 0.22079979 0.2275693 -0.026339678
-0.6197284 -0.39153492 0.045671113 -0.51910245 -0.023719057 0.049103566 0.11725314 -0.6309245
0.18566373 0.2908129 -0.9492199 -0.008684376 0.055247724 0.07754282 0.0475662 0.40256843
0.38139415 0.26908183 -0.6119031 0.12242231 0.26328713 0.19443646 0.075630315 -0.33997375
-0.18889983 -0.13403669 -0.7046325 -0.362174 -0.27890518 0.08124138 -0.2183951 0.035489514
-0.30743107 -0.18492424 -0.32156903 0.012894289 0.070013195 -0.2526531 0.2406949 0.5595249
0.40405428 0.045504715 -0.0040733395 -0.08590457 0.4997955 -0.37645373 -0.08117177 -0.1291719
-0.104021415 0.08676199 -0.1572853 -0.2912778 -0.2921755 -0.71939486 0.3739382 -0.21114571
-0.29285142 -0.5176348 0.26820266 0.101956315 -0.30398744 -0.17281368 -0.08087428 0.038126383
-0.2851682 -0.033050407 0.15927735 -0.27457634 0.4932871 -0.122367345 -0.033883933 -0.13821861
0.41188774 0.22849393 0.65975463 -0.004680866 0.08933385 0.23783787 0.021110537 -0.49487275
0.444068 0.20425744 -0.053703018 0.02900062 0.43619996 -0.17329843 -0.17378397 0.26815727
-0.5339945 0.16959372 0.4352271 0.2534314 -0.31701055 0.1447974 -0.426604 -0.1405961
-0.05496219 -0.8553897 -0.2197768 -0.09014913 -0.13746762 0.1028704 -0.019814065 0.29418916
-0.17603046 0.0039479122 -0.2124179 0.32738805 0.51667994 0.095600955 0.049769435 -0.1833532
-0.1008109 -0.03809147 0.14102788 0.3347137 -0.055771213 0.42017797 0.056674276 0.14130148
0.018579097 -0.071970396 -0.28824562 0.4350394 0.21829334 0.14099605 0.028724706 -0.03014245
0.15989321 -0.038593818 0.015622031 0.28342897 -0.23558117 -0.2690418 0.20246632 0.019555328
-0.0828418 -0.1706457 0.4216684 -0.31850466 0.30011883 -0.3278736 -0.21984878 0.00821707
-0.33911142 0.35781017 -0.3714601 0.0072502117 0.18810768 -0.05918762 -0.082409054 0.21010311
0.07332588 0.03536398 -0.062136143 0.43685603 -0.000721522 0.33902845 0.061059482 -0.21220087
0.08556543 0.07328261 0.102515474 -0.0960617 0.31552067 0.035911027 0.11134133 -0.14792508
-0.22580238 0.24060978 -0.0017384287 0.20052028 -0.2019892 0.05624096 -0.387391 -0.13358448
0.07357167 -0.5960518 -0.29360554 -0.33683252 -0.006387138 -0.034374427 -0.06775219 -0.3137106
0.20719445 -0.31800532 0.063277155 -0.44120026 -0.5113197 0.22359776 -0.43061933 -0.015431721
0.20306304 0.21705185 -0.11103874 0.18791306 0.1223277 0.61368823 -0.37647012 0.058406904
-0.44829538 0.22695222 -0.3344861 0.10852454 0.26372102 -0.2669479 -0.0004041697 0.6044402
0.20832397 -0.0044744196 0.4112984 -0.1410195 -0.19719964 -0.3739604 0.35977995 -0.6364615

bias f4 [20]
00000000: f29d 903e 115b 343f 6baa b0be dec7 87bd
00000010: d570 2d3f c2ac e4be 362d 8f3f 8cb3 0dbf
00000020: fb5d 14be b575 80bf bcc2 2e3f d5f0 afbd
00000030: d4ba ef3d 1ba5 21bd 637e 1fbf caa5 923f
00000040: 86b8 6a3f 8671 d53e 3097 40be cce5 20bf
0.28245503 0.70451456 -0.3450502 -0.066299185 0.67750293 -0.44663054 1.1185672 -0.5535209
-0.14488976 -1.0035921 0.6826589 -0.08590857 0.117055565 -0.039464097 -0.62302226 1.1456845
0.9168781 0.41688174 -0.18807673 -0.6285064

weight f4 [20, 20]
00000000: c8b8 3b3e bbd6 1a3d a158 f13d 331c 4dbe
00000010: 671d 093f 2493 33be 24cc ca3e 8ce5 dabe
00000020: e095 a73e 1f74 33bc 7ae3 853e badd d1bd
00000030: c2c5 b83e 7cef a53e f2e4 9fbe 3a6b 1b3f
00000040: 63bd 663e 6a51 0d3f d355 843d 523e 0bbe
00000050: b9b5 ad3e f586 e63d 890b f1be f1e9 563e
00000060: 8202 9e3e 5758 373e 986a 143f 29ac b0bd
00000070: fd96 40bd e34e 203e 4c37 37be 3fec ddbe
00000080: 93e6 b6be 8c25 cb3e d853 8ebe 0826 5dbe
00000090: 3584 1d3e ed01 283d edc3 65be 5f9a 2a3d
000000a0: 58b5 2ebf 8509 dbbd 21fe 0e3f 4042 dd3d
000000b0: 41f9 d5be 8340 4d3f 7f65 33bf 7db7 463f
000000c0: cd1d c63a adc8 5a3f e284 eebe 66ca 863e
000000d0: b9d6 48bf b847 2ebe 3d11 363f 8e90 a8bf
000000e0: 8469 fabe 3c7c 3fbe 99dc 353f 538a e13e
000000f0: 37d7 6ebe 98ee f0bc d72a 47bd 7cb6 3d3e
00000100: a5a8 17bd ccf9 07bd e30a f33d bc42 753e
00000110: 5e22 90ba 4a36 4e3e 9a7c 753e 35d7 ecbe
00000120: f7ae 33bd 71a1 803e 4994 db3d d9df 2cbd
00000130: e9a0 77be 2364 ff3e c849 2c3e 463a e5be
00000140: 9038 363e 326e 36be 9f5d 93be 8b62 8a3d
00000150: 4fd6 323e 3045 ba3e 68c9 3abe dd7c 253e
00000160: 0670 53ba 4cec 9fbd 9b0b c33d 0860 1a3e
00000170: c955 3abe 7c29 d93d 3e8e 6f3d 94b9 6cbe
00000180: eb00 97be 60af 02bf cd78 51be 2b73 af3d
00000190: 7eb3 7c3d b12b 263e 220b 373e 019c 3f3e
000001a0: 7e62 aa3e 8e8a 6dbe d617 75be 2fea a1be
000001b0: f1ca 603d c75a aabd 0b23 2abc e6ef a0be
000001c0: 8cd9 91bc 62b3 873e 8093 48bf 3ad6 d23e
000001d0: fccf a8be 0db0 d93c 9cc0 4a3e fa71 cabc
000001e0: eb20 14be eb43 c83e 0af8 7f3d 2225 46bd
000001f0: 9afd cdbe 2941 013f 62c1 a3bc 84b5 703d
00000200: bce6 7dbe 1c15 cc3e b6ef 73be 3afc 8dbe
00000210: b749 203d f580 8ebe 0bcf de3e f57e dbbd
00000220: d209 053f af53 92bd b164 023e 2654 6bbe
00000230: c04a a5be dd7f babe 9000 28bf 68a1 33bb
00000240: dbcf 4cbf bbee d83e aee0 5d3e c8b7 a23e
00000250: 54dc 3e3e 4251 313c 8970 893e 087b e4be
00000260: 808f 363f b507 34bf 65ba cabd eee0 313e
00000270: cbca 233d 020c bb3c 5065 debe 80e6 cf39
00000280: fffb d33e c6de c4bd d1d9 05bf dd71 8abe
00000290: 947c 823e 1022 19bc 352a eabb bb44 c0bd
000002a0: e1c7 3c3e f05d 2abe 69e0 533d 092d e2be
000002b0: 5511 d43e 20f8 5cbc 9412 913e 56ae 8abe
000002c0: e3d0 f9bd 40eb 8cbe fc80 4f3e 6bea 3bbd
000002d0: 3b72 973e 4011 a43d 2f42 0fbd e77e 82be
000002e0: b977 b7bd 33e6 04be 5604 40be 1a2f 163e
000002f0: ab25 16b9 3cfd 8e3e 6662 71be c3ea 43be
00000300: 1ef6 86be 40db da3d 5e3f bc3e 6573 9dbe
00000310: 49ba f4bd 872f ccbe faa7 24be 35dd 823d
00000320: 445c c23c 9f26 073f 1f45 d33d a787 c43e
00000330: 6484 63bc 82da e73d 56c0 16be 5e1c 20be
00000340: ed6f 5d3e 5fc9 403e 587d e9bd 29b0 203d
00000350: 0d72 213e 2489 6a3e c16f f6bd 1b4d 4dbc
00000360: 7a8d e3be 2030 1bbf 176d ac3c f3ba e7bd
00000370: 73da 093e ead5 763e 88bd 8ebd e28a 563b
00000380: 7c1b 29bd cb6c 3a3e acca 0f3e 6867 21be
00000390: 2da1 a9be e0ad 04be b909 44bd 36c7 edbd
000003a0: d6fd 94be 3fc7 0cbe 8043 f73c 42a3 5e3e
000003b0: 1a8f 7f3c 54d9 823c 8bd8 23be 2e40 003e
000003c0: 8261 633e fd8d 0f39 8684 a13c b7ef 4f3e
000003d0: b3bc 1fbe 7a10 4cbe 79fb d43d a64c 86be
000003e0: e487 0d3e 3fd9 183e 8d41 5dbc 536f a1ba
000003f0: d25c 81be a04a a3bd bd96 bc3e 33e7 103f
0.18332207 0.03780244 0.11784483 -0.20030288 0.5356049 -0.17536598 0.39608872 -0.42753255
0.32731533 -0.010952978 0.26150113 -0.10247369 0.36088377 0.32409275 -0.3122936 0.6071049
0.22533183 0.55202353 0.06461682 -0.13597992 0.33927706 0.1125621 -0.47079113 0.20987679
0.30861288 0.17904793 0.5797515 -0.08626587 -0.047018994 0.15655093 -0.17892188 -0.43344304
-0.3572279 0.39677083 -0.27798343 -0.21596539 0.15382464 0.04101746 -0.22438021 0.041651126
-0.6824546 -0.10695175 0.5585652 0.10803652 -0.41791728 0.8017656 -0.70076746 0.7762373
0.0015115082 0.85462457 -0.46585757 0.26326293 -0.7845264 -0.17019546 0.71120054 -1.3169115
-0.48908627 -0.18699735 0.7103973 0.44050846 -0.23324285 -0.029410645 -0.04862484 0.18526644
-0.037026066 -0.03319721 0.11867311 0.23951238 -0.001099657 0.20137897 0.23973313 -0.4625794
-0.04386803 0.2512317 0.107216425 -0.042205665 -0.24182476 0.49881086 0.1682502 -0.44771022
0.17795014 -0.17815474 -0.28782365 0.06757077 0.17464565 0.3638091 -0.18240893 0.16160913
-0.0008065704 -0.07808742 0.09523698 0.15075696 -0.18196787 0.10603616 0.058485262 -0.23117667
-0.29492888 -0.5104885 -0.20456238 0.085668884 0.061694615 0.16227604 0.1787534 0.18711855
0.3327827 -0.23197386 -0.23934874 -0.3162398 0.05488104 -0.08318096 -0.010384331 -0.31433028
-0.01780393 0.26504046 -0.7835007 0.41179067 -0.3297118 0.026573205 0.19800037 -0.024712551
-0.14465682 0.39114317 0.062492408 -0.048375256 -0.40232545 0.5049005 -0.019989673 0.058766857
-0.2479505 0.39859855 -0.23821911 -0.27731496 0.0391328 -0.2783276 0.43517336 -0.107175745
0.5196811 -0.07144868 0.12733723 -0.22981319 -0.32283592 -0.36425677 -0.6562586 -0.0027409438
-0.8000466 0.42369637 0.2166774 0.3178084 0.18638736 0.010822596 0.2684367 -0.44625115
0.71312714 -0.7032426 -0.09898833 0.1737096 0.03998832 0.022832874 -0.4343667 0.00039653853
0.41403195 -0.09612803 -0.52285486 -0.27039996 0.2548567 -0.0093465 -0.0071461448 -0.09388109
0.18435623 -0.16637397 0.051727686 -0.44174984 0.41419473 -0.013486892 0.28334486 -0.27086133
-0.12198045 -0.27523232 0.20264047 -0.045877855 0.29579338 0.08011103 -0.034975227 -0.25487444
-0.08958382 -0.12978439 -0.18751654 0.14666405 -0.00014319147 0.27927577 -0.23572692 -0.19132523
-0.26359648 0.1068635 0.36767095 -0.30752102 -0.119495936 -0.3988001 -0.16079703 0.06389848
0.023725636 0.52793306 0.10315918 0.38384745 -0.013886545 0.11320974 -0.14721808 -0.15635821
0.21624728 0.18826817 -0.114008605 0.0392305 0.15766163 0.22903877 -0.12033034 -0.01253059
-0.44443876 -0.6062031 0.021048112 -0.113149546 0.13462238 0.24105039 -0.06969744 0.003273659
-0.041285977 0.18205564 0.14042157 -0.15762103 -0.3313078 -0.12956953 -0.047860835 -0.11610262
-0.2909991 -0.13747881 0.030183554 0.21741965 0.015598083 0.01597277 -0.16000573 0.12524483
0.22205165 0.00013690437 0.019716512 0.20306288 -0.15599327 -0.1992816 0.10399527 -0.26230353
0.1382137 0.14926623 -0.013504398 -0.0012316502 -0.2526613 -0.07973218 0.36833754 0.5660278

bias f4 [20]
00000000: 0661 2e3f c0ae 2e3f 28c4 87bf 863b d8bc
00000010: 8733 6fbd 63a7 acbe e71c e13c 3316 cc3e
00000020: 272f 733e 12b8 05be 095f e0be 8d4b ec3e
00000030: 8ef3 f93e 5ab1 d03e a85c 393e fcb0 20be
00000040: 51dd 1fbe 1fd2 123e 2479 cebe 9bf5 0b3f
0.68116796 0.682354 -1.0606737 -0.02639557 -0.05839875 -0.33721456 0.027479602 0.39860687
0.23748456 -0.13058499 -0.43822506 0.4615139 0.4881863 0.40760309 0.18101752 -0.15692514
-0.1561177 0.14337967 -0.40326798 0.5467164

weight f4 [20, 20]
00000000: 8427 1c3e 3a6a e93d 4244 5d3e 4d27 6abc
00000010: 4086 1b3e 4d7c 663d 5a4e 9f3c 2069 fa3d
00000020: b53e 243f f32f 4a3e 9867 153d a585 973d
00000030: 090d d73d ef1a 89bd d11f 8b3d 1198 a4be
00000040: 3a1d 303e 02a2 d73d f2e8 77be 36ce c4bd
00000050: a2a1 563c 50f7 7f3d 4207 f03e c392 5a3e
00000060: dfe3 443e 4f0e 8ebe 9fcb 7f3e 65b6 96bd
00000070: 1f8a e43e de36 ddbe b1ba abbd 2bce 5f3d
00000080: 6caa f63c 6e45 dabd f661 afbe 0fff 35bf
00000090: f3af f4bd 8321 fa3e afaf edbd 7488 b33e
000000a0: 21c0 b13e 7e1a 073f 0570 d93d 339b e13e
000000b0: e881 4fbe 17ab e8be c3ba 993e 32b1 c23e
000000c0: 6364 363e cc63 5bbe dac6 bebd af66 533e
000000d0: cada 333e 611d f73e 29f1 34be d1ff ecbe
000000e0: a1dd 10be abab 553d 1649 2ebf a363 cd3e
000000f0: ce2f 42be 2379 403e 991e ae3e 9362 dc3c
00000100: a233 c63c 24a6 83be c701 823d 24fe 363e
00000110: d4e0 833d dd8f 1dbc 5c61 c9bd 6661 33be
00000120: 5e23 833e f843 713e 2dc6 503d c463 eb3d
00000130: 7851 53be 8f39 f23e 92a2 003d 05c9 883e
00000140: e1b0 69bf 7a2a babb 43c2 b03f 795e cbbe
00000150: 0e80 07bf eb0d e73d 3339 293d a40b 0ebf
00000160: 4982 ae3d ccda 413f 09b5 e53e d599 a3be
00000170: 5d42 96bf 0356 b2be 07d2 61bf 4778 bfbd
00000180: ee78 a9be cd38 e53e f429 5d3d be9a 03bf
00000190: 9589 9dbe d726 b63d fc10 323e 1409 9dbd
000001a0: 8c17 873e 021a 57bc 2612 96be 1312 9cbd
000001b0: cd39 bf3a f75c 28be 2649 a3be fd4e 8cbe
000001c0: a2e4 2bbe becc 2b3e f6a5 e4bd df55 e03e
000001d0: 730e fcbd 09c8 c1bd 9037 b8be 406e 5bbe
000001e0: 45e7 a03e 20e7 813e 491b f83d 87df 0b3e
000001f0: 2af6 31be 205d bb3d fba6 03bd ed88 813e
00000200: 9f94 153d 6286 99bd f75b 80be 2728 5e3e
00000210: 570c 293e 309e 833d cc8f 3f3e e669 0abe
00000220: 99f8 1e3e 76d4 253e ce3d 5fbe 9ee1 a83e
00000230: 8aa1 3cbf 5a50 65bd 1db8 5a3f 4e6c cfbe
00000240: 4d0c 94be d1d7 503b 8b88 d03d 685b 85be
00000250: 0967 13bd 5b4e 563f 335b ec3e 5292 cabe
00000260: 9e8d cabe 5a5f 78be 42bd ebbe 9385 83be
00000270: 6f11 bebe fca1 633e 41b3 1d3e febd 6dbe
00000280: 2bf3 a0be 5f95 89be d0c3 583d b3af 98bd
00000290: 5188 a5be 7fff 7ebe ffd0 d9bd 1895 e8be
000002a0: 6bbf 38be 7131 e63e 2bca 6a3e 099d b8be
000002b0: f0ea e0be 6a0b ce3e f2b2 4fbe 6480 5a3d
000002c0: cd13 99be a1d3 babd 857a c33d e2c5 11be
000002d0: cba6 6dbe aac9 5b3e d592 1e3f 3b0f 113d
000002e0: e77b 19bc acaf 98bd dcb4 a4bd cda0 243f
000002f0: dbd8 603e 6d30 d83d 205d 9e3e 53f8 75be
00000300: fe66 f3be 726e ec3e 76ff 3abe 7f25 7dbe
00000310: ac28 17be c8ba 063f 7fe3 a43c e8e5 ed3d
00000320: e366 15bb df94 75be a15d 483e a720 6c3e
00000330: 3050 2bbe 4967 933e e00e 12be 5e40 b4be
00000340: aa4b d03c 7342 e9be 7341 ea3d 67c7 6d3d
00000350: cc71 c2be 7d5e d7bd a67f dcbe 574a 3d3e
00000360: ef49 313e b43b 03be 19a8 a23e 9d84 8ebe
00000370: bb55 a6be ec5d 4dbd 935e 35be a465 8b3e
00000380: 4adb 8ebe bcb8 143d 02f1 27be 0b0e 1a3f
00000390: 1a3b ecbd 634a 9ebe 6103 d0bd 6039 123e
000003a0: a48c d13e 5157 543e 5e10 1e3e 68b1 05bd
000003b0: c5be fd3d 49af 11be 5be6 b7bd 011e 86bb
000003c0: a754 35be 3398 84be 85f1 42be d697 32be
000003d0: f3c3 95be 1e50 e63e f83b 8ebe ed68 4bbe
000003e0: 8faf 4dbc 7d51 e3bd e842 d43d 5c94 a9bd
000003f0: 37c0 dfbd e131 7f3e b6b0 29be 6096 853e
0.15249449 0.11397214 0.2160807 -0.014291597 0.15187931 0.056270886 0.01944654 0.12227082
0.64158183 0.19744854 0.036475748 0.073985375 0.10500533 -0.0669459 0.06793178 -0.32147267
0.17198649 0.105289474 -0.24209955 -0.09609644 0.01310006 0.062491715 0.46880537 0.21345048
0.19227551 -0.27745292 0.24980019 -0.07359008 0.44636628 -0.43205923 -0.08385218 0.054639976
0.03011056 -0.10657774 -0.34254426 -0.71092314 -0.11947622 0.48853692 -0.116057746 0.35065043
0.34716895 0.527748 0.10617069 0.4406372 -0.20264399 -0.4544303 0.300253 0.38025814
0.17811732 -0.21424788 -0.09315272 0.2064464 0.1756393 0.48264602 -0.1767012 -0.46288922
-0.14147045 0.05216567 -0.6808027 0.4011508 -0.18963549 0.1879621 0.3400772 0.026902473
0.024194542 -0.25712693 0.06347995 0.17870384 0.06439367 -0.009616819 -0.09833023 -0.17517623
0.2561292 0.23561084 0.050970245 0.11493638 -0.20636547 0.4730954 0.03140504 0.26715866
-0.9128552 -0.005681333 1.3809284 -0.39720514 -0.5292977 0.112819515 0.041314315 -0.5548651
0.08520944 0.7572448 0.4486468 -0.31953302 -1.1739002 -0.34831247 -0.882111 -0.09349113
-0.33100075 0.44769898 0.053995088 -0.5140799 -0.3076903 0.08894127 0.17389292 -0.07667747
0.26385152 -0.013128759 -0.2931072 -0.07620635 0.001458937 -0.16441713 -0.31891745 -0.27404013
-0.16786435 0.16777322 -0.11164467 0.43815514 -0.123074435 -0.09461982 -0.3597989 -0.21428776
0.31426445 0.25371647 0.12114579 0.13659488 -0.1737906 0.091486216 -0.032141667 0.2529978
0.03651869 -0.074963346 -0.25070164 0.21695004 0.16508614 0.06426656 0.18707198 -0.1351696
0.1552452 0.16194329 -0.2180092 0.32984632 -0.7368399 -0.055984832 0.85437185 -0.40512317
-0.28915635 0.0031866918 0.101822935 -0.260463 -0.035986934 0.8371331 0.4616333 -0.3956476
-0.3956117 -0.24255124 -0.4604283 -0.25687847 -0.37122676 0.22229761 0.15400411 -0.23217008
-0.31435522 -0.26871774 0.052921116 -0.07455387 -0.32330564 -0.24902152 -0.10635566 -0.4542625
-0.1804177 0.44959596 0.22928683 -0.36057308 -0.43929243 0.40243083 -0.20283106 0.0533451
-0.2989792 -0.09122396 0.09544853 -0.14235643 -0.23208158 0.21463647 0.619428 0.035414916
-0.0093679195 -0.07455382 -0.08042309 0.6430786 0.21957724 0.105561115 0.30930424 -0.2402051
-0.47539514 0.46178013 -0.18261513 -0.24721335 -0.14761609 0.52628756 0.02012801 0.11616117
-0.002279692 -0.23982571 0.19566967 0.23059331 -0.16729808 0.28789738 -0.14263487 -0.35205358
0.025426704 -0.4555851 0.11438265 0.058051493 -0.37977445 -0.10516069 -0.43066138 0.1848539
0.1731336 -0.12815744 0.31768873 -0.2783555 -0.32487282 -0.0501384 -0.17711858 0.27225983
-0.2790168 0.03630899 -0.16400531 0.6017768 -0.1153471 -0.30916128 -0.101568945 0.142797
0.40927613 0.20736434 0.15435931 -0.03263989 0.12389902 -0.14227022 -0.08979484 -0.004092932
-0.17708074 -0.2589737 -0.19037445 -0.17440733 -0.2925106 0.44983 -0.27780128 -0.19864245
-0.012554063 -0.11099527 0.10364324 -0.082802504 -0.10925334 0.24921371 -0.16571316 0.2609129

bias f4 [20]
00000000: 45bc f13e ca50 a43e 349c f73e 38f7 9c3e
00000010: 981a 21bf 68d5 a5be 4932 81bd 33b5 1dbe
00000020: 51f7 c2be e8ad 1b3f 241c e2be 12ba c53e
00000030: 1915 1f3d 1a4d 803e dc4e 4b3e 6963 b83e
00000040: e43d a23e ee19 043f 69a9 87be 2731 95be
0.4721395 0.32092887 0.4836136 0.30657363 -0.62931204 -0.3238938 -0.06308419 -0.15401153
-0.38079312 0.60812235 -0.44162095 0.38618523 0.03883848 0.25058824 0.19854301 0.36013344
0.31687844 0.51602066 -0.26496437 -0.29139063

weight f4 [20, 20]
00000000: 5c45 283e c34a 97bc 2838 6bbd d690 013e
00000010: 0f58 91be bbe6 833e d52e fe3d 5122 d8bd
00000020: c406 beb8 df58 0fbd 90f7 003e 4888 073e
00000030: 90fe ac3e 0648 45bd 7d6a e3bd 6be1 a13e
00000040: 5e34 3f3d 9476 073e e0e8 4e3e 9ef6 23be
00000050: 007b c8be 0827 fe3e 27d0 a2be 8f5e 62bf
00000060: 8f19 adbd 74d9 463f 20e8 c8bb 4389 d0bd
00000070: fd23 033f 8c45 fabb 1dd6 d73e 177f edbe
00000080: 56e0 563f 50c9 fbbe 3a09 ba3e f4de 843e
00000090: 46ab b7be acd1 8dbf eef8 1f3f ee0b 783f
000000a0: a2a8 89be 7cf7 65be 4844 1ebd da13 8cbd
000000b0: acdb d7be f96f 97be 0ad3 893d 7780 c2be
000000c0: ab8a 71be 0f16 21bd 880d 89be d70d 80be
000000d0: 2884 b1be 9b0b b33d f588 a13e 161e 243e
000000e0: 796b 493e 4d9b a63d f568 823c 0256 d8bd
000000f0: ac70 1d3e 917b 49be 70e8 3dbe 026e c23e
00000100: af4e ccbd bf36 06bf b8de 7abe fc7c 3cbd
00000110: f1d9 f6be 48d0 943e 6ffc abbe bd89 d43e
00000120: 8522 eebe 3464 003f 37cf a8bd e629 ccbd
00000130: f097 8a3d 0624 473f 1b75 2dbf 5a11 38bf
00000140: 3b71 ccbe c4cf 8cbe 4b5f 7d3d 6071 e1be
00000150: 7343 38bf c82e 8c3d d985 09be 552c f5be
00000160: 00ed 723e 4352 d8be 1031 dc3e b603 09be
00000170: 01cd 2d3d b07c 60be 5a44 543e 9e23 ea3d
00000180: c116 8dbe 09fe bdbe bf2f df3e bf29 31be
00000190: 628f 6bbd a2fa 0ebf aaf3 08bf 07ea 423e
000001a0: 9864 82bf 6639 56be 5275 10bc ded1 e0be
000001b0: 8de7 943e b464 11bf 2eac 27be 903c d43e
000001c0: 2b74 9bbe 92c1 dabe ffce 23be 5f86 c43e
000001d0: 2cdf 9e3e 9918 e63c 0c3f 29be 080d da3e
000001e0: b777 87be 5938 013f 5e1c 1a3e 0506 243e
000001f0: b5f3 093f 939d ddbc abe0 8d3e e1fe aebd
00000200: fc7a 2d3e ca1a ea3e 78c0 2d3e a86c 25be
00000210: 53b0 a9bd 2115 8f3d fcbe cf3e e802 05bf
00000220: f27a d1bd f7c6 8bbe 5054 0d3d c6f1 84be
00000230: f5b7 0dbe 77c9 7e3e 9f3c 92bd 8c93 79be
00000240: 3b96 8c3e c688 2f3e 01ac 49bb 41f4 82be
00000250: 4aef 873e b43b 713d 71ca cb3e 38a5 96be
00000260: 77e8 e43e 9ae6 75be 5796 9e3e 7e8c 073e
00000270: d3c3 f0be c17f 54be 4ce3 e43c a84f f73e
00000280: 9f19 7cbe cbbd 343f 50fd bd3e 7131 a73e
00000290: a713 633f cf02 a93d 138a 453e 2bf7 393f
000002a0: 4ff8 ea3e 974a 833f e3bc 65be d66a 87be
000002b0: d6fc 693d b7bb 953e 9798 a03d 3b8b ae3c
000002c0: 1867 a43e 0de4 9abe 808e 243d 2a83 88be
000002d0: 8af5 8dbe ec0c 1dbf f9a5 3dbe df1b 1a3e
000002e0: 17f5 29be 1fb3 8f3d 9d5a 73bd 51f9 a1be
000002f0: 760e 1f3e 7f2a e7be b766 333e b9a1 32be
00000300: db97 90be b841 07be d6af 4abd ff65 f8be
00000310: 6c63 95bc 459d 0ebf d9b0 80bd f705 a13b
00000320: f6cb 2a3f 1fa8 cc3e f428 923e 22db 173f
00000330: 9383 5b3e d072 04bf c7c2 883e 2c68 883e
00000340: 56eb b9be b45a 323f f6d4 d4be bf3f 44be
00000350: f378 5bbf f6ee 023f 394e b6be cc54 05be
00000360: efca 073f 0267 f03e 0b67 1ebf 2df1 50bf
00000370: 9dc5 853e 2b6e 273c c74b e03e 86c0 4c3e
00000380: a456 a8be c050 0c3d 4eaf 91bb 3658 86be
00000390: be6d cc3d 6fe5 9ebe 9368 2b3e 8ea9 803e
000003a0: 5f42 4e3e 3a8f f23c 0318 cbbe aa04 173e
000003b0: a8f5 7f3e 59c8 a2bd 2031 c03e 78a5 e0be
000003c0: 3a27 983e 823a 4fbf a89c 073e dc86 dcbc
000003d0: 7c46 24bf 920a 883d 149a c3be 598f ffbe
000003e0: f0a8 193e 64cc 87be 1c12 49be d053 7dbd
000003f0: 8f39 c9bc a1f3 093d 653e 8e3d 0d79 343e
0.16432709 -0.018468266 -0.0574266 0.12652907 -0.28387496 0.2576197 0.12411276 -0.1055342
-9.061166e-05 -0.034996863 0.12594438 0.13235581 0.33787966 -0.04816439 -0.111042954 0.31617293
0.0466808 0.13228828 0.20206022 -0.16012046 -0.39156342 0.49639153 -0.31799433 -0.88425535
-0.084521405 0.7767556 -0.006131187 -0.101824306 0.5122679 -0.007637685 0.42155543 -0.46386024
0.8393606 -0.49177027 0.36335164 0.2595135 -0.3587286 -1.1079612 0.6248921 0.96893203
-0.2688647 -0.22457689 -0.038639337 -0.06839724 -0.42159784 -0.29577616 0.06729706 -0.37988636
-0.23588054 -0.039327677 -0.26768136 -0.2501056 -0.3467114 0.08742448 0.31549802 0.16027102
0.19669904 0.0813509 0.015919188 -0.1056328 0.15375012 -0.19676043 -0.18545699 0.37974554
-0.09975945 -0.52427286 -0.24499023 -0.046017632 -0.4821315 0.29065156 -0.3359103 0.41511336
-0.4651071 0.501529 -0.08242648 -0.09968929 0.06767261 0.7778934 -0.67756814 -0.71901476
-0.39930138 -0.27502263 0.061858457 -0.4403181 -0.7197792 0.0684486 -0.13429965 -0.47885385
0.23723221 -0.4225026 0.43006182 -0.13380322 0.042431835 -0.21922565 0.20729199 0.11432575
-0.27556422 -0.37107876 0.43591115 -0.17301081 -0.057509787 -0.55851185 -0.534968 0.19034587
-1.0186949 -0.20920333 -0.008817034 -0.43910116 0.2908291 -0.56794286 -0.16374275 0.41452456
-0.30362067 -0.42725807 -0.15996931 0.38383767 0.31029642 0.028087901 -0.16527957 0.42588067
-0.26458523 0.50476605 0.15049884 0.16017921 0.5388749 -0.027052676 0.2771047 -0.08544708
0.16941446 0.45723563 0.16967952 -0.1615473 -0.08285584 0.06986452 0.40575397 -0.5195756
-0.10228528 -0.27300236 0.034504235 -0.25965708 -0.13839705 0.2488154 -0.07140469 -0.24372691
0.27458367 0.17142019 -0.0030772688 -0.25576976 0.2654975 0.058894828 0.39802888 -0.29422927
0.44708607 -0.24013749 0.30974075 0.13237187 -0.47024402 -0.20751859 0.027940415 0.4830296
-0.24619149 0.706021 0.37107325 0.32654908 0.8870186 0.08252489 0.19290952 0.72642773
0.4589257 1.0257138 -0.22435336 -0.26448697 0.05712589 0.29244778 0.07841604 0.021306625
0.32109904 -0.30252114 0.04017496 -0.2666257 -0.27726394 -0.6134784 -0.18520345 0.15049694
-0.165974 0.070165865 -0.059412587 -0.31635526 0.1553286 -0.4514961 0.17519651 -0.17444505
-0.28240857 -0.13208663 -0.049484096 -0.48515317 -0.018235885 -0.55708724 -0.06283731 0.004914041
0.6671747 0.39972016 0.2854687 0.59318745 0.2143691 -0.5173769 0.26711103 0.26641977
-0.3631236 0.6966965 -0.41568726 -0.19164942 -0.8573143 0.51145875 -0.35606554 -0.13020629
0.5304403 0.4695359 -0.6187598 -0.81618005 0.2612733 0.010219137 0.43807814 0.19995317
-0.32878602 0.034256697 -0.004445947 -0.26239175 0.09981869 -0.3103442 0.1673911 0.2512936
0.20142506 0.029609311 -0.39666757 0.14747873 0.24996054 -0.079483695 0.3753748 -0.43876243
0.29717427 -0.8094865 0.13243353 -0.026919775 -0.6417005 0.06642641 -0.3820349 -0.49914053
0.15005851 -0.26523125 -0.19635814 -0.061847508 -0.024563579 0.03367961 0.069454946 0.17624302

bias f4 [20]
00000000: 895f 043f 499d fbbe 8f1a d2be 9e63 0d3f
00000010: fd34 30bf e300 783e d81d 35bd 1b4f b4be
00000020: 26b6 653e 74a7 b9be bdc7 2e3f a6c3 b5be
00000030: 2ce6 ad3b b0b6 e43d d64e e7be c9c7 04be
00000040: 7239 04bf f3bc 2fbe 4faa 8b3e 9863 113f
0.51708275 -0.49143437 -0.41035888 0.5523013 -0.68830854 0.24219088 -0.044217914 -0.35216603
0.22432765 -0.3626057 0.68273526 -0.3550083 0.0053069796 0.111676574 -0.45177335 -0.12966837
-0.51650155 -0.17161922 0.27278373 0.56792593

weight f4 [20, 20]
00000000: e0b9 bfbe 1539 5fbe b62d c8bd f08b e13e
00000010: f85c 0fbf 41ce cfbe b848 983e 8f86 a6be
00000020: df82 333f d640 cabc 822f 0a3f 5f99 483e
00000030: fdf6 003d 1d3a 9fbe cf76 c83d e07e 0a3f
00000040: e635 29be 6bf8 503d 71cc b1be 7e75 49be
00000050: 18e3 25bf 6c26 bd3e 1201 8d3f ddef cd3e
00000060: 1e71 543f 27b6 863f ecca 49bf 4b0e f7be
00000070: 2909 3dbe 229a ea3e 0476 2bbf b8b1 443f
00000080: 04d5 a63e 7141 16bf dec3 5c3f 3aa9 5a3f
00000090: 1b4a 9a3f e47b 65bf 2e7b 41bf 64e1 5dbf
000000a0: e326 82be af4a a63d f7c1 c53e 794a c8bd
000000b0: 0116 d23e fc47 433e 02b1 abbd d222 903e
000000c0: ded8 dfbd cf0c 873e f510 48be 4062 0cbc
000000d0: d919 bebe 28c8 093e 73b3 d43d 5669 c13e
000000e0: da0a ad3d fc70 323e d793 92be f83c 213d
000000f0: ad83 a73e c757 be3e d348 9b3d 09fe 4bbf
00000100: 43ca 6e3e a58b f6bc aa11 a8be f556 433e
00000110: 4ba0 37be dbda ed3e b21b 06bf b39b d63d
00000120: c358 eebd c373 b43e 4d79 86bd c286 12be
00000130: 67d1 1f3e 617d ef3d 14fb 293d aa11 a6be
00000140: 4f6e 5dbe feb6 2cbf 9ddd 1c3f 7eba 823f
00000150: 3ef6 dd3d 763e 13bf 0df7 843e 9e12 a9be
00000160: 2915 2c3f 4a25 c6be c916 ee3e 2e93 f73e
00000170: 2cb6 6fbd 5362 72be 2ad9 c23e 8c49 cabe
00000180: 8a3d 6d3b 9ebf 85be e4e3 86be 618f 143e
00000190: 270d 9cbd 0a5e dfbe 4994 453d 8409 143e
000001a0: 711a 0bbf 3727 bc3d f2b7 5f3e 3cf5 e43e
000001b0: 292d eabd 59f5 c3be 30ff 043f 0078 de3e
000001c0: c725 8fbe e4a5 993d ab67 5d3e 860d a43e
000001d0: 24ab 6b3d e75c a6be 8b39 86be 4f7a 0f3e
000001e0: 02ed 28bf e6f6 febe 13b1 073e a39c 1c3f
000001f0: 1d11 4cbf c49c aebe 0e04 68be 39f1 06bf
00000200: 204c ef3e a2c8 82bf 59e4 683f e69d 3b3e
00000210: 3427 2e3e 0c54 ebbe e467 4e3e 8a6d 2dbe
00000220: 4bc5 48be 6332 aabe 2eca 40bd 7b13 d8bd
00000230: 7a5c ed3e 07b2 95be 6966 5dbd 7923 483d
00000240: 6dab 74be dcd8 443e db7c 1c3b 8865 d2bd
00000250: e578 3dbe e83a 99bd 6fdb d2bd 7d26 60be
00000260: 3759 1bbe a77f b03e a8fe 2abc e0c1 153e
00000270: 6967 413c d552 143e b596 6b3b 9663 adbd
00000280: b839 99be d7da 3bbf 35fb 273e 1115 5d3f
00000290: 665d 81bf 2c7d 52bf 0f19 823e cff6 dbbe
000002a0: 214c 2d3f d188 d9be 415b 583f 2259 ae3e
000002b0: 9737 eb3d fb9a 24bd 6e24 663e 27b1 e5be
000002c0: 49eb 10be e884 16be 56ed d4be 3cc0 92be
000002d0: a3d1 72bf fcb8 a03d d913 813f 1009 f53d
000002e0: 2c47 c73f eb50 c73f 9ab3 1abf 4df1 953d
000002f0: d80e 3dbf 3c28 643e fc32 f3bf aaa9 b73f
00000300: eb05 813f 9fd7 4cbf 1475 cd3f 67eb e33f
00000310: ffc4 bb3f 2180 d4bf 01e6 acbf 4df7 c3bf
00000320: d7de 193e 76f6 fabe fd5b 96be 364f 213e
00000330: 2c77 94be 48d8 41bf 73b0 bc3d 44e7 533d
00000340: 9107 f63e 02cd 5cbe ec98 a73e 99b1 f2be
00000350: abec 353d 963d 92be 3c6d d03d 233d fabc
00000360: 2e4d b0bd ba89 0dbe 453f e83e a4a7 713e
00000370: e9b5 c63c f42d d8be d6ec b73e 3caa a63e
00000380: f170 adbe ae0f ccbe cb38 a9bd dee2 8fbe
00000390: a233 d43e 924f 67be ca4e 493f 2bb1 893d
000003a0: af06 c83d 13be 9ebe ac3a 02bc 7ce4 37be
000003b0: 33bf 30be 201c 77bd d5e9 463e f4db 223e
000003c0: 3cb2 f9bd d0e0 d83e 05da 133e 9d51 bfbe
000003d0: ddc9 103f 908b f03e 91b6 5c3e 0175 7d3e
000003e0: fb1b 1bbf 530f 4bbe 27b2 bbbe 1c05 52be
000003f0: 2586 a23d 284e 3fbd f269 fabd d5b9 07be
-0.374465 -0.21799119 -0.09774344 0.44052076 -0.56001234 -0.40587047 0.2974298 -0.32524535
0.7012157 -0.02468912 0.5397874 0.19589756 0.031485546 -0.31099024 0.09788286 0.54099846
-0.16524467 0.05101816 -0.3472629 -0.19673726 -0.6479964 0.36943376 1.1015952 0.40222064
0.82985103 1.0524338 -0.7882526 -0.48253092 -0.18460526 0.4582072 -0.6697695 0.7683368
0.32584393 -0.58693606 0.8623637 0.8541447 1.2053865 -0.8964217 -0.7557858 -0.86672044
-0.25420293 0.081197135 0.38624546 -0.097798295 0.41032413 0.19070429 -0.08383371 0.28151566
-0.10930036 0.2637696 -0.19537719 -0.0085683465 -0.37129095 0.1345526 0.1038579 0.37775677
0.084493354 0.17425913 -0.28628418 0.039364785 0.32717648 0.37176344 0.075822495 -0.796845
0.23319344 -0.030095885 -0.32825977 0.1907614 -0.1793224 0.46456036 -0.5238601 0.10478916
-0.11638024 0.3524457 -0.06566105 -0.14309219 0.15607224 0.11693836 0.041499212 -0.32435352
-0.2162411 -0.67466724 0.61275655 1.0213163 0.108379826 -0.5751718 0.25969735 -0.33022016
0.6721979 -0.38700324 0.4650176 0.48354477 -0.058523342 -0.2367032 0.38056308 -0.39509237
0.003620001 -0.26122755 -0.26345742 0.1450782 -0.07619696 -0.43626434 0.04823712 0.14456755
-0.5433722 0.09187167 0.21847513 0.4471835 -0.11434395 -0.38273123 0.51951885 0.43450928
-0.2795851 0.07502344 0.21621577 0.32041568 0.05753626 -0.32492754 -0.26215777 0.14011501
-0.65986645 -0.49797744 0.13251142 0.6117651 -0.7971361 -0.34103978 -0.22657797 -0.52711827
0.46737766 -1.0217478 0.9097343 0.18321952 0.17007142 -0.4596256 0.20156819 -0.16936317
-0.19606511 -0.33241567 -0.047067814 -0.105505906 0.46359617 -0.29237387 -0.054052744 0.048861954
-0.23893519 0.1922335 0.002387813 -0.10273272 -0.18503149 -0.074819386 -0.1029576 -0.21889682
-0.15170752 0.3447239 -0.010436691 0.14624739 0.01180444 0.14484723 0.0035947983 -0.0846626
-0.29926848 -0.733808 0.16404422 0.8636027 -1.0106628 -0.8222225 0.25409743 -0.42961738
0.6769429 -0.42487195 0.8451424 0.34052378 0.11485212 -0.040186863 0.22474834 -0.4486172
-0.14152254 -0.14699137 -0.41587323 -0.28662288 -0.9485113 0.07847783 1.0084182 0.11964619
1.5568595 1.5571569 -0.604303 0.07321415 -0.73850775 0.22280973 -1.8999934 1.4348652
1.0079931 -0.8001651 1.6051354 1.7806214 1.4669493 -1.6601602 -1.3507692 -1.5309845
0.15026413 -0.4901616 -0.29367056 0.15752873 -0.2899717 -0.75720644 0.092133425 0.051734224
0.48052648 -0.2156258 0.32733858 -0.4740112 0.044415157 -0.2856261 0.10177085 -0.03054673
-0.08608471 -0.1382207 0.4536077 0.23599106 0.024256663 -0.4222256 0.3592288 0.32551754
-0.3387523 -0.39855713 -0.082627855 -0.28102773 0.41445643 -0.22588947 0.7863585 0.06723245
0.097669 -0.3100439 -0.007948559 -0.17958254 -0.17260437 -0.060329556 0.19425137 0.15904218
-0.12192199 0.42359018 0.14438637 -0.37366953 0.5655802 0.46981478 0.21554019 0.24751665
-0.6058957 -0.19830064 -0.36659357 -0.20509762 0.07935742 -0.046705395 -0.12227239 -0.13254483

bias f4 [20]
00000000: a4b7 f33e ed92 97bf 012c e2be 0ab6 a8be
00000010: 31f7 74be 79fe 31bd 2e3c f8ba ae2b a93e
00000020: 1e54 70be 3b4b dbbf 0461 a83e cbb5 cb3e
00000030: ef85 61be 803a d2bb a38f 38bf cfc7 7a3f
00000040: a69c 0a3f af2c 1c3f c2db d03d 780e c33e
0.47601044 -1.1841713 -0.44174197 -0.32951385 -0.23922421 -0.043455575 -0.0018938833 0.33041137
-0.23469588 -1.7132334 0.32886517 0.39787135 -0.22023748 -0.006415665 -0.7209417 0.97961134
0.54145277 0.6100568 0.101981655 0.38096976

weight f4 [20, 20]
00000000: 6689 8b3e d1d7 283f fa47 72be b353 f2bd
00000010: 7748 cf3e 77f4 33be 543b 0bbe 7c5f 833e
00000020: 3562 c6be 9f1d 1240 8be7 5cbe 3906 c3be
00000030: 5406 3cbc a6ce 11bd a585 c5bd cef8 903e
00000040: 691c 98be ac67 dbbe 1979 b0bd ed79 393e
00000050: e956 553e 6802 3c3f af11 1a3d f170 0e3e
00000060: 1bd2 473f f745 073c c165 843e 6f90 3ebe
00000070: cd40 d93e 77c6 0840 3409 c7be 4544 2f3e
00000080: 7df2 ae3e f0d7 fcbd fac6 a1be d855 f0be
00000090: 0a5b 50bc 1523 0dbe 12b2 c7be 5d56 7e3e
000000a0: d722 77be a2f2 6a3f f06e 223f a53d ea3e
000000b0: 8ab1 113f 063a 503e 8c09 b7be a8a2 e3be
000000c0: c08a 0dbe cde2 1240 9346 cdbe 31c4 3fbe
000000d0: 95b7 a23e 7e62 afbe 9010 2d3e a790 06bf
000000e0: fec2 0bbf a326 58bf 6c49 48bf 7e8b 9dbe
000000f0: db29 e3be f602 8bbf d656 253f 33e4 1f3e
00000100: 16d5 8abf d6ac 02bf 03cb 81be 5960 723e
00000110: 151e 6b3d bdeb 3fc0 69ce d73c b304 0c3e
00000120: 3198 b03e 2270 26be 0b9a b03e 26f0 5bbf
00000130: 13a9 c2be 9e53 8a3f 90e1 eabc 5117 27bf
00000140: 9417 87be 7846 43bf 870f f83e b30e 7f3e
00000150: fffb 28bf cf6c 3bbe 7c2e 803d 6eb1 253f
00000160: aa61 cebe 1c20 06c0 87b5 49be 4e6c 05be
00000170: 4d32 473f 0f59 6dbe 1d1d 0e3e 1d75 d6be
00000180: 6b0b 04bf 224b e93e a766 bb3e 9ba7 14be
00000190: ad54 eabe 4163 4d3f 5784 b03e cb85 ee3e
000001a0: 66ab 583e 9058 ddbe e840 a2be 9dd0 a5ba
000001b0: 6939 00bf 9be6 0640 ed4b aebe c5eb 41be
000001c0: 565b 053f 2049 38bf f405 a83e 124a 22be
000001d0: 6a49 5ebe 8b3b a8bd a692 2bbf e3ee 74be
000001e0: e8c2 d53e 5b32 babe 4f5d 74ba c062 f03d
000001f0: da97 b2be 3f15 ce3e b06b 0abd c142 933e
00000200: 78c7 b0be 42db b3bf 32fc 573e d019 7a3e
00000210: d467 4abe d2a7 1c3a 6645 903c 6773 1f3e
00000220: 992f 03be 641d 013f 3773 9a3e 2577 6bbd
00000230: 0ced 29bf eec0 023f a2a9 d73d a887 343f
00000240: 2d14 e23e 3074 19be 2fb1 633e 2b2c 35be
00000250: 9d8f fdbd a8ea 3540 447b 22be 90d9 4ebf
00000260: a263 4abe 27fc 48be f96c 7f3e 6535 83be
00000270: 29e9 7dbe 361a 22bf 12b3 d8bd 1e31 0bbf
00000280: c0e6 49be a72b bb3f c7ed 373e 6dac fa3e
00000290: fea8 5d3f 14f9 e13d d13e b33e 4b5e 01bf
000002a0: 4d0b 9dbe 50b8 5e40 c072 13bf 39d8 ae3d
000002b0: e03d 813e 0d35 14bf 6875 86be b082 973e
000002c0: 1122 f4bc 3234 8dbf b80e 06bf bc7e 393d
000002d0: b9a7 adbe dc1c 7d3f 49a4 bcbd 252c a0be
000002e0: 6c3d f63e 9d17 63be c821 1c3e 23e7 d83c
000002f0: d69e b8bd ff9c 0f40 b3ce e1be b382 823e
00000300: d583 afbd 24cb 58be f4fe a9bd f099 d5bd
00000310: e2ef 283e 3612 54bf 9437 fdbe 3be0 043d
00000320: 3e3a ab3e e0fe 873f 1a12 82be 654d bebe
00000330: 9427 933e 785a 50be f99c f83e 2b5f 3ebe
00000340: c6f9 0a3e 4b80 3b40 1b2b 63bd d161 9ebd
00000350: dcfb 79be b549 d33d 33de 09be a4c4 583d
00000360: bc9e a13e 7fc9 89bf b3cc 583e bbfe 083f
00000370: c8e5 5bbd 1997 843f aee3 f93e 213a c33e
00000380: 39f5 303f f9c6 2f3e 6fbd 00bf 1441 45bf
00000390: 4abd a1bd fd17 4740 7cb0 34be 9819 38bd
000003a0: e740 483f d355 803d 93b1 043f 29a4 4dbe
000003b0: 7441 50bf e497 23bf f940 5dbf 15d9 88be
000003c0: 4185 2c3f 8e9e 9abd 3e18 e4be 8e92 d4be
000003d0: f370 e6bc 509d b43e 6551 c83e 9c6a 10be
000003e0: 6211 053f c263 69bf f225 b43e 6fb4 1c3f
000003f0: 2fd8 5e3b 4c52 6e3e c45b fabe 7b64 413f
0.27253264 0.6595431 -0.2366027 -0.118323706 0.40484974 -0.17573725 -0.1359685 0.25658786
-0.387468 2.283058 -0.21572702 -0.38090685 -0.011476118 -0.035597466 -0.09644631 0.28314823
-0.29709175 -0.42852533 -0.086168475 0.18112917 0.20833935 0.7344117 0.03761452 0.13910271
0.7805497 0.008256427 0.25858882 -0.18609785 0.42432252 2.1371133 -0.3887421 0.17115887
0.3416938 -0.12345874 -0.3159712 -0.46940494 -0.012717018 -0.13782914 -0.39003044 0.24837632
-0.24134384 0.9177648 0.6345053 0.45750156 0.5691153 0.20334634 -0.3574947 -0.44460034
-0.1382246 2.2950928 -0.40092906 -0.18727185 0.31780687 -0.3425483 0.1690085 -0.5256447
-0.5459441 -0.84433955 -0.7823703 -0.30770487 -0.4436787 -1.0860279 0.64585626 0.15614395
-1.0846279 -0.51044977 -0.25350198 0.23669566 0.057401735 -2.9987633 0.026343541 0.13673668
0.34491113 -0.16253713 0.34492525 -0.8591331 -0.38019618 1.0806768 -0.02867201 -0.65269953
-0.26385176 -0.762794 0.48449346 0.24907951 -0.66009516 -0.18303226 0.06258866 0.6472386
-0.40308887 -2.0957098 -0.19698153 -0.13029596 0.7781113 -0.23178504 0.13878293 -0.41886225
-0.5157992 0.45565134 0.36601755 -0.14517061 -0.45767727 0.80229574 0.34475967 0.4658645
0.21159133 -0.4323163 -0.31690145 -0.0012650673 -0.500876 2.107825 -0.34042302 -0.18937595
0.5209249 -0.7198658 0.32817042 -0.15848568 -0.21707693 -0.08214482 -0.6702064 -0.23919253
0.41750264 -0.36366543 -0.00093217654 0.11737585 -0.3488148 0.40250584 -0.033794105 0.28761867
-0.34527183 -1.4051287 0.21092299 0.24423909 -0.1976617 0.0005975935 0.017611217 0.15571366
-0.12811126 0.5043547 0.30166027 -0.057486672 -0.6637733 0.5107564 0.10530402 0.70519495
0.44156018 -0.14985728 0.22235559 -0.1769263 -0.12380908 2.8424473 -0.15867335 -0.80800724
-0.1976457 -0.19627438 0.24943914 -0.25626674 -0.24795975 -0.63321245 -0.1058103 -0.5437182
-0.1971693 1.4622697 0.17961799 0.48959675 0.86585987 0.11033836 0.35008863 -0.50534505
-0.30672684 3.4799995 -0.5759697 0.08537335 0.2524252 -0.5789345 -0.2626145 0.29591894
-0.0298014 -1.1031554 -0.5236621 0.04528688 -0.33917025 0.9887216 -0.092110224 -0.3128368
0.48093736 -0.22176977 0.15247262 0.026477402 -0.090146706 2.2439573 -0.4410301 0.2549034
-0.08570067 -0.21171242 -0.083005816 -0.10429752 0.16497758 -0.8284029 -0.49456465 0.032440405
0.33442873 1.0624657 -0.25404435 -0.37168422 0.28741133 -0.20347011 0.4855726 -0.18590991
0.13571844 2.9297054 -0.05546103 -0.07733501 -0.24412483 0.10316793 -0.13463669 0.052921906
0.31566417 -1.0764617 0.21171837 0.5351369 -0.053685933 1.0358611 0.48806518 0.38130286
0.6912418 0.17165746 -0.5028905 -0.77052426 -0.07897432 3.1108391 -0.17645448 -0.044946283
0.78224033 0.0626637 0.51833457 -0.20082153 -0.81349874 -0.6390364 -0.86427265 -0.2672812
0.6739083 -0.07549773 -0.44549745 -0.41518062 -0.02813003 0.3527627 0.391246 -0.14103168
0.5197965 -0.91167843 0.351852 0.6121282 0.0034003367 0.23273581 -0.48898137 0.75543946

bias f4 [20]
00000000: b97e 853e 9198 0bbf 4427 1dbf ed7f a4be
00000010: 1f9c 03be 42d8 f6be 858f 5d3f 5d37 5ebf
00000020: 9ee9 33be f343 a73e 8278 c03e 24bc 0cbf
00000030: 580c 293e da9c 68bf cba6 87be 370d ddbd
00000040: 6221 743c ab0a 913f c945 bc3e 00ab ffbe
0.26073244 -0.5452967 -0.6138804 -0.3212885 -0.12852524 -0.48211867 0.8654712 -0.8680323
-0.17569587 0.3266903 0.3759194 -0.5497458 0.16508615 -0.90864336 -0.2649444 -0.10793536
0.014900537 1.1331381 0.36771992 -0.4993515

weight f4 [1, 20]
00000000: 646e 43c0 3558 67c0 fcc0 34c0 8ceb 4840
00000010: ae5b 5a40 d399 14c0 2230 6040 78a5 43c0
00000020: 7001 5cc0 a71c bac0 ce1c 7cc0 971a 46c0
00000030: 55f9 1040 f394 52c0 ae36 27c0 bea9 2540
00000040: 8aac 4c40 8656 5840 792b 6240 1859 43c0
-3.0536127 -3.6147587 -2.8242788 3.1393766 3.4118457 -2.3218887 3.5029378 -3.0569744
-3.4375877 -5.8159976 -3.939258 -3.095373 2.265218 -3.2903411 -2.6127124 2.5884852
3.198031 3.380281 3.5339034 -3.0523129

u_b f4 [2]
00000000: 8cbc 1e41 0ad7 1f42
9.921032 39.96

l_b f4 [2]
00000000: e09a 263d 0000 0000
0.040675044 0.0
