Iter_03/Models/Noise_0/simulation_00_10/ff_800.pt (torch, 53597 bytes, 23 tensors)

weight f4 [20, 2]
-0.18188824 0.39790872 -1.0485252 0.23449475 -0.065141015 -0.8603264 0.89663035 0.88475704
-0.73389626 -0.5014174 0.36631042 -0.28240097 -0.11157314 -0.22637956 -0.2456048 -0.14551532
-1.0727255 0.67412746 -0.6468319 -0.44279984 -0.32225433 0.2856747 0.45096925 -0.040929254
0.13004605 -0.7098034 -0.51696676 -0.19196269 -1.1388779 -0.29698217 1.5097014 -0.112645596
0.53294754 -1.8079094 -0.50609905 -0.59875894 0.46885705 0.062037524 -0.1454086 -0.11136079
00000000: e940 3abe b1ba cb3e 1336 86bf 641f 703e
00000010: a768 85bd 5a3e 5cbf 9189 653f 707f 623f
00000020: a0e0 3bbf e45c 00bf 0a8d bb3e dc96 90be
00000030: 7580 e4bd 0bd0 67be d37f 7bbe f801 15be
00000040: 124f 89bf 9e93 2c3f c796 25bf a9b6 e2be
00000050: 85fe a4be f443 923e 71e5 e63e 6fa5 27bd
00000060: cb2a 053e adb5 35bf ef57 04bf de91 44be
00000070: c0c6 91bf 0c0e 98be e53d c13f bcb2 e6bd
00000080: 406f 083f 9369 e7bf b58f 01bf 4448 19bf
00000090: 080e f03e 0f1b 7e3d fee5 14be 2011 e4bd

bias f4 [20]
0.14044642 0.054629274 0.20039669 -0.77290595 0.92710316 -0.22970112 0.35986122 0.66051865
0.5441398 0.09952688 0.0210406 -0.6369174 -0.9952091 0.6829511 0.37700102 -1.1603067
-0.22133273 -0.24758568 -0.39317852 -0.070959635
00000000: 30d1 0f3e f2c2 5f3d ca34 4d3e 2add 45bf
00000010: a256 6d3f c536 6bbe bb3f b83e c017 293f
00000020: bf4c 0b3f c0d4 cb3d 565d ac3c 050d 23bf
00000030: 06c6 7ebf e2d5 2e3f 4706 c13e ee84 94bf
00000040: 0ca5 62be 1a87 7dbe b24e c9be 4953 91bd

weight f4 [20, 20]
0.3276093 0.5491088 0.11423494 -0.12168567 -0.049777526 -0.3002772 0.19869304 -0.11401166
0.26309258 0.67360604 0.3762935 0.071997374 0.487812 0.3782583 0.4629148 -0.3509591
-0.40732133 0.52498883 -0.1508062 0.11844241 0.30618197 0.19088355 0.15949447 -0.147675
-0.16884844 -0.5885882 -0.3104566 -0.25915593 0.18621507 0.056856006 -0.048895657 -0.12643276
-0.24888651 0.30482265 -0.3274305 0.035765357 -0.1062688 0.40744218 -0.002154107 -0.07018768
0.32499036 0.20851022 -0.13126184 -0.6101613 0.6522556 -0.11354809 -0.032979112 0.21857752
0.1816319 -0.17718472 -0.20880333 0.16566265 -0.2360081 0.06837784 0.016124804 -0.11743065
0.048377708 0.10246019 0.012493613 -0.44892934 0.2765062 -0.08285614 -0.44418928 0.3548345
0.081701115 0.15991984 -0.25105798 0.18212987 -0.060429223 -0.016330807 0.14331293 0.11454203
0.029917167 0.023071006 -0.04544838 -0.025616726 -0.686556 -0.34945825 0.16678539 0.15493146
0.38071576 0.010903017 -0.1417813 0.39801472 -0.37336636 -0.2766405 0.118024796 0.3342929
0.10261958 -0.18474421 0.17660911 -0.017345935 -0.22054806 -0.22641593 -0.20460293 0.29820916
-0.6338387 -0.26978928 0.0139723 0.25754014 -0.091443315 0.07089034 0.22412202 -0.017783063
0.15612094 0.29191425 -0.20688726 -0.08467828 0.02937964 -0.24636455 0.11288328 -0.060101908
-0.27317116 -0.30077207 0.5728027 0.11269266 -0.2977959 -0.07967501 0.17426676 0.28918737
-0.43191347 -0.09876619 -0.013003465 0.062382516 -0.17111166 -0.487716 0.19206679 0.06728866
0.22528394 -0.32760036 0.14511281 -0.13918133 0.010368415 -0.05942942 0.19696951 0.15517253
-0.057311133 -0.3108394 0.084185824 -0.19987613 0.21334173 0.4576908 0.24235602 0.052514125
0.15556887 -0.047388468 -0.28524587 0.006727292 -0.017547263 -0.011193937 0.058109403 0.13060792
0.19602276 -0.15581787 -0.17437604 -0.3077467 -0.628277 -0.020826587 -0.16309607 0.2145134
0.0009829584 -0.31414667 -0.630392 0.5815602 -0.21606204 0.65485555 -0.590546 -0.02463767
-0.12664782 -0.5729885 0.10010831 0.3415843 0.38929436 -0.7471403 0.28014556 0.81262994
1.0304568 -0.55181724 0.3320478 -0.04009205 0.13618657 0.10934338 0.3864848 0.108032666
0.4790635 0.15680932 0.22531313 0.12829338 0.44083425 0.18568555 0.09665764 -0.31969857
-0.10418205 0.37568402 -0.17683925 -0.13329497 0.2984147 0.033124216 -0.24355188 0.011812243
0.1451795 0.51572007 -0.59146315 0.72237694 -0.3414362 -0.34120768 -0.36787462 -0.19064242
0.99126893 -0.54045194 0.1542037 -0.094811365 -0.50146085 -0.3541097 0.09107147 -0.36502248
-1.0758407 -0.01035453 0.13172193 -0.16395237 -0.4185584 0.13028033 0.14346717 0.38407722
-0.096144214 0.12987883 -0.04981888 -0.1296577 -0.16817506 0.2266395 0.09024582 0.5028253
-0.06892007 -0.23594351 0.26090103 -0.17868857 0.10993652 -0.16767518 0.24802911 0.052537978
-0.39330834 0.054565128 0.15460485 -0.1268562 -0.21649712 0.4670924 -0.06542846 -0.09373416
0.0565481 0.14417502 -0.15488961 0.27973744 0.2687907 -0.17950377 0.057893816 0.19411854
00000000: 68bc a73e 6592 0c3f 02f4 e93d 5636 f9bd
00000010: 85e3 4bbd efbd 99be 3076 4b3e f27e e9bd
00000020: 12b4 863e 7271 2c3f 8ba9 c03e 5c73 933d
00000030: 7fc2 f93e 12ab c13e 2b03 ed3e e9b0 b3be
00000040: 6c8c d0be ab65 063f f16c 1abe ef91 f23d
00000050: e2c3 9c3e fa76 433e 8552 233e 1d38 17be
00000060: 9be6 2cbe b7ad 16bf 2bf4 9ebe 16b0 84be
00000070: 2aaf 3e3e d8e1 683d d046 48bd 9777 01be
00000080: 1bdc 7ebe b711 9c3e f8a4 a7be b27e 123d
00000090: 75a3 d9bd 439c d03e eb2b 0dbb 8fbe 8fbd
000000a0: 2365 a63e b483 553e 8169 06be 8833 1cbf
000000b0: 39fa 263f e78b e8bd 1b15 07bd c9d2 5f3e
000000c0: b6fd 393e e96f 35be 8ad0 55be 78a3 293e
000000d0: 1bac 71be ae09 8c3d 2a18 843c 7b7f f0bd
000000e0: b427 463d a6d6 d13d 03b2 4c3c 11da e5be
000000f0: 3892 8d3e 7bb0 a9bd c76c e3be deac b53e
00000100: ea52 a73d 07c2 233e ac8a 80be 4180 3a3e
00000110: a284 77bd 2fc8 85bc a0c0 123e 0395 ea3d
00000120: d914 f53c 68ff bc3c 1528 3abd 2bda d1bc
00000130: 22c2 2fbf 31ec b2be cac9 2a3e 5aa6 1e3e
00000140: 2ded c23e 91a2 323c 1e2f 11be 96c8 cb3e
00000150: e029 bfbe d3a3 8dbe fcb6 f13d 7028 ab3e
00000160: 372a d23d 962d 3dbe 05d9 343e 1019 8ebc
00000170: 5ad7 61be 94d9 67be 6e83 51be dfae 983e
00000180: 4143 22bf d221 8abe 13ec 643c 4ddc 833e
00000190: a246 bbbd f42e 913d 3e80 653e c9ad 91bc
000001a0: 2bde 1f3e c975 953e 41da 53be ce6b adbd
000001b0: 92ad f03c fd46 7cbe 592f e73d 6b2d 76bd
000001c0: 17dd 8bbe ccfe 99be 33a3 123f 69cb e63d
000001d0: b478 98be a72c a3bd fc72 323e 5e10 943e
000001e0: c323 ddbe ee45 cabd 7c0c 55bc cf84 7f3d
000001f0: e537 2fbe e9b5 f9be 28ad 443e a3ce 893d
00000200: d5b0 663e 3cbb a7be 7498 143e 8d85 0ebe
00000210: 49e0 293c 436c 73bd 60b2 493e 8ce5 1e3e
00000220: 14bf 6abd 5826 9fbe 9e69 ac3d 54ac 4cbe
00000230: 4176 5a3e 7356 ea3e 2d2c 783e 0d19 573d
00000240: 724d 1f3e 691a 42bd bf0b 92be 9e70 dc3b
00000250: 47bf 8fbc c666 37bc 2004 6e3d 15be 053e
00000260: 31ba 483e b88e 1fbe a28f 32be fa90 9dbe
00000270: c3d6 20bf 859c aabc a802 27be 67a9 5b3e
00000280: 9cd6 803a d5d7 a0be 5f61 21bf 21e1 143f
00000290: 5e3f 5dbe 9da4 273f 062e 17bf f0d4 c9bc
000002a0: f7af 01be 60af 12bf 9605 cd3d 23e4 ae3e
000002b0: 9751 c73e 9644 3fbf 3d6f 8f3e 8408 503f
000002c0: 02e6 833f e543 0dbf 2b02 aa3e 9037 24bd
000002d0: 7e74 0b3e 6cef df3d 56e1 c53e 3b40 dd3d
000002e0: d047 f53e 9f92 203e 7cb8 663e 575f 033e
000002f0: 07b5 e13e 5a24 3e3e 71f4 c53d 88af a3be
00000300: 665d d5bd a859 c03e 5915 35be 7a7e 08be
00000310: d0c9 983e 42ad 073d aa65 79be 2388 413c
00000320: efa9 143e 3b06 043f 216a 17bf b2ed 383f
00000330: bad0 aebe c6b2 aebe 105a bcbe c437 43be
00000340: cdc3 7d3f 0f5b 0abf 93e7 1d3e 762c c2bd
00000350: bd5f 00bf de4d b5be ae83 ba3d 3ae4 babe
00000360: 26b5 89bf 0ca6 29bc 1de2 063e 21e3 27be
00000370: 494d d6be 3568 053e 0fe9 123e c5a5 c43e
00000380: 42e7 c4bd f5fe 043e e20e 4cbd fdc4 04be
00000390: 1536 2cbe 2f14 683e cdd2 b83d 29b9 003f
000003a0: f725 8dbd 2d9b 71be d294 853e 23fa 36be
000003b0: 6626 e13d 0bb3 2bbe 58fb 7d3e 1032 573d
000003c0: b65f c9be af7f 5f3d bc50 1e3e 97e6 01be
000003d0: 6cb1 5dbe bc26 ef3e 5bff 85bd b2f7 bfbd
000003e0: fb9e 673d 9ea2 133e 629b 1ebe bf39 8f3e
000003f0: ef9e 893e d6cf 37be 1122 6d3d 03c7 463e

bias f4 [20]
0.2875625 0.39852977 0.18105082 0.26001808 0.4110806 0.0058749868 0.0027135664 0.30455232
-1.6818477 0.6542783 -0.13597824 0.14987652 -1.003041 -0.4228191 -0.94105095 -0.11047596
0.32668278 -1.218329 -0.023549091 0.38149697
00000000: 643b 933e 180c cc3e 6365 393e 1721 853e
00000010: 2879 d23e f682 c03b 17d6 313b 48ee 9b3e
00000020: c946 d7bf c87e 273f e13d 0bbe 3b79 193e
00000030: a663 80bf bf7b d8be b7e8 70bf 3841 e2bd
00000040: f742 a73e 34f2 9bbf 06ea c0bc 9253 c33e

weight f4 [20, 20]
0.3068548 -0.116910055 0.13482375 -0.06838354 0.016805455 -0.1481761 0.043691427 0.31407642
-0.95357996 0.30587086 0.08290403 0.4468901 0.11146769 0.026550643 0.10065655 -0.38130787
0.28894603 -0.2421797 0.20322925 -0.34769595 0.38780865 0.05188866 0.10207834 -0.13278717
0.044471156 0.19366299 0.18815099 -0.12411854 -0.07762038 0.28173792 -0.12984301 0.4124755
-0.094280556 -0.02847901 -0.053761188 0.24756464 -0.22014375 0.3334057 0.42402998 -0.042909764
-0.2558214 -0.120590314 0.04928581 -0.59323364 -0.0042589884 0.05958792 0.080206074 -0.24714689
0.15396582 0.27449942 -1.1041851 -0.11590892 0.050167672 0.078833304 0.03129965 0.5324652
0.4209055 0.26279262 -0.33952123 0.10483951 0.28453976 0.11305355 -0.048348136 -0.3553287
-0.3601794 -0.13360345 -0.70987904 -0.33497092 -0.09505565 -0.04824284 -0.4961752 0.13241847
-0.01449422 0.028442211 -0.12506375 0.319239 0.08509995 0.029401666 0.2213468 0.48349127
0.35047987 0.023332331 -0.0339597 -0.041639596 0.49613598 -0.37534282 -0.07399647 -0.15762493
-0.044363216 0.04700067 -0.13495699 -0.28769544 -0.2450778 -0.69575214 0.41273808 -0.18729803
-0.3289241 -0.47161207 0.24123026 0.090822056 -0.25606233 -0.16373588 -0.015342285 -0.01265813
-0.3066793 -0.024200333 0.14239678 -0.29507774 0.3990155 -0.0815144 -0.0888063 -0.14121683
0.39651954 0.21043004 0.58742326 0.0042923237 0.107006386 0.2214488 0.07202151 -0.4640218
0.44172308 0.18432288 -0.04625932 0.049656432 0.40192857 -0.16575071 -0.16351241 0.25570002
-0.50157094 0.15241063 0.43219155 0.23862104 -0.30127132 0.16753426 -0.41345093 -0.08201399
-0.05225415 -0.84085876 -0.20789857 -0.07530568 -0.18880868 0.06323799 -0.052441694 0.26330873
-0.16406444 -0.019919716 -0.22457235 0.24227189 0.52166116 0.073343344 0.004750079 -0.15452088
-0.07639867 -0.029795544 0.16296831 0.2930262 0.019085106 0.44066104 -0.025571935 0.099365026
-0.24539177 -0.0826106 -0.33344123 0.41308206 0.20165493 0.13881904 0.03345549 -0.097744666
0.1916741 -0.015579786 0.04350977 0.22629635 -0.2560231 -0.2958236 0.24482745 0.0010996877
0.1314719 -0.18916692 0.23087548 -0.2812409 0.34488052 -0.27900004 -0.18547282 -0.0030756677
-0.39090648 0.37298894 -0.38697293 0.081094965 0.16859917 -0.02853552 -0.13675337 0.1737107
0.054884497 0.0142316455 -0.08704585 0.46376997 0.06473532 0.31732512 0.15162383 -0.1649381
0.14458688 0.09172262 0.09353738 -0.08727171 0.25680903 0.03525891 0.10925826 -0.10980519
-0.23726629 0.22619939 -0.030512804 0.19843398 -0.12762702 0.10123607 -0.39700577 -0.026109993
0.010347847 -0.52137315 -0.20884003 -0.33776575 0.021833938 0.0642423 -0.1253716 -0.2379438
0.23129094 -0.27385563 -0.0015865662 -0.17224608 -0.3685518 0.16775341 -0.36589178 -0.01738381
0.30874205 0.27337307 -0.00087716116 0.26029575 0.044835996 0.72664666 -0.2194594 0.01980598
-0.3706232 0.1573138 -0.23696168 -0.0044106958 0.30708647 -0.3448203 0.041888677 0.2858359
-0.034534037 0.096158825 0.26498365 -0.15538983 -0.38123646 -0.4863065 0.17638417 -0.7878957
00000000: 131c 9d3e 8a6e efbd 3d0f 0a3e ab0c 8cbd
00000010: 98ab 893c 7abb 17be c8f5 323d a0ce a03e
00000020: d11d 74bf 1b9b 9c3e 97c9 a93d c7ce e43e
00000030: 2c49 e43d bc80 d93c 0525 ce3d c93a c3be
00000040: bcf0 933e f5fd 77be 541b 503e 3405 b2be
00000050: db8e c63e 3489 543d 730e d13d 5cf9 07be
00000060: 6327 363d 974f 463e a7aa 403e dc31 febd
00000070: 6ff7 9ebd f43f 903e 91f5 04be fd2f d33e
00000080: 2a16 c1bd d04c e9bc b134 5cbd 9681 7d3e
00000090: 5d6d 61be 27b4 aa3e 751a d93e 26c2 2fbd
000000a0: 06fb 82be 0ef8 f6bd ebdf 493d 29de 17bf
000000b0: fc8e 8bbb 7612 743d 1543 a43d 1314 7dbe
000000c0: 37a9 1d3e 308b 8c3e f055 8dbf a861 edbd
000000d0: 9e7c 4d3d 5b73 a13d 1034 003d a44f 083f
000000e0: ed80 d73e c18c 863e bad5 adbe 19b6 d63d
000000f0: 32af 913e 9f88 e73d b208 46bd a5ed b5be
00000100: 6f69 b8be 58cf 08be a2ba 35bf 4f81 abbe
00000110: 89ac c2bd 499a 45bd ad0a febe b598 073e
00000120: 2a79 6dbc a4ff e83c b610 00be 4b73 a33e
00000130: e248 ae3d c3db f03c bca8 623e 2b8c f73e
00000140: 1972 b33e 7223 bf3c 5419 0bbd 488e 2abd
00000150: 8905 fe3e ef2c c0be 768b 97bd 6e68 21be
00000160: 34b6 35bd c683 403d 2a32 0abe d14c 93be
00000170: adf5 7abe d01c 32bf 6852 d33e 0ecb 3fbe
00000180: bd68 a8be 2377 f1be 1105 773e ea00 ba3d
00000190: 9a1a 83be 61aa 27be 355e 7bbc 0c64 4fbc
000001a0: 1205 9dbe c73f c6bc 76d0 113e 6e14 97be
000001b0: c24b cc3e 06f1 a6bd 14e0 b5bd 259b 10be
000001c0: 9c04 cb3e f97a 573e 5f61 163f 9fa6 8c3b
000001d0: 2a26 db3d 79c3 623e 0380 933d 4494 edbe
000001e0: 8729 e23e 23bf 3c3e 6a7a 3dbd 8b64 4b3d
000001f0: 95c9 cd3e 8eba 29be cc6f 27be 1deb 823e
00000200: f466 00bf 8811 1c3e 3648 dd3e 1359 743e
00000210: 3c40 9abe 1a8e 2b3e d7af d3be f3f6 a7bd
00000220: 7308 56bd 8542 57bf 5de3 54be dd39 9abd
00000230: 1057 41be eb82 813d 1acd 56bd 67d0 863e
00000240: 8200 28be ac2e a3bc 4bf6 65be 1f16 783e
00000250: 968b 053f 0935 963d 8da6 9b3b b93a 1ebe
00000260: e876 9cbd c915 f4bc 2ae1 263e 8807 963e
00000270: 5e58 9c3c 539e e13e 3c7c d1bc e47f cb3d
00000280: fb47 7bbe bf2f a9bd cfb8 aabe 7e7f d33e
00000290: a17e 4e3e 9426 0e3e a008 093d 5b2e c8bd
000002a0: 3746 443e 5c42 7fbc 4d37 323d 3bba 673e
000002b0: 7615 83be 3176 97be 0cb4 7a3e 6523 903a
000002c0: 92a0 063e f9b4 41be 9f6a 6c3e cffe 8fbe
000002d0: 2e94 b03e 18d9 8ebe 96ec 3dbe 2491 49bb
000002e0: e524 c8be 68f8 be3e 5121 c6be 1e15 a63d
000002f0: 43a5 2c3e 53c3 e9bc 1309 0cbe 38e1 313e
00000300: 91ce 603d d92b 693c 1845 b2bd 4273 ed3e
00000310: f493 843d 7078 a23e 4743 1b3e 89e5 28be
00000320: 950e 143e 12d9 bb3d 8790 bf3d 83bb b2bd
00000330: 797c 833e a66b 103d cbc2 df3d 8be1 e0bd
00000340: eff5 72be d0a0 673e fdf5 f9bc 4732 4b3e
00000350: a8b0 02be db54 cf3d 5744 cbbe a0e4 d5bc
00000360: 048a 293c b678 05bf 29da 55be a2ef acbe
00000370: 16dd b23c 7891 833d 6a61 00be 8aa7 73be
00000380: 88d7 6c3e ce36 8cbe 54f4 cfba 4761 30be
00000390: d2b2 bcbe 8dc7 2b3e 2b56 bbbe 7e68 8ebc
000003a0: 7013 9e3e 8ef7 8b3e 4af1 65ba 7c45 853e
000003b0: f3a5 373d 8405 3a3f f7b9 60be 2740 a23c
000003c0: 53c2 bdbe de16 213e 15a6 72be 9987 90bb
000003d0: 703a 9d3e 498c b0be 7693 2b3d 1559 923e
000003e0: 9073 0dbd ebee c43d f0ab 873e 831e 1fbe
000003f0: 6d31 c3be 2afd f8be 0d9e 343e 88b3 49bf

bias f4 [20]
0.18554106 0.47767156 -0.4140055 -0.3697416 0.56615365 -0.33499175 0.94280005 -0.47727266
-0.087607294 -0.88875383 0.5158818 -0.20860273 0.33589587 0.072891444 -0.43225765 1.030144
0.9719271 0.30950248 -0.2228614 -0.43896216
00000000: 7afe 3d3e 5e91 f43e 87f8 d3be c54e bdbe
00000010: 72ef 103f 0a84 abbe 585b 713f 155d f4be
00000020: 746b b3bd 5f85 63bf d410 043f f49b 55be
00000030: 8bfa ab3e 1c48 953d e050 ddbe c2db 833f
00000040: 37d0 783f 1c77 9e3e c735 64be a6bf e0be

weight f4 [20, 20]
0.18155232 0.07432389 0.13671497 -0.17131814 0.55438 -0.16418529 0.40524054 -0.42355093
0.29864 0.0054193805 0.28052285 -0.07540303 0.32344905 0.32316905 -0.3136366 0.6043886
0.21534008 0.5076377 0.095756665 -0.14853692 -0.007239563 -0.14152852 -0.24730195 0.1276633
-0.0033056096 0.4770496 0.28195363 0.14556104 -0.14217414 0.36660936 -0.44356367 -0.20529796
-0.49559805 0.55024284 -0.038548127 -0.4559822 0.18854073 0.38400853 -0.25011483 0.29257104
-0.6551838 -0.124112 0.52068865 0.07433998 -0.4127893 0.72378397 -0.69661504 0.68885595
0.0143424105 0.80139434 -0.42706877 0.20750913 -0.6835577 -0.1357393 0.59082574 -1.1935219
-0.46682265 -0.08723187 0.60777324 0.40325218 -0.22071251 -0.060251907 -0.029671386 0.29232278
-0.0597431 -0.026233094 0.10030202 0.22681203 -0.007867267 0.21559224 0.23295978 -0.42426676
-0.07875792 0.25760972 0.08765384 -0.057631847 -0.22303495 0.44979098 0.1530956 -0.44380865
0.20762575 -0.2030992 -0.24366114 0.17363349 0.12906012 0.32644787 -0.17481424 0.1426236
-0.06441616 -0.04624607 0.075350255 0.14553438 -0.28240103 0.19957282 0.007137729 -0.26712027
-0.2594753 -0.43597093 -0.3358372 0.07175746 0.0009601875 0.09302279 0.12989204 -0.08471474
0.3046938 -0.111642174 -0.3200251 -0.1801093 0.26872027 -0.14635588 -0.09951078 -0.28668937
0.07898283 0.059710648 -0.6184113 0.2471203 -0.18894042 0.018416416 0.39799356 0.07280788
-0.11967783 0.40419725 0.098495774 0.13291205 -0.40219012 0.4530996 0.010552625 -0.0009989839
-0.3611259 0.41726157 -0.21379082 -0.2839895 0.013904989 -0.14760834 0.3568556 -0.061795615
0.44986627 -0.06671176 0.029119374 -0.26866218 -0.13135685 -0.14289118 -0.5216761 0.23564692
-0.59029925 0.21879236 0.45362768 0.061736714 -0.050501686 -0.20132844 0.52616024 -0.41478586
0.47376698 -0.26825237 -0.35475603 0.4377772 0.036075715 -0.16694036 -0.60134196 -0.24075948
0.29205257 -0.21534692 -0.5120184 -0.3110018 0.19212918 0.05004005 -0.048153024 -0.12010203
0.105514616 -0.20544517 0.04564172 -0.37320572 0.36332685 0.029818248 0.3114736 -0.22126347
0.06477025 -0.13778518 0.050627448 0.015811399 0.30498472 0.10636012 0.07061334 -0.21848795
-0.08833971 -0.12697929 -0.18105932 0.13901922 -0.04253105 0.2714932 -0.22856726 -0.14859125
-0.34149572 0.18656923 0.35957292 -0.30779913 -0.12636751 -0.4077715 -0.18316464 0.04127576
0.028385647 0.5147832 0.19093126 0.38592187 -0.023649545 0.113908604 -0.12455712 -0.12708426
0.18523894 0.17790024 -0.13973078 0.05186761 0.07206413 0.33701974 -0.06737515 -0.08338199
-0.36066496 -0.60499424 0.0044032047 -0.09327251 0.13529305 0.21598937 0.011984166 -0.023400605
-0.08982533 0.19232455 0.11577191 -0.16717263 -0.30447757 -0.09159125 -0.057182793 -0.061469108
-0.28283983 -0.122721404 -0.0036223282 0.20661676 0.084933676 0.04376249 -0.16507886 0.1205252
0.24124569 0.0036575154 0.03628391 0.18445198 -0.12161255 -0.2521243 0.15596926 -0.3117956
0.12919185 0.07099367 0.020231381 -0.052613102 -0.20051862 -0.03846748 0.2930634 0.5839497
00000000: dae8 393e 2037 983d 02ff 0b3e 066e 2fbe
00000010: d9eb 0d3f 3020 28be b07b cf3e abdb d8be
00000020: 58e7 983e 0f95 b13b b1a0 8f3e e76c 9abd
00000030: 1d9b a53e 6a76 a53e fa94 a0be 36b9 1a3f
00000040: 1c82 5c3e 8bf4 013f 121c c43d 101a 18be
00000050: db39 edbb daec 10be b93c 7dbe 2bba 023e
00000060: eda2 58bb d83f f43e 3a5c 903e f40d 153e
00000070: 1996 11be 39b4 bb3e c71a e3be a139 52be
00000080: 07bf fdbe b7dc 0c3f a4e4 1dbd 8076 e9be
00000090: d210 413e c49c c43e 0d0f 80be dfcb 953e
000000a0: 20ba 27bf 6f2e febd da4b 053f 8f3f 983d
000000b0: 1e59 d3be e849 393f 5d55 32bf dd58 303f
000000c0: 6efc 6a3c 2e28 4d3f c2a8 dabe 467d 543e
000000d0: a3fd 2ebf 3eff 0abe 5b40 173f 53c5 98bf
000000e0: 6103 efbe 9fa6 b2bd 0797 1b3f 1277 ce3e
000000f0: 7602 62be b4ca 76bd 6811 f3bc 55ab 953e
00000100: 2eb5 74bd c9e6 d6bc 256b cd3d 6a41 683e
00000110: b6e5 00bc 36c4 5c3e 028d 6e3e 7e39 d9be
00000120: d54b a1bd 6ce5 833e db83 b33d 5f0f 6cbd
00000130: 4663 64be 014b e63e 18c5 1c3e e33a e3be
00000140: d89b 543e 3df9 4fbe 4e82 79be facc 313e
00000150: 5628 043e 2d24 a73e 8102 33be ec0b 123e
00000160: 9fec 83bd 856c 3dbd 3c51 9a3d f706 153e
00000170: de96 90be d15c 4c3e 9ce3 e93b fdc3 88be
00000180: f2d9 84be 9537 dfbe daf2 abbe 93f5 923d
00000190: 18b5 7b3a bc82 be3d 6b02 053e ec7e adbd
000001a0: d300 9c3e a7a4 e4bd 54da a3be 936e 38be
000001b0: b495 893e 51de 15be 4fcc cbbd f3c8 92be
000001c0: c0c1 a13d 2793 743d 3450 1ebf 1b0d 7d3e
000001d0: 9979 41be 06de 963c d0c5 cb3e 4c1c 953d
000001e0: a619 f5bd f1f2 ce3e 27b8 c93d 191a 083e
000001f0: ddeb cdbe acfc e73e ebe4 2c3c 56f0 82ba
00000200: 7ee5 b8be 4fa3 d53e fbeb 5abe 1267 91be
00000210: c0d1 633c a426 17be c7b5 b63e 661d 7dbd
00000220: df54 e63e 2da0 88bd c18b ee3c 178e 89be
00000230: 6982 06be 1152 12be 918c 05bf 6d4d 713e
00000240: da1d 17bf 1b0b 603e e341 e83e a3df 7c3d
00000250: dbda 4ebd 0b29 4ebe 70b2 063f d05e d4be
00000260: 9691 f23e 6058 89be 95a2 b5be 5524 e03e
00000270: 21c4 133d 6af2 2abe 8cf1 19bf a789 76be
00000280: ea87 953e e783 5cbe a313 03bf a13b 9fbe
00000290: 83bd 443e ccf6 4c3d 1b3c 45bd 0ef8 f5bd
000002a0: 0c18 d83d 3860 52be d0f2 3a3d d214 bfbe
000002b0: fa05 ba3e 6645 f43c 7879 9f3e e492 62be
000002c0: 44a6 843d 8f17 0dbe ba5e 4f3d e886 813c
000002d0: f526 9c3e 56d3 d93d ba9d 903d 4ebb 5fbe
000002e0: 73eb b4bd dc06 02be 9d67 39be 0e5b 0e3e
000002f0: 0a35 2ebd 2801 8b3e 890d 6abe 4e28 18be
00000300: 87d8 aebe 010c 3f3e f119 b83e d997 9dbe
00000310: 7c66 01be 6dc7 d0be 838f 3bbe c510 293d
00000320: 0489 e83c d5c8 033f 7c83 433e 8d97 c53e
00000330: b1bc c1bc ea48 e93d ce17 ffbd 6022 02be
00000340: 47af 3d3e 7b2b 363e 9615 0fbe 2273 543d
00000350: 5c96 933d da8d ac3e fcfb 89bd 2dc4 aabd
00000360: 14a9 b8be e7e0 1abf c248 903b a805 bfbd
00000370: 438a 0a3e 512c 5d3e 3c59 443c a0b2 bfbc
00000380: 58f6 b7bd baf0 443e d319 ed3d 4d2f 2bbe
00000390: 7ce4 9bbe 3194 bbbd 8138 6abd 08c7 7bbd
000003a0: 62d0 90be 5c55 fbbd 9564 6dbb 5893 533e
000003b0: b5f1 ad3d 4c40 333d 6f0a 29be ebd5 f63d
000003c0: 1c09 773e edb2 6f3b 709e 143d fbe0 3c3e
000003d0: 0010 f9bd 7016 81be 68b6 1f3e aca3 9fbe
000003e0: de4a 043e 2165 913d 48bc a53c d680 57bd
000003f0: c154 4dbe 1490 1dbd 680c 963e ba7d 153f

bias f4 [20]
0.5681029 0.35941586 -0.87971187 -0.043437652 -0.011916947 -0.42481044 0.06807736 0.5687917
0.21737035 -0.09507163 -0.3943856 0.39902973 0.47550088 0.3963794 0.17373472 -0.18396467
-0.19372223 0.14832987 -0.4902034 0.6398552
00000000: 316f 113f 5b05 b83e cc34 61bf aeeb 31bd
00000010: 4c3f 43bc c180 d9be 256c 8b3d 559c 113f
00000020: 5596 5e3e eab4 c2bd e9ec c9be a04d cc3e
00000030: da74 f33e 3ef2 ca3e 84e7 313e 3c61 3cbe
00000040: 1f5f 46be c9e3 173e f1fb fabe 8dcd 233f

weight f4 [20, 20]
0.3410738 0.27155244 -0.016658138 0.07704485 0.31448644 0.055019118 -0.10239696 0.109004304
0.43560386 0.056240693 -0.0010165607 0.19876583 0.2611928 0.006434134 0.25026873 -0.10355967
0.29831463 -0.08293866 -0.10805606 -0.18326113 0.0747695 0.0028637145 0.35595623 0.15140283
0.080197796 -0.26396385 0.12910868 -0.06432329 0.5658389 -0.46186763 -0.34642282 -0.028725972
0.050730936 -0.0172893 -0.27940094 -0.7652926 -0.1338436 0.65161556 -0.007909921 0.18602365
0.3651972 0.48148462 -0.02196097 0.3708688 -0.21862559 -0.38920277 0.19874485 0.28538764
0.049883507 -0.1700877 -0.0668384 0.17278464 0.16918884 0.47231975 -0.10637826 -0.29003057
-0.06053462 -0.095578216 -0.5666808 0.27034482 -0.2229428 0.38902253 0.3678611 0.096195705
0.15963963 -0.2834158 0.07589167 -0.0069369967 -0.10141181 0.013435351 -0.14563997 -0.08073473
0.20441858 0.121136814 0.0036026903 0.22188577 -0.2662921 0.49450225 0.09541891 0.19143419
-0.84625113 0.0052440325 1.2642851 -0.32823116 -0.44007814 0.09889221 0.03284456 -0.54945624
0.08206971 0.6535121 0.383572 -0.27766785 -1.0769216 -0.36590683 -0.8167973 -0.040600628
-0.31724313 0.36996105 0.034993194 -0.46458238 -0.36265573 0.0116501525 0.22339836 -0.12778692
0.21574213 0.0045822267 -0.3010354 -0.028532213 0.11105598 -0.11588485 -0.285073 -0.36424878
-0.19656135 0.17614889 -0.12679164 0.3489157 -0.15098163 0.0132437935 -0.36995652 -0.18188655
0.26880243 -0.033613984 0.13720857 0.006002212 -0.35197386 0.04610203 -0.031710062 0.31315985
0.21758342 -0.0883781 -0.40742242 0.05289715 0.10435728 0.111649275 0.17552052 -0.27187127
0.1422295 0.17889133 -0.2598391 0.25461894 -0.7028822 -0.047854416 0.8229387 -0.3650379
-0.23922639 -0.0027780146 0.09835623 -0.27165702 -0.051523603 0.76895475 0.42060292 -0.36374733
-0.34113058 -0.27826512 -0.43014216 -0.22187096 -0.35930744 0.16267256 0.13949463 -0.19608541
-0.37557083 -0.2544022 0.1522848 -0.05572459 -0.29763663 -0.26993594 -0.0417333 -0.4718885
-0.12325354 0.45890996 0.23885718 -0.35191825 -0.43971327 0.31708884 -0.23450089 -0.05301333
-0.33815864 -0.033302385 0.03350881 -0.04527772 -0.15114015 0.52861756 0.5349169 0.15626723
0.11177714 -0.044694796 -0.1890794 0.3679309 0.058941647 0.030943684 0.20051768 -0.09850039
-0.42605063 0.3809356 -0.13755518 -0.07692462 -0.17629613 0.5865277 0.06572566 0.09255502
0.010093092 -0.3005817 0.17569214 0.2368887 -0.18312718 0.3641611 -0.19250591 -0.27751547
0.07055258 -0.4459752 0.22818299 -0.0037033304 -0.33526105 -0.061253257 -0.3773681 0.24692729
0.2418651 -0.17932598 0.30318853 -0.26740602 -0.29433203 -0.034084667 -0.2266389 0.27396402
-0.2724126 0.047308184 -0.20535758 0.6029496 -0.14585668 -0.31316432 -0.09934454 0.14397974
0.42281803 0.23305641 0.18229765 0.014494003 0.14116606 -0.15251966 -0.04662869 -0.03056272
-0.28819236 -0.28157318 -0.040512357 -0.24703868 -0.38726678 0.36540842 -0.17125791 -0.20424865
0.1193702 -0.03687477 -0.0042510354 -0.08908598 -0.21102554 0.1973139 -0.28563192 -0.016447553
00000000: 3aa1 ae3e ec08 8b3e a676 88bc b1c9 9d3d
00000010: 5e04 a13e ba5b 613d 7fb5 d1bd a63d df3d
00000020: 7807 df3e a45c 663d 1e3e 85ba 4589 4b3e
00000030: 10bb 853e 6ed5 d23b 3923 803e 1817 d4bd
00000040: b2bc 983e bfdb a9bd 7f4c ddbd cea8 3bbe
00000050: c020 993d 28ad 3b3b e53f b63e 5809 1b3e
00000060: be3e a43d 4526 87be 1135 043e eebb 83bd
00000070: d1da 103f ea79 ecbe 555e b1be bb52 ebbc
00000080: 3ecb 4f3d 4aa2 8dbc a40d 8fbe 37ea 43bf
00000090: 4c0e 09be 47d0 263f 9d98 01bc fc7c 3e3e
000000a0: 21fb ba3e 2785 f63e 7ee7 b3bc 84e2 bd3e
000000b0: 63df 5fbe 9645 c7be c583 4b3e 541e 923e
000000c0: a652 4c3d 782b 2ebe 92e2 88bd 75ee 303e
000000d0: d73f 2d3e e5d3 f13e d8dc d9bd e37e 94be
000000e0: 26f3 77bd 83be c3bd fe11 11bf a36a 8a3e
000000f0: 1e4b 64be f62d c73e 4a58 bc3e 4102 c53d
00000100: 9278 233e e01b 91be 186d 9b3d bf4f e3bb
00000110: ffb0 cfbd f21f 5c3c a522 15be 4058 a5bd
00000120: 1b53 513e 9416 f83d 1d1b 6c3b 0636 633e
00000130: 7057 88be 662f fd3e fd6a c33d 5307 443e
00000140: eaa3 58bf 22d6 ab3b 18d4 a13f ea0d a8be
00000150: ec51 e1be 0088 ca3d 0488 063d 2aa9 0cbf
00000160: 2a14 a83d 924c 273f 8d63 c43e 7b2a 8ebe
00000170: 91d8 89bf 2458 bbbe a119 51bf d84c 26bd
00000180: b16d a2be 896b bd3e 0655 0f3d bedd edbe
00000190: 03ae b9be 48e0 3e3c 8ac2 643e 93da 02be
000001a0: 81eb 5c3e 8126 963b 5021 9abe 63bc e9bc
000001b0: 5171 e33d 0955 edbd 17f5 91be d17e babe
000001c0: 6147 49be 6060 343e abd5 01be 14a5 b23e
000001d0: ee9a 1abe 7ffc 583c f16a bdbe 7840 3abe
000001e0: 79a0 893e d1ae 09bd 6780 0c3e 34ae c43b
000001f0: eb35 b4be 7bd5 3c3d 69e2 01bd 7d56 a03e
00000200: 30ce 5e3e 94ff b4bd ac99 d0be afaa 583d
00000210: 45b9 d53d 60a8 e43d a7bb 333e b632 8bbe
00000220: 9ca4 113e 4a2f 373e a109 85be 6a5d 823e
00000230: 16f0 33bf fe02 44bd 1cac 523f 3fe6 babe
00000240: c3f7 74be 5a0f 36bb fe6e c93d a116 8bbe
00000250: 6a0a 53bd 38da 443f 4459 d73e 173d babe
00000260: aba8 aebe c478 8ebe 983b dcbe 2432 63be
00000270: 25f7 b7be a393 263e aed7 0e3e 9dca 48be
00000280: d24a c0be 0141 82be 8cf0 1b3e 783f 64bd
00000290: d463 98be 0b35 8abe 89f0 2abd 5f9b f1be
000002a0: 5a6c fcbd 3ff6 ea3e fa96 743e a12e b4be
000002b0: 1922 e1be 7859 a23e 0021 70be 8124 59bd
000002c0: 2123 adbe 1568 08bd 8940 093d 2175 39bd
000002d0: 7cc4 1abe 7b53 073f 50f0 083f 8404 203e
000002e0: 6aeb e43d e411 37bd 089e 41be 7061 bc3e
000002f0: cc6c 713d 9c7d fd3c 8254 4d3e 93ba c9bd
00000300: 4f23 dabe fe09 c33e 44db 0cbe a88a 9dbd
00000310: f986 34be ae26 163f 2d9b 863d 7c8d bd3d
00000320: 7f5d 253c d8e5 99be a4e8 333e f492 723e
00000330: b185 3bbe 5373 ba3e 4520 45be 8216 8ebe
00000340: df7d 903d dd56 e4be cda8 693e 93b3 72bb
00000350: 56a7 abbe b2e4 7abd 6436 c1be 82da 7c3e
00000360: 7cab 773e 3ba1 37be 873b 9b3e 71e9 88be
00000370: b0b2 96be 5d9c 0bbd 0714 68be 0345 8c3e
00000380: aa79 8bbe 3ac6 413d 4249 52be e85a 1a3f
00000390: 745b 15be 1357 a0be 2675 cbbd 6d6f 133e
000003a0: 9b7b d83e 57a6 6e3e 3cac 3a3e 4178 6d3c
000003b0: d68d 103e 1d2e 1cbe bafd 3ebd ab5e fabc
000003c0: f38d 93be 5c2a 90be 49f0 25bd b5f7 7cbe
000003d0: d547 c6be d016 bb3e 3c5e 2fbe 8f26 51be
000003e0: 5d78 f43d 000a 17bd 454c 8bbb b672 b6bd
000003f0: 1417 58be a80c 4a3e 593e 92be 05bd 86bc

bias f4 [20]
0.5732017 0.31727076 0.3905857 0.22286175 -0.52276313 -0.30930924 -0.12647635 -0.14096764
-0.3445485 0.60488313 -0.37587777 0.34707528 -0.07151941 0.34974357 0.12462545 0.35195166
0.3422734 0.47026253 -0.4382528 -0.3023471
00000000: 59bd 123f 5071 a23e d9fa c73e df35 643e
00000010: ced3 05bf c85d 9ebe 0483 01be d259 10be
00000020: a968 b0be 9fd9 1a3f 0d73 c0be dab3 b13e
00000030: c578 92bd 9711 b33e a13b ff3d 0233 b43e
00000040: 763e af3e 40c6 f03e ac62 e0be 3dcd 9abe

weight f4 [20, 20]
0.242477 -0.10249793 0.05857835 0.2736368 -0.3745088 0.17986466 0.10904163 -0.20032077
-0.12313512 -0.08982299 0.054090943 0.23635188 0.19582042 -0.06081273 -0.21774624 0.3820834
0.040955752 0.3046232 0.12291348 -0.12594321 -0.26722586 0.47553128 -0.32052645 -0.7084706
0.0022170374 0.6168144 -0.037390254 0.0058417297 0.43418813 0.07541225 0.28791806 -0.42649233
0.7223061 -0.3229571 0.26940295 0.12188105 -0.21592087 -0.88826567 0.42031452 0.77382284
-0.27004918 -0.20194748 -0.07539288 -0.21075177 -0.33497822 -0.29404598 0.14251642 -0.29482424
-0.18657789 0.039198395 -0.2432272 -0.29173753 -0.24155934 0.15350193 0.34404817 0.101798944
0.17898043 0.012626702 -0.081082866 -0.11410862 0.13334122 -0.1821128 -0.11560549 0.4083571
-0.14129479 -0.5299525 -0.25398332 -0.10239387 -0.51528984 0.2791353 -0.32795212 0.45280388
-0.5268334 0.45715207 -0.09886577 -0.03909928 0.03954829 0.79228276 -0.65027547 -0.66067946
-0.33367494 -0.55829185 0.005977717 -0.5457396 -0.6662562 0.045781955 -0.1586202 -0.40844882
0.25848264 -0.46019262 0.49889433 -0.14370446 0.07108718 -0.11354365 0.14430188 0.045059215
-0.35489562 -0.36112338 0.25306183 0.015174578 -0.0684826 -0.4522895 -0.4821695 0.20090336
-0.96871424 -0.22357522 0.019802278 -0.4162589 0.27022937 -0.47074947 -0.16733491 0.41823888
-0.3166749 -0.38769433 -0.1433476 0.37257832 0.3248964 0.023771975 -0.16876662 0.41065645
-0.2615433 0.3887923 0.058582712 0.13193582 0.47947556 0.008877044 0.23758969 -0.12596184
0.20845903 0.3301291 0.19753005 -0.1759558 -0.068322524 -0.00075732806 0.39759913 -0.48624188
-0.14122924 -0.29821372 0.07006693 -0.19573852 -0.106401555 0.20954636 -0.09865312 -0.2332718
0.26258627 0.20623238 0.02169065 -0.26166868 0.26701295 0.04385436 0.3718836 -0.29383025
0.42708117 -0.27189127 0.2981401 0.1427332 -0.4413502 -0.1858481 0.039974127 0.4745093
-0.21318543 0.55572844 0.19863616 0.33526868 0.895568 0.07096081 0.10802003 0.76524615
0.5159357 0.8997777 -0.21543768 -0.30931956 0.04401651 0.2976226 0.05753843 -0.03454057
0.3338407 -0.28057507 0.019771613 -0.2719625 -0.17742625 -0.6455097 -0.076248914 0.14278874
-0.16596457 0.009772973 0.015181537 -0.33965954 0.031931162 -0.41497567 0.116365716 -0.064809866
-0.18226229 -0.13227206 -0.15632272 -0.45539773 -0.080875434 -0.4462945 -0.20590943 0.048419315
0.7823226 0.038705997 0.5572368 0.6887873 -0.19238155 -0.5045435 0.22634767 -0.13914451
-0.59153354 0.30541527 -0.4462161 0.08120617 -0.89609367 0.20644267 -0.5872344 0.23859079
0.24099213 0.69155705 -0.6272648 -0.44439942 0.2681321 0.13048677 0.39738092 0.057629846
-0.24503672 0.06617882 0.11105445 -0.18331343 0.1637811 -0.21278755 0.19621192 0.19987236
0.21822672 0.028075714 -0.358308 0.10729397 0.26390532 -0.17586634 0.30057648 -0.5054572
0.26143438 -0.64964145 0.21809353 -0.09652623 -0.6039385 0.080402315 -0.31123975 -0.49363533
0.1360407 -0.17482954 -0.17409906 -0.05463553 0.008583381 0.027419647 0.11003328 0.18950297
00000000: e44b 783e 6fea d1bd daef 6f3d 1f1a 8c3e
00000010: 9ebf bfbe 712e 383e 3851 df3d e320 4dbe
00000020: 442e fcbd 1ef5 b7bd 778e 5d3d 3a06 723e
00000030: 2685 483e c516 79bd dff8 5ebe 6fa0 c33e
00000040: 38c1 273d 92f7 9b3e 10ba fb3d 42f7 00be
00000050: d4d1 88be d678 f33e 0b1c a4be 545e 35bf
00000060: b74b 113b 8ce7 1d3f 8626 19bd fb6b bf3b
00000070: e84d de3e bd71 9a3d ff69 933e 345d dabe
00000080: 0de9 383f a25a a5be 2fef 893e c69c f93d
00000090: 5c1a 5dbe 6165 63bf 7733 d73e 4119 463f
000000a0: e343 8abe 52cb 4ebe 9567 9abd 50cf 57be
000000b0: 4482 abbe 328d 96be d3ef 113e 34f3 96be
000000c0: 460e 3fbe 7f8e 203d 8d10 79be 9f5e 95be
000000d0: 555b 77be 9c2f 1d3e 1527 b03e f77b d03d
000000e0: a546 373e 3ae0 4e3c c60e a6bd c8b1 e9bd
000000f0: 9a8a 083e c77b 3abe 92c2 ecbd 2f14 d13e
00000100: 95af 10be f8aa 07bf 1a0a 82be e1b3 d1bd
00000110: 09ea 03bf d2ea 8e3e 57e9 a7be e9d5 e73e
00000120: 8ede 06bf d60f ea3e 237a cabd 9126 20bd
00000130: 63fd 213d 0bd3 4a3f 7478 26bf 4a22 29bf
00000140: 71d7 aabe 37ec 0ebf bae0 c33b 97b5 0bbf
00000150: c48f 2abf dc85 3b3d 556d 22be 3420 d1be
00000160: d657 843e 5e9e ebbe 146f ff3e 4327 13be
00000170: 2896 913d 9389 e8bd dfc3 133e 0390 383d
00000180: e1b4 b5be 2ae5 b8be 5291 813e cb9e 783c
00000190: 9b40 8cbd 7d92 e7be ecde f6be 9cb9 4d3e
000001a0: a8fd 77bf e7f0 64be 6338 a23c e31f d5be
000001b0: 815b 8a3e 1306 f1be d859 2bbe 6823 d63e
000001c0: 3623 a2be df7f c6be b7c9 12be 96c2 be3e
000001d0: d258 a63e 72bd c23c 28d1 2cbe 9041 d23e
000001e0: 01e9 85be c90f c73e 6df4 6f3d 2f1a 073e
000001f0: d27d f53e 0571 113c b64a 733e 24fc 00be
00000200: 4976 553e ae06 a93e 5145 4a3e c22d 34be
00000210: aeec 8bbd 6d87 46ba 1d92 cb3e b2f4 f8be
00000220: 669e 10be 78af 98be 407f 8f3d ae6f 48be
00000230: 0fe9 d9bd 5293 563e a60a cabd cede 6ebe
00000240: b571 863e 952e 533e 97b0 b13c 70f9 85be
00000250: ecb5 883e a1a0 333d 8767 be3e eb70 96be
00000260: 62aa da3e 5535 8bbe d2a5 983e a728 123e
00000270: a7f8 e1be f74e 3ebe e9bb 233d e2f2 f23e
00000280: 484d 5abe 3844 0e3f 4767 4b3e 56a8 ab3e
00000290: f243 653f e753 913d 9b39 dd3d 2ce7 433f
000002a0: 5d14 043f d557 663f b29b 5cbe 225f 9ebe
000002b0: a84a 343d fd61 983e 6bad 6b3d 6a7a 0dbd
000002c0: 2bed aa3e 89a7 8fbe 14f8 a13c ab3e 8bbe
000002d0: 3aaf 35be 2040 25bf 6428 9cbd 3637 123e
000002e0: 9ef2 29be d21e 203c fbbb 783c dbe7 adbe
000002f0: 40ca 023d b177 d4be 2651 ee3d 09bb 84bd
00000300: f7a2 3abe 5472 07be 1013 20be e429 e9be
00000310: 05a2 a5bd b680 e4be ecd9 52be 5553 463d
00000320: 4b46 483f 2e8a 1e3d 12a7 0e3f 5d54 303f
00000330: abff 44be c329 01bf afc7 673e e67b 0ebe
00000340: be6e 17bf 645f 9c3e 7076 e4be 6c4f a63d
00000350: 6566 65bf b565 533e fe54 16bf 2551 743e
00000360: a4c6 763e e209 313f 6d94 20bf 5288 e3be
00000370: 9c48 893e 539e 053e 8375 cb3e 460d 6c3d
00000380: e8ea 7abe c388 873d 8470 e33d 84b6 3bbe
00000390: 3cb6 273e fbe4 59be c7eb 483e 57ab 4c3e
000003a0: d376 5f3e 0aff e53c 2574 b7be f1bc db3d
000003b0: 991e 873e 4e16 34be 29e5 993e a565 01bf
000003c0: bada 853e e74e 26bf e953 5f3e 8baf c5bd
000003d0: b79b 1abf f8a9 a43d d15a 9fbe c5bd fcbe
000003e0: 414e 0b3e 8406 33be 0647 32be 81c9 5fbd
000003f0: 4fa1 0c3c 2b9f e03c 2159 e13d 110d 423e

bias f4 [20]
0.61687344 -0.31809694 -0.41539496 0.61837614 -0.6640858 0.19444059 -0.06575507 -0.34966764
0.2487497 -0.1989379 0.9404006 -0.38563618 -0.07099146 0.10886424 -0.45071942 -0.14567876
-0.42557535 -0.14445308 0.27177334 0.5449208
00000000: 6beb 1d3f 9add a2be a6ae d4be e64d 1e3f
00000010: 8701 2abf 6f1b 473e 98aa 86bd a307 b3be
00000020: 3eb8 7e3e 60b6 4bbe 18be 703f 1b72 c5be
00000030: f863 91bd 37f4 de3d b2c4 e6be d02c 15be
00000040: 03e5 d9be 82eb 13be e025 8b3e ee7f 0b3f

weight f4 [20, 20]
-0.32740432 -0.12598832 -0.08964483 0.3892147 -0.48249245 -0.32178357 0.25701335 -0.31154707
0.6359995 0.009661281 0.4420962 0.22438514 0.046347283 -0.25134853 0.12996532 0.48268697
-0.1919496 0.08518526 -0.30041727 -0.18283777 -0.22090235 0.41187993 0.6160624 0.27364963
0.37475717 0.66040283 -0.56302226 -0.31675082 -0.06381444 0.32666513 -0.3390835 0.29157904
0.108031854 -0.32930854 0.4347556 0.6223005 0.81105745 -0.47750714 -0.38983458 -0.5023432
-0.29608753 0.029801738 0.38427022 -0.03881295 0.31266427 0.14484158 -0.06386347 0.28358644
-0.06144241 0.19603994 -0.21757318 0.015495156 -0.3852985 0.08946462 0.12087539 0.46155766
0.11063627 0.08968938 -0.3405023 0.024504831 0.2625339 0.3116667 0.10635128 -0.7223577
0.170513 -0.070348956 -0.30624253 0.15086207 -0.1536488 0.4036956 -0.49753392 0.13330339
-0.121063836 0.27921587 -0.058127917 -0.060971662 0.21570636 0.02396208 -0.04342927 -0.37968692
-0.18138762 -0.30447647 0.46686265 0.80351317 0.17140512 -0.6387466 0.403906 -0.1176848
0.7948271 -0.2553799 0.22135918 0.29045942 -0.22364248 -0.25951597 0.19840747 -0.3528544
0.05694557 -0.25781068 -0.26565227 0.13837652 -0.01114662 -0.38306648 0.014795898 0.09093561
-0.5383357 0.12861712 0.20356214 0.4605652 -0.16416055 -0.35999456 0.5069464 0.4227224
-0.2869366 0.14559262 0.21436137 0.23787484 -0.006419308 -0.23506542 -0.16559152 0.20376627
-0.64302284 -0.23126882 0.1159474 0.45062846 -0.6499664 -0.28021064 -0.18251781 -0.4415708
0.47245032 -0.88906956 0.73055804 0.119070336 0.085766554 -0.44747898 0.14138725 -0.21831483
-0.1623247 -0.27112707 0.006192894 -0.11444571 0.4946661 -0.32172698 -0.06991149 0.049654808
-0.24569428 0.17411144 0.0043103797 -0.121481486 -0.20149907 -0.07682214 -0.021405645 -0.24418293
-0.14791979 0.36308014 -0.035787333 0.082879215 -0.027015787 0.21719371 0.044465326 -0.04871569
-0.26840287 -0.42108676 0.11787188 0.6820562 -0.8767999 -0.7571985 0.31394026 -0.32070938
0.6797405 -0.29342243 0.63259476 0.2661232 0.0015613919 -0.026622744 0.1514343 -0.5033291
-0.11939361 -0.07065242 -0.32601404 -0.27544478 -1.0091457 0.1604171 0.9786639 0.12936445
1.3139447 1.1617945 -0.30830023 -0.012805014 -0.45523775 0.09063844 -1.4723829 1.2395653
0.7329769 -0.9006376 1.3393831 1.6235672 1.4696327 -1.6808099 -1.3882093 -1.6361283
0.20183888 -0.43354112 -0.26331443 0.124719836 -0.240102 -0.6487783 0.040940784 0.023408338
0.39582476 -0.1956816 0.31374943 -0.4197479 0.059783638 -0.21993782 0.15428413 -0.14164521
-0.14965376 -0.049854998 0.58220345 0.30414498 -0.027175542 -0.33798388 0.4287217 0.27553955
-0.18348566 -0.3094851 -0.117232256 -0.24851719 0.39830786 -0.12710847 0.6256595 0.111183934
0.11902047 -0.33015737 0.04798429 -0.15058449 -0.09703084 -0.08336876 0.14905997 0.09189855
-0.10883741 0.32938662 0.10804644 -0.28101483 0.42855024 0.41565418 0.23178859 0.22353585
-0.588491 -0.29825112 -0.34510505 -0.22412878 0.08576772 -0.0686302 -0.14995056 -0.056782592
00000000: 8aa1 a7be 1503 01be b597 b7bd 2647 c73e
00000010: 4009 f7be d1c0 a4be 4197 833e 1983 9fbe
00000020: ddd0 223f 594a 1e3c 6f5a e23e 38c5 653e
00000030: a6d6 3d3d c1b0 80be a115 053e bf22 f73e
00000040: 708e 44be 9c75 ae3d 4bd0 99be d339 3bbe
00000050: 3a34 62be ede1 d23e 44b6 1d3f ce1b 8c3e
00000060: 2ce0 bf3e 2910 293f 3a22 10bf 2a2d a2be
00000070: 25b1 82bd a740 a73e 5a9c adbe d949 953e
00000080: ce3f dd3d 219b a8be 4998 de3e 164f 1f3f
00000090: 76a1 4f3f d17b f4be 6698 c7be 9099 00bf
000000a0: c998 97be c622 f43c 11bf c43e 54fa 1ebd
000000b0: 8815 a03e 5a51 143e daca 82bd 3e32 913e
000000c0: 09ab 7bbd b2be 483e 81cb 5ebe 65df 7d3c
000000d0: d845 c5be 3a39 b73d 848d f73d 4951 ec3e
000000e0: 4595 e23d 11af b73d 5156 aebe 5bbe c83c
000000f0: d86a 863e c792 9f3e b3ce d93d 6fec 38bf
00000100: f69a 2e3e 1d13 90bd d2cb 9cbe 967b 1a3e
00000110: 1c56 1dbe 31b1 ce3e c4bc febe af80 083e
00000120: 51f0 f7bd 62f5 8e3e 8a17 6ebd 6cbd 79bd
00000130: 21e2 5c3e 204c c43c e4e2 31bd 5366 c2be
00000140: adbd 39be 57e4 9bbe 9f08 ef3e 0ab3 4d3f
00000150: d384 2f3e e684 23bf c4cc ce3e ba04 f1bd
00000160: ca79 4b3f 27c1 82be fbab 623e 19b7 943e
00000170: 8902 65be 47df 84be 542b 4b3e 55a9 b4be
00000180: c23f 693d c3ff 83be 9303 88be 93b2 0d3e
00000190: 50a0 36bc 4a21 c4be 7f6a 723c 733c ba3d
000001a0: 5ed0 09bf 35b4 033e 9872 503e 34cf eb3e
000001b0: b419 28be 3551 b8be 3dc7 013f 126f d83e
000001c0: 5be9 92be 3b16 153e 8c81 5b3e 7695 733e
000001d0: 0f59 d2bb fdb4 70be d390 29be 1ba8 503e
000001e0: 259d 24bf bcd1 6cbe d575 ed3d c6b8 e63e
000001f0: 3364 26bf c577 8fbe f3e5 3abe 9115 e2be
00000200: 02e5 f13e 109a 63bf da05 3b3f 26db f33d
00000210: 60a6 af3d f71b e5be d2c7 103e ec8d 5fbe
00000220: 7238 26be 2bd1 8abe c3ed ca3b 8362 eabd
00000230: e044 fd3e 66b9 a4be c12d 8fbd d762 4b3d
00000240: 4897 7bbe 454a 323e 163e 8d3b 49cb f8bd
00000250: c655 4ebe ed54 9dbd e45a afbc 170b 7abe
00000260: 4978 17be a4e5 b93e bd95 12bd 94bc a93d
00000270: 3650 ddbc 0768 5e3e 4621 363d 1a8a 47bd
00000280: 1a6c 89be af98 d7be d066 f13d 3c9b 2e3f
00000290: f575 60bf c3d7 41bf c7bc a03e 0534 a4be
000002a0: 7903 2e3f 773b 96be bbf1 213f 4d41 883e
000002b0: 9ea7 cc3a f117 dabc 9811 1b3e 2dda 00bf
000002c0: a384 f4bd 37b2 90bd 50eb a6be 1907 8dbe
000002d0: b02b 81bf 6144 243e b889 7a3f 1d78 043e
000002e0: 572f a83f afb5 943f 87d9 9dbe 1fcc 51bc
000002f0: ec14 e9be a5a0 b93d 0b77 bcbf 13aa 9e3f
00000300: 60a4 3b3f 3090 66bf e870 ab3f 0dd1 cf3f
00000310: ed1c bc3f c724 d7bf d8b0 b1bf a76c d1bf
00000320: daae 4e3e 1af9 ddbe 26d1 86be 1d6d ff3d
00000330: 4cdd 75be 5616 26bf 86b1 273d d8c2 bf3c
00000340: 8ba9 ca3e c260 48be c4a3 a03e 32e9 d6be
00000350: b0df 743d 6137 61be a9fc 1d3e 710b 11be
00000360: d63e 19be c134 4cbd 490b 153f e4b8 9b3e
00000370: 3e9f debc 390c adbe 6981 db3e 8513 8d3e
00000380: aae3 3bbe d574 9ebe 7717 f0bd 4a7b 7ebe
00000390: 02ef cb3e b928 02be 392b 203f 67b4 e33d
000003a0: 01c1 f33d 630a a9be 2d8b 443d d232 1abe
000003b0: 1bb8 c6bd 3ebd aabd 2da3 183e 4f35 bc3d
000003c0: 26e6 debd 5da5 a83e 7447 dd3d 2de1 8fbe
000003d0: f06a db3e a0d0 d43e fd59 6d3e 95e6 643e
000003e0: 59a7 16bf 5fb4 98be 9cb1 b0be 0482 65be
000003f0: fda6 af3d fe8d 8cbd a48c 19be dd94 68bd

bias f4 [20]
0.43466 -0.6362628 -0.4456493 -0.3725464 -0.2703919 0.038819313 -0.020325655 0.3527694
-0.18998007 -1.8653086 0.39697737 0.28124303 -0.20395637 0.0034418686 -0.62711453 0.8727578
0.5100505 0.3959136 0.19600007 0.33699456
00000000: c18b de3e 1ee2 22bf 252c e4be 67be bebe
00000010: cf70 8abe 0001 1f3d fd81 a6bc 319e b43e
00000020: 238a 42be 6fc2 eebf 9e40 cb3e 16ff 8f3e
00000030: f0d9 50be f990 613b 948a 20bf 0e6d 5f3f
00000040: ab92 023f 30b5 ca3e 3eb4 483e 8d8a ac3e

weight f4 [20, 20]
0.28246707 0.29443762 -0.20575185 -0.12561093 0.24421471 -0.1853959 -0.13324185 0.29187357
-0.38899893 1.8800075 -0.16778025 -0.34749845 0.014845257 -0.050619088 -0.07275391 0.2526466
-0.27432638 -0.22280903 -0.04823836 0.14440599 0.24744786 0.43190214 0.07813286 0.1321443
0.60326815 0.025709363 0.23426263 -0.17160687 0.363556 1.8947672 -0.3611885 0.1467675
0.35128883 -0.11174782 -0.32792857 -0.43748793 0.015120042 -0.010527796 -0.35042658 0.20668167
-0.28158742 0.42030105 0.6929867 0.46052372 0.3730241 0.19324663 -0.39032552 -0.38895178
-0.20293608 1.9087937 -0.38935158 -0.1957391 0.36949757 -0.3868625 0.20678894 -0.5674355
-0.52272326 -0.602927 -0.74060184 -0.3753437 -0.3227941 -0.61482686 0.49862203 0.06935125
-0.89465004 -0.39161247 -0.1827165 0.18930078 0.17070495 -2.601251 0.08490579 0.17404588
0.20283926 -0.07173362 0.21692336 -0.7238971 -0.3032489 0.85485584 0.02832155 -0.5253848
-0.21214533 -0.48911744 0.3906823 0.19047199 -0.5109868 -0.13023396 0.121956415 0.6238642
-0.31335148 -1.8728272 -0.17188573 -0.08149194 0.6974876 -0.19438612 0.07134874 -0.35701248
-0.48571107 0.3364193 0.38945583 -0.048664153 -0.4105302 0.39780274 0.28436303 0.3687352
0.098309554 -0.37557852 -0.27431402 0.06211528 -0.50528383 1.7174258 -0.2873533 -0.098938935
0.46386218 -0.7314645 0.2864608 -0.14144325 -0.14672408 0.15670551 -0.58883137 -0.16874558
0.41825387 -0.15293576 -0.0687092 0.11588494 -0.23943496 0.38329726 -0.021957604 0.27664354
-0.28983578 -1.2666377 0.20107786 0.2660939 -0.20809357 0.016637722 0.012023334 0.14787853
-0.15341066 0.42243358 0.26419815 0.015686017 -0.5667257 0.035173077 0.056804415 0.59371006
0.3360538 -0.059859637 0.3153976 -0.1541595 -0.081331484 2.3362167 -0.08004185 -0.70062107
-0.28702134 -0.13096866 0.17492206 -0.17724304 -0.1596038 -0.39637023 -0.0026967227 -0.45935398
-0.29232758 0.8033781 0.3551557 0.58468264 0.53965586 -0.022292426 0.25805843 -0.45264056
-0.42708072 2.9279437 -0.62355626 0.049658857 0.40633672 -0.6567847 -0.10292185 0.16076505
-0.10635659 -0.7801787 -0.5735003 -0.101908736 -0.4694352 0.6796424 0.14913405 -0.09803408
0.31510997 -0.45003843 -0.027153494 -0.03714034 -0.22738086 1.963204 -0.5319051 0.12116428
0.12350699 -0.19843367 0.15855536 -0.26686376 -0.018255554 -0.7364603 -0.6547951 -0.19731167
0.2593609 0.61784816 -0.11723144 -0.29161403 0.061094306 -0.311369 0.43463573 -0.13613233
0.078293696 2.536681 -0.091659635 -0.09279756 -0.126638 0.021306116 -0.009687671 -0.07740122
0.256236 -0.84919614 0.17065185 0.42834285 -0.036389347 0.43265837 0.5031589 0.33294797
0.49619317 0.21465681 -0.48994237 -0.719475 -0.0882414 2.5504317 -0.11362631 -0.011016321
0.7843149 0.076271005 0.5039035 -0.18612121 -0.7334305 -0.3444321 -0.7680144 -0.28915942
0.5778059 0.09218615 -0.3738049 -0.3507343 0.011400621 0.27956462 0.35451144 -0.13551737
0.49330705 -0.6670502 0.2751886 0.57265884 0.06796415 0.15391012 -0.41433734 0.6800992
00000000: 869f 903e 87c0 963e 9db0 52be 27a0 00be
00000010: 6c13 7a3e 6cd8 3dbe 8d70 08be 7470 953e
00000020: de2a c7be 16a4 f03f 96ce 2bbe 51eb b1be
00000030: 8539 733c f655 4fbd 0100 95bd e55a 813e
00000040: 8274 8cbe 0d28 64be 9695 45bd 2adf 133e
00000050: f962 7d3e 4722 dd3e 1f04 a03d d650 073e
00000060: c86f 1a3f 719c d23c 8be2 6f3e b6b9 2fbe
00000070: 0324 ba3e bb87 f23f b3ed b8be 384a 163e
00000080: 21dc b33e 0bdc e4bd 41e6 a7be 6bfe dfbe
00000090: 0dba 773c c77c 2cbc 1d6b b3be 5ca4 533e
000000a0: 3a2c 90be b331 d73e 9467 313f c4c9 eb3e
000000b0: 04fd be3e 72e2 453e bfd8 c7be b024 c7be
000000c0: 7ace 4fbe 5a53 f43f 1759 c7be d56f 48be
000000d0: c92e bd3e d712 c6be 7bc0 533e 7443 11bf
000000e0: 31d1 05bf 6d59 1abf 1598 3dbf 0d2d c0be
000000f0: 4545 a5be 4b65 1dbf 634b ff3e 0708 8e3d
00000100: c907 65bf 6e81 c8be 091a 3bbe 10d8 413e
00000110: 47cd 2e3e e57a 26c0 16e3 ad3d 1539 323e
00000120: 18b5 4f3e 13e9 92bd 2821 5e3e 5251 39bf
00000130: 7143 9bbe d5d7 5a3f 9802 e83c 9e7f 06bf
00000140: a03c 59be 9a6d fabe 8307 c83e 170b 433e
00000150: 08d0 02bf 0d5c 05be 49c4 f93d 90b5 1f3f
00000160: 9b6f a0be cdb8 efbf d002 30be 3fe5 a6bd
00000170: 8c8e 323f 280d 47be 4a1f 923d 57ca b6be
00000180: 1faf f8be 273f ac3e c166 c73e 1054 47bd
00000190: 0431 d2be cdac cb3e 0898 913e dcca bc3e
000001a0: 8556 c93d d44b c0be e372 8cbe 986c 7e3d
000001b0: 485a 01bf 9cd4 db3f f91f 93be 7fa0 cabd
000001c0: 587f ed3e 4241 3bbf fdaa 923e 80d6 10be
000001d0: d63e 16be 6977 203e a7bd 16bf a4cb 2cbe
000001e0: 5f25 d63e 319b 1cbe 69b7 8cbd 1555 ed3d
000001f0: 702e 75be 8a3f c43e 6fe0 b3bc 39a4 8d3e
00000200: 5b65 94be 2f21 a2bf 5be7 4d3e 763d 883e
00000210: 7b16 55be d54b 883c 85fd 443c 786d 173e
00000220: af17 1dbe 3749 d83e fb44 873e f67f 803c
00000230: ef14 11bf a511 103d bfab 683d 62fd 173f
00000240: 3e0f ac3e 612f 75bd cb7b a13e fddb 1dbe
00000250: 1f91 a6bd 9384 1540 fbec a3bd e75b 33bf
00000260: 76f4 92be a61c 06be c51e 333e 337f 35be
00000270: 2e6f 23be 0af1 cabe 80bb 30bb 7230 ebbe
00000280: f6ab 95be 30aa 4d3f f8d6 b53e c3ad 153f
00000290: e326 0a3f 9b9e b6bc 3c20 843e 81c0 e7be
000002a0: 53aa dabe 6e63 3b40 62a1 1fbf 1667 4b3d
000002b0: 5e0b d03e 0b23 28bf b1c8 d2bd 989f 243e
000002c0: 7cd1 d9bd cbb9 47bf ead0 12bf 87b5 d0bd
000002d0: cf59 f0be 0bfd 2d3f 99b6 183e 17c6 c8bd
000002e0: 1856 a13e 706b e6be 0171 debc 7820 18bd
000002f0: 87d6 68be 454a fb3f ef2a 08bf fa24 f83d
00000300: 3cf1 fc3d 3232 4bbe 565c 223e 5ea2 88be
00000310: ac8c 95bc aa88 3cbf a7a0 27bf 120c 4abe
00000320: f4ca 843e 4c2b 1e3f 0a17 f0bd 6f4e 95be
00000330: 063e 7a3d c26b 9fbe 9388 de3e 4666 0bbe
00000340: 7258 a03d fb58 2240 0cb8 bbbd a60c bebd
00000350: 64ad 01be 2a8a ae3c 0ab9 1ebc 8884 9ebd
00000360: 5d31 833e eb64 59bf 5cbf 2e3e c14f db3e
00000370: ff0c 15bd 6685 dd3e 06cf 003f 2878 aa3e
00000380: 080d fe3e ffce 5b3e bad9 fabe 832f 38bf
00000390: e8b7 b4bd 463a 2340 e9b4 e8bd cd7d 34bc
000003a0: dcc8 483f f933 9c3d d2ff 003f 8f96 3ebe
000003b0: 1ac2 3bbf 6759 b0be 979c 44bf b40c 94be
000003c0: 16eb 133f 18cc bc3d 5b63 bfbe 7293 b3be
000003d0: acc9 3a3c 1823 8f3e 8682 b53e 11c5 0abe
000003e0: be92 fc3e cdc3 2abf 85e5 8c3e c599 123f
000003f0: ca30 8b3d 9d9a 1d3e 0624 d4be fb1a 2e3f

bias f4 [20]
0.20204103 -0.5161111 -0.62909377 -0.19420932 -0.07140431 -0.3842462 0.8011531 -0.73548317
-0.33655554 0.013989925 0.22355755 -0.5255615 0.120057434 -0.7413626 -0.33992913 -0.09007204
0.049142696 1.009287 0.29686433 -0.34729052
00000000: d8e3 4e3e db1f 04bf 4a0c 21bf cfde 46be
00000010: 6c3c 92bd ebbb c4be 5f18 4d3f a048 3cbf
00000020: 0251 acbe 0036 653c 45ec 643e 338b 06bf
00000030: ace0 f53d f0c9 3dbf 310b aebe b177 b8bd
00000040: da49 493d 5130 813f 9afe 973e 10d0 b1be

weight f4 [1, 20]
-2.9497466 -3.0993953 -2.323163 2.7436635 2.9680529 -1.8886524 3.0586398 -2.6645422
-2.8322077 -5.1740108 -3.4071622 -2.631786 1.8845203 -2.9022844 -2.0605617 2.43721
2.7756941 2.9197447 3.0619056 -2.724948
00000000: a6c8 3cc0 7e5c 46c0 b4ae 14c0 2f98 2f40
00000010: 94f4 3d40 5dbf f1bf c1c0 4340 dc87 2ac0
00000020: e442 35c0 7f91 a5c0 f20e 5ac0 2f6f 28c0
00000030: f637 f13f 07bf 39c0 3ee0 03c0 40fb 1b40
00000040: f9a4 3140 19dd 3a40 43f6 4340 8c65 2ec0

u_b f4 [2]
9.921032 39.96
00000000: 8cbc 1e41 0ad7 1f42

l_b f4 [2]
0.040675044 0.0
00000000: e09a 263d 0000 0000
