Iter_03/Models/Noise_0/simulation_00_10/pidnn_400.pt (torch, 88669 bytes, 23 tensors)

weight f4 [20, 2]
-0.118539184 -1.3040282 0.11495394 0.24967779 1.4008639 -0.18909423 0.1914765 0.6045623
0.22959751 0.051928703 -1.3307176 0.54624206 -0.44505668 1.1215347 -0.28696784 -0.3594364
-0.89905596 0.04445365 0.11247758 1.0997411 0.30079427 -0.6525593 0.2454377 2.0970995
1.1414897 -0.120099425 -0.4452653 -0.68451244 -0.43708116 -0.37307623 -0.80856514 0.37998712
-0.6357124 -0.07091695 0.40259436 0.12407378 -0.31193304 -0.5255064 0.75719887 -0.1752586
00000000: acc4 f2bd 65ea a6bf f96c eb3d 89ab 7f3e
00000010: 824f b33f eba1 41be 6a12 443e 98c4 1a3f
00000020: 9c1b 6b3e 31b3 543d f454 aabf 85d6 0b3f
00000030: 78de e3be 738e 8f3f 73ed 92be 0c08 b8be
00000040: 8828 66bf 0815 363d a55a e63d 51c4 8c3f
00000050: b501 9a3e 200e 27bf 0554 7b3e e136 0640
00000060: 561c 923f b0f6 f5bd d0f9 e3be 353c 2fbf
00000070: 1ac9 dfbe d903 bfbe 20fe 4ebf ac8d c23e
00000080: 0cbe 22bf e83c 91bd d920 ce3e 651a fe3d
00000090: b0b5 9fbe 9687 06bf c9d7 413f fe76 33be

bias f4 [20]
-0.17939688 0.07679884 -0.00826187 -0.103748366 0.030461544 -0.24059872 0.4886226 0.054330923
-0.11182697 0.3005666 -0.3988549 0.040116187 -0.1141115 -0.26612476 -0.07243999 -0.46117547
-0.10846951 -0.06350876 0.1622841 0.18051544
00000000: d1b3 37be b648 9d3d cb5c 07bc 067a d4bd
00000010: 7d8a f93c 835f 76be be2c fa3e 1a8a 5e3d
00000020: 8a05 e5bd dee3 993e b636 ccbe df50 243d
00000030: 4ab3 e9bd 8141 88be 6b5b 94bd 311f ecbe
00000040: 4325 debd e110 82bd ce2d 263e 0ad9 383e

weight f4 [20, 20]
0.10029953 0.109291464 0.45504233 0.08283424 0.25425336 -0.13807152 0.20891173 0.07539102
0.09477887 0.15318947 -0.44239068 0.12420042 0.2881155 -0.50119984 -0.2803283 -0.29325995
-0.36217782 0.24940445 -0.18792236 0.216252 0.4663247 0.22862348 0.30123106 -0.024756698
-0.3124941 0.369427 -0.003142304 0.3466832 -0.2652833 0.020920461 -0.17225607 0.11524883
0.21518494 0.1275143 0.117459536 -0.26235497 0.33147418 0.22392032 0.4263257 0.042743213
-0.71936655 0.21261357 -0.06700852 0.5867844 -0.502221 -0.25951526 1.1241941 -0.012114255
0.13962787 0.7109935 -0.6218522 1.0145365 -0.29612058 -0.42503035 -0.045087304 0.003999958
0.096884094 0.14131951 -0.29276586 -0.27827394 -0.017251024 0.24666733 0.106631786 0.14141257
0.41359872 -0.5507313 -0.17264172 -0.016352003 -0.59928435 0.0629398 0.12505986 0.07258219
0.05472793 0.19420256 0.23281111 -0.08550555 -0.055639967 -0.06411005 -0.38018972 0.035621423
0.24956176 -0.18689613 -0.3120811 0.07827903 0.24671593 0.49764386 -0.0008530291 0.23738353
0.039483212 -0.014523096 0.06556812 0.14016093 -0.22135946 0.0002143593 0.059599526 0.3212328
-0.09263069 -0.2114306 0.041225698 0.21436685 0.10476496 -0.041829873 0.20745301 -0.5691626
-0.3353994 -0.11186726 -0.29564083 -0.046814788 0.1268384 -0.11464712 -0.21924323 -0.47741732
-0.24614763 -0.31763348 -0.15190527 -0.040229503 0.10658442 0.29118794 0.55064666 -0.19917883
-0.17406745 -0.13558918 -0.30931553 -0.1470003 0.17893955 0.11428435 -0.1328361 0.021485012
0.20255937 0.23895644 -0.16376483 0.30165368 0.051926285 0.1222428 -0.027143126 -0.0521189
0.034073867 -0.8098618 0.04326059 0.2828027 0.2720683 -0.10689268 -0.70282406 -0.09512929
-0.17319037 0.21795481 0.0020157148 -0.014742737 -0.14476228 0.13283817 -0.2551693 0.08522375
-0.112778805 0.05406395 0.26781556 0.20911555 0.10017395 0.0062350906 -0.41463006 -0.31085294
-0.0054969257 0.031652186 0.1203499 0.29754117 -0.22385386 -0.3484514 0.03786284 0.019819673
0.3887155 -0.02886408 -0.008082697 -0.4253426 0.13205926 0.5371715 0.2729765 -0.39174518
0.06204301 0.064431086 -0.37896323 0.41013172 0.17249277 0.14660707 -0.18014456 -0.15671654
0.038980044 0.25262517 0.084223926 0.38607037 0.006271662 -0.2263029 0.07659851 -0.1709258
-0.23465271 0.06946277 -0.07477437 0.42575246 0.23298138 0.04516607 0.20608956 -0.11368996
-0.10668954 -0.010678156 0.14618608 0.29676187 -0.22405164 0.7368135 0.38044307 -0.105779335
-0.102233715 0.14783368 -0.6021367 0.38394183 -0.2215213 -0.19775495 -0.17203955 -0.0002365315
-0.00812507 0.10885897 0.083222464 -0.37103587 -0.03300161 -0.31433848 0.4860637 0.019344466
0.13594154 -0.065983035 -0.08565248 -0.2294639 -0.04467009 0.3660007 -0.19360155 0.19845216
0.6303024 -0.3267367 -0.15247577 -0.21625994 -0.037090883 -0.17591219 -0.1355968 0.119060226
0.2025226 0.061099175 0.27015683 -0.17924622 -0.25840735 -0.6452506 -0.32928386 0.014486382
-0.32459003 -0.37757128 0.5588211 -0.48883003 0.11186969 0.11689357 -0.14250205 0.021792354
00000000: d769 cd3d 34d4 df3d 4ffb e83e ffa4 a93d
00000010: 7f2d 823e 9f62 0dbe f5ec 553e 9b66 9a3d
00000020: 6d1b c23d b3dd 1c3e 0881 e2be ca5c fe3d
00000030: e083 933e a24e 00bf 3187 8fbe 2b26 96be
00000040: 5f6f b9be e163 7f3e b86e 40be 2a71 5d3e
00000050: 1cc2 ee3e 461c 6a3e f53a 9a3e 8fce cabc
00000060: 3aff 9fbe 8925 bd3e 1def 4dbb 7680 b13e
00000070: 36d3 87be 6361 ab3c e563 30be 9407 ec3d
00000080: 7159 5c3e 1c93 023e a08e f03d 6453 86be
00000090: fcb6 a93e 5e4b 653e 5d47 da3e 8213 2f3d
000000a0: 6828 38bf 5fb7 593e c33b 89bd 8137 163f
000000b0: 8e91 00bf 2fdf 84be 98e5 8f3f de7a 46bc
000000c0: 9cfa 0e3e ac03 363f b531 1fbf 55dc 813f
000000d0: 1e9d 97be 949d d9be 77ad 38bd 1412 833b
000000e0: 2b6b c63d 10b6 103e 68e5 95be ec79 8ebe
000000f0: 0552 8dbc 5c96 7c3e c461 da3d 75ce 103e
00000100: 36c3 d33e bafc 0cbf fec8 30be a3f4 85bc
00000110: b36a 19bf 95e6 803d b10f 003e f9a5 943d
00000120: 652a 603d 09dd 463e 0966 6e3e 891d afbd
00000130: bce6 63bd 214c 83bd 3aa8 c2be c5e7 113d
00000140: 1e8d 7f3e b361 3fbe 18c9 9fbe c250 a03d
00000150: 1aa3 7c3e 2dcb fe3e d09d 5fba ab14 733e
00000160: 26b9 213d 48f2 6dbc 9448 863d 5986 0f3e
00000170: 0eac 62be a3c5 6039 a21e 743d a078 a43e
00000180: 29b5 bdbd 4381 58be 47dc 283d fc82 5b3e
00000190: 038f d63d cd55 2bbd 906e 543e a4b4 11bf
000001a0: 78b9 abbe a91a e5bd 3c5e 97be ddc0 3fbd
000001b0: ede1 013e 1ccc eabd 4c81 60be 0b70 f4be
000001c0: 200e 7cbe dba0 a2be 0e8d 1bbe b1c7 24bd
000001d0: ef48 da3d 9616 953e 2ef7 0c3f 89f5 4bbe
000001e0: bd3e 32be e4d7 0abe 9b5e 9ebe 3f87 16be
000001f0: ee3b 373e ea0d ea3d 3006 08be 5601 b03c
00000200: b96b 4f3e ffb0 743e f8b1 27be 5a72 9a3e
00000210: a8b0 543d 6f5a fa3d 435b debc a17a 55bd
00000220: 0a91 0b3d 1a53 4fbf 0432 313d 84cb 903e
00000230: 894c 8b3e 8dea dabd 47ec 33bf 25d3 c2bd
00000240: d158 31be 8c2f 5f3e 151a 043b 858b 71bc
00000250: 903c 14be bb06 083e 8da5 82be ca89 ae3d
00000260: 93f8 e6bd 2972 5d3d 1f1f 893e 6322 563e
00000270: 0028 cd3d bb4f cc3b 644a d4be 1e28 9fbe
00000280: 8e1f b4bb b9a5 013d 027a f63d 5157 983e
00000290: f239 65be 3968 b2be 1116 1b3d de5c a23c
000002a0: b805 c73e 5d74 ecbc 4a6d 04bc 81c6 d9be
000002b0: 8b3a 073e 1284 093f 93c3 8b3e d392 c8be
000002c0: d020 7e3d 72f4 833d 7807 c2be c9fc d13e
000002d0: f2a1 303e 2a20 163e d177 38be 4d7a 20be
000002e0: 8aa9 1f3d 1658 813e 987d ac3d 04ab c53e
000002f0: 8482 cd3b f3bb 67be aedf 9c3d 2c07 2fbe
00000300: cd48 70be 7f42 8e3d 4e23 99bd 3afc d93e
00000310: ac92 6e3e 0f00 393d 2409 533e 48d6 e8bd
00000320: 0c80 dabd 6ff3 2ebc ceb1 153e 2cf1 973e
00000330: cb6d 65be cf9f 3c3f 6fc9 c23e d6a2 d8bd
00000340: e95f d1bd b661 173e a125 1abf 0694 c43e
00000350: 7bd6 62be 4680 4abe 232b 30be 7105 78b9
00000360: 031f 05bc 74f1 de3d 8a70 aa3d 6af8 bdbe
00000370: b22c 07bd f9f0 a0be 57dd f83e 4978 9e3c
00000380: 4234 0b3e 1d22 87bd 916a afbd 96f8 6abe
00000390: fcf7 36bd 7264 bb3e 7c3f 46be 0b37 4b3e
000003a0: 805b 213f 084a a7be 9c22 1cbe 3f73 5dbe
000003b0: 9cec 17bd 5322 34be e3d9 0abe d9d5 f33d
000003c0: 1662 4f3e 2143 7a3d ff51 8a3e 528c 37be
000003d0: f84d 84be 252f 25bf e597 a8be 4a58 6d3c
000003e0: aa30 a6be 0651 c1be e60e 0f3f ee47 fabe
000003f0: f01b e53d e565 ef3d 0fec 11be e185 b23c

bias f4 [20]
0.54783416 0.028904503 0.3459435 0.25163233 0.06417679 0.3079772 0.12541163 -0.2377863
-0.010640374 -0.13377869 0.11471538 0.26855764 -0.25157925 -0.06980023 -0.061418515 0.17553596
0.36235785 -0.13472815 0.022989213 -0.098627344
00000000: dc3e 0c3f 23c9 ec3c 821f b13e f4d5 803e
00000010: 1f6f 833d 30af 9d3e e86b 003e 407e 73be
00000020: f754 2ebc 48fd 08be e6ef ea3d 6380 893e
00000030: ffce 80be 6cf3 8ebd fb91 7bbd b3bf 333e
00000040: f886 b93e 2df6 09be e053 bc3c 22fd c9bd

weight f4 [20, 20]
0.2010251 -0.43701082 -0.30368266 -0.12467277 0.04612282 -0.20937793 -0.4098306 0.19747835
0.078938715 0.24740869 -0.81384116 -0.10719093 0.0043150336 0.06438245 0.10522243 -0.025837796
-0.08255746 -0.059700202 -0.39098978 -0.16672066 0.10663007 0.1998478 -0.4326226 0.18180518
-0.0657461 0.6023354 -0.31355134 -0.12992115 0.63570046 0.03554585 -0.65009713 0.28605393
0.6965503 0.39136076 0.42749396 0.52946603 0.055421606 -0.3991276 -0.57115036 -0.15506934
-0.3490171 -0.20570049 0.026397917 0.0806656 -0.13745616 -0.18338342 -0.06377574 -0.13188253
-0.01402889 0.14210951 -0.036027648 -0.38297713 -0.034729518 -0.5126402 0.4135523 -0.35739332
-0.39626092 -0.1586133 0.15980852 0.06324337 0.7980677 0.042130668 -0.26722798 -0.17805733
0.2581138 0.44372806 0.13952503 -0.14871158 -0.09279607 -0.3196546 -0.05788835 -0.028904743
-0.3475875 -0.13209659 -0.14800493 0.31306982 0.4202805 -0.3197839 -0.22026062 -0.24027209
0.14365298 -0.05310193 -0.3244783 0.0136874085 0.057228893 -0.046643287 -0.009651083 0.16605085
0.40424898 -0.13861325 0.1469346 -0.009630521 0.5178532 0.19674255 0.3214901 -0.29888442
0.1896221 -0.34389755 -0.08080853 -0.09601604 -0.4676721 0.1445592 0.35615504 -0.023120107
-0.060113396 0.16044404 0.2931932 0.02852957 0.10083142 0.065989204 0.15540849 0.05280343
-0.34754097 0.20819351 -0.30094334 0.08962005 0.04542801 -0.43580377 -0.11138833 0.17772298
0.28928453 -0.018095115 0.38941756 0.02670009 0.21991046 -0.17533506 0.021188844 0.20759335
0.12384185 -0.0015654619 0.050465543 -0.06706835 -0.1471229 -0.02773281 0.20499681 -0.13564508
0.38030118 0.10044135 -0.097692996 0.1201213 0.051817186 -0.10541352 0.4681958 0.20325881
0.042266373 0.22170769 0.0783649 -0.018020362 0.14809696 -0.0224175 -0.0104230745 0.21151142
-0.31746417 -0.10527266 0.09285017 -0.28747043 -0.011399306 0.2583916 -0.08030878 -0.2029488
0.08726826 -0.0007598979 0.12010769 -0.35527238 0.05695392 -0.078836 0.20504914 -0.37102962
-0.1053957 0.14817382 -0.29195806 -0.37136933 0.46317908 0.435953 0.12838048 0.40599552
-0.050056588 0.08405409 0.17014892 0.13564372 -0.028294344 -0.0007082848 0.059770823 0.28014654
0.390431 -0.11121973 -0.052300323 0.1366945 0.00977914 0.41129345 -0.30712044 -0.2421976
-0.05331795 -0.1884629 -0.028656116 -0.13846014 -0.2186574 0.09594259 0.052316543 0.015924549
0.23553842 0.011936455 -0.229718 -0.037860457 0.05356297 0.13008991 0.17243797 -0.14118281
-0.0019878205 0.2221558 0.059679385 0.14506237 -0.5204476 0.09151162 0.3055145 0.28210196
0.11007022 -0.53186125 -0.14938056 0.20303243 0.07042394 0.0511839 -0.51703584 -0.04780326
0.25881648 0.36870795 0.272825 0.25637227 0.19006558 -0.057602577 -0.19771153 0.094257995
0.2124358 0.28111336 3.538842e-05 -0.3349339 -0.23408094 0.12355882 -0.013307427 0.15852956
0.5854203 0.29516333 0.21397719 0.33110812 -0.39685652 -0.3032925 0.2910485 -0.10302802
-0.266555 0.17715415 0.36577046 -0.1417879 0.20369774 -0.0016062137 0.08765907 0.2112818
00000000: 86d9 4d3e e2bf dfbe 4b7c 9bbe 7054 ffbd
00000010: 48eb 3c3d 2b67 56be 51d5 d1be c437 4a3e
00000020: 9faa a13d b458 7d3e e557 50bf eb86 dbbd
00000030: 2065 8d3b f2da 833d db7e d73d c9a9 d3bc
00000040: e313 a9bd 3388 74bd d02f c8be d2b8 2abe
00000050: de60 da3d e7a4 4c3e b680 ddbe 232b 3a3e
00000060: e4a5 86bd a732 1a3f cd89 a0be 0d0a 05be
00000070: 44bd 223f 8698 113d c46c 26bf a975 923e
00000080: 1f51 323f 7060 c83e 7de0 da3e 168b 073f
00000090: c401 633d 745a ccbe e936 12bf 7fca 1ebe
000000a0: 5fb2 b2be 26a3 52be 7240 d83c 0234 a53d
000000b0: 4fc1 0cbe ddc8 3bbe db9c 82bd 370c 07be
000000c0: 6ed9 65bc 2885 113e ba91 13bd 9415 c4be
000000d0: 8a40 0ebd 633c 03bf 21bd d33e 42fc b6be
000000e0: b6e2 cabe 866b 22be d8a4 233e bd85 813d
000000f0: 2a4e 4c3f 3591 2c3d 1bd2 88be a954 36be
00000100: 7e27 843e 5330 e33e a6df 0e3e d947 18be
00000110: de0b bebd c5a9 a3be 561c 6dbd a4c9 ecbc
00000120: fdf6 b1be 5444 07be 9b8e 17be b04a a03e
00000130: 012f d73e b7ba a3be 008c 61be e309 76be
00000140: c419 133e 6981 59bd 0522 a6be 2741 603c
00000150: d868 6a3d 080d 3fbd 931f 1ebc 3c09 2a3e
00000160: b9f9 ce3e a2f0 0dbe 0676 163e 55c9 1dbc
00000170: 0792 043f e176 493e 5a9a a43e 6107 99be
00000180: 4c2c 423e 5713 b0be f17e a5bd 0fa4 c4bd
00000190: b872 efbe 5407 143e f459 b63e 6166 bdbc
000001a0: 7739 76bd 714b 243e 6b1d 963e d8b6 e93c
000001b0: b480 ce3d 5925 873d 6723 1f3e 6948 583d
000001c0: e4f0 b1be ae30 553e 3f15 9abe b78a b73d
000001d0: b912 3a3d ac21 dfbe 911f e4bd 03fd 353e
000001e0: 1a1d 943e 353c 94bc bd61 c73e 26ba da3c
000001f0: 3530 613e 098b 33be 3a94 ad3c 5a93 543e
00000200: cca0 fd3d 2f30 cdba f5b4 4e3d 225b 89bd
00000210: 63a7 16be eb2f e3bc afea 513e 8be6 0abe
00000220: d6b6 c23e 32b4 cd3d 4413 c8bd 2802 f63d
00000230: 423e 543d 0be3 d7bd 5cb7 ef3e 1423 503e
00000240: 811f 2d3d 5707 633e c77d a03d 709f 93bc
00000250: bba6 173e e8a4 b7bc 8bc5 2abc 7396 583e
00000260: aa8a a2be 3199 d7bd 3b28 be3d 532f 93be
00000270: 28c4 3abc e74b 843e ee78 a4bd cfd1 4fbe
00000280: b4b9 b23d e333 47ba 05fb f53d 43e6 b5be
00000290: 8348 693d c574 a1bd 67f8 513e 98f7 bdbe
000002a0: b3d9 d7bd e1ba 173e 877b 95be 1f24 bebe
000002b0: cf25 ed3e 3b35 df3e 2c76 033e a5de cf3e
000002c0: 2308 4dbd 8d24 ac3d 853b 2e3e 30e6 0a3e
000002d0: 8ac9 e7bc 30ac 39ba 40d2 743d 5e6f 8f3e
000002e0: 92e6 c73e 2bc7 e3bd dd38 56bd a5f9 0b3e
000002f0: b038 203c 0e95 d23e e43e 9dbe a602 78be
00000300: ec63 5abd 6bfc 40be 3bc0 eabc 7fc8 0dbe
00000310: bae7 5fbe 8c7d c43d df49 563d 3374 823c
00000320: fc30 713e 1f91 433c 323b 6bbe 9113 1bbd
00000330: d864 5b3d 4a36 053e 9493 303e 3a92 10be
00000340: 1846 02bb cf7c 633e 5f72 743d 3b8b 143e
00000350: 0e3c 05bf 726a bb3d 666c 9c3e ab6f 903e
00000360: 7f6c e13d 0f28 08bf 38f7 18be bce7 4f3e
00000370: 6d3a 903d 36a6 513d 765c 04bf 5acd 43bd
00000380: 9883 843e 4ac7 bc3e b8af 8b3e 3a43 833e
00000390: 8da0 423e aef0 6bbd e474 4abe 560a c13d
000003a0: c588 593e 17ee 8f3e 076e 1438 757c abbe
000003b0: eab2 6fbe 680c fd3d 6507 5abc 9355 223e
000003c0: 1bde 153f a61f 973e d61c 5b3e 0187 a93e
000003d0: c730 cbbe 2849 9bbe 4f04 953e 5b00 d3bd
000003e0: e679 88be e667 353e 4446 bb3e d930 11be
000003f0: 2496 503e 9787 d2ba 9986 b33d 425a 583e

bias f4 [20]
-0.19987257 0.014341845 -0.29299232 0.3849992 -0.027534181 -0.21064901 0.19097514 -0.048593
-0.1810432 -0.17533259 0.21654178 0.026537152 0.19895695 -0.18156539 0.121783786 0.2337869
0.07912166 0.37434503 -0.3644254 0.092801645
00000000: 65ab 4cbe 0ffa 6a3c 1703 96be 9d1e c53e
00000010: 5d8f e1bc 60b4 57be fd8e 433e 7409 47bd
00000020: 6363 39be 638a 33be 21bd 5d3e 7164 d93c
00000030: 5fbb 4b3e 47ec 39be c769 f93d d565 6f3e
00000040: 890a a23d 27aa bf3e f795 babe ca0e be3d

weight f4 [20, 20]
0.20247944 0.0778331 0.09301867 -0.042105507 -0.11142619 0.17357251 -0.4546819 -0.11777888
0.14239484 0.22765654 -0.24431954 -0.15093654 -0.43487594 -0.27078003 0.04424035 -0.51462275
-0.10040768 -0.17849056 0.30424896 -0.07693327 -0.1806313 -0.4869178 0.040840924 0.026852561
-0.27218378 0.1398603 0.27343798 0.2966445 -0.32627112 0.18090323 -0.2009245 0.07515972
-0.03773039 -0.061379723 -0.3177814 0.06257861 -0.05035201 0.46706486 -0.13090515 0.07689224
-0.12941156 -0.34160802 0.0303103 0.5394447 -0.297441 0.3947215 -0.39626518 -0.33781332
-0.31062534 0.24285595 -0.22616221 0.2100654 -0.10420887 -0.047698487 -0.3089357 0.5600287
-0.016761454 -0.2532261 0.08931619 0.03305525 -0.27148902 0.32369536 0.111551896 -0.44318765
0.3102947 -0.19605283 0.121205024 0.24097158 -0.0836816 -0.06278145 -0.044638425 0.013993425
0.19748981 -0.1046905 -0.3564862 -0.21364951 -0.2647932 -0.31457448 0.1787108 -0.14759059
-0.1966718 0.15036404 0.30749822 -0.4499199 0.32755262 0.15694676 0.0629805 0.15341821
0.28648716 0.0047877254 0.071065746 -0.12698045 -0.14641869 -0.031297714 -0.711377 -0.21381071
-0.06046338 0.092627965 0.15602338 -0.53519434 -0.18342865 0.09037921 -0.17838818 -0.101398565
0.030419216 0.097643524 0.11241707 0.3972309 0.12668486 0.30368844 -0.32169744 -0.29384765
0.47276 -0.0076326993 -0.41014752 -0.26398432 -0.16001296 -0.09761727 -0.13134462 0.123865925
0.5080355 0.3226846 0.42694843 -0.3658034 -0.015768634 -0.018759642 -0.04832323 0.12077509
0.020826364 0.045639582 -0.13488391 -0.092603266 -0.13260664 0.15727901 -0.43240488 -0.076888956
0.16301233 0.08262025 -0.007845742 -0.19237918 -0.25411648 -0.16069846 -0.6285993 0.011045767
0.061647855 -0.19385669 0.21515895 -0.3339224 -0.011449676 -0.33307582 0.2058738 0.19762169
-0.08657532 0.042385463 0.05571551 0.32318357 -0.09109635 0.30441526 -0.027596815 0.041696735
0.097536735 -0.09515947 -0.19865386 0.7006579 -0.0387705 0.15030083 -0.22729139 0.35209048
-0.0782386 0.059746344 0.12312072 0.05303237 0.114417955 -0.122153014 0.12924244 0.19270708
-0.062123902 0.30379543 -0.22891001 -0.19627784 -0.15603548 -0.31024012 -0.12133549 0.14920844
0.04212507 -0.10367489 0.092844725 0.056553893 -0.32268474 -0.14582746 -0.07416982 0.040189844
0.06926109 -0.42431012 0.1901753 0.039442524 0.17540006 -0.10773097 0.13228314 -0.02101458
-0.20547913 -0.40296215 -0.21781678 -0.28415886 -0.08011922 0.120766655 0.17017701 0.37926096
-0.070404135 -0.13681129 0.26224908 -0.096255444 -0.0814229 0.7378025 -0.31425807 -0.016453862
-0.25752744 -0.008701416 -0.23424429 -0.15885521 -0.5241711 -0.23579253 -0.17017463 -0.5555369
0.26985562 0.19934706 0.032731704 0.33825424 -0.5867523 -0.17914847 0.3191035 0.12644204
0.20612347 0.1967511 -0.18587413 -0.063264064 0.3273259 0.2406103 -0.09192427 0.38833937
-0.3784483 0.324599 0.29575932 -0.084207974 -0.005282457 0.11554953 -0.13971457 -0.21047299
0.27085462 -0.20412979 -0.11117489 0.1658209 0.06273454 -0.20181917 0.29700908 -0.14956331
00000000: c556 4f3e f666 9f3d 9380 be3d d376 2cbd
00000010: 6a33 e4bd febc 313e 11cc e8be 0e36 f1bd
00000020: f4cf 113e cc1e 693e e72e 7abe 1c8f 1abe
00000030: 0fa8 debe aea3 8abe 5f35 353d 51be 03bf
00000040: 8ba2 cdbd 3bc6 36be 85c6 9b3e 318f 9dbd
00000050: 69f7 38be 4a4d f9be d048 273d e7f9 db3c
00000060: ac5b 8bbe 8a37 0f3e 1000 8c3e cae1 973e
00000070: 020d a7be b23e 393e 27bf 4dbe 57ed 993d
00000080: 2e8b 1abd 4e69 7bbd 3eb4 a2be 3729 803d
00000090: e93d 4ebd 2023 ef3e 000c 06be ae79 9d3d
000000a0: 7784 04be 3fe7 aebe 4e4d f83c 0c19 0a3f
000000b0: 304a 98be f018 ca3e 45e3 cabe def5 acbe
000000c0: 490a 9fbe 3baf 783e 1197 67be 621b 573e
000000d0: 766b d5bd 7d5f 43bd d22c 9ebe 0a5e 0f3f
000000e0: 514f 89bc daa6 81be 68eb b63d f164 073d
000000f0: 9c00 8bbe 66bb a53e 5275 e43d 7ee9 e2be
00000100: f2de 9e3e 13c2 48be 573a f83d 41c1 763e
00000110: 4261 abbd 9093 80bd c8d6 36bd ae44 653c
00000120: c53a 4a3e f967 d6bd 5c85 b6be f0c6 5abe
00000130: f992 87be e80f a1be f7ff 363e fd21 17be
00000140: 5564 49be 08f9 193e 6870 9d3e e75b e6be
00000150: fab4 a73e a7b6 203e ecfb 803d aa19 1d3e
00000160: 72ae 923e 5ae2 9c3b eb8a 913d 2a07 02be
00000170: c8ee 15be 0832 00bd ce1c 36bf 32f1 5abe
00000180: 73a8 77bd bbb3 bd3d 98c4 1f3e 7f02 09bf
00000190: b8d4 3bbe bc18 b93d 64ab 36be 0daa cfbd
000001a0: b831 f93c 54f9 c73d ec3a e63d d961 cb3e
000001b0: adb9 013e 0d7d 9b3e 87b5 a4be 3373 96be
000001c0: 990d f23e b91b fabb dbfe d1be f428 87be
000001d0: 70da 23be 90eb c7bd 347f 06be 6bad fd3d
000001e0: 9d0e 023f ea36 a53e fc98 da3e 954a bbbe
000001f0: 392d 81bc d2ad 99bc 94ee 45bd ee58 f73d
00000200: 0d9c aa3c 92f0 3a3d 021f 0abe c8a6 bdbd
00000210: 09ca 07be c00d 213e 2c64 ddbe f577 9dbd
00000220: b4ec 263e ce34 a93d 6d8b 00bc 0cff 44be
00000230: 8e1b 82be 238e 24be e2eb 20bf 4ef9 343c
00000240: 7682 7c3d 5e82 46be a152 5c3e e0f7 aabe
00000250: 6c97 3bbc ea88 aabe 95d0 523e 575d 4a3e
00000260: 674e b1bd 619c 2d3d f235 643d 5178 a53e
00000270: b990 babd 51dc 9b3e b712 e2bc 32ca 2a3d
00000280: 57c1 c73d f8e2 c2bd eb6b 4bbe 515e 333f
00000290: d1cd 1ebd 76e8 193e 13bf 68be 3445 b43e
000002a0: 8f3b a0bd 95b8 743d b726 fc3d 7838 593d
000002b0: f653 ea3d 5c2b fabd 2158 043e 0155 453e
000002c0: a275 7ebd 138b 9b3e 6367 6abe 0ffd 48be
000002d0: c4c7 1fbe cbd7 9ebe be7e f8bd 19ca 183e
000002e0: 568b 2c3d 8053 d4bd 6025 be3d 0ea5 673d
000002f0: ef36 a5be cb53 15be 59e6 97bd 1b9e 243d
00000300: c2d8 8d3d 2d3f d9be 50bd 423e 7c8e 213d
00000310: 139c 333e 0ea2 dcbd 3b75 073e c526 acbc
00000320: 1f69 52be 0e51 cebe 5d0b 5fbe 457d 91be
00000330: 8c15 a4bd 8254 f73d e242 2e3e 7e2e c23e
00000340: 0b30 90bd 4218 0cbe 8345 863e 9321 c5bd
00000350: 0dc1 a6bd a0e0 3c3f 6fe6 a0be 40ca 86bc
00000360: a3da 83be 6290 0ebc bcdd 6fbe f1aa 22be
00000370: 1430 06bf 9973 71be 4242 2ebe ab37 0ebf
00000380: 842a 8a3e a321 4c3e ae11 063d a92f ad3e
00000390: 6635 16bf b272 37be 8961 a33e 067a 013e
000003a0: 0812 533e 1f79 493e ca55 3ebe 9790 81bd
000003b0: 4397 a73e 8c62 763e cb42 bcbd 6bd4 c63e
000003c0: fac3 c1be d731 a63e c46d 973e 3b75 acbd
000003d0: 7618 adbb 3ba5 ec3d 5611 0fbe 3b86 57be
000003e0: 75ad 8a3e 6607 51be a9af e3bd f4cc 293e
000003f0: f77a 803d afa9 4ebe 9311 983e 2027 19be

bias f4 [20]
-0.8347574 -0.06359431 -0.5219278 -0.33391005 -0.52155024 0.033616632 0.14867476 0.33633643
0.23320799 0.04107726 -0.39428893 -0.058419522 0.30999884 -0.25506264 0.020272974 -0.12372078
0.079531185 0.074671686 -0.18930674 -0.21061651
00000000: a9b2 55bf bc3d 82bd 0f9d 05bf 42f6 aabe
00000010: 5184 05bf 98b1 093d 323e 183e 4a34 ac3e
00000020: 13ce 6e3e a140 283d 3de0 c9be 4f49 6fbd
00000030: 2bb8 9e3e 9297 82be 8213 a63c 5261 fdbd
00000040: 3fe1 a23d 78ed 983d a0d9 41be dbab 57be

weight f4 [20, 20]
-0.47669637 0.0058243554 0.33065754 -0.22508769 0.30460647 -0.22325648 0.025936043 -0.08401336
0.15990163 -0.21773934 0.31799075 0.15570544 -0.1650164 -0.12595387 0.14341505 0.24876705
0.15777041 -0.014169292 -0.29745704 -0.1694411 0.16787729 0.114023596 0.34245378 0.13011229
-0.032165222 -0.0025517384 0.08539561 0.06997086 0.14136742 0.20042813 0.15153633 0.06765565
-0.38862285 -0.16299394 0.030523835 0.10563731 0.1517402 -0.041452654 -0.32831636 0.41981825
-0.3170056 0.03955906 0.2981649 -0.069069535 0.22997698 0.13453919 0.2512568 0.1909609
0.22520939 0.19191758 -0.062969424 -0.077542916 0.057331715 -0.10976211 0.0147756105 0.11895813
0.3381286 0.2450828 -0.21495706 -0.19592634 0.032673683 0.10465162 0.06284623 0.1121324
-0.06578502 0.1223469 0.12635317 -0.3250726 0.012984578 -0.06943018 -0.18763892 0.09307374
0.03476339 0.19295958 0.23667306 0.0034943519 0.0462963 -0.07665702 -0.46051478 -0.19995962
0.3452195 -0.0752648 0.36632317 0.03067014 -0.068635985 -0.2727426 0.08861808 -0.09442675
-0.20647442 -0.4773366 0.3167766 -0.13412882 -0.243271 0.054322448 0.36605993 0.17423187
-0.16058236 0.18337892 0.07712915 0.052678127 -0.10891177 -0.035481032 -0.5438128 -0.20763025
-0.40960738 -0.007912292 0.040956903 0.034653686 0.3264448 -0.025494538 0.30530614 0.012925989
-0.01741297 -0.44486904 -0.2054268 0.30120695 0.4376621 0.22631118 0.34443018 -0.06933024
0.35799855 0.27410215 -0.21097846 0.32581252 0.26789376 0.13336925 -0.3109171 0.113910384
-0.14726879 -0.19579156 0.34691447 -0.11610655 0.019530317 -0.0664472 -0.82580775 0.41659915
0.16799824 0.48520526 -0.12052233 0.26206735 -0.23131825 -0.15989673 -0.25326636 0.357501
0.265257 0.27984712 0.5231813 -0.37291503 0.39124173 -0.5172525 0.068906456 0.010102225
-0.2264301 0.047730975 0.15180187 -0.21324924 0.25734267 0.1997101 0.18281347 -0.41083464
-0.1671016 -0.28915676 0.22323395 -0.17104442 0.22208942 0.19573928 -0.11157343 0.087380186
-0.09136596 -0.13430068 0.052559663 0.22687943 0.051620122 -0.21231514 0.10233287 -0.24278222
-0.22910042 0.017526647 -0.020124817 0.041454457 -0.34530747 -0.015132294 -0.20232743 -0.59366804
-0.5850954 0.028286198 0.041690554 0.09007621 -0.5593928 -0.11499284 -0.017072266 -0.013765401
-0.0385226 0.17074758 0.28189114 -0.06354187 0.1629874 0.16820703 0.13421775 0.35384372
0.17458905 0.35233322 0.13739073 -0.052159045 -0.21485524 0.14272135 -0.029160777 -0.09908636
-0.21485959 0.14902249 0.064978056 -0.06622579 0.008030181 0.03738137 -0.13170654 0.26953834
-0.13097176 -0.1184441 -0.18973784 -0.014089518 -0.21717456 -0.31627434 -0.38110998 0.19460693
-0.27885064 0.14098555 0.11541701 0.21304147 0.08834659 0.0969553 0.16580832 -0.49591163
-0.016294003 -0.021023063 -0.0808389 0.20194893 -0.01531602 0.3525714 0.43267968 -0.27669683
-0.1840199 0.03919692 -0.36941746 0.22141941 -0.55632985 -0.03170588 0.015833108 0.08086054
0.20189992 -0.031589035 -0.16736709 -0.052113086 -0.039003942 -0.24732246 0.36576933 -0.053387247
00000000: 8c11 f4be 3cda be3b f24b a93e 637d 66be
00000010: 61f5 9b3e 599d 64be d377 d43c 320f acbd
00000020: 41bd 233e 10f7 5ebe afcf a23e 3f71 1f3e
00000030: 0ffa 28be 0dfa 00be 65db 123e cabc 7e3e
00000040: 918e 213e 5126 68bc 4a4c 98be f881 2dbe
00000050: 06e8 2b3e 3485 e93d 1a56 af3e 283c 053e
00000060: aebf 03bd 113b 27bb e5e3 ae3d e24c 8f3d
00000070: 9fc2 103e 083d 4d3e 572c 1b3e 0c8f 8a3d
00000080: 93f9 c6be e2e7 26be 1f0d fa3c 6058 d83d
00000090: c861 1b3e 42ca 29bd 1519 a8be 6bf2 d63e
000000a0: 8f4e a2be ae08 223d 12a9 983e 5474 8dbd
000000b0: 167f 6b3e a4c4 093e bba4 803e 418b 433e
000000c0: 4a9d 663e 0b86 443e 1df6 80bd d2ce 9ebd
000000d0: a9d4 6a3d f5ca e0bd 6715 723c 52a0 f33d
000000e0: 311f ad3e fcf6 7a3e b41d 5cbe eaa0 48be
000000f0: d7d4 053d 9753 d63d 86b5 803d aca5 e53d
00000100: 4cba 86bd 0391 fa3d ba62 013e ea6f a6be
00000110: 44bd 543c 6931 8ebd 6b24 40be 729d be3d
00000120: 0e64 0e3d 3297 453e 6c5a 723e 7f01 653b
00000130: 30a1 3d3d 5bfe 9cbd 98c8 ebbe 37c2 4cbe
00000140: 9cc0 b03e 6e24 9abd b68e bb3e f23f fb3c
00000150: 0691 8cbd eba4 8bbe 657d b53d d062 c1bd
00000160: 086e 53be 7665 f4be 8b30 a23e 1159 09be
00000170: 081c 79be 3781 5e3d 356c bb3e d769 323e
00000180: b46f 24be afc7 3b3e e3f5 9d3d 05c5 573d
00000190: 220d dfbd 8f54 11bd 5137 0bbf 069d 54be
000001a0: 0fb8 d1be 8fa2 01bc 6dc2 273d 06f1 0d3d
000001b0: c623 a73e ecd9 d0bc 1651 9c3e 87c7 533c
000001c0: a5a5 8ebc e0c5 e3be 675b 52be cc37 9a3e
000001d0: 3f15 e03e 1ebe 673e 2759 b03e 03fd 8dbd
000001e0: 964b b73e 1e57 8c3e bd0a 58be e6d0 a63e
000001f0: 5f29 893e f391 083e 8730 9fbe d949 e93d
00000200: a1cd 16be 957d 48be c69e b13e 45c9 edbd
00000210: 0bfe 9f3c 7815 88bd 2368 53bf 7c4c d53e
00000220: bb07 2c3e d36c f83e 69d4 f6bd b12d 863e
00000230: b1de 6cbe f8bb 23be 21ac 81be 5f0a b73e
00000240: c4cf 873e 1f48 8f3e 36ef 053f b8ee bebe
00000250: d650 c83e a96a 04bf d41e 8d3d cd83 253c
00000260: 4bdd 67be 8e81 433d f371 1b3e 025e 5abe
00000270: 6bc2 833e ce80 4c3e 7433 3b3e eb58 d2be
00000280: af1c 2bbe 5b0c 94be 7197 643e 4526 2fbe
00000290: 696b 633e e16f 483e 9c80 e4bd 62f4 b23d
000002a0: 141e bbbd 1e86 09be cd48 573d 1553 683e
000002b0: 9f6f 533d 2469 59be e593 d13d e79b 78be
000002c0: 4d99 6abe 0b94 8f3c cddc a4bc 26cc 293d
000002d0: 24cc b0be 71ed 77bc ec2e 4fbe a1fa 17bf
000002e0: d0c8 15bf 75b8 e73c b7c3 2a3d e079 b83d
000002f0: 5e34 0fbf 5e81 ebbd 23db 8bbc 4788 61bc
00000300: e0c9 1dbd 74d8 2e3e 0954 903e 3d22 82bd
00000310: 2be6 263e 773e 2c3e 6170 093e 012b b53e
00000320: 79c7 323e 0565 b43e 28b0 0c3e b9a4 55bd
00000330: 0303 5cbe 8c25 123e 95e2 eebc caed cabd
00000340: 2704 5cbe 5a99 183e 3713 853d 63a1 87bd
00000350: 0591 033c 351d 193d 14de 06be ee00 8a3e
00000360: 761d 06be d292 f2bd a34a 42be b9d7 66bc
00000370: 0263 5ebe b6ee a1be d920 c3be 0a47 473e
00000380: 83c5 8ebe 845e 103e c15f ec3d 8b27 5a3e
00000390: 0fef b43d 8090 c63d a8c9 293e 21e8 fdbe
000003a0: 007b 85bc 8f38 acbc dd8e a5bd b3cb 4e3e
000003b0: 0bf0 7abc 3d84 b43e 3188 dd3e 35ab 8dbe
000003c0: b66f 3cbe f38c 203d 4924 bdbe c5bb 623e
000003d0: a26b 0ebf 06de 01bd 6fb4 813c 369a a53d
000003e0: dabe 4e3e 8163 01bd 4762 2bbe 8874 55bd
000003f0: 99c2 1fbd 1942 7dbe 1e46 bb3e 96ac 5abd

bias f4 [20]
0.39741388 -0.47852495 0.27572274 0.012262941 -0.50617874 0.04482624 -0.060847238 -0.10547044
0.28061706 0.21458721 -0.3929767 -0.051690415 0.48864838 -0.10636677 -0.11419254 0.09047868
-0.08470202 0.10751933 -0.08876735 -0.095850065
00000000: d579 cb3e 3901 f5be 882b 8d3e 81ea 483c
00000010: ee94 01bf b89b 373d f43a 79bd e300 d8bd
00000020: 0aad 8f3e c0bc 5b3e 3e34 c9be 54b9 53bd
00000030: 1f30 fa3e d2d6 d9bd c7dd e9bd e34c b93d
00000040: 4178 adbd 1833 dc3d a8cb b5bd 0a4d c4bd

weight f4 [20, 20]
-0.09722245 0.06871541 -0.31419802 -0.020213228 -0.10802559 -0.12499454 0.03371635 -0.09285619
0.11899954 0.46974415 0.13310494 0.1759304 0.19577265 0.5092476 0.19470893 0.13980304
-0.15095657 0.12098055 0.23854487 0.050781958 0.0021363953 -0.35115466 -0.40367627 0.10492988
0.1805446 0.07720125 -0.10404697 0.04270675 0.25604057 -0.015314758 0.101712994 -0.05543035
0.2535655 -0.14168794 0.05816841 0.3015392 -0.47595814 0.479882 0.26955992 -0.3909177
-0.07578898 0.16074294 0.025737796 -0.2977753 0.10168114 0.114089526 -0.089255914 -0.36503574
-0.1575117 0.2162678 -0.20181295 0.12518935 -0.06242258 -0.0026212235 0.29102227 0.04861557
-0.3764171 -0.16941546 0.10177329 -0.35595155 -0.26566198 0.6059669 -0.58573675 -0.13812183
0.105482414 0.2071804 0.023207206 0.3975375 -0.04437879 -0.0062546018 -0.07834491 -0.10430883
-0.26192573 0.1772902 0.14018086 0.27838355 0.105277725 -0.15236625 -0.0037691444 -0.15296961
0.081668645 -0.4704351 0.16969159 0.048351683 0.31565145 0.07414773 -0.2361258 0.118427925
-0.13727576 -0.1571241 0.32302356 0.105011605 -0.15917741 0.4756454 -0.4068674 -0.047672033
0.37657878 -0.47117683 -0.19400348 -0.32041502 0.2005575 0.0015564131 -0.2394386 0.122084424
0.3013472 -0.19504496 0.23401816 0.07663001 0.035133213 0.18149851 0.044717334 0.042881217
0.16510667 0.097328104 -0.053237192 -0.22890937 0.6408959 -0.06943617 -0.13388048 0.041986965
-0.10319906 0.072596855 -0.24298517 -0.017873496 0.32265535 0.122904964 0.12654294 0.32687327
0.09745297 -0.09825594 0.47428626 -0.44412357 -0.35438728 -0.27950367 0.23374563 0.10062003
-0.6545415 0.43216366 0.20203061 0.038676582 0.47256395 0.034576457 0.08149228 0.26325157
-0.37201324 -0.036565907 0.30547357 0.038706608 0.056488317 -0.03950095 -0.48721716 -0.5274592
-0.4310395 -0.23765165 -0.08175034 -0.6374188 -0.024687713 -0.2721045 -0.19067821 0.08670245
-0.116432324 -0.06332423 0.0050637852 -0.20392026 0.21587726 0.23384263 -0.54429775 -0.0027026152
0.046119746 0.24150679 0.17287645 -0.15945031 0.25817057 -0.415097 0.13248858 -0.2209315
-0.68754923 0.3280772 0.07118387 -0.37029797 0.3923774 -0.3134525 0.43077573 -0.09212057
0.03626967 0.037612032 0.2927176 0.018851824 0.13286887 0.6225591 -0.1836178 -0.23325938
-0.0073894314 0.46537733 0.23568185 -0.0018048154 0.34170777 -0.003358208 -0.22925448 -0.033081245
-0.24637005 0.18659836 -0.12561013 -0.1566486 0.23318984 0.09759521 -0.2967253 0.1420208
0.17361157 -0.16035569 0.028806634 0.22812794 -0.43312263 -0.52866054 0.23664151 0.23100147
0.17010772 -0.17234428 0.26815784 0.034184184 -0.27475324 -0.27457917 0.4488209 0.3527197
0.11458582 -0.079133675 0.07241579 -0.2807359 -0.35588977 -0.015905939 -0.29598638 -0.35412723
-0.022725284 -0.27197677 -0.21603459 -0.13494253 0.057386264 0.05304684 0.15906087 -0.13346991
-0.15197605 -0.34981555 -0.34447142 -0.36884958 0.046764348 -0.17664944 -0.15951997 0.053078208
-0.21048866 -0.011944796 0.0020925489 0.2792174 -0.07442979 -0.3162758 0.18195292 -0.19167228
00000000: 901c c7bd aaba 8c3d 90de a0be 3696 a5bc
00000010: 853c ddbd 23fd ffbd 281a 0a3d 632b bebd
00000020: 08b6 f33d 4e82 f03e a94c 083e 1927 343e
00000030: a078 483e 0d5e 023f c761 473e 8728 0f3e
00000040: 5c94 1abe a7c4 f73d 1b45 743e be00 503d
00000050: c402 0c3b 8bca b3be a8ae cebe 7ae5 d63d
00000060: afe0 383e b01b 9e3d 9416 d5bd 46ed 2e3d
00000070: c017 833e c0ea 7abc e74e d03d ef0a 63bd
00000080: 56d3 813e a516 11be 0042 6e3d 5963 9a3e
00000090: c9b0 f3be 18b3 f53e c203 8a3e 5d26 c8be
000000a0: 4137 9bbd cc99 243e 12d8 d23c 0176 98be
000000b0: 343e d03d c5a7 e93d cecb b6bd f7e5 babe
000000c0: bf4a 21be 4e75 5d3e 0ea8 4ebe a331 003e
000000d0: d2ae 7fbd d5c8 2bbb df00 953e 1f21 473d
000000e0: beb9 c0be 3f7b 2dbe 846e d03d 483f b6be
000000f0: d904 88be a620 1b3f d8f2 15bf cf6f 0dbe
00000100: 2a07 d83d 1927 543e 0a1d be3c 098a cb3e
00000110: 89c6 35bd 67f3 ccbb 4c73 a0bd de9f d5bd
00000120: 211b 86be 908b 353e 928b 0f3e 4a88 8e3e
00000130: d99b d73d e605 1cbe c003 77bb 11a4 1cbe
00000140: e441 a73d dfdc f0be a2c3 2d3e 6a0c 463d
00000150: 119d a13e c4da 973d f6ca 71be 578a f23d
00000160: 0492 0cbe 24e5 20be 5863 a53e 5310 d73d
00000170: 67ff 22be cb87 f33e ed50 d0be c043 43bd
00000180: efce c03e 173e f1be d9a8 46be 700d a4be
00000190: f25e 4d3e 8f00 cc3a 642f 75be 6607 fa3d
000001a0: 2e4a 9a3e deb9 47be 75a2 6f3e 32f0 9c3d
000001b0: d8e7 0f3d bfda 393e 8629 373d 37a4 2f3d
000001c0: b911 293e f553 c73d 3e0f 5abd 3867 6abe
000001d0: c111 243f 8d34 8ebd f717 09be 86fa 2b3d
000001e0: 075a d3bd a9ad 943d 1bd1 78be 706b 92bc
000001f0: 1533 a53e 99b5 fb3d 7994 013e ef5b a73e
00000200: 6c95 c73d 693a c9bd a6d5 f23e 2a64 e3be
00000210: 4072 b5be 1b1b 8fbe 045b 6f3e e011 ce3d
00000220: 0890 27bf 8e44 dd3e 1de1 4e3e 566b 1e3d
00000230: e7f3 f13e 0ba0 0d3d 6de5 a63d e9c8 863e
00000240: 8578 bebe 22c6 15bd 0867 9c3e d28a 1e3d
00000250: 4b60 673d c0cb 21bd 8774 f9be 9107 07bf
00000260: 36b1 dcbe f45a 73be b96c a7bd e12d 23bf
00000270: e33d cabc 4851 8bbe 2641 43be 0e91 b13d
00000280: 1274 eebd 22b0 81bd 1cee a53b 79d0 50be
00000290: ee0e 5d3e 7174 6f3e 1957 0bbf 5c1e 31bb
000002a0: 0fe8 3c3d 8e4d 773e 8606 313e f146 23be
000002b0: ef2e 843e 9887 d4be 16ab 073e de3b 62be
000002c0: 3a03 30bf bcf9 a73e d9c8 913d b297 bdbe
000002d0: b1e5 c83e d97c a0be a38e dc3e b6a9 bcbd
000002e0: 818f 143d 130f 1a3d 15df 953e 246f 9a3c
000002f0: c70e 083e 0860 1f3f 4e06 3cbe 8cdb 6ebe
00000300: 0b23 f2bb f045 ee3e 9556 713e 8e8f ecba
00000310: 52f4 ae3e 6215 5cbb b0c1 6abe 3380 07bd
00000320: 6e48 7cbe a413 3f3e f19f 00be 7e68 20be
00000330: 51c9 6e3e ffdf c73d 61ec 97be e76d 113e
00000340: 3bc7 313e 4834 24be e4fb eb3c 5f9a 693e
00000350: 40c2 ddbe 4c56 07bf 2752 723e a68b 6c3e
00000360: b830 2e3e 057b 30be fc4b 893e b704 0c3d
00000370: 75ac 8cbe a495 8cbe dacb e53e ad97 b43e
00000380: f8ab ea3d d610 a2bd bb4e 943d 9ebc 8fbe
00000390: 2f37 b6be 2c4d 82bc 878b 97be 2a50 b5be
000003a0: 602a babc 8a40 8bbe 2c38 5dbe 602e 0abe
000003b0: dc0d 6b3d a547 593d dae0 223e 56ac 08be
000003c0: 9c9f 1bbe 061b b3be 8f5e b0be dad9 bcbe
000003d0: f98b 3f3d 97e3 34be 3459 23be 8968 593d
000003e0: 578a 57be 1bb4 43bc 2523 093b 95f5 8e3e
000003f0: a56e 98bd e7ee a1be de51 3a3e bd45 44be

bias f4 [20]
-0.072736375 -0.059910007 -0.2641644 -0.116537966 -0.03750721 0.054031555 -0.18370415 -0.026191326
0.051480334 0.3897845 -0.12515712 -0.07212862 0.14466277 0.22916971 0.302382 -0.6793682
-0.0017813183 0.3653923 0.015945217 0.04862468
00000000: cff6 94bd 3264 75bd 8e40 87be 75ab eebd
00000010: 29a1 19bd 3150 5d3d f11c 3cbe 318f d6bc
00000020: 0bdd 523d d591 c73e 3029 00be 2cb8 93bd
00000030: 7a22 143e 77ab 6a3e d0d1 9a3e 13eb 2dbf
00000040: 207b e9ba b314 bb3e 8b9f 823c ac2a 473d

weight f4 [20, 20]
0.020491924 -0.026161427 0.17072795 0.009522039 -0.19315256 -0.16474351 -0.044384003 -0.2427864
0.0792956 0.18960735 -0.1609627 0.029196806 0.020027597 -0.07192767 0.61029214 -0.084108576
-0.10554559 0.30416587 0.24438244 -0.040258497 0.14267635 0.17109077 0.1265658 -0.021580104
0.06368093 0.6489129 -0.38676578 0.29757524 -0.07495333 0.33973026 -0.47181088 -0.17756036
-0.4860404 0.12438343 -0.31917712 -0.11318562 -0.15430544 -0.5075846 0.37874693 0.092019446
0.3841875 0.17013349 0.16555388 0.042696405 0.17685407 0.09889313 0.42461446 -0.08170223
0.37384397 -0.20713109 0.035973903 -0.12217027 0.057140958 0.31715018 0.10062054 0.8111373
0.27977788 -0.18849835 -0.10582668 -0.12864861 0.609225 0.52695286 0.22915733 0.1304763
-0.3651204 -0.5710961 0.6747899 -0.5021845 0.70276654 0.35808712 0.19451958 -0.05653898
-0.49385157 -0.74743026 0.63506347 -0.16089769 0.4813267 1.2862561 -0.13002448 -0.7881557
-0.2634965 -0.045001473 0.18460417 -0.178193 -0.28295755 0.14805529 0.17034496 0.53942096
-0.015609428 0.24035221 -0.41517982 0.4970051 -0.072050296 0.32225215 -0.2530621 0.029746478
-0.42981207 -0.53564215 0.118837856 -0.017798057 0.17037901 0.5205136 0.27536657 0.1719894
-0.1445369 -0.31082988 -0.058870275 0.0156145785 0.27502567 -0.37859473 -0.027808663 -0.12049783
0.13512424 -0.067536615 0.25084513 0.17006747 0.08880623 -0.27667016 0.044201132 -0.14427531
-0.0055094236 0.06650215 0.17070617 0.25486267 0.1697879 -0.016845973 0.007419445 0.005809866
-0.0011055738 0.092101105 -0.23353206 -0.088938534 -0.3428805 0.51087546 0.053362373 -0.48523706
-0.24486569 -0.0024864075 0.25083277 0.17299844 0.20158264 -0.043209802 0.37807003 0.17691383
-0.3106387 0.20561945 0.12352811 0.10299719 0.45541754 -0.46951833 -0.22389936 -0.2716854
0.22318116 -0.1645972 0.2694666 -0.22724082 0.41386893 0.7532112 -0.29292083 -0.3154629
0.0835975 -0.06069751 -0.1617847 0.08635733 0.12284997 -0.09559507 0.3966732 0.20932297
0.06503868 0.15876667 0.1905646 -0.27693042 -0.08728081 -0.6840886 0.29640767 -0.19149223
-0.02737673 0.5466613 -0.31261143 -0.10728832 0.27206922 -0.04097637 -0.12301167 -0.24223475
0.006710509 -0.1455565 0.10920152 -0.2213364 0.49898896 -0.16689499 -0.19408959 -0.66852844
-0.08167656 0.12809224 -0.1300926 0.32543898 0.13144685 0.32652813 0.305419 0.22907785
-0.41996172 -0.020078843 -0.20399399 -0.2281816 -0.28340805 0.2304249 -0.47293952 0.066587776
0.1811503 0.18974116 -0.03675458 0.15477274 0.30257443 0.24539743 0.21929465 -0.3746954
0.038962785 -0.15637724 0.052607078 0.25099435 -0.40231434 0.18610352 -0.1728386 -0.4311894
0.39328972 -0.17092581 -0.45546308 0.3401928 -0.24219413 0.15799128 -0.24313615 0.16618171
-0.19400248 -0.013507116 0.0005089213 -0.78022265 0.009323335 0.076176114 -0.18392144 0.016770603
0.11793467 0.032094683 0.0638059 0.45662448 0.0051148194 -0.111651294 0.3360934 -0.35903755
0.45156083 -0.12903342 0.5404952 -0.12749894 -0.31354225 0.012923627 -0.5020941 0.5234151
00000000: aede a73c 7d50 d6bc 4fd3 2e3e 5402 1c3c
00000010: c9c9 45be 86b2 28be 00cc 35bd ff9c 78be
00000020: bb65 a23d 6e28 423e 68d3 24be 242e ef3c
00000030: ea10 a43c d04e 93bd 1b3c 1c3f 1e41 acbd
00000040: 4928 d8bd a1bb 9b3e 643f 7a3e 18e6 24bd
00000050: c019 123e 6b32 2f3e 779a 013e c2c8 b0bc
00000060: 266b 823d 281f 263f 2a06 c6be c85b 983e
00000070: 2281 99bd 20f1 ad3e 3291 f1be 62d2 35be
00000080: 4ada f8be bdbc fe3d 2f6b a3be ddcd e7bd
00000090: 3f02 1ebe 10f1 01bf 1eeb c13e b174 bc3d
000000a0: 39b4 c43e 7937 2e3e f586 293e 6de2 2e3d
000000b0: 3c19 353e 7b88 ca3d 1167 d93e 8053 a7bd
000000c0: 7a68 bf3e 2c1a 54be 5f59 133d 6834 fabd
000000d0: a30c 6a3d 8261 a23e 2412 ce3d b2a6 4f3f
000000e0: 0c3f 8f3e b605 41be a9bb d8bd 76bc 03be
000000f0: 2bf6 1b3f 62e6 063f 38a8 6a3e 949b 053e
00000100: 10f1 babe 5b33 12bf 08bf 2c3f 2a8f 00bf
00000110: 82e8 333f 3257 b73e 2430 473e 6b95 67bd
00000120: 1dda fcbe 9757 3fbf 8593 223f 5dc2 24be
00000130: 7470 f63e 0aa4 a43f 2325 05be 92c4 49bf
00000140: 03e9 86be 7753 38bd e008 3d3e 3a78 36be
00000150: d0df 90be ce9b 173e e96e 2e3e 7e17 0a3f
00000160: b0be 7fbc e41e 763e 7392 d4be 7477 fe3e
00000170: 1b8f 93bd 3cfe a43e 5b91 81be e3ae f33c
00000180: 5410 dcbe d81f 09bf 4361 f33d 3bcd 91bc
00000190: d677 2e3e 6140 053f d9fc 8c3e fd1d 303e
000001a0: 7b01 14be 1825 9fbe f521 71bd 4ad4 7f3c
000001b0: 2ad0 8c3e 2bd7 c1be fece e3bc 91c7 f6bd
000001c0: 025e 0a3e a350 8abd c66e 803e 2b26 2e3e
000001d0: 0ae0 b53d b6a7 8dbe 3f0c 353d e8bc 13be
000001e0: 6588 b4bb 4732 883d 99cd 2e3e 5c7d 823e
000001f0: e1dc 2d3e 9100 8abc d11e f33b b060 be3b
00000200: e7e8 90ba 819f bc3d 0723 6fbe 6825 b6bd
00000210: 088e afbe bcc8 023f 8192 5a3d fe70 f8be
00000220: 12be 7abe fff2 22bb 276d 803e 8126 313e
00000230: ae6b 4e3e c3fc 30bd 6592 c13e e628 353e
00000240: 090c 9fbe e88d 523e 4efc fc3d 31f0 d23d
00000250: 7d2c e93e b564 f0be e045 65be 591a 8bbe
00000260: 9a89 643e 2b8c 28be 87f7 893e d1b1 68be
00000270: a1e6 d33e 73d2 403f b8f9 95be 5a84 a1be
00000280: 2b35 ab3d f49d 78bd e3aa 25be 1ddc b03d
00000290: c498 fb3d 59c7 c3bd c018 cb3e c358 563e
000002a0: 0033 853d bb93 223e 5e23 433e d3c9 8dbe
000002b0: 48c0 b2bd 6e20 2fbf bfc2 973e 8a16 44be
000002c0: 2a45 e0bc fff1 0b3f 9b0e a0be fbb9 dbbd
000002d0: a84c 8b3e d7d6 27bd 8bed fbbd 630c 78be
000002e0: d4e3 db3b c30c 15be 0ca5 df3d 02a6 62be
000002f0: 7b7b ff3e 85e6 2abe 6cbf 46be ae24 2bbf
00000300: 0a46 a7bd 9d2a 033e ff36 05be f09f a63e
00000310: 019a 063e b22e a73e e15f 9c3e 6293 6a3e
00000320: 3905 d7be 637c a4bc cde3 50be 70a8 69be
00000330: dc1a 91be 81f4 6b3e 2125 f2be 2c5f 883d
00000340: 777f 393e 824b 423e f88b 16bd bf7c 1e3e
00000350: 09eb 9a3e 7749 7b3e c78e 603e 13d8 bfbe
00000360: 7197 1f3d 5b21 20be 857a 573d 5582 803e
00000370: 25fc cdbe ec91 3e3e 9afc 30be dbc4 dcbe
00000380: 455d c93e 2d07 2fbe 7532 e9be c02d ae3e
00000390: bd01 78be 77c8 213e aff8 78be 8a2b 2a3e
000003a0: 96a8 46be f34c 5dbc 2169 053a acbc 47bf
000003b0: e7c0 183c 3902 9c3d e755 3cbe 8162 893c
000003c0: bb87 f13d b775 033d abac 823d afca e93e
000003d0: 379a a73b 6fa9 e4bd 6f14 ac3e c5d3 b7be
000003e0: fb32 e73e 5621 04be e55d 0a3f 158f 02be
000003f0: 9c88 a0be 9fbd 533c 3d89 00bf 88fe 053f

bias f4 [20]
-0.20110133 0.19933087 -0.1963651 -0.37907377 0.08531813 -0.34374344 0.29338104 -0.031289198
-0.1461474 -0.05520894 0.35602456 0.46738094 -0.4655769 -0.28661442 0.28269613 -0.19126558
-0.20604043 0.5129408 0.15774807 -0.07427355
00000000: 82ed 4dbe 641d 4c3e ef13 49be f515 c2be
00000010: 46bb ae3d 24ff afbe 0a36 963e 1a29 00bd
00000020: aaa7 15be c522 62bd da48 b63e 8e4c ef3e
00000030: 1860 eebe 20bf 92be 8cbd 903e 20db 43be
00000040: 43fc 52be 1750 033f b688 213e bb1c 98bd

weight f4 [20, 20]
-0.03233276 0.41507533 0.08953351 -1.3322872 0.5122205 0.057633135 0.22938298 -0.20617767
0.45405802 -0.009267956 -0.037707992 -0.052819297 0.045326874 -0.1295487 0.41147316 -0.41341475
-0.6430128 0.5211138 0.2518667 0.14903301 0.20287882 -0.4258665 0.45294672 0.5377586
-0.29627302 0.111625135 -0.10020216 0.2922137 -0.06177063 -0.059786927 0.06689765 -0.30445087
0.3236468 0.2138612 -0.13118748 0.0061431816 0.20849998 -0.54167724 0.115358904 -0.4054558
0.14010364 0.5282526 0.051984314 -0.94794905 0.111459635 0.19584255 -0.0795872 -0.40229094
-0.45226172 -0.40650615 0.19215776 0.049614288 -0.2656746 -0.38703048 0.58098817 0.2699337
-0.00972734 0.101189256 0.20074032 -0.16288093 -0.4341368 -0.056711644 0.12104558 -0.88917357
0.32394227 -0.38611567 0.36646798 -0.41670173 -0.5208993 -0.19247952 -0.2395686 0.27560484
0.15603793 -0.26199394 0.10583787 -0.025798567 -0.1702501 0.38229245 0.1311878 0.38371825
-0.015716653 -0.34965295 0.21853058 0.72766715 -0.38049844 -0.03675522 -0.19722234 0.6072143
0.24445927 0.11549725 -0.06462703 -0.09451116 0.23732181 0.22137822 -0.2293398 -0.06493843
0.115265705 0.17746645 -0.33533612 -0.21107666 0.19440767 0.67814636 -0.50886106 -0.33548263
0.100390166 -0.42191747 0.40207824 -0.78145784 -0.68664587 -0.6323 0.58419037 0.70389175
-0.6560881 -0.41571113 0.3447922 -0.60076773 -0.6058282 0.6684758 0.006842345 -0.014541718
0.3356904 -0.08181985 0.07718994 0.03716116 -0.23180847 -0.32070115 0.5283745 0.18039697
-0.10262106 -0.12287279 0.36934224 0.2659972 -0.35253936 -0.16721879 0.43740568 -0.15588142
-0.089052536 0.06192683 -0.00880279 0.081595875 -0.009937594 0.39056572 -0.35996157 -0.63000685
0.26552624 -0.031759202 0.053891182 -0.19691058 0.07954542 0.2630195 -0.09270849 0.43291602
-0.29852697 -0.47672698 0.2827085 -0.17740151 0.2580076 0.55736095 -0.06083932 0.022141472
0.031183245 0.35444385 -0.8003501 -0.11443452 -0.18578535 -0.108918704 0.2639533 -0.39566648
-0.40883574 -0.2059352 0.30158418 -0.0674625 -0.30607677 -0.16637021 0.70239174 -0.5051415
0.28832167 0.11723669 0.48040742 0.32357827 -0.198261 -0.8930827 0.37745625 0.41032943
-0.45419553 0.58668256 -0.33577988 0.29836655 0.48963755 0.010782538 -1.1191981 -0.18714043
0.6017962 0.48508942 -0.51940656 0.6046109 0.59052145 -0.6190089 -0.21633352 -0.6950863
0.20681383 0.09439322 -0.23132178 -0.6819148 0.8936248 -0.07610458 0.36514464 -0.80798453
-0.32677436 0.24364904 0.20080113 -0.23287874 -0.25095278 -0.13646983 0.40620887 -0.09607637
-0.23837148 0.21542542 0.20773154 0.32298866 0.24506244 0.19310126 0.19858928 -0.40380618
0.68141925 -0.2507479 0.4191349 -0.7997885 -0.18952481 -0.21877013 0.47311252 0.33940285
0.085638665 -0.19130105 0.16614471 -0.28689817 -0.39230463 0.5625467 0.109409854 0.11819867
-0.0033631683 -0.3764268 0.24448268 1.2095798 -0.3537112 0.04100392 0.05885682 0.16383697
0.2765064 0.14508936 -0.2405153 -0.17502098 0.3819362 0.65022725 -0.29871824 0.36226174
00000000: 5b6f 04bd c184 d43e 585d b73d 6388 aabf
00000010: e220 033f b910 6c3d 5fe3 6a3e 3d20 53be
00000020: 4b7a e83e a0d8 17bc b273 1abd 0c59 58bd
00000030: aca8 393d 6aa8 04be 9cac d23e 19ab d3be
00000040: 7d9c 24bf b767 053f acf4 803e 1c9c 183e
00000050: 77bf 4f3e 2d0b dabe a2e8 e73e 8caa 093f
00000060: 19b1 97be b89b e43d ca36 cdbd 099d 953e
00000070: 3303 7dbd 23e3 74bd a301 893d fce0 9bbe
00000080: 09b5 a53e 6efe 5a3e 0356 06be be4c c93b
00000090: 0581 553e 5cab 0abf 4a41 ec3d e797 cfbe
000000a0: 5477 0f3e 903b 073f 81ed 543d caac 72bf
000000b0: f344 e43d f38a 483e 9dfe a2bd 14f9 cdbe
000000c0: d98e e7be 9321 d0be 01c5 443e 5a38 4b3d
000000d0: 8006 88be dc28 c6be a4bb 143f c034 8a3e
000000e0: 6c5f 1fbc 503c cf3d df8e 4d3e 42ca 26be
000000f0: 2e47 debe 784a 68bd bfe6 f73d e1a0 63bf
00000100: c3db a53e f4b0 c5be b1a1 bb3e ee59 d5be
00000110: a859 05bf 5a19 45be 7951 75be 141c 8d3e
00000120: 68c8 1f3e 1224 86be 86c1 d83d 8457 d3bc
00000130: 0b56 2ebe d6bb c33e 1856 063e b876 c43e
00000140: 36c0 80bc b605 b3be 7bc6 5f3e 6548 3a3f
00000150: b1d0 c2be a48c 16bd a7f4 49be 6572 1b3f
00000160: 8853 7a3e d289 ec3d 2d5b 84bd 118f c1bd
00000170: 7d04 733e f9b0 623e 0dd8 6abe 71fe 84bd
00000180: 6d10 ec3d c4b9 353e 2db1 abbe 7b24 58be
00000190: ce12 473e 009b 2d3f b844 02bf 61c4 abbe
000001a0: 5c99 cd3d 9105 d8be 33dd cd3e 9f0d 48bf
000001b0: 06c8 2fbf 6ade 21bf 808d 153f 4032 343f
000001c0: 64f5 27bf 17d8 d4be 9a88 b03e eacb 19bf
000001d0: 8f17 1bbf 3b21 2b3f c035 e03b 6340 6ebc
000001e0: 9ddf ab3e 2a91 a7bd c215 9e3d 4d36 183d
000001f0: 335f 6dbe f132 a4be 8d43 073f fcb9 383e
00000200: fe2a d2bd bba4 fbbd 6d1a bd3e c930 883e
00000210: 0a80 b4be 673b 2bbe a3f3 df3e 619f 1fbe
00000220: 2d61 b6bd fda6 7d3d 9439 10bc bd1b a73d
00000230: 4ad1 22bc 3bf8 c73e e24c b8be 2148 21bf
00000240: 0ef3 873e f015 02bd 00bd 5c3d eda2 49be
00000250: b6e8 a23d 7eaa 863e f3dd bdbd 2ba7 dd3e
00000260: 87d8 98be 8f15 f4be 2bbf 903e bea8 35be
00000270: 9219 843e 35af 0e3f a732 79bd 0862 b53c
00000280: 0174 ff3c aa79 b53e bfe3 4cbf a55c eabd
00000290: 843e 3ebe c510 dfbd e324 873e cc94 cabe
000002a0: eb52 d1be ade0 52be 3e69 9a3e c729 8abd
000002b0: 18b6 9cbe f45c 2abe f2cf 333f f450 01bf
000002c0: e69e 933e ca19 f03d f6f7 f53e 0dac a53e
000002d0: ee04 4bbe 11a1 64bf f241 c13e b316 d23e
000002e0: 518c e8be d430 163f 57eb abbe 80c3 983e
000002f0: c6b1 fa3e 3ea9 303c e241 8fbf bea1 3fbe
00000300: 510f 1a3f a45d f83e d4f7 04bf c8c7 1a3f
00000310: 6a2c 173f 5e77 1ebf 8986 5dbe 2df1 31bf
00000320: 01c7 533e 3c51 c13d 9edf 6cbe f891 2ebf
00000330: 98c4 643f b8dc 9bbd 3df4 ba3e 13d8 4ebf
00000340: f84e a7be 227f 793e d09e 4d3e c477 6ebe
00000350: e27c 80be bfbe 0bbe 9cfa cf3e b0c3 c4bd
00000360: a717 74be 7b98 5c3e 94b7 543e c55e a53e
00000370: a6f1 7a3e 56bc 453e fd5a 4b3e afbf cebe
00000380: 7e71 2e3f 0762 80be da98 d63e f0be 4cbf
00000390: cb12 42be 4705 60be ce3b f23e 36c6 ad3e
000003a0: 5363 af3d 6ce4 43be d721 2a3e 51e4 92be
000003b0: 27dc c8be 0f03 103f 4612 e03d 2512 f23d
000003c0: 9a68 5cbb 03bb c0be ab59 7a3e 83d3 9a3f
000003d0: a219 b5be baf3 273d d913 713d e1c4 273e
000003e0: 3f92 8d3e 4e92 143e a549 76be b338 33be
000003f0: 248d c33e 4b75 263f 99f1 98be 5f7a b93e

bias f4 [20]
0.4147794 -0.32865828 0.10035573 0.25414103 -0.1765065 0.78074056 0.03526771 0.43848234
0.36779058 -0.7735568 0.38416073 0.46324942 -0.5526882 0.3516826 0.46375206 0.27031618
0.30722985 -0.81235427 -0.39619833 -0.41035363
00000000: f75d d43e e645 a8be 4e87 cd3d c61e 823e
00000010: 1fbe 34be 9dde 473f e074 103d c280 e03e
00000020: 0c4f bc3e d207 46bf b7b0 c43e 072f ed3e
00000030: f97c 0dbf be0f b43e e970 ed3e e266 8a3e
00000040: 3b4d 9d3e 73f6 4fbf 82da cabe df19 d2be

weight f4 [1, 20]
3.1325333 -3.0974889 3.0921507 2.475335 -2.9934123 3.0249953 1.9056526 3.2280035
2.101321 -3.4179046 3.1124244 2.8356614 -2.7886343 3.173785 2.3548663 1.8842759
1.761986 -2.7078204 -2.9110801 -3.216765
00000000: 6d7b 4840 423d 46c0 cce5 4540 e36b 1e40
00000010: 1194 3fc0 8699 4140 6dec f33f 9c97 4e40
00000020: 0b7c 0640 f3be 5ac0 f631 4740 7a7b 3540
00000030: fc78 32c0 4b1f 4b40 21b6 1640 f42f f13f
00000040: c288 e13f ee4c 2dc0 234f 3ac0 7adf 4dc0

u_b f4 [2]
9.921032 39.96
00000000: 8cbc 1e41 0ad7 1f42

l_b f4 [2]
0.040675044 0.0
00000000: e09a 263d 0000 0000
