Iter_03/Models/Noise_5/simulation_00_10/ff_1600.pt (torch, 72861 bytes, 23 tensors)

weight f4 [20, 2]
000000 08 2d e3 bd 1a 51 09 3f f6 5d 6d bf b2 a3 d5 3e
       -0.110925734 0.53639376 -0.927215 0.41726452
000010 c3 41 2c bd ef f6 55 bf 04 79 84 3f 53 ac 43 3f
       -0.042054903 -0.83579916 1.0349431 0.7643482
000020 df ca 6c bf 87 c2 db be 1c 90 ec 3e 80 a3 9f be
       -0.92497057 -0.4292185 0.46203697 -0.31179428
000030 cd ab 51 be 68 5e 9e be 54 ec 43 be ff e2 44 be
       -0.20475693 -0.309314 -0.19133121 -0.19227217
000040 2d fc 92 bf a1 35 1c 3f ff 27 42 bf 9e b6 04 bf
       -1.1483208 0.6101933 -0.7584228 -0.5184115
000050 6a ee 81 be 52 20 5f 3e 58 e3 06 3f 6f ef 0a be
       -0.25377208 0.21789673 0.5269065 -0.13567899
000060 b9 e1 31 3e f8 19 32 bf 9f 3f fc be 0e 23 70 be
       0.17371263 -0.69570875 -0.4926729 -0.23450872
000070 98 31 ae bf 1b be 1a bd 52 d3 c3 3f 31 a6 d3 be
       -1.3608885 -0.037778955 1.5298865 -0.4133773
000080 56 ed 26 3f 40 2e ed bf e3 ab d2 be 85 8a 29 bf
       0.65205896 -1.8529739 -0.41146764 -0.6622699
000090 06 53 f5 3e 92 e6 d6 3a 04 f2 56 3c ff ed 38 be
       0.47914904 0.001639562 0.013119224 -0.18059538

bias f4 [20]
000000 75 4a 4b 3e f7 55 3a 3e 25 f9 57 3e 8a 77 6f bf
       0.19852622 0.18196855 0.21091135 -0.9354178
000010 6c 39 87 3f e3 5a 69 be a0 22 b4 3e 3f 5f 54 3f
       1.0564399 -0.22788577 0.35182667 0.82957834
000020 a4 24 32 3f f8 d2 34 3d b3 c8 d9 3d 5f 3f 40 bf
       0.6958716 0.044146508 0.106339835 -0.75096697
000030 d9 1d 8e bf 5e 9c 44 3f ec e4 2a 3f dc 8f d2 bf
       -1.1102859 0.768011 0.6675556 -1.6450152
000040 34 50 17 be 38 8b 6e be 11 29 f9 be 77 e0 0a 3d
       -0.14776689 -0.23295295 -0.48664144 0.033905473

weight f4 [20, 20]
000000 66 0c aa 3e f6 c5 01 3f 89 e5 18 3e 8d 0d 12 be
       0.33212584 0.5069269 0.1493131 -0.14262982
000010 33 a4 db bd 40 9f b0 be 11 1d 71 3e 05 e6 28 be
       -0.10724678 -0.34496498 0.23546244 -0.16493995
000020 5a f2 4c 3e 0d 80 32 3f e5 57 ae 3e c2 13 8e 3d
       0.20014325 0.6972664 0.34051433 0.06937362
000030 75 b3 fa 3e d2 48 d5 3e 8c 9b c1 3e 2c 22 86 be
       0.4896504 0.4165712 0.37813985 -0.26197946
000040 b2 c6 ee be 2d da 19 3f de 5b 04 be 08 ca 9b 3d
       -0.46635967 0.60098535 -0.1292567 0.07606894
000050 21 e9 ab 3e 77 bc 4f 3e 0f 7d 0d 3e ef e1 27 be
       0.335763 0.20286737 0.13817237 -0.1639478
000060 61 2f 59 be 72 09 20 bf 1b d3 97 be 6b b9 8c be
       -0.2120948 -0.6251441 -0.29653248 -0.27485213
000070 32 f4 2f 3e bb a1 6e 3d a2 18 01 bd 7a d7 0c be
       0.17182997 0.058259707 -0.031517632 -0.13754073
000080 c6 b5 8a be 4f 16 a4 3e bb c1 a9 be c5 fc d7 3d
       -0.27091807 0.3204827 -0.33155617 0.10546259
000090 e8 99 d2 bd 27 4c d9 3e 83 aa 15 bb df 06 c2 bd
       -0.102832615 0.42440912 -0.0022837229 -0.09473967
0000a0 82 0b b5 3e 9e b4 99 3e 66 34 13 be be 60 16 bf
       0.35360342 0.30020612 -0.14375457 -0.58741367
0000b0 4e db 1f 3f d8 51 1f be ad 72 76 bd b7 c9 24 3e
       0.6244401 -0.15558565 -0.060167957 0.16092573
0000c0 06 3b 32 3e e7 46 fe bd 8b 55 3b be 05 cb 32 3e
       0.17405328 -0.12415867 -0.18294351 0.17460258
0000d0 be 25 34 be d6 d5 87 3d fe 8e 92 3d 1b f8 a8 bd
       -0.17592523 0.06632583 0.0715618 -0.08250447
0000e0 dc 66 01 3e d6 b9 2d 3e 3c bf 41 3c d1 a7 e4 be
       0.12636894 0.16965422 0.011825379 -0.44659284
0000f0 76 5e 1b 3e b4 1e 5a be 16 d7 9d be cc 0c 89 3e
       0.15172753 -0.21300775 -0.3082816 0.26767576
000100 61 3f 35 3d 53 dc 9c 3e 11 78 82 be cf de 03 3e
       0.044249896 0.30636844 -0.25482228 0.12877963
000110 eb 7d 55 be 98 e5 a5 3d 1a 7a 9d 3d 54 4d 7f 3e
       -0.20848815 0.08100432 0.07689305 0.24931842
000120 8b cd 41 3e ed 9b 80 bd 0a 70 b3 bd 07 4a fe 3d
       0.18926065 -0.062797405 -0.08761604 0.12416463
000130 4d 68 22 bf d9 b0 82 be fe 8d 71 3e ba 56 66 3e
       -0.634404 -0.2552555 0.23589322 0.22494021
000140 5b 7a ac 3e 57 e2 90 bd 18 05 a8 bd 93 36 ac 3e
       0.336871 -0.07074421 -0.082040966 0.33635387
000150 50 14 b7 be b6 b7 5e be 8f 07 1e 3e 50 e8 bd 3e
       -0.35757685 -0.21749768 0.15432571 0.37091303
000160 05 4d fc 3a 65 aa 4c be 83 64 18 3e 60 40 cf bc
       0.0019249028 -0.19986875 0.14882092 -0.025299251
000170 ba 97 88 be 58 24 65 be 3d 5b 46 be c4 55 d0 3e
       -0.26678258 -0.22377145 -0.19370742 0.40690434
000180 e4 5e 01 bf 75 3f 9b be 72 e8 a6 3c 69 68 7a 3e
       -0.50535417 -0.3032185 0.02037451 0.24453892
000190 b7 19 4a bd b6 b6 49 3e 18 d0 fa 3d 2d 9c e3 3d
       -0.04934093 0.19698605 0.12246722 0.111137725
0001a0 fb 01 58 3e ad 36 8c 3e 3b 42 75 be 62 3c c9 bd
       0.21094505 0.27385464 -0.23951046 -0.0982597
0001b0 2c 6c 38 3e 5d 84 8b be 64 92 0f 3e d3 2c aa bd
       0.18010014 -0.27249423 0.14020687 -0.08309331
0001c0 a6 dd 91 be 22 2f 9e be d9 e5 2f 3f 8a 92 0e 3d
       -0.28489417 -0.30895334 0.68710095 0.03480772
0001d0 3e 32 b2 be 7c b4 18 be eb d1 15 3e f5 82 99 3e
       -0.34803957 -0.149126 0.14630859 0.29982725
0001e0 a6 40 ec be d3 77 19 3d ac 05 e7 3c 1d ae af 3d
       -0.46143073 0.03746779 0.028200947 0.08578131
0001f0 28 d5 ed bd c0 d1 ef be 32 b5 22 3e 3a 05 90 3b
       -0.11612922 -0.46839714 0.15889433 0.0043951543
000200 25 a8 1f 3e 99 c9 8c be dc bd 1d 3e 51 0f ed bd
       0.15591486 -0.27497557 0.15404457 -0.11575187
000210 70 19 16 3e cb 39 89 bd 90 fc b3 3e eb e5 59 3e
       0.14658141 -0.06700476 0.35153627 0.21279113
000220 b0 1a 89 3e cc 8d 4f be 89 50 a4 3d 9a 76 2e be
       0.26778173 -0.20268935 0.08023173 -0.1703743
000230 08 83 8b 3e ef e8 02 3f a2 3c d0 3d d9 4f 5c 3e
       0.27248406 0.5113668 0.10167815 0.21514834
000240 04 ce ee 3c 56 af ad bd 66 6e b8 be 16 51 b1 bd
       0.02915097 -0.08480708 -0.36021727 -0.08658044
000250 0b 21 83 3c f5 7e a8 bd 42 79 c0 3d b1 fb 31 3e
       0.016006967 -0.0822734 0.09398128 0.17381169
000260 5b b3 5c 3e db 91 7e be 3c d4 64 be a5 35 3a be
       0.21552794 -0.24860327 -0.22346586 -0.18184526
000270 52 7f 2c bf 01 18 d8 bd d1 30 f2 bd 77 c1 51 3e
       -0.67381775 -0.105514534 -0.11825717 0.20483957
000280 2e 6c db bc 0a 99 b4 be ec ea 32 bf 6d f2 29 3f
       -0.026784983 -0.3527301 -0.6988971 0.6638554
000290 f5 23 43 be 4b 7e 3c 3f fc 0e 26 bf 81 20 af ba
       -0.19056685 0.7363021 -0.64866614 -0.0013361127
0002a0 91 f2 0b be c0 db 23 bf 73 3f a9 3d 29 ac c1 3e
       -0.1366675 -0.64007187 0.08264055 0.3782666
0002b0 5e bd d8 3e 25 92 59 bf 1b 81 99 3e 1e 85 66 3f
       0.42331976 -0.84988624 0.29981312 0.9004687
0002c0 ac 2f 90 3f 0b 94 2e bf 31 21 b5 3e 6e 5f ca bb
       1.1264548 -0.68194646 0.35376886 -0.006175927
0002d0 1f 3f ff 3d 40 a2 42 3d 6c dc e1 3e 8b a0 45 3d
       0.12463211 0.047518015 0.4411348 0.04824881
0002e0 72 37 e5 3e 36 d5 24 3e fa 03 7c 3e 74 f2 f8 3d
       0.44768864 0.16096959 0.24610892 0.12155619
0002f0 d2 b3 c7 3e 95 d7 39 3e 59 d0 ad 3d e9 67 9f be
       0.3900438 0.18148644 0.08487005 -0.31133965
000300 b1 2b db bd 8e 83 c1 3e d3 7d 5c be 0c 96 02 bd
       -0.10701693 0.3779568 -0.21532373 -0.031881377
000310 c9 1a de 3e f0 75 92 3d 84 19 64 be c5 a8 17 3a
       0.4337981 0.07151401 -0.22275358 0.00057853415
000320 f1 bc e3 3d 98 d0 c7 3e 61 19 12 bf 04 34 39 3f
       0.11120022 0.39026332 -0.57069975 0.72344995
000330 c8 9f ad be 1e 32 ad be a1 dd a3 be a6 3b 5c be
       -0.33910966 -0.338273 -0.32005027 -0.21507129
000340 15 20 71 3f 02 09 06 bf 69 cb ef 3d 57 76 be bd
       0.9418958 -0.52357495 0.11708719 -0.09299915
000350 6d 0c 0a bf 04 66 b2 be 06 ef 34 3d 79 b6 e3 be
       -0.5392521 -0.34843457 0.044173263 -0.44475153
000360 02 d6 96 bf 67 8d 8a bd f4 1f 13 3e 85 0e 4f be
       -1.178406 -0.067652516 0.14367658 -0.20220383
000370 9c 0d e6 be 87 70 a1 3d a2 a3 29 3e 25 37 bb 3e
       -0.44932258 0.07882791 0.16566327 0.3656551
000380 9b b2 ba bd 58 74 2d 3e 02 0d 2f bd b5 ff f5 bd
       -0.091160975 0.16938913 -0.042737015 -0.12011663
000390 16 08 2b be fb df 65 3e 3f fe 93 3d a4 38 07 3f
       -0.16702303 0.22448723 0.07226228 0.528208
0003a0 4c b7 7d bd 72 c4 81 be cb f7 77 3e fc 52 24 be
       -0.061942384 -0.25345188 0.2421562 -0.16047281
0003b0 be 89 9f 3d c9 4b 30 be 2c 51 86 3e e3 5f 9d 3d
       0.07789944 -0.1721641 0.26233804 0.076843046
0003c0 5d de ca be 48 b4 4b 3d ef 03 0f 3e 4e a0 e3 bd
       -0.39622775 0.049732476 0.13966344 -0.1111456
0003d0 fe 6c 59 be ef 18 f7 3e 93 2c 9e bd d9 fe b0 bd
       -0.21232983 0.4826121 -0.077233456 -0.08642358
0003e0 1d 7b 70 3d c8 e0 09 3e 86 ef 1b be 6d 7a 91 3e
       0.05871116 0.13464653 -0.1522809 0.28413716
0003f0 fa dc 8c 3e 32 18 49 be 2a e3 86 3d e1 86 59 3e
       0.27512342 -0.19638136 0.06586297 0.21242858

bias f4 [20]
000000 33 e0 b4 3e 9e 91 f2 3e 0d 09 0a 3e c1 35 66 3d
       0.353273 0.47376722 0.13480015 0.056203607
000010 df 5f 07 3f bd da f2 3b 7b c8 f7 bd c8 4e 87 3e
       0.5288066 0.0074113295 -0.120987855 0.26427293
000020 6b e7 f0 bf 3a 77 42 3f 1a 2c 41 be 6c 61 0d 3e
       -1.8820623 0.75963175 -0.1886448 0.13806695
000030 b0 cb 89 bf 34 a7 e7 be 25 2e 8b bf d5 a4 ce bd
       -1.0765285 -0.45244753 -1.0873457 -0.10090033
000040 4f d4 b4 3e d7 f4 95 bf 77 a0 91 3e 52 c7 de 3e
       0.3531823 -1.1715344 0.28442737 0.43511444

weight f4 [20, 20]
000000 47 8e 98 3e c5 f6 a5 bd 20 19 0d 3e 45 19 c0 bd
       0.2979605 -0.08103708 0.13779116 -0.0937982
000010 f0 f7 65 3d ea 19 25 be 58 7b 04 3d 58 e3 a5 3e
       0.056144655 -0.16123167 0.032344192 0.32400012
000020 50 e5 82 bf 5f c5 aa 3e 13 98 96 3d 4d 67 ec 3e
       -1.0226231 0.33353707 0.073532246 0.46172562
000030 33 b1 bf 3d 33 70 74 bb 7b 4e 87 3d df 10 d8 be
       0.0935997 -0.0037298321 0.06606766 -0.42200372
000040 85 af 87 3e 72 cb 85 be d0 0f 6b 3e 3d c1 bb be
       0.26501098 -0.2613178 0.2295525 -0.36670867
000050 3f 34 7e 3e df d4 92 3d 11 bc 69 3d 58 5a f2 bc
       0.24824618 0.07169508 0.05706412 -0.029584095
000060 e1 00 9d 3b 4a ee 84 3e 25 c6 1e 3e 24 57 5c be
       0.0047913645 0.2596305 0.15505274 -0.21517617
000070 13 47 a0 bd 19 42 98 3e 1a 65 20 be 06 62 d2 3e
       -0.07826056 0.29737929 -0.15663567 0.4109041
000080 19 af b4 bd 57 16 22 bc f6 26 14 bd ad 36 86 3e
       -0.0882246 -0.009893022 -0.03616997 0.2621359
000090 a4 24 5c be 6e 9b a9 3e 81 0b 90 3e 99 66 50 bd
       -0.21498352 0.33126396 0.28133777 -0.050879095
0000a0 70 a9 e7 be e9 bb 33 be a7 e2 1c 3d 08 3a 1f bf
       -0.45246458 -0.17552151 0.03830209 -0.62197924
0000b0 f7 11 2e be 51 87 29 3d a9 1e 69 3c e2 f5 b3 be
       -0.1699904 0.041388813 0.014228501 -0.3514853
0000c0 d2 2c 2b 3e 4f ed a1 3e 0e 61 95 bf 0b f1 94 bd
       0.16716316 0.31626365 -1.1670244 -0.07272538
0000d0 eb 85 9b 3d ed d6 9b 3d 7f 42 8e 3c 6e 6f 05 3f
       0.07593902 0.07609353 0.017365692 0.52123153
0000e0 70 2e f7 3e 0c 64 a4 3e 3e e7 bf be 8f 7e e0 3d
       0.48277617 0.3210758 -0.3748111 0.10961639
0000f0 4a b5 39 3e 62 14 43 3e 2b 4f 63 bd 82 84 ac be
       0.18135563 0.19050744 -0.055495422 -0.33694845
000100 c3 d8 a0 be ee 5e 6b be 3a ad 3b bf 7b ed 8c be
       -0.31415376 -0.22985432 -0.733112 -0.27524933
000110 02 c8 87 be 37 af 05 bb e8 4f c5 be f2 27 74 3d
       -0.2651978 -0.0020398626 -0.38537526 0.059608407
000120 65 18 07 be 9c 38 a8 bd e7 97 91 be 97 da 51 3e
       -0.131929 -0.082139224 -0.28436205 0.20493542
000130 f7 45 94 3e 9f 8d 8d bd dc 07 9f 3e 4d a1 fa 3e
       0.2895963 -0.06911778 0.31060684 0.48951188
000140 84 04 be 3e 50 b1 e1 3c 72 74 40 bd 5b 7c 32 bd
       0.3711282 0.02755037 -0.04698605 -0.043575626
000150 24 34 07 3f 16 df bf be c2 7c 99 bd 2a 1a 18 be
       0.52813935 -0.3747489 -0.07494499 -0.14853731
000160 4f 9e 9c bd 20 62 1c 3d e8 2e f4 bd fa 7f 8c be
       -0.076473825 0.038179517 -0.11923009 -0.27441388
000170 24 f2 76 be c8 8c 32 bf 2f e9 ce 3e 41 02 50 be
       -0.24115807 -0.69746065 0.4041228 -0.2031336
000180 04 b0 ae be 0a d3 f0 be ec 53 72 3e e0 16 a1 3d
       -0.34118664 -0.4703601 0.23664826 0.07865691
000190 dd 7c 8a be d0 45 32 be 24 4b 72 bd 18 5e 0d 3d
       -0.27048388 -0.17409444 -0.05915369 0.034513563
0001a0 7a ee a3 be cd 71 fa bc ff a5 1a 3e 91 5b 7d be
       -0.3201788 -0.030571843 0.15102385 -0.24741961
0001b0 a4 a6 f9 3e 57 0c ef bd fa 57 3b bd 08 f8 0f be
       0.4875995 -0.116722755 -0.045738198 -0.1405946
0001c0 29 1a e8 3e 03 42 7f 3e f9 94 27 3f 7f f9 1f 3d
       0.4533246 0.24927525 0.6546169 0.039056297
0001d0 31 48 af 3d 75 4e 8f 3e 8f 69 75 3d 1a 83 f7 be
       0.08558691 0.27989545 0.05991512 -0.4834221
0001e0 dc ca ed 3e 43 95 55 3e 13 8d 5e bd 22 8c e9 3c
       0.46443832 0.2085772 -0.054333758 0.028509203
0001f0 41 34 d4 3e 09 b1 33 be 10 dd 31 be eb 88 8d 3e
       0.41446117 -0.17548002 -0.17369485 0.27643523
000200 cd 74 09 bf 2a 78 25 3e ee 10 dd 3e 1a c6 82 3e
       -0.5369385 0.1615912 0.4317698 0.25541764
000210 dc 3b 91 be 76 82 29 3e 77 bf d9 be 15 f3 bd bd
       -0.28365982 0.16553673 -0.4252889 -0.0927488
000220 bd f2 96 bd 74 e9 53 bf 91 8e 44 be 8a e6 ba bd
       -0.073705174 -0.82778096 -0.1919501 -0.09126003
000230 9c 70 2c be 3e ac 47 3d a0 b2 bb bd 89 10 96 3e
       -0.16839832 0.048748247 -0.091649294 0.2930949
000240 0c 6c 27 be 74 c1 9d bd 90 49 75 be 7b d0 84 3e
       -0.1634981 -0.07702914 -0.23953843 0.25940308
000250 8a dd 0c 3f cd e2 07 3d 24 46 fe 3c ae 2f 16 be
       0.5502554 0.03317528 0.031039305 -0.14666626
000260 7a 62 8c bd 0c 4f be bc 0a a6 31 3e 77 13 a3 3e
       -0.068547204 -0.023231052 0.17348495 0.31850788
000270 e7 18 e9 3c c7 b9 e3 3e 7b 12 d1 3b 14 28 b1 3d
       0.028454257 0.44477674 0.006380377 0.086502224
000280 83 97 b1 be d7 fa 60 be a6 f7 c7 be 1e 65 f4 3e
       -0.34685907 -0.21970688 -0.39056128 0.47733396
000290 ed 02 00 3e 01 54 85 3c 0d 43 99 bd fa 3d 12 be
       0.12501116 0.016275408 -0.07483492 -0.14281455
0002a0 dc 07 59 3e 3e 8a a4 bd 5a 6f 16 be 2a 72 90 3e
       0.21194404 -0.0803418 -0.14690915 0.282121
0002b0 53 14 55 be ec 43 8b be c9 db 89 3e 1f 7c 00 3d
       -0.20808534 -0.27200258 0.26925495 0.03136837
0002c0 9b 55 8b 3e 51 74 f3 bd 7c 54 43 3e 58 38 98 be
       0.2721375 -0.1188742 0.19075197 -0.29730487
0002d0 7c 5c 9d 3e a5 9d a6 be 9f 07 49 be 00 41 a7 3c
       0.30734622 -0.32542148 -0.19631813 0.020416737
0002e0 ca 5a bb be 94 8c bd 3e 49 dd c8 be ec 38 24 3d
       -0.36592704 0.37021315 -0.39231327 0.040093347
0002f0 ad f0 36 3e 47 03 34 bd f5 ed 0c be 24 1e 43 3e
       0.17865248 -0.043948438 -0.13762648 0.19054466
000300 0a e5 64 3d 24 2b 2a 3c 6b 1c 98 bd 75 cd e0 3e
       0.05588249 0.010386262 -0.07427295 0.4390675
000310 74 f5 39 3d 35 83 a8 3e d1 f2 d2 3d 2d 80 38 be
       0.045400098 0.32912603 0.1030022 -0.18017645
000320 37 eb 0a 3e a5 bf dc 3d 5a 15 e5 3d 1a 43 02 be
       0.1356629 0.10778741 0.11185713 -0.1272091
000330 89 a7 78 3e 4d 1a 3e 3d 5e 37 d5 3d 24 f3 09 be
       0.2428266 0.0464118 0.10410951 -0.13471657
000340 db 79 82 be a2 67 84 3e 3a ed 98 bd 27 f0 49 3e
       -0.25483593 0.25860316 -0.074671224 0.19720517
000350 ee dc 0e be 16 8c b7 3d c0 54 d1 be 8a 7a 24 bd
       -0.13951465 0.08962266 -0.40884972 -0.040155925
000360 3c 1e f5 3c 75 be 07 bf 39 79 65 be 59 24 a9 be
       0.029921643 -0.5302499 -0.22409524 -0.33035544
000370 3c 8f 44 bd 05 3b 28 3c 53 98 18 be 8a aa 5b be
       -0.04798816 0.010267978 -0.14901857 -0.21451774
000380 b0 df 81 3e 42 e1 88 be 9e 2a 56 bc db 3e 8d be
       0.25365973 -0.26734358 -0.013071684 -0.27587017
000390 45 ef b2 be 4d 0b 0e 3e 5a b7 b7 be 9d 64 4a 3c
       -0.34948173 0.13871498 -0.35882074 0.01235309
0003a0 ed 1d a3 3e ba 41 8c 3e 41 ba 6e 3c b9 29 58 3e
       0.3185877 0.27393895 0.014570774 0.21109666
0003b0 dd 17 1c bc 4b 99 3d 3f 6e f8 9e be 45 dc a0 3b
       -0.009527174 0.7406203 -0.31048912 0.0049090707
0003c0 5e 7e 10 bf 91 33 e3 3d e6 8d 90 be d6 d8 2b be
       -0.5644282 0.1109382 -0.2823326 -0.16781935
0003d0 15 bd 15 3e 48 4c b8 be cb e1 d0 3b a4 25 1b 3e
       0.1462291 -0.35995698 0.006374573 0.15151078
0003e0 18 de 87 3d 12 5f 96 3d ac b8 57 3d df 4a 12 be
       0.06634158 0.07342352 0.05266635 -0.14286374
0003f0 94 12 99 be 82 b6 e9 be 36 f6 82 3e 8c 42 30 bf
       -0.29896986 -0.45647055 0.2557847 -0.6885154

bias f4 [20]
000000 d9 67 7a 3e c4 28 05 3f 63 e4 b2 be 28 cf 77 be
       0.24453677 0.5201533 -0.3493987 -0.24200118
000010 42 e1 14 3f a7 a0 f0 be d6 02 7c 3f 82 7a 08 bf
       0.58156216 -0.46997568 0.9844183 -0.5331193
000020 14 82 09 be b6 2d 67 bf 45 38 13 3f f2 4e 4b be
       -0.13428527 -0.90304124 0.57507735 -0.19854334
000030 da b7 8f 3e 7a 3b cf 3c 92 20 07 bf f5 de 92 3f
       0.28069955 0.025296915 -0.52784073 1.1474291
000040 8b dd 6c 3f 21 8c 8f 3e 76 12 fe bd 2b f9 0c bf
       0.9252555 0.28036597 -0.12405865 -0.550677

weight f4 [20, 20]
000000 1f 38 48 3e b3 1a 9a 3d 5f 6a 03 3e 4c 60 2b be
       0.19552658 0.07524624 0.12833546 -0.16735953
000010 23 3b 0d 3f f1 a2 30 be af d0 cc 3e a3 39 de be
       0.5516836 -0.17249657 0.40002963 -0.43403348
000020 e1 30 97 3e c0 51 19 3c d0 14 92 3e 3e d4 94 bd
       0.2952948 0.00935787 0.28531504 -0.072670445
000030 96 59 a8 3e a5 cc a8 3e f2 b5 a8 be 8a 75 22 3f
       0.3288085 0.3296863 -0.32951313 0.634606
000040 4b 23 56 3e 51 fe 02 3f 07 7a b5 3d ce cf 1c be
       0.209119 0.51169306 0.088611655 -0.15313646
000050 48 33 c0 3d d6 b0 f4 bd c0 fc ae be e1 c4 ac 3d
       0.09384781 -0.11947791 -0.34177208 0.08435989
000060 1d 1d 1e 3d 58 af dd 3e 5a be a2 3e 16 30 25 3e
       0.038601983 0.4329784 0.31785852 0.16131625
000070 76 f1 3e bc 0f e1 e6 3e ac 8f d7 be 2c 6a 95 be
       -0.011654248 0.4509358 -0.421018 -0.29182565
000080 26 70 fa be 3e ac 06 3f fa 3e a3 bc 00 22 ee be
       -0.48913687 0.5260657 -0.01992749 -0.46510315
000090 9a 59 0e 3e 91 0e ad 3e 99 a8 85 be d8 ab 9d 3e
       0.13901368 0.33800176 -0.26105192 0.3079517
0000a0 92 31 31 bf 69 e1 fc bd 0c d4 0d 3f bd 71 9f 3d
       -0.69216263 -0.12347681 0.5540168 0.07785366
0000b0 d3 9b d4 be f9 18 46 3f 5f 5c 33 bf 13 0f 3f 3f
       -0.41525134 0.77381855 -0.7006282 0.74632376
0000c0 e4 69 7a 3c 23 37 50 3f 74 80 eb be 23 ea 63 3e
       0.015284035 0.8133413 -0.4599644 0.22257285
0000d0 36 40 3b bf 2a 13 25 be 00 13 2c 3f 5e a9 a7 bf
       -0.73144853 -0.16120592 0.6721649 -1.3098562
0000e0 a9 45 ed be 5e 2c 04 be 94 a0 29 3f 11 2c de 3e
       -0.4634221 -0.1290755 0.6626065 0.43392995
0000f0 f4 e3 56 be 6d c0 38 bd b9 20 8f 3c 0d 44 4e 3e
       -0.20985395 -0.045105387 0.017471658 0.20143147
000100 8a 8f 4e bd 2c 91 95 bb 57 c1 a8 3d c6 bd 69 3e
       -0.05042986 -0.004564425 0.08240002 0.22826299
000110 39 1b b7 3d 5f ee 66 3e 76 98 65 3e 15 42 ca be
       0.08940739 0.22551869 0.2242144 -0.39503542
000120 48 d0 45 bc 2c 0b 85 3e 20 3e d2 3d fa 66 9a bd
       -0.012073584 0.25985086 0.10265756 -0.075391725
000130 4d 49 8a be 39 1c f0 3e 5c bd 96 3e f1 2e f5 be
       -0.2700905 0.46896532 0.29441345 -0.47887376
000140 fd bd 34 3e ef 23 3f be 77 fa 56 be a2 a7 9d 3d
       0.176506 -0.18666051 -0.20993982 0.07697989
000150 75 0a dd 3d b7 5f ce 3e 42 8a 7a be 51 e5 56 3e
       0.1079301 0.403074 -0.24466804 0.20985915
000160 c0 45 85 bd c0 f2 5f 3d 9e 77 e3 3c 43 94 31 3e
       -0.065074444 0.054674864 0.027766999 0.17341714
000170 0c 7a b4 be 40 a7 0d 3e dd 13 bf 3d b7 49 b1 be
       -0.35249364 0.13833332 0.093299605 -0.34626552
000180 1c e0 ca be f1 0d e8 be d7 72 a2 be 8b a0 dc 3d
       -0.39624107 -0.45323136 -0.3172824 0.10772809
000190 46 48 8f bd 23 cb ee 3d cd 34 14 3e ee 93 2e bd
       -0.06996207 0.11659839 0.14473267 -0.042621545
0001a0 1a c8 8d 3e 27 f9 c4 bd 9c fa b3 be b7 42 4b be
       0.27691728 -0.096178345 -0.35152137 -0.19849668
0001b0 ee 8e 31 3e 5d bb 01 be c7 20 e8 bd cf dd 80 be
       0.1733968 -0.1266913 -0.11334377 -0.25169227
0001c0 bd 69 21 bd 04 81 b2 3d a6 df 24 bf 3c 94 87 3e
       -0.03940748 0.08716014 -0.6440376 0.2648028
0001d0 aa 48 2c be 68 3b 23 3d 19 02 9e 3e 4e da ae 3d
       -0.16824594 0.039851576 0.30860975 0.08537732
0001e0 c4 d8 a2 bd 98 ad ce 3e 97 0f 6d 3d e7 7e 28 3c
       -0.07951501 0.40366817 0.057876196 0.010284162
0001f0 a8 0c b6 be 9a d3 da 3e a2 31 65 3d a8 7e 79 bc
       -0.3555653 0.42739564 0.055955537 -0.015227951
000200 38 ba 8f be a1 6f ad 3e d1 35 35 be c6 0d b0 be
       -0.2807176 0.3387423 -0.1769631 -0.34385508
000210 70 01 e6 3d d9 a3 69 be 38 98 ac 3e b4 57 29 bd
       0.11230743 -0.22816409 0.33709884 -0.041343406
000220 86 2a 05 3f b4 73 a9 bd 32 39 e3 3d 23 28 9e be
       0.5201801 -0.08274022 0.110948935 -0.30889997
000230 85 2e e1 bd 22 62 02 be 9c 20 fb be b6 fc 84 3e
       -0.10995201 -0.12732747 -0.49048316 0.25974053
000240 10 85 17 bf ff 11 5b 3e 94 b8 e3 3e d2 6d 9f 3d
       -0.5918741 0.21393584 0.4447676 0.077846184
000250 8a f1 97 bd 6a 58 16 be 17 e4 03 3f ce eb d9 be
       -0.07419117 -0.14682165 0.5151991 -0.42562717
000260 03 97 cf 3e 7c 4c 92 be 96 3a ae be 22 19 d8 3e
       0.405449 -0.28573978 -0.34029073 0.42206675
000270 e8 19 2c bd 2b 70 3a be 4b 0e 1c bf aa 25 72 be
       -0.042016894 -0.18206851 -0.6095931 -0.2364718
000280 f7 05 82 3e 46 d7 cd be 82 47 aa be 26 ac 91 be
       0.25395176 -0.40203303 -0.3325768 -0.2845165
000290 29 ce 02 3e 68 5f fe 3d 66 1a f4 bd 3b e5 47 bd
       0.12773956 0.12420541 -0.119190976 -0.048802596
0002a0 57 a8 ab 3e e8 1b 16 be b1 70 14 bd b2 29 8b be
       0.3352687 -0.14659083 -0.036240283 -0.27180248
0002b0 95 b3 06 3f 5d c4 0d 3d f3 ea d1 3e 01 f5 aa be
       0.5261777 0.034611095 0.40999565 -0.33390048
0002c0 71 7f dc bc d7 ec d4 bd fa fa 20 3e d6 4d f9 3d
       -0.026916238 -0.10396736 0.1572074 0.12173049
0002d0 53 df a9 3e b0 0a 01 3e 0b de 7b 3d 16 e7 75 be
       0.33178195 0.12601733 0.061491054 -0.24013934
0002e0 8a 20 85 bd db 4e 21 be 14 e4 1a be fa 98 f5 3d
       -0.06500347 -0.15752737 -0.15126067 0.119920686
0002f0 e6 64 ef bc f1 3f 89 3e 82 2d 54 be 6b 6f 41 be
       -0.029222917 0.26806596 -0.20720485 -0.18890159
000300 15 42 b9 be 6c f1 1e 3e 59 27 ac 3e 3a 20 92 be
       -0.3618323 0.15521783 0.3362377 -0.28540212
000310 61 f9 06 be 7b 66 d4 be 08 9e 43 be c7 12 85 3c
       -0.13181068 -0.41484436 -0.19103253 0.016244305
000320 f5 1a 71 3d 2e 4b 13 3f c1 fc 24 3e a2 db d5 3e
       0.0588636 0.5753659 0.16112043 0.4176913
000330 13 60 0b bd 7d a5 d3 3d 47 a9 10 be 58 7b 0c be
       -0.03402717 0.10334299 -0.14127074 -0.13718927
000340 09 04 31 3e dd 56 85 3e 35 80 06 be 4f 18 8d 3d
       0.17286696 0.26042834 -0.13134845 0.06889402
000350 b0 49 55 3c fb cb bc 3e a6 4f bf bd 9e 4a 29 bd
       0.013018057 0.36874375 -0.093413636 -0.041330926
000360 fc ad f4 be c7 d7 1d bf b0 3b 49 bd 78 ab f8 bd
       -0.4778899 -0.61657375 -0.049129188 -0.1214208
000370 66 f0 dc 3c 0c 93 b7 3d 9e 64 9d bc 10 1b 54 3d
       0.0269701 0.08963594 -0.019213017 0.05178362
000380 9e 74 63 be 86 e5 b2 3e 09 03 53 bd ba 24 a2 bc
       -0.22212455 0.34940737 -0.051516566 -0.019792903
000390 54 0a 85 be ac ff fd 3d 4b ac 5a be d1 61 0e 3d
       -0.25984442 0.12402281 -0.21354787 0.034761254
0003a0 09 21 b3 be 8e 39 39 be 07 3e 42 3e e8 b1 b6 3c
       -0.3498614 -0.18088362 0.18968974 0.02230163
0003b0 cf 65 79 bd 33 ef 0d 3e fa 48 0b be 1d 7f 8f 3e
       -0.060888108 0.13860779 -0.13602057 0.28026667
0003c0 c2 7e 6e 3e 6b c6 d3 3a 07 c9 09 3d 71 15 4d 3e
       0.23290542 0.0016157156 0.03363898 0.2002771
0003d0 7a 1f f5 bd 0f a1 76 be d0 66 21 3e b9 3f a0 be
       -0.11968894 -0.24084876 0.15761876 -0.31298617
0003e0 3b 58 04 3e 0e 85 a6 3d c9 74 dc 3c 1d a9 43 bd
       0.12924282 0.08130847 0.026911156 -0.0477687
0003f0 16 e4 58 be c8 a7 fd bc 61 77 9e 3e a6 1c 18 3f
       -0.21180758 -0.030963793 0.30950454 0.59418714

bias f4 [20]
000000 d0 0b 1c 3f 4b d7 b3 3e a2 ad 79 bf 19 7f 86 bd
       0.60955524 0.35125193 -0.9753057 -0.06567211
000010 32 cf eb bd 4c c2 d4 be 9e d7 d0 3d 9e 62 12 3f
       -0.11514129 -0.41554487 0.10197376 0.5718173
000020 fc 16 e7 3d 90 05 88 bd 66 5a d0 be 35 82 5a 3e
       0.11283681 -0.06641686 -0.4069397 0.21338733
000030 60 ad fe 3e 74 f6 d9 3e 73 50 6b 3e 16 0c a2 be
       0.4974165 0.4257084 0.22979908 -0.31649846
000040 fb f2 f7 bd ba ee ce 3d d9 e7 e6 be 59 01 2d 3f
       -0.12106892 0.10104127 -0.4509876 0.6758018

weight f4 [20, 20]
000000 ce ac 91 3e 7a 3c 93 3e fa 79 65 3d 40 14 9b 3d
       0.28452152 0.28757077 0.05602453 0.07572222
000010 e7 1d b3 3e cc 61 9c 3d c1 c9 f5 bd db 5a 97 3d
       0.3498375 0.07635841 -0.12001372 0.07390376
000020 74 a6 eb 3e 44 93 18 3e 03 b6 d0 3c 1c ea 7d 3e
       0.4602543 0.14899927 0.025477415 0.24796337
000030 99 1b 60 3e 79 86 32 bd 9d 75 54 3e 0a 42 23 be
       0.21885528 -0.043585274 0.20747991 -0.1594316
000040 36 7a 91 3e 71 af 81 bd c1 0c bb bd 18 ca 50 be
       0.28413552 -0.06332291 -0.09133292 -0.20389593
000050 a8 3b 17 3e 48 f8 21 3d 25 6e a4 3e fe ed 67 3e
       0.14768851 0.03954342 0.32115284 0.2264938
000060 91 00 19 3e 67 a5 42 be 9c 83 75 3d 5c 26 16 3d
       0.14941622 -0.19008408 0.059939966 0.036657676
000070 d4 88 24 3f 82 a5 15 bf 49 71 a6 be 87 15 e5 ba
       0.64271283 -0.5845567 -0.32508305 -0.0017477729
000080 11 45 1a 3e 33 a5 53 3d e4 20 40 be 9d c5 4c bf
       0.15065409 0.051671218 -0.18762547 -0.79989034
000090 f6 24 fd bc af 3b 11 3f 96 e6 da bd 3a cd 61 3e
       -0.030901413 0.56731695 -0.10688512 0.22050944
0000a0 2f ce ad 3e 4c aa 0b 3f ea f4 fa 3c 6b a2 d5 3e
       0.33946368 0.5455673 0.030634362 0.41725478
0000b0 9b d5 2e be 08 2d cf be 48 23 5c 3e 08 af 8c 3e
       -0.17073672 -0.40464044 0.21497834 0.27477288
0000c0 92 bf 16 3d 72 f0 12 be fb b0 d0 bb 31 43 5d 3e
       0.03680379 -0.14349535 -0.006368754 0.21607663
0000d0 88 84 15 3e 16 78 e6 3e 52 33 17 be 9b 47 8f be
       0.14601338 0.45013493 -0.14765671 -0.27984318
0000e0 3b ab c0 bd c0 b1 98 bd 4d 1e 1a bf d7 46 91 3e
       -0.094076596 -0.07455778 -0.60202485 0.2837436
0000f0 51 51 6a be fa dc e9 3e 9d 85 c0 3e 90 10 1c 3e
       -0.22882582 0.45676404 0.3760194 0.15240693
000100 4f da 86 3e 0f a1 74 be 15 f0 8f 3c 04 09 dd bb
       0.2633843 -0.23889564 0.017570535 -0.0067454595
000110 b9 7b 5b bd 16 cb b6 3d a4 d2 4f bd c7 b6 19 bc
       -0.053584788 0.08925454 -0.050737992 -0.009381956
000120 c3 33 56 3e eb 06 dd 3d 9d 8e af 3b 4b d3 60 3e
       0.20918183 0.10792335 0.005357577 0.21955602
000130 33 3a 82 be 5e 36 f1 3e 6b 17 b9 3d bd aa 48 3e
       -0.25435027 0.4711179 0.0903767 0.19596381
000140 c9 a7 66 bf 87 63 0f bc e6 9e ac 3f 29 d7 c7 be
       -0.9009977 -0.0087517565 1.3485992 -0.39031342
000150 71 5e 02 bf 37 5b f8 3d 71 e6 13 3d 7b f4 12 bf
       -0.50925356 0.12126773 0.036108438 -0.574043
000160 af 0b 9a 3d 07 82 3c 3f 8f fc e0 3e da 9e a0 be
       0.0752176 0.73635906 0.43942687 -0.31371194
000170 6a ff 94 bf 66 ce bc be 34 75 5f bf ce 13 96 bd
       -1.1640446 -0.3687622 -0.8728821 -0.07327996
000180 90 de a8 be 62 b4 ce 3e 88 e8 5d 3d 28 2a 01 bf
       -0.32982302 0.40371996 0.054176837 -0.5045495
000190 06 b7 cd be ec 40 1a bc d8 e4 86 3e 59 31 1a be
       -0.40178698 -0.009414893 0.2634647 -0.15057887
0001a0 df 31 34 3e 80 5d 94 b9 d4 37 88 be 74 66 9a bd
       0.1759715 -0.00028298423 -0.26605093 -0.07539073
0001b0 48 f7 a0 3d 52 51 cf bd a3 c3 9e be 11 2a bd be
       0.07859665 -0.101229325 -0.31008634 -0.36946157
0001c0 80 ce 73 be 4d 38 0b 3e fe b6 2f be 71 71 b1 3e
       -0.23809242 0.13595696 -0.1715965 0.3465686
0001d0 d1 f3 3a be cd b9 fa 3c c0 f6 cd be d2 0f 1c be
       -0.18257071 0.030606175 -0.40227318 -0.1524041
0001e0 0f ce 92 3e a5 a0 64 3c 47 9a 11 3e e3 98 9f 3c
       0.28672835 0.013954316 0.14219008 0.019482082
0001f0 d4 df b8 be 34 b2 05 3d 22 39 ba 3b bd c6 a9 3e
       -0.36108267 0.03264065 0.0056830803 0.33159438
000200 57 04 40 3e 44 bb 22 be d5 b0 cf be 49 fc 58 3d
       0.18751656 -0.15891749 -0.405646 0.052974973
000210 90 86 fa 3d 26 a3 03 3e ec 25 3d 3e 87 fd 81 be
       0.12232697 0.12855205 0.18471497 -0.2538874
000220 f1 9b 1a 3e 9c ef 2f 3e 45 a7 8f be f8 c9 89 3e
       0.1509855 0.17181247 -0.28057304 0.26911902
000230 68 21 3c bf 8c 21 32 bd 54 e8 5e 3f 5f 27 ca be
       -0.73488474 -0.043489024 0.87073255 -0.39483163
000240 59 7a 8e be 0d dd a4 3a 8a 63 f2 3d 0c d8 8e be
       -0.2782772 0.0012578085 0.11835392 -0.27899206
000250 96 ef 41 bd 2e 7d 51 3f e8 4e e9 3e 51 c4 c0 be
       -0.047347628 0.81831634 0.45568013 -0.37649778
000260 72 ea ca be fb 75 8b be 14 ab f2 be fe 86 8a be
       -0.39631993 -0.2723845 -0.47396147 -0.27056116
000270 da 50 bf be 0c 8e 4d 3e ba 14 0c 3e e6 cf 52 be
       -0.37366372 0.20073718 0.13679782 -0.2058712
000280 4d 79 b7 be cf 8f 98 be 1e 0d f5 3d 72 bc b2 bd
       -0.35834733 -0.29797217 0.119653925 -0.08727349
000290 b6 c6 b1 be a5 5a 87 be 1c 69 3f bd 10 c7 eb be
       -0.34721917 -0.26436344 -0.0467311 -0.4605031
0002a0 39 a3 0d be e2 73 e3 3e 84 55 52 3e 36 ed c8 be
       -0.13831796 0.4442435 0.20540434 -0.39243478
0002b0 0a 8d e2 be 7c 1f b4 3e f4 6c 6a be 7d fc 17 bd
       -0.4424823 0.3518027 -0.22893125 -0.037106026
0002c0 a4 36 a7 be fb 40 23 bd f8 a9 42 3d f2 79 80 bd
       -0.32658875 -0.039856892 0.047525376 -0.06273259
0002d0 70 a0 40 be 54 ad 05 3f da b5 15 3f fc 15 81 3e
       -0.18811202 0.522176 0.5848061 0.25212085
0002e0 92 1a 3a 3e 85 bd 66 bc ff c1 39 be 1c 49 c4 3e
       0.18174198 -0.014083271 -0.1814041 0.38337028
0002f0 cf cc 52 3e 2b a6 cb 3d 87 d7 67 3e 9e c5 43 bd
       0.20585941 0.099438034 0.22640811 -0.047795884
000300 a1 55 df be 79 51 bc 3e fa 31 01 be fe 43 f0 bd
       -0.43620017 0.3678091 -0.12616721 -0.117317185
000310 97 1d 0d be 59 95 01 3f 38 71 28 3b 00 cd bc 3b
       -0.13780819 0.5061851 0.002570225 0.0057617426
000320 e7 df c9 bc 16 e0 a4 be e8 36 4d 3e c9 33 40 3e
       -0.024642898 -0.32202214 0.20040476 0.18769754
000330 9d 2a 70 be 63 db b1 3e 11 66 2b be b6 c7 a0 be
       -0.23453756 0.3473769 -0.16738154 -0.31402367
000340 4c 2d 39 3d 8f 70 e0 be 29 50 7c 3e 15 7e e2 bc
       0.045209214 -0.43835875 0.24639954 -0.027648011
000350 2f 91 c0 be c6 62 b9 bd 05 8b d6 be 1b e4 6c 3e
       -0.37610766 -0.09052043 -0.41902938 0.2313389
000360 19 98 53 3e 2f cd 0b be 99 49 9e 3e 4a f2 81 be
       0.2066349 -0.1365249 0.30915526 -0.25380164
000370 a9 b3 95 be 2d 18 b9 bc 93 d0 5f be 48 71 95 3e
       -0.29238632 -0.022594536 -0.21856909 0.2918799
000380 e1 85 81 be a8 fd 43 3d b7 46 51 be d7 5a 1c 3f
       -0.25297454 0.047849327 -0.20437132 0.6107611
000390 e2 c7 0f be 02 25 a2 be 3c ac b9 bd 89 3d 26 3e
       -0.14041093 -0.3166886 -0.09066054 0.16234411
0003a0 86 14 e1 3e 20 43 68 3e a1 24 43 3e eb 95 06 3c
       0.4396097 0.22681856 0.19056942 0.008214454
0003b0 b2 11 19 3e b8 0f 1d be f3 18 56 bd 42 26 41 bc
       0.14948156 -0.15338027 -0.052269887 -0.0117889065
0003c0 da 6e 78 be 79 8a 9a be 1f 56 be bd 6a 77 87 be
       -0.24261037 -0.3018377 -0.0929377 -0.26458293
0003d0 2b 7c d6 be 10 cc c2 3e 36 aa 43 be 33 ed 31 be
       -0.41891608 0.38046312 -0.19107899 -0.1737564
0003e0 d2 89 3a 3d 60 26 a3 bd 2b 75 38 bd 69 c9 23 be
       0.045541592 -0.07966304 -0.045033615 -0.159948
0003f0 9a 6b 29 be a8 25 71 3e d6 3b 6b be a9 5a 4b 3c
       -0.16544953 0.23549521 -0.22972044 0.012411752

bias f4 [20]
000000 44 ee 08 3f 8f c5 dc 3e ba 69 c1 3e 6f dd 64 3e
       0.53488564 0.43119475 0.37775975 0.22350095
000010 1d 76 1f bf 20 08 bf be 67 ee b5 bd 01 54 34 be
       -0.622896 -0.37310886 -0.08883362 -0.1761017
000020 85 fe b3 be d5 96 13 3f a0 02 dc be 13 60 c2 3e
       -0.3515512 0.57652026 -0.42970753 0.37963924
000030 31 7e c1 bc 2f 4e a0 3e 2a 92 17 3e 0f d4 c1 3e
       -0.023619743 0.3130965 0.14801851 0.378571
000040 71 b8 ac 3e 86 71 b9 3e d6 10 f0 be cd b9 a3 be
       0.33734468 0.36219424 -0.46887845 -0.31977692

weight f4 [20, 20]
000000 92 36 89 3e d4 e5 b5 bd ba 72 2c 3d a7 c5 86 3e
       0.26799446 -0.08881727 0.0421016 0.26322672
000010 b1 bb bc be 4e 36 25 3e d8 4d cd 3d 79 35 40 be
       -0.36861947 0.16133997 0.10024613 -0.18770398
000020 17 93 fc bd 0e 64 c0 bd 86 8d 73 3d 42 c6 72 3e
       -0.12332743 -0.09394084 0.05946114 0.23708442
000030 f1 c3 49 3e 33 6b 94 bd ab cb 65 be 63 17 bc 3e
       0.19703652 -0.07247009 -0.22440974 0.36736593
000040 e1 2d f4 3c 05 7c 98 3e b8 19 e2 3d b3 2b 12 be
       0.029807033 0.2978212 0.11040062 -0.14274482
000050 90 9e 9c be a1 27 fc 3e 6e fd ac be 5f 3f 40 bf
       -0.30589724 0.49248984 -0.33787102 -0.75096697
000060 92 0f 82 bb 8d 64 26 3f 23 4f 0b bd 33 4f 69 bc
       -0.0039691413 0.6499718 -0.034011018 -0.014240074
000070 5f a7 ea 3e fc 4a 7e 3d c3 e3 a9 3e 4d 14 df be
       0.4583082 0.06208323 0.3318158 -0.43570176
000080 5c c2 40 3f 6f 18 b7 be eb 6c 97 3e c0 8a 15 3e
       0.7529657 -0.3576083 0.29575285 0.1460371
000090 c6 c3 81 be 98 a2 73 bf 5f b5 f2 3e ff a5 54 3f
       -0.25344676 -0.95169973 0.47404 0.8306579
0000a0 0b a3 cd be dd db 26 be d0 08 33 be a0 32 3c be
       -0.40163454 -0.16294809 -0.1748383 -0.18378687
0000b0 57 36 6b be 19 54 69 be e6 df 9d 3d 25 46 45 be
       -0.22969948 -0.22785987 0.07708721 -0.1926504
0000c0 53 b6 88 bd 97 e3 15 3e f7 0a 42 be e1 34 d3 be
       -0.066754006 0.146376 -0.18949495 -0.4125128
0000d0 fd 58 43 be 25 c0 81 3e 3e 80 ed 3e 72 a4 0b 3c
       -0.19076915 0.25341907 0.46386904 0.008523094
0000e0 ce 3c 92 3e bf 78 a4 bd dd 01 e2 3c 62 54 36 be
       0.28562015 -0.08030843 0.02758878 -0.17805627
0000f0 ed 1c 42 3e 38 4a 66 be 25 1d d6 bd 4e 35 f1 3e
       0.18956347 -0.2248925 -0.10454778 0.4711098
000100 08 69 17 be af db 0f bf 8a f6 8d be 7b eb d3 bd
       -0.1478616 -0.56194586 -0.27727157 -0.10347649
000110 c0 13 0d bf cb 5a 8a 3e be 0d b8 be c1 9a f4 3e
       -0.5510826 0.27022395 -0.35947984 0.47774318
000120 19 d7 13 bf fe 6f eb 3e 20 c8 0d be 41 89 40 bd
       -0.5775009 0.4598388 -0.13845873 -0.047005896
000130 cf 2d 4d 3d 9d eb 5e 3f 0d 36 33 bf a0 1c 2b bf
       0.050092515 0.8707827 -0.7000435 -0.66840553
000140 8f 9e dd be bf 52 b7 be 4b 40 3f bc 67 cc 25 bf
       -0.43285033 -0.35805318 -0.0116730435 -0.6476502
000150 d8 fd 25 bf d8 8c d1 bc ad 12 c9 bd 08 14 c9 be
       -0.6484046 -0.025579855 -0.09818015 -0.39273095
000160 00 30 98 3e c4 bf b2 be b3 ec ef 3e 8c 72 34 be
       0.2972412 -0.3491193 0.46860275 -0.17621821
000170 4e c0 4f 3e 70 b7 ac bd 85 7f 44 3e 9f 08 24 3d
       0.20288202 -0.084334254 0.1918927 0.040047284
000180 02 0f 98 be ed 6c 01 bf 35 22 75 3e a6 e6 4d be
       -0.2969895 -0.5055683 0.2393883 -0.20107517
000190 df f1 f9 bc cd 2d 00 bf a2 39 f7 be ef 85 6b 3e
       -0.030510841 -0.50069886 -0.48286158 0.2300031
0001a0 61 a9 7f bf 25 a7 82 be 61 b5 6d 3c 53 d0 d8 be
       -0.99867827 -0.25518146 0.014508576 -0.4234644
0001b0 d4 d1 80 3e c3 63 00 bf 76 33 52 be 5d 3e df 3e
       0.25160086 -0.50152224 -0.20527443 0.43602267
0001c0 74 d5 af be 73 9f c6 be 3d bf 35 be 9f 10 bc 3e
       -0.3434254 -0.38793525 -0.17748733 0.3673143
0001d0 54 bc b2 3e 36 92 89 3d 00 47 5e be aa 7c b9 3e
       0.34909308 0.06717341 -0.21706772 0.36227924
0001e0 66 60 8c be 93 3e dd 3e 3c 5f b2 3d 50 87 04 3e
       -0.27417296 0.43211803 0.08709571 0.12942243
0001f0 4f ea fd 3e 80 88 c5 3b b0 9d 84 3e bb 4a e3 bd
       0.49592826 0.006028235 0.25901556 -0.11098238
000200 62 6e 4c 3e 23 27 ba 3e 1a 9a 4c 3e ae 39 2e be
       0.19963983 0.36357984 0.1998066 -0.1701419
000210 f2 a9 82 bd f1 3d 4e 3c 6d 5b ce 3e e3 e1 fc be
       -0.06380071 0.01258801 0.40304127 -0.49391088
000220 44 ab 11 be 1e fe 99 be 9c 85 90 3d 45 d5 4b be
       -0.14225489 -0.3007669 0.07056734 -0.19905575
000230 96 5d c5 bd 6e 52 6f 3e d3 44 22 bd 3e 60 90 be
       -0.09636991 0.23371288 -0.039616417 -0.28198427
000240 79 de 44 3e 26 12 4b 3e 46 79 a7 3d 99 5c a9 be
       0.19225492 0.19831142 0.08177428 -0.3307846
000250 aa 6c 69 3e bb 01 aa 3b d9 ca b7 3e 4a 98 7a be
       0.22795358 0.0051881946 0.35896948 -0.24472156
000260 11 33 eb 3e c2 40 ae be 14 cb 88 3e 3c 3c 5b 3e
       0.45937398 -0.3403378 0.26717436 0.21409696
000270 43 e7 fd be 73 3b 4b be 45 cc cf 3c aa 94 ff 3e
       -0.495905 -0.19846897 0.025365958 0.4991811
000280 bd 54 81 be 91 6f 25 3f e3 81 6c 3e b8 59 9c 3e
       -0.25259963 0.6462336 0.23096423 0.305372
000290 a6 f2 6e 3f 92 6b aa 3d 61 ca 0f 3e 8f f2 49 3f
       0.93339 0.08321299 0.14042045 0.7888574
0002a0 0f e4 03 3f 69 73 75 3f 3f 8a 46 be 95 0f 9f be
       0.51519865 0.95879227 -0.19388674 -0.31066576
0002b0 33 39 94 3d 43 52 a1 3e be 08 ae 3d 25 5d 26 bd
       0.072374724 0.31508073 0.08497761 -0.040616173
0002c0 a4 e9 a2 3e d3 09 a6 be c6 9c 49 3d d7 68 86 be
       0.3181888 -0.3242937 0.049221776 -0.2625186
0002d0 c2 0f 8c be 16 36 1c bf 68 38 2c be d2 28 ed 3d
       -0.27355772 -0.6102003 -0.16818392 0.115800515
0002e0 76 26 ce bd 10 ba 38 3d 8f 78 1a bd 01 9f 88 be
       -0.100659296 0.045099318 -0.03771263 -0.2668381
0002f0 36 ef 10 3e ac 9e b7 be 49 82 25 3e 41 d3 2c be
       0.14153752 -0.35863245 0.16162981 -0.16877462
000300 7a 89 0d be da a7 9f bd c1 8d 77 bd 98 06 07 bf
       -0.13821974 -0.07795687 -0.06043792 -0.52744436
000310 88 05 47 bc d3 41 0d bf 72 57 ff bd 2c 99 16 3b
       -0.012147315 -0.55178565 -0.12467851 0.002297948
000320 a4 b9 60 3f 49 94 7b 3b c1 37 1e 3f 8a fd 45 3f
       0.87783265 0.0038387945 0.61803824 0.77339995
000330 46 0c 76 be 37 37 17 bf ae 3f 53 3e 24 1e 42 be
       -0.2402812 -0.59068626 0.2062976 -0.1895681
000340 ff 81 2f bf 0a 79 99 3e 5d bc ff be dd 15 26 3e
       -0.68557733 0.29975158 -0.49948397 0.16219278
000350 67 39 77 bf e6 83 32 3e 6d 2e 2d bf 91 60 8b 3e
       -0.96571964 0.17433128 -0.67648965 0.27222112
000360 50 e9 63 3e 36 bb 4e 3f 7f 5e 3b bf 3a eb dc be
       0.2225697 0.8075441 -0.73191065 -0.43148214
000370 c9 b0 43 3e cd dc d6 3d b7 fb c0 3e 45 3d 68 3d
       0.19110407 0.10491333 0.37692043 0.056699056
000380 60 b0 5b be c0 08 85 3d 28 c2 d7 3d 81 f3 18 be
       -0.21454 0.064958096 0.10535079 -0.1493664
000390 ec d7 50 3e b8 65 39 be c0 96 4c 3e 09 e0 25 3e
       0.20394868 -0.18105209 0.19979382 0.16198744
0003a0 ae 49 82 3e 82 14 b9 3d 3f 70 a2 be c4 4d 9f 3d
       0.25446838 0.09037115 -0.31726262 0.077785045
0003b0 93 77 9b 3e a5 ec 63 be 71 97 a7 3e a1 df 09 bf
       0.30364665 -0.22258241 0.32732728 -0.53856856
0003c0 c4 3a 93 3e 2f df 3b bf 41 0d 50 3e a9 ba a0 bd
       0.28755772 -0.73387426 0.20317556 -0.078481026
0003d0 27 42 26 bf d9 af 8a 3d 09 79 a8 be 1d db 04 bf
       -0.6494469 0.067718215 -0.32904842 -0.5189684
0003e0 99 a1 03 3e d1 38 64 be 8c 7c 4b be 9d 4e 35 bd
       0.12854613 -0.22287299 -0.1987173 -0.044264425
0003f0 a1 3b ab 37 ed f6 81 3c ef de 9e 3d a4 c2 4e 3e
       2.0412555e-05 0.015864814 0.07757365 0.20191437

bias f4 [20]
000000 70 39 25 3f 4b 13 b8 be 36 3b 0d bf 8d ee 29 3f
       0.6454077 -0.3595222 -0.55168474 0.66379625
000010 05 13 30 bf 21 7b 8b 3e 3c d4 99 bd 6f bc aa be
       -0.6877902 0.27242377 -0.075111836 -0.33346888
000020 5c 0d 4d 3e 4f 98 a6 be a8 52 86 3f 83 4d dd be
       0.20024627 -0.32538077 1.0493975 -0.432232
000030 9e 7f 30 bc 4a f4 01 3e 27 1f d7 be 17 e6 fc bd
       -0.010772614 0.12690845 -0.42015955 -0.12348574
000040 47 c6 c0 be af c2 16 be 09 c6 97 3e fb cc 17 3f
       -0.37651274 -0.14722703 0.29643276 0.5929715

weight f4 [20, 20]
000000 27 5c b2 be f1 de 20 be ca ea a6 bd f8 a5 d5 3e
       -0.34835932 -0.15710045 -0.08150251 0.41728187
000010 ef 7c ea be 5d 09 ad be 2b 60 86 3e c9 24 ae be
       -0.45798442 -0.33796206 0.26245245 -0.3401244
000020 1c 9c 25 3f ab 5b 15 3d 43 0e f7 3e da 93 58 3e
       0.6469133 0.036464375 0.48253068 0.21150151
000030 02 14 2e 3d 94 1d 93 be 9c e2 05 3e f1 11 07 3f
       0.04249955 -0.28733504 0.13074726 0.5276175
000040 de cd 33 be b9 64 b8 3d 1e 16 a3 be 13 50 5d be
       -0.17559001 0.09003586 -0.31852812 -0.21612577
000050 c9 06 b1 be c9 08 00 3f ef 61 2e 3f e8 b8 44 3e
       -0.3457549 0.50013405 0.68118185 0.19211161
000060 d2 ad ed 3e ed f0 28 3f 5b 65 05 bf f2 6d 81 be
       0.46421677 0.65992624 -0.5210778 -0.25279194
000070 23 99 b1 bc ff eb c8 3e 97 da 00 bf 49 6a 99 3e
       -0.021679467 0.3924255 -0.5033354 0.29963902
000080 15 10 ac 3d f9 76 d0 be 4d ae dc 3e 65 29 24 3f
       0.08401505 -0.4071577 0.4310173 0.64125663
000090 c1 2c 74 3f 59 97 02 bf d1 be e5 be 50 5c 10 bf
       0.9538079 -0.5101219 -0.44872144 -0.5639086
0000a0 c5 04 90 be 4a d4 4a 3d 63 c1 c3 3e db a8 9c bd
       -0.2812864 0.04951886 0.3823348 -0.07649394
0000b0 92 ff a2 3e 1c a8 21 3e 3a cf 90 bd b6 04 9d 3e
       0.3183561 0.15786785 -0.07070775 0.30667657
0000c0 33 11 a2 bd fd 9a 51 3e e7 6e 7f be 24 cf 58 3c
       -0.07913437 0.2046928 -0.2494465 0.01323298
0000d0 0d 1b c2 be fb d4 e0 3d 46 c2 f4 3d 3c ad df 3e
       -0.37911263 0.10978123 0.11951117 0.43686855
0000e0 bf 86 ca 3d 99 a9 d3 3d c6 94 a2 be 1c 95 2e 3d
       0.09888982 0.103350826 -0.3175413 0.04262267
0000f0 81 8b 88 3e 47 e5 b4 3e bd 46 c8 3d f0 03 49 bf
       0.26668933 0.35331175 0.09779117 -0.78521633
000100 84 17 2b 3e fc 8c b6 bd 8f 67 93 be 84 f4 42 3e
       0.16708189 -0.089136094 -0.28789946 0.19038588
000110 d7 82 0e be 28 c5 d5 3e d9 c8 09 bf 3e b4 e9 3d
       -0.13917099 0.4175198 -0.53822094 0.114113316
000120 20 4e 0e be 5c 0c 97 3e c0 fb a4 bd ed f3 ce bd
       -0.1389699 0.29501617 -0.0805583 -0.10105119
000130 37 f2 54 3e 24 5e 33 3d 21 f4 9f bc c4 95 b6 be
       0.20795523 0.04379095 -0.01952559 -0.35661137
000140 cd 58 92 be 9a 4b a0 be 8a b0 0e 3f fb c4 58 3f
       -0.28583375 -0.3130768 0.5573813 0.8467557
000150 b9 73 f6 3d 8f 0e 3a bf 58 dd ef 3e ab 65 41 be
       0.12033791 -0.72678465 0.4684856 -0.1888644
000160 79 b8 64 3f b9 34 98 be f0 5f 4d 3e d0 74 96 3e
       0.8934398 -0.29727724 0.20056129 0.29385996
000170 73 40 92 be 05 d5 aa be 30 10 26 3e 91 6f ca be
       -0.28564796 -0.33365646 0.16217113 -0.39538243
000180 d2 65 e6 3d ec e8 84 be d2 9a 94 be bf d8 16 3e
       0.112498894 -0.25958955 -0.2902437 0.1473112
000190 12 2b 97 bb 33 a9 d9 be 81 3c a9 3b 2b 0f f2 3d
       -0.0046132887 -0.425119 0.0051646833 0.11819299
0001a0 09 fc 03 bf 74 c1 11 3e 77 b9 3a 3e 23 3a e0 3e
       -0.5155645 0.14233953 0.18234812 0.43794355
0001b0 3e e9 39 be 14 1c b8 be 44 49 0c 3f fd 43 dd 3e
       -0.18155381 -0.35958922 0.54799294 0.43215933
0001c0 3e 48 88 be 93 b3 14 3e 08 5e 71 3e 5f 9d 87 3e
       -0.26617616 0.14521627 0.23571026 0.26487252
0001d0 9b 25 89 bc 73 3c 7c be 19 f9 30 be db a6 3b 3e
       -0.016741564 -0.24632435 -0.17282523 0.18325369
0001e0 f5 26 27 bf 94 7f a5 be 13 80 05 3e 6a fc 07 3f
       -0.6529382 -0.32323897 0.13037138 0.5311953
0001f0 65 c5 28 bf 30 cb 91 be 1c 68 54 be 4e 21 04 bf
       -0.659262 -0.28475332 -0.2074284 -0.5161332
000200 78 a5 ee 3e 5a 5b 6c bf 44 cc 4f 3f 17 24 11 3e
       0.46610618 -0.9232689 0.8117106 0.14173923
000210 df 2c db 3d cf f5 ef be f6 72 27 3e d2 05 47 be
       0.10701918 -0.46867225 0.16352448 -0.19435814
000220 c0 41 27 be 1c 02 92 be e8 05 90 bc b0 1f 0a be
       -0.16333675 -0.28517234 -0.017580941 -0.1348865
000230 ab b3 0d 3f ef 13 a1 be 46 cb 06 be cc 7d 4b 3d
       0.55352277 -0.3146052 -0.1316348 0.049680516
000240 86 1b 91 be 0f 96 1f 3e 83 b6 53 3c a8 1e e0 bd
       -0.2834131 0.15584587 0.012921932 -0.10943347
000250 fa 8f 50 be 0d a8 be bd 3d 3c 06 3d e2 c2 8f be
       -0.20367423 -0.09309397 0.03277229 -0.2807837
000260 b2 70 26 be 11 37 ca 3e b7 f9 90 bd 87 28 93 3d
       -0.16253927 0.39495137 -0.07078879 0.07185464
000270 dd 18 96 bd e0 73 7b 3e b0 00 99 3d 05 e1 a3 bc
       -0.07328961 0.24555922 0.07470834 -0.020004759
000280 67 79 98 be 82 0a 03 bf e8 70 14 3e 79 d0 44 3f
       -0.29780123 -0.5118791 0.14496195 0.76880604
000290 01 cd 5f bf 67 21 48 bf e5 a0 97 3e ef 5c c9 be
       -0.87422186 -0.7817597 0.2961494 -0.39328715
0002a0 2c 8c 31 3f bf f9 a1 be fa a5 35 3f c2 bc 91 3e
       0.6935451 -0.31635854 0.70956385 0.28464323
0002b0 aa c0 af 3c 3c 38 81 bd 8a 35 2f 3e 21 58 ef be
       0.021454174 -0.06309554 0.17110267 -0.46746925
0002c0 6a cf d4 bd 7a b9 bf bd 45 a7 c1 be 13 a8 9f be
       -0.103911236 -0.09361549 -0.3782293 -0.31182918
0002d0 21 5b 80 bf d0 8f 75 3e c5 2b 75 3f 09 90 f8 3c
       -1.002781 0.23980641 0.9576991 0.030342119
0002e0 a5 95 b3 3f 89 dc 99 3f cd 88 99 be 3b ac b1 3d
       1.4030043 1.2020427 -0.29987183 0.086754285
0002f0 12 03 fc be 79 d2 31 3e 75 6f c8 bf c1 e5 99 3f
       -0.49221092 0.17365445 -1.5659014 1.202324
000300 e9 fd 36 3f 65 21 69 bf 23 bc a4 3f c8 f9 da 3f
       0.71481186 -0.9106658 1.2869915 1.7107477
000310 52 36 c2 3f f8 5c de bf c2 cd b8 bf e6 2e d9 bf
       1.5172827 -1.7372122 -1.4437792 -1.6967437
000320 64 b3 64 3e fe 78 01 bf 83 a5 8c be 94 84 41 3e
       0.22334057 -0.50575244 -0.27470025 0.18898231
000330 9b 48 64 be 6b 8b 22 bf 9a 02 bf 3a 61 d4 be bc
       -0.22293322 -0.63493985 0.0014572919 -0.02329463
000340 33 ed bd 3e 10 8d 4a be 46 f7 c8 3e 0a 9d ce be
       0.3709503 -0.19780374 0.39251155 -0.40354186
000350 73 ba cd 3d 18 37 59 be d0 7a 47 3e 0c f1 aa bd
       0.10045328 -0.21212423 0.19480443 -0.08346757
000360 45 37 32 be f4 b8 a0 bd 35 84 0a 3f e7 96 86 3e
       -0.17403896 -0.07847777 0.5410798 0.26287004
000370 fa 67 b1 3c 2d 7e c2 be fb 01 c3 3e 86 8f a7 3e
       0.021656025 -0.3798689 0.38087448 0.32726687
000380 ec 5b 64 be 0d f4 a0 be c4 08 00 be 24 c2 90 be
       -0.2230069 -0.31436196 -0.12503344 -0.28273118
000390 fe 00 c3 3e db e3 28 be fe 3e 36 3f 30 fc bf 3d
       0.38086694 -0.1649317 0.7118987 0.09374273
0003a0 18 72 f5 3d ee c3 a1 be 85 98 f1 3c 87 b2 10 be
       0.11984652 -0.31594795 0.029491672 -0.14130603
0003b0 d0 3d 09 be 51 31 8d bd 64 a3 23 3e 69 a1 da 3d
       -0.13402486 -0.06894172 0.15980297 0.10675318
0003c0 9d 34 a5 bd 96 5a 9f 3e bb 9d fe 3d c5 d4 94 be
       -0.08066676 0.311238 0.124324284 -0.2906858
0003d0 65 2a d7 3e dc 2a f3 3e 37 4d 3b 3e c3 f6 67 3e
       0.42024532 0.47493637 0.18291174 0.22652726
0003e0 dd dd 23 bf e3 1f 9c be 0e a8 b7 be 36 2b 3a be
       -0.6401041 -0.30493078 -0.35870403 -0.18180546
0003f0 38 5f 03 3e 0b ad ee bc 72 1b d1 bd 0f c4 8c bd
       0.12829292 -0.029135248 -0.10210313 -0.06873333

bias f4 [20]
000000 68 b0 e0 3e 49 50 47 bf 84 2b e3 be b5 aa bc be
       0.43884587 -0.7785688 -0.44369137 -0.3684899
000010 f8 eb cd be fd cd 51 3d e5 7f 93 bc dc b6 dc 3e
       -0.40219092 0.051221836 -0.01800532 0.4310826
000020 de 59 6b be 48 8e e6 bf 1b aa d7 3e 6c a4 b2 3e
       -0.229835 -1.8012171 0.42121968 0.3489107
000030 9c 11 2a be 2c bb 0a bd 9f fa 2c bf 11 2b 63 3f
       -0.1660828 -0.033869907 -0.6756992 0.8873759
000040 cc a1 0b 3f 06 b6 f6 3e 0a fe 66 3e ff 54 a6 3e
       0.5454376 0.48185748 0.22557846 0.32486722
