Iter_03/Models/Noise_5/simulation_00_10/ff_400.pt (torch, 43997 bytes, 23 tensors)

weight f4 [20, 2]
0.023007689 0.5831205 -1.1951234 0.16637495 0.05462665 -0.9745455 0.61643225 1.0689486
-0.6896415 -0.75993186 0.22578938 -0.46681768 -0.08954013 -0.13544582 -0.19665718 -0.2880698
-0.9620722 0.9090753 -0.3529114 -0.82829183 -0.24646765 0.057599027 0.1478343 0.07761169
-0.15835714 -0.67328984 -0.2956817 -0.22642142 -1.1750036 -0.292715 0.980455 -0.020556675
0.29394782 -1.389869 -0.28028354 -0.48006913 0.07159067 0.28453797 -0.21264519 -0.2888964
00000000: 9f7a bc3c 6347 153f cef9 98bf 325e 2a3e
00000010: 32c0 5f3d d07b 79bf 81ce 1d3f 4fd3 883f
00000020: 588c 30bf e58a 42bf 5535 673e ba02 efbe
00000030: d160 b7bd 4fb2 0abe 8060 49be e37d 93be
00000040: 5d4a 76bf 29b9 683f ceb0 b4be ef0a 54bf
00000050: 0462 7cbe f5ec 6b3d e061 173e e1f2 9e3d
00000060: 6028 22be b95c 2cbf 9763 97be 04db 67be
00000070: 8566 96bf bede 95be 19ff 7a3f 7966 a8bc
00000080: 5480 963e 3ae7 b1bf 5381 8fbe 9fcb f5be
00000090: 219e 923d f6ae 913e a9bf 59be 3bea 93be

bias f4 [20]
0.34291437 0.17861164 0.10400823 -1.0152692 0.8105915 -0.5791168 0.5323534 0.57503945
0.761575 0.12930343 0.06348147 -0.8635281 -1.3075421 0.9697708 0.5025616 -1.6201805
-0.23071428 0.011557212 -0.53143156 -0.24547274
00000000: 7992 af3e f8e5 363e 4402 d53d 57f4 81bf
00000010: ed82 4f3f 0041 14bf 5048 083f c935 133f
00000020: 94f6 423f 1e68 043e 9302 823d 2d10 5dbf
00000030: 8a5d a7bf e642 783f e1a7 003f 1362 cfbf
00000040: 5d40 6cbe 765a 3d3c e60b 08bf 355d 7bbe

weight f4 [20, 20]
0.25903267 0.44225842 0.23992161 -0.27677408 0.0402581 -0.1384517 0.19312078 0.0048848153
0.16677457 0.6665568 0.36330187 0.09308532 0.46083674 0.33412486 0.45248502 -0.30725446
-0.23024811 0.48371002 -0.13162075 0.16022824 0.36400193 0.39902654 0.114282444 -0.12297684
-0.09377967 -0.6092136 -0.35146642 -0.22001049 0.2885513 0.06279604 0.026271064 -0.15096861
-0.26765728 0.30925202 -0.13866112 0.06330329 -0.12191944 0.38386425 -0.06230959 -0.07182769
0.33951503 0.26681486 -0.15742849 -0.5659389 0.62646455 -0.09900367 -0.08234301 0.20064381
0.19704884 -0.1889045 -0.18386936 0.1991156 -0.17975633 0.013890561 0.036844846 -0.081825934
0.08870543 0.11834303 0.036858518 -0.42201325 0.4536506 0.29784253 -0.6257159 0.29097602
0.19609253 0.050198082 -0.34016618 0.18832785 -0.031422216 0.12512621 0.26756853 0.11956677
0.19019514 0.02536136 0.15382336 0.0064702583 -0.58721125 -0.09934842 0.104095794 0.2010909
0.36715165 0.0060088346 -0.12534887 0.38091412 -0.35578308 -0.2701659 0.10570837 0.30939046
0.04533386 -0.15507089 0.16126686 -0.0036757444 -0.16929436 -0.22137693 -0.19091865 0.23985569
-0.48331168 -0.2045708 0.015330509 0.2615545 -0.042095616 0.09838381 0.10856143 -0.09058872
0.2440676 0.2808998 -0.20191562 -0.034234054 -0.13946193 -0.2121134 0.13955095 -0.06842992
-0.27623093 -0.25607228 0.6880363 0.27199262 -0.466928 -0.0046089035 0.14722267 0.28840357
-0.2584374 0.22767378 -0.17651305 -0.09151483 0.034463357 -0.61594826 0.14193067 0.14003219
0.3301521 -0.23395109 0.27813834 -0.2020763 0.01970288 0.015518726 0.47939155 0.06644628
-0.09267567 -0.16482818 -0.0069114193 -0.18004116 0.2077069 0.421752 0.17531846 0.10135517
0.073565364 -0.050474964 -0.28723282 -0.095442995 -0.06949089 0.011179608 0.063686095 0.1639758
0.236211 -0.16499607 -0.1765554 -0.15592103 -0.601773 -0.012686554 -0.1441703 0.19589055
0.025427729 -0.23582381 -0.6140435 0.6452752 -0.28837335 0.53718 -0.53355557 -0.1427951
-0.06615034 -0.48861828 0.09820191 0.36485478 0.4004051 -0.66513515 0.17648035 0.7061632
0.79218596 -0.47859505 0.316214 -0.03564193 0.14968961 0.32825938 0.38585287 0.094689585
0.5473195 0.15265603 0.13433106 0.11640913 0.35109937 0.24772787 0.18194376 -0.28365043
-0.012965167 0.34112602 0.03423079 -0.07183973 0.46375147 0.11341949 -0.2559126 0.054529738
0.18990189 0.45395568 -0.58576185 0.6498478 -0.31776026 -0.3816972 -0.26324672 -0.11381789
1.0116388 -0.5982963 0.1263747 -0.16294228 -0.63164383 -0.25336587 -0.02420455 -0.33659083
-1.0208232 -0.08780808 0.105356246 -0.2316015 -0.34776366 0.3538492 0.07043433 0.4145198
-0.035571046 0.05274152 -0.07688839 -0.11950356 -0.16970277 0.24079986 0.16505559 0.47317708
-0.06679509 -0.19913617 0.4086225 -0.23958312 0.093589 -0.13367495 0.20702377 0.042111807
-0.3829168 0.1017662 0.19126625 -0.155054 -0.2166811 0.43695956 -0.058948215 -0.1086094
0.07821987 0.1831362 -0.14690192 0.28328535 0.29904523 -0.15985611 0.06617638 0.14680453
00000000: ee9f 843e b26f e23e 03ae 753e 55b5 8dbe
00000010: ade5 243d 48c6 0dbe 74c1 453e cd10 a03b
00000020: f4c6 2a3e 77a3 2a3f b402 ba3e 84a3 be3d
00000030: cbf2 eb3e 6a12 ab3e 1eac e73e 7550 9dbe
00000040: 29c6 6bbe d7a8 f73e 97c7 06be df12 243e
00000050: 765e ba3e 354d cc3e ea0c ea3d 48db fbbd
00000060: 8e0f c0bd 6cf5 1bbf 68f3 b3be 6e4a 61be
00000070: ffbc 933e 369b 803d 6a36 d73c 8497 1abe
00000080: 600a 89be 4856 9e3e 2efd 0dbe 28a5 813d
00000090: e6b0 f9bd db89 c43e 5738 7fbd 651a 93bd
000000a0: ead4 ad3e f59b 883e ef34 21be 5fe1 10bf
000000b0: fb5f 203f 70c2 cabd 74a3 a8bd 9275 4d3e
000000c0: 2cc7 493e 2e70 41be 4048 3cbe f6e4 4b3e
000000d0: 0b12 38be 3c95 633c 9fea 163d 5b94 a7bd
000000e0: 31ab b53d d55d f23d f5f8 163d 1f12 d8be
000000f0: e444 e83e d17e 983e eb2e 20bf cffa 943e
00000100: 7bcc 483e 819c 4d3d 432a aebe 04d9 403e
00000110: 95b4 00bd 1621 003e befe 883e 6cdf f43d
00000120: 84c2 423e a0c2 cf3c df83 1d3e 7604 d43b
00000130: 7a53 16bf 2f77 cbbd 2d30 d53d c6ea 4d3e
00000140: 4dfb bb3e c2e5 c43b 745b 00be 2d07 c33e
00000150: 3329 b6be 2f53 8abe a17d d83d 6d68 9e3e
00000160: ffaf 393d e7ca 1ebe 2423 253e c2e4 70bb
00000170: 805b 2dbe a2b0 62be 2e80 43be bb9c 753e
00000180: a174 f7be 027b 51be d12c 7b3c 79ea 853e
00000190: 746c 2cbd 737d c93d 7455 de3d 9486 b9bd
000001a0: dbec 793e 19d2 8f3e f8c2 4ebe 0239 0cbd
000001b0: 1ccf 0ebe 4134 59be 72e6 0e3e fc24 8cbd
000001c0: 246e 8dbe e81b 83be 2623 303f 9e42 8b3e
000001d0: 3011 efbe 4906 97bb 8ac1 163e a2a9 933e
000001e0: e851 84be 5123 693e d6bf 34be 216c bbbd
000001f0: 7329 0d3d c9ae 1dbf 4656 113e 9964 0f3e
00000200: b209 a93e e090 6fbe 2668 8e3e 17ed 4ebe
00000210: ef67 a13c 4142 7e3c cf72 f53e fd14 883d
00000220: becc bdbd b8c8 28be 3079 e2bb b65c 38be
00000230: 1eb1 543e e1ef d73e af86 333e 4d93 cf3d
00000240: 70a9 963d d6be 4ebd 2e10 93be 9e77 c3bd
00000250: 3d51 8ebd ad2a 373c db6d 823d 46e9 273e
00000260: 4ce1 713e bbf4 28be f0ca 34be c3a9 1fbe
00000270: cc0d 1abf 44db 4fbc 61a1 13be 8897 483e
00000280: d04d d03c cc7b 71be f431 1dbf c130 253f
00000290: aca5 93be a184 093f 1997 08bf e138 12be
000002a0: d479 87bd 2d2c fabe 151e c93d 3fce ba3e
000002b0: e601 cd3e 4c46 2abf 44b7 343e 1dc7 343f
000002c0: b3cc 4a3f 690a f5be cde6 a13e 46fd 11bd
000002d0: 3c48 193e 9d11 a83e 828e c53e 9dec c13d
000002e0: 211d 0c3f dd51 1c3e 158e 093e e967 ee3d
000002f0: 4cc3 b33e 60ac 7d3e 774f 3a3e a13a 91be
00000300: da6b 54bc 12a8 ae3e 9635 0c3d b520 93bd
00000310: d570 ed3e 7a48 e83d fa06 83be 935a 5f3d
00000320: a475 423e e16c e83e 7df4 15bf 6d5c 263f
00000330: 79b1 a2be d16d c3be 46c8 86be 5b19 e9bd
00000340: 617d 813f f229 19bf 5f68 013e 57da 26be
00000350: 69b3 21bf 2cb9 81be 9f48 c6bc a255 acbe
00000360: 56aa 82bf b9d4 b3bd 04c5 d73d f228 6dbe
00000370: 140e b2be b92b b53e e03f 903d f03b d43e
00000380: f2b2 11bd 7e07 583d a977 9dbd 48be f4bd
00000390: 90c6 2dbe 3d94 763e 5504 293e 4444 f23e
000003a0: ddcb 88bd 5aea 4bbe f836 d13e 4755 75be
000003b0: 97ab bf3d 16e2 08be 0afe 533e 6e7d 2c3d
000003c0: ac0d c4be cc6a d03d 4ddb 433e 7ac6 1ebe
000003d0: a6e1 5dbe 2ab9 df3e af73 71bd 9b6e debd
000003e0: bd31 a03d 0e88 3b3e 756d 16be c70a 913e
000003f0: 751c 993e 52b1 23be 7b87 873d ed53 163e

bias f4 [20]
0.5018473 0.45751718 0.15228349 -0.0004427487 0.29446495 0.0066074585 -0.070347756 0.116483435
-1.8323436 0.5210739 0.021375658 0.13505873 -1.0791557 -0.4748398 -1.1290258 -0.12604386
0.3042512 -1.4112571 0.17934611 0.4071514
00000000: 1179 003f b13f ea3e 34f0 1b3e b920 e8b9
00000010: 1cc4 963e 6183 d83b 7c12 90bd de8e ee3d
00000020: 3c8a eabf 1965 053f 011c af3c d64c 0a3e
00000030: c621 8abf 341e f3be eb83 90bf a411 01be
00000040: d0c6 9b3e 13a4 b4bf 82a6 373e 2676 d03e

weight f4 [20, 20]
0.31773856 -0.07641461 0.18625537 -0.06291327 -0.013937412 -0.112627245 0.02878555 0.38206652
-0.9347904 0.37857914 -0.0012295655 0.40667415 0.07903929 -0.004590334 0.07314155 -0.34410897
0.2647451 -0.2336366 0.28082538 -0.31494716 0.2633479 0.08625328 0.43525383 0.23451826
0.1347544 0.4755382 0.23631215 0.12626424 -0.05103848 0.3975318 -0.24008663 0.48665956
-0.079486884 -0.019165382 -0.095036775 0.03462166 -0.15663517 0.36114007 0.21537006 0.34754837
-0.18508443 -0.08013175 0.20144247 -0.6046255 -0.01355836 0.12327138 0.104255795 -0.32483488
-0.0047142445 0.40688908 -1.0337669 -0.16193202 -0.11491976 -0.06949521 -0.18688552 0.33243674
0.39398494 0.12888321 -0.15368336 0.19442612 0.13661882 0.076685 -0.0028484121 -0.4108268
-0.27078238 -0.083281934 -0.5725606 -0.34353834 -0.2648873 0.040342975 -0.16589922 0.19145267
-0.24290244 -0.120443225 -0.2690941 0.31083274 -0.004317094 -0.1698168 0.12719916 0.5601096
0.3568175 0.02141618 -0.029724343 -0.05384841 0.49313214 -0.3832854 -0.07073632 -0.16150625
-0.051593047 0.049061053 -0.12910403 -0.28679585 -0.24815156 -0.69830394 0.41406435 -0.19245896
-0.32611585 -0.47197145 0.21490721 0.082541846 -0.25993052 -0.15165594 -0.07503026 0.015273827
-0.21871367 -0.05522456 0.17363839 -0.31349236 0.38258708 -0.11492054 -0.011331516 -0.13717742
0.36866188 0.19431427 0.603312 -0.050327267 0.07043381 0.1797799 0.007853566 -0.5036799
0.38769627 0.14362642 -0.04888963 0.081369996 0.3760087 -0.15899034 -0.16038837 0.23879065
-0.41920337 0.12956457 0.42939162 0.22494332 -0.2939131 0.17932552 -0.3704586 -0.0705749
-0.021458898 -0.8211155 -0.25446215 -0.0670127 -0.17633283 0.08639022 -0.018303186 0.26293904
-0.13886364 -0.007241821 -0.2045727 0.29055282 0.50751776 0.101932995 0.094277166 -0.16051471
-0.093462564 -0.047592912 0.14340676 0.27665463 -0.04347008 0.41732994 0.00013406084 0.12201685
-0.027917627 -0.1083952 -0.3270634 0.46831128 0.20742765 0.095857404 -0.016948784 -0.123084284
0.1484957 -0.05318055 0.19107516 0.2207992 -0.23612402 -0.23975964 0.24664085 -0.07863039
0.13039431 -0.1818865 0.36170644 -0.3091953 0.48154607 -0.25615254 -0.14430176 -0.053099446
-0.3661968 0.3946571 -0.40091026 0.03644343 0.016350696 0.05065183 -0.15091759 0.16900966
-0.03175786 -0.01749597 -0.20012574 0.41524866 0.15029873 0.25671282 0.25731906 -0.14559102
0.12900686 0.08009955 0.124116145 -0.056819163 0.25748858 0.050979577 0.109759465 -0.09025093
-0.20406996 0.25344944 -0.06475527 0.20215057 -0.16170362 0.0879794 -0.39202103 -0.07312532
0.04153295 -0.5353556 -0.23324968 -0.2988323 -0.0021761497 0.07037161 -0.09227315 -0.22344083
0.16670552 -0.21288691 -0.010339691 -0.05310239 -0.37740362 0.18541938 -0.29364341 0.004170106
0.33966887 0.3064434 -0.015603917 0.31634486 0.0687403 0.7730409 -0.14307868 0.07917839
-0.3691459 0.0405446 -0.21388634 -0.16862667 0.13727403 -0.33083907 0.075395085 0.18365173
0.001227839 0.10646004 0.2555915 -0.07740661 -0.36676237 -0.47370315 0.17945413 -0.61657023
00000000: a1ae a23e 437f 9cbd bab9 3e3e acd8 80bd
00000010: be59 64bc 1da9 e6bd accf eb3c 399e c33e
00000020: 6c4e 6fbf 20d5 c13e 5f29 a1ba 9837 d03e
00000030: 5adf a13d 836a 96bb 3dcb 953d 0d2f b0be
00000040: ab8c 873e 6f3e 6fbe 58c8 8f3e c140 a1be
00000050: 89d5 863e 8fa5 b03d 97d9 de3e 8e25 703e
00000060: 0ffd 093e be79 f33e d0fb 713e 6a4b 013e
00000070: ba0d 51bd 4a89 cb3e 45d9 75be 712b f93e
00000080: 05ca a2bd b800 9dbc a4a2 c2bd 71cf 0d3d
00000090: f864 20be 5ae7 b83e f889 5c3e dcf1 b13e
000000a0: c686 3dbe 1d1c a4bd ef46 4e3e bdc8 1abf
000000b0: e223 5ebc b575 fc3d 1084 d53d c250 a6be
000000c0: f379 9abb c453 d03e 7952 84bf 82d1 25be
000000d0: 0d5b ebbd 8153 8ebd eb5e 3fbe 2635 aa3e
000000e0: 65b8 c93e f6f9 033e 2c5f 1dbe a417 473e
000000f0: cee5 0b3e 060d 9d3d 6dac 3abb e457 d2be
00000100: fda3 8abe b88f aabd 5593 12bf 42e4 afbe
00000110: 4f9f 87be ad3e 253d 7ce1 29be 2b0c 443e
00000120: 6bbb 78be f0aa f6bd b4c6 89be 7825 9f3e
00000130: 6976 8dbb 75e4 2dbe 7f40 023e 5863 0f3f
00000140: c9b0 b63e fc70 af3c 7780 f3bc 2690 5cbd
00000150: d17b fc3e fc3d c4be 34de 90bd e561 25be
00000160: 3b53 53bd 3ef4 483d d933 04be e8d6 92be
00000170: 711b 7ebe 0cc4 32bf 3e00 d43e f613 45be
00000180: a8f8 a6be 3ea6 f1be a310 5c3e b30b a93d
00000190: 9d15 85be b24b 1bbe 77a9 99bd 133f 7a3c
000001a0: 7af6 5fbe 2633 62bd 43ce 313e 1282 a0be
000001b0: 74e2 c33e 765b ebbd d3a7 39bc 3d78 0cbe
000001c0: 40c1 bc3e 52fa 463e a872 1a3f f723 4ebd
000001d0: 9a3f 903d 3918 383e 3eac 003c 2af1 00bf
000001e0: 2080 c63e ce12 133e 7e40 48bd 50a5 a63d
000001f0: 3684 c03e 5dce 22be d93c 24be 8985 743e
00000200: d3a1 d6be 93ac 043e 38d9 db3e 8b57 663e
00000210: c77b 96be 1ca1 373e c0ac bdbe 9389 90bd
00000220: 92ca afbc a034 52bf dd48 82be f43d 89bd
00000230: 9890 34be 5bed b03d 90f0 95bc f29f 863e
00000240: 4532 0ebe cc4c edbb 827b 51be 57c3 943e
00000250: afec 013f 3fc2 d03d 6314 c13d f85d 24be
00000260: 4d69 bfbd c9f0 42bd 39d9 123e ada5 8d3e
00000270: af0d 32bd 45ac d53e af92 0c39 f8e3 f93d
00000280: 82b3 e4bc 4dfe ddbd db74 a7be 7fc6 ef3e
00000290: ea67 543e e350 c43d 2dd8 8abc 9d13 fcbd
000002a0: 420f 183e d9d3 59bd 35a9 433e 2f19 623e
000002b0: 7fca 71be 8d83 75be 6b8f 7c3e f808 a1bd
000002c0: 1686 053e 7440 3abe 9631 b93e d94e 9ebe
000002d0: 358d f63e 6d26 83be d7c3 13be ce7e 59bd
000002e0: 267e bbbe 7f10 ca3e 1c44 cdbe b545 153d
000002f0: e5f1 853c 4b78 4f3d 248a 1abe de10 2d3e
00000300: 8814 02bd b553 8fbc c3ed 4cbe 799b d43e
00000310: e9e7 193e dd6f 833e 53bf 833e d015 15be
00000320: 601a 043e 3c0b a43d 9b30 fe3d 36bb 68bd
00000330: 8bd5 833e f6cf 503d 92c9 e03d 7bd5 b8bd
00000340: b7f7 50be 20c4 813e 699e 84bd 8f00 4f3e
00000350: a295 25be 8b2e b43d fbb6 c8be bac2 95bd
00000360: 741e 2a3d 110d 09bf 01d9 6ebe 8c00 99be
00000370: bc9d 0ebb fe1e 903d b5f9 bcbd accd 64be
00000380: dab4 2a3e 07ff 59be cf67 29bc e481 59bd
00000390: 0c3b c1be 94de 3d3e 6e58 96be 62a5 883b
000003a0: 14e9 ad3e 26e6 9c3e 92a7 7fbc f4f7 a13e
000003b0: b7c7 8c3d 02e6 453f 3883 12be 4828 a23d
000003c0: b100 bdbe 1812 263d 0505 5bbe 78ac 2cbe
000003d0: 9091 0c3e bd63 a9be bd68 9a3d 330f 3c3e
000003e0: 71ef a03a b907 da3d e4dc 823e 5b87 9ebd
000003f0: 47c8 bbbe 3889 f2be d3c2 373e 8cd7 1dbf

bias f4 [20]
0.2039235 0.46032888 -0.32120803 -0.097240545 0.5403012 -0.3074304 0.95131516 -0.5214707
-0.11263911 -0.83243203 0.5569233 -0.2725814 0.33324414 0.067787886 -0.5049919 1.172657
0.98691535 0.2999669 -0.37138525 -0.5677152
00000000: 52d1 503e 3ab0 eb3e 6175 a4be 0d26 c7bd
00000010: 2e51 0a3f 8467 9dbe 6489 733f 1b7f 05bf
00000020: 55af e6bd 441a 55bf 8692 0e3f ca8f 8bbe
00000030: fa9e aa3e 60d4 8a3d 2647 01bf a019 963f
00000040: 7ca6 7c3f 4395 993e 3526 bebe c955 11bf

weight f4 [20, 20]
0.13356571 0.05163256 0.14481623 -0.19295587 0.52659786 -0.122291185 0.36385652 -0.3934378
0.31035316 -0.0113136135 0.23910716 -0.082287095 0.31689027 0.31646633 -0.268398 0.50589377
0.23613814 0.50574297 0.10073229 -0.12708741 0.19388121 -0.08338382 -0.30485642 0.16752076
0.28329667 0.28564715 0.5502569 -0.13542582 -0.24756092 -0.065556735 -0.18774247 -0.39561817
-0.21062146 0.44476852 -0.2502405 -0.21320236 0.56013054 -0.010656934 -0.48056427 0.011741504
-0.6391206 -0.17480122 0.46722552 0.068088636 -0.39898545 0.69738746 -0.6540489 0.65739125
0.06037534 0.77062166 -0.41163602 0.16322233 -0.62901026 -0.12812036 0.59371865 -1.0856528
-0.4454233 -0.07083176 0.5466561 0.41028163 -0.22470449 -0.047144044 -0.09184862 0.17796567
-0.006132179 -0.053390082 0.15258153 0.20721461 0.022753881 0.11441163 0.26452148 -0.50628805
0.05514032 0.282261 0.065437555 -0.008999702 -0.18226422 0.53428024 0.13960432 -0.48144513
0.22487676 -0.1812096 -0.18634655 0.08825063 0.17795822 0.35113052 -0.16570222 0.11942186
-0.09587108 -0.11280011 0.10218292 0.16937213 -0.23882192 0.18672994 0.015451676 -0.21201235
-0.2616431 -0.5880469 -0.2789481 0.023796365 -0.05117079 0.091036215 0.19451168 0.0074235937
0.21797179 -0.09467407 -0.3751855 -0.07297144 0.29746267 -0.09661431 -0.17743929 -0.27058882
0.12660545 0.2952443 -0.61121964 0.15309998 -0.30001113 0.36418605 0.40754184 0.15316442
-0.12873475 0.41504106 0.09031887 -0.017745188 -0.38613337 0.50577015 -0.02747118 0.04486198
-0.3330133 0.42109185 -0.22793785 -0.26120383 0.014825144 -0.32279554 0.41849452 -0.07072987
0.43196973 -0.18463524 0.15609258 -0.26455763 -0.17068273 -0.20110586 -0.5461733 0.19932781
-0.60344607 0.2604227 0.43288237 0.097431764 -0.021110024 -0.25159854 0.48059592 -0.44329935
0.51286864 -0.26561257 -0.28624737 0.34386113 0.10668443 -0.17462575 -0.5968405 -0.20463778
0.23420975 -0.29502556 -0.26990837 -0.38398263 0.1367858 0.12639512 -0.105237685 -0.026983384
0.22951376 -0.21185046 -0.04074812 -0.30295795 0.3667799 0.13509023 0.42150712 -0.32126337
-0.0072717816 -0.10935517 0.16286395 0.077457875 0.30540237 0.11866311 0.049196824 -0.24591474
-0.09250878 -0.13098657 -0.19074458 0.1309517 -0.052760415 0.2872578 -0.21879543 -0.1263007
-0.3481658 0.18383059 0.34423408 -0.2927301 -0.13425687 -0.4239603 -0.16828114 0.047737766
0.10463986 0.58781725 0.08539279 0.397866 -0.057470236 0.027412627 -0.09242731 -0.14696562
0.14124705 0.3570416 -0.11829051 0.05962919 -0.1347607 0.28608644 -0.12203956 -0.03706555
-0.40662014 -0.5957766 0.011442253 -0.07671513 -0.006211332 0.13970405 0.06254808 -0.0009846241
-0.12081471 0.32226577 0.045399774 -0.082855135 -0.374964 -0.18976974 -0.15481317 -0.067303225
-0.24033765 -0.08725552 0.13263908 0.08571433 0.12814823 0.076652505 -0.22475822 0.18084848
0.2269921 -0.027074233 0.038919624 0.18609437 -0.12476113 -0.20054923 0.14442708 -0.27861783
0.12901561 0.04553619 -0.016936926 -0.075501435 -0.18874304 -0.074981794 0.34447497 0.5389315
00000000: 73c5 083e aa7c 533d b54a 143e 3996 45be
00000010: 1ecf 063f cd73 fabd 674b ba3e ae70 c9be
00000020: 9ce6 9e3e bc5c 39bc 82d8 743e 2386 a8bd
00000030: 713f a23e e007 a23e 766b 89be 4182 013f
00000040: 32ce 713e 5f78 013f bb4c ce3d 3423 02be
00000050: cc88 463e 23c5 aabd 2416 9cbe 908a 2b3e
00000060: 430c 913e 5840 923e a3dd 0c3f 11ad 0abe
00000070: 9c80 7dbe 9c42 86bd 903f 40be 778e cabe
00000080: 27ad 57be b3b8 e33e 861f 80be b851 5abe
00000090: b764 0f3f 6c9a 2ebc 850c f6be 705f 403c
000000a0: 689d 23bf 17ff 32be 2f38 ef3e 0e72 8b3d
000000b0: d247 ccbe fc87 323f c06f 27bf cb4a 283f
000000c0: 224c 773d 7647 453f f5c1 d2be c123 273e
000000d0: d106 21bf fc31 03be f2fd 173f acf6 8abf
000000e0: 860e e4be 3e10 91bd a7f1 0b3f 6f10 d23e
000000f0: ef18 66be 1d1a 41bd 211b bcbd a23c 363e
00000100: 72f0 c8bb 8faf 5abd 553e 1c3e 1130 543e
00000110: 5966 ba3c a550 ea3d 5c6f 873e 189c 01bf
00000120: d1da 613d 8484 903e 2004 863d 7c73 13bc
00000130: 79a3 3abe 97c6 083f 6ff4 0e3e fa7f f6be
00000140: 1846 663e 028f 39be a1d1 3ebe bfbc b43d
00000150: ae3a 363e 61c7 b33e d8ad 29be 7393 f43d
00000160: 0f58 c4bd be03 e7bd 4745 d13d e36f 2d3e
00000170: bc8d 74be 2236 3f3e 0729 7d3c c419 59be
00000180: 16f6 85be 3e8a 16bf 49d2 8ebe 98f0 c23c
00000190: 7698 51bd 3271 ba3d 122e 473e 9e41 f33b
000001a0: ff33 5f3e 7be4 c1bd 5018 c0be 0d72 95bd
000001b0: 074d 983e b9dd c5bd a5b2 35be 9e8a 8abe
000001c0: dca4 013e 432a 973e e478 1cbf 3ec6 1c3e
000001d0: 0f9b 99be 9876 ba3e 53a9 d03e 22d7 1c3e
000001e0: 0bd3 03be 4380 d43e 1af9 b83d 5b5e 91bc
000001f0: 46b3 c5be 277a 013f 3d0b e1bc 32c1 373d
00000200: b880 aabe 5a99 d73e 8a68 69be 82bc 85be
00000210: 29e5 723c 7545 a5be ea44 d63e d2da 90bd
00000220: 232b dd3e 0511 3dbe bcd6 1f3e 1974 87be
00000230: 74c7 2ebe b2ee 4dbe 03d2 0bbf 971c 4c3e
00000240: 717b 1abf 2056 853e c2a2 dd3e 4e8a c73d
00000250: eeee acbc 86d1 80be ab10 f63e 22f8 e2be
00000260: 5c4b 033f 5ffe 87be 048f 92be 910e b03e
00000270: 5e7d da3d 18d1 32be 8aca 18bf 918c 51be
00000280: aed4 6f3e 970d 97be 6e31 8abe 5f99 c4be
00000290: 9411 0c3e b96d 013e db86 d7bd 420c ddbc
000002a0: a805 6b3e 54ef 58be 80e7 26bd 4e1d 9bbe
000002b0: 93ca bb3e 1855 0a3e c8cf d73e a27c a4be
000002c0: 2048 eebb 9af5 dfbd cfc5 263e 3ca2 9e3d
000002d0: b35d 9c3e a505 f33d 9c82 493d 13d1 7bbe
000002e0: 3e75 bdbd 5821 06be 8c52 43be 3418 063e
000002f0: 4e1b 58bd 7413 933e e90b 60be f854 01be
00000300: ca42 b2be 163e 3c3e 733f b03e b8e0 95be
00000310: a27a 09be 5311 d9be e451 2cbe ad88 433d
00000320: 6c4d d63d 317b 163f 6ae2 ae3d 18b5 cb3e
00000330: e965 6bbd 7290 e03c 884a bdbd 287e 16be
00000340: 11a3 103e 28ce b63e 4b42 f2bd bd3d 743d
00000350: b5fe 09be ec79 923e e0ef f9bd 0cd2 17bd
00000360: 8430 d0be d184 18bf 4a78 3b3c d21c 9dbd
00000370: 6e88 cbbb 940e 0f3e 3519 803d 810e 81ba
00000380: b46d f7bd 0500 a53e 1df5 393d f4af a9bd
00000390: 48fb bfbe 0053 42be 5887 1ebe 46d6 89bd
000003a0: 131b 76be 06b3 b2bd 8ad2 073e ff8a af3d
000003b0: 4a39 033e fdfb 9c3d 0527 66be 5830 393e
000003c0: 9e70 683e c8ca ddbc 2f6a 1f3d 868f 3e3e
000003d0: c382 ffbd c75c 4dbe b1e4 133e ffa6 8ebe
000003e0: ab1c 043e 2884 3a3d 4fbf 8abc 7fa0 9abd
000003f0: db45 41be 0e90 99bd 065f b03e 6af7 093f

bias f4 [20]
0.50419366 0.65484846 -0.8230163 0.049659386 0.03401651 -0.4523208 0.03466657 0.5664419
0.20720415 -0.15398635 -0.36972216 0.40026286 0.58597153 0.3946365 0.14809334 -0.17992464
-0.17325044 0.09749036 -0.4188824 0.43917677
00000000: d612 013f 26a4 273f 32b1 52bf a467 4b3d
00000010: e554 0b3d 9896 e7be 89fe 0d3d 5602 113f
00000020: 532d 543e 99ae 1dbe 394c bdbe 41ef cc3e
00000030: 3b02 163f cc0d ca3e c8a5 173e 2a3e 38be
00000040: 9068 31be 07a9 c73d c177 d6be c7db e03e

weight f4 [20, 20]
0.1547699 0.3151142 0.2145414 -0.09288538 0.26458833 -0.024864506 0.019018898 0.08734535
0.5247022 0.15989931 0.07377912 0.18843322 0.12070436 -0.07073497 0.105552875 -0.30307865
0.17322572 0.11671087 -0.25015327 -0.1302217 0.12819594 0.03622616 0.3402534 0.14463693
0.051299136 -0.29175597 0.06784715 -0.014467437 0.55632776 -0.51010156 -0.18948926 0.021955214
0.09909373 0.028953267 -0.21298315 -0.7305557 -0.11509311 0.62778807 -0.10457712 0.1861654
0.34509882 0.5528757 0.06971888 0.38499433 -0.19529903 -0.4680218 0.28445232 0.34005526
0.10646855 -0.21077168 -0.090701826 0.23339489 0.17487672 0.4729519 -0.14805196 -0.4190694
-0.09756257 -0.008500653 -0.66670394 0.34853908 -0.13304397 0.43284678 0.29833713 -0.150455
0.050739747 -0.38318595 0.034839265 0.17951442 0.03956249 -0.080760956 -0.14156666 -0.0035675704
0.3203232 0.28240684 0.14514554 0.022713562 -0.086656824 0.36709878 0.024988044 0.13368714
-0.8001513 0.037721448 1.219719 -0.26296312 -0.389654 0.05244982 0.06620937 -0.4450883
0.13236153 0.57019424 0.3175718 -0.23292923 -0.99615234 -0.2873287 -0.7985618 -0.09487532
-0.33741617 0.44580874 -0.022111055 -0.4093075 -0.27667055 0.15667045 0.15840599 0.017746419
0.26634762 0.022362428 -0.31832877 0.015505931 0.11596395 -0.21324922 -0.35312653 -0.29981697
-0.15433234 0.21720667 -0.0920971 0.44907492 -0.1380333 -0.07029323 -0.48060077 -0.13824649
0.27157488 0.16772245 0.15760891 0.21227467 -0.264876 0.045303747 -0.0058868453 0.31033558
0.2840824 -0.17128946 -0.4837778 0.139954 0.09640203 0.07833816 0.13262866 -0.16935837
0.026742827 0.23643036 -0.3960545 0.24605444 -0.7471311 -0.053230267 0.84202814 -0.37263882
-0.21392013 -0.009021384 0.106221594 -0.23924048 -0.020667369 0.78166866 0.4288324 -0.3689315
-0.3261283 -0.26511922 -0.42508063 -0.24019231 -0.38240248 0.2246022 0.12572625 -0.1931168
-0.32371768 -0.33286494 0.012298293 -0.055996004 -0.33838972 -0.18749455 -0.14008929 -0.49484852
-0.17999983 0.4664604 0.21240918 -0.3979879 -0.42652875 0.3635292 -0.19317023 0.10317052
-0.28732976 -0.14002539 0.13369396 -0.16201085 -0.19799103 0.2864508 0.5710104 -0.03946162
0.08923902 -0.18452683 -0.17834783 0.3817514 -0.09761926 0.20944792 0.3266481 -0.14372434
-0.39912206 0.40485752 -0.102711596 -0.33816764 -0.20603219 0.792272 0.29997683 0.2551522
0.028936537 -0.28939852 0.17022167 0.26153055 -0.2095079 0.39170805 -0.20221113 -0.30802962
0.08712959 -0.4469661 0.14588551 0.006588229 -0.34994987 -0.076381974 -0.3863858 0.22604352
0.2405486 -0.21342145 0.32325482 -0.3039619 -0.37361008 -0.040025603 -0.12073175 0.21374866
-0.2999003 0.037073452 -0.16608335 0.56282777 -0.1425123 -0.24175389 -0.044652738 0.1317399
0.35403758 0.1757764 0.1256055 -0.040909648 0.10622436 -0.10475301 -0.06195975 -0.023056366
-0.28257996 -0.12773499 -0.040418386 -0.11948241 -0.30100968 0.36756253 -0.20791645 -0.21256493
0.07134952 -0.07083789 0.009198356 -0.06946636 -0.20097144 0.16924119 -0.27898675 0.1127976
00000000: 007c 1e3e a656 a13e beb0 5b3e b13a bebd
00000010: 1f78 873e a6b0 cbbc 85cd 9b3c 1ee2 b23d
00000020: e252 063f a5bc 233e 8219 973d a3f4 403e
00000030: d933 f73d 7fdd 90bd 1b2c d83d 202d 9bbe
00000040: 1562 313e 1c06 ef3d 1714 80be d658 05be
00000050: cc45 033e e261 143d b235 ae3e b41b 143e
00000060: 0b1f 523d 0a61 95be 72f3 8a3d d408 6dbc
00000070: 7f6b 0e3f 0496 02bf 7909 42be 6cdb b33c
00000080: a7f1 ca3d 672f ed3c 4118 5abe b305 3bbf
00000090: f0b5 ebbd b8b6 203f 872c d6bd 25a2 3e3e
000000a0: cbb0 b03e 4389 0d3f c6c8 8e3d fa1d c53e
000000b0: 78fc 47be 8ea0 efbe bca3 913e b91b ae3e
000000c0: 2f0c da3d 88d4 57be e1c1 b9bd 12ff 6e3e
000000d0: e212 333e c026 f23e ef9a 17be 4490 d6be
000000e0: e2ce c7bd 5346 0bbc 1cad 2abf b773 b23e
000000f0: ae3c 08be 189e dd3e a5bf 983e e010 1abe
00000100: 7bd4 4f3d f330 c4be 9eb3 0e3d a1d2 373e
00000110: 470c 223d 0066 a5bd daf6 10be e6cd 69bb
00000120: 6701 a43e a197 903e 08a1 143e cb11 ba3c
00000130: 2279 b1bd 5ff4 bb3e bab3 cc3c 48e5 083e
00000140: b7d6 4cbf ce81 1a3d c11f 9c3f 1aa3 86be
00000150: bb80 c7be 9fd5 563d c798 873d 9de2 e3be
00000160: c889 073e 40f8 113f c598 a23e 0085 6ebe
00000170: d703 7fbf bf1c 93be 8c6e 4cbf fe4d c2bd
00000180: d0c1 acbe 0b41 e43e 3e22 b5bc c190 d1be
00000190: c3a7 8dbe 386e 203e 2e35 223e f060 913c
000001a0: b75e 883e 6931 b73c fdfb a2be 970c 7e3c
000001b0: 827e ed3d 015e 5abe 00cd b4be 9c81 99be
000001c0: 4c09 1ebe 6d6b 5e3e 689d bcbd 26ed e53e
000001d0: 9a58 0dbe e6f5 8fbd 4e11 f6be 7d90 0dbe
000001e0: dd0b 8b3e 6fbf 2b3e 3b64 213e 885e 593e
000001f0: d49d 87be 6c90 393d 70e6 c0bb 4ee4 9e3e
00000200: 4073 913e 8166 2fbe b9b1 f7be 1a50 0f3e
00000210: 6d6e c53d c26f a03d cfcf 073e 486c 2dbe
00000220: c613 db3c cd1a 723e a8c7 cabe b2f5 7b3e
00000230: fc43 3fbf fb07 5abd 288f 573f 84ca bebe
00000240: e10d 5bbe 6dce 13bc b58a d93d 75fb 74be
00000250: 9d4e a9bc 701b 483f ec8f db3e 97e4 bcbe
00000260: 4afa a6be b5bd 87be 2ba4 d9be f9f4 75be
00000270: 42ca c3be 1efe 653e 62be 003e 69c0 45be
00000280: 53be a5be 466d aabe c87e 493c 115c 65bd
00000290: 6b41 adbe 92fe 3fbe 9173 0fbe c95c fdbe
000002a0: e051 38be e6d3 ee3e cb81 593e 12c5 cbbe
000002b0: fa61 dabe 8020 ba3e 6bce 45be 114b d33d
000002c0: e31c 93be d162 0fbe 12e7 083e 2ce6 25be
000002d0: 29be 4abe aea9 923e bd2d 123f 82a2 21bd
000002e0: f3c2 b63d 9af4 3cbe d0a0 36be eb74 c33e
000002f0: 9bec c7bd 8479 563e 6b3e a73e 792c 13be
00000300: ba59 ccbe 7c49 cf3e 755a d2bd 4f24 adbe
00000310: 1afa 52be 56d2 4a3f 9096 993e 4fa3 823e
00000320: 510c ed3c 0b2c 94be 974e 2e3e 55e7 853e
00000330: 3d89 56be f58d c83e 6f10 4fbe 0fb6 9dbe
00000340: 0071 b23d bed8 e4be 0363 153e 12e2 d73b
00000350: a12c b3be 276e 9cbd 5cd4 c5be f477 673e
00000360: 5f52 763e 278b 5abe a881 a53e e5a0 9bbe
00000370: d249 bfbe e3f1 23bd 3542 f7bd eee0 5a3e
00000380: 888c 99be 55da 173d c111 2abe 7b15 103f
00000390: bfee 11be 558e 77be cae5 36bd d3e6 063e
000003a0: 6a44 b53e bbfe 333e ba9e 003e e090 27bd
000003b0: 288c d93d bf88 d6bd 82c9 7dbd b4e0 bcbc
000003c0: 52ae 90be f6cc 02be c08d 25bd 32b3 f4bd
000003d0: f11d 9abe 2831 bc3e 0de8 54be 9faa 59be
000003e0: b21f 923d 7513 91bd b4b4 163c 6144 8ebd
000003f0: 75cb 4dbe 904d 2d3e 5ad7 8ebe 6e02 e73d

bias f4 [20]
0.43826064 0.36330143 0.42580613 0.36589795 -0.36855897 -0.27477556 -0.16350399 -0.09095598
-0.4299442 0.6137274 -0.43807304 0.3070051 -0.012053358 0.12279409 0.20860313 0.28755173
0.3400389 0.5096343 -0.3947453 -0.07755867
00000000: b363 e03e a502 ba3e 4303 da3e fa56 bb3e
00000010: c3b3 bcbe 62af 8cbe 976d 27be 2147 babd
00000020: a521 dcbe 3d1d 1d3f 1c4b e0be c62f 9d3e
00000030: 737b 45bc 787b fb3d 0f9c 553e fb39 933e
00000040: 9419 ae3e 6577 023f 0e1c cabe 14d7 9ebd

weight f4 [20, 20]
0.17872766 0.016530946 -0.07861213 0.16457641 -0.21944275 0.24272014 0.059129775 -0.06755052
-0.041295182 0.023761682 0.11110107 0.13206604 0.30078366 -0.051432967 -0.11021279 0.30743098
0.045772407 0.21351118 0.22263044 -0.11557837 -0.313576 0.4048731 -0.24768049 -0.7558079
-0.13727953 0.7071673 0.010740588 -0.112171285 0.41794178 -0.015539891 0.2998716 -0.39752558
0.7691553 -0.45782217 0.26101798 0.2497797 -0.27729926 -0.9009618 0.48348567 0.8803841
-0.3371392 -0.28517026 -0.065798365 -0.10665745 -0.4178221 -0.25090533 0.096721314 -0.3561844
-0.14118701 -0.022721373 -0.20092648 -0.3019449 -0.27696863 0.20246707 0.3369229 0.102086306
0.31972575 -0.015721887 -0.06533183 -0.15878999 0.031520907 -0.07310795 -0.26876238 0.26455346
-0.011396273 -0.4734942 -0.29167122 0.011812303 -0.37490007 0.38467422 -0.22996747 0.31262454
-0.39474705 0.5262299 0.034247767 -0.13187234 0.05344968 0.5920496 -0.56515247 -0.6921985
-0.2765743 -0.65572757 0.13609463 -0.41473442 -0.8355745 0.15727441 -0.13234499 -0.59750056
0.1882128 -0.7614575 0.5352434 -0.04379093 0.00783719 -0.2957723 0.077124834 0.19866441
-0.46696356 -0.34165427 0.35911524 0.13147914 -0.10477753 -0.48785532 -0.52867156 0.14688206
-0.9840642 -0.1632939 -0.010163786 -0.4585761 0.31379107 -0.53072464 -0.11227958 0.38763592
-0.26209655 -0.4412872 -0.11682045 0.42415935 0.27650356 -0.022493165 -0.10304085 0.49854752
-0.2586776 0.4485884 0.08909594 0.1244195 0.5502731 0.009158398 0.26340997 -0.06545535
0.19406791 0.40483934 0.1982959 -0.17944622 -0.059873346 0.037082985 0.41861668 -0.53305703
-0.13964017 -0.3100012 0.076309755 -0.22592868 -0.056424953 0.21977478 -0.049136076 -0.18496683
0.2756225 0.16249284 0.051231656 -0.24328126 0.20855728 0.058474082 0.34021506 -0.25856927
0.380604 -0.24809568 0.27164975 0.113828644 -0.45175752 -0.12234053 -0.01258722 0.4213323
-0.2566764 0.546945 0.32727537 0.2678496 0.82053614 0.18112919 0.18789026 0.68717057
0.49086365 0.89220935 -0.19124588 -0.274228 0.10744624 0.19301152 0.08190071 0.068714835
0.25366613 -0.35475904 0.11581663 -0.15430135 -0.26042187 -0.648482 -0.15919293 0.16407596
-0.16398337 -0.016335001 -0.056897268 -0.31408933 0.1175989 -0.4243883 0.17514977 -0.14879294
-0.19789062 -0.06915196 -0.09814015 -0.5170039 -0.02211772 -0.5235163 -0.15233319 -0.040788237
0.78016794 0.2151277 0.45913225 0.6502119 -0.002400077 -0.48029357 0.22563215 0.038097803
-0.53075975 0.5453874 -0.47348648 -0.03492097 -0.8347399 0.31341624 -0.4971499 0.095753334
0.35467833 0.59419775 -0.6398449 -0.5511808 0.26543024 0.043985695 0.43248028 0.14048748
-0.308803 0.14515693 0.12520772 -0.2463446 0.17079824 -0.3573255 0.24240744 0.21358442
0.17820574 0.060289428 -0.3415495 0.12259083 0.28817493 -0.18589477 0.33469942 -0.5166901
0.30010593 -0.73592067 0.17645901 -0.005220826 -0.6299037 0.027627336 -0.36857703 -0.51837707
0.12787864 -0.23864873 -0.19742472 -0.03708717 -0.059215914 0.045641296 0.06170201 0.18608274
00000000: 6204 373e e86b 873c 65ff a0bd b886 283e
00000010: 9ab5 60be a18b 783e 1032 723d ed57 8abd
00000020: 2325 29bd dca7 c23c f588 e33d 523c 073e
00000030: 5100 9a3e 60ab 52bd 3eb7 e1bd 9867 9d3e
00000040: d97b 3b3d ada2 5a3e 3cf9 633e 5ab4 ecbd
00000050: 098d a0be 874b cf3e f49f 7dbe a07c 41bf
00000060: 0193 0cbe eb08 353f 4bf9 2f3c 0fba e5bd
00000070: 77fc d53e 079b 7ebc c588 993e 7988 cbbe
00000080: 5de7 443f ab67 eabe 26a4 853e 40c6 7f3e
00000090: 2bfa 8dbe 6fa5 66bf 6f8b f73e da60 613f
000000a0: 829d acbe d601 92be 4bc1 86bd 396f dabd
000000b0: c7ec d5be aa76 80be d315 c63d cd5d b6be
000000c0: 5493 10be 2c22 babc acbf 4dbe 8698 9abe
000000d0: d5ce 8dbe 8753 4f3e 2981 ac3e a012 d13d
000000e0: 18b3 a33e 30cb 80bc b2cc 85bd d899 22be
000000f0: 111c 013d 9fb9 95bd 399b 89be 8d73 873e
00000100: 6fb7 3abc d56d f2be ee55 95be 6488 413c
00000110: e7f2 bfbe 05f4 c43e 987c 6bbe 5310 a03e
00000120: 491c cabe 01b7 063f 6347 0c3d 8b09 07be
00000130: 0dee 5a3d 9090 173f d5ad 10bf ec33 31bf
00000140: 269b 8dbe c3dd 27bf 645c 0b3e 1258 d4be
00000150: 36e8 55bf 8b0c 213e 7285 07be ccf5 18bf
00000160: dbba 403e e1ee 42bf b605 093f 1e5e 33bd
00000170: 8f67 003c 786f 97be a0f3 9d3d af6e 4b3e
00000180: d915 efbe 4fed aebe f4dd b73e 78a2 063e
00000190: 9a95 d6bd 2cc8 f9be 0557 07bf 4068 163e
000001a0: a2eb 7bbf 8436 27be 0286 26bc 7dca eabe
000001b0: 39a9 a03e 92dd 07bf d6f2 e5bd 3778 c63e
000001c0: 8531 86be 65f0 e1be 8f3f efbd 6a2b d93e
000001d0: e091 8d3e 9643 b8bc 1507 d3bd 9f41 ff3e
000001e0: 6471 84be 61ad e53e ef77 b63d a7cf fe3d
000001f0: b3de 0c3f 1b0d 163c acdd 863e 740d 86bd
00000200: bdb9 463e 1a47 cf3e 150e 4b3e c0c0 37be
00000210: c13d 75bd 54e4 173d ed54 d63e 6d76 08bf
00000220: d5fd 0ebe 7ab8 9ebe 4a48 9c3d d959 67be
00000230: da1d 67bd a40c 613e e942 49bd f267 3dbe
00000240: 641e 8d3e 8664 263e 49d8 513d b91e 79be
00000250: 0a90 553e 8582 6f3d ab30 ae3e 3163 84be
00000260: 87de c23e cb0c 7ebe ad15 8b3e fe1e e93d
00000270: c34c e7be ac8d fabd a13a 4ebc deb8 d73e
00000280: 176b 83be 9604 0c3f a390 a73e 9523 893e
00000290: a80e 523f ee79 393e 4e66 403e 69ea 2f3f
000002a0: 7b52 fb3e d567 643f f6d5 43be 9d67 8cbe
000002b0: c60c dc3d d0a4 453e 8fbb a73d 5dba 8c3d
000002c0: 87e0 813e faa2 b5be 4531 ed3d 2c01 1ebe
000002d0: 0456 85be eb02 26bf 7903 23be 8703 283e
000002e0: 42eb 27be fbd0 85bc 1c0d 69bd 51d0 a0be
000002f0: b1d7 f03d 6c49 d9be 765a 333e 2d5d 18be
00000300: d7a3 4abe 8b9f 8dbd b4fd c8bd 5e5a 04bf
00000310: 3930 b5bc 2a05 06bf 3bfd 1bbe 9111 27bd
00000320: 16b9 473f 704a 5c3e 6213 eb3e 4974 263f
00000330: 9c4a 1dbb 0ae9 f5be 1d0c 673e 710c 1c3d
00000340: dfdf 07bf 829e 0b3f d26c f2be 4b09 0fbd
00000350: 84b1 55bf 1878 a03e 6f8a febe 531a c43d
00000360: 6698 b53e 581d 183f e0cc 23bf 2f1a 0dbf
00000370: 79e6 873e 582a 343d 0e6e dd3e f3db 0f3e
00000380: 6d1b 9ebe 05a4 143e 7436 003e c241 7cbe
00000390: bce5 2e3e 5ef3 b6be a839 783e e0b5 5a3e
000003a0: 917b 363e 0cf2 763d 93df aebe e710 fb3d
000003b0: aa8b 933e 335b 3ebe b95d ab3e cd45 04bf
000003c0: 7ca7 993e 4c65 3cbf acb1 343e 7613 abbb
000003d0: 5e41 21bf b952 e23c 21b6 bcbe 5cb4 04bf
000003e0: 9ef2 023e 5560 74be b529 4abe b7e8 17bd
000003f0: 638c 72bd 5ef2 3a3d 3fbb 7c3d 798c 3e3e

bias f4 [20]
0.4386819 -0.28991944 -0.38594496 0.37816 -0.61224 0.15383576 -0.10280687 -0.2477404
0.13666868 -0.2247217 0.7783617 -0.37909687 0.039565153 0.09955656 -0.4109678 0.058488168
-0.31179455 -0.057323635 0.37202027 0.4973542
00000000: ea9a e03e 5270 94be 949a c5be 309e c13e
00000010: c3bb 1cbf 1f87 1d3e 698c d2bd a9af 7dbe
00000020: e0f2 0b3e 721d 66be b642 473f fc18 c2be
00000030: 120f 223d 4fe4 cb3d 5f6a d2be 4a91 6f3d
00000040: 89a3 9fbe 30cc 6abd 7179 be3e 36a5 fe3e

weight f4 [20, 20]
-0.3367978 -0.20474774 -0.0915684 0.41448328 -0.5812818 -0.38926184 0.24333914 -0.33290672
0.6083613 -0.024927283 0.5096728 0.16202861 0.061994527 -0.22018754 0.117516205 0.5847392
-0.188375 0.084235 -0.28973153 -0.20281263 -0.53558564 0.3769083 0.9387673 0.30909792
0.68025935 0.9252126 -0.72246695 -0.35708702 -0.13013119 0.4384404 -0.7130591 0.6241826
0.26125988 -0.52365965 0.7239072 0.7403522 1.1213589 -0.77798307 -0.64347404 -0.7316936
-0.24101609 0.034382228 0.3772624 -0.08795126 0.42099518 0.20556073 -0.07176456 0.28403732
-0.10075014 0.27443096 -0.23309918 0.0069297175 -0.36010277 0.11558431 0.081505165 0.3421025
0.07729964 0.17374147 -0.3257796 0.04991926 0.30617738 0.4074838 0.07096847 -0.8024477
0.19919801 -0.04669105 -0.26936966 0.20254219 -0.1137679 0.4563709 -0.5499479 0.09642121
-0.18002447 0.30063945 -0.10128972 -0.1823962 0.15638213 0.10157972 0.043386724 -0.30527082
-0.285881 -0.49586377 0.57064617 0.8767267 0.14045876 -0.6572166 0.3478419 -0.17886856
0.7671456 -0.34627068 0.21182388 0.4602666 -0.17559786 -0.27250087 0.3133428 -0.41986373
0.10362112 -0.38243756 -0.35470113 0.109764755 -0.026732277 -0.34032363 -0.01657815 0.10618037
-0.6728491 0.020725941 0.2692937 0.47449544 -0.11558145 -0.4087997 0.5246678 0.32959577
-0.34339398 0.113872804 0.13220488 0.31546247 0.019956196 -0.26638857 -0.20828281 0.18226805
-0.7639303 -0.33392766 0.18573242 0.4516507 -0.73720324 -0.38669184 -0.16838877 -0.4439064
0.5255314 -0.9340305 0.72864455 0.16532972 0.072842054 -0.47965622 0.17867939 -0.21616182
-0.10284419 -0.37518138 -0.09440696 -0.17714646 0.4591382 -0.31116232 -0.036720544 0.08620051
-0.2300314 0.19866405 -0.01372484 -0.12737428 -0.1897542 -0.08087836 -0.029514717 -0.19956598
-0.13224739 0.34077516 0.028980087 0.15593475 0.0013875018 0.16492905 0.024786562 -0.07987074
-0.2693127 -0.5551234 0.1188618 0.68148375 -0.96890455 -0.8356126 0.31866968 -0.34398097
0.66057855 -0.34798583 0.7202969 0.23992227 0.003193081 0.023202833 0.13251719 -0.51174825
-0.16112185 -0.08209372 -0.3574955 -0.29034206 -0.75409865 -0.0121651115 0.96320707 -0.0058700205
1.8024954 1.4583226 -0.5694327 -0.056480512 -0.7552343 0.2511435 -1.4255145 1.4425389
0.98255545 -0.6067838 1.5692818 1.4437265 1.2349647 -1.4329009 -1.1140363 -1.5522512
0.17960015 -0.47472915 -0.2628256 0.16719878 -0.281575 -0.71168476 0.0548783 0.00403336
0.39967522 -0.22314745 0.37057433 -0.46411863 0.06949773 -0.23630856 0.13341579 -0.0018160593
-0.11590349 -0.12768815 0.47860882 0.21579044 0.009578962 -0.38077545 0.36784205 0.27323148
-0.29206014 -0.41953737 -0.08372162 -0.24666643 0.39942792 -0.18043746 0.7119927 0.028468538
0.09443291 -0.29049823 -0.021779552 -0.15191744 -0.13241969 -0.038805053 0.1792126 0.13159339
-0.02795226 0.29016846 0.1415909 -0.32658485 0.53534245 0.6073679 0.12890285 0.21079652
-0.6898754 -0.23041908 -0.35167924 -0.16915812 0.16072734 0.027522095 -0.057527408 -0.15318541
00000000: c370 acbe 64a9 51be 3788 bbbd 2737 d43e
00000010: e2ce 14bf 544d c7be e52d 793e c072 aabe
00000020: 91bd 1b3f 4d34 ccbc eb79 023f d4ea 253e
00000030: f9ed 7d3d d878 61be 56ac f03d 78b1 153f
00000040: 60e5 40be 6683 ac3d b157 94be 1dae 4fbe
00000050: 241c 09bf 20fa c03e 0e53 703f 1542 9e3e
00000060: 7a25 2e3f bcda 6c3f 98f3 38bf 1cd4 b6be
00000070: 1c41 05be 437b e03e 0b8b 36bf 6eca 1f3f
00000080: dbc3 853e 8f0e 06bf fb51 393f b987 3d3f
00000090: b088 8f3f e629 47bf b7ba 24bf 4650 3bbf
000000a0: eccc 76be 61d4 0c3d 8a28 c13e ca1f b4bd
000000b0: ae8c d73e 837e 523e 4cf9 92bd 576d 913e
000000c0: 1756 cebd 3782 8c3e 8db1 6ebe af12 e33b
000000d0: 645f b8be 77b7 ec3d 2eec a63d 0f28 af3e
000000e0: 464f 9e3d 49e9 313e 95cc a6be 2378 4c3d
000000f0: 48c3 9c3e b7a1 d03e eb57 913d 366d 4dbf
00000100: 90fa 4b3e 1d3f 3fbd d2ea 89be 3867 4f3e
00000110: 25ff e8bd 72a9 e93e 63c9 0cbf 7c78 c53d
00000120: 5658 38be 6aed 993e fc70 cfbd 12c6 3abe
00000130: a322 203e 0709 d03d 47b6 313d 754c 9cbe
00000140: ff5e 92be dbe1 fdbe de15 123f 2971 603f
00000150: 6cd4 0f3e 593f 28bf 5518 b23e 5229 37be
00000160: a763 443f 644a b1be 5ce8 583e 10a8 eb3e
00000170: edcf 33be 3c85 8bbe 786e a03e 61f8 d6be
00000180: 4f37 d43d dbce c3be 639b b5be 58cc e03d
00000190: a6fd dabc e63e aebe e7ce 87bc 1875 d93d
000001a0: d73f 2cbf 73c9 a93c dde0 893e 11f1 f23e
000001b0: f8b5 ecbd 324e d1be a150 063f c7c0 a83e
000001c0: 56d1 afbe 2536 e93d b760 073e 4c84 a13e
000001d0: 2d7b a33c 1564 88be 1748 55be 7aa4 3a3e
000001e0: f090 43bf 91f8 aabe a430 3e3e c33e e73e
000001f0: 5ab9 3cbf 79fc c5be 1b6e 2cbe b347 e3be
00000200: 3a89 063f 9f1c 6fbf 7388 3a3f 324c 293e
00000210: 372e 953d 8095 f5be bbf7 363e 8659 5dbe
00000220: fa9f d2bd c617 c0be 7058 c1bd e265 35be
00000230: 2a14 eb3e ab50 9fbe 4868 16bd e589 b03d
00000240: 5a8d 6bbe 976e 4b3e 27de 60bc 676e 02be
00000250: ed4e 42be 8ea3 a5bd d9c8 f1bc 065b 4cbe
00000260: dc6b 07be 157a ae3e a667 ed3c 5cad 1f3e
00000270: d6dc b53a 29e3 283e 300d cb3c 4593 a3bd
00000280: 5be3 89be 911c 0ebf d16d f33d b875 2e3f
00000290: 210a 78bf b5ea 55bf ac28 a33e 461e b0be
000002a0: ad1b 293f 332b b2be 6165 383f 2fae 753e
000002b0: 0243 513b de13 be3c 96b2 073e ef01 03bf
000002c0: 20fd 24be c120 a8bd a609 b7be b7a7 94be
000002d0: 9c0c 41bf 2d50 47bc bd94 763f 4d59 c0bb
000002e0: 2bb8 e63f 51aa ba3f 57c6 11bf 1c58 67bd
000002f0: 0957 41bf e195 803e 4277 b6bf 1da5 b83f
00000300: c188 7b3f 2f56 1bbf 3ade c83f 08cc b83f
00000310: 5313 9e3f 4c69 b7bf be98 8ebf 2bb0 c6bf
00000320: 1ae9 373e b30f f3be 1491 86be 2836 2b3e
00000330: 992a 90be f930 36bf 11c8 603d 472a 843b
00000340: 3ba2 cc3e c480 64be ebbb bd3e f5a0 edbe
00000350: d354 8e3d dffa 71be 269e 083e d708 eeba
00000360: cf5e edbd afc0 02be 370c f53e 2bf8 5c3e
00000370: 14f1 1c3c 00f5 c2be cb55 bc3e ffe4 8b3e
00000380: e888 95be 9acd d6be 3e76 abbd 2096 7cbe
00000390: d181 cc3e 99c4 38be 2745 363f da36 e93c
000003a0: 0b66 c13d 2fbc 94be 086b b2bc 3f90 1bbe
000003b0: 0799 07be 0cf2 1ebd 8283 373e 6bc0 063e
000003c0: 23fc e4bc f690 943e 34fd 103e 2136 a7be
000003d0: 340c 093f 767c 1b3f 1cff 033e 0bdb 573e
000003e0: ad9b 30bf fbf2 6bbe 4d0f b4be c937 2dbe
000003f0: b595 243e 0476 e13c dca1 6bbd a3dc 1cbe

bias f4 [20]
0.50527656 -0.9908529 -0.33237103 -0.33773875 -0.39777106 -0.009419721 -0.15415318 0.29079998
-0.20040548 -1.4151186 0.3517151 0.35959366 -0.029734252 0.05502083 -0.6020513 0.9164519
0.47298276 0.4516692 0.056861244 0.32781294
00000000: ce59 013f 89a8 7dbf 892c aabe 18ec acbe
00000010: a6a8 cbbe 2c55 1abc 55da 1dbe bce3 943e
00000020: 1837 4dbe 9b22 b5bf 0014 b43e a91c b83e
00000030: 3f95 f3bc 865d 613d 0920 1abf 979c 6a3f
00000040: cc2a f23e 2f41 e73e 56e7 683d 19d7 a73e

weight f4 [20, 20]
0.037752353 0.42762566 -0.01173725 0.040184133 0.13960601 -0.41325378 -0.3089817 0.32957488
-0.5772821 1.8700308 -0.29349485 -0.48269778 0.23943771 -0.23293102 0.15947773 0.021956092
-0.4773771 -0.25450677 -0.17877625 -0.038631223 0.17857864 0.5974087 0.10988314 0.16153227
0.78620493 -0.061570533 0.24482344 -0.21298242 0.33925697 1.8928803 -0.38421565 0.16934079
0.39004037 -0.16946164 -0.26564258 -0.5089006 -0.07925554 -0.071740404 -0.35932976 0.17683345
-0.22320634 0.7719389 0.5927601 0.40559 0.5628524 0.23167849 -0.36269638 -0.43900514
-0.1863372 1.9538516 -0.35203966 -0.18488587 0.28491917 -0.32442147 0.12470205 -0.49135843
-0.5168535 -0.7463216 -0.6857298 -0.28734407 -0.40822428 -0.97162104 0.6486391 0.17412286
-1.0638584 -0.4796287 -0.22000876 0.20974527 0.20842586 -2.666262 0.03889866 0.1581041
0.3432121 -0.097853675 0.34808692 -0.8331272 -0.33859503 0.9890519 -0.060208436 -0.6543428
-0.21728349 -0.6923763 0.44847926 0.22053584 -0.63378096 -0.13485569 0.11640942 0.6423703
-0.27060202 -1.9221195 -0.17924233 -0.08047797 0.7462051 -0.17725207 0.10759119 -0.3635358
-0.45902768 0.412354 0.35744053 -0.09255576 -0.34609175 0.7007749 0.1990236 0.2890256
0.23723924 -0.32048732 -0.24960469 0.028568035 -0.5323075 1.8274009 -0.25333524 -0.0859802
0.37823182 -0.6938223 0.20586644 -0.053931702 -0.13737509 0.014603795 -0.53404504 -0.080710664
0.47057602 -0.25799668 -0.039697878 0.054890543 -0.4183985 0.46772683 -0.018094812 0.31302407
-0.32078156 -1.2444434 0.23761797 0.25970575 -0.24599625 0.031470004 -0.023789877 0.24459897
-0.067121536 0.43181032 0.29744485 0.0068041086 -0.62963223 0.37383384 0.11116998 0.67793685
0.52731705 -0.17999567 0.28661126 -0.24228454 -0.114380054 2.4464533 -0.1198326 -0.75214237
-0.23291346 -0.13375792 0.24179308 -0.24094108 -0.28622207 -0.5607599 -0.05468051 -0.5222905
-0.2458035 1.3024296 0.2588136 0.5753782 0.8079818 -0.017747074 0.21259801 -0.59259826
-0.44008952 2.9080663 -0.5751482 -0.01698396 0.2910068 -0.48622796 -0.18401481 0.32838172
-0.16966699 -1.0442232 -0.55703145 -0.04824696 -0.5106497 0.8391117 0.11145038 -0.1397089
0.312593 -0.42537242 -0.009299438 0.030376991 -0.19217958 1.8575991 -0.4834779 0.14269711
0.10471796 -0.30563575 0.1466472 -0.31597143 -0.022730418 -0.7247655 -0.57706606 -0.157192
0.17414792 0.93121094 -0.08706568 -0.20705804 0.15804298 -0.3987683 0.3165778 -0.21291956
-0.036229838 2.5590684 -0.12878016 -0.2048883 -0.08176206 0.054005418 0.055379514 -0.10756223
0.12892766 -1.011138 0.10249697 0.36693862 -0.046710033 0.8430991 0.45837224 0.34361374
0.6196478 0.18243414 -0.5256374 -0.74142444 -0.15299074 2.6590662 -0.13267724 -0.05571999
0.77427423 0.060785443 0.48899513 -0.1869217 -0.78232324 -0.5007012 -0.7734363 -0.2622357
0.600592 -0.041303053 -0.35822317 -0.330694 -0.025499487 0.26409313 0.3668389 -0.13294607
0.5368734 -0.7534039 0.27353984 0.5882463 0.09961615 0.18333851 -0.39394987 0.6592723
00000000: 36a2 1a3d c0f1 da3e 984d 40bc 1e98 243d
00000010: e1f4 0e3e 0096 d3be d932 9ebe 0abe a83e
00000020: c2c8 13bf 2b5d ef3f f544 96be 2a24 f7be
00000030: 292f 753e 7885 6ebe 214e 233e 43dd b33c
00000040: c56a f4be b64e 82be 1f11 37be c63b 1ebd
00000050: 52dd 363e c7ef 183f 690a e13d b768 253e
00000060: ba44 493f 6231 7cbd ffb2 7a3e 1018 5abe
00000070: 17b3 ad3e e749 f23f eab7 c4be ac67 2d3e
00000080: 5fb3 c73e 5a87 2dbe 4e02 88be 4f47 02bf
00000090: bb50 a2bd a2ec 92bd 12fa b7be d413 353e
000000a0: 3490 64be ca9d 453f 20bf 173f 7ea9 cf3e
000000b0: 1817 103f 203d 6d3e 57b3 b9be 48c5 e0be
000000c0: 2ecf 3ebe cf17 fa3f 8b3e b4be b952 3dbe
000000d0: ede0 913e 921a a6be ca63 ff3d 5593 fbbe
000000e0: 8350 04bf ef0e 3fbf fd8b 2fbf c31e 93be
000000f0: c602 d1be 28bc 78bf 360d 263f 434d 323e
00000100: 832c 88bf e591 f5be fa49 61be 77c7 563e
00000110: 976d 553e 09a4 2ac0 3454 1f3d 0be6 213e
00000120: 7fb9 af3e 8267 c8bd 7338 b23e d347 55bf
00000130: 545c adbe 8132 7d3f 1f9d 76bd 0283 27bf
00000140: 907f 5ebe 933f 31bf 139f e53e 26d4 613e
00000150: 783f 22bf 9c17 0abe 1068 ee3d 6172 243f
00000160: 598c 8abe 0308 f6bf 4d8b 37be a2d1 a4bd
00000170: 4c07 3f3f 9181 35be c558 dc3d 5d21 babe
00000180: ad05 ebbe 1020 d33e 7202 b73e e08d bdbd
00000190: f032 b1be fc65 333f d8cc 4b3e 2afb 933e
000001a0: d8ee 723e ea16 a4be 5f98 7fbe 8307 ea3c
000001b0: 4e45 08bf 46e8 e93f 28b5 81be 6316 b0bd
000001c0: 9aa7 c13e 579e 31bf a7ce 523e 7de7 5cbd
000001d0: 0eac 0cbe c144 6f3c 2db7 08bf a24b a5bd
000001e0: 57ef f03e 2418 84be 3e9a 22bd e8d4 603d
000001f0: 5438 d6be e479 ef3e 923b 94bc b144 a03e
00000200: 7b3d a4be ec49 9fbf 2052 733e 27f8 843e
00000210: 71e6 7bbe b1e6 003d fde2 c2bc 2778 7a3e
00000220: 0477 89bd 3e16 dd3e b14a 983e 00f5 de3b
00000230: 942f 21bf 2667 bf3e 16ad e33d 458d 2d3f
00000240: 40fe 063f c950 38be b6be 923e 7019 78be
00000250: 1740 eabd b192 1c40 cb6a f5bd 678c 40bf
00000260: de80 6ebe d6f7 08be 9b98 773e 42b9 76be
00000270: b38b 92be f68d 0fbf acf8 5fbd d5b4 05bf
00000280: eab3 7bbe 03b6 a63f 3783 843e fc4b 133f
00000290: e5d7 4e3f 5062 91bc 4bb3 593e 85b4 17bf
000002a0: 6a53 e1be c21d 3a40 ea3c 13bf f221 8bbc
000002b0: d8fe 943e dff2 f8be 616e 3cbe a621 a83e
000002c0: 2fbd 2dbe 1ba9 85bf 9d99 0ebf 9b9e 45bd
000002d0: f0b9 02bf 06d0 563f 1940 e43d da0f 0fbe
000002e0: 310c a03e 6aca d9be ac5c 18bc 2bd9 f83c
000002f0: b9ca 44be cfc5 ed3f 6a8a f7be 311f 123e
00000300: 5f76 d63d 4a7c 9cbe af2a 163e 02c7 a1be
00000310: 2435 babc 3b8a 39bf 9aba 13bf f1f6 20be
00000320: d553 323e d763 6e3f 7e4f b2bd 0607 54be
00000330: 05d6 213e 5c2b ccbe 7c16 a23e 9607 5abe
00000340: bd65 14bd c7c7 2340 f2de 03be 3dce 51be
00000350: de72 a7bd c934 5d3d a1d5 623d 9649 dcbd
00000360: 9d05 043e f86c 81bf eee9 d13d 61df bb3e
00000370: 0553 3fbd 58d5 573f c4af ea3e 24ee af3e
00000380: 3da1 1e3f 04d0 3a3e 2c90 06bf fecd 3dbf
00000390: 9ba9 1cbe 242e 2a40 8bdc 07be a53a 64bd
000003a0: d636 463f 28fa 783d 925d fa3e 6768 3fbe
000003b0: 5646 48bf f42d 00bf ecff 45bf c243 86be
000003c0: 66c0 193f 642d 29bd 0769 b7be b950 a9be
000003d0: 4de4 d0bc 3737 873e 4fd2 bb3e 0423 08be
000003e0: 8970 093f 14df 40bf 6a0d 8c3e 4f97 163f
000003f0: 8d03 cc3d 17bd 3b3e ccb3 c9be 12c6 283f

bias f4 [20]
0.023260718 -0.5759061 -0.5301839 -0.35579842 -0.11120008 -0.3002285 0.8278417 -0.8792878
-0.2511706 0.09485339 0.20067286 -0.46741953 0.092299856 -0.8510392 -0.10149145 -0.005431346
-0.020817723 1.0449666 0.27047378 -0.24534371
00000000: 438d be3c 956e 13bf 22ba 07bf 362b b6be
00000010: debc e3bd 8db7 99be 6fed 533f 0119 61bf
00000020: 6f99 80be 7e42 c23d 307d 4d3e 9d51 efbe
00000030: b507 bd3d b4dd 59bf c0da cfbd 6ff9 b1bb
00000040: ee89 aabc 77c1 853f 8a7b 8a3e 623b 7bbe

weight f4 [1, 20]
-3.8321433 -3.3287768 -2.5575352 2.9605675 3.057323 -1.8160914 3.2100763 -2.6424956
-3.3171952 -5.5268207 -3.8911672 -2.8516273 2.013197 -3.0386264 -1.9145635 3.2412975
2.9102302 3.1166008 3.3571596 -2.6155398
00000000: d641 75c0 ae0a 55c0 a8ae 23c0 f079 3d40
00000010: 2eab 4340 af75 e8bf e471 4d40 a61e 29c0
00000020: ed4c 54c0 b7db b0c0 e208 79c0 1081 36c0
00000030: 38d8 0040 db78 42c0 6b10 f5bf 6b71 4f40
00000040: 3641 3a40 6376 4740 b4db 5640 0165 27c0

u_b f4 [2]
9.921032 39.96
00000000: 8cbc 1e41 0ad7 1f42

l_b f4 [2]
0.040675044 0.0
00000000: e09a 263d 0000 0000
