Iter_03/Models/Noise_5/simulation_00_10/ff_800.pt (torch, 53597 bytes, 23 tensors)

weight f4 [20, 2]
00000000: f32f 20be ce58 cb3e 5106 88bf 9722 aa3e
00000010: 32c6 32be 7d52 60bf 4f18 803f 96b7 583f
00000020: b196 67bf 7350 0ebf 9f3e c73e c6de a7be
00000030: 74e5 27be de29 a0be 08a2 9fbe 28e0 cabd
00000040: 2540 8cbf 44d7 153f c6a9 44bf ef63 07bf
00000050: f97d d1be 9223 963e ad38 f53e 27a2 59bd
00000060: 836c 093e cdc5 3cbf 5bb5 1bbf f879 31be
00000070: ac8f a7bf 0f18 87be 7008 c73f 6dc3 2abe
00000080: c4d3 353f 49b4 d8bf 93df cabe 5a45 28bf
00000090: 804d 0a3f fc7c 4b3d a34c 62be 81c7 debd
-0.15643291 0.3971619 -1.0626928 0.33229515 -0.17458418 -0.8762587 1.0007418 0.8465513
-0.9046431 -0.55591506 0.38914964 -0.3278715 -0.16396123 -0.31281942 -0.31178308 -0.09906036
-1.0957075 0.58531594 -0.76821554 -0.5288686 -0.40916422 0.29324013 0.47894803 -0.053133156
0.134203 -0.7373932 -0.608236 -0.17331684 -1.309072 -0.26385543 1.554945 -0.16676112
0.71026254 -1.6930019 -0.396237 -0.6573082 0.54024506 0.04967974 -0.22099547 -0.10877896

bias f4 [20]
00000000: 82b0 4f3e adb6 0d3e 87d6 513e 681e 66bf
00000010: b851 7c3f 77be 97be 6163 a63e 9ece 403f
00000020: 6110 303f a16d 0d3e ecab 993d 62eb 3ebf
00000030: 77dd 8dbf 30a6 443f b413 023f 8782 c0bf
00000040: c665 1dbd 70d7 d8bd 2eaf dcbe 8087 bbbd
0.20282176 0.13839217 0.20491992 -0.89890146 0.9856219 -0.296375 0.32497695 0.7531527
0.6877499 0.13811351 0.075034946 -0.74577916 -1.1083211 0.7681608 0.50811315 -1.5039834
-0.038427137 -0.105879664 -0.43102401 -0.09156704

weight f4 [20, 20]
00000000: b7cc a23e 97c7 0e3f 480f 683e 0110 59be
00000010: 8bd3 e8bb fd6d 99be 8a07 5f3e 5ebf d4bd
00000020: 30b5 573e b1d6 413f f55f bd3e 857a 6f3d
00000030: ac12 013f 1bc1 df3e 6db4 ff3e 9e59 b9be
00000040: 190b 72be e595 233f 48dc 26be f7ff 043e
00000050: da01 a63e 30f7 773e 5397 1c3e c45e 08be
00000060: 885d 48be ae89 1ebf c271 a1be eba8 90be
00000070: fd7d 453e accd 7f3d 6294 e8bc 22c9 02be
00000080: f8a7 76be 894c a13e 0b70 adbe 1be4 413d
00000090: 14f8 1abe def0 e23e 9898 a4bb 98cc 9cbd
000000a0: 295b a93e c749 6f3e 81c3 e6bd 4289 23bf
000000b0: c231 283f 0102 03be fd92 ecbc 14a7 543e
000000c0: ee7b 4d3e 9922 17be f90b 43be c17d 283e
000000d0: d45b 6cbe 67bc a93d 7ab0 163d daaf 0ebe
000000e0: d62e f63c 3637 033e c3b3 2b3b 82cd e3be
000000f0: 260c 9c3e be72 03bc cb4c fdbe d640 c33e
00000100: 04b0 ac3d d2df 003e 74b9 8fbe 6648 243e
00000110: 74fb 1cbc 0876 38bc ba52 283e e9ac f03d
00000120: 37d8 7c3d 1635 963b f6e7 ba3b 37c2 38bd
00000130: 7ab5 2fbf 7db3 b6be 2184 273e efe0 2a3e
00000140: 0b1b bf3e 4199 2d3d 87d4 05be 58cd cc3e
00000150: c65b b8be c81d 84be 4f88 cf3d f45a ab3e
00000160: 7b8d ce3d 2525 23be 0ec5 383e 973c 17bc
00000170: 1f96 42be ef06 7abe 65b3 1ebe 981d aa3e
00000180: 4106 0bbf fdc4 81be 439f 2a3c ef1d 8e3e
00000190: e6a6 e5bd 728b bf3d 79a2 6a3e 6ed5 13bc
000001a0: 31c5 4f3e a7d1 a13e 626b 4dbe 0237 9ebd
000001b0: a09a 883d 4400 60be 285b c73d 432b 53bd
000001c0: e074 85be 076f 99be 74c1 223f ad66 c93d
000001d0: 870c d7be 422e 82bd dcb9 263e 4f66 a43e
000001e0: e4a4 c3be 7b08 943d 198d 99bd 8431 263d
000001f0: 5b70 f0bd 86d5 0abf 2eff 2b3e a7b7 703d
00000200: c1e7 893e a84b 85be 4fad 603e f05a 23be
00000210: b674 103d 183a 14bd b651 b93e e5d7 153e
00000220: 9023 82bd 321f 95be a302 223d d6da 33be
00000230: e55f 873e dcff 0d3f bae0 083e fff3 363e
00000240: 10f8 893d 14dc c4bd a1e1 aebe 73b9 84bd
00000250: 7901 663d c044 ecbc ed97 dc3d a9cc 233e
00000260: 59fd 723e dd07 54be 365b 39be 39dd 8ebe
00000270: 720a 48bf 661b aebc f1fb 10be 14a8 623e
00000280: e1a4 f8bc 593e c2be c963 29bf acb7 223f
00000290: e247 3bbe 00df 3b3f dcfb 1fbf f92c 493c
000002a0: 0147 2fbe fdf0 24bf f193 743d b652 bb3e
000002b0: 19be d33e eb9c 51bf f12e 893e a459 693f
000002c0: efc0 963f efb1 25bf 6bf8 b63e 2683 9fbc
000002d0: 1208 dd3d 0e45 153e af1f f13e 30b9 35bb
000002e0: c5e5 053f 9c2b 2e3e f658 783e a911 d23d
000002f0: 12f8 c83e 5014 833e c0f3 d53d 8c5e 97be
00000300: c4dc 36bd 9494 c93e 7232 f1bd 3276 b2bd
00000310: ff5d cd3e d2a4 e23d 4eca 7fbe 176a 073d
00000320: 5f3e 053e 1a77 d43e 7674 12bf 8898 373f
00000330: ef23 a8be ac87 aebe 05b8 a7be cf03 2cbe
00000340: 4b0d 703f 3b7a 16bf 1367 ff3d 3cee debd
00000350: dad6 0ebf 1aaf aabe 7cc3 6937 b3dc b4be
00000360: cb72 86bf afe6 b5bd 84fd 0e3e c511 39be
00000370: 1676 dbbe 5b61 0b3e c4ba 0f3e be48 c23e
00000380: 6bb3 b5bd da1b 133e 5c64 5bbd 5c3a 0bbe
00000390: b388 4bbe abe3 683e 1057 b73d df43 043f
000003a0: b3f6 45bd ab53 7ebe 5c4f 8b3e c610 09be
000003b0: 5cdc 183e ffc6 31be 85fe 803e 830e 6f3d
000003c0: 811c cabe f337 4b3d 108f 173e 0238 fdbd
000003d0: c93d 56be 6a37 f73e 1067 99bd 813c a8bd
000003e0: 33dd 5c3d 90a8 0b3e 79d6 1cbe 01ca 8f3e
000003f0: 3792 8c3e 10c5 44be 5f05 8c3d c1b6 533e
0.3179681 0.557733 0.2266208 -0.21197511 -0.007105296 -0.29966727 0.2178022 -0.10388063
0.21065211 0.7571822 0.36987272 0.058466453 0.50419116 0.43702015 0.4994234 -0.36201185
-0.23637046 0.63900596 -0.16294968 0.12988268 0.32423288 0.24215388 0.152921 -0.133174
-0.1956693 -0.6192883 -0.31532103 -0.28253874 0.19286342 0.062452003 -0.028391067 -0.12772039
-0.24087512 0.31503704 -0.33874545 0.04733668 -0.15133697 0.44324392 -0.0050230734 -0.07656211
0.33077362 0.23367988 -0.11267758 -0.63881314 0.65700924 -0.12793733 -0.028878683 0.2076686
0.20066807 -0.14759292 -0.19047536 0.16454221 -0.23081905 0.08287888 0.036789395 -0.1393427
0.03005163 0.1281403 0.0026199676 -0.44492728 0.3047802 -0.008022962 -0.4947265 0.38135403
0.0843201 0.1258538 -0.28071177 0.16043243 -0.0095814355 -0.01125861 0.16437808 0.1175173
0.061729636 0.004583965 0.0057039214 -0.045107093 -0.68636286 -0.35683814 0.16358997 0.16687368
0.3732532 0.042382482 -0.13069354 0.40000415 -0.36007518 -0.2580397 0.10133421 0.3346783
0.10085579 -0.15932138 0.1804392 -0.009230754 -0.19002579 -0.24416707 -0.15498121 0.33225703
-0.5430642 -0.25345603 0.0104139475 0.27757213 -0.11213474 0.09352769 0.22913541 -0.009023054
0.20290066 0.31605265 -0.20060495 -0.07725336 0.066701174 -0.21875101 0.097341835 -0.05155493
-0.2606573 -0.2996752 0.63576436 0.09834037 -0.42001745 -0.06356479 0.16281837 0.32109305
-0.3821174 0.0722818 -0.07497615 0.040574566 -0.1174018 -0.5423206 0.16796562 0.058768895
0.26934627 -0.26034284 0.21941112 -0.15952659 0.035267554 -0.036188215 0.36195153 0.14633138
-0.06354439 -0.29125363 0.039553296 -0.17563948 0.2644035 0.55468535 0.13366976 0.17866515
0.06736767 -0.09612289 -0.34156516 -0.06480684 0.05615375 -0.028841376 0.10771165 0.1599604
0.23729457 -0.20706125 -0.181012 -0.27903154 -0.7814094 -0.021253299 -0.14158608 0.22134429
-0.030352058 -0.37938192 -0.66167885 0.6356151 -0.1828914 0.73387146 -0.6249368 0.012278789
-0.1711693 -0.6443022 0.0597114 0.3658654 0.4135597 -0.8188006 0.26793626 0.91152406
1.1777629 -0.6472463 0.35736403 -0.019471716 0.10792555 0.14577124 0.47094485 -0.0027728789
0.52303725 0.17008823 0.24252686 0.10257275 0.39251763 0.25601435 0.10446882 -0.2956432
-0.044644132 0.3937117 -0.117772 -0.0871395 0.40110776 0.11066593 -0.24979517 0.03306016
0.13012074 0.41497117 -0.57208955 0.7171712 -0.32839915 -0.34087884 -0.32757583 -0.16798328
0.93770283 -0.5878026 0.12470832 -0.10885283 -0.5579659 -0.33336717 1.3933397e-05 -0.3532463
-1.0503782 -0.0888189 0.13963896 -0.18073185 -0.4286353 0.13611357 0.14036089 0.37946123
-0.08872112 0.14366093 -0.053562507 -0.13596481 -0.19876365 0.22743098 0.08952153 0.51666063
-0.048330974 -0.24836604 0.27208984 -0.13385305 0.1492781 -0.17361067 0.25194183 0.05836345
-0.39474872 0.049613904 0.14800668 -0.12364198 -0.20922007 0.48284465 -0.07490361 -0.08214665
0.05392189 0.1363852 -0.1531619 0.28083804 0.27455303 -0.19215798 0.06836962 0.20675184

bias f4 [20]
00000000: fb4a b73e 0677 d43e 3ab9 4d3e ac56 343e
00000010: 0a5d cf3e bea1 c0bc 518f 53bd 57de 683e
00000020: 0052 e8bf 0ddd 263f acdb dcbd 5cac 073e
00000030: a2b4 88bf edc2 e2be 30e8 81bf ae3a b3bd
00000040: 5c52 de3e 4e8a a3bf d3cd 313e 6142 d23e
0.35799393 0.41497058 0.2009019 0.17611188 0.4050067 -0.023514625 -0.05165035 0.22741066
-1.8150024 0.65181047 -0.107840866 0.13249344 -1.0680125 -0.44289342 -1.0148983 -0.08751427
0.4342221 -1.2776582 0.17363672 0.41066268

weight f4 [20, 20]
00000000: 5109 963e 0ac8 b2bd c2b2 233e b6b1 d2bd
00000010: 5fba 6e3d aeab 19be afa7 323d be18 963e
00000020: 0924 84bf c9da ae3e 193e 853d 8730 e63e
00000030: 510c 8f3d 95d6 46bc c955 523d 4eec d9be
00000040: 30e1 8f3e ed35 94be 0bb6 5c3e e026 b4be
00000050: 275a 113f d0eb b23d 0e79 013e c72d babd
00000060: 1944 db3b 1c95 6c3e 5b4c 3c3e 4f33 b2bd
00000070: 53b0 f4bc 7488 a83e eadc 69be a3b0 cd3e
00000080: fe12 8fbd eb3a 773c 310c 37bd 246b 8f3e
00000090: 3bab 20be 210b b43e c041 ba3e 293f 8439
000000a0: 1e36 2cbe 5ada fdbd 39df 2d3d 61a7 13bf
000000b0: 37da f1bd 4161 f53d 6a75 763d 87b1 12be
000000c0: 8bbe 583e cebb 853e 8769 79bf 87ad c5bd
000000d0: 25c7 643d 29db cb3d 5fdd 313d 7768 103f
000000e0: d35d d33e 715d 873e 0f45 afbe 1a16 033e
000000f0: d7b6 843e 470d be3d 9fe8 47bd 0db6 c5be
00000100: d30d a6be dde4 83be 9344 43bf 8d83 c5be
00000110: 4afc 00be b63d a0bc 0f90 f2be 7fdd 243e
00000120: f964 5cbd 507f bcbc 9f86 fcbd be49 a13e
00000130: 2dc4 08bd 8614 a4bb f049 433e b186 e23e
00000140: 221c b53e 562d b83c 4283 46bd 6174 34bd
00000150: 5e6c 023f 89ca c4be 8ecc 97bd 5671 24be
00000160: 8d33 41bd 9211 283d 5704 06be 6f2d 8ebe
00000170: d801 78be 5d0f 32bf 24b6 d63e c8c7 4ebe
00000180: 975a adbe 0942 f1be 7f2b 693e 8887 9e3d
00000190: e0de 8ebe 6f49 38be 5451 13bd 1d6c 8c3c
000001a0: 91a2 9fbe e554 bebc c6e4 153e 13b4 8cbe
000001b0: efa3 ec3e a8ed c9bd a813 91bd 100d 13be
000001c0: eb0d d53e 0333 683e 73b6 213f ceb7 673c
000001d0: 19c4 e43d 9977 7f3e 629e 5b3d 19e9 efbe
000001e0: 5289 eb3e c987 543e 8580 62bd af78 013d
000001f0: 92cd d33e e0b3 32be d095 2cbe 4cbc 863e
00000200: 07f8 09bf 8460 1d3e afdf dd3e bcc8 803e
00000210: f2d5 92be b7de 2a3e 385a dbbe a14f bcbd
00000220: 4e9b 99bd d101 56bf cae3 44be 6f55 b7bd
00000230: 6ab8 50be 816b 723d 1db8 4ebd 5596 803e
00000240: efba 2cbe 5a11 a5bc f9ec 65be c841 833e
00000250: d2b4 093f f151 8c3d 8730 813c 9512 28be
00000260: e201 a6bd ad42 06bd 9c47 273e f7e3 993e
00000270: d183 293d 7a25 e23e 352d 34bb 79e4 dd3d
00000280: 40b6 87be 2e8a 0ebe dfb5 c7be 19c1 fb3e
00000290: 4665 673e 3343 0d3e 5074 d63c 69ff 15be
000002a0: e9f1 603e 1965 8dbd b63f a43d 7a6f 823e
000002b0: 30bd 69be 7bac 9dbe 98b9 a53e 59cd dd3b
000002c0: 2b1b 82ba 74dc 21be 371d 183e b888 aebe
000002d0: f831 bb3e f1f1 92be 4289 24be 7de6 29bc
000002e0: 2930 c6be d9f0 c33e 7f3f c8be 5128 953d
000002f0: f8d2 113e da83 96bb b465 28be 05bb 2f3e
00000300: 9f6a cb3c 9fe1 29bb 3b52 edbd d0d2 e83e
00000310: 8502 b93d 0492 983e 0175 263e dc0e 18be
00000320: 2dc5 153e a04b d83d da03 ba3d 5cb3 c2bd
00000330: 6b0c 903e d606 f63c b573 ec3d f0d6 f6bd
00000340: 1d0c 86be a484 6e3e 6f1c d5bc 3898 4f3e
00000350: 4b5f 20be e2d5 ab3d f1c5 cdbe 43d6 81bd
00000360: b355 2b3b ad81 0ebf 27b3 70be eceb b0be
00000370: d83c d33c 59fd 8f3d 1696 dbbd 708a 7bbe
00000380: 22f1 473e 5078 8bbe d828 59bc 3995 1dbe
00000390: 590d c2be 5b05 3e3e 473b bcbe 770c 92bc
000003a0: d7e5 983e 45d0 8e3e 537d c2bc 51dc 8b3e
000003b0: f521 2a3d ade1 373f 5c9d 51be 871b 2e3d
000003c0: 9dae e0be b1c9 0a3e b840 83be 4dd0 a7bc
000003d0: c21b 7e3e 4a86 b3be 5f0d c33c a4c7 8c3e
000003e0: 659c 083c 3367 943d 966f 633e 3390 11be
000003f0: fc67 b1be 5c1f edbe cab1 603e d27e 3ebf
0.29303983 -0.08729561 0.1598616 -0.10287802 0.058283206 -0.15006897 0.043616947 0.29315752
-1.0323497 0.34151295 0.06505985 0.44958898 0.06984771 -0.012136121 0.051351342 -0.425631
0.28101492 -0.28947392 0.21553819 -0.3518591 0.56778187 0.08736384 0.12643835 -0.090907626
0.0066914675 0.23103756 0.18388502 -0.087011926 -0.029869234 0.32916605 -0.22838178 0.40173826
-0.06986044 0.015089731 -0.04468936 0.2801143 -0.15690319 0.3516474 0.36378288 0.0002522406
-0.16817519 -0.12395163 0.04244921 -0.57677275 -0.11809199 0.1198144 0.06017057 -0.14325534
0.21166436 0.26119846 -0.97426647 -0.09652238 0.05585398 0.09953911 0.043424007 0.564094
0.4128252 0.26438478 -0.34232375 0.128014 0.25920746 0.09279876 -0.04880583 -0.38615456
-0.32432422 -0.25760546 -0.7627651 -0.38576928 -0.1259624 -0.019560676 -0.47375533 0.16100119
-0.053807233 -0.023009926 -0.123303644 0.31501573 -0.033390213 -0.0050073294 0.19071174 0.44243386
0.35373026 0.022482555 -0.04846502 -0.0440563 0.50946605 -0.38435772 -0.074120626 -0.16058859
-0.047168303 0.04103238 -0.13087593 -0.27769038 -0.24219453 -0.6955469 0.41935837 -0.20193398
-0.33858177 -0.47120693 0.22770499 0.07740694 -0.27904415 -0.17996763 -0.035966232 0.017141396
-0.31178716 -0.02323384 0.14638051 -0.27481136 0.4621882 -0.098597825 -0.07083827 -0.14360452
0.4161218 0.2267571 0.6316902 0.014142944 0.11170215 0.24947967 0.053617842 -0.46857527
0.46003205 0.20754923 -0.055298347 0.031609233 0.41367775 -0.1745143 -0.16854024 0.26315534
-0.53894085 0.15368849 0.4333472 0.25153148 -0.28678852 0.16686521 -0.4284227 -0.091948755
-0.07500325 -0.8359652 -0.1922752 -0.08951842 -0.20382848 0.059184555 -0.050468553 0.25114694
-0.16868185 -0.020149875 -0.22453679 0.25636125 0.53791535 0.068515666 0.01577021 -0.16413338
-0.08105828 -0.03277843 0.1633591 0.30056736 0.041385476 0.44169217 -0.0027492766 0.10834593
-0.26506233 -0.13919899 -0.39005944 0.4917076 0.22597227 0.13795166 0.026178509 -0.14648212
0.21967281 -0.069040485 0.080199644 0.25475675 -0.22826076 -0.30795655 0.3236816 0.006768864
-0.000992631 -0.15806752 0.14854895 -0.34088683 0.3656156 -0.28700212 -0.16067985 -0.010369894
-0.38708618 0.3826969 -0.39110944 0.0728308 0.14240634 -0.0045933546 -0.16445047 0.17161186
0.024831114 -0.0025921834 -0.1158795 0.45473337 0.09033684 0.297989 0.16255571 -0.14849418
0.14625998 0.10561299 0.09082766 -0.09506866 0.28134474 0.030032557 0.11545507 -0.12052715
-0.26181117 0.23292786 -0.026014535 0.2027291 -0.15661351 0.08390404 -0.4019008 -0.06339695
0.002614361 -0.5566662 -0.23505841 -0.34554994 0.025785848 0.07030744 -0.10721986 -0.24564528
0.19525579 -0.2724023 -0.013254367 -0.15388955 -0.37900808 0.1855673 -0.36763975 -0.01782821
0.29862854 0.27893272 -0.0237414 0.27316526 0.04153629 0.7182873 -0.20470184 0.04250672
-0.4388322 0.13553502 -0.25635314 -0.020485068 0.24815276 -0.35063392 0.023810087 0.27496064
0.008338069 0.07246246 0.22210535 -0.14215164 -0.34649646 -0.46312988 0.21942821 -0.7441226

bias f4 [20]
00000000: ead3 7a3e fae3 f93e 2377 d1be 1ee1 a2be
00000010: be17 173f 7c8f c6be 3a47 7b3f 27f0 02bf
00000020: 9842 f1bd 3fbc 64bf b747 163f d32e 52be
00000030: 7a4d a43e a2fe 253c dc23 00bf 7112 8b3f
00000040: e447 763f 3ed2 b63e b673 4fbe 35c9 07bf
0.24494901 0.48806745 -0.40911207 -0.31812376 0.590206 -0.38781345 0.9815556 -0.51147693
-0.1178028 -0.8934974 0.5870318 -0.20525675 0.3209036 0.01013151 -0.5005472 1.0865003
0.96203446 0.35707277 -0.20258984 -0.5304139

weight f4 [20, 20]
00000000: 4e3b 423e 2566 923d 60c8 013e af36 2dbe
00000010: 393d 0c3f 2167 27be a543 ca3e 2203 dbbe
00000020: 46cd 983e f161 533c facb 8f3e 0162 8cbd
00000030: 1f7b a73e 2e4f a43e 28cb a2be 953a 213f
00000040: d6b6 533e 5c4e 023f 073d c13d 0d46 18be
00000050: f065 8c3d 7c26 e5bd 63db 9ebe 04b4 1f3e
00000060: f2d4 7f3d 6da9 e23e 90e9 a13e e846 fd3d
00000070: e150 4cbe bd33 a23e f4a9 d0be 4cc5 7bbe
00000080: ad59 ebbe 89db 0c3f 93a0 46bd 1f7e eabe
00000090: 91df 7e3e a3a0 5e3e 7198 74be 8b97 833e
000000a0: c656 2ebf 2f0c fabd 3ff7 0b3f 7d63 993d
000000b0: b7f4 d2be 2899 413f 6e6e 32bf d9a8 393f
000000c0: b72f 363c 69ff 4d3f 80bb e5be 8bb7 593e
000000d0: 6846 37bf 8ef1 12be 4792 223f 970e a4bf
000000e0: 611f ecbe f4e6 e7bd 5bd5 233f cfdd d33e
000000f0: 65a7 60be ca8a a6bd 0809 2a3b 126b 823e
00000100: 6d62 25bd 04fe e3bc a822 e13d 3c50 5f3e
00000110: be28 84bd d303 523e 8c0a 773e 6259 d9be
00000120: a573 89bd f684 923e 9fcc b13d ef77 33bd
00000130: a468 6dbe 51a1 c73e 71ea 2c3e 0c73 f0be
00000140: 96f4 663e 0dc9 35be b9b0 50be c5a5 e63d
00000150: fb9b 253e 61d3 a93e 9a76 2ebe 4cd5 0f3e
00000160: c163 c0bd 2de2 4bbd 8ead b13d b672 153e
00000170: 51e3 95be 3336 503e 3b7f 9c3c 98ec 8abe
00000180: 290b 8bbe febf 02bf 9dd8 a4be 8347 3f3d
00000190: f7a3 72bc 8c11 263e 510a f23d f71d 1e3d
000001a0: 4001 963e b7e9 0dbe 94ee 98be fea8 63be
000001b0: d7e3 753e 39bb 17be 9889 90bd 9a58 90be
000001c0: c3c1 953d 20b7 1a3e 38a5 2dbf 4104 a73e
000001d0: b3a7 53be 7e62 303e 39be 923e fb66 6e3d
000001e0: 51f9 c9bd 1bbb bc3e b9a9 db3d 7663 2c3d
000001f0: 7bd2 c0be 54c0 e93e f395 663c 6622 ef3b
00000200: 8e7f aabe 5774 d03e 241c 55be ea28 99be
00000210: 071c fe3c 9950 63be 67b9 ba3e 36a9 9cbd
00000220: 0bb9 ee3e 9c99 2cbe 144b 043e da2a 8fbe
00000230: 981b 13be 77dd 25be 29bb 07bf d4d4 5a3e
00000240: dfbd 1bbf 2007 773e 1b91 d93e 4a03 aa3d
00000250: 17f5 14bd 5a9e 44be f6af 003f 8759 cfbe
00000260: 2b12 f63e 79fe 96be 6892 a7be 77b5 d73e
00000270: 91d8 1a3d be98 1ebe 2e4e 15bf e8a3 5ebe
00000280: 9c20 a63e d8bd 6dbe 621f fdbe e833 edbe
00000290: 0b88 813e faca 973c 839d 0ebc c304 16be
000002a0: efb1 173e bc67 8cbe d93b 9f3d 6dbf cdbe
000002b0: ef1a e53e 40ac de3c 8d6a 933e 8e3d 5bbe
000002c0: a982 ba3d 94e3 54be f360 ba3d 3367 c8bb
000002d0: c178 9d3e b10a d63d 230c 993d da0c 6fbe
000002e0: 50c6 b9bd b9ff 0bbe 60c4 32be db7a 0c3e
000002f0: 1c3b ebbc b9ae 8a3e 2717 6abe 82f1 22be
00000300: 5437 b2be 9014 3c3e 00f6 b63e 6f4f 9ebe
00000310: 5a21 f4bd 32c6 c8be 9a25 3cbe 3dd0 2d3d
00000320: 9f1b 993d fdd5 143f bc64 403e b273 f23e
00000330: 8f86 1d3c 6797 863d e9ca b5bd 3772 38be
00000340: a835 153e 43c0 253e 6d54 b2bd bfcd 6e3d
00000350: 093c 8f3d 9f75 b83e 6b4c 06be 1a43 49bb
00000360: 6a2e c3be 8573 23bf 6744 54bc d841 14be
00000370: 8890 083e 67b4 963e 1b5c e5bb 1f22 a13d
00000380: 410b d1bd 2939 6c3e d3b5 a33d b26a 09be
00000390: 6b0d 02bf dd5b 8fbd 338e afbd 05cb f8bc
000003a0: 0826 9bbe 057d 16be 450a 333d d9a9 313e
000003b0: 6f49 a73d 2792 54bc 0e9e 1abe cd3d e43d
000003c0: 5407 6e3e 19dc 023c 3d4d 143d 3620 533e
000003d0: 2529 f5bd e4e1 66be edab 123e 97d0 9cbe
000003e0: babf f53d 174e b73d 83b1 ae3c de7c ffbc
000003f0: 26b6 63be 93e7 12bd d8b5 9e3e 61a4 193f
0.18967935 0.07148389 0.12674093 -0.16915391 0.5478092 -0.16347934 0.39504734 -0.42775828
0.2984411 0.012901769 0.2808531 -0.0685463 0.3271112 0.3209166 -0.3179562 0.62980014
0.20675215 0.50900817 0.09435468 -0.14870472 0.068553805 -0.11188981 -0.31026754 0.15596014
0.06245894 0.44269887 0.31623507 0.1236704 -0.19952728 0.31680098 -0.40754664 -0.24586982
-0.45966855 0.55022484 -0.04849298 -0.45799348 0.24889971 0.21740966 -0.23886277 0.25701556
-0.68101156 -0.12209355 0.5467414 0.07489679 -0.41202328 0.7562432 -0.6969975 0.72523266
0.011119775 0.8046785 -0.44869614 0.21261422 -0.71591806 -0.14349958 0.6350445 -1.2816952
-0.4611769 -0.11323348 0.6399743 0.41380164 -0.21938856 -0.08131941 0.0025945324 0.25472313
-0.04037707 -0.027831085 0.10992938 0.2180795 -0.064530835 0.20509271 0.24125117 -0.42451006
-0.067115106 0.28617066 0.086816065 -0.04381555 -0.23184448 0.38990262 0.16886307 -0.46962774
0.2255424 -0.17752476 -0.20379914 0.11262087 0.16172783 0.33169082 -0.1703743 0.1404621
-0.093940265 -0.049776245 0.08675681 0.1459454 -0.2927499 0.20333175 0.019103637 -0.27133632
-0.27156952 -0.51074207 -0.32196513 0.04669906 -0.0148096 0.16217631 0.11818374 0.038602795
0.2929783 -0.13858686 -0.2986952 -0.22232434 0.24012695 -0.14817514 -0.07057494 -0.28192598
0.07312348 0.15108919 -0.6783023 0.32620433 -0.20669441 0.17225072 0.28660753 0.05820368
-0.098620065 0.368615 0.107257314 0.04208704 -0.37660584 0.45654547 0.014073837 0.007297802
-0.33300442 0.4071376 -0.20811516 -0.29914027 0.031019224 -0.22198714 0.36469576 -0.07649462
0.46625552 -0.16855472 0.12919265 -0.2796238 -0.14365995 -0.16197763 -0.5301996 0.2137025
-0.60836595 0.24123812 0.4249352 0.083014086 -0.03636655 -0.19201031 0.50268495 -0.4049799
0.48060736 -0.29491022 -0.32728887 0.42130634 0.03780419 -0.15487954 -0.5832242 -0.21742213
0.32446754 -0.23216951 -0.49438006 -0.46328664 0.25299105 0.018529404 -0.008704546 -0.14650254
0.1481397 -0.27422893 0.07775087 -0.4018511 0.4474711 0.027181745 0.2879223 -0.214102
0.09106953 -0.20789939 0.09100523 -0.006115818 0.3075619 0.10451258 0.07473018 -0.23344746
-0.09071028 -0.13671769 -0.17457724 0.1371874 -0.028714709 0.27086428 -0.22860394 -0.1591244
-0.34807837 0.18367219 0.35734558 -0.30919978 -0.11920424 -0.3921371 -0.18373719 0.04243492
0.074759714 0.5813902 0.18788427 0.47353894 0.009614601 0.065718465 -0.08876593 -0.1801232
0.1457125 0.16186623 -0.08707509 0.058301684 0.06993873 0.36027238 -0.13115089 -0.0030710162
-0.3812135 -0.63848144 -0.0129557615 -0.14478242 0.13336384 0.2943451 -0.006999505 0.07867836
-0.10207225 0.2306868 0.079936646 -0.13419607 -0.50801724 -0.069999434 -0.08572044 -0.030370245
-0.30302453 -0.14696129 0.043710966 0.17349948 0.08168303 -0.012974299 -0.15099356 0.111446
0.23244983 0.007987046 0.036206473 0.20617756 -0.11970738 -0.22547108 0.14323397 -0.3062789
0.119994596 0.08950441 0.021324879 -0.031187471 -0.22237453 -0.035865378 0.3099811 0.6001645

bias f4 [20]
00000000: d92b 173f 9cd0 c93e 48ba 6ebf c44d 0bbd
00000010: 2182 aebc df48 cdbe 5aa2 7c3d e60a 103f
00000020: 0a2c 843e 56d4 bfbd a241 bfbe 944c bc3e
00000030: 2f52 f83e c53d d93e 9b96 3d3e 35a2 2fbe
00000040: 6cdb 25be f1f9 f93d ed8f ecbe 5766 173f
0.5905128 0.3941697 -0.9325299 -0.03400971 -0.021302285 -0.4009466 0.061678268 0.5626663
0.2581485 -0.09366672 -0.3735476 0.36777174 0.485002 0.4242994 0.18514483 -0.17151721
-0.16196984 0.12205876 -0.46203557 0.59140533

weight f4 [20, 20]
00000000: f0ad 883e 22ed 7e3e 5e40 8f3d 56e4 a83a
00000010: 8b34 8a3e 86e0 293d d023 79bd b923 883d
00000020: e4a0 e93e 2e1b 003e 1426 963a aece 2f3e
00000030: 2b7d 3f3e 03d5 0dbd 0cae 383e 4ceb 45be
00000040: 4245 813e 25d8 b7bc ba40 fdbd 94a8 2dbe
00000050: 78d8 123e 3816 293d 582a a23e d58f a43d
00000060: 8267 123e 77cc 82be c6ed 843d 4517 5f3c
00000070: 921d 203f f196 04bf 0ba5 b5be b3c7 c9bd
00000080: 65d8 123e 99f4 2c3d dc92 50be 024b 6dbf
00000090: fb12 37bd cd64 1d3f c4bc f73b 8e71 553e
000000a0: b3bc b23e 6962 ff3e 6c23 d63c 8173 be3e
000000b0: 5750 60be 8138 d7be 2cd4 7c3e c526 963e
000000c0: 540a 9a3d bfbf 32be 7eec a9bd fa4c 4b3e
000000d0: 6e38 223e 697a ec3e 1f1b 0cbe c164 b5be
000000e0: 8b7f b1bd 74d6 5fbd 6103 1dbf e878 9d3e
000000f0: 4899 5ebe a08c d03e e502 be3e fb41 e03c
00000100: a46e 203e 95b2 87be 1fa7 433d 3df3 943c
00000110: 26e0 a2bd 8ca2 123d 8355 acbd c8b1 ecbd
00000120: b226 5a3e 805f 163e 6a48 823c ef25 0d3e
00000130: ebc0 71be 610c 013f 0c18 003e 5a12 5e3e
00000140: 8621 61bf 256d d93c 1568 a93f 4186 b5be
00000150: a17d f1be 1962 cf3d c84e 4e3d 533d 10bf
00000160: e6c4 b43d a46c 343f 24f4 d83e 748f 94be
00000170: 1596 92bf f608 bdbe 97b0 5dbf f375 a4bd
00000180: 783f b1be 5925 d13e 2df2 da3c cb34 f4be
00000190: 319d 98be 6008 eb3c d8b6 283e a23b 9ebd
000001a0: 8890 773e a09c 203c 60b9 a5be b6ec 933c
000001b0: c070 d93d 6aad 38be 82c3 9cbe 958b aabe
000001c0: dd81 12be e69c 633e df6c a9bd 8f71 c93e
000001d0: 9686 fdbd 35ab 08bd 4c5a c8be 6ab0 32be
000001e0: 099b 943e f099 0d3d 9fce 013e 2bc9 a73d
000001f0: 99a4 97be c524 f53c ab98 a2bc 0b62 a73e
00000200: 28fe 513e 4c04 07be 1362 d8be 2482 a23d
00000210: 1190 013e 3672 e73d ff57 3b3e 0093 67be
00000220: d1ef 053e 397b 323e c12c 88be a6c4 6a3e
00000230: 59f5 3cbf 6053 f4bc 6c15 603f b7ac c5be
00000240: 3104 85be 7f04 d4bb 7839 fc3d 351f 90be
00000250: cf75 25bd dcce 4f3f 2184 e73e 9334 bdbe
00000260: 9927 cabe 7cda 91be 1e28 f2be f67c 88be
00000270: 729e c6be ad9c 513e 4f29 ff3d 07ee 4cbe
00000280: 03e7 b0be 051a 79be b67c f53d d58a 34bd
00000290: 8e3d 96be e00e 83be 049f 8ebd 01e9 e7be
000002a0: 1dfe 05be bc40 e53e bb5f 7f3e 4ff8 b6be
000002b0: 91a5 debe 1e89 b63e 8907 65be 8e44 90bc
000002c0: 498e aabe b7ad 42bd d146 503d 75b3 89bd
000002d0: 4587 36be b477 f63e 0048 183f cd7e 6c3c
000002e0: 501e 803d 18eb 1abd f057 32be 800c c43e
000002f0: 6f4f e33d ca36 c33d 0e4b 793e 5288 17be
00000300: 8b28 dfbe 5969 c53e 1f5a 10be a11b 81be
00000310: 55a3 0dbe 25c3 283f 28c1 ac3d 5864 153e
00000320: 5073 4f3d 3408 9fbe 00d6 fb3d 3d0d 8a3e
00000330: 31e9 47be fe4a bd3e d143 58be 0162 83be
00000340: 7253 a23d 8857 f6be 8cf4 563e 93ef 0fba
00000350: ed1f 9dbe ad3d 01bd b0e6 b0be 85d2 943e
00000360: 3ccf 823e ec60 40be c734 953e cefe 89be
00000370: 9ac0 9dbe 3a20 4dbd fab3 5ebe 8223 843e
00000380: f5bc 8fbe f274 433d 616b 4ebe bf0b 183f
00000390: 739e 11be 53cc 9abe f8d2 d3bd fb7b 0b3e
000003a0: 4288 d53e 8b00 653e 7ac5 353e a8b0 cc3b
000003b0: 3758 0d3e bb7d 15be b1a6 3ebd beaa edbc
000003c0: 4563 58be 9c05 90be 3cfe 01be 3914 3ebe
000003d0: 3f2d c0be ac28 cd3e a5fd 6dbe 7bb5 11be
000003e0: 5a47 fc3d 395c dcbd 06e0 69bc a8a4 92bd
000003f0: 8eba 0bbe 3734 843e 46d3 50be 3484 753d
0.26695204 0.24895146 0.06994699 0.0012885432 0.26993212 0.041473888 -0.06082517 0.066474386
0.45630562 0.12510368 0.001145544 0.17168686 0.18700092 -0.034626972 0.18035144 -0.1932804
0.25248152 -0.022441933 -0.12365861 -0.16958839 0.14340389 0.041280955 0.3167293 0.08035246
0.14297298 -0.2554662 0.06490664 0.013616388 0.6254512 -0.5179282 -0.3547748 -0.09852543
0.1434036 0.042225454 -0.20368522 -0.9269258 -0.044695836 0.61481935 0.0075603444 0.20844099
0.3490959 0.49879768 0.026139937 0.37197497 -0.21905647 -0.42035297 0.24690312 0.29326454
0.07521501 -0.17455958 -0.082970604 0.19853583 0.15841839 0.46187142 -0.13682221 -0.35428432
-0.08666905 -0.054647878 -0.6133328 0.30756307 -0.2173816 0.40732288 0.37111583 0.027375212
0.15667206 -0.26503435 0.0477668 0.018182391 -0.07952909 0.035799548 -0.084147476 -0.115573466
0.21303824 0.14684868 0.01590367 0.13784002 -0.23608749 0.50409514 0.12509173 0.21686688
-0.8794178 0.026541302 1.3234888 -0.3545399 -0.4716616 0.101261325 0.0503681 -0.56343573
0.08826618 0.7047827 0.42373765 -0.29015696 -1.1452051 -0.369209 -0.8659758 -0.080303095
-0.34618735 0.40848807 0.026726807 -0.47696528 -0.29807428 0.028690517 0.16476 -0.07726218
0.24176228 0.009802967 -0.32367992 0.018057209 0.106172085 -0.18034902 -0.3061791 -0.33309618
-0.14307351 0.22227821 -0.08272719 0.3934445 -0.12379186 -0.0333664 -0.3913139 -0.17450109
0.29024532 0.034570634 0.12676476 0.081926666 -0.29617766 0.02992476 -0.019848188 0.32691988
0.20507109 -0.13185233 -0.42262325 0.079349786 0.12652613 0.11301081 0.18295287 -0.2261467
0.13079764 0.17429818 -0.26596645 0.22926578 -0.7381187 -0.029824913 0.8753269 -0.38608333
-0.2597976 -0.0064702625 0.12315649 -0.2814881 -0.040395554 0.8117502 0.45217994 -0.36954173
-0.39483336 -0.28487003 -0.47296232 -0.26657838 -0.3879276 0.20469923 0.12459051 -0.20012675
-0.34551248 -0.24326332 0.11986677 -0.044077713 -0.29343837 -0.25597286 -0.069639236 -0.45294955
-0.13085218 0.4477595 0.24938862 -0.3573632 -0.43485692 0.35651487 -0.22366156 -0.017610814
-0.3331168 -0.04752895 0.050848786 -0.06723682 -0.17825039 0.481382 0.59484863 0.014434529
0.06255782 -0.03782186 -0.17416358 0.38290787 0.11099135 0.095319346 0.24345037 -0.14798096
-0.4358562 0.38556936 -0.14096878 -0.25216392 -0.13831837 0.65922767 0.08435279 0.1458906
0.05064708 -0.31060946 0.12296677 0.26963225 -0.19522549 0.36971277 -0.2111962 -0.2566071
0.07926072 -0.48113656 0.20991725 -0.00054907164 -0.3068842 -0.03155296 -0.34551 0.29066864
0.25548732 -0.18786973 0.29141828 -0.26952213 -0.30811006 -0.05007956 -0.21748343 0.2580834
-0.2807385 0.04771895 -0.2015815 0.59392923 -0.142206 -0.30234012 -0.103429735 0.13621514
0.4170552 0.22363488 0.17751113 0.006246645 0.13803183 -0.14598744 -0.046545688 -0.02901208
-0.21131618 -0.2812928 -0.12694639 -0.18562402 -0.3753452 0.40070093 -0.23241289 -0.14229386
0.12318297 -0.107597776 -0.014274603 -0.07160312 -0.13645384 0.25821087 -0.20393094 0.05994053

bias f4 [20]
00000000: f759 053f 61ae d63e c708 d03e fbec 7e3e
00000010: 466c 0dbf 6d6a 86be 3006 c7bd 06ef 11be
00000020: b404 acbe cd33 203f 67b4 bebe 138c b03e
00000030: 91a4 283c 2f15 903e db66 173e 0918 c03e
00000040: ac25 a63e b28a 003f 71d4 c9be 3911 96be
0.520904 0.41929916 0.40631697 0.24895088 -0.5524334 -0.2625307 -0.09717977 -0.14251336
-0.33597338 0.6257904 -0.3724701 0.34481868 0.010293142 0.28141162 0.1478533 0.37518337
0.32450616 0.5021163 -0.39419892 -0.29310015

weight f4 [20, 20]
00000000: bf18 5a3e d4d3 54bd fc3b 903c 35d5 643e
00000010: 9ab7 a8be 3840 503e 3834 ec3d 736e 22be
00000020: 7569 abbd 1c3b 6cbd 2324 923d 6e82 4c3e
00000030: ffd5 733e 701a 4cbd 2f77 37be 52ab b53e
00000040: e2e4 403d d3f8 7e3e bde8 1f3e ecb9 15be
00000050: e93d 97be ddf6 013f f6ac 9ebe 86e0 43bf
00000060: ae23 a1bc 6115 293f f012 aabc 3baa 06bd
00000070: c9ac e33e 4d6c 873d 1dcf a63e b452 ddbe
00000080: 8ab3 453f ac17 c0be 5a4d 943e 484b 303e
00000090: 2a59 88be c44a 6fbf 4ce2 ee3e 3299 553f
000000a0: c0d7 a0be 86c6 98be 4961 d2bd f7ed ebbd
000000b0: ae83 a6be b518 7dbe 4486 7e3d 206d 8dbe
000000c0: ec93 1abe 07af df3c a201 49be 2dd2 a4be
000000d0: c448 95be b781 383e 7ec2 bf3e a269 883d
000000e0: 6268 6f3e a9b2 073c 71f2 f5bc d2e0 8bbd
000000f0: c3f8 103e bc2f 21be 0427 27be dcc4 da3e
00000100: f4d8 93bd 5440 11bf 1763 87be a46a cbbc
00000110: fbdb febe 510a a63e 267c b2be b0a1 da3e
00000120: fcab 0abf 54bb 083f c6c1 b0bd 8ebb fbbd
00000130: dcc5 c63d 248f 4c3f 15ce 2ebf c67a 40bf
00000140: 4296 9bbe f604 0cbf dbaf d23d 1280 13bf
00000150: a40e 4bbf 31e6 953d f912 ccbd 076b 08bf
00000160: 5ae3 4e3e a279 0abf f10b f93e 18e9 95bd
00000170: 562d 123d c238 6bbe ec95 da3d b6fe 273e
00000180: 2b88 c5be 433a a1be 0d11 813e f55a cebb
00000190: ce66 81bd 16b5 00bf d272 f7be 3102 483e
000001a0: 7dd6 80bf 869f 58be e519 aa3c ac17 e2be
000001b0: 57a3 883e 6553 04bf 9719 2cbe bf67 df3e
000001c0: 5d2d a2be 6615 d8be 61cc 21be 6d56 c93e
000001d0: 17b5 a03e 7894 ac3c fc42 2abe 263f db3e
000001e0: 8f18 8dbe bb3f e23e 56e7 8f3d b014 f73d
000001f0: 6157 023f c0fe 593c 9392 7c3e 8e6d dfbd
00000200: 8502 5a3e 31d1 be3e 9999 4e3e 259d 46be
00000210: bef1 5cbd 0503 823c b546 d43e 94ea fabe
00000220: 34b2 13be 8f6c 9ebe 8897 a23d ba78 4dbe
00000230: a119 e2bd 625f 6f3e 1dcc 85bd 7871 8abe
00000240: 7933 6c3e 801c 643e e7bb 363d 9a73 9bbe
00000250: 38b4 813e d08d 023d 2976 c53e ee0e 90be
00000260: 47ae e93e 94a5 a0be 8ce6 963e 2b4d 453e
00000270: 547c f9be ec1e 49be d1b5 593d 4414 033f
00000280: fc69 62be 7197 263f c984 573e 4e8f b13e
00000290: b01a 783f 570e 683d b6aa e83d e66b 513f
000002a0: e588 033f 79f7 7d3f dc16 62be cd3a acbe
000002b0: 0254 343d 5dac b43e 3b74 9b3d 15a3 8fbd
000002c0: 87a5 b53e 3cf8 8abe 9042 0f3c ce2c 9cbe
000002d0: 1b1f 5cbe 78f3 26bf 5043 eabd 8f46 273e
000002e0: 49ac 20be e018 e43c d1d9 f8bc d64d a3be
000002f0: 8a19 983d 23b2 d3be 9946 1a3e 38f3 cabd
00000300: a243 43be 2bef f1bd d77b f5bd b41e fabe
00000310: 669c 44bd 2a62 f5be 1526 27be 8e01 0b3d
00000320: 5c3f 403f d2e4 1c3e 1a09 f23e f727 2a3f
00000330: 34ee 58bd 1b42 05bf 4a8b 643e 3455 96ba
00000340: 8383 06bf b9f0 d73e c88a e5be fd43 a2ba
00000350: ff75 5ebf 3be6 a73e 9fbe 04bf 41e4 e23d
00000360: 47f8 a63e 6ad0 233f b17e 1fbf 1713 16bf
00000370: d407 8d3e 25da e73c 0550 db3e f706 0e3e
00000380: 240c 98be 6380 9e3d a09b 9f3d b8ab 66be
00000390: 48f6 0e3e 9190 84be 7561 4a3e 70a5 6a3e
000003a0: 5d7f 243e 76a6 513c 95d2 c4be 00aa 063e
000003b0: 3324 8d3e d0af 02be c267 993e 77a2 efbe
000003c0: 5af6 8f3e f0e2 3cbf 1a40 643e 05ee adbd
000003d0: 4783 2bbf a30f a03d 98f2 a2be 34d4 09bf
000003e0: bde6 fa3d 7896 80be 68ef 3cbe b43f a9bc
000003f0: f02f 8dbb 4fc0 55bc 3c4c a23d 08d6 5e3e
0.21298502 -0.051959828 0.017606728 0.22346957 -0.32952577 0.20336998 0.115333974 -0.15862446
-0.08369724 -0.05767356 0.07135799 0.1997163 0.23812102 -0.0498299 -0.17916559 0.3548227
0.04709328 0.24899606 0.15616126 -0.14621705 -0.2953942 0.5076731 -0.30991334 -0.7651447
-0.019670334 0.66048247 -0.020760983 -0.03287719 0.44467762 0.066124536 0.3257989 -0.4322716
0.7722708 -0.3751806 0.28965265 0.17216218 -0.26630527 -0.9347346 0.46657026 0.8343688
-0.31414604 -0.2983896 -0.10272462 -0.115199976 -0.3252234 -0.24716456 0.062139764 -0.27622318
-0.1509549 0.02730514 -0.19629529 -0.321916 -0.29157078 0.18018232 0.37453073 0.06660773
0.23379663 0.008282342 -0.030022832 -0.068299904 0.14157395 -0.15740865 -0.16323477 0.42728317
-0.07219115 -0.5673878 -0.26442787 -0.024831124 -0.49777207 0.32429746 -0.34860343 0.42701483
-0.5416868 0.5341084 -0.08630709 -0.122916326 0.097057074 0.79905915 -0.68283206 -0.7518734
-0.30388075 -0.5469507 0.10287448 -0.57617295 -0.79319215 0.07319296 -0.09964556 -0.5328831
0.20203915 -0.54091847 0.48641923 -0.0731985 0.035687767 -0.2297087 0.106731266 0.16405758
-0.3858045 -0.31489763 0.2520832 -0.006297464 -0.063184366 -0.50276315 -0.48329788 0.19532086
-1.0065457 -0.21154603 0.0207643 -0.44158685 0.26687118 -0.5168975 -0.16806637 0.4363384
-0.31675234 -0.42203826 -0.1580062 0.3932375 0.3138816 0.02106689 -0.16627115 0.42821616
-0.275578 0.44189247 0.07026546 0.12064493 0.5091458 0.013305366 0.24665289 -0.10909568
0.21290024 0.37268975 0.2017578 -0.19395883 -0.05394148 0.01587058 0.41460195 -0.49007094
-0.14423448 -0.309422 0.079390585 -0.20065585 -0.110400446 0.2337623 -0.06533072 -0.27039695
0.2306651 0.22276497 0.04461279 -0.30361634 0.25332808 0.031873524 0.38566712 -0.2813639
0.45640776 -0.31376326 0.29472768 0.19267718 -0.48727667 -0.19640702 0.05315191 0.512028
-0.22110742 0.6507483 0.21046747 0.34679645 0.9691572 0.0566543 0.113606855 0.81805265
0.5138076 0.9920574 -0.22079033 -0.3363861 0.04402543 0.35287753 0.075905286 -0.07013527
0.3547785 -0.27142513 0.008743897 -0.30502933 -0.21496241 -0.65215254 -0.1143862 0.1633551
-0.15690722 0.027843893 -0.0303773 -0.31895322 0.07426746 -0.41346845 0.15065993 -0.099096715
-0.19068769 -0.11813196 -0.11986511 -0.4885155 -0.048000716 -0.47926456 -0.16323121 0.03393703
0.7509668 0.15321663 0.4727257 0.6646723 -0.052961543 -0.52053994 0.2231876 -0.0011469484
-0.5254442 0.42175844 -0.44832444 -0.0012379881 -0.868988 0.3279284 -0.51853365 0.11078692
0.32611296 0.6398989 -0.6230269 -0.5862288 0.27545035 0.028302262 0.42834488 0.13869844
-0.29696763 0.077393316 0.07793355 -0.22526443 0.13961136 -0.25891545 0.1976374 0.22914672
0.1606421 0.012796035 -0.3844191 0.13150787 0.2756668 -0.1276238 0.29961973 -0.46803638
0.2811764 -0.7378378 0.22290078 -0.08492664 -0.6699719 0.078154825 -0.3182571 -0.5383942
0.12251041 -0.251148 -0.18450701 -0.020660259 -0.004308693 -0.013046338 0.07924697 0.21761334

bias f4 [20]
00000000: c815 173f 93d8 afbe cbf0 eabe d1b8 1d3f
00000010: fc89 20bf 18a9 543e aad0 a8bd 45bd b7be
00000020: 70d0 853e e78a 7ebe dafd 613f 90c4 b9be
00000030: 7cde 40bd 26e2 fa3d 715c d5be 21cc cfbd
00000040: 9338 cbbe a49b dabd dc2c 963e d453 0a3f
0.5901761 -0.3434492 -0.45886835 0.6161013 -0.6271055 0.20767629 -0.082429245 -0.3588659
0.26135588 -0.24857675 0.8827797 -0.36282778 -0.047087178 0.12250166 -0.4167209 -0.101463564
-0.396916 -0.10674217 0.293311 0.5403416

weight f4 [20, 20]
00000000: 3b1a b9be 4d67 fbbd b0ab 89bd 978e db3e
00000010: 36c8 06bf 08e4 c5be 650e 943e 6bfa a8be
00000020: afb5 323f 3bf0 c33b bd73 ef3e 0c6e 583e
00000030: 4f0e e33c fee2 96be 35a7 f43d 7d64 043f
00000040: 4bbb 20be debe 963d 262d a6be 2bcc 4ebe
00000050: 00c2 a2be 59e7 ee3e b7c3 1c3f 45a2 503e
00000060: 937c f53e c59e 293f 69b6 08bf d827 77be
00000070: 13dc 1bbd a963 c13e ebcb e9be 6139 983e
00000080: 4223 b33d 6064 cebe a4e9 d83e 674d 223f
00000090: 7d05 673f d5fb f8be ddf7 e7be f5fb 0abf
000000a0: 5177 8cbe 25fd 983c 5983 c13e 4363 69bd
000000b0: 8cc5 b53e 2c21 3f3e d7dc afbd 476d 933e
000000c0: b4c1 d8bd 7e2c 553e bf1d 69be 4771 b43c
000000d0: fdf5 babe e705 eb3d 2519 043e 6bcd e63e
000000e0: f77d bf3d 0684 d23d f2f2 a6be 6138 f23c
000000f0: c40c 8b3e 3b0a a73e 687d bb3d ed29 46bf
00000100: e2cb 5b3e 015a 41bd 5252 9ebe df1d 373e
00000110: 37bd 34be d8b7 dc3e 71b3 07bf 391b f93d
00000120: bb0c 00be 4bf6 983e 4791 87bd c126 bbbd
00000130: d1fc 4f3e 1360 523d fa65 8bbc 9267 babe
00000140: ab1b 76be 4d7c a6be fc92 013f 0297 553f
00000150: a266 fd3d 5b48 33bf 7a32 d73e 9f7f 03be
00000160: b8e7 5e3f d28d 8abe cced 7b3e 53a0 993e
00000170: 91ba 6bbe e9bc 9ebe 7604 473e 3373 c1be
00000180: 3479 c93d c33b 7cbe 8a9e 93be 8bf5 0f3e
00000190: 7dd3 20bd 96ba c0be 2ba0 ed3c 27a4 f53d
000001a0: 063d 11bf c4d1 b33d 44b6 643e 3bb6 e73e
000001b0: c57c 00be 7264 c0be 6908 033f 545a d93e
000001c0: 9f39 98be 2e8a e13d 5c73 573e db57 893e
000001d0: 22af be3c 7413 8cbe 70b6 52be 5c76 383e
000001e0: b569 2abf 64e7 87be 8b9b 073e d5a2 043f
000001f0: c8b0 37bf 3c6d adbe 4fd4 35be 7355 f2be
00000200: 1ce0 073f 3f84 6ebf 229f 4a3f f0aa 0b3e
00000210: 379e b93d 190a f3be ee90 1d3e c680 4ebe
00000220: 6c05 18be 4df6 97be 07c7 debc b787 fbbd
00000230: 566c 043f a053 a5be b8ac a7bd 1d1e 4e3d
00000240: 9c56 85be 3c2e 393e 9cb5 55ba cb3e 03be
00000250: 01b7 56be bd60 b3bd 01c4 07bc 61e6 7cbe
00000260: 5714 1bbe 7532 c43e 258c 14bd 4b03 ab3d
00000270: 0a64 46bd cd60 5b3e 21d9 7b3d d5ca 24bd
00000280: fb79 95be 2f82 e4be f46f 0d3e 5aba 3e3f
00000290: 43cc 72bf 5ea3 57bf 10f9 ab3e 2b58 b4be
000002a0: 4bb1 413f 3b95 a5be 73d2 323f ad49 853e
000002b0: ab99 65bb 4d79 72bd 5f67 133e 5620 fdbe
000002c0: 8165 d0bd dbac a5bd 88b8 b9be c398 90be
000002d0: c123 85bf 0751 18bd 6775 8e3f b79b 1e3e
000002e0: 65bc d03f 3dad b93f 597d 09bf b96a aebd
000002f0: bdbb 2cbf 0c6d 5a3e a08a c1bf d1b7 b93f
00000300: 554d 753f 4967 56bf 3705 cc3f 5230 d53f
00000310: 5095 bd3f 8a4f d9bf 4bb7 b1bf 1494 dbbf
00000320: 57da 573e 861c debe 2cc9 8abe 7e3c 243e
00000330: 4a5f 9abe b877 35bf ca83 863d 6b38 4fbb
00000340: 3ac3 df3e 3aca 53be d1f3 b73e 6040 e5be
00000350: 9b03 3a3d 9504 65be b9ee 083e 2a01 f9bd
00000360: 07d7 1dbe cc45 5fbd 6ab2 0e3f 206d 983e
00000370: 9ed7 21bd 0071 b5be 8a3d e43e 6541 a43e
00000380: 3d74 6bbe a4ce acbe 6856 e8bd 5e9e 8dbe
00000390: 4f9c da3e dccf 1abe d89e 283f d359 f63d
000003a0: 3587 f73d e07f b2be f524 5f3d 6261 06be
000003b0: 7033 aebd 9aa3 d0bd 3c73 053e 8860 a83d
000003c0: 0474 6fbd a5a3 9b3e 3bce c63d 4aa7 96be
000003d0: 994c f13e b56b fb3e 42a3 3d3e 67d5 643e
000003e0: 0b65 29bf 1e52 99be 09d3 adbe 47c4 4abe
000003f0: 617d f33d 294a 6cbc c089 edbd 8b3a 97bd
-0.36152825 -0.122755624 -0.067222 0.42882225 -0.5264925 -0.38650537 0.28917232 -0.33003554
0.6980848 0.0059795654 0.4676799 0.2113573 0.027716784 -0.29470056 0.11945955 0.5171583
-0.15696447 0.07360624 -0.3245632 -0.20195071 -0.31788635 0.4666088 0.6123614 0.20374401
0.47946605 0.6625789 -0.53403336 -0.24136293 -0.038051676 0.37771347 -0.4566339 0.29731277
0.08746959 -0.40310955 0.42365754 0.63399357 0.9024275 -0.48629633 -0.45306292 -0.54290706
-0.2743478 0.018675396 0.37795523 -0.05697943 0.3550228 0.18664998 -0.08587044 0.2879431
-0.10583821 0.20817754 -0.22765253 0.022026671 -0.365158 0.11475735 0.12900217 0.45078596
0.09350198 0.10279088 -0.32607228 0.0295679 0.27158177 0.32624993 0.09154779 -0.77407724
0.21464494 -0.047204975 -0.3092218 0.17882489 -0.17650305 0.43109012 -0.5300818 0.121633954
-0.12504856 0.29875407 -0.06619506 -0.09138251 0.20311286 0.051361155 -0.0170164 -0.36407143
-0.24033992 -0.3251671 0.50614905 0.83433545 0.12373091 -0.7003228 0.42030698 -0.12841652
0.87072325 -0.27061325 0.24602431 0.3000513 -0.23020388 -0.31003502 0.19435295 -0.37783203
0.09837571 -0.24632172 -0.28831893 0.14058511 -0.03926419 -0.37642354 0.029007038 0.119942
-0.5673374 0.08780244 0.22335154 0.45256218 -0.12547596 -0.37576634 0.5118471 0.42451727
-0.2973146 0.11012684 0.210401 0.2682484 0.02327687 -0.27358592 -0.20577407 0.180139
-0.66567546 -0.26543725 0.13242929 0.5181096 -0.7175412 -0.33872402 -0.1775677 -0.47330818
0.5307634 -0.9317054 0.7914907 0.13639426 0.0906338 -0.4746864 0.15387318 -0.2016631
-0.14845818 -0.296801 -0.027194513 -0.12281745 0.5172781 -0.32290363 -0.0818724 0.050321687
-0.2604264 0.18084043 -0.0008152367 -0.12816922 -0.20968248 -0.08758686 -0.008286477 -0.24697258
-0.15144478 0.38319746 -0.036266465 0.083502375 -0.04843525 0.21423645 0.061486367 -0.0402325
-0.29194626 -0.44630572 0.13812238 0.745031 -0.9484293 -0.84233654 0.33588457 -0.35223517
0.7566115 -0.32340416 0.6985237 0.26032773 -0.003503422 -0.059197713 0.14394902 -0.49438733
-0.1017561 -0.0808961 -0.362736 -0.28241548 -1.0401536 -0.03718665 1.1129578 0.15489088
1.6307493 1.4505993 -0.5370689 -0.085164495 -0.67473966 0.2133066 -1.512043 1.4509221
0.95821124 -0.8375135 1.5939091 1.6655371 1.4811192 -1.6977398 -1.3884062 -1.7154565
0.21079384 -0.43381137 -0.27106607 0.16038701 -0.30150825 -0.708858 0.065681055 -0.003161932
0.43703634 -0.20682612 0.35928205 -0.44775677 0.045413595 -0.22365029 0.13372315 -0.12158425
-0.15414058 -0.054509923 0.5574099 0.29770756 -0.03951227 -0.35437775 0.445782 0.32081142
-0.2299356 -0.33751404 -0.11344606 -0.27659887 0.4269738 -0.15118355 0.65867376 0.12028851
0.120863356 -0.34863186 0.054478604 -0.13123086 -0.08505905 -0.101874545 0.1303224 0.08221537
-0.05846025 0.30398288 0.09707304 -0.29424506 0.47128752 0.4910561 0.18519309 0.22347032
-0.66169804 -0.29945463 -0.3395007 -0.19801436 0.118891485 -0.014421978 -0.11598539 -0.07384213

bias f4 [20]
00000000: 202d dd3e 33b7 3ebf 054e e3be 1106 c2be
00000010: 6c50 a4be 2f92 ce3b da66 1dbd d2b2 c73e
00000020: 81f6 66be def9 ebbf 9ec0 d13e 6837 913e
00000030: 46d5 1cbe 1810 803b 11c9 23bf b08f 5e3f
00000040: aa2f 003f 15d6 f63e 4b50 4f3e eb81 ac3e
0.4319849 -0.7449829 -0.44395462 -0.37895253 -0.32092607 0.0063040475 -0.038428165 0.39003617
-0.22554971 -1.8435628 0.40967268 0.28362584 -0.15315732 0.0039081685 -0.6397868 0.86938
0.5007273 0.48210207 0.20245473 0.3369287

weight f4 [20, 20]
00000000: be0b 863e 085c a03e 98e3 61be e04a 00be
00000010: ef85 9e3e 1bf9 35be 7fdd 0dbe 57b4 8d3e
00000020: b122 d5be 86fa 0140 7377 35be a402 b3be
00000030: cc6b 003c 2630 6fbd 2c5b aabd 720a 893e
00000040: 1cf1 90be 4c00 8abe 0d1d 7dbd 66f3 213e
00000050: 2d30 573e d656 e03e 491d a23d 2008 223e
00000060: 2b0d 343f 8b9f f13b 6706 613e c3b5 56be
00000070: 2a8b b53e 8943 0240 cf90 c0be 0016 103e
00000080: 82a4 b73e 50ac d8bd ffdc a0be 2bf9 d8be
00000090: 4b0b b4bc 3ddd 82bd c3d4 c6be 196a 4d3e
000000a0: 54f7 a0be bc62 e03e 78d6 353f a485 fe3e
000000b0: ed29 d13e 69d5 2a3e cddb d3be 5488 d0be
000000c0: cdbb 70be 2231 0940 3d22 dbbe fbd2 5ebe
000000d0: 20da c93e b50b dabe cdd8 6a3e d76a 18bf
000000e0: 49a4 0fbf 5522 25bf d328 4abf ada3 cbbe
000000f0: 264f b2be 990e 26bf 845f 073f d4e1 913d
00000100: a645 78bf 1d98 d2be e470 36be ca6d 6e3e
00000110: 7a3c 2c3e c48c 35c0 bb70 c63d 0cb9 353e
00000120: 235a 6c3e 270c ccbd 66ef 743e 4965 44bf
00000130: ba09 97be 4e21 6a3f 6548 513d 9d04 0cbf
00000140: 05db 64be 008f 08bf 9e87 be3e ab1d 143e
00000150: 3470 16bf cb77 cabd 367b 2d3e 9792 353f
00000160: e9e3 9dbe b5e8 00c0 7b96 16be 2498 1cbd
00000170: 51aa 2f3f 7c64 8fbe b909 4a3d d6a2 cebe
00000180: 774e dabe f403 d73e c5cb e53e 7ffa cabc
00000190: b05f e5be 8f16 ce3e c7ae a13e 3c2b d43e
000001a0: 4b32 053e 6e89 d1be 7420 98be 406d 173d
000001b0: 49cd 08bf e4f4 f23f fc88 a5be bd73 04be
000001c0: 20cb 003f 2aff 41bf cedc 9f3e da6c 2bbe
000001d0: a93f 48be 9f98 ec3d f842 23bf cefa 4fbe
000001e0: 4243 da3e 3164 18be c167 56bd e631 d83d
000001f0: c256 93be 3513 c73e 7737 8fbc 90d5 953e
00000200: abf0 96be 8969 b0bf 57d3 583e 251b 883e
00000210: 8959 5abe 5ba3 a03c 9445 5f3c 9824 1b3e
00000220: 9f32 0dbe 4ac0 e03e ea12 923e 8e27 a73b
00000230: 52cf 16bf f4d0 343d 6009 803d ecdb 203f
00000240: 45c5 cb3e d47d a5bd 6edf 973e cbe9 40be
00000250: 1e97 c6bd 9c9d 2340 9d35 e0bd d30a 38bf
00000260: 0aac 88be 4156 14be 3e4f 413e 97e4 40be
00000270: 1140 4dbe 0c42 e3be 69ac 50bd 0712 f2be
00000280: 3f08 a5be 5b5c 4f3f b5f9 bc3e 35c1 203f
00000290: e01e 1a3f 589c 3abd 6091 6c3e 7e61 fdbe
000002a0: 90ec f0be 4101 4f40 81e0 28bf 7ee7 733c
000002b0: a244 e03e 46d7 2dbf 5e18 b9bd c498 183e
000002c0: 25a9 20be 9627 5abf 3746 21bf f0f9 fbbd
000002d0: 7169 f6be a94f 313f eaa5 0b3e 8806 cdbd
000002e0: 584d a23e 006e e1be e68e d0bc e309 c8bc
000002f0: 1ff2 72be 760b 0840 fc75 0dbf cdff fc3d
00000300: d229 f13d 26da 80be 7782 193e 74cc 85be
00000310: 4a93 cbbc 2547 3ebf 20ed 2abf 84db 42be
00000320: d1e9 7c3e 9ea2 263f 1613 95bd a4dc 61be
00000330: 934e e73d 59a7 bbbe c1d1 b63e 173a 6abe
00000340: 454b aa3c 151a 3140 2f4f 0fbe 298e 29be
00000350: 73de a4bd 3190 bc3d 1510 183d 3ec9 91bd
00000360: 84f1 303e cd71 72bf 735c ad3d 67ca c13e
00000370: b5fd 7bbd bd81 eb3e c262 023f 8b81 b93e
00000380: e5a9 0a3f 03b3 493e 2dcf 02bf 7f71 3dbf
00000390: 2086 f9bd 0ad3 3440 8775 1cbe a586 fabc
000003a0: 9af0 4c3f 1ca8 1e3d 972c 043f 1145 52be
000003b0: 420a 44bf 6579 cabe 1ce5 50bf 5351 9abe
000003c0: dc48 1b3f c5be b63d fed9 ccbe 2846 c2be
000003d0: 5707 8eba 270b 9c3e dffa be3e 4780 ffbd
000003e0: 3b98 033f 2730 3fbf 2f34 983e 5745 173f
000003f0: 4d51 253d 1cc4 313e cba8 dfbe d482 323f
0.26180834 0.31320214 -0.22059476 -0.12528563 0.30961558 -0.17770807 -0.13854025 0.2767665
-0.4162803 2.0309157 -0.17721348 -0.34962952 0.007838201 -0.058395527 -0.08318171 0.26765782
-0.28308952 -0.26953351 -0.061795283 0.15815505 0.21014471 0.4381625 0.07915742 0.15823412
0.7033259 0.0073737553 0.21975099 -0.20967774 0.35457736 2.035372 -0.3761048 0.14070892
0.35867697 -0.10579741 -0.31418607 -0.423776 -0.021978041 -0.06389854 -0.388342 0.20060004
-0.31438696 0.43825328 0.7103038 0.49711335 0.408523 0.16682972 -0.41378632 -0.4072901
-0.2350914 2.1436238 -0.4279956 -0.2176017 0.3942423 -0.42587057 0.22934265 -0.59538025
-0.56110054 -0.6450551 -0.7896854 -0.39773312 -0.3482601 -0.64866024 0.5288012 0.071231514
-0.96981275 -0.41131678 -0.17816502 0.23284069 0.16819945 -2.8367167 0.096894704 0.17746371
0.2308126 -0.099632554 0.23919448 -0.7671705 -0.29499608 0.9145707 0.05109443 -0.5469454
-0.22349174 -0.533432 0.37212843 0.14464442 -0.5876496 -0.0988613 0.16941532 0.70926803
-0.30837944 -2.0142033 -0.14705841 -0.03823103 0.6861926 -0.2800635 0.04932568 -0.4035861
-0.4263799 0.41995203 0.44882026 -0.024777649 -0.44799566 0.40251586 0.31578657 0.41439235
0.13007466 -0.40925163 -0.2971226 0.036969423 -0.5343824 1.8980985 -0.32331073 -0.12934776
0.50309944 -0.75779974 0.31223148 -0.16740742 -0.19555534 0.11552548 -0.6377406 -0.20310518
0.4262944 -0.1488197 -0.05234504 0.10556392 -0.28777128 0.3888184 -0.017482502 0.29264498
-0.2948049 -1.3782207 0.2117437 0.2658321 -0.21323217 0.019609144 0.013627429 0.15150678
-0.13788842 0.43896705 0.28530055 0.005101151 -0.58910096 0.044144586 0.06251788 0.62835574
0.39798942 -0.080806404 0.2966265 -0.18839185 -0.09696792 2.5564947 -0.10947726 -0.71891516
-0.26693755 -0.14486028 0.18877885 -0.188372 -0.2004397 -0.44386327 -0.050945673 -0.4727938
-0.32232854 0.810003 0.3690926 0.6279481 0.6020336 -0.045559257 0.23102331 -0.49488443
-0.47055483 3.2344515 -0.65967566 0.014886735 0.43802363 -0.67906606 -0.09037851 0.14902025
-0.15689524 -0.85216653 -0.62997764 -0.12303531 -0.4812732 0.69262177 0.1363751 -0.10011011
0.31699634 -0.44029236 -0.025458764 -0.024418777 -0.23725174 2.1256995 -0.55258155 0.123534776
0.11775555 -0.25166434 0.14991175 -0.26132548 -0.024850506 -0.7432731 -0.66768074 -0.19029051
0.24698569 0.65091884 -0.07279031 -0.22056824 0.11294284 -0.36651114 0.35706905 -0.22873722
0.020787844 2.767217 -0.1399505 -0.16558136 -0.08050241 0.0920719 0.037124712 -0.07118462
0.17279631 -0.94704896 0.08464899 0.37849733 -0.06152125 0.4599742 0.5093194 0.36231646
0.5416549 0.19697194 -0.51097375 -0.74001306 -0.121837854 2.8253808 -0.15279208 -0.030581782
0.8005463 0.03873454 0.5163054 -0.20534159 -0.7657815 -0.39545742 -0.81599593 -0.3014017
0.6065805 0.08923105 -0.40010065 -0.3794415 -0.0010835928 0.3047726 0.37300774 -0.12475639
0.5140416 -0.7468285 0.29727313 0.5909018 0.040360738 0.17359966 -0.43683466 0.6973088

bias f4 [20]
00000000: dede 6b3e ea7a 0cbf beb3 29bf 26ab 61be
00000010: 5b6c 13bd 0696 dcbe 084b 563f 06ca 47bf
00000020: b88a babe b64d 4a3d 1f9d 373e a969 0bbf
00000030: 16bd 0c3e 2fcb 4dbf 72e1 bebe ddcd f8bd
00000040: 0f95 543d 0026 873f 2348 af3e 6ad4 83be
0.23034236 -0.5487505 -0.6628989 -0.22037944 -0.035992008 -0.4308321 0.8370824 -0.7804264
-0.3643396 0.049390517 0.1793103 -0.544581 0.13744006 -0.8038816 -0.37281376 -0.1214864
0.051899966 1.0558472 0.34234723 -0.25747997

weight f4 [1, 20]
00000000: 9dac 4cc0 ffc6 54c0 8849 21c0 9c4e 3c40
00000010: 3c47 4c40 258b 03c0 5f6f 5140 f795 37c0
00000020: e1c6 44c0 6cad b5c0 9850 6cc0 0cac 36c0
00000030: 1ae8 0440 06cf 46c0 e05a 0fc0 46ae 2940
00000040: 74a6 3e40 17bd 4840 dc96 5540 f2be 3dc0
-3.1980355 -3.3246458 -2.520113 2.942298 3.1918478 -2.0553677 3.2724226 -2.8685281
-3.0746386 -5.6774197 -3.692419 -2.854251 2.0766664 -3.1063857 -2.2399216 2.6512618
2.9789095 3.1365411 3.3373327 -2.9647794

u_b f4 [2]
00000000: 8cbc 1e41 0ad7 1f42
9.921032 39.96

l_b f4 [2]
00000000: e09a 263d 0000 0000
0.040675044 0.0
