Iter_03/Models/Noise_5/simulation_00_10/pidnn_200.pt (torch, 62237 bytes, 23 tensors)

weight f4 [20, 2]
-0.22004339 0.5021107 -0.76457906 0.8314678 0.46471754 0.19522038 0.83520204 -0.23861255
-1.2538894 0.23368242 -0.11994472 -0.6096487 0.3174817 -0.268596 -0.56193775 0.024395345
-0.841781 0.56414986 -0.96171135 -0.41980484 -0.51177144 -0.040695604 0.41793743 -0.41038713
0.0697205 -0.95306486 -0.5956651 0.03288719 -1.4633738 -0.0687144 1.8013633 -0.79360694
0.21940662 -2.8338237 0.092572264 0.1693065 0.75091213 -0.030345025 -0.27304098 -0.3066334
00000000: 0e53 61be 548a 003f 74bb 43bf 13db 543f
00000010: 75ef ed3e dae7 473e cdcf 553f d956 74be
00000020: 737f a0bf 724a 6f3e 94a5 f5bd f011 1cbf
00000030: f68c a23e 6a85 89be 27db 0fbf bfd8 c73c
00000040: f67e 57bf 206c 103f b732 76bf a9f0 d6be
00000050: 7403 03bf 6fb0 26bd e5fb d53e 431e d2be
00000060: 9fc9 8e3d 0ffc 73bf 827d 18bf b8b4 063d
00000070: d54f bbbf 23ba 8cbd 1393 e63f d329 4bbf
00000080: 21ac 603e 5e5d 35c0 8796 bd3d af5e 2d3e
00000090: c73b 403f 2196 f8bc 07cc 8bbe 0eff 9cbe

bias f4 [20]
0.3152262 0.8099839 1.1703755 -2.6149127 2.054839 -0.85724056 1.2381632 1.1634878
1.7593157 0.7322147 0.2438323 -1.3172976 -1.6835095 1.4715266 1.913203 -2.9949667
-0.3721979 0.1930066 -0.8692086 -0.13343911
00000000: 5465 a13e 1b5b 4f3f ddce 953f bb5a 27c0
00000010: 7b82 0340 1e74 5bbf 227c 9e3f 2bed 943f
00000020: 4231 e13f 6c72 3b3f 2daf 793e 359d a8bf
00000030: 3d7d d7bf fc5a bc3f d6e3 f43f 89ad 3fc0
00000040: b990 bebe 86a3 453e 7484 5ebf 43a4 08be

weight f4 [20, 20]
0.30629808 0.38411707 0.6217437 -0.9087529 0.23066363 -0.3500978 0.45770067 0.17209104
0.09555003 0.8950201 0.3027233 -0.19329008 0.21345356 0.8504944 0.5448245 -0.66706765
-0.62438107 1.0042006 -0.25080684 -0.0050884243 0.36276102 0.17314802 0.23108815 -0.22692686
-0.21714857 -0.7087431 -0.21526465 -0.26611724 0.14453906 0.09562792 -0.035878308 -0.21008599
-0.35638437 0.42148957 -0.3855983 -0.0051082214 -0.077295914 0.4721698 -0.02882238 -0.15021707
0.3955035 0.18475774 -0.1227458 -0.6287413 0.61745375 -0.21782337 0.07720464 0.23199074
0.20538141 -0.16106704 -0.16237876 0.06457077 -0.45104083 0.2040136 -0.04845115 -0.23261052
-0.07923296 0.061604723 -0.044627007 -0.5449629 0.047924448 0.03140726 -0.38023677 0.48393244
0.08684752 0.23757058 -0.27630118 0.07574274 0.04444061 0.30282006 0.12044448 0.27443594
0.3259856 -0.083597355 0.075794615 -0.11033156 -0.9158879 -0.08214592 0.15997285 0.3570341
0.1417331 -0.30559862 -0.1919496 0.46276748 -0.40037185 -0.030445602 0.16042328 0.32678613
-0.11348178 -0.11487519 0.0865344 0.10663614 -0.15591228 -0.33945408 -0.18691765 0.4714146
-0.16562977 -0.37533343 0.06109459 0.25603 -0.05415319 -0.02171501 -0.028160963 0.29036406
0.102897905 0.20367168 -0.16248107 -0.1635499 0.14348811 -0.30465484 0.1470684 -0.06567485
-0.52017283 -0.32894716 0.5380694 0.021545487 -0.812241 -0.5278699 0.12063449 0.20840673
-0.4837516 -0.23999335 -0.019462295 -0.011862801 -0.16970976 -0.40001574 0.21408749 0.067002736
0.0862804 -0.34079072 0.10088543 -0.11152602 0.0025767183 -0.07061547 0.24100651 0.29215547
0.1508307 -0.35413727 0.12437452 -0.25158924 0.24596976 0.4941214 0.16250178 0.23601744
-0.13168459 -0.23743924 -0.3070465 -0.28461987 0.01151201 -0.0015368052 0.061327312 0.2402412
0.2358084 -0.2301937 -0.36913106 -0.36327758 -1.0213042 0.024563726 -0.05650993 0.22539432
-0.24963358 -0.33137998 -0.7212398 0.52858526 0.058373358 1.0697647 -0.8669268 0.0456282
-0.09194103 -0.6929709 -0.047674626 0.61118436 1.0429734 -1.231688 0.59059286 1.1677781
2.2672122 -0.72638404 0.47467867 0.2331074 0.11955908 0.008891533 0.43531334 0.0055747223
0.4480163 0.18234184 0.2834148 0.11930186 0.3891579 0.19855401 0.07188739 -0.32194284
-0.13632567 0.409477 -0.18329646 -0.075843595 0.58632135 0.07006993 -0.20937915 -0.043425854
0.025837857 0.29480156 -0.21357492 0.36870483 -0.23838307 -0.3694573 -0.123598784 0.027351238
0.72129697 -0.62722754 -0.0011288241 -0.18606108 -0.7424363 -0.27284056 -0.029879903 -0.1312903
-1.7781116 -0.001047874 0.162013 -0.1683773 -0.4259474 0.1900405 0.06728064 0.43997943
-0.08411714 0.1493447 -0.09539294 -0.16156037 -0.07772275 0.19820759 0.09201896 0.55327463
-0.014187549 -0.32737914 0.29091582 -0.12853894 0.09048106 -0.2555624 0.27001667 0.10185025
-0.42582017 -0.04780617 0.18065377 -0.22551957 -0.1605798 0.57193136 -0.06598666 0.008591122
-0.063909665 0.08752817 -0.17895842 0.26057652 0.28271043 -0.21205243 0.12116357 0.2960823
00000000: 1ad3 9c3e feaa c43e 982a 1f3f 08a4 68bf
00000010: 1633 6c3e 0540 b3be be57 ea3e a238 303e
00000020: bcaf c33d 0a20 653f 8cfe 9a3e d6ed 45be
00000030: 9293 5a3e 00ba 593f 9e79 0b3f f2c4 2abf
00000040: 70d7 1fbf a589 803f c169 80be ccbc a6bb
00000050: d0bb b93e b74d 313e 5fa2 6c3e 845f 68be
00000060: 325c 5ebe 3070 35bf 566e 5cbe 8540 88be
00000070: 0c02 143e 92d8 c33d 22f5 12bd c820 57be
00000080: 0378 b6be 7bcd d73e 246d c5be de62 a7bb
00000090: 524d 9ebd 3dc0 f13e e91c ecbc 81d2 19be
000000a0: 6f7f ca3e 2231 3d3e 2662 fbbd 31f5 20bf
000000b0: 7311 1e3f 170d 5fbe 771d 9e3d fb8e 6d3e
000000c0: 814f 523e c2ee 24be 9e46 26be ae3d 843d
000000d0: d3ee e6be f1e8 503e b774 46bd 7431 6ebe
000000e0: e444 a2bd 3c55 7c3d cfca 36bd b082 0bbf
000000f0: 6d4c 443d e6a4 003d 65ae c2be fec5 f73e
00000100: 1ddd b13d b445 733e 5977 8dbe 021f 9b3d
00000110: 5b07 363d 3b0b 9b3e 98ab f63d de82 8c3e
00000120: 96e7 a63e 1735 abbd 353a 9b3d 83f5 e1bd
00000130: a177 6abf 1f3c a8bd eccf 233e 2ccd b63e
00000140: 7b22 113e 6c77 9cbe 708e 44be dcef ec3e
00000150: 8afd ccbe 0e69 f9bc 0046 243e 8350 a73e
00000160: 2369 e8bd af43 ebbd f338 b13d 0c64 da3d
00000170: 78a7 1fbe edcc adbe 5767 3fbe 415d f13e
00000180: da9a 29be b42b c0be 523e 7a3d 5d16 833e
00000190: bccf 5dbd ade3 b1bc d2b1 e6bc 99aa 943e
000001a0: 23bc d23d 4f8f 503e 7061 26be a079 27be
000001b0: 8cee 123e b8fb 9bbe 1999 163e 8980 86bd
000001c0: 0c2a 05bf c36b a8be ebbe 093f 2980 b03c
000001d0: 07ef 4fbf 7b22 07bf 370f f73d 9368 553e
000001e0: 4aae f7be d1c0 75be 646f 9fbc 325c 42bc
000001f0: 65c8 2dbe ddce ccbe c039 5b3e bb38 893d
00000200: c7b3 b03d 1f7c aebe 059d ce3d c167 e4bd
00000210: 29de 283b d89e 90bd 69ca 763e 6795 953e
00000220: 5d73 1a3e 7b51 b5be 11b8 fe3d 4ed0 80be
00000230: 7fdf 7b3e 7bfd fc3e de66 263e 8eae 713e
00000240: 53d8 06be 4623 73be 3335 9dbe b2b9 91be
00000250: df9c 3c3c a06e c9ba 5932 7b3d ca01 763e
00000260: c277 713e e6b7 6bbe bffe bcbe 85ff b9be
00000270: 19ba 82bf de39 c93c f576 67bd c5cd 663e
00000280: f29f 7fbe a3aa a9be 2ca3 38bf 5d51 073f
00000290: e718 6f3d 0dee 883f eaee 5dbf a3e4 3a3d
000002a0: 944b bcbd 8a66 31bf 7846 43bd 9476 1c3f
000002b0: 2780 853f f4a7 9dbf 1831 173f c179 953f
000002c0: 011a 1140 4ef4 39bf 1509 f33e b5b3 6e3e
000002d0: 64db f43d cbad 113c 64e1 de3e 29ac b63b
000002e0: 6462 e53e d2b7 3a3e bf1b 913e 8954 f43d
000002f0: b43f c73e be51 4b3e b239 933d b1d5 a4be
00000300: f598 0bbe f8a6 d13e 11b2 3bbe e353 9bbd
00000310: 2819 163f d380 8f3d 7d67 56be 4fdf 31bd
00000320: eaa9 d33c 3bf0 963e 62b3 5abe e1c6 bc3e
00000330: b11a 74be 8229 bdbe 5c21 fdbd b40f e03c
00000340: eba6 383f fc91 20bf 0df5 93ba cc86 3ebe
00000350: 4e10 3ebf c2b1 8bbe b3c6 f4bc f770 06be
00000360: 2999 e3bf d158 89ba bce6 253e 196b 2cbe
00000370: c715 dabe fa99 423e 6fca 893d fc44 e13e
00000380: 9b45 acbd d1ed 183e 605d c3bd 1570 25be
00000390: 1b2d 9fbd eef6 4a3e 7074 bc3d 68a3 0d3f
000003a0: e572 68bc 3d9e a7be ebf2 943e b69f 03be
000003b0: 224e b93d 13d9 82be a03f 8a3e dd96 d03d
000003c0: 1a05 dabe 67d0 43bd 4dfd 383e 9aee 66be
000003d0: 086f 24be 186a 123f 0424 87bd c7c1 0c3c
000003e0: 12e3 82bd f841 b33d e040 37be 496a 853e
000003f0: 6cbf 903e 4624 59be 9b24 f83d 1998 973e

bias f4 [20]
1.3476484 0.7580634 0.67151284 -0.2513572 0.5924734 0.15606602 0.052233353 0.29333866
-3.3799312 1.2068651 -0.047707874 0.14021437 -1.5270354 -0.52947795 -1.8310168 0.21341904
1.0355422 -1.7601572 0.2104423 0.67608577
00000000: be7f ac3f 7110 423f 44e8 2b3f e4b1 80be
00000010: 56ac 173f c5cf 1f3e a4f2 553d 7c30 963e
00000020: cb50 58c0 8e7a 9a3f 5569 43bd 5b94 0f3e
00000030: e575 c3bf de8b 07bf c25e eabf 858a 5a3e
00000040: a68c 843f d54c e1bf 307e 573e f513 2d3f

weight f4 [20, 20]
0.37290588 -0.0058132913 0.20797913 -0.2595454 0.17958058 -0.13252869 -0.050451025 0.2290135
-1.3035139 0.39949557 -0.01851265 0.5567445 -0.0012154462 -0.13163187 -0.120516226 -0.5556914
0.24059711 -0.3675762 0.2456298 -0.36202565 0.1589215 0.010763809 0.110149056 -0.1615914
0.09019708 0.25614008 0.18131644 -0.282003 0.02933627 0.39744607 -0.33623248 0.3928328
-0.15470126 -0.11242834 0.016599104 0.072357334 -0.0072491546 0.26401997 0.26163617 -0.02398028
-0.7816991 -0.45624432 0.17772014 -0.7462796 -0.5316131 -0.021308215 -0.033554528 -0.8866671
0.08077321 0.50116736 -1.4429811 0.050159566 0.046090525 -0.0030845418 0.03442973 0.452217
0.32801196 0.3258338 -0.5075497 0.30531955 0.29292074 0.21693301 0.22447349 -0.5272248
-0.29254624 -0.098069176 -0.8000255 -0.24906561 -0.18084632 0.31065443 -0.42389998 0.071938366
-0.28191283 -0.216308 -0.30172452 0.064243056 0.17179659 -0.16707817 0.4440461 0.6623411
0.47502 0.091972806 -0.014443166 -0.09837165 0.6747343 -0.39989844 -0.04313853 -0.084094375
-0.22829886 0.12984082 -0.014525073 -0.2781817 -0.3922597 -0.7801643 0.304729 -0.41288105
-0.286032 -0.6306792 0.22576277 0.053331565 -0.41517603 -0.24318543 -0.14997633 0.16353105
-0.28037575 -0.025280656 0.19344118 -0.20757493 0.76267517 -0.17175788 0.060496505 -0.15769833
0.4191208 0.2664156 0.81367147 0.01108017 0.13092718 0.28281072 -0.085842654 -0.48582712
0.47920278 0.2835372 -0.11172446 -0.033567697 0.6158525 -0.23845361 -0.15773185 0.30150536
-0.67963517 0.20603314 0.5731708 0.31193304 -0.39139056 0.076993056 -0.47458306 -0.36678478
-0.12919374 -0.97979504 -0.27550086 -0.16972609 -0.1464063 0.07458413 0.006797006 0.35075077
-0.2598762 0.05042584 -0.23424447 0.3888789 0.6157472 0.09025372 0.025728526 -0.2144254
-0.08052355 -0.008981393 0.17013444 0.4032384 0.02417467 0.4700872 0.07227742 0.219329
0.083266415 -0.014103366 -0.2334755 0.51828027 0.23791 0.10164705 0.11883241 -0.003993035
0.14677566 -0.041702926 0.17132041 0.20161135 -0.21022081 -0.23908825 0.17689012 0.1657124
-0.08046375 -0.15303637 0.4915122 -0.31375358 0.17397498 -0.43762457 -0.24904469 0.0718624
-0.34765437 0.4003482 -0.42934942 -0.075570196 0.3144732 -0.11362418 -0.13184384 0.25939602
0.18268363 0.08240708 0.03818114 0.47711617 -0.034659516 0.5036859 0.009610905 -0.24042924
0.008964707 0.06964857 0.069450445 -0.12242 0.42883348 -0.013149047 0.13270797 -0.21175423
-0.26398173 0.26892176 0.071751475 0.22836472 -0.34260258 -0.027487805 -0.3757437 -0.31545705
0.04941471 -0.75634074 -0.43165728 -0.37921408 -0.21396537 -0.26286438 -0.18179719 -0.24918051
0.17213847 -0.34035647 -0.039920326 -0.7428221 -0.4678865 0.12478227 -0.5343175 0.13701206
0.27473527 0.23133919 -0.0053861155 -0.008871209 -0.026859332 0.7119096 -0.6060484 -0.026650975
-0.8912154 -0.0007410501 -0.6193921 0.14857991 -0.20936304 -0.40236703 -0.20418146 0.40526763
0.5773752 -0.23754475 -0.04825994 0.03613838 0.15306674 -0.1852714 0.73700273 -0.25708723
00000000: 85ed be3e 6c7d bebb 7bf8 543e 22e3 84be
00000010: f9e3 373e 9ab5 07be bca5 4ebd 8482 6a3e
00000020: 8bd9 a6bf af8a cc3e d7a7 97bc cf86 0e3f
00000030: 9b4f 9fba 81ca 06be 36d1 f6bd cb41 0ebf
00000040: 175f 763e f332 bcbe 6186 7b3e 6d5b b9be
00000050: 51bc 223e b05a 303c d495 e13d 3778 25be
00000060: 3fb9 b83d cb24 833e 04ab 393e b262 90be
00000070: 9e52 f03c 0d7e cb3e aa26 acbe 6121 c93e
00000080: 026a 1ebe d440 e6bd d8fa 873c 1530 943d
00000090: 518a edbb a02d 873e 2df5 853e 4b72 c4bc
000000a0: 6f1d 48bf db98 e9be 45fc 353e 2e0c 3fbf
000000b0: cc17 08bf 918e aebc 7970 09bd 9dfc 62bf
000000c0: 6d6c a53d 814c 003f 9bb3 b8bf 1e74 4d3d
000000d0: 6bc9 3c3d 0626 4abb 3006 0d3d fd88 e73e
000000e0: 2ff1 a73e b0d3 a63e c7ee 01bf d852 9c3e
000000f0: b5f9 953e b023 5e3e 61dc 653e 34f8 06bf
00000100: 9fc8 95be 7ed8 c8bd 79ce 4cbf 0e0b 7fbe
00000110: c72f 39be 190e 9f3e 6b09 d9be 6c54 933d
00000120: e156 90be d87f 5dbe a37b 9abe dd91 833d
00000130: 72eb 2f3e 8a16 2bbe 035a e33e 308f 293f
00000140: d235 f33e 3d5c bc3d 07a3 6cbc 1377 c9bd
00000150: 63bb 2c3f 7dbf ccbe 07b2 30bd ac39 acbd
00000160: 2dc7 69be fef4 043e 92fa 6dbc d56d 8ebe
00000170: 43d6 c8be d9b8 47bf 7105 9c3e 2565 d3be
00000180: c972 92be 3174 21bf 5b2e 673e 3372 5a3d
00000190: f491 d4be 9a05 79be 6593 19be af74 273e
000001a0: 698d 8fbe 6119 cfbc 7215 463e 868e 54be
000001b0: ae3e 433f 4ce1 2fbe 2fcb 773d ac7b 21be
000001c0: 0097 d63e a067 883e c64c 503f 9a89 353c
000001d0: c611 063e 91cc 903e 46ce afbd 55be f8be
000001e0: 115a f53e ca2b 913e cbcf e4bd 487e 09bd
000001f0: 82a8 1d3f 2f2d 74be 7584 21be e95e 9a3e
00000200: 92fc 2dbf 5afa 523e 52bb 123f b0b5 9f3e
00000210: 5864 c8be 89ae 9d3d 8dfc f2be 37cb bbbe
00000220: 5d4b 04be d9d3 7abf 730e 8dbe adcc 2dbe
00000230: 88eb 15be 90bf 983d 6bb9 de3b 9b95 b33e
00000240: 7e0e 85be 538b 4e3d c8dd 6fbe 231b c73e
00000250: 9ca1 1d3f f1d6 b83d a1c4 d23c 5592 5bbe
00000260: 88e9 a4bd b126 13bc b937 2e3e 4375 ce3e
00000270: f509 c63c 45af f03e 2f06 943d c897 603e
00000280: 9587 aa3d ce11 67bc 3414 6fbe 04ae 043f
00000290: ae9e 733e 542c d03d 685e f33d 01d8 82bb
000002a0: 5c4c 163e b0d0 2abd 9e6e 2f3e 3573 4e3e
000002b0: 2044 57be 8dd3 74be af22 353e 83b0 293e
000002c0: 2eca a4bd 91b5 1cbe 7da7 fb3e 4fa4 a0be
000002d0: 7f26 323e 5410 e0be 9205 7fbe 982c 933d
000002e0: c1ff b1be 70fa cc3e b0d3 dbbe 8cc4 9abd
000002f0: a202 a13e cbb3 e8bd 1202 07be 8ecf 843e
00000300: 6b11 3b3e 0bc5 a83d d463 1c3d 9248 f43e
00000310: 23f7 0dbd 8ff1 003f 0f77 1d3c 1533 76be
00000320: b5e0 123c e9a3 8e3d 093c 8e3d 56b7 fabd
00000330: 1090 db3e 1a6f 57bc 99e4 073e 1ad6 58be
00000340: 9d28 87be 1db0 893e 70f2 923d 71d8 693e
00000350: 9b69 afbe 1b2e e1bc 7a61 c0be 9683 a1be
00000360: 1467 4a3d 8c9f 41bf 2f02 ddbe 5928 c2be
00000370: bd19 5bbe 2996 86be 0b29 3abe 2d29 7fbe
00000380: 1145 303e 3443 aebe 7f83 23bd 9729 3ebf
00000390: d28e efbe d98d ff3d 08c9 08bf e44c 0c3e
000003a0: 1aaa 8c3e 2ee4 6c3e 037e b0bb 8c58 11bc
000003b0: 1a08 dcbc b53f 363f fd25 1bbf 2553 dabc
000003c0: b126 64bf 0843 42ba 7b90 1ebf 5525 183e
000003d0: 4463 56be 0d03 cebe f214 51be 3d7f cf3e
000003e0: dcce 133f ee3e 73be 37ac 45bd d705 143d
000003f0: 87bd 1c3e c9b7 3dbe 36ac 3c3f f0a0 83be

bias f4 [20]
0.44094488 0.89458346 -0.29912886 -0.19255595 0.9420173 -0.6740999 1.6107317 -0.821795
-0.24118909 -1.3820817 1.03457 -0.16585226 -0.1419161 -0.14940856 -1.0292352 1.6045065
0.9487778 0.34973747 -0.31080496 -0.82725275
00000000: 87c3 e13e 6c03 653f 6b27 99be 632d 45be
00000010: 0c28 713f d091 2cbf 752c ce3f 2861 52bf
00000020: 46fa 76be 0ee8 b0bf ca6c 843f 2dd5 29be
00000030: 7452 11be 8ffe 18be fbbd 83bf 7860 cd3f
00000040: 1ae3 723f ca10 b33e d421 9fbe d6c6 53bf

weight f4 [20, 20]
0.25439242 -0.063998275 0.029181661 -0.26270878 0.5053909 -0.2695646 0.44327486 -0.4959807
0.40553835 -0.0858037 0.26916763 -0.21215652 0.5219717 0.34919852 -0.3682423 0.7434491
0.28864405 0.67139065 -0.07646225 -0.13266675 0.8307037 0.2922775 -0.77472997 0.393016
0.64716834 -0.26486596 1.044724 -0.3988376 -0.20518047 -0.076204516 0.19534765 -0.9058831
0.24032508 0.5464345 -0.61243147 0.11126426 -0.043975838 -0.324205 -0.4252694 -0.31462938
-0.8214638 0.009867124 0.7209744 0.22997467 -0.40630165 1.068413 -0.7783908 1.0296384
-0.109331325 1.0091903 -0.5799905 0.44085407 -1.124489 -0.25378522 1.0058781 -1.7592676
-0.59467715 -0.4958053 1.0270734 0.47896075 -0.29326227 0.008004977 0.021441132 0.26482627
-0.03672632 0.035177268 0.08741589 0.27657685 -0.073075674 0.2745671 0.21841028 -0.38220364
-0.20072095 0.28553346 0.18216623 -0.07816435 -0.33186576 0.45165753 0.25899938 -0.42507556
0.17477304 -0.044009324 -0.20812616 0.24732317 0.29363573 0.41719645 -0.1306786 0.11623401
-0.16536745 -0.06158931 0.21756732 0.22324167 -0.34154594 0.20481268 0.045609478 -0.135641
-0.38482484 -0.7191291 -0.12855214 -0.004895008 0.07161663 0.23349376 0.23947892 0.15778862
0.3618745 -0.31904235 -0.26248026 -0.44272023 0.0032400955 -0.17962706 0.03950685 -0.25909507
-0.10621797 0.2498317 -0.95196754 0.58245695 -0.43165356 0.10016826 0.14859587 -0.07213491
-0.13328312 0.4032319 0.021426491 0.0061165434 -0.38473698 0.5607509 -0.007108893 0.098749675
-0.27640182 0.4550131 -0.22020729 -0.2602172 0.040443767 -0.2846042 0.48651296 -0.12435964
0.52566534 -0.16019017 0.20471554 -0.24491993 -0.1838367 -0.35483673 -0.60473526 0.0617758
-0.7115609 0.22140895 0.39680386 0.21147655 0.16620918 -0.084876105 0.34192443 -0.60125774
0.69821364 -0.5037304 -0.19839548 0.3012535 0.032600325 0.078248166 -0.55138355 -0.082068786
0.352229 -0.23251183 -0.5242026 -0.4614948 0.17197512 0.054382537 -0.05210487 0.045010548
0.30652198 -0.09713174 -0.06975295 -0.45006377 0.5768904 0.021273797 0.44889846 -0.5132954
0.0052321665 -0.1740374 0.23062004 0.048926856 0.22146317 0.022739576 -0.07279816 -0.34811404
-0.15009421 -0.09068499 -0.24721737 0.21404031 0.073084235 0.3235217 -0.30108795 -0.18962087
-0.21222387 0.011835333 0.42559293 -0.37972692 -0.08139312 -0.29981488 -0.17213446 0.14008002
0.11512202 0.76279366 0.12735865 0.48302877 0.113290325 0.05245175 -0.15259881 -0.30474633
0.019123936 0.20450161 0.05071807 0.15653303 0.023792075 0.19189379 -0.3342735 0.24427353
-0.7093664 -0.75547963 0.0792435 -0.26921865 0.17634815 0.29537645 -0.00726663 0.22235554
-0.0034884487 0.18511572 0.17926122 -0.17587076 -0.45173034 -0.04395113 -0.0056474837 -0.1398688
-0.34599102 0.06030608 0.057956927 0.25931168 -0.08702606 -0.0985167 -0.17135856 0.102023736
0.24604402 0.0052937376 -0.03096411 0.28407916 -0.13652232 -0.14095773 0.11593684 -0.26565036
0.114221394 0.20446955 0.021438826 0.009555602 -0.277637 -0.059416134 0.42383513 0.64626247
00000000: b93f 823e 8711 83bd 610e ef3c c481 86be
00000010: 4c61 013f 5f04 8abe ecf4 e23e 2ff1 fdbe
00000020: b9a2 cf3e dab9 afbd 57d0 893e 8f3f 59be
00000030: f09f 053f 26ca b23e 418a bcbe ae52 3e3f
00000040: 27c9 933e 42e0 2b3f 3d98 9cbd cbd9 07be
00000050: ffa8 543f 65a5 953e b454 46bf 6539 c93e
00000060: d3ac 253f 839c 87be 84b9 853f 7134 ccbe
00000070: d41a 52be 1d11 9cbd 3709 483e f4e7 67bf
00000080: c717 763e 22e3 0b3f 4fc8 1cbf 84de e33d
00000090: 0220 34bd 33fe a5be e9bc d9be 1a17 a1be
000000a0: 744b 52bf b8a9 213c c791 383f 7b7e 6b3e
000000b0: c506 d0be c2c1 883f 9f44 47bf 31cb 833f
000000c0: 1ae9 dfbd 262d 813f 427a 14bf a0b7 e13e
000000d0: 41ef 8fbf 23f0 81be 9dc0 803f ae2f e1bf
000000e0: c33c 18bf 31da fdbe 2477 833f 583a f53e
000000f0: 7926 96be 4f27 033c 50a5 af3c 4f97 873e
00000100: 566e 16bd 0a16 103d 1a07 b33d 7b9b 8d3e
00000110: b3a8 95bd 0f94 8c3e f2a6 5f3e 32b0 c3be
00000120: cb89 4dbe 7131 923e c989 3a3e a114 a0bd
00000130: 4fea a9be a83f e73e 919b 843e 81a3 d9be
00000140: b4f7 323e 1f43 34bd 061f 55be 4942 7d3e
00000150: 6c57 963e c69a d53e 9cd0 05be 190c ee3d
00000160: 1656 29be 1345 7cbd f8c9 5e3e 7799 643e
00000170: 1cdf aebe 6aba 513e 01d1 3a3d 79e5 0abe
00000180: c307 c5be d818 38bf 2ca3 03be 4e66 a0bb
00000190: bdab 923d fd18 6f3e f639 753e 5793 213e
000001a0: 9d47 b93e 8559 a3be d063 86be 3aac e2be
000001b0: c857 543b 28f0 37be efd1 213d 1ca8 84be
000001c0: cf88 d9bd e2d3 7f3e 25b4 73bf e61b 153f
000001d0: b201 ddbe 0425 cd3d 8429 183e 78bb 93bd
000001e0: 5f7b 08be 6974 ce3e 9c86 af3c 496d c83b
000001f0: 3ffc c4be 5f8d 0f3f b7f1 e8bb 453d ca3d
00000200: 8a84 8dbe 7af7 e83e 057e 61be 303b 85be
00000210: 5da8 253d a4b7 91be 3a18 f93e 44b0 febd
00000220: 0192 063f e408 24be f3a0 513e 4acc 7abe
00000230: b03f 3cbe 29ad b5be eecf 1abf 9f08 7d3d
00000240: db28 36bf 07b9 623e e029 cb3e 4f8d 583e
00000250: bd32 2a3e 86d3 adbd b810 af3e 07ec 19bf
00000260: 21be 323f 7af4 00bf 2f28 4bbe e63d 9a3e
00000270: eb87 053d 9340 a03d 7927 0dbf ae13 a8bd
00000280: 5c57 b43e 9517 6ebe 2432 06bf 0c49 ecbe
00000290: 3f1a 303e 39c0 5e3d eb6b 55bd fb5c 383d
000002a0: 73f0 9c3e 01ed c6bd a2da 8ebd c26e e6be
000002b0: 17af 133f 6346 ae3c 05d6 e53e 5467 03bf
000002c0: 9872 ab3b dc36 32be a927 6c3e 8767 483d
000002d0: 3ec7 623e 5948 ba3c 3417 95bd 013c b2be
000002e0: 4cb2 19be 0db9 b9bd 8d26 7dbe 622d 5b3e
000002f0: 30ad 953d a3a4 a53e 3328 9abe f92b 42be
00000300: 3751 59be fce8 413c 51e7 d93e 916b c2be
00000310: 70b1 a6bd 5681 99be 0444 30be 2371 0f3e
00000320: 18c5 eb3d 7246 433f 4e6a 023e 8c4f f73e
00000330: c204 e83d a5d7 563d dd42 1cbe b607 9cbe
00000340: cda9 9c3c df68 513e c0bd 4f3d 324a 203e
00000350: 99e7 c23c ce7f 443e e525 abbe d722 7a3e
00000360: 0999 35bf 1d67 41bf 6b4a a23d 07d7 89be
00000370: 9c94 343e 953b 973e e91c eebb 2cb1 633e
00000380: 759e 64bb fa8e 3d3e 4190 373e 7717 34be
00000390: 3349 e7be 1a06 34bd 870e b9bb c439 0fbe
000003a0: bc25 b1be 8203 773d 3e64 6d3d 80c4 843e
000003b0: b83a b2bd 20c3 c9bd 9e78 2fbe d2f1 d03d
000003c0: f7f2 7b3e 1777 ad3b 72a8 fdbc d372 913e
000003d0: 82cc 0bbe 3957 10be 4b70 ed3d 5303 88be
000003e0: e8ec e93d 7760 513e 7aa0 af3c 1a8f 1c3c
000003f0: 7026 8ebe 555e 73bd eb00 d93e 7571 253f

bias f4 [20]
1.0257136 1.247455 -1.5536177 -0.07956606 -0.09398394 -0.42762974 0.05028826 0.78872156
0.17332195 -0.24071734 -0.5643352 0.575347 0.69689053 0.59095746 0.28084162 -0.25353682
-0.13090359 0.21674 -0.39516056 0.694709
00000000: 954a 833f 9bac 9f3f f2dc c6bf 88f3 a2bd
00000010: a77a c0bd 49f2 dabe 10fb 4d3d a8e9 493f
00000020: 4f7b 313e 9b7e 76be 4678 10bf f149 133f
00000030: 6b67 323f fd48 173f 79ca 8f3e 94cf 81be
00000040: 970b 06be 17f1 5d3e 7c52 cabe 73d8 313f

weight f4 [20, 20]
0.13942087 0.1221511 0.28794914 0.023501912 0.13563782 0.10535415 0.031765044 0.14565489
0.72149384 0.22079392 0.1087974 0.049117845 0.07204451 0.0554048 0.028073221 -0.35053712
0.15610047 0.20603439 -0.26438332 -0.13879895 0.17021103 0.27449214 0.49498963 0.4280226
0.43303865 -0.24928637 0.26660162 0.11951321 0.6917855 -0.7132832 -0.10485111 0.15788502
0.27956137 -0.043948583 -0.19234572 -0.8532588 -0.01728229 0.56200707 -0.22456309 0.450386
0.32678777 0.69567645 0.39367187 0.71384966 -0.09316051 -0.63962835 0.5555376 0.47413084
0.31405038 -0.3033535 -0.13202235 0.36205328 0.19162117 0.4746182 -0.3405282 -0.7438261
-0.30756447 0.33594945 -0.9410836 0.6699194 -0.10409259 0.22305393 0.266671 0.10549645
0.043014698 -0.10519532 -0.033864822 0.2217742 0.17941356 -0.038538568 0.018272473 -0.21809171
0.32749137 0.39385003 0.14870313 0.2117657 -0.100708075 0.460167 0.096046075 0.22452651
-1.1579059 -0.03767789 1.7604302 -0.6413402 -0.82100016 0.20348465 0.054991677 -0.6536617
0.052749496 1.1327 0.70038676 -0.48360217 -1.5646394 -0.35414118 -1.1293107 -0.16216125
-0.41225913 0.5870805 0.11703505 -0.71284205 -0.27324387 0.18920007 0.19597912 -0.14455906
0.25415662 -0.023842633 -0.2845637 -0.07663614 -0.10220215 -0.20022711 -0.3280969 -0.17415227
-0.15736051 0.11756175 -0.1410845 0.40829498 -0.13499038 -0.10832566 -0.35616678 -0.13438815
0.18901916 0.35879332 0.38427883 0.2347178 -0.05956855 -0.13393746 0.20521785 0.2715762
0.13644573 -0.08475026 -0.37700915 0.2984936 0.1036879 -0.07517971 0.010856901 -0.43005532
-0.034711264 0.38483906 -0.38479814 0.50424725 -0.92864394 -0.098675 1.0976932 -0.5697672
-0.47095823 0.07431423 0.10719521 -0.30978182 -0.04456419 1.1162568 0.6604883 -0.5227397
-0.644831 -0.23861818 -0.5951558 -0.28401312 -0.40455937 0.3113648 0.21244036 -0.3940814
-0.40690982 -0.43051833 0.054951303 -0.33615398 -0.56424946 -0.22170646 -0.1604303 -0.5841424
-0.27122954 0.6673488 0.1961362 -0.507661 -0.67347175 0.42580163 -0.34701967 0.11708618
-0.37500504 -0.050897382 0.23582713 -0.33885768 -0.29387364 0.07235415 0.75855464 0.109512776
-0.016771743 0.015779598 -0.06464974 0.5660622 0.57520187 0.13582894 0.39803723 -0.3934826
-0.53249294 0.53232265 -0.19745143 -0.3095102 -0.10375637 0.68907183 -0.053254675 -0.04179798
0.026623487 -0.17375872 0.12489133 0.12734246 -0.22259738 0.2638574 -0.15342511 -0.41396317
-0.19429345 -0.45825025 0.050151367 0.17651144 -0.39195177 -0.1782853 -0.45519373 0.23227014
0.15963721 -0.17472148 0.33257952 -0.23834074 -0.26637486 0.0116635095 -0.20089063 0.36458063
-0.19659007 0.028032465 -0.14337394 0.69865507 -0.05511331 -0.40564632 -0.09947346 0.19447985
0.5061929 0.26280728 0.19937818 -0.063706174 0.13533168 -0.1344392 -0.13795073 0.07405771
-0.1591193 -0.23150869 -0.264786 -0.35978967 -0.26830983 0.6125618 -0.42234245 -0.21927747
-0.12346976 -0.096672036 0.29748455 -0.06042252 -0.033348702 0.18966271 -0.043455165 0.40705132
00000000: 58c4 0e3e 5b2a fa3d 126e 933e 1587 c03c
00000010: a4e4 0a3e ebc3 d73d 101c 023d 8e26 153e
00000020: d2b3 383f cd17 623e 2cd1 de3d cb2f 493d
00000030: 128c 933d 25f0 623d d0f9 e53c 9a79 b3be
00000040: cdd8 1f3e aefa 523e 405d 87be 5021 0ebe
00000050: cd4b 2e3e 3c8a 8c3e 486f fd3e c725 db3e
00000060: 3eb7 dd3e ed44 7fbe 0280 883e 58c3 f43d
00000070: db18 313f ba99 36bf 2ebc d6bd 9cac 213e
00000080: ab22 8f3e 6e03 34bd 47f6 44be 2b6f 5abf
00000090: 9793 8dbc b2df 0f3f def3 65be fe98 e63e
000000a0: ba50 a73e da17 323f 5c8f c93e dabe 363f
000000b0: f0ca bebd afbe 23bf b637 0e3f 47c1 f23e
000000c0: 36cb a03e 2651 9bbe de30 07be 0c5f b93e
000000d0: 5738 443e 2801 f33e b659 aebe 636b 3ebf
000000e0: 1779 9dbe 9101 ac3e dbea 70bf d67f 2b3f
000000f0: 7f2e d5bd 4068 643e 1a89 883e 860e d83d
00000100: 2e30 303d a570 d7bd d7b5 0abd c718 633e
00000110: 30b8 373e 9eda 1dbd 27b0 953c 6f53 5fbe
00000120: f3ac a73e b6a6 c93e a245 183e 1cd9 583e
00000130: 0940 cebd 029b eb3e ceb3 c43d 47ea 653e
00000140: 4336 94bf 2254 1abd c755 e13f df2e 24bf
00000150: 112d 52bf 485e 503e f43e 613d 6056 27bf
00000160: db0f 583d 50fc 903f 8c4c 333f b49a f7be
00000170: 1b46 c8bf fe51 b5be 418d 90bf 990d 26be
00000180: a113 d3be e84a 163f 13b0 ef3d d17c 36bf
00000190: 9fe6 8bbe aabd 413e c0ae 483e 4a07 14be
000001a0: d120 823e a051 c3bc 55b2 91be 69f3 9cbd
000001b0: 5c4f d1bd 5608 4dbe 51fc a7be f954 32be
000001c0: 1d23 21be 37c4 f03d 7578 10be 0a0c d13e
000001d0: eb3a 0abe d8d9 ddbd 7e5b b6be 0c9d 09be
000001e0: 3d8e 413e c2b3 b73e 32c0 c43e dd59 703e
000001f0: 27fe 73bd e726 09be a124 523e 090c 8b3e
00000200: 6eb8 0b3e 8b91 adbd 5807 c1be 27d4 983e
00000210: 525a d43d d2f7 99bd 25e1 313c 3630 dcbe
00000220: 662d 0ebd a009 c53e 4304 c5be 5916 013f
00000230: 9cbb 6dbf 1e16 cabd 3681 8c3f 43dc 11bf
00000240: 7021 f1be 0f32 983d 2a89 db3d b99b 9ebe
00000250: f188 36bd 81e1 8e3f c315 293f 45d2 05bf
00000260: a513 25bf 5358 74be 215c 18bf 2b6a 91be
00000270: 6822 cfbe 356b 9f3e f789 593e 0ac5 c9be
00000280: 7c56 d0be e66c dcbe 9e14 613d 601c acbe
00000290: a772 10bf 0507 63be d747 24be 5b8a 15bf
000002a0: 99de 8abe 5fd7 2a3f eed7 483e 12f6 01bf
000002b0: a568 2cbf ac02 da3e 90ac b1be e1ca ef3d
000002c0: a900 c0be c679 50bd ab7c 713e c17e adbe
000002d0: 9b76 96be 6a2e 943d a330 423f 3c48 e03d
000002e0: e564 89bc 3744 813c 1567 84bd 74e9 103f
000002f0: 6e40 133f be16 0b3e 89cb cb3e 8d76 c9be
00000300: 7551 08bf 4c46 083f b530 4abe 1f78 9ebe
00000310: 387e d4bd 0367 303f 9321 5abd 5c34 2bbd
00000320: 8019 da3c ceed 31be 07c7 ff3d 1066 023e
00000330: 91f0 63be 5118 873e 791b 1dbe fbf2 d3be
00000340: ddf4 46be c79f eabe 856b 4d3d 6abf 343e
00000350: e7ad c8be 6c90 36be 270f e9be 39d8 6d3e
00000360: f077 233e 30ea 32be dd47 aa3e 980f 74be
00000370: 4962 88be 4e18 3f3c 46b6 4dbe 50aa ba3e
00000380: e84e 49be 57a4 e53c 9ed0 12be 0fdb 323f
00000390: 7fbe 61bd e0b0 cfbe beb8 cbbd ba25 473e
000003a0: dc95 013f ad8e 863e cb29 4c3e 6278 82bd
000003b0: 6394 0a3e 6eaa 09be f542 0dbe 92ab 973d
000003c0: 2bf0 22be 9d10 6dbe 0892 87be 5a36 b8be
000003d0: e85f 89be dad0 1c3f 453d d8be 468a 60be
000003e0: b7dd fcbd fdfb c5bd e54f 983e 9b7d 77bd
000003f0: a698 08bd f136 423e 0bfe 31bd 0869 d03e

bias f4 [20]
0.6408215 0.69692045 0.7274653 0.5243789 -0.9599793 -0.47132444 -0.13001433 -0.2355687
-0.75372696 0.81763196 -0.6240723 0.6255658 0.035114188 0.2870607 0.3450014 0.5910417
0.4056327 0.71569157 -0.36167017 -0.40429038
00000000: e10c 243f 6169 323f 2a3b 3a3f b23d 063f
00000010: 34c1 75bf 7051 f1be 7a22 05be ec38 71be
00000020: 40f4 40bf 5450 513f 34c3 1fbf 1525 203f
00000030: e5d3 0f3d 9ff9 923e 06a4 b03e 824e 173f
00000040: 17af cf3e 9037 373f d52c b9be 26ff cebe

weight f4 [20, 20]
0.10752527 -0.034741476 -0.12669845 0.057368137 -0.31801683 0.38409096 0.08518952 -0.12968986
0.045271683 -0.0783652 0.19431566 0.1309318 0.42364419 -0.18428813 -0.09787331 0.37090105
0.042585835 0.05716111 0.30629903 -0.026724763 -0.72767675 0.6196235 -0.3217045 -1.3374406
-0.20212801 1.1829975 0.07706 -0.3145007 0.73671633 -0.12689105 0.7529264 -0.59838355
1.1700395 -0.8553228 0.6298856 0.56417155 -0.70922345 -1.6501497 1.1332023 1.4508575
-0.22255361 -0.24991582 0.04017113 0.007445407 -0.36627477 -0.35353678 0.113740504 -0.27934292
-0.14694902 0.0039375164 -0.3630582 -0.3618891 -0.61302495 0.2817159 0.35459012 0.031354018
0.2731405 0.07200113 -0.120535634 -0.3329567 0.44078982 -0.37067083 -0.15431918 0.74027354
-0.12376869 -0.7395758 -0.32612038 0.0017545081 -0.6776348 0.26730937 -0.54364663 0.5641157
-0.69325095 0.6402264 -0.33101115 -0.23456198 0.2717173 1.194722 -1.0593998 -0.93144655
-0.600268 -0.23871227 0.10070839 -0.6031084 -0.79184306 0.007995949 -0.0740578 -0.53028077
0.3563948 -0.45422414 0.37572753 -0.2528753 -0.0015763453 -0.20123276 0.3963604 0.20122278
-0.44975713 -0.5963025 0.690759 -0.2518727 0.0024949836 -0.8079487 -0.63607657 0.22871597
-1.1927301 -0.23029584 -0.07022893 -0.50651246 0.31268317 -0.76350474 -0.2148897 0.42866182
-0.36406878 -0.49227613 -0.22699167 0.40060264 0.3555234 0.07969321 -0.21062443 0.3659419
-0.3444331 0.7603168 0.36586595 0.1441196 0.64915174 0.00583967 0.39610848 -0.0480023
0.10692869 0.68191206 0.17083837 -0.14362937 -0.03153184 0.11472382 0.45343304 -0.48511738
-0.1303055 -0.29788667 0.06757734 -0.227119 -0.32829273 0.3488236 -0.015472207 -0.48865357
0.20502663 0.28878483 0.08011344 -0.38020846 0.30371764 0.056101494 0.52055043 -0.32538152
0.6921376 -0.3736875 0.4506004 0.30761397 -0.6769139 -0.43126136 0.2857984 0.67495316
-0.34848648 1.1671966 0.7025669 0.32578367 1.1024216 0.10607125 0.3888866 0.8104254
0.3430467 1.4242313 -0.2319591 -0.22067402 0.10543625 0.37042695 0.14424567 0.050396916
0.29606974 -0.32383052 0.06460699 -0.24009068 -0.37195668 -0.8039974 -0.33926144 0.022315798
-0.2522715 0.09074167 -0.0983016 -0.34606037 0.32096946 -0.64837825 0.22782385 -0.2917603
-0.28583553 -0.13662975 0.06486702 -0.5105632 -0.066402264 -0.7106344 0.07196074 -0.013335146
0.92826974 0.56310767 0.45951313 0.98270166 0.3644188 -0.6723269 0.41694275 0.44161832
-0.51584274 0.89663684 -0.6414695 -0.084316514 -1.3387811 0.7196531 -0.5203739 -0.34707454
0.93854356 0.8423928 -1.0248038 -1.2256038 0.32662812 -0.059903998 0.494654 0.3012087
-0.3621959 -0.10796525 0.006883819 -0.25054058 0.060970042 -0.2904907 0.015212401 0.23993972
0.07781948 0.1481447 -0.4208621 0.12029315 0.26118955 -0.0007693235 0.29933438 -0.6112403
0.39012143 -1.151618 -0.09648889 0.0071540773 -0.7925755 0.017632445 -0.52178276 -0.5361296
0.2180226 -0.53303504 -0.23400752 -0.083832204 -0.09183788 0.003847345 0.003013134 0.13975684
00000000: 3536 dc3d 144d 0ebd 3dbd 01be dafa 6a3d
00000010: 1ad3 a2be 92a7 c43e d877 ae3d 6bcd 04be
00000020: cd6e 393d ef7d a0bd affa 463e fc12 063e
00000030: e4e7 d83e 07b6 3cbe cd71 c8bd bee6 bd3e
00000040: 7c6e 2e3d c521 6a3d 3ad3 9c3e e4ed dabc
00000050: 0649 3abf a59f 1e3f 74b6 a4be 4131 abbf
00000060: a5fa 4ebe 766c 973f a2d1 9d3d 3c06 a1be
00000070: 7199 3c3f baef 01be c9bf 403f aa2f 19bf
00000080: dbc3 953f 6ff6 5abf 2f40 213f 8c6d 103f
00000090: ab8f 35bf 1b38 d3bf c60c 913f b3b5 b93f
000000a0: 18e5 63be efe9 7fbe 7c8a 243d 9af8 f33b
000000b0: 5e88 bbbe c602 b5be c8f0 e83d 0906 8fbe
000000c0: ce79 16be 4806 813b c4e2 b9be 8749 b9be
000000d0: 34ef 1cbf 113d 903e d68c b53e 126d 003d
000000e0: 12d9 8b3e 5475 933d 63db f6bd 4d79 aabe
000000f0: 34af e13e 91c8 bdbe d905 1ebe 9182 3d3f
00000100: 707a fdbd d754 3dbf 40f9 a6be 86f7 e53a
00000110: 7979 2dbf c6dc 883e 6d2c 0bbf e369 103f
00000120: e578 31bf e1e5 233f 4b7a a9be 0431 70be
00000130: 881e 8b3e a7ec 983f 6a9a 87bf 4873 6ebf
00000140: 2aab 19bf fd70 74be 3340 ce3d 5065 1abf
00000150: 3ab6 4abf 7101 033c 9eab 97bd 7bc0 07bf
00000160: 6179 b63e 1190 e8be 5c5f c03e df78 81be
00000170: 5f9d ceba f60f 4ebe c0ef ca3e 580d 4e3e
00000180: 9146 e6be 48a7 18bf 95d5 303f 75f5 80be
00000190: e182 233b bad5 4ebf ead5 22bf 8534 6a3e
000001a0: 61ab 98bf acd2 6bbe 2fd4 8fbd cdaa 01bf
000001b0: 0218 a03e 0c75 43bf 0c0c 5cbe 9079 db3e
000001c0: 3967 babe 9e0b fcbe 8170 68be ca1b cd3e
000001d0: 2a07 b63e 3236 a33d eead 57be bd5c bb3e
000001e0: 8959 b0be 1fa4 423f c852 bb3e 1794 133e
000001f0: cf2e 263f b45a bf3b bbce ca3e 0f9e 44bd
00000200: 6efd da3d ca91 2e3f 41f0 2e3e 9413 13be
00000210: 8827 01bd 52f4 ea3d 6028 e83e 4e61 f8be
00000220: ce6e 05be 9a84 98be fd65 8a3d e291 68be
00000230: fc15 a8be 0299 b23e 247f 7dbc cd30 fabe
00000240: 80f2 513e 9bdb 933e 8412 a43d afaa c2be
00000250: e180 9b3e aeca 653d cb42 053f 6898 a6be
00000260: ee2f 313f f853 bfbe 18b5 e63e 947f 9d3e
00000270: 3b4a 2dbf 4ace dcbe 2b54 923e bbc9 2c3f
00000280: d26c b2be b366 953f 6ddb 333f 1ecd a63e
00000290: 271c 8d3f e23b d93d 251c c73e 0a78 4f3f
000002a0: d1a3 af3e 364d b63f b086 6dbe 5ff8 61be
000002b0: f6ee d73d 9aa8 bd3e 23b5 133e ff6c 4e3d
000002c0: 7496 973e 1dcd a5be ab50 843d 55da 75be
000002d0: 1b71 bebe c6d2 4dbf adb3 adbe 9fcf b63c
000002e0: bb29 81be c5d6 b93d 5952 c9bd d32e b1be
000002f0: 1c56 a43e 1efc 25bf a84a 693e 9b61 95be
00000300: 0959 92be abe8 0bbe 00d9 843d 45b4 02bf
00000310: e9fd 87bd 23ec 35bf 2760 933d a87b 5abc
00000320: 16a3 6d3f d327 103f 4e45 eb3e 5692 7b3f
00000330: 1a95 ba3e 9e1d 2cbf 8579 d53e cc1b e23e
00000340: 450e 04bf fe89 653f 5837 24bf 23ae acbd
00000350: 2e5d abbf 303b 383f 3937 05bf c1b3 b1be
00000360: 6444 703f 0ea7 573f c52c 83bf 96e0 9cbf
00000370: cd3b a73e e55d 75bd 4a43 fd3e 0738 9a3e
00000380: be71 b9be e31c ddbd a991 e13b db46 80be
00000390: b9bb 793d 32bb 94be 6f3d 793c c2b2 753e
000003a0: d25f 9f3d 3fb3 173e 3d7b d7be 415c f63d
000003b0: a3ba 853e 6dac 49ba 5b42 993e 3f7a 1cbf
000003c0: ffbd c73e 3868 93bf f89b c5bd c06c ea3b
000003d0: 3ae6 4abf eb71 903c 8e93 05bf ca3f 09bf
000003e0: 5141 5f3e fc74 08bf ab9f 6fbe 38b0 abbd
000003f0: 8015 bcbd bd23 7c3b 0078 453b 6b1c 0f3e

bias f4 [20]
0.6567402 -0.9197251 -0.65985215 0.9095021 -1.0322366 0.3964015 -0.097586066 -0.5950426
0.21672654 -0.626002 1.0786935 -0.49262032 0.061731216 0.21765177 -0.586197 -0.10376965
-0.7963383 -0.04452503 0.36855805 0.8481575
00000000: 2020 283f 1b73 6bbf 12ec 28bf 21d5 683f
00000010: 5420 84bf 23f5 ca3e 34db c7bd b654 18bf
00000020: 90ed 5d3e ab41 20bf a112 8a3f bb38 fcbe
00000030: dfd9 7c3d 1be0 5e3e 0211 16bf 2f85 d4bd
00000040: d4dc 4bbf e15f 36bd a4b3 bc3e da20 593f

weight f4 [20, 20]
-0.47125974 -0.5144867 -0.042304505 0.7233915 -0.80477613 -0.5192075 0.2367057 -0.5157913
0.8048581 -0.19474435 0.7856632 0.34495372 0.07259261 -0.42834377 0.2433662 0.6605033
-0.14381793 -0.07390782 -0.41608465 -0.19461206 -1.2662525 0.46230614 1.7407565 0.42759624
1.4606627 1.5318186 -0.963661 -0.5401169 -0.3154798 0.7500249 -1.13947 1.2909819
0.55496156 -0.9486095 1.3395793 1.1747887 1.810784 -1.4764059 -1.3321652 -1.5177246
-0.18917397 0.26925206 0.324729 -0.2928693 0.56940186 0.24363942 -0.036921598 0.4277247
-0.19836622 0.37657687 -0.35685268 -0.105997466 -0.3800367 0.17567313 -0.016140582 0.3155377
0.09353274 0.2303688 -0.29648444 0.0006583315 0.37398583 0.653558 0.006941538 -1.0436416
0.31897408 -0.056872472 -0.21179305 0.36305234 -0.14982173 0.5651381 -0.67091084 -0.027264412
-0.23355746 0.40983307 -0.21392027 -0.26827052 0.12966704 0.18740532 0.094333254 -0.30856973
-0.42203078 -1.310905 0.92493457 1.6149774 -0.19847247 -0.69390005 0.08370237 -0.83759713
0.7805032 -0.7397712 0.920863 0.80281794 0.14722916 -0.38612843 0.6415117 -0.32371324
0.09357232 -0.49697492 -0.51543474 0.054337524 -0.20159031 -0.60498923 0.15495418 0.31372514
-0.6442301 0.02406495 0.19266011 0.31414714 -0.03049179 -0.47562423 0.6916207 0.5386914
-0.24951443 -0.03340996 0.30569193 0.3746819 0.13432096 -0.43504083 -0.37813085 0.07932098
-0.7538075 -1.0832663 0.2533589 1.0820196 -1.1549672 -0.5239263 -0.3711283 -0.8798357
0.5913169 -1.3316606 1.4158338 0.39309862 0.321362 -0.53623897 0.40338045 -0.117380984
-0.21339458 -0.38704556 -0.15830162 -0.09171572 0.6358375 -0.21120687 -0.2613656 -0.06402294
-0.35615626 0.12523617 0.056079015 -0.0073843976 -0.15934095 -0.07411262 -0.07810576 -0.37607962
-0.24838817 0.47818682 -0.13484535 0.07269223 -0.1598866 0.3204404 0.2174426 0.094289266
-0.4199624 -1.3337784 0.29000714 1.3473444 -1.417768 -1.1258758 0.15961747 -0.7884362
0.8753913 -0.75945246 1.3924514 0.5071522 0.23800531 -0.15572469 0.36675215 -0.44302607
-0.13165519 -0.20701262 -0.5881465 -0.29200438 -1.2952405 0.14502129 1.5009412 0.40759555
2.2354503 2.2514908 -0.9524522 0.011022923 -1.0964351 0.47585922 -2.6897066 1.8880584
1.4093109 -1.031226 2.1440694 2.3130968 1.9037615 -2.1146631 -1.7623442 -1.8918691
0.1795359 -0.73368466 -0.35607928 0.33296153 -0.53410184 -0.9345246 0.0715449 -0.056322426
0.5766804 -0.36003938 0.5878058 -0.48061353 0.06044584 -0.29698756 0.10497429 -0.018690074
-0.15295383 -0.114472225 0.4643631 0.31877464 0.05272604 -0.60714453 0.2665403 0.4407591
-0.59555775 -0.6020685 -0.039102808 -0.38945606 0.5222304 -0.35918754 1.1469785 0.0027837032
0.03884592 -0.33152038 -0.08556099 -0.26831785 -0.24413812 0.047737677 0.25524157 0.23650408
-0.09381861 0.6965047 0.1104958 -0.6250671 0.71766275 0.54979235 0.2763832 0.4443382
-0.64504075 -0.065769814 -0.5844197 -0.25325173 0.019788167 0.00718193 -0.18172432 -0.21375202
00000000: f548 f1be 66b5 03bf 7d47 2dbd 2f30 393f
00000010: cf05 4ebf c8ea 04bf fb62 723e e60a 04bf
00000020: 2e0b 4e3f 106b 47be 3921 493f c69d b03e
00000030: 6fab 943d e04f dbbe fd34 793e bf16 293f
00000040: 0245 13be fc5c 97bd 0c09 d5be 6248 47be
00000050: 9014 a2bf 64b3 ec3e 1cd1 de3f e5ed da3e
00000060: fff6 ba3f a212 c43f 7db2 76bf 1a45 0abf
00000070: 9186 a1be a201 403f 27da 91bf e53e a53f
00000080: f611 0e3f 12d8 72bf 5677 ab3f 7a5f 963f
00000090: c5c7 e73f defa bcbf 6484 aabf cd44 c2bf
000000a0: d2b6 41be 68db 893e e142 a63e f7f2 95be
000000b0: 52c4 113f 9d7c 793e 1a3b 17bd bbfe da3e
000000c0: 8420 4bbe afce c03e 65b5 b6be 3315 d9bd
000000d0: 2c94 c2be a8e3 333e 4139 84bc 288e a13e
000000e0: 188e bf3d cce5 6b3e cfcc 97be e193 2c3a
000000f0: 127b bf3e 944f 273f d775 e33b 0c96 85bf
00000100: 9250 a33e 1cf3 68bd 47e0 58be ffe1 b93e
00000110: de6a 19be e4ac 103f d0c0 2bbf 9e59 dfbc
00000120: b029 6fbe a4d5 d13e ea0d 5bbe c15a 89be
00000130: 70c7 043e 2ee7 3f3e cb31 c13d dafc 9dbe
00000140: 6b14 d8be bccb a7bf 83c8 6c3f 94b7 ce3f
00000150: 5e3c 4bbe 6fa3 31bf 266c ab3d c46c 56bf
00000160: 0fcf 473f a561 3dbf adbd 6b3f 7a85 4d3f
00000170: 3ec3 163e a0b2 c5be 1c3a 243f bebd a5be
00000180: d8a2 bf3d 7f73 febe 88f3 03bf 0691 5e3d
00000190: b16d 4ebe 93e0 1abf 4fac 1e3e 95a0 a03e
000001a0: 44ec 24bf dc23 c53c b148 453e e5d7 a03e
000001b0: ebc9 f9bc 0585 f3be 0e0e 313f aee7 093f
000001c0: b680 7fbe e2d8 08bd a783 9c3e 4ed6 bf3e
000001d0: 6f8b 093e acbd debe 5e9a c1be 0a73 a23d
000001e0: 87f9 40bf 78a8 8abf 42b8 813e 9e7f 8a3f
000001f0: f7d5 93bf 0920 06bf 8704 bebe ea3c 61bf
00000200: 8b60 173f db73 aabf 0b3a b53f 3944 c93e
00000210: 8f89 a43e f546 09bf e287 ce3e 7165 f0bd
00000220: 1c84 5abe d62a c6be d219 22be 74d5 bbbd
00000230: 3fc6 223f 9d46 58be b6d1 85be 761e 83bd
00000240: 1d5a b6be e93d 003e 1cb3 653d d1f8 f1bb
00000250: 462a 23be 5bc8 97bd eaf5 9fbd 828d c0be
00000260: 7859 7ebe e7d4 f43e e614 0abe aadf 943d
00000270: 50b9 23be c410 a43e 46a9 5e3e bb1a c13d
00000280: 5005 d7be 40b9 aabf d17b 943e c875 ac3f
00000290: 6c79 b5bf b31c 90bf c372 233e f4d6 49bf
000002a0: a519 603f 7a6b 42bf d93b b23f bad4 013f
000002b0: aab7 733e 4b76 1fbe f0c6 bb3e 50d4 e2be
000002c0: 9ed0 06be 1efb 53be c590 16bf 9981 95be
000002d0: 71ca a5bf 7680 143e d71e c03f 5db0 d03e
000002e0: 9e11 0f40 6d18 1040 e8d3 73bf 7d99 343c
000002f0: fc57 8cbf d2a3 f33e 2724 2cc0 e6ab f13f
00000300: 4d64 b43f 37ff 83bf 6f38 0940 c709 1440
00000310: 75ae f33f a456 07c0 7f94 e1bf c428 f2bf
00000320: 42d8 373e c2d2 3bbf 0650 b6be ef79 aa3e
00000330: e6ba 08bf 013d 6fbf 2286 923d 58b2 66bd
00000340: 54a1 133f 1557 b8be 717a 163f fa12 f6be
00000350: 0f96 773d c10e 98be c3fc d63d ed1b 99bc
00000360: ee9f 1cbe 6a70 eabd 00c1 ed3e 6e36 a33e
00000370: 43f7 573d d36d 1bbf f877 883e 2dab e13e
00000380: 7976 18bf 2921 1abf 442a 20bd c966 c7be
00000390: e4b0 053f 6ee7 b7be 31d0 923f ca6e 363b
000003a0: e61c 1f3d 0abd a9be 9a3a afbd f560 89be
000003b0: 58ff 79be 9588 433d 06af 823e 202e 723e
000003c0: f923 c0bd 224e 323f 9f4b e23d 6604 20bf
000003d0: bfb8 373f 31bf 0c3f 1982 8d3e 4c80 e33e
000003e0: 6421 25bf 53b2 86bd 889c 15bf 36aa 81be
000003f0: cb1a a23c 6556 eb3b f115 3abe cfe1 5abe

bias f4 [20]
0.6402165 -1.9723877 -0.5510081 -0.43905059 -0.42870262 -0.14376862 -0.005364993 0.63895935
-0.3836357 -2.1961524 0.43286067 0.60241735 -0.28322873 -0.040804267 -0.9833387 1.5121222
0.6880476 1.1758947 0.07086801 0.4306375
00000000: 3be5 233f 3377 fcbf de0e 0dbf 3dcb e0be
00000010: e97e dbbe 1538 13be d3cc afbb d792 233f
00000020: e66b c4be c38d 0cc0 ea9f dd3e 0638 1a3f
00000030: 5b03 91be 6022 27bd 16bc 7bbf 388d c13f
00000040: e323 303f b883 963f 3f23 913d 857c dc3e

weight f4 [20, 20]
0.3211891 1.0129503 -0.41984853 -0.21108553 0.7522998 -0.021574704 -0.07878218 0.16926491
-0.42860365 3.501072 -0.22984517 -0.426672 -0.1374784 -0.22004497 -0.29026094 0.45694172
-0.17869695 -0.74738616 -0.028337866 0.28381398 0.2272986 1.1074958 -0.04059734 0.20866503
1.2002584 0.030020246 0.32738057 -0.45419356 0.5697692 3.1028752 -0.44318315 0.12942451
0.33177865 -0.12516764 -0.38622168 -0.44201756 0.0061553754 -0.5468237 -0.47175515 0.29838043
-0.22155972 1.4935074 0.56641227 0.55215085 1.001268 0.23404707 -0.35110927 -0.7911429
-0.111887075 3.6297476 -0.50553983 -0.3103179 0.2977509 -0.34909078 0.089165986 -0.4814174
-0.55917627 -1.425569 -0.90910095 -0.28392607 -0.7631046 -1.6725878 1.0623057 0.41144347
-1.7673764 -0.8943463 -0.53924733 0.56594026 -0.23321275 -4.196339 -0.09461364 0.011335029
0.7246806 -0.3374804 0.7803253 -1.2246839 -0.6792968 1.629147 -0.1982456 -1.0267559
-0.51635474 -1.1658459 0.75335413 0.39712986 -1.1249753 -0.42439964 -0.12917657 0.9127628
-0.66204846 -2.8002386 -0.2951415 -0.20905802 1.0309898 -0.44212723 0.42057058 -0.6667953
-0.71204615 0.84271073 0.2664208 -0.40233845 -0.6890255 1.2287302 0.50913817 0.7158392
0.41656533 -0.610386 -0.5052236 -0.22878179 -0.6711961 3.3711963 -0.5613142 -0.43146026
0.7176312 -0.96074337 0.49861792 -0.35154253 -0.42362586 -0.5241549 -0.9045739 -0.47204366
0.33783942 -0.63375396 0.19966215 0.13256484 -0.67788064 0.32844678 -0.11419058 0.44463655
-0.52421486 -2.038521 0.22569533 0.23960173 -0.14962073 -0.0549606 0.15491581 0.13810097
-0.23825797 0.7430056 0.31557208 -0.23452742 -0.74758947 1.0977374 0.12501411 0.8556179
0.8628435 -0.24848378 0.18130176 -0.51803863 -0.11783709 4.2451916 -0.3252699 -0.9647825
-0.09708602 -0.28213167 0.26986727 -0.32607687 -0.31799978 -1.2066615 -0.29470447 -0.59630114
-0.034066632 2.352843 0.061888676 0.5857325 1.471593 0.20563853 0.34090528 -1.097296
-0.24065438 5.2337193 -0.6662223 -0.08081564 0.12639126 -0.3871189 -0.4193705 0.49521095
-0.06666845 -2.0256667 -0.682484 0.13104014 -0.12968504 1.5537858 -0.29430822 -0.44187444
0.8775159 -0.026566962 0.2500347 -0.23153943 -0.022590911 3.3573823 -0.4710905 0.24987775
-0.3071162 -0.1029332 -0.31720993 0.12063303 0.2635494 -1.3495321 -0.48941863 0.25363752
0.54960227 1.7349817 -0.44670257 -0.4185819 0.7452635 -0.027431691 0.52455014 -0.59539753
0.22154854 4.1497684 -0.059830636 -0.142929 -0.45068005 0.31943765 -0.35079116 0.28804475
0.37598076 -1.7332088 0.18740253 0.7070105 -0.03986403 1.7600101 0.4224015 0.51720935
1.1941284 0.18890202 -0.5181878 -1.2018033 -0.09060585 4.769467 -0.3241853 -0.21604542
0.77250904 0.05749222 0.43654135 -0.15239209 -0.8648904 -1.3658319 -1.0476614 -0.24983245
0.80634314 -0.37153038 -0.68590325 -0.6392365 -0.16097559 0.5701382 0.48298854 0.048778463
0.58758867 -1.63734 0.5277913 0.7855617 -0.17198895 0.30496243 -0.6795325 0.9044703
00000000: e672 a43e 5ba8 813f 63f6 d6be ce26 58be
00000010: b896 403f 6fbd b0bc 8d58 a1bd c853 2d3e
00000020: f071 dbbe 9011 6040 885c 6bbe c174 dabe
00000030: 23c7 0cbe 7853 61be 159d 94be 44f4 e93e
00000040: 55fc 36be b354 3fbf d024 e8bc 1150 913e
00000050: f7c0 683e 6cc2 8d3f 6549 26bd 49ac 553e
00000060: 11a2 993f 05ed f53c 6d9e a73e 0f8c e8be
00000070: 65dc 113f 8295 4640 e7e8 e2be dc87 043e
00000080: e4de a93e f22b 00be d9be c5be 2050 e2be
00000090: 08b3 c93b a3fc 0bbf e489 f1be 52c5 983e
000000a0: 8de0 62be 402b bf3f 6500 113f c259 0d3f
000000b0: 8d29 803f 09aa 6f3e 98c4 b3be 5788 4abf
000000c0: 0d25 e5bd c94d 6840 0f6b 01bf fde1 9ebe
000000d0: ce72 983e 07bc b2be a89c b63d 577c f6be
000000e0: 2d26 0fbf 0c79 b6bf d7ba 68bf c25e 91be
000000f0: d35a 43bf 5b17 d6bf a2f9 873f b8a8 d23e
00000100: 6439 e2bf e1f3 64bf 1d0c 0abf 76e1 103f
00000110: 53cf 6ebe 6948 86c0 ccc4 c1bd 8fb6 393c
00000120: ab84 393f 3bca acbe 66c3 473f 71c2 9cbf
00000130: 65e6 2dbf e487 d03f e500 4bbe bd6c 83bf
00000140: d32f 04bf 703a 95bf d1db 403f 9b54 cb3e
00000150: 31ff 8fbf e94a d9be dd46 04be d3aa 693f
00000160: 027c 29bf 1c37 33c0 c91c 97be 4e13 56be
00000170: 79f7 833f 805e e2be 0755 d73e 19b3 2abf
00000180: a848 36bf e4bb 573f 4f68 883e 4eff cdbe
00000190: fa63 30bf 0847 9d3f e156 023f 3d41 373f
000001a0: 0d48 d53e 4242 1cbf 5556 01bf c645 6abe
000001b0: 82d3 2bbf aec1 5740 4ab2 0fbf 5ce8 dcbe
000001c0: aeb6 373f 47f3 75bf d94a ff3e 62fd b3be
000001d0: 7de5 d8be 042f 06bf 2892 67bf b5af f1be
000001e0: 4af9 ac3e b33d 22bf 3c74 4c3e 14bf 073e
000001f0: 9689 2dbf 2d2a a83e c0dc e9bd 67a7 e33e
00000200: f232 06bf 2177 02c0 ad1c 673e 285a 753e
00000210: 2d36 19be 5e1e 61bd 40a2 1e3e 576a 0d3e
00000220: e6f9 73be 9d35 3e3f aa92 a13e f527 70be
00000230: 0662 3fbf a982 8c3f b303 003e c609 5b3f
00000240: 50e3 5c3f 8872 7ebe 2ba7 393e 2e9e 04bf
00000250: 9254 f1bd 9cd8 8740 c789 a6be fcfb 76bf
00000260: 09d5 c6bd 9073 90be 0b2c 8a3e 8cf3 a6be
00000270: ded0 a2be e273 9abf 81e3 96be 31a7 18bf
00000280: 7489 0bbd fb94 1640 fb7e 7d3d 91f2 153f
00000290: 295d bc3f e892 523e 238b ae3e 3274 8cbf
000002a0: 1a6e 76be a17a a740 8b8d 2abf ac82 a5bd
000002b0: b66c 013e 7334 c6be bbb7 d6be 4a8c fd3e
000002c0: 7889 88bd 86a4 01c0 45b7 2ebf 632f 063e
000002d0: 28cc 04be 74e2 c63f 91af 96be 5e3d e2be
000002e0: e2a4 603f f5a2 d9bc 8c04 803e ac18 6dbe
000002f0: 9310 b9bc 5adf 5640 c632 f1be f4df 7f3e
00000300: 563e 9dbe a4ce d2bd 5769 a2be 730e f73d
00000310: f2ef 863e 78bd acbf 1495 fabe c7dc 813e
00000320: bcb2 0c3f e113 de3f 33b6 e4be 5e50 d6be
00000330: 97c9 3e3f 6db8 e0bc eb48 063f f96b 18bf
00000340: 9fdd 623e e7ca 8440 f810 75bd fb5b 12be
00000350: 89bf e6be 558d a33e e69a b3be 9a7a 933e
00000360: 8d80 c03e c9d9 ddbf 73e6 3f3e a4fe 343f
00000370: 7748 23bd 0348 e13f 0245 d83e d567 043f
00000380: 33d9 983f 886f 413e f5a7 04bf b1d4 99bf
00000390: 8f8f b9bd 799f 9840 9efb a5be 033b 5dbe
000003a0: 27c3 453f f67c 6b3d 5982 df3e ac0c 1cbe
000003b0: 7569 5dbf 94d3 aebf c519 86bf 14d4 7fbe
000003c0: 816c 4e3f 3b39 bebe 5b97 2fbf 01a5 23bf
000003d0: c9d6 24be 94f4 113f 464a f73e edcb 473d
000003e0: 366c 163f 5b94 d1bf 551d 073f 921a 493f
000003f0: df1d 30be 0924 9c3e d8f5 2dbf 5e8b 673f

bias f4 [20]
0.5268273 -0.73162764 -0.6949419 -0.64630497 -0.26396188 -0.69647235 1.0478227 -1.1698115
-0.16979824 0.65588933 0.5628643 -0.6495508 0.37835017 -1.0880681 -0.365675 -0.2535761
-0.06112246 1.5287306 0.4944648 -0.7537061
00000000: 27de 063f f34b 3bbf b6e7 31bf 3e74 25bf
00000010: 0326 87be 034c 32bf 0e1f 863f 62bc 95bf
00000020: 97df 2dbe 5de8 273f e017 103f f648 26bf
00000030: 1db7 c13e d145 8bbf c139 bbbe bad4 81be
00000040: 8b5b 7abd 72ad c33f 7e2a fd3e e2f2 40bf

weight f4 [1, 20]
-3.9327292 -5.036378 -4.0618668 4.4714613 4.8140597 -3.3326237 4.7411466 -4.1708217
-5.066784 -7.8687243 -5.5718155 -4.4018326 3.2809148 -4.398948 -3.9031816 3.5009654
4.419087 4.584599 5.0653744 -4.2774744
00000000: d6b1 7bc0 022a a1c0 d0fa 81c0 3616 8f40
00000010: c70c 9a40 b549 55c0 79b7 9740 5f77 85c0
00000020: 1823 a2c0 97cc fbc0 504c b2c0 d0db 8cc0
00000030: 82fa 5140 2fc4 8cc0 bacd 79c0 d10f 6040
00000040: 2969 8d40 09b5 9240 8c17 a240 12e1 88c0

u_b f4 [2]
9.921032 39.96
00000000: 8cbc 1e41 0ad7 1f42

l_b f4 [2]
0.040675044 0.0
00000000: e09a 263d 0000 0000
