Iter_03/Models/Noise_5/simulation_00_20/ff_400.pt (torch, 44381 bytes, 23 tensors)

weight f4 [20, 2]
000000 59 f0 d1 bd ab e3 5c 3e 6c 97 35 bf ab 28 d7 bd
       -0.10250921 0.21571223 -0.70934176 -0.10505804
000010 42 54 e4 be fe 63 e6 3e 5f d4 89 3f e3 60 f0 3c
       -0.44595534 0.44998163 1.0767936 0.029343074
000020 0d 58 bd bf 5a 16 9f be 1c 73 36 3f e8 60 a1 bf
       -1.4792496 -0.3107174 0.7126939 -1.2607698
000030 87 a6 05 bf 3c 13 03 3f 5f 5c ab be 68 6e ec 3d
       -0.52207226 0.51201224 -0.3346891 0.11544496
000040 4a 7c 9e bf 9e 01 56 bd f1 68 8a bf 31 49 1a 3f
       -1.238168 -0.052247636 -1.0813276 0.6026793
000050 63 5b 82 3d fd 0a 91 3e be 32 02 3d 07 23 0f be
       0.06365087 0.28328696 0.031786673 -0.13978206
000060 26 5c 1c bf a5 bc e1 be f1 da f9 be b9 5e 50 3e
       -0.6107811 -0.44089237 -0.48799852 0.20348634
000070 2a f9 7f be 0b 7a 99 bf 32 43 9e 3f 8d c4 99 bf
       -0.24997392 -1.199037 1.2364256 -1.2013108
000080 cc 60 89 be b7 d5 ab bf 25 b7 b7 be 62 5f d2 be
       -0.26831663 -1.3424596 -0.35881916 -0.41088396
000090 21 d2 d9 3e 4e 91 41 be 3c 67 ce bd 8a 27 98 be
       0.42543128 -0.18903086 -0.10078284 -0.29717666

bias f4 [20]
000000 3b ee 44 bc 6c 54 68 be b7 60 52 3f 3d b8 8b bf
       -0.012019689 -0.22688454 0.82178825 -1.09156
000010 42 ad 97 3f 5a 0b 64 be 0e 1f 0e 3f 8b b7 89 3f
       1.1849749 -0.22269955 0.55516136 1.0759138
000020 79 d0 44 3e ad 09 68 3f f7 f4 b8 3e cb b9 83 bf
       0.19220151 0.90639764 0.36124393 -1.0291075
000030 6e 91 b3 bf 81 24 93 3f 6c fe 6a 3e c0 4b 73 bf
       -1.4028757 1.1495515 0.22948617 -0.9503746
000040 d0 2a 99 bf d1 28 33 be 5b ce a4 bf af 71 a8 be
       -1.196619 -0.17496039 -1.2875475 -0.32899234

weight f4 [20, 20]
000000 a4 26 9f 3e c7 2e 31 3e 77 c8 d7 3e 09 ec ba be
       0.31084168 0.17303 0.4214513 -0.36508206
000010 ec d5 56 3d 73 b7 c8 be c4 06 be 3e 17 ac 55 3e
       0.052450106 -0.3920246 0.37114537 0.20866428
000020 33 fd f5 bc 62 66 23 3f 1f 6e 9f 3e 87 69 2d be
       -0.030027961 0.638281 0.31138703 -0.16934787
000030 c4 5c 22 be c3 91 20 3f fb 43 cc 3e 0d 30 7c be
       -0.158557 0.62722415 0.39895615 -0.24627705
000040 2b ea 28 bf 24 58 38 3f ef a6 79 be 50 a1 07 bd
       -0.6598231 0.7200949 -0.24380086 -0.033112824
000050 dd 0e c6 3e ac 4e 00 3e 61 fa 4d 3e 71 36 56 3d
       0.38683215 0.12530011 0.20115043 0.052298013
000060 06 a9 9e be 8b 7c 36 bf 25 e9 96 be 3a 0d 30 be
       -0.3098833 -0.7128379 -0.2947475 -0.17192546
000070 21 e7 cc 3d 6f e1 04 3e 9c 31 57 3d ce 0e 39 be
       0.10005022 0.12976621 0.052537546 -0.18072054
000080 ca d7 db be 57 64 b9 3e b3 75 e3 be 65 a6 85 3d
       -0.4293807 0.36209366 -0.44425735 0.06525878
000090 b1 5f 01 be 74 47 d5 3e 66 48 a5 bd af a7 13 be
       -0.1263416 0.41656077 -0.080704495 -0.14419435
0000a0 0a 77 a2 3e 4f 92 d5 3e a0 f0 b0 bd 56 5c 46 bf
       0.31731445 0.41713187 -0.086396456 -0.77484643
0000b0 8f cc 1a 3f 48 5e f8 be 26 28 47 3d 2b 28 04 3c
       0.6046838 -0.4850943 0.048622273 0.008066217
0000c0 35 2b 03 3f 36 1e ba bc 16 ab 96 be 1c 55 79 3e
       0.51237804 -0.022719484 -0.29427403 0.24348873
0000d0 bb 8a 08 be 02 cf 09 3d fb a1 24 3e f5 7b 08 bf
       -0.13334171 0.033644684 0.16077416 -0.53314143
0000e0 f2 54 c6 3e 09 17 d5 3e 5b 05 26 3e ae b8 c1 be
       0.38736683 0.41619137 0.1621298 -0.37836212
0000f0 1b 00 f4 3d 2d e8 71 bd ee 5e cd be 7f d1 32 3e
       0.119140826 -0.05905931 -0.40111488 0.17462729
000100 95 02 d0 3e 3b eb 36 3f 14 e3 e8 be 33 1a 6a 3e
       0.4062697 0.71452683 -0.45485747 0.22861557
000110 66 9f 83 be df bf ea bd 7d 67 81 3d e2 5e 68 3e
       -0.2570755 -0.11462378 0.06318567 0.22692445
000120 9b 59 b5 3e a1 23 17 be b4 1b 1f 3e 96 a0 e4 3e
       0.35419926 -0.14759685 0.15537912 0.44653767
000130 ad 4b e8 be 8b 71 98 be f0 69 3a 3e cd 7c 9d 3e
       -0.45370236 -0.29774126 0.18204474 0.30759278
000140 69 5e a9 3e da fe 6c 3e c5 a8 7b be 23 ea 28 3f
       0.33079842 0.23144093 -0.24576099 0.65982264
000150 76 6c fb be c6 13 f2 be 1d 96 3a ba 35 41 57 bc
       -0.49106187 -0.4728071 -0.00071177055 -0.013138105
000160 fd 80 98 3e 9d e7 36 be af 70 1d 3d a4 6b 88 3e
       0.2978591 -0.17861791 0.03843754 0.26644623
000170 71 cc 85 3e 8f 85 02 bf 2d bb 14 be e9 08 14 3d
       0.2613254 -0.50985044 -0.14524527 0.03614131
000180 58 a0 e8 bd 20 c2 1a be a4 e0 8c 3e 32 0f f0 3e
       -0.11358708 -0.15113115 0.27515137 0.46886593
000190 80 68 11 be 05 92 4e bd 68 03 fe bc f8 f3 cc 3d
       -0.1420002 -0.050432224 -0.031007484 0.10007471
0001a0 2d 6f 3a 3e e2 c6 18 3f 24 8e bf be 22 87 51 bd
       0.18206473 0.5967847 -0.37413132 -0.051154263
0001b0 8c a0 83 bd dd 02 15 bf 15 aa 54 3d c9 43 38 bc
       -0.06427106 -0.58207494 0.051920015 -0.01124663
0001c0 f7 6b 8f bd 07 88 fc be ab bf 54 3f ae dd cb 3e
       -0.070030145 -0.4932253 0.8310496 0.39817566
0001d0 a7 67 8e 3e 5f a5 bb be 24 3d 8a 3e e3 3b 9d 3e
       0.27813455 -0.36649606 0.26999772 0.30709752
0001e0 d6 62 dd be bd 70 b3 3d 26 ef 38 bd fd b5 d4 3d
       -0.43239468 0.087617375 -0.045149945 0.10386274
0001f0 4d 3b 3a be 8f 53 32 bf e0 f6 2d 3e 8f 38 02 be
       -0.18186684 -0.6965875 0.16988707 -0.12716888
000200 da 5e de 3e be 1d 80 be f9 d1 bf 3d ee 85 06 bd
       0.4343174 -0.2502269 0.09366221 -0.03284257
000210 1b 1c 47 3e ba 7c 19 be 54 62 85 3e 2e 39 7a bd
       0.19444315 -0.14988986 0.2605158 -0.061089687
000220 cb 8a ce 3d 46 ac 6d be 80 51 3e 3e b0 73 ad bd
       0.100850664 -0.23210248 0.18585777 -0.08469331
000230 f9 f4 a6 3d d9 4d 47 3f 63 80 14 3e f8 a2 0f be
       0.081521936 0.7785316 0.145021 -0.14027011
000240 1d df b9 3e 0f 86 79 bd 46 f5 ed be 20 3d 8f be
       0.36303034 -0.060918864 -0.4647619 -0.27976322
000250 a7 1c 9f 3e ee fe d4 3c 1d b5 0e be 9f 86 cf 3e
       0.31076548 0.026000466 -0.13936277 0.40532395
000260 23 08 11 3f ba 11 01 bf e4 de 72 3e f5 e4 fe be
       0.5665304 -0.50417674 0.23717839 -0.49784055
000270 86 98 73 3c 74 d3 85 3e 99 e1 cf 3d b3 95 05 3f
       0.014867907 0.26137888 0.10150451 0.5218155
000280 86 93 a5 bd 59 d4 7f bd 55 8d 6b bf 86 34 00 3f
       -0.080847785 -0.06245837 -0.9201253 0.50080144
000290 be eb 52 be 52 5c 1d 3f f0 fd 14 bf f9 c1 c6 be
       -0.20597741 0.61468995 -0.5819998 -0.38819864
0002a0 06 f5 b5 3e 1f a0 25 bf 0c f5 0f bd b7 53 12 3f
       0.355385 -0.6469745 -0.035145804 0.5715899
0002b0 a3 1b 8a 3f a9 4e 79 bf 48 7b f5 3e 05 55 97 3e
       1.0789684 -0.9738565 0.4794562 0.29557052
0002c0 8e 2c cf 3f 47 c7 6a bf 31 34 15 3f 7c 04 f5 3d
       1.6185472 -0.91710323 0.5828276 0.11963746
0002d0 38 c7 07 3e 6d 47 c8 3d bc 8c a8 3e 8b b8 98 3e
       0.1325959 0.097792484 0.32919872 0.29828295
0002e0 3f e7 be 3e 35 ac cd 3d b2 90 2a 3e a2 8c f4 3c
       0.37285802 0.100426115 0.1665676 0.029852215
0002f0 0e cc 06 3f 20 1a 2c 3e f0 ad bc 3d b1 17 6b be
       0.5265511 0.16806841 0.092128634 -0.22958256
000300 95 e2 31 be 75 92 7e 3e 6a d0 65 be a4 0d 7c bc
       -0.1737159 0.24860556 -0.22442785 -0.015384112
000310 cb 79 22 3e a9 9d ad 3c e4 a8 44 be 59 8d 6d 3d
       0.15866773 0.021193342 -0.19205052 0.057996128
000320 b7 9e 3d be 66 be 0c 3e 0a 2b dd be 56 10 a9 3e
       -0.18517576 0.13744506 -0.431969 0.33020276
000330 74 da 35 bb a2 f9 bc 3e a8 10 01 bf d8 31 9e bd
       -0.0027748616 0.36909205 -0.5041604 -0.07724351
000340 94 0c 92 3e 2c 2e 6a bf c8 f5 5b be 7c 38 aa 3d
       0.2852522 -0.914767 -0.21480477 0.08311555
000350 c4 18 aa be d7 4b 14 bf 77 e3 1b 3e 36 2e 58 3f
       -0.3322202 -0.5792822 0.1522349 0.8444551
000360 36 d8 f7 be bb 1b 1b 3c 81 9f b6 3e 54 93 97 bc
       -0.48407143 0.009467061 0.35668567 -0.018502869
000370 a1 db da be 57 43 08 3e f8 bb c7 bc 1a a9 0b 3f
       -0.4274569 0.13306938 -0.024381623 0.54554904
000380 2f 37 37 be 5d 01 35 3e 5d 05 bf bd f1 95 57 be
       -0.17892145 0.17676301 -0.09327195 -0.21053292
000390 a4 b8 3b bd 0f 4d 20 3e b2 fe eb 3d 33 3a 14 3f
       -0.045830384 0.15654396 0.11523189 0.57901305
0003a0 e9 13 57 3d 67 3b b8 be 70 87 78 3e b1 2e 10 be
       0.052509222 -0.3598282 0.24270415 -0.14080311
0003b0 8a bc 6e 3e 2d 3d db be 4c 0e 8f 3e c0 a7 a3 3d
       0.2331411 -0.4282011 0.27940595 0.0799098
0003c0 a3 f7 db be 15 67 93 3e eb a0 93 3e a8 88 13 bf
       -0.4296237 0.28789583 0.28833708 -0.57630396
0003d0 6c de f1 bd 88 6b 8c 3e e8 9e eb 3b e8 13 7a be
       -0.11810002 0.2742579 0.007190574 -0.24421656
0003e0 5c 3c 5b 3e 03 64 93 3e dd ce 8d be 56 2e 9c 3e
       0.21409744 0.2878724 -0.27696887 0.30504102
0003f0 51 e3 00 3f 5a 97 c9 bd 48 df 7f 3e 36 06 61 be
       0.5034686 -0.09843321 0.24987519 -0.21975026

bias f4 [20]
000000 a8 88 26 3f 53 5f b6 3e 03 69 82 3d 7c e7 09 3c
       0.6505227 0.35619602 0.06367686 0.008417007
000010 34 f8 c8 3d 19 89 69 be 69 50 1b be 30 cd 9f 3e
       0.09812966 -0.22806205 -0.15167393 0.31211233
000020 2f 37 dc bf af 65 4f 3f 20 73 68 3e 5c c2 30 3e
       -1.7204341 0.8101453 0.22700167 0.17261642
000030 1b ce a2 bf 71 7a 3a bf 99 f1 8a bf 72 8d 52 bf
       -1.2719148 -0.7284308 -1.085498 -0.8224708
000040 da 5c 83 3f 22 b6 9e bf 4e 13 82 bf 64 2d ab 3e
       1.0262711 -1.2399333 -1.0162141 0.33433068

weight f4 [20, 20]
000000 28 1a ce 3e 3d 2b 5e 3e 9b 08 37 3e 7c 3d 33 be
       0.4025433 0.21696182 0.17874376 -0.17503923
000010 4f bd 93 bd de 6a 91 bd d0 e1 91 3c 6d e0 d6 3e
       -0.07213842 -0.071004614 0.017807871 0.41968098
000020 8b 1f 87 bf 26 84 02 3c 52 65 08 bd 20 94 e6 3e
       -1.0556501 0.007966077 -0.03329975 0.45034885
000030 20 78 57 3e e5 ca 71 3e c6 f1 d6 bd d8 4e 7a be
       0.21041918 0.23612554 -0.104953334 -0.24444139
000040 b7 4b 04 3e b8 65 71 bc 41 4b 25 3e c6 32 e9 be
       0.12919508 -0.014733724 0.16141988 -0.4554655
000050 f6 f1 80 3e 15 78 e6 3e ad 16 d5 bd 23 dd 8e be
       0.25184602 0.4501349 -0.10404716 -0.2790309
000060 da 63 e7 3c c7 1f 42 3d 30 0b 9c 3e 5f fd 93 be
       0.028245855 0.047393586 0.30477285 -0.28904244
000070 27 42 2d be 6e c5 24 3e e8 1e 01 be 75 69 c5 3e
       -0.16919766 0.16090938 -0.12609446 0.3855702
000080 be 8f 1f be 6c 1e a7 bd 06 86 26 be e5 d5 32 3e
       -0.15582177 -0.081600994 -0.16262063 0.17464407
000090 29 d6 b6 bd ef 98 96 3e c0 5e 96 3e 07 40 94 be
       -0.089275666 0.29413554 0.29369164 -0.289551
0000a0 a3 dc 01 bf 63 48 bd 3c fd 43 74 be b0 24 81 be
       -0.5072729 0.023105806 -0.2385406 -0.25223303
0000b0 1b 9d af 3e 51 9d 5e bd 14 2e e1 3e 6c ef d0 3d
       0.3429955 -0.054349247 0.43980467 0.10201916
0000c0 31 57 af 3e 47 cf 9c 3e 6b c7 86 bc e5 4d dc bd
       0.3424621 0.3062689 -0.016452512 -0.10757045
0000d0 e8 aa 22 be fb b8 ec bc 3c 1f 33 3e 9f c1 c9 3e
       -0.15885508 -0.0288968 0.17492384 0.39405534
0000e0 25 c1 8e 3e 89 2a 24 3d 4c 74 37 be 10 7b 9a ba
       0.27881733 0.040079627 -0.17915457 -0.0011785943
0000f0 86 2a dd 3d 9a 46 94 3d ec 67 16 be 13 b8 75 be
       0.10799126 0.07240029 -0.1468808 -0.23996
000100 f1 4b 8a bd 76 ac 17 be 20 70 28 bf 24 bf 0d bf
       -0.06752766 -0.14811882 -0.6579609 -0.5536978
000110 fe 22 7e be cd 82 39 bd 6b 99 d4 bc 71 82 1c 3e
       -0.24818036 -0.045290757 -0.025952062 0.15284134
000120 50 ee ce be 76 40 5f be bb a8 63 be 0a 2d ec bc
       -0.40416193 -0.21801934 -0.22232334 -0.02883007
000130 22 4b 12 3e de d7 a1 be 15 c6 00 be db ec e8 3e
       0.14286473 -0.31610006 -0.12575562 0.45493206
000140 6a 81 fb 3d 81 7c 13 3e 2d eb 07 bd 9f 6d 45 be
       0.12280543 0.14402963 -0.033183265 -0.19280098
000150 9c c6 0e 3f 23 ea 18 bf 05 b3 ab bd 59 82 b4 bd
       0.55771804 -0.59732264 -0.08383755 -0.08813924
000160 cb 1e 5a 3e 2f 73 ef 3c 30 6c 35 be 2d db 66 be
       0.21300809 0.029229729 -0.17717052 -0.22544546
000170 38 26 70 be 93 2b 39 bf 43 a5 06 3f e5 65 2e bd
       -0.2345208 -0.72332114 0.5259592 -0.042577643
000180 11 77 94 be a9 86 cb be 91 f5 4a 3e 39 68 5d bd
       -0.2899709 -0.39751175 0.19820239 -0.054054473
000190 70 f2 d4 be 4f c5 2d bf 1b 17 12 bc 4a ab 26 3e
       -0.41591215 -0.67879194 -0.008916642 0.16276279
0001a0 e0 4a 11 be 1c 77 69 be be d3 31 3e 58 40 ec be
       -0.14188719 -0.22799343 0.1736593 -0.4614284
0001b0 50 ea 15 3f 80 e3 b2 3e cf c0 a5 bd e5 c0 3c be
       0.5856066 0.34939194 -0.08093416 -0.18432958
0001c0 1d 3c 62 3e 60 f1 bc bd 46 01 5a 3f 35 09 14 bd
       0.22093244 -0.09225726 0.85158193 -0.036141593
0001d0 41 01 01 3f 31 77 99 bc 0e 4c 5a 3d c5 91 90 be
       0.5039254 -0.018733593 0.053295188 -0.28236213
0001e0 67 c4 4b 3e 37 f6 5f 3e 08 aa 5a bd 30 30 be bc
       0.1989914 0.21871267 -0.05338481 -0.023216337
0001f0 26 6c c7 3e 4c 04 ca bc 03 56 6d be 01 7e 10 3e
       0.38949698 -0.024660252 -0.23177342 0.14110567
000200 26 4c 9f be bd 2f 66 3c 43 74 e9 3e 5c 59 75 3e
       -0.31112784 0.014049468 0.45596513 0.23959869
000210 22 29 dd be d1 2f 25 3e 61 09 d7 be b9 ce c4 bd
       -0.43195444 0.16131522 -0.41999343 -0.09609742
000220 3a 00 8d 3d be 73 59 bf 63 bb 13 bf 3c 01 11 be
       0.06884809 -0.84942234 -0.57707804 -0.14160627
000230 2c 8b 0b be c3 d9 f7 bd 3c 15 18 bd fe af bc 3e
       -0.13627309 -0.121020816 -0.037129626 0.3685302
000240 02 22 3b 3e 88 31 00 be 05 ec 52 be de cb 52 3e
       0.18274692 -0.12518895 -0.20597847 0.20585582
000250 bd d9 d5 3e c8 78 af 3e c8 09 39 3e f7 93 1a be
       0.41767684 0.34271836 0.18070138 -0.15095507
000260 9e 6d 7d be 8f 6b 68 be c9 5c 45 3e 84 f2 87 3d
       -0.24748847 -0.2269728 0.19273676 0.06638053
000270 69 7b c2 3d 2c c2 6b 3e fa 8e f5 bd 27 d5 3a 3e
       0.09496195 0.2302329 -0.11990161 0.18245374
000280 6a b4 01 3e a6 79 3d be f0 9a 63 be 75 24 16 3f
       0.12666479 -0.18503436 -0.22227073 0.5864938
000290 04 31 80 3e d8 84 a9 3d f8 52 8e bd 4a 6b 6a 3d
       0.25037396 0.08277291 -0.06949419 0.057231225
0002a0 6c 19 77 3d 61 48 a9 3c cc 8b 00 be db c9 30 3e
       0.06032698 0.020664396 -0.12553328 0.17264502
0002b0 7c ae be bd e2 74 44 be ea c9 4d 3e 00 e3 99 3d
       -0.09310624 -0.19185212 0.20096555 0.07514
0002c0 65 51 08 be 39 86 5d bd ce b3 e2 3e ca e3 58 be
       -0.133123 -0.054083083 0.44277805 -0.21180645
0002d0 75 7f 0e 3f 40 33 12 be f1 a7 cc bc 8b 64 29 be
       0.55663234 -0.14277363 -0.024982424 -0.1654226
0002e0 91 fa ec be c4 10 b0 3e 8c f6 db be 23 18 0e 3d
       -0.46284917 0.3438779 -0.42961538 0.034690987
0002f0 1e 06 0a be 19 e8 de 3d 25 89 5b be 1a 49 0b 3e
       -0.13478896 0.10884113 -0.21439035 0.13602105
000300 62 c5 c1 bd c5 70 a9 bd 18 68 ac be 07 74 b2 3e
       -0.09461476 -0.08273462 -0.33673167 0.34854147
000310 2c e6 a0 3d fa 96 f8 3d 17 f9 67 3e 7f f3 ec bd
       0.07856402 0.121381715 0.22653614 -0.11569881
000320 b8 38 50 bc fb 61 a6 3d 96 f2 ac 3d af 81 84 bd
       -0.012708835 0.08124157 0.08444707 -0.06470048
000330 b8 db 10 3e 0f de 1f 3e 98 91 c1 3d c9 7b 18 be
       0.14146316 0.15612052 0.09451598 -0.1489097
000340 ed 6b bb bd bd 7c 56 3e 70 d6 1f 3d 73 32 43 3e
       -0.091514446 0.20946021 0.039022863 0.19062214
000350 1b 9b 56 be 54 2f 31 3d 57 d2 b0 be fc c1 26 3b
       -0.20957606 0.043258026 -0.34535477 0.0025445214
000360 e4 bd 29 3e d3 5e 0a bf 33 65 7d be bc cf b0 be
       0.16576344 -0.5405094 -0.24745636 -0.3453349
000370 18 46 96 3d 76 2e 89 3e 90 d1 ef bd 0e ea d1 be
       0.07337588 0.2679326 -0.11709893 -0.40998882
000380 26 55 cf 3e 85 fd 02 bf 02 94 45 3d 59 5a 27 be
       0.4049465 -0.5116809 0.048236854 -0.16343059
000390 a0 d1 02 bf a8 3b b2 3e bb 3b 8f be 75 70 20 bd
       -0.5110111 0.3481114 -0.27975258 -0.039169747
0003a0 2a 55 1b 3e 01 cd 06 3e ba 59 03 be 27 b9 3f 3e
       0.15169206 0.1316414 -0.12827197 0.18722974
0003b0 82 b1 35 3e 86 e2 14 3f e9 09 ab be 19 44 f4 3d
       0.17743495 0.5815815 -0.33405998 0.11927051
0003c0 29 6d 0f bf 34 c7 4b be 2d bf f3 be 77 51 a5 3e
       -0.5602594 -0.19900209 -0.47606793 0.32288715
0003d0 32 18 d5 3e 18 85 58 be 27 e2 a0 3c 8c 01 02 3f
       0.41620022 -0.21144521 0.019639088 0.5078361
0003e0 ac d1 80 3e 13 99 ef bd ad 68 05 3f 3e f6 39 3d
       0.25159967 -0.116991185 0.5211285 0.04540085
0003f0 9c b9 fd bd 62 2e 83 be c1 89 06 3f ba 62 1d bf
       -0.12388918 -0.25621325 0.52553946 -0.6147877

bias f4 [20]
000000 75 af 9d be c8 37 88 3e 7f 3d f5 be 38 db f8 be
       -0.30797926 0.26605058 -0.4789848 -0.4860475
000010 04 f1 84 3e fc 2b 83 be 6f fd 24 3f b3 bb 0a be
       0.2596513 -0.25619495 0.6444921 -0.13548164
000020 4f 1d 2e bc ae af 3e bf c0 d9 54 3e 00 e6 3c be
       -0.010627105 -0.74486816 0.2078619 -0.18447113
000030 61 75 ba 3d 6a 84 7a 3e 73 3e 23 be cb 52 6f 3f
       0.091044195 0.24464574 -0.15941791 0.9348571
000040 9c 66 a2 3f c9 58 53 3f 21 43 79 bf 7d 03 0c bf
       1.2687564 0.8255735 -0.97368056 -0.5469282

weight f4 [20, 20]
000000 e0 90 5c be 71 e6 fb bc 69 49 79 ba 84 5f d2 be
       -0.2153964 -0.030749531 -0.0009509535 -0.41088498
000010 07 4a bc 3e af a1 4d 3e 08 b8 0f 3e 0a b9 1a bd
       0.36775228 0.20081209 0.14035046 -0.037774123
000020 7f fc ee 3e 39 39 37 3e 6b ff ce bd cf fa a4 bd
       0.46677014 0.17892922 -0.10107311 -0.080556504
000030 22 a2 42 3e 14 7e f3 3d 74 c4 2f 3e 2c a7 3d bd
       0.19007161 0.11889282 0.17164785 -0.046302006
000040 c9 76 8c 3e b8 67 ea 3e 2f 1d d8 3e 18 fd 3b 3e
       0.27434376 0.45782256 0.42209765 0.18358266
000050 06 16 de 3d 93 2f 59 be a2 95 b9 bd 1a 54 b4 3d
       0.108440444 -0.21209554 -0.09061743 0.088051036
000060 c6 fa 9a 3e 2a 0d 9b 3e c9 1d f9 3e 27 62 67 bc
       0.3026945 0.3028348 0.48655537 -0.014122522
000070 4a f6 26 bc 86 87 a2 3d 08 ec 7d be 9f 4b 69 be
       -0.010190556 0.07936005 -0.2479707 -0.22782753
000080 8d ce d4 bd db 4a 16 3f 95 b2 6f be ad 07 52 be
       -0.10390959 0.5870797 -0.23407967 -0.2051074
000090 ee 29 b3 3e b3 d9 b6 3e 4b b4 be be 6b b6 0e 3e
       0.34992927 0.35712966 -0.37246928 0.13936774
0000a0 28 0f cc bd b2 cb fa bd df c6 50 3f 85 01 63 3e
       -0.09963828 -0.12245883 0.81553453 0.22168548
0000b0 a3 46 e5 3d 5e 2c 19 3f e9 99 08 bf 0f 90 58 3f
       0.111951135 0.59833324 -0.5335985 0.84594816
0000c0 69 3d 24 3d 57 1f 77 3f e4 20 1d bf 14 07 a5 3e
       0.040097628 0.96532196 -0.6137831 0.32231963
0000d0 5c be 0c bf 99 a7 83 be 83 8c 52 3f bb 2b c9 bf
       -0.54977965 -0.25713804 0.82245654 -1.571647
0000e0 2b 9e 43 bf 3b d3 a8 bd d2 05 10 3f 08 70 fd 3e
       -0.7641322 -0.08243414 0.5625888 0.49499536
0000f0 c4 d5 87 be 22 09 d2 bd 58 1c 81 be 17 50 9d 3d
       -0.26530278 -0.10255648 -0.25216937 0.076812916
000100 b9 3a b7 be c9 7c 7f 3d 85 87 d2 bd f3 58 bf 3e
       -0.3578699 0.062374864 -0.102797545 0.3737255
000110 5c 7c ef 3d 03 5e aa 3e 44 05 4f 3e 5c 06 fe be
       0.116936415 0.3327485 0.20216852 -0.49614227
000120 5d e5 e0 3d b9 8c 7c bc a1 b1 41 3e e5 d7 a8 3c
       0.109812476 -0.01541441 0.18915416 0.020610759
000130 a1 fe 39 be dc 01 1f 3f c2 bd 89 3e d4 96 81 be
       -0.1816354 0.6211221 0.26902586 -0.25310385
000140 87 8d 48 3e 88 6c 2a bf dc 5d c0 be 84 96 b8 be
       0.19585238 -0.66571856 -0.3757161 -0.36052334
000150 5e 50 3e bd 7c 04 4e 3e f2 71 28 be b9 b2 65 3e
       -0.046463363 0.20118898 -0.16449717 0.22431459
000160 1e d0 c1 3e 35 59 87 be 90 22 d6 bd 15 a7 f1 bd
       0.37854093 -0.26435247 -0.10455811 -0.117994465
000170 38 ff d9 3e 09 ff 48 3d 37 48 c8 3d 63 55 a0 be
       0.4257753 0.049071345 0.09779399 -0.31315145
000180 17 6f b2 3d a6 ab 7b bc 79 73 e6 be a7 84 9a 3e
       0.08712595 -0.015360748 -0.45009974 0.3017933
000190 57 fe 61 be c9 2d 96 3e de 1a 90 be ad 2f f8 3d
       -0.22069679 0.29331806 -0.28145498 0.121184684
0001a0 41 54 af bd 90 72 a6 3d 40 dc 0a bf d9 7c 8e bd
       -0.08560992 0.0812732 -0.54242325 -0.069574066
0001b0 c3 ee ae 3d e2 f2 5c 3e 9b a0 fb bd f7 99 d5 be
       0.08541634 0.21577027 -0.122864924 -0.41719028
0001c0 9e dc bf be dc 90 9e bc c7 54 e6 be 3d 3a 1a 3e
       -0.37473005 -0.019356184 -0.44986555 0.15061279
0001d0 4a 5d 73 be 42 99 22 be fb 6a 0b 3f 36 f9 84 3e
       -0.23766056 -0.15878776 0.54460114 0.25971383
0001e0 17 34 b9 bd d7 e0 88 3e 25 4e 0b 3e 8b 27 13 be
       -0.090431385 0.2673404 0.13604029 -0.14370553
0001f0 b1 d6 bd be 7a 74 bb 3e b6 a5 3a 3d af dd c8 bc
       -0.3707786 0.36612302 0.04556819 -0.02451977
000200 4c c1 3c be 0f 3e 53 3e fc ee 5c be 3d ec aa be
       -0.18433112 0.20629142 -0.2157554 -0.3338336
000210 91 d1 ae 3e de 05 9a be cd 1f ab 3e 60 cf cc bc
       0.3414426 -0.300826 0.334227 -0.025001228
000220 09 84 04 3f 2c e3 22 3e 2d e7 0f bd 07 46 62 be
       0.5176397 0.15906972 -0.035132576 -0.22097026
000230 a6 7c b6 be 06 a8 66 be ab 71 dc be d5 d6 1a 3e
       -0.35641974 -0.22525033 -0.43055472 0.15121014
000240 51 bb 32 bf ea 75 e5 3e 4b 1c b2 3e cb 16 02 3e
       -0.6981707 0.44816524 0.3478721 0.12704007
000250 c6 d6 dd 3c 3f c8 e0 bc ba ac e5 3e c0 45 1c bf
       0.027079951 -0.027439235 0.44858342 -0.6104393
000260 45 63 78 3e c3 0a 8f be bf e7 62 be 5a 44 2f 3e
       0.24256618 -0.27937898 -0.22158717 0.17115918
000270 f1 b7 5d 3d 7a cd 4c be b3 ca 0d bf d7 4d 1a be
       0.0541305 -0.20000258 -0.5538742 -0.15068756
000280 28 8b f2 3e bc ca 76 3c 83 01 a1 3d 81 aa fe bd
       0.47371793 0.015062984 0.078616165 -0.12434865
000290 36 8a bd 3e 20 19 1b 3e ff 97 2e be d5 ea 2e 3d
       0.3701951 0.15146303 -0.1705017 0.042704422
0002a0 07 e2 e5 bd 4d aa 65 3c ef 7d 6f bd 5e f3 94 3e
       -0.11224752 0.014017654 -0.05846971 0.29091924
0002b0 b4 e5 b3 3d 0f a1 eb 3d 03 8e be 3e 82 22 ca be
       0.08784047 0.11505329 0.3721772 -0.39479452
0002c0 2f a3 0a bf f9 9b d1 be c8 2a ab 3e 81 54 a6 bd
       -0.5415525 -0.4093931 0.33431077 -0.081215866
0002d0 2c 09 0d 3f cc 3d 91 3e 87 8f a5 3e 87 ba 9e 3c
       0.5509212 0.2836746 0.32336065 0.019376053
0002e0 b5 07 7d 3e 42 fe c5 be 15 44 c8 3d 93 7f 3a be
       0.24709971 -0.38670546 0.097786106 -0.18212728
0002f0 dc 0c 94 be 4a 90 29 3d 30 6b 66 3d 99 ed 94 3c
       -0.2891606 0.04139737 0.056254566 0.018179702
000300 47 59 be be fc 2c 03 3f 1c 49 9a 3c 08 b8 ae bc
       -0.37177488 0.51240516 0.01883369 -0.021327987
000310 2a e9 bf be 8f c3 e4 be e2 2e c6 be de 96 98 be
       -0.37482578 -0.4468045 -0.38707644 -0.29802603
000320 b3 b6 a9 bd d9 86 84 3e 2f 8a 90 3d 12 46 2b 3e
       -0.082868 0.2588413 0.070576064 0.16725948
000330 94 3a aa be 3c fa 92 3d a7 7a 43 be 38 99 00 be
       -0.33247817 0.07176635 -0.19089757 -0.12558448
000340 43 9f c3 3e 79 ae 02 be e8 40 20 be 7d fb 9d bd
       0.38207445 -0.12761869 -0.1564976 -0.07713983
000350 04 50 0c 3f 0e 91 74 3e 5d af 2f be 42 76 06 3d
       0.54809594 0.23883459 -0.1715674 0.032827623
000360 63 c6 de bd b2 5a 01 be 34 6d 31 be 44 bd ad bd
       -0.10877683 -0.12632254 -0.17326814 -0.08483365
000370 70 ac b0 3c 0c d5 14 bd fd 72 46 3c 40 c5 9a be
       0.0215666 -0.03633599 0.012112376 -0.30228615
000380 74 66 5b be a2 cc 61 3e 80 ec 96 3d 43 d5 28 bd
       -0.21425802 0.22050717 0.073693275 -0.041219007
000390 91 a7 7b bd 13 91 98 be b3 ef 59 be df 83 3d be
       -0.0614391 -0.29798183 -0.21282844 -0.18507336
0003a0 9f c6 20 3e 92 dd 76 be 8f 15 61 3e 94 97 75 3d
       0.15700768 -0.2410796 0.2198088 0.05995901
0003b0 b5 f1 5b 3e 7e 45 09 3f ba 48 91 be b6 1f cf 3e
       0.21478923 0.5362166 -0.28375798 0.4045388
0003c0 8f 4a a4 3d 70 4d b8 be cb 9f 03 be dc 11 60 be
       0.080220334 -0.3599658 -0.12853925 -0.21881813
0003d0 ce c2 00 bf 05 a8 1f be 64 dd 28 3c b1 59 87 bd
       -0.5029725 -0.15591438 0.01030669 -0.06608904
0003e0 44 02 f5 3e 20 35 44 3e 30 0c 79 be f2 02 cf be
       0.4785329 0.1916089 -0.24321055 -0.40431935
0003f0 2d e1 22 3d a3 bd ad be 3d e2 1a 3f 27 f2 8e 3e
       0.039765526 -0.33933744 0.6050146 0.27919123

bias f4 [20]
000000 9a b9 8e 3d 07 9d 6c 3f f1 1c 04 be 73 97 d6 bd
       0.069689944 0.92427105 -0.12901665 -0.104781054
000010 b9 98 01 3f 39 36 97 bf 22 d4 01 3f a1 e2 a2 3e
       0.5062366 -1.1813422 0.50714314 0.3181353
000020 6f e9 e1 3d 49 3a f1 3d 62 cb 06 bf 88 6b 3c 3f
       0.11030852 0.11778695 -0.5265409 0.7360158
000030 e9 c6 31 3f d9 ff 05 bd 54 5a 93 be ef c4 0a bd
       0.6944414 -0.0327147 -0.28779852 -0.033879217
000040 a1 ea ad be 2a aa bc 3e ea 81 a0 bf 7c ec 94 3f
       -0.3396807 0.36848575 -1.2539647 1.1634669

weight f4 [20, 20]
000000 30 3c db 3e 30 17 3c be 93 72 8d 3e fa 3a 26 be
       0.42819357 -0.1836822 0.27626476 -0.16233435
000010 33 75 50 3d 3a e5 96 3e 86 8d 8b be 12 8d 8d bf
       0.05089302 0.2947176 -0.2725641 -1.1058676
000020 3e b1 95 3e cb ef 85 3e 10 7b ee 3e 20 89 ee bd
       0.29236788 0.2615951 0.46578264 -0.11647248
000030 90 47 cc bd e5 6a 1b bf e2 d9 01 3b e0 be 96 be
       -0.09974587 -0.60709983 0.0019813706 -0.294425
000040 2e 25 e6 3e a7 fa c1 be ce 62 bc bd ad c8 86 be
       0.4495024 -0.37886545 -0.09198533 -0.26324978
000050 6b 6d 08 3f 66 a0 67 3e ce 1d 80 3f 79 e1 fa 3d
       0.5329196 0.22619781 1.0009096 0.12250037
000060 57 0c 67 3e a4 cd f9 be b9 12 cb 3e a2 92 b7 bf
       0.22563301 -0.48789704 0.39662722 -1.4341624
000070 d5 75 67 3f 9b 70 ad be 28 ba 53 3f 65 ee 41 3e
       0.9041417 -0.33874974 0.82705927 0.18938597
000080 49 78 46 3e 1b 24 aa be e2 d2 54 bf 98 5b a3 bf
       0.19381823 -0.3323067 -0.8313428 -1.2762327
000090 9f e7 60 bf 2e 33 72 3f 1b 66 81 be 84 83 d1 3e
       -0.87853426 0.94609344 -0.25273213 0.4092065
0000a0 22 3e b0 3e 68 21 c7 3e 52 b9 23 3e cb b7 e5 3d
       0.34422404 0.38892674 0.15988663 0.11216696
0000b0 67 f3 51 be 0c e8 c0 be ef 18 e0 3d ff 31 c7 be
       -0.20503007 -0.37677038 0.10942256 -0.38905331
0000c0 37 e5 68 3e 63 1d 10 3d a9 6f 89 3e ea 7c 14 3d
       0.22743689 0.035184275 0.26843002 0.03625194
0000d0 ff 8f 9f 3d e6 01 80 3e c9 28 d0 be 3c 9b e2 be
       0.07791137 0.25001448 -0.40656117 -0.4425906
0000e0 f8 88 ae be 30 ed a1 ba 4e af 23 bf 14 d4 49 3e
       -0.34088874 -0.0012354013 -0.6393937 0.19709808
0000f0 cf 36 b4 3c de 71 a3 3e a8 20 21 3e 7a fc e7 3d
       0.021998791 0.3192281 0.15735114 0.11327453
000100 e4 28 6e 3e 11 af 76 be 93 aa 6f bd bd 28 24 bb
       0.23257786 -0.2409022 -0.05851228 -0.0025048696
000110 34 ce d0 bd 17 e1 7e be e7 1b ff bd f1 5c cc bd
       -0.1019558 -0.24890552 -0.12456494 -0.09978665
000120 cf a9 9e 3e 9d da d4 3d b6 97 3b 3e f9 3f 85 3e
       0.3098893 0.1039326 0.18319592 0.2602537
000130 35 5c f3 3c b1 7c 81 3e a2 81 18 be 70 4c 95 3e
       0.029707054 0.25290444 -0.14893201 0.2915988
000140 f8 dd a4 be a6 55 07 bf 82 25 14 3f b8 15 b3 be
       -0.322006 -0.52865064 0.5786973 -0.34977508
000150 aa da e1 be 9e ea 96 3e 38 9b 16 bf d9 39 c6 bf
       -0.4411214 0.29475874 -0.58830595 -1.5486404
000160 12 ab 82 be f9 0d 06 3f b5 4c 0f 3f 9b f9 27 bf
       -0.2552114 0.5236507 0.5597642 -0.6561524
000170 f0 60 75 bf 70 d8 5c bf b1 22 06 bf 5d 8d 4c 3e
       -0.9585104 -0.8626776 -0.52396685 0.19975801
000180 86 c5 bd 3e b6 bf 02 bf d4 9c 6d 3e 22 eb 15 bf
       0.3706476 -0.5107378 0.23204356 -0.5856191
000190 04 c6 c1 be a7 6b d1 bd 58 63 d3 bd 80 9a 96 be
       -0.37846386 -0.10225611 -0.10321683 -0.2941475
0001a0 01 a1 6d bd ed 5a bf 3d f2 3e 05 bf 0c 0d 05 be
       -0.058014873 0.093435146 -0.5204917 -0.12993258
0001b0 f8 60 40 bd d1 2c b2 3e db 3d 93 be 04 6d 0b bf
       -0.046967477 0.34799817 -0.2875813 -0.5446322
0001c0 44 b3 3b be ee 76 5d 3e e4 7d f1 3d 4e b9 33 3f
       -0.18330103 0.216274 0.1179159 0.7020463
0001d0 bc eb 07 3c 78 37 35 be 01 e7 e1 3c 4e 17 c8 be
       0.00829595 -0.17696941 0.027575972 -0.3908028
0001e0 0f 4c 8f 3d 3f e8 1f be 04 4c f7 bd cf 8c 14 be
       0.06996929 -0.15615939 -0.12075046 -0.14506839
0001f0 17 a9 1c bf 21 83 03 3e c7 41 e4 bd d3 7b b0 3e
       -0.6119551 0.1284299 -0.111453585 0.3446947
000200 c4 08 97 3d 4b 12 9f 3e ce 47 ab be 14 59 02 bd
       0.07374719 0.31068644 -0.3345322 -0.031823233
000210 5c be 25 3d 0f ef 2a 3e 21 a6 86 3e b4 76 fb 3d
       0.040464744 0.16692756 0.2629862 0.122785
000220 ce 3b b5 3d 97 0b 08 3e 11 2a a1 3e f3 a2 7a bb
       0.088492975 0.13285671 0.31477407 -0.0038244098
000230 6f 7e ff bd ac 5f df be 79 5c 0a 3c 0e 13 eb be
       -0.12475287 -0.4362768 0.008444899 -0.45912975
000240 29 f1 b5 be 8a d1 58 3e ea b3 0f bf 9a f0 a0 bf
       -0.35535553 0.21173683 -0.561339 -1.2573426
000250 c2 a2 f1 be 40 64 54 3f 43 80 1d 3f c4 5d 50 bf
       -0.47194487 0.8296547 0.61523837 -0.81393075
000260 f7 55 b7 be c2 9b 2f bf be d6 10 be b8 87 cd 3d
       -0.35807773 -0.6859704 -0.14144418 0.10035652
000270 e9 16 94 3e ec 76 11 bf db f2 fa 3e d2 3a cb be
       0.2892373 -0.56822085 0.4901341 -0.39693314
000280 e4 01 9f be f7 e4 e3 be 1c 7b 93 be ab 3f f0 3d
       -0.3105613 -0.44510624 -0.28804862 0.11730894
000290 f5 16 ac be 3b 03 05 be f4 55 9b bd 7a bf 13 3e
       -0.33611265 -0.12989514 -0.07584754 0.14428511
0002a0 ed cb b8 be 07 c4 9e 3e a1 ee 27 be 41 6b 9b be
       -0.36093083 0.31008932 -0.16399623 -0.30355266
0002b0 7d 50 28 be 6e 34 03 3f f7 a9 ba 3e bf 31 d6 3e
       -0.16436954 0.51251876 0.36457798 0.41834828
0002c0 ef fa 6f 3e 76 0c fc be ad 59 4e 3e 99 07 7d bd
       0.23435567 -0.49228257 0.20151396 -0.061774824
0002d0 60 42 4a 3f e6 6e a8 3e e5 6c 72 3e 9c 6c 1c 3b
       0.7900753 0.3289711 0.23674352 0.0023868447
0002e0 d1 06 27 3e 6b ee 99 3d d3 2c e2 be a7 4e 9b bf
       0.16311194 0.07516178 -0.44174823 -1.2133378
0002f0 79 8c 1d be b5 a6 b9 bd 31 89 6d 3f 39 72 87 be
       -0.15385617 -0.09065 0.9278746 -0.26454332
000300 60 c2 e6 be 17 d4 11 bc 6f ae 4f be 59 aa cc be
       -0.4507017 -0.008900664 -0.20281385 -0.39973715
000310 60 63 be bc 2d 48 1d 3e f3 37 87 be 85 8d 0e 3e
       -0.023240745 0.15359564 -0.26409873 0.13921173
000320 8c ef 0a bf 77 2a f3 be a4 2b 9d 3c 6b 35 9a 3d
       -0.5427177 -0.47493336 0.019185849 0.0752972
000330 bc bb be be 25 f6 19 3f 22 c5 a6 be e7 26 d2 3e
       -0.37252605 0.6014121 -0.32572275 0.41045305
000340 a9 d5 50 be f8 6b b0 be 1b 17 65 be 51 53 29 be
       -0.20394005 -0.34457374 -0.22372095 -0.16535689
000350 43 c9 2c bf bb 79 82 bc 15 3b 85 be 40 74 1f 3f
       -0.674946 -0.015927186 -0.2602164 0.6228676
000360 67 a4 17 3f 0c a4 de be 2f d2 08 3f 71 b2 05 bf
       0.59235233 -0.43484533 0.53445715 -0.52225405
000370 87 7e 88 bd 9a c3 33 3c 48 18 af be 7f 09 00 3f
       -0.06664758 0.010971928 -0.34198213 0.5001449
000380 f7 e3 27 be c3 00 84 3e 7e 08 35 be f7 2f cd 3e
       -0.16395555 0.2578183 -0.17679021 0.40075657
000390 2f c7 5a be 1c 5e 0c bf 26 b5 ce 3d a3 5c 7c 3e
       -0.21365045 -0.548311 0.10093145 0.24644713
0003a0 4a 30 f4 3e b3 9f d2 3e d5 f0 6b 3e ae d0 29 3e
       0.47693092 0.41137466 0.23041089 0.16583511
0003b0 2e b4 85 3e fd e9 87 be 76 c5 ed bd c6 f0 9f 3b
       0.2611403 -0.26545706 -0.11609928 0.0048809974
0003c0 05 02 cf be d1 6e 32 be 0b eb 8e 3c a9 fd 36 be
       -0.40431228 -0.17425086 0.017446062 -0.17870201
0003d0 d2 9b dd be 58 78 a8 3e 7b 5e 8d bd 16 d6 22 be
       -0.43282944 0.32904315 -0.06902786 -0.1590198
0003e0 66 d9 91 3d 42 46 c5 3d 86 ae 0f 3e d0 20 1c ba
       0.071215436 0.09632541 0.14031419 -0.0005955817
0003f0 53 27 05 be 00 4a a1 3e 16 21 a8 be 62 d7 99 3d
       -0.13003282 0.3150177 -0.32837743 0.07511784

bias f4 [20]
000000 01 17 62 3f 33 12 1f 3e fd 11 7b bc bb 88 3b 3f
       0.8831635 0.15534286 -0.015324113 0.7325551
000010 d1 6b 0a 3f 8b 4b 96 be f6 b6 2f bf 92 4d 82 3f
       0.54070765 -0.2935451 -0.6863855 1.0179923
000020 fc 36 81 bd be 45 cf 3f 49 2c 71 bf 05 2d cd 3e
       -0.063093156 1.6193159 -0.942082 0.4007341
000030 ed 85 01 be 49 15 2c 3f 13 e6 eb 3d 1a 70 5c bf
       -0.12648745 0.6721998 0.115184925 -0.86108553
000040 af 36 53 3f 22 93 12 3f 8f ae 4f bf 9d 29 58 bf
       0.82505316 0.57255757 -0.8112573 -0.84438497

weight f4 [20, 20]
000000 ce 41 00 3d 6b 2b c8 3d 15 6d 95 be 3b 71 72 3d
       0.031312756 0.09773906 -0.29184785 0.059190016
000010 9e 34 e2 be 32 b0 9c 3e 29 63 d8 3e 47 78 89 be
       -0.4418077 0.30603176 0.42263153 -0.26849577
000020 7e e1 3c 3e 35 fc 8f be 8f 2a 87 3e cc e0 08 3f
       0.18445393 -0.28122106 0.26399657 0.5346801
000030 5f 0f fd 3e 7b ad 25 be fe b8 4f bd 83 9f 6d 3e
       0.4942579 -0.16179459 -0.05071353 0.2320538
000040 e9 b5 81 bc 7f 56 c0 3a 79 41 7f 3e 8a 35 af bd
       -0.015833812 0.0014674215 0.2492732 -0.08555134
000050 4e f5 b7 3e 6f dc 29 3d 4b e4 ba be 99 5a db bc
       0.3592934 0.041469987 -0.365023 -0.026776599
000060 93 4d 9f 3d b7 a1 42 bd ad 6f 64 bc 01 60 c9 3e
       0.07778468 -0.047517505 -0.013942641 0.39331058
000070 e3 af a3 3e 4f ce 6e 3c 5e d6 63 be 0a d8 bf bd
       0.31970128 0.014575555 -0.22249743 -0.09367378
000080 e5 6f 31 3e 3f 2d a3 3e c7 72 d5 bd eb 41 bb be
       0.1732784 0.31870458 -0.10422283 -0.3657373
000090 db 5e be 3e 93 a0 ac bd 80 b3 df be 21 26 63 3d
       0.37181744 -0.084290646 -0.43691635 0.055456284
0000a0 bd a7 bf be aa a6 04 3d 9f e6 60 3d b7 7b 80 be
       -0.37432662 0.032385506 0.054907437 -0.25094387
0000b0 35 00 73 be ac f6 d2 bd 6a 85 0e 3c 62 8b b3 be
       -0.23730548 -0.10300955 0.008698801 -0.35067278
0000c0 da 19 37 be a6 02 73 3e d3 fd f5 bd 9c b0 db be
       -0.17880955 0.23731479 -0.12011304 -0.4290818
0000d0 0f 11 f8 bd 6f e6 ce 3d 74 3b 01 3f 8e b6 9e 3e
       -0.12112629 0.101025455 0.50481343 0.30998653
0000e0 4a e5 4d 3d 58 cc 3d bd 49 a3 10 3e 6b 77 83 3e
       0.050267495 -0.046337456 0.14124788 0.25677046
0000f0 b4 d2 fc bd a8 ca e9 be 8a 49 08 be e9 d1 51 bd
       -0.12344876 -0.45662427 -0.13309303 -0.051225577
000100 a6 cd 19 bd c3 a3 65 bd 85 a9 70 be fb dd c8 bd
       -0.037549637 -0.05606438 -0.23502167 -0.098079644
000110 33 6e 29 be a5 7d 00 3f c6 2e 09 be 68 b8 64 3e
       -0.16545944 0.5019172 -0.13396749 0.2233597
000120 98 71 32 bd 50 94 cb 3e 82 b3 94 3e 3c d6 3b 3e
       -0.043565363 0.3976159 0.29043204 0.18343443
000130 0a 82 79 be ee 59 6e 3e 4a ad 2c be b4 f6 5a be
       -0.24366012 0.23276493 -0.1686298 -0.21383172
000140 33 4a 56 bf b4 e8 ce bf 7d 7b 9a be 20 de f3 be
       -0.8370697 -1.6164765 -0.3017234 -0.47630405
000150 46 a8 df bf 57 a9 3e 3f 89 33 00 3f 7d e9 c5 bf
       -1.7473228 0.7447714 0.50078636 -1.546188
000160 6f 05 0c bf 51 ec 0e bf 7f fd 4f be 70 db aa 3f
       -0.5469579 -0.5582934 -0.20311545 1.3348217
000170 66 c3 95 3e 29 00 6a be 6d d9 c3 3e cb 5f c9 3e
       0.2925064 -0.22851624 0.3825182 0.39330897
000180 a3 e3 df be 7a 57 95 be 7d 1c bf 3e 54 36 4e 3e
       -0.4372836 -0.29168302 0.37326422 0.20137912
000190 ed 0a ce bd 53 28 28 be 3a ab eb be 9d 14 e1 3e
       -0.10060678 -0.16421632 -0.46029073 0.4396104
0001a0 3f 2f 38 bf a5 40 a1 be 24 29 cd bd a9 10 c6 be
       -0.7194709 -0.31494632 -0.100176126 -0.38684586
0001b0 96 de 8d 3d 87 c6 38 be d7 bf 99 be 0d 30 ea 3e
       0.069272205 -0.18044482 -0.30029175 0.45739785
0001c0 f5 05 da be 5b d0 95 be 7c a5 92 be 87 cb 99 3d
       -0.4258267 -0.29260525 -0.2864188 0.07509523
0001d0 e1 b7 0b 3f f0 18 00 3e b4 f5 95 be 3d 81 91 3e
       0.5457745 0.12509513 -0.2928902 0.28418913
0001e0 44 66 1b be 4a 02 a8 bf a9 73 b4 3e eb fd 25 3f
       -0.1517573 -1.3125699 0.35244492 0.64840573
0001f0 3b 4f 03 bf 5d 03 44 be e4 4e 3e 3e c5 f6 55 bf
       -0.5129277 -0.19141908 0.18584782 -0.83579665
000200 d5 f3 51 bd a8 a3 ac be fc 54 bf be 19 93 ad bd
       -0.051257927 -0.3371861 -0.37369525 -0.08475322
000210 f4 67 00 bf 59 90 6c be 17 c8 61 be 65 ad 4f bf
       -0.5015862 -0.2310194 -0.22048984 -0.81123954
000220 c5 32 aa 3e 70 b7 19 3e 53 55 cb be 99 7c 0b bf
       0.3324186 0.15011382 -0.39713535 -0.54486996
000230 26 a6 41 3e 72 3a df 3e d4 c8 d3 bd 5b 21 8b 3e
       0.18911037 0.43599278 -0.10341039 0.27173886
000240 9d 0e 09 3f 82 dc cb be 22 07 82 be 6a 8a 86 3d
       0.53537923 -0.39816672 -0.25396067 0.06569369
000250 78 66 de 3c 98 9c da 3d 83 bf 53 3e 97 37 d0 be
       0.02714847 0.10674399 0.20678525 -0.40667412
000260 c0 c9 88 bd 3d 7d 05 be e2 a8 66 be bf ba c3 be
       -0.06679106 -0.13036056 -0.22525361 -0.38228413
000270 6b d8 72 3d 0f 8c d7 3e a9 06 01 bf 17 b4 ca bd
       0.059288424 0.42099044 -0.5040079 -0.09897631
000280 29 26 65 bf e1 31 a3 bf 11 d2 17 3e 5a 02 8d be
       -0.8951135 -1.2749597 0.14826228 -0.27540857
000290 ad 28 8a bf 2c cc 36 3f 84 6c 50 3f 27 89 44 bf
       -1.0793663 0.7140529 0.8141558 -0.7677178
0002a0 b2 7a 4d 3f e2 a4 46 bf 27 c8 69 bd 24 ca fe 3e
       0.80265343 -0.7759534 -0.057075646 0.49763596
0002b0 e7 34 fc 3e d9 04 40 bf d6 7c 72 3e c0 e8 2b 3f
       0.4925911 -0.75007397 0.23680434 0.67152023
0002c0 45 30 8b be 44 af 62 bf 12 5b 13 3f 96 e8 b4 3e
       -0.27185264 -0.88548684 0.5756084 0.353337
0002d0 48 90 e3 3e 5c b9 bd be 6d 7e 21 be 18 e4 75 3f
       0.44446015 -0.3705548 -0.15770884 0.9605117
0002e0 e1 6a 1b 3f b7 c1 07 bf 8e d1 0e bf 83 06 af 3e
       0.6070996 -0.5302996 -0.55788505 0.34184656
0002f0 a6 54 1b be 19 0f 98 3e bf e0 fe be 60 af d7 bd
       -0.1516901 0.2969902 -0.49780843 -0.10531497
000300 3e 7e 63 bf 68 49 35 3f b5 5a e3 be c8 12 98 bf
       -0.88864505 0.70815134 -0.4440514 -1.1880732
000310 92 27 41 3f d5 7c 07 3f 30 cd 7b bf 26 dc 23 bf
       0.75451005 0.52924854 -0.98359966 -0.64007795
000320 c8 76 80 3e 6e 11 dd 3e 3b ac 08 be 28 00 aa be
       0.25090623 0.4317736 -0.1334695 -0.33203244
000330 cf d2 12 3e 22 13 12 3e 80 05 ce 3e 0c 1d 13 3e
       0.1433823 0.14265111 0.4023857 0.14366549
000340 a2 6d 2a 3e 94 bc 90 3e 02 de a4 3e 7e 0f 3e be
       0.16643384 0.28268874 0.3220063 -0.18560597
000350 29 9d d7 bd d9 09 ca bd d8 4c 73 3e 27 a8 11 3f
       -0.10528023 -0.098651595 0.23759782 0.56897205
000360 3b 26 b8 be 6f 7b f9 be 9d 88 b4 3e 70 f9 a2 bc
       -0.35966668 -0.48726985 0.35260478 -0.019894332
000370 14 39 d3 bc c8 6a f7 3e 63 70 b0 3e 05 63 38 bd
       -0.025784053 0.48323655 0.34460744 -0.045016307
000380 ce 9c 9a be 15 45 aa 3e 24 0c 15 3c 2c 0e cd be
       -0.30197757 0.3325583 0.009097133 -0.40049875
000390 d2 57 d0 3d 06 39 4c be 23 4f a2 3e 88 53 3c 3e
       0.101730004 -0.19943628 0.31701002 0.1839124
0003a0 bf 29 b4 3e 6f 6e 34 bb ee 34 a4 bd 0f 03 c4 3e
       0.351881 -0.0027531644 -0.08017908 0.38283584
0003b0 ab 10 99 3d 78 f6 a4 be 71 7a 28 3f 00 63 01 be
       0.07473882 -0.3221929 0.6581183 -0.12635422
0003c0 27 4f 8e 3f 50 12 6d be 4f 44 3e 3f 38 b4 3f 3f
       1.1117905 -0.23151517 0.7432298 0.74884367
0003d0 71 2d 36 3f 7a 1d 2e bf 0d 06 94 bf c6 ef 0e 3f
       0.7116309 -0.6801373 -1.1564347 0.55834615
0003e0 ac a9 09 be d2 76 8d 3f fd c6 32 bf f8 d8 63 bf
       -0.13443631 1.1051886 -0.6983488 -0.89002943
0003f0 ac 1b 35 bf d9 4d 65 3f 97 01 e5 be 8f d8 1a bf
       -0.7074535 0.8957191 -0.44727775 -0.6048669

bias f4 [20]
000000 95 17 56 3f e2 dd b0 3f c2 cd 7a bf ad 66 06 be
       0.83629733 1.3817713 -0.9797021 -0.13125105
000010 7f 66 93 bf 3a 7a 1b 3e cc 83 1d 3f 51 02 7c 3e
       -1.1515654 0.15183344 0.6152923 0.24610259
000020 2b 6a d1 bd 93 d4 19 3f 9d 2a 51 be 2d 44 9a bf
       -0.10225328 0.6008999 -0.20426412 -1.2052056
000030 95 0c 58 3f 08 af 65 be a5 39 92 bf f0 4e 00 bf
       0.843942 -0.2243005 -1.1423842 -0.5012045
000040 c7 23 56 bf 8d bd ab 3e 5b 67 50 3f bf b5 72 3f
       -0.8364834 0.33543053 0.8140771 0.9480857

weight f4 [20, 20]
000000 e1 c6 0d be f1 8f ad 3d 06 4b b3 be 3b 3f 28 3b
       -0.13845398 0.0847472 -0.35018176 0.0025672454
000010 7d 83 25 3e 32 50 90 3e 70 c6 09 3f ac 99 bb be
       0.1616344 0.28186184 0.53818417 -0.3664068
000020 76 f4 94 3e 6b 9c e1 3d 0b 5a 94 3c fe 33 d9 bd
       0.2909276 0.110161625 0.018109342 -0.1060562
000030 0e 0f 7b 3d 9b 4f e7 3d 58 40 8e bd 00 44 c2 3e
       0.061293654 0.112944804 -0.06945866 0.37942505
000040 85 2b 70 be 3c 9b 83 3e 57 a3 ff bd f6 74 5d be
       -0.23454101 0.25704372 -0.124823265 -0.21626648
000050 63 4c 24 3f 5f a2 7d 3f c6 09 ba be 04 4b 81 be
       0.64179057 0.99075884 -0.36335582 -0.25252545
000060 a3 f4 44 bf 06 41 bb be 51 42 cc bc a2 7f 68 3e
       -0.76935786 -0.36573046 -0.024933966 0.22704938
000070 58 e8 98 3f 2d 70 23 3e 7a ad 91 3e 44 54 39 bf
       1.1945906 0.1596076 0.28452665 -0.72394204
000080 0d a2 5e bf 55 dd 2c 3c eb 2f 0f bf c9 90 1c be
       -0.8696602 0.010550817 -0.5593249 -0.15289606
000090 7d 05 ed bd b4 55 3a 3f 08 3c 16 3f 8c 36 08 3f
       -0.115733124 0.7278702 0.5868535 0.5320823
0000a0 1f 99 0d 3f 99 38 47 3f cb 19 ed be 08 ac 12 bf
       0.5531177 0.77820736 -0.4630874 -0.5729375
0000b0 06 c0 8b bf ce d0 9d bf a2 39 61 bf e0 4e 99 3f
       -1.0917976 -1.2329347 -0.87978566 1.1977196
0000c0 c5 63 88 be 76 84 8b 3f b3 34 74 3f 08 56 55 bf
       -0.26638618 1.0899799 0.9539291 -0.833344
0000d0 23 a0 c4 be 10 dd 6a bf fa 33 47 bf 34 54 01 bf
       -0.38403425 -0.91743565 -0.77813685 -0.5051911
0000e0 9f 01 69 bf 9c 32 90 3f c2 64 34 3f 6a c0 8a 3f
       -0.910181 1.1265445 0.70466244 1.083997
0000f0 45 51 59 3f bb ac 5f 3f 92 51 e3 be 3e 07 6a bf
       0.8488963 0.8737294 -0.4439817 -0.914173
000100 00 d1 88 bf 83 44 a2 bf 58 44 9c bf 3a 84 4b 3f
       -1.0688782 -1.2677158 -1.2208357 0.79498637
000110 ca 04 b4 be 7f d4 95 3f dc 4f 22 3f 8f 75 dd be
       -0.35159904 1.1705474 0.63403106 -0.43253753
000120 a3 86 77 3e 3c 48 42 bf 44 fd 2e bf d3 a2 20 bf
       0.24172454 -0.7589147 -0.683552 -0.6274845
000130 ef 26 e8 be bd b2 1d 3f 3f 7c 12 3f 01 c0 93 3e
       -0.45342204 0.6160086 0.57220834 0.28857425
000140 b6 fd e2 be bd 46 32 bf 1e 59 63 3f 14 5d 3e 3f
       -0.4433419 -0.6963919 0.8880786 0.74360776
000150 9c 26 4c 3f e4 8a 17 3f a3 da 00 3f 20 c1 01 bf
       0.79746413 0.59196305 0.50333613 -0.5068531
000160 a7 a2 e9 3e b8 01 50 be 80 a0 02 bf 97 6e 3c 3f
       0.45631906 -0.20313156 -0.51026154 0.73606247
000170 89 46 a1 bf cc cc 6f 3e ed 85 55 3f 48 f3 a6 3e
       -1.2599651 0.23417968 0.8340748 0.32607484
000180 12 90 ea 3e 46 ff 8e be 16 25 d7 be f8 51 ac be
       0.45813042 -0.27929133 -0.42020482 -0.33656287
000190 98 35 6a be 00 b2 c4 be 4a 70 89 3d 0c 21 10 3d
       -0.22872007 -0.38417053 0.067108706 0.035187766
0001a0 1f a5 f8 bd 9e fe 3a 3e a8 85 5a 3f de 7c a2 3e
       -0.12140869 0.18261191 0.85360193 0.3173589
0001b0 85 24 ae 3e 60 3d fc be 5d 67 0f 3f d8 bc db 3e
       0.34012237 -0.49265575 0.56017095 0.42917514
0001c0 53 e4 d7 3d 72 a9 17 3e f9 10 0f 3d 17 5b 13 3f
       0.10541596 0.14810732 0.034928296 0.5756087
0001d0 65 9b 6f 3e 5d 41 82 be 95 99 bc be 17 c9 2f be
       0.23399122 -0.25440493 -0.36835924 -0.17166553
0001e0 e9 94 76 bf a9 e7 ec be a7 eb 0e 3f 23 a8 f8 3e
       -0.9632097 -0.46270493 0.55828327 0.48565778
0001f0 b0 8b 3b 3e a0 30 5a 3e 26 d0 86 bf 9c dc 11 bf
       0.18315005 0.21307611 -1.0532272 -0.5697725
000200 3e 49 c8 be 67 73 08 bf a6 a8 53 3f b8 18 bd 3e
       -0.3911838 -0.5330109 0.8267921 0.3693292
000210 14 87 3f 3e 8f 9c 4e bf 32 04 90 3e c4 53 bd 3e
       0.18703872 -0.8070764 0.281282 0.3697797
000220 b7 bb 11 3f 37 db 8b be cb f0 27 bf 87 ac 51 bf
       0.56927055 -0.27315685 -0.65601796 -0.8190388
000230 54 02 ca 3e 6b d4 58 be 7e 2c 3d bc a2 7d bf 3d
       0.394549 -0.21174781 -0.011546252 0.093501344
000240 ae 86 b7 be fc 56 74 bd 2a 7d 16 3d c3 37 73 bd
       -0.3584494 -0.059653267 0.03674046 -0.05937935
000250 5c 6b a0 bd b3 ad 10 3e 0d 98 93 3d b0 a1 28 be
       -0.07832977 0.14128761 0.07206736 -0.16467929
000260 cc b3 5e be 97 54 37 be 07 e0 8d 3c 61 2d 50 3e
       -0.21748275 -0.17903362 0.017318739 0.2032981
000270 a1 83 e5 3a 57 91 f6 3d 23 25 04 bd 7b 78 03 be
       0.0017510542 0.1203944 -0.03226198 -0.12838928
000280 8a 97 35 bf d2 47 4f bf 4c 66 2f 3f da 4f 0d 3f
       -0.70934355 -0.80968964 0.6851547 0.5519997
000290 64 8e 85 3e 32 fe 85 3e 57 9f 1c be 1f 31 27 bf
       0.26085198 0.26170498 -0.15295158 -0.6530933
0002a0 4b 76 c7 3e a7 6c 35 bc d7 7f 39 3e 56 74 42 3f
       0.38957438 -0.011073268 0.18115173 0.75958765
0002b0 ea c5 88 bf 32 c2 19 3d 0c d4 27 3f 8d 1f cf 3e
       -1.0685399 0.037538715 0.6555793 0.4045376
0002c0 8c dd 42 3f 67 29 09 bf ac 8a 89 bf 0a 54 93 bf
       0.76119304 -0.535788 -1.0745444 -1.1510022
0002d0 74 5d 22 be 40 71 15 be 8f 3b 29 3e 6e bf 24 bd
       -0.15855962 -0.14593983 0.16526626 -0.040221624
0002e0 42 5d 74 3e 56 35 78 3f 8d 0a 2e 3f 41 6e 22 be
       0.238637 0.96956384 0.6798485 -0.15862371
0002f0 3e 09 9e 3e 3a 1e a9 bf 82 f2 a5 bf e2 ee fa 3e
       0.30866426 -1.321235 -1.2964633 0.49010378
000300 1f 36 a3 bf 03 a5 ac 3f 0f f3 78 3f 80 a0 60 3f
       -1.2750891 1.3487858 0.9724588 0.87744904
000310 26 dd 1c 3f b7 57 e6 bd 37 d8 a9 be 34 c8 0b bf
       0.61274946 -0.11247199 -0.3317277 -0.5460236
000320 84 97 95 bf 9e 23 cf bf a5 5c a2 3f 14 23 66 3f
       -1.1686864 -1.6182745 1.2684523 0.89897275
000330 b2 f0 96 3f bb 59 82 3f 6e 12 10 bf 55 ee 70 bf
       1.1792204 1.0183634 -0.5627812 -0.94113666
000340 72 3f 33 bf c6 91 23 bf 5d e9 7b bf b7 db 8d 3f
       -0.70018685 -0.6389431 -0.9840296 1.1082677
000350 9c 32 2f bf e6 b9 9d 3e 10 59 f9 3f b4 a5 a7 3f
       -0.684366 0.30805892 1.9480305 1.3097444
000360 36 61 8c 3f 5f ba 8f bf f3 4c 07 bf 39 79 88 bf
       1.0967166 -1.1228751 -0.5285179 -1.0661994
000370 17 cc 96 3d 91 16 11 be c8 65 7f 3e 9b 8f ed bc
       0.07363146 -0.14168765 0.2494117 -0.02899914
000380 bd d0 63 3e e1 23 86 3c c6 05 07 3d 9e cd 42 be
       0.22247596 0.01637453 0.03296449 -0.19023749
000390 6f 90 a4 3e a1 36 a5 be 26 4f a7 3e 8b 0d b7 bd
       0.32141444 -0.3226824 0.32677573 -0.0893813
0003a0 01 a8 a5 bd 96 2d b0 3d bf fd 05 be fc f3 41 be
       -0.08088685 0.08602445 -0.13085078 -0.18940729
0003b0 ee 50 92 3c a4 df 99 3d 66 c5 0b bd e8 73 4d bd
       0.017860856 0.07513359 -0.0341238 -0.050159365
0003c0 95 9b 04 bf 44 ed 13 be 52 bb 1d 3f 86 33 82 3e
       -0.517999 -0.14445978 0.61613953 0.25429934
0003d0 4d d4 2c 3e 00 4d 6e 3e b3 07 4e bd bc 08 a0 3b
       0.16877861 0.2327156 -0.05030031 0.0048838537
0003e0 2b 06 c2 be d2 a9 06 bf c5 62 f9 bd 41 33 86 3e
       -0.3789533 -0.52602875 -0.12177042 0.2621098
0003f0 42 1c cc 3e 8a 43 7f be 7f 02 9d 3e dd 0e 02 3e
       0.3986531 -0.24928108 0.30665967 0.12700982

bias f4 [20]
000000 d6 24 86 3f cc 12 9a 3e 7f 23 20 3e 29 19 be bc
       1.0479991 0.30092466 0.1563854 -0.023205357
000010 ca 1a fb be 89 f7 ec bd 45 c7 11 bf b0 b7 92 3e
       -0.49043876 -0.11570651 -0.56944686 0.28655767
000020 44 75 41 bf 30 24 39 bf 79 9d bd bf a4 dd 26 3f
       -0.7556956 -0.7232084 -1.4813682 0.65181947
000030 24 3f 65 bf 28 86 14 3c 45 b6 82 bf c7 9f b3 3f
       -0.8954947 0.0090651885 -1.0211874 1.4033135
000040 74 8f ed 3e 95 bb 70 3d fd 7a db be 19 c4 95 bf
       0.4639851 0.058772642 -0.4286727 -1.1700469
