Iter_03/Models/Noise_5/simulation_00_20/pidnn_200.pt (torch, 63965 bytes, 23 tensors)

weight f4 [20, 2]
-2.009084 0.49106115 -1.4562794 -0.86729485 -1.650933 0.45035282 -0.11968813 -0.13188289
-1.1147556 -1.6073087 2.0934465 0.37069276 -3.5496254 -0.49171296 1.3380625 0.091060445
-2.8193414 -0.05703194 -1.7181517 -0.066667914 -1.3517218 0.24875517 1.5708122 0.10176286
-0.010295726 -0.80246806 0.5422655 -0.40094823 -0.6770257 -0.7257924 2.0281355 -1.4685405
1.5066869 -0.055808265 2.0364783 0.47697857 1.4543724 -1.1347933 2.38597 0.014278694
00000000: d594 00c0 5e6c fb3e 5d67 babf 0907 5ebf
00000010: c651 d3bf a594 e63e 0d1f f5bd 4f0c 07be
00000020: 50b0 8ebf 4bbc cdbf 07fb 0540 71cb bd3e
00000030: 102d 63c0 cdc1 fbbe a245 ab3f e67d ba3d
00000040: 1770 34c0 539a 69bd 65ec dbbf 3089 88bd
00000050: 3805 adbf adb9 7e3e 6010 c93f 0c69 d03d
00000060: 68af 28bc 8c6e 4dbf e9d1 0a3f 1649 cdbe
00000070: 8e51 2dbf 88cd 39bf f9cc 0140 23f9 bbbf
00000080: 1edb c03f 3597 64bd a955 0240 8936 f43e
00000090: e028 ba3f e840 91bf bcb3 1840 2ff1 693c

bias f4 [20]
0.6053402 -1.1066358 -0.32188812 0.102980256 0.18172032 -0.27216628 1.1881453 0.7947429
1.2460265 0.5665568 -0.3758796 -0.85940963 -0.24261859 -0.79953665 -1.103206 -1.0708439
-1.0052626 -0.13614419 -0.5541615 -0.057509568
00000000: 93f7 1a3f 3ea6 8dbf 85ce a4be 50e7 d23d
00000010: e414 3a3e 6159 8bbe 2515 983f 4574 4b3f
00000020: cc7d 9f3f de09 113f 4a73 c0be 4502 5cbf
00000030: 0271 78be 6fae 4cbf db35 8dbf 6a11 89bf
00000040: 72ac 80bf 6269 0bbe 87dd 0dbf 278f 6bbd

weight f4 [20, 20]
0.8290846 -0.6019663 1.5386153 -0.3256349 0.24092273 -0.49947336 -0.14931267 -1.0618205
1.1261449 0.72095704 3.3726442 -0.05646105 1.9411745 -0.26811865 0.039034203 -2.462492
-0.47985402 -0.64686066 0.6705318 -1.7795678 0.16416681 0.92410123 0.10890089 0.64103967
0.72646827 -0.40954307 0.3395813 -0.6364682 -0.026561294 -0.14958447 -1.5235398 0.025283502
-0.34702843 -0.04026991 0.8350024 0.14772065 0.0027147944 -0.60324156 0.046313483 0.454122
0.18961222 0.95074713 0.7958211 0.37311277 0.34842318 -0.21719429 -0.22107494 -0.37229604
0.44975552 0.2347866 0.44075465 -0.009789683 -0.015115805 0.32403618 0.7881742 -0.67928714
-0.27670765 -0.3313666 0.08090339 -0.17956565 -1.0571051 0.10399222 -1.0300786 0.35749736
-0.27155665 0.6556553 0.2995394 0.8683601 -0.8165541 -0.6650481 -2.1206155 0.003498512
-1.2423874 0.7422298 -0.104724124 1.8656566 0.3321597 0.73106354 -0.5411908 1.4586357
0.14023384 -0.049088214 0.15379854 0.034481358 0.16823485 0.039553486 -0.15508306 -0.35441867
0.63505536 0.23042017 0.72305155 0.13354564 0.77123123 -0.4249602 0.19064221 -0.69044626
-0.46427193 -0.36120185 0.63601506 -0.2821257 0.18154186 -0.5727679 -0.7259406 0.21898745
-0.009101925 0.322059 0.33806527 0.43078715 -0.06036198 -0.118220694 -0.5361572 -0.12860109
-0.55713946 0.12648433 -0.29445958 0.3206695 -0.0003459574 0.15392907 -0.17909953 0.11422844
-0.20908897 -0.4538834 0.06489542 0.09591683 -0.06448607 0.21422638 0.003138061 0.46637964
-0.29219043 -0.40168712 -0.57967794 0.65551513 0.022660196 0.17357479 -0.34536412 0.34817648
0.028835654 0.2096305 -0.03747212 0.2228936 -0.8073412 -0.44071764 -1.0180855 -0.28158203
-0.81504214 0.7349808 0.43395457 1.3178982 -0.9283529 -0.6723089 -2.0377097 0.33739105
-1.2309307 0.28960845 -0.38096496 2.0215492 0.6220942 0.37824893 -0.56581044 1.2675337
-0.22302388 0.018588379 -0.90463275 0.058387376 -0.3324577 0.4602418 -0.19883181 0.3631199
-0.15024732 -0.6330719 -0.06990757 0.06222712 -0.9366335 -0.046207316 -0.10170977 0.23239
0.3182314 0.06269008 -0.19337 0.105449565 0.60281986 0.17207164 0.16292417 -0.37260333
-1.3949549 -0.01424487 -0.3068613 0.25558087 0.21270405 -0.33209458 0.44885883 0.18022178
-1.072054 -0.25187412 -0.49601483 -0.5538892 0.18251093 0.5318415 -0.8861997 0.048495766
0.061311368 -0.23157543 0.24701728 -0.1301747 -0.07818004 -0.42119026 0.00313504 -0.17592081
-0.026374841 0.12884331 0.7089609 0.24802776 0.226873 -0.08222131 0.08102139 -0.48969242
-0.21714528 0.3190993 0.37637898 -0.4095923 -0.08751764 0.07788289 -0.41661182 0.47163388
0.41650724 0.5803572 -0.003057057 0.782371 -0.43835938 -0.444253 -0.6856909 0.118389055
-0.4678695 -0.26476428 0.0027202687 0.5064588 -0.11246318 0.29381612 -0.36864913 0.3059465
-0.08301556 -0.5647258 -0.403642 -0.369545 -0.38837835 -0.22873634 0.30544102 -0.18219043
-0.41844445 -0.299103 -0.27915344 -0.014514107 -0.02758858 0.13566646 -0.020696187 0.23402606
00000000: e33e 543f 771a 1abf 59f1 c43f 9eb9 a6be
00000010: 73b4 763e f9ba ffbe 6ce5 18be bce9 87bf
00000020: 8425 903f a490 383f 67d9 5740 b443 67bd
00000030: 6878 f83f d946 89be 54e2 1f3d 7899 1dc0
00000040: 6daf f5be a998 25bf f9a7 2b3f e1c8 e3bf
00000050: 581b 283e e691 6c3f 6e07 df3d 2d1b 243f
00000060: d3f9 393f a1af d1be 9add ad3e 94ef 22bf
00000070: 1297 d9bc ac2c 19be 5a03 c3bf 591f cf3c
00000080: b6ad b1be 10f2 24bd b8c2 553f 1544 173e
00000090: b1ea 313b 0a6e 1abf 35b3 3d3d ae82 e83e
000000a0: b529 423e 2a64 733f eeba 4b3f a308 bf3e
000000b0: 8664 b23e 2e68 5ebe 7861 62be 969d bebe
000000c0: 5b46 e63e e66b 703e 98aa e13e e864 20bc
000000d0: 48a8 77bc 12e8 a53e c9c5 493f c3e5 2dbf
000000e0: a0ac 8dbe e2a8 a9be adb0 a53d 0fe0 37be
000000f0: 384f 87bf dff9 d43d 9ed9 83bf e509 b73e
00000100: 7909 8bbe 07d9 273f 3a5d 993e d94c 5e3f
00000110: b109 51bf 9840 2abf 2ab8 07c0 4b47 653b
00000120: 8d06 9fbf c602 3e3f 9a79 d6bd d6cd ee3f
00000130: d610 aa3e fb26 3b3f 7b8b 0abf 93b4 ba3f
00000140: 7699 0f3e b910 49bd 5d7d 1d3e 533c 0d3d
00000150: c245 2c3e d602 223d 18ce 1ebe 5d76 b5be
00000160: fd92 223f 44f3 6b3e e819 393f 30c0 083e
00000170: 696f 453f 6294 d9be b637 433e 16c1 30bf
00000180: 0db5 edbe 73ef b8be e2d1 223f c872 90be
00000190: 1ce6 393e eba0 12bf 3ed7 39bf 3f3e 603e
000001a0: 3e20 15bc ebe4 a43e e416 ad3e 2290 dc3e
000001b0: 203e 77bd b11d f2bd 9941 09bf 01b0 03be
000001c0: b1a0 0ebf 1c85 013e 68c3 96be cb2e a43e
000001d0: 9e61 b5b9 959f 1d3e de65 37be 9af0 e93d
000001e0: 6b1b 56be 6863 e8be e4e7 843d 0b70 c43d
000001f0: 4611 84bd 295e 5b3e eda7 4d3b 50c9 ee3e
00000200: fc99 95be efa9 cdbe c665 14bf d7cf 273f
00000210: e0a1 b93c 97bd 313e 91d3 b0be 3044 b23e
00000220: c038 ec3c 61a9 563e 5e7c 19bd 383e 643e
00000230: eaad 4ebf bea5 e1be a050 82bf 852b 90be
00000240: 9aa6 50bf b427 3c3f 4b2f de3e e3b0 a83f
00000250: 89a8 6dbf 701c 2cbf d669 02c0 85be ac3e
00000260: 238f 9dbf 8f47 943e d70d c3be 1061 0140
00000270: 9141 1f3f d8a9 c13e f4d8 10bf 8b3e a23f
00000280: 5f60 64be a846 983c 0396 67bf 9a27 6f3d
00000290: e537 aabe d0a4 eb3e 919a 4bbe daea b93e
000002a0: 6fda 19be 0011 22bf b32b 8fbd dde1 7e3d
000002b0: 37c7 6fbf e243 3dbd 364d d0bd a5f7 6d3e
000002c0: 3aef a23e a863 803d c902 46be f1f5 d73d
000002d0: 6752 1a3f 8c33 303e 98d5 263e ddc5 bebe
000002e0: e28d b2bf 5163 69bc ed1c 9dbe 7fdb 823e
000002f0: 17cf 593e 4d08 aabe d3d0 e53e 0f8c 383e
00000300: 1139 89bf a5f5 80be a8f5 fdbe afcb 0dbf
00000310: 25e4 3a3e c426 083f fcdd 62bf 7fa3 463d
00000320: a121 7b3d 1c22 6dbe 19f2 7c3e 844c 05be
00000330: db1c a0bd 40a6 d7be 3e75 4d3b 9624 34be
00000340: 0d10 d8bc 80ef 033e 767e 353f fdfa 7d3e
00000350: 6551 683e a563 a8bd 8bee a53d f7b8 fabe
00000360: 555b 5ebe fc60 a33e bfb4 c03e 15b6 d1be
00000370: 733c b3bd 1181 9f3d 254e d5be ff79 f13e
00000380: 7040 d53e 4a92 143f e858 48bb 7749 483f
00000390: a470 e0be 2175 e3be 7089 2fbf f675 f23d
000003a0: 978c efbe 2f8f 87be 8946 323b 49a7 013f
000003b0: 1953 e6bd 116f 963e 94bf bcbe 05a5 9c3e
000003c0: 1004 aabd df91 10bf 2aaa cebe 0135 bdbe
000003d0: 87d9 c6be dc39 6abe c462 9c3e 2190 3abe
000003e0: 5a3e d6be 0724 99be 33ed 8ebe 94cc 6dbc
000003f0: 7201 e2bc 26ec 0a3e 0d8b a9bc 87a4 6f3e

bias f4 [20]
1.6754042 -1.0939012 -1.6302217 -0.8930043 0.3698593 0.69686943 0.63675433 -0.6144423
0.82953453 -0.2976015 0.61535925 -0.63971794 0.29483515 -0.7746859 0.039298687 1.2078382
0.795156 0.44617814 1.0396165 -1.3752973
00000000: a573 d63f f404 8cbf 1bab d0bf ee9b 64bf
00000010: 335e bd3e 0966 323f 5502 233f 174c 1dbf
00000020: 605c 543f 395f 98be 2f88 1d3f 8ec4 23bf
00000030: a2f4 963e d151 46bf a9f7 203d 719a 9a3f
00000040: 588f 4b3f 7671 e43e 2712 853f be09 b0bf

weight f4 [20, 20]
0.1713518 -0.22509776 0.5391715 0.08280612 0.399341 -0.5502038 0.058534224 -0.15736789
0.06735817 0.057186205 0.36065796 0.15675071 -0.5424224 -0.17192233 -0.18340515 0.14272676
-0.11741355 -0.27063245 -0.48872745 0.14907932 -0.089016356 0.16579442 -0.5256646 -0.49091423
-0.74610376 0.75165355 -0.3007934 -0.46128377 0.85959005 -0.108198576 -0.7139622 0.32635832
0.50332046 -0.011407362 0.10421858 0.69940865 0.20275807 0.14666855 0.9371249 0.29926726
-1.3500278 0.22620678 0.016217954 0.12521242 -1.1939352 1.4209222 -0.5010223 -0.44301215
0.22184676 0.059687227 -1.2227011 0.9799125 0.5086632 0.29965496 -0.19319975 -0.03715673
-0.5512618 0.63075876 0.71094203 0.13377428 0.008194355 0.096847035 0.47771528 0.51382816
0.18606028 -0.110829666 -0.13333173 0.42965677 -0.2068983 -0.5375795 -0.37704223 -0.2591794
-0.27709723 -0.38596594 0.23389952 0.65332985 -0.27063528 -0.15714495 -0.19610307 -0.0020289978
-0.50639564 -0.762201 1.658671 0.20892252 0.48853922 0.20640251 -0.25892648 -0.91782296
-1.6475073 1.135805 0.651397 0.984661 -2.2000668 -0.39776933 -1.6477339 -2.3405802
0.6241749 1.1833594 -0.87657416 -0.8896366 0.63646144 0.15270825 0.12387038 0.59392357
0.1452851 -0.1360229 0.077097304 0.32241553 -0.19563349 -0.1560129 0.7017079 -0.40803373
-0.64920497 -0.11450224 0.47924742 -0.16956617 -0.2181424 -0.064678535 -0.3487173 -0.102311015
-0.6535442 0.39043674 -0.62477773 0.19525735 -0.4879779 0.30100763 -0.11757476 -0.049106803
0.39075363 -0.7987693 -0.8565079 0.17540744 0.7136604 0.29965997 0.34197885 0.632548
-0.21327999 -0.1570343 0.631359 0.70103973 0.50949466 0.07224727 0.48409268 0.25770906
0.16554603 -0.5088214 0.09498865 -0.16024482 -0.6925584 0.29505926 -0.04864435 -0.13147116
-0.6352221 -0.21521132 -0.0027260857 -0.29562494 0.43001762 -0.28267133 -0.88604563 0.05858334
1.4191564 -0.49249434 0.02166369 0.46079075 1.156547 -1.6309355 0.26872674 0.96787083
0.021123411 0.19052908 1.1587263 -1.2377411 -0.256393 -1.273234 -0.19227454 0.8080581
0.46348426 -1.0560943 -0.76898146 -0.7342571 -0.2522754 -0.24949966 0.7327389 -0.16977449
0.16441788 -0.6152398 0.033204753 -0.109893404 -0.51506966 0.1689884 0.5950286 -0.40035573
-0.17836156 0.3920334 -0.17095855 0.07553517 -0.1347608 0.10684305 0.03286868 -0.08563847
0.2505249 -0.67712927 0.3047599 0.31975076 0.072310485 -0.99395955 -0.12426336 0.24345346
-0.4738471 0.18635249 0.4458757 -0.020622753 -0.552536 -0.06743759 -0.20983028 -0.31500983
0.014003343 0.0611977 -0.77684164 -0.036404353 -0.2647112 0.4651745 -1.3300653 -0.5848384
-0.7431805 0.85043573 -0.25811097 -0.13179353 1.030018 -0.19679016 -0.51872104 -0.00962021
0.3882064 0.57672447 0.32977384 1.1125891 -0.39652163 -0.30726403 0.63704455 -0.13960652
-0.2881436 0.31801683 -0.2136727 -0.39327803 -0.4121363 0.41305232 -0.30328834 -0.33000028
0.14047347 -0.7476725 -0.25416982 0.06567584 0.13668117 0.24571759 0.274486 0.47134605
00000000: d976 2f3e 0780 66be 2507 0a3f 4196 a93d
00000010: 6c76 cc3e 28da 0cbf 95c1 6f3d 0c25 21be
00000020: 15f3 893d 153c 6a3d 29a8 b83e 4283 203e
00000030: 32dc 0abf 680c 30be 8fce 3bbe f726 123e
00000040: 8476 f0bd 5690 8abe 7c3a fabe 40a8 183e
00000050: 354e b6bd 03c6 293e f591 06bf 1c59 fbbe
00000060: a800 3fbf 5e6c 403f 9801 9abe 632d ecbe
00000070: 180e 5c3f 3797 ddbd 3ac6 36bf 7018 a73e
00000080: 9cd9 003f f2e5 3abc 8d70 d53d 720c 333f
00000090: d09f 4f3e 4830 163e 6be7 6f3f 8f39 993e
000000a0: b6cd acbf c0a2 673e 84db 843c af37 003e
000000b0: ded2 98bf c7e0 b53f ff42 00bf 7dd2 e2be
000000c0: cc2b 633e 987a 743d 7881 9cbf 8cdb 7a3f
000000d0: c037 023f 606c 993e 28d6 45be a831 18bd
000000e0: 7e1f 0dbf 6879 213f 4c00 363f 20fc 083e
000000f0: 9e41 063c bd57 c63d 1997 f43e 3e8a 033f
00000100: 9686 3e3e aafa e2bd 1d88 08be f9fb db3e
00000110: 26dd 53be cf9e 09bf ae0b c1be 2ab3 84be
00000120: b0df 8dbe 549d c5be 5b83 6f3e a040 273f
00000130: b590 8abe 9bea 20be 3ecf 48be eff8 04bb
00000140: 25a3 01bf 9b1f 43bf 554f d43f c9ef 553e
00000150: d021 fa3e 2e5b 533e 0392 84be 72f6 6abf
00000160: 85e1 d2bf 0f62 913f f4c1 263f be12 7c3f
00000170: e5cd 0cc0 6ca8 cbbe f2e8 d2bf 11cc 15c0
00000180: edc9 1f3f 5278 973f 2a67 60bf 39bf 63bf
00000190: 23ef 223f 8d5f 1c3e c1af fd3d 600b 183f
000001a0: 9ec5 143e 9649 0bbe 31e5 9d3d a613 a53e
000001b0: 2554 48be d8c1 1fbe 21a3 333f cce9 d0be
000001c0: 4c32 26bf 2780 eabd eb5f f53e c1a2 2dbe
000001d0: b960 5fbe 2e76 84bd 138b b2be 7088 d1bd
000001e0: ac4e 27bf 53e7 c73e 6ff1 1fbf 8bf1 473e
000001f0: 3dd8 f9be ac1d 9a3e 09cb f0bd 3724 49bd
00000200: dc10 c83e 257c 4cbf 1a44 5bbf 029e 333e
00000210: 73b2 363f 086d 993e da17 af3e aaee 213f
00000220: 1266 5abe 99cd 20be bea0 213f 5777 333f
00000230: 3e6e 023f 60f6 933d ffda f73e 71f2 833e
00000240: e684 293e 1f42 02bf 6989 c23d 3817 24be
00000250: 824b 31bf 0212 973e 4c3f 47bd 60a0 06be
00000260: ea9d 22bf 5b60 5cbe 21a8 32bb 275c 97be
00000270: 452b dc3e 4cba 90be e3d3 62bf 16f5 6f3d
00000280: eba6 b53f 3828 fcbe 0d78 b13c c4ec eb3e
00000290: bb09 943f 7fc2 d0bf 8d96 893e 62c6 773f
000002a0: 010b ad3c 0e1a 433e 2551 943f 4d6e 9ebf
000002b0: f145 83be 55f9 a2bf 9ee3 44be e5dc 4e3f
000002c0: cf4d ed3e 192e 87bf f8db 44bf 46f8 3bbf
000002d0: 3e2a 81be d77c 7fbe c794 3b3f 5dd9 2dbe
000002e0: 295d 283e 5b80 1dbf b501 083d cb0f e1bd
000002f0: 9bdb 03bf 4c0b 2d3e cb53 183f 6dfb ccbe
00000300: 6aa4 36be 9ab8 c83e c20f 2fbe 2fb2 9a3d
00000310: bcfe 09be 87d0 da3d 4fa1 063d 3963 afbd
00000320: cd44 803e 5858 2dbf 7d09 9c3e 5fb6 a33e
00000330: 8517 943d 2274 7ebf ca7d febd dd4b 793e
00000340: 169c f2be 30d3 3e3e d249 e43e 0cf1 a8bc
00000350: 0073 0dbf b81c 8abd c0dd 56be f848 a1be
00000360: 476e 653c 71aa 7a3d 18df 46bf bb1c 15bd
00000370: 3a88 87be 5a2b ee3e 943f aabf f8b7 15bf
00000380: 1441 3ebf 28b6 593f 1f27 84be e2f4 06be
00000390: a1d7 833f 5c83 49be e7ca 04bf 169e 1dbc
000003a0: fdc2 c63e 37a4 133f 1ed8 a83e 5269 8e3f
000003b0: e204 cbbe b651 9dbe 5a15 233f 03f5 0ebe
000003c0: 8f87 93be 1ad3 a23e 04cd 5abe bd5b c9be
000003d0: 8703 d3be 987b d33e 9c48 9bbe ccf5 a8be
000003e0: 47d8 0f3e 7767 3fbf 8c22 82be 0e81 863d
000003f0: 26f6 0b3e 649d 7b3e 6e89 8c3e 4554 f13e

bias f4 [20]
-0.44450638 2.0281427 -0.21994533 -0.45365447 -2.8745873 -1.1021858 1.0814567 -1.3577807
0.62442553 -0.90496904 -1.0498128 1.6474408 0.40826017 -0.0879777 -0.71713763 -0.41943258
1.4240522 -0.7952256 -0.26160774 2.8291657
00000000: 5796 e3be 17cd 0140 5939 61be 6645 e8be
00000010: 3df9 37c0 6d14 8dbf 2c6d 8a3f c2cb adbf
00000020: 5ada 1f3f 0dac 67bf 4460 86bf 57df d23f
00000030: 7a07 d13e a72d b4bd 5596 37bf debf d6be
00000040: 5847 b63f e893 4bbf 73f1 85be 0d11 3540

weight f4 [20, 20]
-0.54917 0.37836003 0.4421536 -0.31319338 -0.29852742 -0.4002063 0.6654357 -0.802417
0.13915525 -0.6017317 0.092326544 0.67434406 0.64610505 0.14571275 0.38724044 0.5606894
-0.39562705 -0.5791209 0.23867053 -0.062431835 0.5769233 -0.11029087 -0.2202279 0.2550441
-0.12401987 0.29769656 -0.34484908 -0.04182795 -0.21928366 -0.102436386 0.43172267 -0.4006443
-0.25029778 -0.5214999 0.20718187 -0.17528737 0.38405475 -0.47758442 0.0504875 -0.13555335
0.09614713 0.15743496 -0.21341777 0.064820684 0.14719647 -0.17658138 -0.28756762 0.28908375
0.04590301 -0.08967376 -0.008678114 -0.2633113 0.22025011 -0.0879727 -0.46092853 -0.048454493
0.43983382 0.23812993 -0.04876335 -0.09389668 0.92890865 -0.35038385 0.07311847 -0.29946545
0.8335232 0.7478595 -0.4585146 0.2023912 -0.21200272 0.587216 0.7052437 -0.64325136
0.63157344 -0.57508844 0.4459106 0.05726846 0.57391196 -0.5164428 0.20449175 0.03848413
-0.015318988 0.35990316 0.35212302 -0.34488422 -0.6260708 -0.36564988 0.83490306 -0.18923391
0.28277478 -0.21951048 -0.69936293 0.43926695 -0.0030178714 0.029897803 -0.05650551 -0.0020442812
-0.43439484 0.20339862 -0.537862 0.36458114 2.8368058 -0.7901144 -1.9624283 0.70706916
1.9104284 0.88422686 -0.29270732 0.5101333 0.19946784 2.3388896 0.15374961 -1.3312224
-0.8101877 0.30637795 -1.2981762 -1.7779961 1.1501385 -0.05710845 -2.8089168 3.6549444
-1.417809 -1.0255259 1.229735 0.19554201 -0.8754734 -0.2417321 -0.8168407 0.55384964
-0.3604673 -0.83453906 0.9355791 0.116332546 -0.030461444 0.064738594 0.5894983 1.2191813
-0.3146297 0.6945557 1.7098078 -3.1104918 -0.23530756 -0.23178625 0.16602871 0.29600582
-0.061061725 0.30716503 0.024306368 0.34483278 -0.29783958 -0.4173915 0.42125523 -0.022098027
0.507307 -0.19705844 -0.05505024 0.29997912 0.33206517 -0.3079127 0.29245195 -0.8460178
-0.1612255 0.004097927 -0.16623665 -0.21395856 -0.45168164 -0.26895776 0.39183196 0.32913238
-0.33824274 0.2916812 -0.52789575 0.51643807 0.03453575 0.6424713 0.13556068 0.13510133
-0.036528833 0.11590487 0.13583395 -0.114736855 0.055926215 -0.9926956 -0.31900626 0.7075328
0.011033818 0.3894506 -0.66419625 0.91492707 0.34003824 0.18388438 1.0105528 -0.73261803
-0.6748939 0.27845657 -0.07027762 0.5467119 -0.65925896 0.6827531 0.57116246 -1.2683038
-0.3210643 0.5922324 0.17993599 -0.113691986 -0.5306964 -0.72078204 0.6853915 -0.2035117
-0.072212204 -0.08374661 -0.35618946 0.4860679 -0.47804755 0.65183675 -0.17962411 0.2576498
-0.4814209 -0.05837656 0.37334922 -0.013356847 0.22071144 0.53416187 0.26186994 0.40150154
-0.13934186 0.20329237 -0.5161696 -0.22353949 0.08233801 0.39716783 0.065562874 -0.14255644
0.54819524 0.07533648 -0.6918953 0.2546775 0.49401447 -0.1835907 0.0010513895 0.22693644
0.38082305 -0.29140824 -0.25194493 0.54712087 0.63612485 0.2969777 -0.34422398 0.37675112
-0.39918187 0.08178165 0.3221297 -0.77961963 0.15122682 -0.6123793 -0.09286256 -0.44140202
00000000: 6896 0cbf 68b8 c13e f561 e23e e25a a0be
00000010: 96d8 98be d7e7 ccbe fe59 2a3f 336b 4dbf
00000020: b77e 0e3e 170b 1abf b315 bd3d d0a1 2c3f
00000030: 2467 253f b935 153e 6144 c63e 5789 0f3f
00000040: a18f cabe 4441 14bf 0c66 743e 86b8 7fbd
00000050: 3fb1 133f 2ee0 e1bd 6c83 61be 2495 823e
00000060: 21fe fdbd af6b 983e 0f90 b0be c953 2bbd
00000070: e58b 60be 2bca d1bd c10a dd3e 4021 cdbe
00000080: 0827 80be 0481 05bf 7c27 543e 887e 33be
00000090: d3a2 c43e f285 f4be fbcb 4e3d 7fce 0abe
000000a0: c9e8 c43d a136 213e 308a 5abe b5c0 843d
000000b0: acba 163e c0d1 34be 103c 93be c902 943e
000000c0: cb04 3c3d e0a6 b7bd a62e 0ebc bdd0 86be
000000d0: 3f89 613e 082b b4bd d3fe ebbe 3878 46bd
000000e0: e631 e13e 55d8 733e 14bc 47bd e74c c0bd
000000f0: f5cc 6d3f 8365 b3be 23bf 953d 8953 99be
00000100: c761 553f b873 3f3f 6dc2 eabe a43f 4f3e
00000110: 3e17 59be ca53 163f da8a 343f 1fac 24bf
00000120: ccae 213f ff38 13bf 654e e43e 5592 6a3d
00000130: e5eb 123f 9835 04bf 4966 513e 89a1 1d3d
00000140: 7efc 7abc 3a45 b83e 7849 b43e aa94 b0be
00000150: 2d46 20bf 7636 bbbe 35bc 553f 89c6 41be
00000160: dbc7 903e 5bc7 60be 7309 33bf 99e7 e03e
00000170: 7bc7 45bb 3dec f43c 5272 67bd 59f9 05bb
00000180: 0069 debe ba47 503e 53b1 09bf 61aa ba3e
00000190: 3a8e 3540 f044 4abf da30 fbbf 7c02 353f
000001a0: eb88 f43f b15c 623f bcdd 95be 1998 023f
000001b0: 4c41 4c3e 5eb0 1540 8a70 1d3e 7f65 aabf
000001c0: 7668 4fbf 92dd 9c3e a32a a6bf 6095 e3bf
000001d0: bd37 933f 8dea 69bd 4bc5 33c0 9cea 6940
000001e0: c47a b5bf 6f44 83bf f567 9d3f 2a3c 483e
000001f0: 061f 60bf 9f88 77be 791c 51bf 17c9 0d3f
00000200: 2c8f b8be 5aa4 55bf 1d82 6f3f c23f ee3d
00000210: 478a f9bc ab95 843d 5ce9 163f 220e 9c3f
00000220: 2517 a1be 67ce 313f fbda da3f 4c12 47c0
00000230: 77f4 70be 6059 6dbe 6e03 2a3e 138e 973e
00000240: dc1b 7abd bc44 9d3e 261e c73c ec8d b03e
00000250: 6e7e 98be 57b4 d5be c4ae d73e ec06 b5bc
00000260: dfde 013f b0c9 49be 5c7c 61bd dd96 993e
00000270: 7204 aa3e bca6 9dbe 43bc 953e 9f94 58bf
00000280: 4c18 25be e747 863b f139 2abe f417 5bbe
00000290: d142 e7be d5b4 89be 339e c83e 0a84 a83e
000002a0: 272e adbe 3d57 953e 2d24 07bf 4935 043f
000002b0: 5c75 0d3d 0079 243f 6bd0 0a3e 0158 0a3e
000002c0: 429f 15bd 885f ed3d 0e18 0b3e 28fb eabd
000002d0: e312 653d 4d21 7ebf ca54 a3be df20 353f
000002e0: 30c7 343c 1266 c73e c408 2abf a938 6a3f
000002f0: 7e19 ae3e 304c 3c3e cb59 813f db8c 3bbf
00000300: d9c5 2cbf dc91 8e3e b6ed 8fbd 50f5 0b3f
00000310: 32c5 28bf e8c8 2e3f b437 123f c757 a2bf
00000320: 8a62 a4be 8b9c 173f 2441 383e 58d7 e8bd
00000330: b8db 07bf 2c85 38bf d175 2f3f 5f65 50be
00000340: fee3 93bd 5883 abbd 775e b6be e4dd f83e
00000350: a6c2 f4be c6de 263f 62ef 37be adea 833e
00000360: cd7c f6be 431c 6fbd a127 bf3e add6 5abc
00000370: 2e02 623e d5be 083f d113 863e 9c91 cd3e
00000380: a2af 0ebe e02b 503e b123 04bf 89e7 64be
00000390: d5a0 a83d 9559 cb3e d445 863d 51fa 11be
000003a0: 8656 0c3f 034a 9a3d 0d20 31bf 1765 823e
000003b0: 77ef fc3e 33ff 3bbe c7ce 893a 0762 683e
000003c0: 3dfb c23e 7633 95be edfe 80be 1d10 0c3f
000003d0: 14d9 223f 760d 983e 203e b0be 86e5 c03e
000003e0: 9161 ccbe 237d a73d 2fee a43e 2795 47bf
000003f0: 34db 1a3e e4c4 1cbf ba2e bebd 72ff e1be

bias f4 [20]
0.19206406 -1.3002203 -0.29097858 -1.9396263 1.2387735 0.1424933 -1.7306905 -0.34916705
0.70078087 -0.9985936 1.0829247 -0.53599423 -1.3266872 -0.051639043 -0.851708 -0.1457851
1.0983425 0.7311878 -0.010913789 -1.0011816
00000000: 71ac 443e 9e6d a6bf 25fb 94be ad45 f8bf
00000010: 2190 9e3f c3e9 113e 4487 ddbf 06c6 b2be
00000020: 6066 333f d5a3 7fbf 479d 8a3f eb36 09bf
00000030: e3d0 a9bf 7683 53bd 8909 5abf b048 15be
00000040: 7d96 8c3f 202f 3b3f c0cf 32bc b826 80bf

weight f4 [20, 20]
-1.1450801 0.59326005 0.7234826 0.28804833 -0.41803092 -0.4142633 -0.10232992 0.38885316
-0.05817001 0.09745636 -0.28045985 0.8553521 0.940649 0.025330003 0.70565754 0.298391
-0.3394976 -0.09040141 -0.7899254 0.38369098 -1.0882925 1.0853615 0.9172205 0.78826463
-1.1300522 -1.2017913 0.8013543 1.1765969 -0.74590737 1.2780185 -1.0825952 1.0913706
0.65292 -0.42395332 1.1911052 -0.46704692 -0.39048308 -0.5909504 -0.7007172 0.8336668
1.1270094 -0.95848274 -0.8019723 -0.2543271 0.8840068 -2.0276983 1.6560562 0.1746551
0.95980746 1.2439505 0.65452623 -0.7856264 -0.9483249 -1.3305509 -0.8548235 -1.6744058
1.3999363 0.51376635 -0.22465268 -0.8455006 0.21695346 -0.027530292 -0.17760246 -0.11176387
-0.13411301 -1.3743995 0.80088127 0.1896571 -0.06401693 1.138965 -0.20128144 -0.39813456
0.21618345 -0.29374647 -0.4432089 -0.68024445 0.18098632 0.080567695 -0.63387066 -0.24649675
-0.055871762 0.20575814 0.057357475 -0.5798119 -0.69157916 0.30912125 0.40841398 -0.36747527
0.68390036 -0.43711478 0.26019382 -0.28680307 -0.19774611 -0.27678633 -0.26786897 0.06786624
0.23340815 0.59075373 -0.26452053 0.102429084 -0.0071830982 -0.12700263 0.27813712 0.003227176
0.046593755 -0.5385686 0.022541717 0.44875294 -0.2170563 0.28636125 0.2558549 0.39787215
-0.22426353 -0.2561427 -0.25506335 -0.3375318 0.15309237 0.0068264254 -0.31457454 0.07356004
0.29853618 0.0872221 -0.3620579 0.048793253 -0.028238375 0.088326335 0.06525689 -0.23881114
-0.69028616 0.10784757 -0.21947928 -0.24145892 -0.43259537 -0.11817923 -0.23625661 -0.35235366
-0.054271802 0.15407865 0.23719124 -0.03938016 -0.08194316 0.29747364 0.15851547 -0.6169716
0.16905144 0.49510655 0.3262006 -0.5569376 0.48115602 -0.25413617 0.43372193 -0.3762483
-0.2941981 0.5491874 -0.8542078 0.3482932 -0.21305756 0.6124379 0.37129375 0.18607056
0.28853306 0.3793663 0.2226923 0.074649215 -0.019706242 0.38537145 -0.027377238 -0.17925806
-0.36519352 0.09912501 -0.089232884 0.0006546197 0.22209935 0.37294278 -0.27496675 -0.14811972
0.6747523 0.1493576 0.0011574761 0.16362013 0.73154604 -0.70002604 -0.18311542 -0.5427439
0.7137028 2.4873805 -1.5858237 -0.82002676 0.51857924 -2.08783 0.36859003 -0.33617318
-0.5762295 1.1458882 -0.43550953 0.6676266 -0.18752614 0.42279074 1.4945143 -0.6162329
0.124989465 -0.34471086 -0.28102964 -0.16967829 0.32820848 -0.2747171 -0.20888492 0.2314467
0.61378086 0.06425268 0.07794733 -0.1469125 -0.6629274 -0.014669039 -0.59638953 0.45339918
0.2953007 0.43354708 0.24448417 -0.30047575 -0.16005689 -0.12092816 -0.17708887 0.02379481
0.022945955 -0.43134758 0.6774132 0.20282552 0.16324206 -0.07989296 0.3122208 0.45184666
0.10562614 -0.13818972 0.36755913 -0.22220287 -0.1463932 0.16104604 -0.14539048 0.11956691
0.6857751 -0.36188415 -0.645801 -0.6842286 0.35784695 0.3719141 0.17149252 -0.86220056
0.3789465 -0.06841253 0.37933367 -0.87090355 -0.7885313 0.18683183 -0.4559075 -0.14163333
00000000: fc91 92bf e4df 173f 2836 393f 127b 933e
00000010: 2608 d6be 521a d4be 5992 d1bd c317 c73e
00000020: ad43 6ebd 3397 c73d 6f98 8fbe 5bf8 5a3f
00000030: 5fce 703f de80 cf3c f9a5 343f b5c6 983e
00000040: a1d2 adbe 6024 b9bd 8d38 4abf 2573 c43e
00000050: 2b4d 8bbf 20ed 8a3f f6ce 6a3f b6cb 493f
00000060: 8da5 90bf 4cd4 99bf 8e25 4d3f ba9a 963f
00000070: c9f3 3ebf 1c96 a33f 7b92 8abf 08b2 8b3f
00000080: c425 273f 6910 d9be 2376 983f c620 efbe
00000090: 66ed c7be 8748 17bf 3462 33bf 306b 553f
000000a0: d841 903f 205f 75bf 0f4e 4dbf 2937 82be
000000b0: 454e 623f cfc5 01c0 a6f9 d33f c9d8 323e
000000c0: f1b5 753f c539 9f3f 088f 273f d01e 49bf
000000d0: 6cc5 72bf 7e4f aabf b7d5 5abf ee52 d6bf
000000e0: 1d31 b33f 3186 033f 5a0b 66be ba72 58bf
000000f0: 0c29 5e3e 3587 e1bc 6bdd 35be 75e4 e4bd
00000100: ec54 09be 53ec afbf 8e06 4d3f 7935 423e
00000110: 4f1b 83bd 9bc9 913f b91c 4ebe 4bd8 cbbe
00000120: 325f 5d3e f065 96be 47ec e2be 8024 2ebf
00000130: 7a54 393e ad00 a53d 5945 22bf a569 7cbe
00000140: cad9 64bd 43b2 523e acef 6a3d 8d6e 14bf
00000150: 550b 31bf 2445 9e3e a31b d13e b825 bcbe
00000160: 1814 2f3f 82cd dfbe 2038 853e dad7 92be
00000170: f57d 4abe f0b6 8dbe 1f26 89be 75fd 8a3d
00000180: 8c02 6f3e a33b 173f 3c6f 87be 57c6 d13d
00000190: 3260 ebbb fa0c 02be fd67 8e3e 077f 533b
000001a0: 18d9 3e3d a2df 09bf 68a9 b83c f2c2 e53e
000001b0: 0244 5ebe f19d 923e 6aff 823e e6b5 cb3e
000001c0: 57a5 65be 2325 83be aa97 82be f8d0 acbe
000001d0: 3fc4 1c3e 35b0 df3b ea0f a1be a5a6 963d
000001e0: bcd9 983e 80a1 b23d a75f b9be 6fdb 473d
000001f0: 2a54 e7bc 70e4 b43d 68a5 853d e88a 74be
00000200: 98b6 30bf 30df dc3d 2dbf 60be 0241 77be
00000210: 247d ddbe f407 f2bd 41ed 71be b367 b4be
00000220: 1c4c 5ebd cbc6 1d3e 43e2 723e 174d 21bd
00000230: d1d1 a7bd 774e 983e e151 223e daf1 1dbf
00000240: d21b 2d3e 9b7e fd3e c403 a73e 7693 0ebf
00000250: 155a f63e 231e 82be cd10 de3e 9ea3 c0be
00000260: 22a1 96be 8c97 0c3f 5dad 5abf 7c53 b23e
00000270: c32b 5abe bbc8 1c3f 371a be3e 4889 3e3e
00000280: 9bba 933e 4d3c c23e 7309 643e b0e1 983d
00000290: fc6e a1bc 684f c53e 3b46 e0bc 6d8f 37be
000002a0: a5fa babe 0e02 cb3d bbbf b6bd c99a 2b3a
000002b0: 036e 633e 5bf2 be3e 71c8 8cbe b2ac 17be
000002c0: 91bc 2c3f 33f1 183e 74b6 973a 098c 273e
000002d0: 9a46 3b3f e834 33bf 9c82 3bbe 44f1 0abf
000002e0: 3ab5 363f 3e31 1f40 45fc cabf 46ed 51bf
000002f0: 9cc1 043f 029f 05c0 d5b7 bc3e e41e acbe
00000300: c783 13bf 77ac 923f 1bfb debe 94e9 2a3f
00000310: da06 40be 0778 d83e 3f4c bf3f 70c1 1dbf
00000320: 7afa ff3d f17d b0be 1ee3 8fbe 25c0 2dbe
00000330: f10a a83e b8a7 8cbe eee5 55be 5d00 6d3e
00000340: be20 1d3f e996 833d daa2 9f3d 3b70 16be
00000350: 9cb5 29bf 6956 70bc fcac 18bf f023 e83e
00000360: a731 973e e2f9 dd3e 0f5a 7a3e f5d7 99be
00000370: f4e5 23be 2fa9 f7bd c956 35be 55ed c23c
00000380: 28f9 bb3c 97d9 dcbe f46a 2d3f 7eb1 4f3e
00000390: ed28 273e ec9e a3bd 68db 9f3e 7258 e73e
000003a0: 8552 d83d 9b81 0dbe b630 bc3e 2689 63be
000003b0: 19e8 15be 41e9 243e 3ee1 14be 7fdf f43d
000003c0: f58e 2f3f e148 b9be 3753 25bf 9b29 2fbf
000003d0: b737 b73e 866b be3e bc9b 2f3e 2db9 5cbf
000003e0: 4705 c23e de1b 8cbd 0638 c23e 89f3 5ebf
000003f0: 30dd 49bf d850 3f3e b56c e9be 5408 11be

bias f4 [20]
-0.09145539 -1.5330473 -0.31504062 -0.57593906 1.379556 0.021937676 -0.3614427 1.3704329
0.6499467 0.7618392 -0.12113787 -0.0034663603 0.9166641 1.6054851 1.353612 -0.44863674
-1.3901414 -1.2055014 -2.1138926 0.08919628
00000000: f74c bbbd e53a c4bf 014d a1be be70 13bf
00000010: 4a95 b03f a4b6 b33c 040f b9be 586a af3f
00000020: e862 263f e507 433f 2217 f8bd e02b 63bb
00000030: 80aa 6a3f 8980 cd3f 2843 ad3f b7b3 e5be
00000040: 27f0 b1bf df4d 9abf 044a 07c0 8aac b63d

weight f4 [20, 20]
-0.23723905 -0.12163744 0.43744135 0.46171495 -0.08808465 0.44380793 0.06493158 -0.49833098
0.38135135 -0.049519226 0.36431283 0.16103935 0.031875115 -0.3005007 -0.2973272 0.568269
0.16062209 -0.27999637 -0.24774212 0.33517733 0.7512596 -0.013261235 0.22637796 0.4621607
0.039195713 -0.08889912 -0.27186608 0.14930765 -0.17199552 -0.25709823 -0.4481472 0.27152732
0.18597645 0.47438002 -0.06840014 -0.5863756 -0.41646674 1.0434253 -0.5591736 0.60999405
0.49948472 0.5334512 0.20685141 -0.4897019 0.70213735 -0.07196438 -0.71409905 0.69436747
1.1770339 0.5344581 -0.3544055 0.73675674 -0.40208972 0.07465861 0.70112765 -0.13501196
-0.9740947 0.58844256 0.0495144 -0.5747479 1.124741 1.5816427 3.479708 2.458902
-1.5263155 0.1295262 0.9394229 -1.9734862 -1.7823969 -2.4718084 -0.48365155 -0.10319152
1.0507646 -1.3438946 -1.5192405 -0.148192 1.9459419 7.409699 1.5501225 2.439635
0.876629 -0.09203938 -1.4559854 -0.9603565 0.71475434 0.080844775 -1.0446078 1.0443852
1.0382955 0.49896756 -0.23588237 0.5759867 -0.21837641 0.70400125 1.051107 -0.48863015
-0.98788327 -2.310094 -0.9843478 -0.5998269 -1.2086512 0.008998113 -1.0627964 -1.4986734
1.3146418 0.03290893 -1.2383375 1.1929191 1.455598 0.759561 -0.23584987 0.7378011
-0.5156234 1.1578312 1.2025012 -0.36434337 -1.176594 -0.93604094 -0.8993192 -1.1635948
-0.39753687 0.5861323 -0.89137477 -0.23631163 0.63511217 -0.20642398 -0.515257 1.1525679
0.6272678 0.5487775 -0.26818994 0.02502607 -0.3106003 0.72712106 1.0202765 -0.47489408
-1.2981193 -0.426533 -1.5621568 -1.0132492 0.68270105 -0.35769203 0.1489347 -0.31582174
-0.19633745 -0.21752596 -0.109556474 -0.19637765 0.1122714 0.10241628 -0.34882393 -0.3568102
0.18999217 -0.17837402 -0.1975096 -0.119301416 0.48722607 -0.13379969 -0.087153055 0.17090666
-0.29549387 -1.1442947 0.19710477 -0.36050797 -0.30178955 0.5144776 -0.3070034 -0.6957098
0.17287293 0.10395514 0.6188479 -0.43182188 -0.036062688 -0.389024 -0.077028304 0.30767173
0.5539616 0.5812255 1.1502334 0.011752979 0.100984216 1.0981295 -0.018565362 0.79189706
-0.08550583 -0.012182431 0.1166927 -0.12635748 -0.27208635 -1.5544671 -0.3063159 0.31476083
-0.9465701 0.1895853 -0.120493986 -0.35979024 -0.330693 0.9378488 -0.1462148 -0.1349643
-0.001861268 0.3352712 -0.4342673 0.41323373 -0.1954688 -0.22924031 0.1596803 0.15872975
-0.36751303 -0.14267547 -0.1006059 0.05609152 -0.31370375 0.1261462 -0.2742284 0.18956555
-0.5177382 -0.70741546 -0.9206032 0.4682874 -0.054304358 0.22171696 -0.033346497 -0.16450822
-0.24869008 0.15037505 -0.0144090215 0.5725193 -0.23252182 -0.0082235355 -0.15100047 -0.10572512
0.13487999 0.38404793 0.2876414 -0.12512766 -0.08597064 -0.9260428 -0.10328436 -0.08254631
1.7218018 1.0242429 1.9739083 1.45931 -1.9444941 -0.25672626 1.2288325 -1.9729259
-1.3454151 -1.0457615 -1.1004608 -1.0382556 -0.051888365 -1.6311282 -1.8751435 0.59300095
00000000: cbee 72be 0d1d f9bd 50f8 df3e e765 ec3e
00000010: ba65 b4bd cb3a e33e d9fa 843d 3d25 ffbe
00000020: 7c40 c33e acd4 4abd 3687 ba3e 80e7 243e
00000030: 7b8f 023d 3adb 99be 453b 98be 147a 113f
00000040: 1e7a 243e af5b 8fbe 1cb0 7dbe 5d9c ab3e
00000050: 8d52 403f a745 59bc a0cf 673e 54a0 ec3e
00000060: af8b 203d be10 b6bd 0832 8bbe 1be4 183e
00000070: 981f 30be 61a2 83be 8d73 e5be a105 8b3e
00000080: 9c70 3e3e f0e1 f23e 5f15 8cbd b61c 16bf
00000090: 213b d5be f68e 853f 0026 0fbf 9228 1c3f
000000a0: 76bc ff3e 4290 083f dbd0 533e 35ba fabe
000000b0: 46bf 333f 1062 93bd 32cf 36bf 11c2 313f
000000c0: 0ca9 963f 3fd2 083f a374 b5be 179c 3c3f
000000d0: b4de cdbe 9de6 983d 1a7d 333f 9340 0abe
000000e0: 455e 79bf 2ca4 163f 9dcf 4a3d ae22 13bf
000000f0: 83f7 8f3f 4573 ca3f 89b3 5e40 a65e 1d40
00000100: 4e5e c3bf 84a2 043e 057e 703f 329b fcbf
00000110: 9525 e4bf 1c32 1ec0 2da1 f7be 1356 d3bd
00000120: 747f 863f bd04 acbf 7976 c2bf a5bf 17be
00000130: a014 f93f 411c ed40 6a6a c63f fb22 1c40
00000140: c26a 603f 247f bcbd bb5d babf ecd9 75bf
00000150: 24fa 363f f291 a53d b5b5 85bf 6aae 853f
00000160: dee6 843f ad78 ff3e 268b 71be dd73 133f
00000170: 119e 5fbe 6d39 343f ad8a 863f bb2d fabe
00000180: ebe5 7cbf 95d8 13c0 38fe 7bbf 418e 19bf
00000190: 15b5 9abf d26c 133c b609 88bf 88d4 bfbf
000001a0: 2f46 a83f 84cb 063d d881 9ebf 93b1 983f
000001b0: 0951 ba3f 9772 423f a182 71be 88e0 3c3f
000001c0: e5ff 03bf d033 943f 8feb 993f 378b babe
000001d0: a29a 96bf 61a0 6fbf c839 66bf adf0 94bf
000001e0: f489 cbbe c40c 163f 2331 64bf adfb 71be
000001f0: b696 223f cf60 53be e2e7 03bf 5887 933f
00000200: 9f94 203f af7c 0c3f 3150 89be 7903 cd3c
00000210: 0107 9fbe 9b24 3a3f 6c98 823f 5125 f3be
00000220: c628 a6bf 8962 dabe c1f4 c7bf 26b2 81bf
00000230: 7fc5 2e3f 6923 b7be 5782 183e 63b3 a1be
00000240: af0c 49be 20bf 5ebe 255f e0bd 3917 49be
00000250: 8cee e53d a0bf d13d 0d99 b2be d4af b6be
00000260: 4f8d 423e aea7 36be f53f 4abe 4d54 f4bd
00000270: b275 f93e c902 09be 4d7d b2bd 2802 2f3e
00000280: f94a 97be 4078 92bf d5d5 493e 8094 b8be
00000290: 2984 9abe ceb4 033f 8d2f 9dbe 0a1a 32bf
000002a0: 9a05 313e 6fe6 d43d d16c 1e3f c217 ddbe
000002b0: 78b6 13bd 272e c7be 04c1 9dbd 2687 9d3e
000002c0: 6dd0 0d3f 32cb 143f d93a 933f 918f 403c
000002d0: d0d0 ce3d 828f 8c3f 6316 98bc c4b9 4a3f
000002e0: ae1d afbd d298 47bc 95fc ee3d db63 01be
000002f0: e74e 8bbe c7f8 c6bf 70d5 9cbe 5528 a13e
00000300: 6b52 72bf a622 423e 8dc5 f6bd 6d36 b8be
00000310: 9850 a9be dc16 703f 55b9 15be 1534 0abe
00000320: caf5 f3ba aba8 ab3e 4958 debe 5f93 d33e
00000330: f928 48be f9bd 6abe 3c83 233e 0d8a 223e
00000340: ab2a bcbe 8519 12be 770a cebd 39c0 653d
00000350: c79d a0be 782c 013e aa67 8cbe 791d 423e
00000360: 7e8a 04bf 2e19 35bf a7ac 6bbf 5ec3 ef3e
00000370: 3f6e 5ebd c509 633e 5696 08bd d874 28be
00000380: 9da8 7ebe ebfb 193e d113 6cbc a090 123f
00000390: 331a 6ebe 02bc 06bc de9f 1abe 6986 d8bd
000003a0: fb1d 0a3e eea1 c43e bc45 933e 7721 00be
000003b0: 6011 b0bd 2411 6dbf c086 d3bd 0a0e a9bd
000003c0: 0064 dc3f 641a 833f 07a9 fc3f acca ba3f
000003d0: 2fe5 f8bf a071 83be 624a 9d3f d688 fcbf
000003e0: 9036 acbf 83db 85bf e6db 8cbf 8fe5 84bf
000003f0: e588 54bd cfc8 d0bf b404 f0bf e9ce 173f

bias f4 [20]
-0.18863288 0.99475825 -0.000695186 -2.2789352 1.5829737 -0.49936712 1.7545851 -0.738764
-2.3269153 1.121097 1.420148 1.3564175 -2.6437693 1.2821133 0.99452144 2.1300535
0.93665653 0.61680925 -0.4100272 -0.54123396
00000000: fa28 41be 7aa8 7e3f 253d 36ba 13da 11c0
00000010: e29e ca3f 0cad ffbe 3f96 e03f a31f 3dbf
00000020: 2eec 14c0 1b80 8f3f 69c7 b53f 179f ad3f
00000030: 8433 29c0 4a1c a43f f598 7e3f cc52 0840
00000040: b9c8 6f3f 36e7 1d3f 16ef d1be 4f8e 0abf

weight f4 [20, 20]
0.1903803 -0.32218355 -0.28456822 0.043099727 0.14724551 0.13466349 -0.36980906 0.084475785
-0.6207011 0.18855794 0.33338013 -0.2904047 -0.00835461 -0.40639025 0.28838795 0.46346256
-0.28352058 0.25372738 -0.18757512 0.4953379 -0.7862336 0.95068055 0.2500655 -3.1250632
0.9140488 -0.15737686 0.045311473 -0.3074965 -1.203397 0.8594617 1.1087863 0.9023549
-2.1970377 -0.21066767 -0.45230073 1.927196 0.47817174 0.04992781 -0.58392763 -0.48820361
1.7176719 -1.5751765 -0.56784827 -1.5939536 1.7032152 -1.4108306 -1.6665386 1.9133537
1.3540883 -1.5976516 -1.3012999 -1.2270154 -1.7871629 -1.5847186 1.5028648 0.69269735
-1.9095988 0.26181847 1.1845 1.6299492 -3.358737 3.6335042 -0.8089154 -1.641937
-1.4214818 -1.1019793 -1.7950423 -3.312572 -2.6633685 3.4531143 3.0246985 3.0659862
0.22864294 0.28205383 0.7127164 1.4820133 3.35145 -0.5715089 -2.0405433 -3.5269876
-1.700974 1.8327585 -1.9315045 -5.203475 -1.3806779 5.3007374 3.7469177 -2.4508748
-2.0562477 1.3884733 2.4336348 2.8696752 0.4439679 3.7400558 -3.616131 -5.502796
2.3513443 -3.3572145 -2.8510344 -2.4777274 0.57776713 -0.45505363 -0.84721684 -0.21807623
-0.10131539 -0.14139223 -0.5797421 0.45631385 0.19769995 -0.10896196 -0.28221205 -0.6529609
-0.5431128 0.3275851 0.38090807 -0.6056876 -0.1043374 -0.45918328 -0.2908725 0.093770936
-0.2146835 0.59310913 -1.7328439 -0.39951837 -0.69127333 -1.7466724 -1.5087516 -0.47353226
-0.71582085 0.7635913 0.3402619 0.50422585 -0.08327679 -0.19354376 0.60991836 -3.7464
1.1011914 -0.4836322 -0.49292666 -0.6810956 -2.133588 1.5820597 -4.065704 -5.0484858
-1.027575 2.9147632 2.9925632 -1.9638369 -2.188083 2.3859243 2.6843035 3.3655915
0.17547522 2.3514688 -2.5038507 -6.3527126 1.452395 -5.527821 -3.7125325 -2.7725275
-0.016557243 0.14548719 -0.31452382 -0.1905735 -0.4532574 -1.022688 -0.7553378 -0.77690697
0.12675485 0.540494 0.29059982 0.46168634 0.21159598 -0.11151233 0.46982023 -2.4189231
1.100173 -0.84859264 -0.64084715 -1.1486703 3.3679514 -3.9221191 3.890344 5.4952183
2.2582514 2.5901148 0.99089634 3.7598808 4.274339 -3.636914 -4.321521 -4.282266
2.2486937 0.14484648 0.17560281 6.7966313 -4.206723 5.5565534 4.1819406 4.215174
0.40532035 -0.6700755 0.40249184 0.29241976 0.53954685 0.28087506 -0.46381956 0.9671708
-0.3340149 -0.3505 -0.0627977 -0.7636584 -0.22184178 -0.9243894 0.2802962 2.8151066
-0.5453345 0.6600137 0.25025815 1.2924552 -0.57379115 0.5365567 -1.219444 -1.4875345
-0.6368661 -1.3093978 -0.82568336 -0.59932894 -0.3205717 0.42753336 0.33716404 0.79895884
-0.7571921 0.017714016 0.15489264 -2.0484183 0.61494017 -1.8232919 -0.57073647 -0.9294259
-1.2284777 1.6827776 0.14645122 0.8803293 -1.2449162 1.3017741 1.1010753 -1.8564985
-1.0430418 1.3918666 1.174462 1.9673723 1.151205 0.89902985 -1.4884332 0.19112512
00000000: 0ef3 423e 3ef5 a4be edb2 91be 5789 303d
00000010: 87c7 163e 3ae5 093e 9d57 bdbe a401 ad3d
00000020: 44e6 1ebf 5515 413e cdb0 aa3e edaf 94be
00000030: c6e1 08bc 6212 d0be 96a7 933e f74a ed3e
00000040: 9c29 91be 8ee8 813e b113 40be ee9c fd3e
00000050: 9b46 49bf cd5f 733f 9608 803e 0901 48c0
00000060: 1aff 693f 6627 21be 8698 393d 2e70 9dbe
00000070: ea08 9abf af05 5c3f b6ec 8d3f bb00 673f
00000080: 449c 0cc0 44b9 57be f693 e7be 5cae f63f
00000090: edd2 f43e 1a81 4c3d 487c 15bf d3f5 f9be
000000a0: acdc db3f 629f c9bf 815e 11bf ac06 ccbf
000000b0: f502 da3f 1996 b4bf 2351 d5bf c6e8 f43f
000000c0: c452 ad3f d97f ccbf ff90 a6bf d70e 9dbf
000000d0: c1c1 e4bf 0fd8 cabf e05d c03f 9d54 313f
000000e0: bc6d f4bf 120d 863e b29d 973f 2da2 d03f
000000f0: 8cf5 56c0 558b 6840 1415 4fbf fe2a d2bf
00000100: 1ef3 b5bf a80d 8dbf f2c3 e5bf 2e01 54c0
00000110: a174 2ac0 d3ff 5c40 a994 4140 1e39 4440
00000120: 6021 6a3e 5c69 903e 9574 363f 9db2 bd3f
00000130: 287e 5640 684e 12bf 4398 02c0 2aba 61c0
00000140: 84b9 d9bf d597 ea3f 8a3b f7bf de82 a6c0
00000150: 0eba b0bf a49f a940 80cd 6f40 22db 1cc0
00000160: 9099 03c0 7eb9 b13f acc0 1b40 c2a8 3740
00000170: c34f e33e 135d 6f40 b16e 67c0 e816 b0c0
00000180: 6d7c 1640 9adc 56c0 5977 36c0 1693 1ec0
00000190: 8ce8 133f cafc e8be 34e3 58bf 604f 5fbe
000001a0: 717e cfbd 20c9 10be fa69 14bf f8a1 e93e
000001b0: db71 4a3e 7327 dfbd 197e 90be 7228 27bf
000001c0: 7109 0bbf 3cb9 a73e 6206 c33e 580e 1bbf
000001d0: d9ae d5bd 121a ebbe 3eed 94be fa0a c03d
000001e0: fed5 5bbe 00d6 173f d4cd ddbf ac8d ccbe
000001f0: 4af7 30bf f692 dfbf c61e c1bf d272 f2be
00000200: 0940 37bf b87a 433f cf36 ae3e f214 013f
00000210: 068d aabd 5630 46be 9c23 1c3f 05c5 6fc0
00000220: d7f3 8c3f a49e f7be e260 fcbe 485c 2ebf
00000230: b58c 08c0 ef80 ca3f 3f1a 82c0 328d a1c0
00000240: 9487 83bf 7b8b 3a40 2886 3f40 025f fbbf
00000250: 8d09 0cc0 fcb2 1840 a1cb 2b40 da65 5740
00000260: c7af 333e 777e 1640 173f 20c0 6c49 cbc0
00000270: 14e8 b93f e9e3 b0c0 229a 6dc0 1771 31c0
00000280: 0ea3 87bc 98fa 143e 4409 a1be b325 43be
00000290: 5b11 e8be 71e7 82bf d15d 41bf 60e3 46bf
000002a0: 06cc 013e d15d 0a3f 80c9 943e 2762 ec3e
000002b0: 9eac 583e 9460 e4bd 478c f03e a3cf 1ac0
000002c0: 78d2 8c3f 5e3d 59bf 8f0e 24bf a107 93bf
000002d0: 848c 5740 0004 7bc0 65fb 7840 d4d8 af40
000002e0: 3187 1040 71c4 2540 62ab 7d3f e3a1 7040
000002f0: 63c7 8840 33c3 68c0 e649 8ac0 5308 89c0
00000300: 99ea 0f40 a352 143e 39d1 333e 017e d940
00000310: 7a9d 86c0 49cf b140 75d2 8540 b5e2 8640
00000320: 2686 cf3e 118a 2bbf 6913 ce3e 0bb8 953e
00000330: be1f 0a3f dbce 8f3e c279 edbe 8198 773f
00000340: 0004 abbe bc74 b3be 159c 80bd 1e7f 43bf
00000350: 7e2a 63be c9a4 6cbf fc82 8f3e b52a 3440
00000360: 0b9b 0bbf a8f6 283f d621 803e 2c6f a53f
00000370: fae3 12bf c85b 093f be16 9cbf 8867 bebf
00000380: a809 23bf 599a a7bf fc5f 53bf 9f6d 19bf
00000390: f921 a4be a7e5 da3e c4a0 ac3e 9188 4c3f
000003a0: 57d7 41bf fc1c 913c 2d9c 1e3e 4919 03c0
000003b0: b86c 1d3f a161 e9bf c91b 12bf dbee 6dbf
000003c0: c23e 9dbf 4265 d73f 4ff7 153e 435d 613f
000003d0: 6a59 9fbf 89a0 a63f 09f0 8c3f bea1 edbf
000003e0: 6582 85bf af28 b23f c554 963f dbd2 fb3f
000003f0: af5a 933f d226 663f fb84 bebf 4eb6 433e

bias f4 [20]
1.1822475 1.2889401 -0.9155496 3.211145 1.6999445 0.55996954 0.47884628 1.9133409
-0.7829201 -4.6016374 0.91412413 0.0017734666 0.42354408 0.83479285 0.30854777 -0.93190944
0.040309753 0.47244126 0.6815684 1.6853362
00000000: e353 973f fdfb a43f 7561 6abf 6683 4d40
00000010: c897 d93f 2a5a 0f3f 572b f53e 5be8 f43f
00000020: 746d 48bf 9d40 93c0 0a04 6a3f aa73 e83a
00000030: c5da d83e fcb4 553f f9f9 9d3e 9e91 6ebf
00000040: d71b 253d d2e3 f13e 447b 2e3f 19b9 d73f

weight f4 [20, 20]
-2.9793382 -6.30184 -4.9170194 11.132808 1.2013633 -3.6661203 3.0157077 -2.2481039
3.228594 -1.1303463 -2.8516045 2.2389913 8.459614 -4.207434 2.8509328 2.9934142
-5.7316265 -0.30695003 -3.3321507 4.713213 3.0347385 5.8987947 4.9701524 -10.431716
0.25984195 2.7300289 -3.4885015 3.163304 -3.104441 1.574082 3.0072565 -2.7366931
-8.630006 3.2129738 -2.8307242 -3.3146293 6.059676 -0.7734769 3.2830994 -4.2242875
0.85756326 5.9663596 5.6467896 -11.290074 -2.1229758 2.0948005 -3.7897997 0.45466617
-1.4033256 1.5572586 1.2210528 -3.2874174 -7.9142714 1.9823341 -1.0902681 -1.3616589
5.576934 1.9630375 0.79691195 -4.135752 1.5713989 5.244839 5.095469 -9.507524
-0.67641234 2.5505946 -2.8938375 1.2740105 -1.9499384 1.033365 1.8769126 -3.0348706
-6.5005317 2.5618067 -1.7010438 -1.651484 3.633351 0.9219779 1.5110813 -3.9983885
-0.021635987 4.3391323 2.5246475 -8.102404 0.27907678 0.19851701 0.0068230904 1.2192665
0.3334916 0.25411937 -0.43022338 0.18455794 -3.5025399 0.53027403 -0.10625489 -0.2019146
2.051456 -0.16522558 0.22028883 -3.0539877 1.1626241 7.4147415 6.4888577 -12.182871
0.2419948 1.5916185 -1.7928451 3.1618483 -1.1806316 0.34472865 1.283397 -1.4396772
-8.445275 2.3590145 -1.3435891 -1.402377 5.7485423 0.057472985 1.147034 -3.6793218
4.3542805 7.327006 6.0761704 -12.665744 1.5190754 4.990811 -3.691814 4.931663
-4.100603 0.81522906 4.171916 -2.9425404 -9.306544 5.7630634 -4.354 -4.6756587
7.5148163 -1.3611288 4.699241 -6.5500145 -4.6191273 -7.534963 -7.066576 14.432994
-0.34169394 -5.09597 4.828922 -4.8188334 4.180657 -1.9998668 -4.647417 4.3116193
11.77014 -5.564878 4.084205 4.5716934 -7.4017134 -0.08166602 -4.697742 5.594039
0.4488722 2.5396683 1.9084994 -5.0222325 -0.38487208 0.4335085 -1.1612101 1.1522094
-0.4502616 -0.06427177 0.0026920247 -0.7407449 -3.1357138 0.58370847 0.08135081 -0.08292042
1.9941162 -0.046692982 -0.07303587 -1.9756913 0.42491287 3.2502775 2.769686 -5.8948755
0.010007127 1.7874917 -1.5170403 0.5308334 -0.5835169 -0.46887842 0.2788418 -0.5541838
-2.566376 1.3305511 -0.2846651 -0.2767891 1.2548747 1.185666 0.24630338 -2.5551183
2.9186263 4.329796 4.583708 -8.4576435 0.73691165 4.7233458 -4.0512776 3.6607056
-2.7341673 -0.06582717 2.9732583 -3.099727 -6.514901 4.099167 -2.7300136 -3.059895
3.4874325 -1.4130965 2.7138917 -4.0100584 0.14313336 1.9429244 1.8789964 -3.337162
0.07307875 0.75375575 -2.4719892 -0.037227876 -0.5392738 0.21827179 0.2532513 -1.9471012
-2.4230917 0.36616609 0.066163324 -0.37612098 0.89185494 0.87721753 0.12772125 -1.4986088
-1.3356112 -3.6640887 -3.1719146 6.7861457 0.2886653 -1.4141638 1.6292758 -1.6083227
0.9179127 -0.83960575 -1.6100461 1.5113212 3.730615 -1.965073 1.2261546 1.5052673
00000000: 7aad 3ec0 aca8 c9c0 3958 9dc0 fb1f 3241
00000010: 46c6 993f b7a1 6ac0 5b01 4140 efe0 0fc0
00000020: 49a1 4e40 30af 90bf b080 36c0 a24b 0f40
00000030: 945a 0741 4da3 86c0 af75 3640 1994 3f40
00000040: 7c69 b7c0 8e28 9dbe f541 55c0 a4d2 9640
00000050: 2839 4240 edc2 bc40 7d0b 9f40 4fe8 26c1
00000060: 010a 853e cbb8 2e40 9c43 5fc0 9373 4a40
00000070: 29af 46c0 857b c93f e476 4040 fb25 2fc0
00000080: 8114 0ac1 5da1 4d40 962a 35c0 e322 54c0
00000090: dee8 c140 9502 46bf 4d1e 5240 5d2d 87c0
000000a0: 4489 5b3f 6bec be40 80b2 b440 25a4 34c1
000000b0: d6de 07c0 3611 0640 148c 72c0 01ca e83e
000000c0: 2ca0 b3bf 4054 c73f 754b 9c3f 0c65 52c0
000000d0: b641 fdc0 20bd fd3f e88d 8bbf d74a aebf
000000e0: 3e76 b240 d044 fb3f 6c02 4c3f 1558 84c0
000000f0: 9923 c93f b9d5 a740 150e a340 d11e 18c1
00000100: 5c29 2dbf f13c 2340 a234 39c0 c712 a33f
00000110: 9597 f9bf 4e45 843f ac3e f03f 523b 42c0
00000120: 5b04 d0c0 a4f4 2340 cebb d9bf d463 d3bf
00000130: d388 6840 be06 6c3f 1d6b c13f 99e5 7fc0
00000140: f43d b1bc 2cda 8a40 d393 2140 72a3 01c1
00000150: 27e3 8e3e 0b48 4b3e 3b94 df3b ed10 9c3f
00000160: 69bf aa3e ef1b 823e 3d46 dcbe c2fc 3c3e
00000170: 9d29 60c0 0ac0 073f 2a9c d9bd b3c2 4ebe
00000180: 0e4b 0340 e530 29be 6593 613e 8974 43c0
00000190: ded0 943f 9045 ed40 b9a4 cf40 0aed 42c1
000001a0: 7ccd 773e 28ba cb3f f37b e5bf b95b 4a40
000001b0: f01e 97bf 4680 b03e 5a46 a43f 5847 b8bf
000001c0: d91f 07c1 18fa 1640 bafa abbf 1781 b3bf
000001d0: 0ff4 b740 cb68 6b3d 03d2 923f 027a 6bc0
000001e0: 4456 8b40 d576 ea40 fd6f c240 e3a6 4ac1
000001f0: 1071 c23f b9b4 9f40 ae46 6cc0 2fd0 9d40
00000200: 2438 83c0 dab2 503f 5680 8540 9552 3cc0
00000210: 9be7 14c1 046b b840 f853 8bc0 ff9e 95c0
00000220: 6079 f040 7839 aebf 2f60 9640 b899 d1c0
00000230: e4cf 93c0 6b1e f1c0 6421 e2c0 8bed 6641
00000240: 82f2 aebe 3012 a3c0 8786 9a40 e233 9ac0
00000250: f1c7 8540 a3fb ffbf a4b7 94c0 c9f8 8940
00000260: 7e52 3c41 7b13 b2c0 cfb1 8240 504b 9240
00000270: d6da ecc0 8440 a7bd e753 96c0 5e02 b340
00000280: 94d2 e53e ed89 2240 b549 f43f 21b6 a0c0
00000290: f40d c5be d3f4 dd3e 88a2 94bf 997b 933f
000002a0: b088 e6be eba0 83bd ae6c 303b 75a1 3dbf
000002b0: 89af 48c0 eb6d 153f 419b a63d 2ed2 a9bd
000002c0: 333f ff3f 2441 3fbd d593 95bd 74e3 fcbf
000002d0: 2e8e d93e 8c04 5040 8942 3140 d2a2 bcc0
000002e0: eff4 233c 87cc e43f 602e c2bf b3e4 073f
000002f0: 5d61 15bf d510 f0be 5ac4 8e3e fdde 0dbf
00000300: 813f 24c0 804f aa3f a0bf 91be 4db7 8dbe
00000310: bc9f a03f e7c3 973f f436 7c3e 0f87 23c0
00000320: c6ca 3a40 b08d 8a40 bcad 9240 8252 07c1
00000330: 3ea6 3c3f a625 9740 11a4 81c0 0049 6a40
00000340: 99fc 2ec0 65d0 86bd dd49 3e40 ed61 46c0
00000350: 127a d0c0 602c 8340 8bb8 2ec0 52d5 43c0
00000360: 1832 5f40 59e0 b4bf 67b0 2d40 6652 80c0
00000370: 8d91 123e bfb1 f83f f482 f03f 1094 55c0
00000380: 50aa 953d 23f6 403f 1235 1ec0 427c 18bd
00000390: d90d 0abf a482 5f3e 28aa 813e 9d3a f9bf
000003a0: ef13 1bc0 1f7a bb3e a380 873d ee92 c0be
000003b0: 9b50 643f 5491 603f 5cc9 023e 6ad2 bfbf
000003c0: 4ff5 aabf 6e80 6ac0 a600 4bc0 1b28 d940
000003d0: f0cb 933e 5203 b5bf 1c8c d03f 85dd cdbf
000003e0: 54fc 6a3f 67f0 56bf fe15 cebf f972 c13f
000003f0: 65c2 6e40 8387 fbbf a2f2 9c3f 99ac c03f

bias f4 [20]
-3.3319871 2.9237382 0.027374772 0.8693256 -0.45176473 0.6750686 4.7869835 -4.5406213
-0.68616253 -1.6950477 2.8695807 -0.56885356 -1.1621426 -4.3999686 0.9324083 -4.7069545
2.511178 -0.38179442 -0.7374351 -1.8779402
00000000: 473f 55c0 871e 3b40 0f41 e03c 1f8c 5e3f
00000010: b54d e7be 4cd1 2c3f f82e 9940 c54c 91c0
00000020: 59a8 2fbf 53f7 d8bf 36a7 3740 63a0 11bf
00000030: 17c1 94bf 8bcc 8cc0 4fb2 6e3f 5f9f 96c0
00000040: 24b7 2040 8f7a c3be 8cc8 3cbf 5860 f0bf

weight f4 [1, 20]
8.817256 -11.124001 -11.26938 -10.132826 -9.683452 -11.4266 -11.858195 12.253349
-11.182546 -11.115974 -11.961094 -10.584018 11.043909 5.6683455 -12.255206 12.295327
10.889159 11.583366 11.317227 8.553945
00000000: 7b13 0d41 e8fb 31c1 614f 34c1 0e20 22c1
00000010: 6bef 1ac1 5bd3 36c1 2bbb 3dc1 b80d 4441
00000020: b5eb 32c1 08db 31c1 a460 3fc1 2358 29c1
00000030: dab3 3041 1663 b540 5315 44c1 a9b9 4441
00000040: ff39 2e41 7855 3941 5d13 3541 f5dc 0841

u_b f4 [2]
19.900826 39.96
00000000: e434 9f41 0ad7 1f42

l_b f4 [2]
0.04028449 0.0
00000000: 5901 253d 0000 0000
