Iter_03/Models/Noise_5/simulation_10_20/ff_200.pt (torch, 39197 bytes, 23 tensors)

weight f4 [20, 2]
000000 f0 df b1 3d 7c a6 78 3e 89 0e fa be 03 2b 49 be
       0.08685291 0.24282259 -0.48839214 -0.19645314
000010 c4 9b 86 3c 76 3d f7 3d 27 95 30 3f a8 43 53 3f
       0.016431697 0.120722696 0.6897759 0.8252511
000020 cd 55 c3 bc bd 13 b9 be df 39 d8 3e 1f 1c ae bd
       -0.023844624 -0.36147872 0.42231652 -0.085014574
000030 e6 15 ca bd 59 bc c1 3d 2c 02 02 3f 40 c8 a0 3d
       -0.09867458 0.094597526 0.50784564 0.07850695
000040 07 e4 0d bf 54 57 90 be 95 67 5e be e7 55 83 3d
       -0.5542607 -0.28191626 -0.21719201 0.06412869
000050 58 a0 80 3e 20 cd ac 3e 95 cb 67 be 88 e0 48 be
       0.25122333 0.33750248 -0.22636254 -0.19616902
000060 66 b0 39 bf bb 15 61 bf 36 01 a2 3d f6 56 b8 3e
       -0.7253479 -0.87923783 0.07910387 0.36003846
000070 0c 45 9a be 5a fd 2d bf c5 cf 3f 3f 02 92 b8 3e
       -0.30130804 -0.6796471 0.74926406 0.36048895
000080 b2 2a 05 bf 3b f0 d2 bf e5 b3 31 bf ee 05 9b be
       -0.5201827 -1.6479563 -0.6941512 -0.30277961
000090 c3 ae b8 be dd fe d4 be 33 d0 81 be 88 c7 8a be
       -0.36070833 -0.41600695 -0.25354156 -0.27105355

bias f4 [20]
000000 b5 8d 95 3e 78 74 1b bf 68 27 29 3f 2a 98 e1 3e
       0.29209676 -0.6072459 0.66075754 0.44061404
000010 ee 29 d0 bd cd 77 77 3e 57 eb f4 3d 7f a8 4f 3f
       -0.101642475 0.24166794 0.1195895 0.8111648
000020 9e a4 87 bf a5 b4 6a 3d ff bf e2 3e 3c 0b 1a bf
       -1.0597112 0.057301182 0.44287106 -0.6017339
000030 b1 c5 a8 bf b0 41 3f 3f 2e a9 2e bf 13 b4 54 3f
       -1.3185331 0.74709606 -0.682269 0.8308727
000040 27 9e e1 bf 7d fb 0c 3c 9f 4c 37 bf 57 98 06 bf
       -1.7626389 0.008604881 -0.7160129 -0.525762

weight f4 [20, 20]
000000 50 a3 59 3e 08 0a e9 3d 5a 7a 71 3d 71 71 c0 be
       0.21253705 0.113788664 0.058954574 -0.3758655
000010 ce 86 5e 3e a5 0d a1 3c 9b e8 75 3e 79 21 69 3e
       0.21731111 0.019659827 0.24014513 0.22766675
000020 10 49 29 3e d8 70 d6 3e a5 9c 93 3e 55 69 ab bc
       0.16531777 0.41882968 0.28830448 -0.02092425
000030 56 63 9e 3e c1 1c 87 3e 1f 3c 1e 3f 9c 1b 8b be
       0.30935162 0.26389125 0.6181049 -0.27169502
000040 9a 45 03 bd ca 5d 08 3e e7 49 07 be c9 70 92 3d
       -0.0320488 0.13317028 -0.13211785 0.07150418
000050 ce af 87 3e 9a 32 00 3e 30 c4 86 3d 04 f9 1b be
       0.26501316 0.12519303 0.065803885 -0.1523171
000060 18 7f b3 bd 71 bb dd be 32 29 ce be 9e 98 36 be
       -0.087644756 -0.4330707 -0.40265805 -0.17831656
000070 d9 64 31 3e c2 e3 a2 bc 5f 78 54 bd 9f 76 b2 bd
       0.17323627 -0.019883994 -0.051872607 -0.087140314
000080 8d 5e 36 be 2f 48 16 3e 04 79 3e be 55 41 0e 3e
       -0.17809506 0.14675973 -0.18600851 0.1389211
000090 a9 23 15 3e 17 4d 8a 3e 13 24 b5 3c ae fc c2 bc
       0.14564385 0.2701194 0.022111928 -0.023802128
0000a0 9c ec a1 3e 51 b9 00 3e 15 73 6f be 07 1d 05 bf
       0.3162583 0.12570693 -0.23383744 -0.5199742
0000b0 26 28 1c 3f 9f 9b 3a bd 30 84 6b bd 5a d5 63 3e
       0.6099876 -0.045558568 -0.05749911 0.22249356
0000c0 05 93 32 3e 46 2e 86 be fd a8 4d be 5a bf 46 3e
       0.17438896 -0.2620718 -0.20083995 0.19408932
0000d0 b2 90 8d be 29 df cb bc ad 7b 51 3b 25 2d c5 bc
       -0.27649456 -0.024886684 0.0031964586 -0.024069378
0000e0 f7 fd ba 3d f6 42 79 bd cd a8 24 3d 22 cb ed be
       0.09130471 -0.060854875 0.040200043 -0.4644404
0000f0 c8 e1 60 3e f6 72 2e 3d a2 5a b8 be ac bf c7 3e
       0.21961129 0.042590104 -0.36006647 0.39013422
000100 79 cf ca 3d 86 e1 62 3e 1d 1e b4 be 57 5c cd 3d
       0.099028535 0.22156343 -0.35179225 0.10027378
000110 91 4f 9b bd 5b 07 35 3d c4 14 fb 3d 7c 60 5c 3e
       -0.075835355 0.044196468 0.1225982 0.21521181
000120 2b 7a a3 3e e1 c9 93 bd 73 51 05 3c ef 38 4d 3d
       0.31929144 -0.0721624 0.008137095 0.050103124
000130 5a b8 7c be 34 84 58 be f5 41 4c 3e aa 60 7a 3e
       -0.246797 -0.21144181 0.19947036 0.24450937
000140 ec 38 bc 3e 1a 53 6d 3d 7b b2 80 be 2c 6a 22 3f
       0.36762178 0.05794058 -0.2513617 0.63443255
000150 1f 6a e9 be ac 78 9a be 78 14 5b 3d 79 2d 27 3e
       -0.45588776 -0.3017019 0.053486317 0.1632594
000160 18 38 5f 3e b0 d4 3e be 53 b8 30 3e bd b1 cf 3d
       0.21798742 -0.18635821 0.17257814 0.10141323
000170 2d c1 e2 bd fa 2b ab be ec c7 8e be 58 33 5d 3e
       -0.110720016 -0.3343199 -0.27886903 0.21601617
000180 f4 47 04 bf 43 0a be be 0e 9f 57 3d 55 85 a3 3e
       -0.5167229 -0.37117204 0.05264192 0.31937662
000190 6f 05 82 bd 37 b8 02 3e ae fd 34 3e 39 0c 6d 3d
       -0.063486926 0.12765585 0.17674896 0.057872985
0001a0 41 d0 13 3e 35 2b 73 3e 60 b1 5b be 6d c0 19 be
       0.14434911 0.23746951 -0.21454382 -0.15014811
0001b0 8e e8 7b 3d d3 0f 83 be 6e 4c d8 3d 6d 53 64 bd
       0.06150108 -0.2559801 0.10561453 -0.055743624
0001c0 0b 81 69 be a4 f3 8c be f7 61 0f 3f 9b 34 1b 3d
       -0.22803132 -0.27529633 0.5600886 0.037891965
0001d0 1f fb 37 be ea 06 96 bd ba 09 40 3e 0f 53 93 3e
       -0.17966889 -0.073255375 0.1875371 0.28774306
0001e0 29 48 d5 be d8 7f 40 bd f4 20 33 bd f9 41 b0 3d
       -0.41656616 -0.04699692 -0.0437326 0.08606333
0001f0 83 84 25 be 30 91 04 bf cd 14 3e 3e 64 18 cb 3c
       -0.1616383 -0.5178404 0.18562622 0.024791904
000200 cd 88 96 3e 54 6c 91 be 49 54 30 3e bc a4 00 be
       0.29401246 -0.2840296 0.17219652 -0.12562841
000210 f5 b1 21 3c c1 3d 5c bd 0a 6b 5d 3e 90 ad f4 3d
       0.009869088 -0.05376983 0.21622863 0.11947167
000220 41 41 06 be 03 bf a4 be f1 06 8c 3d 3b 01 35 be
       -0.1311083 -0.3217698 0.068372615 -0.1767625
000230 09 70 4d 3e 55 36 e3 3e 3c 39 b2 bd 66 5d f4 3e
       0.2006227 0.4437739 -0.08702323 0.47727507
000240 d2 96 22 3e 0e 8f 17 3e 2e 5a f7 be 69 c2 19 bd
       0.15877846 0.14800665 -0.4831099 -0.03753892
000250 cc 0d 1f 3e 24 e3 1e be bd 74 06 3e 42 72 84 3e
       0.15532607 -0.15516335 0.1313047 0.25868422
000260 e4 ed 74 3e 7c a0 ec be 09 e9 c3 bd 84 d1 27 be
       0.23918873 -0.4621619 -0.09565932 -0.16388518
000270 76 bc 6c be 59 e8 04 bf 85 56 31 be 01 f9 8d 3e
       -0.23118767 -0.51917034 -0.17318161 0.27729037
000280 29 0d 07 3e 89 44 08 be 76 06 54 be e1 f0 c1 3e
       0.13188614 -0.13307394 -0.2070559 0.3787909
000290 07 24 ae be a2 db 36 3e 6c 8b 84 be 42 2c 2c be
       -0.34011862 0.17857221 -0.2588762 -0.16813758
0002a0 9d 82 30 be 3c 0e 28 be f4 1b 16 3e b3 66 22 3e
       -0.17237325 -0.1641168 0.14659101 0.15859489
0002b0 1f e7 95 3d 9f a1 12 be f7 dd ca bc 8d 9e d9 3e
       0.073194735 -0.14319466 -0.024764044 0.42503777
0002c0 c1 c1 17 3e e6 9f 07 bc e9 41 22 3e 58 a8 42 be
       0.14820005 -0.008277869 0.15845455 -0.1900953
0002d0 36 46 00 3e 83 34 40 3d 63 eb 50 3d 55 bf 09 3f
       0.12526783 0.04692508 0.051005732 0.53807575
0002e0 a5 88 ad 3e ee 34 83 3e af b1 bf 3d 87 4b 58 bc
       0.33893314 0.2562632 0.09360062 -0.013201601
0002f0 8c 5b 25 3f 9d ff 2d 3d cb d8 0b 3e 7c 74 1a be
       0.64592814 0.0424801 0.13656919 -0.15083498
000300 61 f0 cc bd db 40 a7 3d 29 72 80 be 07 0c d2 3c
       -0.10006786 0.08166667 -0.25087097 0.0256405
000310 c9 d7 7c 3e e6 b4 da be bb 9e 3b be a2 81 89 3d
       0.2469169 -0.4271614 -0.1832227 0.067141786
000320 7a c0 da bb 5c c5 1d 3e 76 e5 e2 be d2 f3 29 3f
       -0.006675777 0.15407318 -0.4431569 0.66387665
000330 10 f2 c4 be c3 83 0f be 72 f0 99 be ee 64 db bd
       -0.3846593 -0.14015107 -0.30066258 -0.1071261
000340 e0 9f 0b 3f a1 bf 25 bf fa 0a 17 3d e0 b3 39 bd
       0.54540825 -0.6474553 0.036875702 -0.045337558
000350 77 5b 07 bf 75 09 bd be a2 d8 3c be ac f8 71 3e
       -0.5287394 -0.36921278 -0.18442014 0.23630017
000360 cc 38 ef be e3 e4 3f be fa ac 2c 3e 30 11 59 be
       -0.4672302 -0.18739657 0.1686286 -0.21197963
000370 c4 80 c9 be 42 28 23 3e f8 54 81 3c 30 91 21 3f
       -0.39356053 0.15933326 0.015787587 0.63112164
000380 1b 40 6e be 04 41 8b 3d 6b a5 55 bd 78 63 89 be
       -0.23266642 0.0679951 -0.052159708 -0.268337
000390 1b 5c 91 bd 4c e7 71 3e 24 ba 09 3e b2 cd 12 3f
       -0.07097646 0.23623389 0.13449913 0.57345116
0003a0 95 2c ed bd 13 87 8b be 0f 09 02 3e 09 ac f8 bd
       -0.11580769 -0.2725149 0.12698768 -0.12142188
0003b0 3f 8f d4 bd 00 73 aa be 17 75 75 3e 45 4c 61 3d
       -0.103788845 -0.33290863 0.23970447 0.055004377
0003c0 76 fa b8 be 8b b6 01 3e 2f b0 1a 3f 8f 40 37 bf
       -0.36128587 0.12667291 0.60425085 -0.71582884
0003d0 f1 bb b0 bd 90 91 9b 3e 7f e1 e6 3d db 3b 1c 3d
       -0.08629597 0.30384493 0.11273479 0.03814302
0003e0 4f 9b 0d be b7 d2 c6 3e 83 8f 40 be 52 f1 a3 3d
       -0.13828777 0.38832638 -0.18804745 0.080050126
0003f0 2c 81 70 3e 2d e3 4f 3e 23 75 0a 3e 65 c6 73 bd
       0.23486775 0.20301504 0.13521247 -0.059515376

bias f4 [20]
000000 00 8e 33 bf 3e 8e 47 be d3 a5 f4 3c 7a 98 ba 3e
       -0.7013855 -0.19487855 0.029864227 0.36444455
000010 75 f9 7d 3f 29 f1 88 3e c7 b2 e1 3d af 63 52 3f
       0.99208766 0.2674649 0.11020427 0.82183355
000020 9c d9 cd 3e f8 bd 63 3f 7b 4e 4b 3f 03 81 5c 3f
       0.40205085 0.88961744 0.79416627 0.86134356
000030 17 72 ba bf 20 92 69 bf c5 7c 9b 3d 0b 6b b0 bf
       -1.4566067 -0.91238594 0.07592157 -1.3782667
000040 ed a7 4c 3e 50 ea 8e bf 66 74 f7 bf 09 54 15 3f
       0.19985934 -1.1165257 -1.9332397 0.5833135

weight f4 [20, 20]
000000 b5 14 43 3e 54 e3 9a be b9 bf 5c 3e 44 c0 d5 3d
       0.19050868 -0.30251563 0.21557511 0.104370624
000010 7d 96 2c be 91 e9 cb bc f4 31 03 3d a8 2a ba 3e
       -0.16854282 -0.024891647 0.03203006 0.3636067
000020 ea f9 24 bf bc 32 9b 3e cb 2b 6e bd 96 a2 b9 3e
       -0.6444384 0.30312145 -0.058147233 0.36256856
000030 24 19 b0 3d af da a3 3d fe a7 57 3e 85 96 45 be
       0.08598545 0.08000695 0.21060178 -0.192957
000040 e2 6c 0d 3f 7d d6 ce bd 17 01 05 3e b9 40 44 be
       0.55244267 -0.10099504 0.12988697 -0.19165315
000050 16 fa 98 3e 71 e2 08 3d ae ed 0a 3d 38 1d b8 3c
       0.298783 0.033419076 0.033918075 0.02247487
000060 5a 85 86 3c 9d 57 80 3e 6a 98 7b 3e af d6 89 be
       0.016421009 0.25066844 0.2456986 -0.26921603
000070 56 f8 b3 bd 8d 2f 0f 3e a4 3c 4d be e5 4d a5 3e
       -0.08787601 0.13982983 -0.20042664 0.3228599
000080 33 01 c5 3b 37 50 44 3d 3e 03 61 bd a2 68 ce 3e
       0.006012106 0.04792806 -0.054934733 0.40314204
000090 84 b4 ab bd 38 f6 da 3e 55 15 bc 3e 77 0c 39 bd
       -0.0838404 0.42765975 0.36735025 -0.045177903
0000a0 87 32 83 be 41 0e 06 bd bc fb 28 3e fe 7c cd be
       -0.25624487 -0.032728437 0.16502279 -0.40134424
0000b0 7d 1a b7 3d 9d 90 54 3e 41 a8 16 3e ec 37 db bc
       0.08940599 0.2075829 0.14712621 -0.026760064
0000c0 7a af 4c 3c 2e 52 ab 3e 0f 2d fb be 41 43 2e be
       0.012493009 0.33461136 -0.49057814 -0.17017843
0000d0 00 5e e1 bd aa 16 b9 3c f8 d3 1b be 3b b0 f7 3e
       -0.11004257 0.022593815 -0.15217578 0.4837664
0000e0 a9 95 9a 3e 93 24 0a 3e 60 15 46 bd e7 77 3e 3e
       0.30192307 0.13490514 -0.04836023 0.18600427
0000f0 f1 24 4b 3e 16 cd 54 bc 31 75 63 3d ef c7 90 be
       0.19838311 -0.012988349 0.055531684 -0.28277537
000100 6e 47 8c be 77 5d 45 bd ba b4 45 bf 65 27 f2 be
       -0.27398247 -0.04818484 -0.7722889 -0.4729568
000110 0e e1 8a be dc c8 f0 3c b1 c8 d7 be a0 1c 0d 3e
       -0.27124828 0.029392652 -0.42145303 0.13780451
000120 4d 3b 8c be c4 9e 13 be b6 96 a2 be fa 47 7f 3e
       -0.27388993 -0.14416033 -0.31755608 0.249298
000130 1f 63 64 3e 52 72 8d bd ef 31 96 3d c7 82 1f 3f
       0.22303437 -0.069065705 0.07333743 0.62308925
000140 01 33 b1 3e cb 23 dd bc ad f1 6a 3d 86 3e 63 bd
       0.34609225 -0.026994606 0.057359386 -0.05547955
000150 3d 69 21 3e 40 6a 97 be cf b4 1b be 20 ac 46 be
       0.15762801 -0.2957325 -0.15205692 -0.19401598
000160 69 09 f5 3d 84 9a 9c bc 7f 9e df be eb bf ac be
       0.119646855 -0.019116648 -0.4367561 -0.33740172
000170 fd ad 82 3c 4c 02 10 bf 7c 70 e8 3e ef dc 95 3e
       0.015952105 -0.56253505 0.4539832 0.2927012
000180 79 7e 90 be 60 60 40 be 6f 9f ee 3e 1a ff 3c 3e
       -0.2822149 -0.18786764 0.46606013 0.18456689
000190 b9 ba 50 be 97 fb bd bd 06 62 da 3d d5 77 7f be
       -0.20383729 -0.092765026 0.10663228 -0.24948056
0001a0 5f 82 81 be 08 2e e2 3b 30 a8 95 3c f6 4f d3 be
       -0.25294778 0.00690246 0.018268675 -0.41271943
0001b0 0d d4 8f 3d 5b f9 80 3d b6 aa a4 be 29 99 19 bd
       0.07022867 0.06297561 -0.32161492 -0.03749958
0001c0 95 bf a8 3e e8 5b 80 3d 52 29 b1 3e 9e 46 47 bd
       0.32958665 0.0626753 0.34601837 -0.04865133
0001d0 cb bb fb 3d fd 56 28 3e ab 00 11 3e 11 03 df be
       0.12291678 0.16439433 0.14160411 -0.43557027
0001e0 62 b6 97 3e 40 94 b1 bc a3 97 62 bd e6 9b 95 3e
       0.29631335 -0.021677136 -0.055320393 0.29220504
0001f0 f8 5f 85 3d b0 6e ce bd 3d ef eb bd 02 16 71 3e
       0.06512445 -0.10079706 -0.115202405 0.23543552
000200 77 41 30 bb f0 9c 9d bc 0f 9b b1 3e 54 6e b2 3d
       -0.002689449 -0.019239873 0.34688613 0.0871245
000210 67 81 c6 bd c6 3a be 3e a7 f3 17 be e8 e6 bb 3e
       -0.0969265 0.37154216 -0.1483904 0.36699605
000220 31 01 9b 3d e9 33 17 bf 16 08 46 be bc 05 cf 3c
       0.075685866 -0.59063584 -0.19339022 0.025271289
000230 cf 49 18 be f7 de 25 3e 29 30 fc ba 0c 66 3a 3e
       -0.14871906 0.16198336 -0.0019240427 0.1820299
000240 fb fd 8f bb db 02 04 bc a2 03 7c be 82 f7 97 3e
       -0.0043942905 -0.008057321 -0.24610761 0.2968102
000250 67 d5 a7 3e cf 78 3b 3e a4 c3 79 3d ba c2 d2 bd
       0.3278 0.18307804 0.060977593 -0.102910474
000260 1a f0 33 be 9e 92 12 be 71 bb 0d 3d e0 85 c4 3d
       -0.1757206 -0.14313743 0.034602586 0.09595847
000270 dc ce b8 bd f8 32 b2 3e 3c 12 bd bb 77 5e d4 3d
       -0.0902383 0.3480451 -0.005769996 0.1036958
000280 c9 c3 98 bd ae 48 4c bd 62 d4 ae be b5 f8 fd 3e
       -0.07459218 -0.049874 -0.3414641 0.4960381
000290 24 44 91 3e a4 00 dc 3d 7b aa 84 3d 3c 07 9a 3c
       0.283723 0.1074231 0.06477829 0.018802278
0002a0 1e 90 63 3e 57 d1 9d bc 6f 3d d5 3d d1 5a 83 3e
       0.22222945 -0.01926486 0.10412108 0.25655225
0002b0 58 9d 66 be 96 93 93 be 49 fe 9d 3e bc c0 00 be
       -0.2252096 -0.28823537 0.30858067 -0.12573522
0002c0 29 8f 11 be 45 87 5c be 91 5a 96 3e fe 3b b1 be
       -0.14214768 -0.21535976 0.29365972 -0.34616083
0002d0 b2 66 e3 3e 1b c6 60 be 98 36 c6 3c ba 83 52 be
       0.44414288 -0.21950571 0.024195954 -0.20558062
0002e0 81 b7 ab be fe d2 df 3e 09 51 fb be 43 55 8f 3d
       -0.3353844 0.43715662 -0.49085262 0.06998684
0002f0 6d d2 01 be e0 3a 54 3e 1d 12 8e be f7 b1 6c 3e
       -0.12677927 0.20725584 -0.27748194 0.23114763
000300 1b cb 2d be fa 14 2e be 7d b2 b5 be cb 7b ae 3e
       -0.1697201 -0.1700019 -0.35487738 0.34078822
000310 7f 41 3e 3e b6 00 1f 3e 82 d9 5f 3e 8e 5a 91 bd
       0.18579672 0.15527615 0.21860316 -0.0709735
000320 54 f2 42 3e 01 94 a8 3c 98 e6 16 3e 4e 38 c3 bc
       0.19037753 0.020578386 0.14736402 -0.02383056
000330 ec 46 04 3d 94 c0 c5 3d 72 38 9f 3d ac a0 f4 bd
       0.0322942 0.09655872 0.07774438 -0.11944708
000340 d9 32 11 be 30 ea 36 3e d4 79 4c be 70 ca 17 3e
       -0.14179553 0.17862773 -0.19968349 0.14823318
000350 21 1e c6 3c 3d 09 50 3e ab 0d c0 be 28 bb 9c 3e
       0.024184288 0.20316024 -0.37510428 0.3061154
000360 c9 ef d4 3d ce b3 a3 be 1f 9b 75 bd 3f 5e 82 be
       0.10397298 -0.31973118 -0.059962388 -0.2546253
000370 6f a0 87 3c 66 03 bd 3d f9 89 1f 3c 40 48 97 be
       0.016555993 0.09229164 0.009737485 -0.2954731
000380 1a 3f 06 3e 19 a7 35 be 89 84 68 bd 1e ad c2 bd
       0.13110009 -0.17739524 -0.05676702 -0.09505676
000390 f2 54 dd be 84 da 86 3e 73 7d cd be 50 6f 08 bd
       -0.4322887 0.2633859 -0.40134773 -0.03330928
0003a0 18 c3 8c 3e d2 5a 78 3e ad 4d e9 bd 96 bc b7 3e
       0.27492595 0.24253395 -0.113917686 0.35886067
0003b0 99 60 fd 3d b8 b7 3c 3f 2e cb 86 bd f6 01 06 3e
       0.1237194 0.7371783 -0.06581722 0.13086686
0003c0 d3 e4 9f be 7e b5 ea 3d c9 1c b3 be 28 ba c1 3d
       -0.31229267 0.11460398 -0.349829 0.094593346
0003d0 ce 3a 9d 3e 18 be c2 be 71 f1 55 3d 99 0e af 3e
       0.30708927 -0.38035655 0.05223221 0.34190825
0003e0 83 05 9e 3d 81 28 a5 bb 0b 04 aa 3e dc f3 f7 bd
       0.07715895 -0.005040229 0.3320621 -0.12107059
0003f0 e7 c3 8b be 59 ec c4 be d6 9b 97 3e ed af 48 bf
       -0.272979 -0.3846157 0.2961108 -0.7839344

bias f4 [20]
000000 68 3e 1c bf d0 3e 00 3e d1 5f 57 bf 14 0d a1 bf
       -0.61032724 0.12523961 -0.8413058 -1.2582116
000010 49 c8 2b bd 86 2d cd be b8 34 c4 3e 04 11 b1 be
       -0.041939054 -0.40073794 0.3832147 -0.34583294
000020 c6 af 9c 3e 79 07 96 bf a4 6a b8 bd a9 32 11 bf
       0.30602854 -1.172103 -0.09004715 -0.56717926
000030 cf f5 cd 3e 09 70 e5 3e 6c e3 15 3f 32 76 c4 3e
       0.402266 0.4481204 0.58550143 0.38371426
000040 eb 93 e7 3f 80 7d 09 40 15 6a cf bf f3 f4 36 be
       1.8092016 2.148285 -1.6204249 -0.17866878

weight f4 [20, 20]
000000 e5 9f 2f 3d 97 4c 39 3e 32 2a 75 3e 18 47 35 bc
       0.042877097 0.18095623 0.23941877 -0.011064313
000010 c8 4e 15 3f 70 04 2f 3e 67 73 91 3e c2 5c 43 be
       0.58323336 0.17091537 0.28408358 -0.19078353
000020 11 8e 40 3e 4b ca 3c 3e 54 57 20 3e d7 92 11 3e
       0.18804194 0.18436544 0.15658313 0.14216171
000030 57 c5 0b bd 8d 58 97 3e df 94 66 39 f7 8f 64 3e
       -0.034123745 0.29559746 0.00021989968 0.22320543
000040 8d 46 70 3d 33 d4 04 3e 67 b1 d6 3e ac 35 de bd
       0.058661032 0.12971573 0.41932222 -0.10850081
000050 ad 30 85 3d 1b 6b 64 be 38 b9 9a be bd 52 a0 3c
       0.06503425 -0.22306482 -0.30219436 0.019570703
000060 42 db e6 3d 33 a4 0d 3f 17 4f a5 3e 12 47 1b 3e
       0.11272289 0.55328673 0.32286903 0.1516383
000070 1e 78 0d bc b1 ff d9 3d bf cd de be 40 37 71 be
       -0.008634595 0.106444724 -0.43516347 -0.23556232
000080 e9 8f 54 be 45 d9 c7 3e ce 4b a9 3d 69 ce 7e be
       -0.20758022 0.3903295 0.08266412 -0.24883427
000090 5d a0 95 3e 74 ca 40 3e 58 35 10 be c8 06 95 3e
       0.2922391 0.1882723 -0.14082849 0.29106736
0000a0 95 08 ae be 5b c7 05 bf 79 3c d7 3d 11 ce 13 be
       -0.33990923 -0.5225732 0.10509581 -0.14434077
0000b0 d2 40 ea be 9d 9a 93 3e fc 7f f6 be c9 4e 91 3e
       -0.4575258 0.28828898 -0.4814452 0.2838042
0000c0 d3 a9 a7 3e 0a f0 02 3f 2d 8b 84 be c2 16 4e be
       0.32746753 0.5114752 -0.25887433 -0.20125869
0000d0 a3 a2 9a 3d 69 86 8b bd 65 28 84 3e 23 ee 5f be
       0.07550552 -0.06812746 0.2581207 -0.21868186
0000e0 86 1f 84 be 21 36 f6 3e fa c8 25 3a 6a c7 ca 3e
       -0.258053 0.48088172 0.00063241983 0.39605266
0000f0 67 47 ee bd 20 0d 37 be 2c d5 19 be ec c9 9d 3d
       -0.11634713 -0.178761 -0.15022725 0.07704529
000100 78 55 d6 bd 45 8a 29 be ca 93 48 3e 9d ed 5d 3e
       -0.104655206 -0.16556652 0.19587627 0.21672674
000110 50 1e 06 3e 7a 6b 02 3e c4 a0 59 3e b4 08 19 bf
       0.13097501 0.12736312 0.21252733 -0.59778905
000120 8b 03 2a 3e 1c e5 73 3e f0 04 bb 3d ad 9b 29 3c
       0.16602914 0.23817867 0.09131801 0.010352057
000130 3b 62 01 be 6a 00 2d 3f a1 97 f3 3c b5 5d d0 be
       -0.12635128 0.67578757 0.029735388 -0.40696493
000140 3f da ab 3e a2 93 19 bf 18 f6 b2 be 74 93 88 be
       0.33564946 -0.59990895 -0.3495338 -0.26674998
000150 10 28 ac 3a c7 7c 88 3d 2e 23 c0 3b dc 43 f3 3d
       0.0013134498 0.066644244 0.0058635687 0.118781775
000160 63 81 8b 3e 70 08 d8 be d0 09 cf bc 78 d2 3e be
       0.27247152 -0.42193937 -0.025273234 -0.18634975
000170 5e b2 c1 3e 05 9b 05 3e c1 d4 29 3d 3b 22 22 be
       0.37831396 0.13047417 0.041462664 -0.1583337
000180 4d 50 16 3d 8d 7e ba bc 10 18 19 bf 2f 9e 4c 3e
       0.036697675 -0.022765422 -0.5980234 0.19982217
000190 5d fb 9c bd 39 3c 95 3e 40 a5 4c 3e 37 e8 1b 3e
       -0.07665131 0.2914751 0.19984913 0.15225302
0001a0 5f 92 ac 3e b9 64 71 be 05 77 84 be 3e 2a 6d be
       0.33705422 -0.23573579 -0.25872055 -0.23160645
0001b0 b0 89 b4 3d be 9f 1f 3c 2b 42 12 bd e4 12 91 be
       0.08815324 0.009742675 -0.035707634 -0.28334725
0001c0 b2 4d 60 be a8 ef 9f 3e 28 6d 40 bf 47 4b 7f bd
       -0.21904638 0.3123753 -0.7516656 -0.06232765
0001d0 15 e0 5d be dd 71 6d 3d 14 ce 82 3e d7 60 78 3c
       -0.21667512 0.057969917 0.2554785 0.015159807
0001e0 8b ea a8 bd f9 5e 23 3e 9d a0 08 bd 9a 5d 3c be
       -0.082478605 0.15954198 -0.033356298 -0.18395081
0001f0 5e e1 ea be 0d 45 d2 3e db fa 5c 3d c8 67 e0 3c
       -0.45875067 0.41068307 0.053950172 0.027393237
000200 8f a4 e1 bd 66 c1 78 3e d2 e4 97 be 8f 37 f2 be
       -0.11017715 0.24292526 -0.29666764 -0.47308013
000210 27 9a ae 3e d8 d8 b0 be 26 0e ea 3e 9b 45 66 3d
       0.34101984 -0.3454044 0.4571392 0.056218725
000220 ae 58 1b 3f 02 18 c9 3d e0 47 e9 bc f6 52 2b be
       0.6068219 0.09819032 -0.028476655 -0.16730866
000230 e2 ef 94 be ff d2 57 be cc 84 f3 be 99 0d 4a 3e
       -0.29089266 -0.21076582 -0.47562253 0.1973175
000240 8a da 28 bf 84 0a f0 3e 9b 4f a2 3e 40 b0 8e 3e
       -0.65958464 0.46883023 0.3170136 0.27868843
000250 a2 b9 35 3b 48 34 06 be 1f 60 ad 3e e4 d6 91 be
       0.0027729054 -0.13105881 0.33862397 -0.2848426
000260 08 92 c2 3e df 85 b5 be 75 11 71 bd 0e 1c e0 3d
       0.38002038 -0.35453698 -0.05885454 0.10942851
000270 c3 7a bc bc 13 f1 88 be 7b be c9 be 72 64 cb bd
       -0.023007756 -0.26746425 -0.39403138 -0.09931268
000280 85 64 99 3e 24 4b 5f be 08 fc 86 be fc 8a c2 be
       0.29959503 -0.21806008 -0.2636416 -0.37996662
000290 07 94 f5 3d 9c a3 e0 3d 67 9b 15 be ed bd b5 bd
       0.119911246 0.10968706 -0.14610063 -0.08874116
0002a0 3a 03 0b 3e 71 bb 2d be 2c ce a1 3b 67 65 5b be
       0.1357545 -0.16966034 0.0049379077 -0.214254
0002b0 9c 38 c9 3e 8b 95 08 3e 6f 7e 9b 3e f3 63 c3 bd
       0.39301002 0.13338296 0.303699 -0.09540548
0002c0 9f 89 be bd d3 34 c9 bd 27 36 09 3e 1e 1a 0b 3d
       -0.09303593 -0.098245285 0.13399564 0.033960454
0002d0 b7 a5 8e 3e 45 aa 55 3e a9 48 ae 3d a1 ab 2b be
       0.27860805 0.20865734 0.085099526 -0.1676469
0002e0 43 c6 6c bd a5 16 bb bd e5 06 7c be ba 1b db 3d
       -0.057806265 -0.091351785 -0.24612005 0.10698648
0002f0 46 12 09 be be 8e a5 3e eb 8e 30 be c2 cf 53 bd
       -0.13385877 0.32335466 -0.17242019 -0.051711805
000300 6d 1d dd be 28 66 3e 3e fd a1 90 3e 3e 12 8c be
       -0.43186513 0.18593657 0.28248587 -0.27357668
000310 28 a4 48 be a3 24 fb be f1 1d db bd f9 5a 03 bc
       -0.1959387 -0.4905139 -0.1069907 -0.008017295
000320 11 da 45 bd 1e 5c cf 3e a8 48 83 3e 44 bb 3e 3e
       -0.048303667 0.40499967 0.2564137 0.18626124
000330 ac 3b 96 bd d5 02 16 bd 81 8b 9d bc a9 f7 f5 bd
       -0.073356 -0.036623795 -0.01923156 -0.12010128
000340 2a 6c 9b 3e 1b 60 ff bc 5b 6c 35 be 37 ec 00 be
       0.3035596 -0.031173756 -0.17717116 -0.12590109
000350 2e 0d 7e 3e 51 fd a7 3e 4a 33 08 be f2 79 b9 be
       0.24809715 0.32810453 -0.13300815 -0.3622585
000360 9d b7 17 be 61 ec a8 be 8a 82 10 be 84 0a 98 bd
       -0.14816137 -0.32992843 -0.14112297 -0.07423881
000370 85 6d a7 3d e0 b1 2f be b6 57 ea bd 54 8b 8b be
       0.08175186 -0.17157698 -0.11442511 -0.27254736
000380 4c 1b 88 be 68 bb 70 3e 6a 18 0a 3e 08 04 ab 3c
       -0.26583326 0.2350899 0.13485876 0.020875946
000390 d2 95 57 bd 14 93 7f be aa c0 9e be 68 4a 7c be
       -0.052633114 -0.2495845 -0.31006366 -0.24637759
0003a0 5f ab 61 3d f8 6d 8f be ae fd a4 3e 28 61 8e 3d
       0.055095073 -0.28013587 0.32224792 0.06952125
0003b0 f1 67 85 3e b1 2e af 3e 1a 6e 97 be 55 75 c4 3e
       0.26055863 0.3421531 -0.29576188 0.38370767
0003c0 e8 28 a6 3e ec e4 cd be 4d 93 86 bd 19 6c 45 bd
       0.32453084 -0.40213716 -0.06571064 -0.048198793
0003d0 55 28 a1 be 9c 64 94 be fd d3 82 3e 61 eb fb bd
       -0.31476083 -0.2898301 0.2555236 -0.12300754
0003e0 56 e4 d9 3e 9b 4b 46 bd 3b f1 6b be 2d d4 94 be
       0.4255702 -0.048411947 -0.23041241 -0.29068127
0003f0 8c 40 0d 3e 75 0b 42 be f0 3b 1c 3f f9 69 bf 3e
       0.13794154 -0.18949683 0.6102896 0.37385538

bias f4 [20]
000000 0b 4a a4 3e 6b 14 a2 3f e5 a1 2f 3f be a2 ae 3e
       0.3208774 1.2662481 0.68606406 0.34108537
000010 7a 46 76 3f a0 03 c5 bf ff b9 51 3f 09 e0 f3 3e
       0.9620129 -1.5391731 0.8192443 0.47631863
000020 a7 9b f1 3e ad a8 da be 50 ba 56 bf 4f 53 a3 3f
       0.47189066 -0.42706814 -0.8387804 1.2759799
000030 97 34 c0 3f 0b 13 46 be da c0 a3 be fe d2 1f bf
       1.5016049 -0.19343202 -0.31983072 -0.62431324
000040 7c ca 75 bf 28 87 07 3f 83 7b dd bf bc b2 f0 3f
       -0.9601209 0.5294061 -1.7303318 1.8804545

weight f4 [20, 20]
000000 d9 0b 87 3d 73 29 65 3d 23 08 8a 3e 35 62 99 bd
       0.06594057 0.055947732 0.26959333 -0.07489435
000010 1e 18 6c 3e 6b 91 83 ba 81 d3 a3 3d c9 cb 1a 3d
       0.23056075 -0.0010037845 0.079993255 0.037792
000020 4a 4d 08 3f 39 7c 1a 3e 8a c2 c3 bb 53 09 29 3e
       0.53242934 0.1508645 -0.0059741186 0.16507463
000030 1e 17 5c 3e 7e 0f 6d be ac 3c 59 3e 9b 6a c4 be
       0.21493194 -0.23150441 0.2121455 -0.38362584
000040 1b d0 a0 3e 4f 93 ae 3d 08 d4 93 be cd f1 af bd
       0.31408772 0.08524191 -0.28872705 -0.08591042
000050 0d ef 35 3d a3 8f 8c be 1b 44 1f 3d ed 2a 49 be
       0.04441743 -0.27453336 0.03888331 -0.19645281
000060 1f 27 52 be 2a f7 df 3c b1 0a 19 be e6 e6 bd be
       -0.20522736 0.027339537 -0.14945485 -0.37090224
000070 58 77 83 3e 75 39 f0 bd c0 38 15 3d 5b e2 92 be
       0.2567699 -0.11729709 0.036431074 -0.2868832
000080 6b 13 7e be be bb 63 3d 13 b9 a5 be 22 b3 43 be
       -0.24812095 0.055598967 -0.32367763 -0.19111302
000090 42 1e 90 bd ab 7c 62 3e 67 09 83 3e 26 bf 13 be
       -0.07037021 0.2211787 0.2559311 -0.14428386
0000a0 06 4f 81 3e 86 22 14 3e b9 5b 91 be 60 22 88 3d
       0.25255603 0.14466295 -0.2839029 0.066471815
0000b0 5f a0 d4 be c6 39 37 be 57 76 93 bd 1a 5f 1c 3d
       -0.41528603 -0.17893133 -0.07200306 0.038176633
0000c0 72 5c 13 bd b2 30 ad 3d 95 45 0a 3d 3e 7f db bd
       -0.035976835 0.084565535 0.033757765 -0.10717629
0000d0 81 4f 99 3d 9d fa df 3e cd 4a 11 bb 07 93 a4 3d
       0.07485867 0.4374589 -0.002216983 0.08035856
0000e0 46 d8 04 3b f9 43 92 be f2 bf 89 be da 73 9f bd
       0.002027051 -0.28567484 -0.26904255 -0.07785769
0000f0 07 12 3b be 48 c2 9c 3e e1 d6 ba 3e 6a d9 9e 3d
       -0.18268596 0.30616975 0.36492065 0.07756312
000100 3b 3d 34 3e 0b 61 9a be 17 c9 c3 3d d0 15 58 3e
       0.17601483 -0.30152163 0.09559839 0.21102071
000110 ec 70 0b 3d ad 24 1f be 19 a6 01 be f5 03 2f bd
       0.034043238 -0.15541334 -0.12661017 -0.042728383
000120 d9 bd cb 3e 9e 35 5c 3e 3d 91 34 3e 8e c6 88 3d
       0.3979328 0.21504828 0.17633529 0.06678496
000130 d9 5a e2 bd fd b2 f3 3e 96 be cf bd 87 be a6 3e
       -0.11052484 0.47597495 -0.10143773 0.32567236
000140 d2 89 bf be 06 25 1e 3d 04 54 27 3f 34 70 76 3e
       -0.37409836 0.038609527 0.6536257 0.2406624
000150 34 9e e8 3d a7 cb 41 be a9 df 21 3e 81 76 1d bd
       0.113583 -0.18925343 0.15807976 -0.038443092
000160 ff e6 82 3e 4a 8b 27 be 9e 49 55 be 38 e7 cc 3d
       0.2556686 -0.16361728 -0.20828864 0.10005039
000170 33 64 3b be 4e 0a 1b be f9 ae 9d be db da bc bd
       -0.18299942 -0.1514065 -0.30797556 -0.09221431
000180 d4 63 00 be 7f 86 a3 3e ee 12 6b be e4 fe 93 3c
       -0.12538081 0.3193855 -0.2295644 0.018065877
000190 46 17 37 be 1c ad f4 3d 3d a7 15 3d f2 20 40 3b
       -0.17879972 0.119470805 0.036536444 0.0029316512
0001a0 1d 43 8a 3e 59 b2 b9 3c 48 37 bc be 88 5d 94 bd
       0.27004328 0.02266805 -0.36760926 -0.07244402
0001b0 02 1a fb 3a be 58 46 be a7 31 a7 be 29 b2 9d be
       0.0019157531 -0.1936979 -0.3265507 -0.30799988
0001c0 b3 9f 06 be 07 2c 4f 3e 36 0b a4 bd f9 f1 07 3f
       -0.13146858 0.20231639 -0.08009951 0.53103596
0001d0 3c 55 df bd ab 50 10 be e7 4d 8b be 9c 9e 35 be
       -0.10904929 -0.14093272 -0.27207872 -0.17736286
0001e0 a7 cc 9d 3e 9b cf dd bd fe f0 3d be 23 b4 f1 bd
       0.308202 -0.10830613 -0.18548962 -0.118019365
0001f0 6e 37 f0 be 19 f1 8c 3e 32 bf 91 be 2e f1 1c 3d
       -0.4691729 0.27527693 -0.28466183 0.038315944
000200 52 16 7f bd c8 4d 5d 3e 87 b9 72 be 5c b6 05 be
       -0.062277146 0.21611702 -0.23703586 -0.13057846
000210 4a 38 ba bd 62 63 fc 3d af 19 22 3e 1a 21 53 3e
       -0.090927675 0.12323643 0.1583011 0.20618096
000220 6e b0 2e 3e 0b 53 dd bc 2b cd 15 3e 55 c6 bc bc
       0.1705949 -0.027017137 0.14629047 -0.02304379
000230 d1 ff e3 be 0b 51 4a bd 7d 39 e4 3e 74 b9 84 39
       -0.4453111 -0.049393695 0.4457511 0.00025315175
000240 b7 a0 27 3e 04 58 5d be d5 8e 57 3e 0b f2 0a 3e
       0.16369902 -0.21615607 0.2105058 0.13568895
000250 3f ac 0c 3e 8a 6d 7f 3e 0b 0c 31 3d 47 17 f6 bd
       0.13737582 0.2494413 0.043224376 -0.120161586
000260 a6 94 82 3e 10 b6 b4 bd 72 a3 b4 bd e5 49 a4 be
       0.25504035 -0.08823788 -0.08820237 -0.32087627
000270 38 ca 89 be a4 d7 77 3e 97 19 a0 bd 70 49 01 3e
       -0.26912093 0.24203354 -0.07817381 0.1262567
000280 7c 7e 36 be dd 70 a1 be f2 78 60 bc a0 4d 04 3e
       -0.17821687 -0.3153142 -0.013700711 0.12920237
000290 b3 8e 74 be 3a fd 64 be 8a 4f 86 bd 89 69 c2 be
       -0.2388256 -0.22362223 -0.065581396 -0.37971142
0002a0 71 59 85 be dd bc 92 3e c4 51 29 3e b5 a8 97 be
       -0.260448 0.28659716 0.16535097 -0.296209
0002b0 e2 d7 79 be 9f 3a 86 3e b1 3b 0a 3d 19 c4 39 3a
       -0.24398759 0.262166 0.033748332 0.0007086411
0002c0 aa 15 5a 3d 99 50 a9 be 86 53 8d 3d 28 9a 6d 3d
       0.053243317 -0.33069304 0.069006965 0.058008343
0002d0 3d cd 98 be 84 57 94 3d b4 0c e7 3e 62 c9 59 be
       -0.29844084 0.07243255 0.4512688 -0.21268228
0002e0 53 fe e5 bd da ae c5 bd eb 34 c2 bd ad 55 c3 3e
       -0.11230149 -0.09652491 -0.094827496 0.38151303
0002f0 19 90 b5 3d f7 e5 91 3d d0 69 30 3e 39 02 f1 bd
       0.08865375 0.071239404 0.17227864 -0.11768002
000300 44 3e cc be d2 a0 c7 3e ca d0 91 bd b4 c3 3f be
       -0.39891255 0.38989884 -0.071199015 -0.18726999
000310 30 c2 d6 bd 72 79 f3 3e 9e 51 15 bd e6 42 b8 3c
       -0.10486257 0.47553593 -0.03645479 0.022492837
000320 b0 3a 77 3d 00 cd e0 bd 5c 52 97 3e 04 f5 c6 3e
       0.060358703 -0.10976601 0.29555023 0.38858807
000330 2a c0 e8 bd 1c 58 8a 3e 0f c5 ad bd 7b 7a 82 be
       -0.113647774 0.27020347 -0.084848516 -0.2548407
000340 14 4c bf 3d 95 d7 08 bf 5d af 12 3e dc 68 03 3e
       0.093406826 -0.5345395 0.14324708 0.1283297
000350 e5 ba 9a be b6 11 0c be 9d 49 d9 be 23 83 b2 3d
       -0.30220714 -0.13678631 -0.42438975 0.087164186
000360 12 1f 4a 3e 7a 4b 09 be a3 63 8a 3e ce 8e 10 be
       0.19738415 -0.13407698 0.27029142 -0.14116976
000370 0c b5 e3 be 3a 61 0a bd ee cf a4 3d 7d 1f 4d 3e
       -0.44474065 -0.03378413 0.08047472 0.20031543
000380 76 e3 af be be c9 a5 3c 87 c7 b0 bd e4 f7 0c 3f
       -0.34353226 0.0202378 -0.08631807 0.5506575
000390 3c c5 e3 bd f6 24 3b be 8c 5c 58 bc 34 54 0d 3e
       -0.11121604 -0.18275818 -0.013205659 0.13801652
0003a0 59 07 8d 3e 4e 76 d2 3d b2 04 6a 3d 65 e2 29 be
       0.27544668 0.10276471 0.057133384 -0.16590269
0003b0 22 5c c1 3d 4b 52 eb bc 5f 55 0a be eb ae 5e bb
       0.09441401 -0.028725764 -0.13509129 -0.003397877
0003c0 2d e0 81 be 8e 24 be bd 60 77 8e bd b0 2f 0f be
       -0.25366345 -0.09284316 -0.06956363 -0.13983035
0003d0 2f e2 7a be 9f 67 ac 3e 59 25 41 be 98 22 4b be
       -0.24500345 0.33672807 -0.18861903 -0.19837415
0003e0 f2 ba 04 3d 5f 29 a1 bc 50 f2 c5 3d de 05 8c bd
       0.032404847 -0.019673048 0.09665358 -0.068370566
0003f0 32 12 81 be c1 63 8d 3e 7e 6a bd be 77 83 09 3e
       -0.25209194 0.2761517 -0.3699531 0.13429056

bias f4 [20]
000000 b1 06 96 3f 87 da ff be ee eb d8 bd 35 ec 6e 3f
       1.1720792 -0.4997141 -0.10591875 0.93329173
000010 87 9a 86 3f 41 bd 3d bf a8 39 49 bf e0 bd b0 3f
       1.0515908 -0.74116904 -0.786036 1.3807945
000020 14 5a da 3d de 08 9a 3f 80 f5 19 bf 2e 65 ee 3e
       0.10661712 1.2033956 -0.6014023 0.4656157
000030 14 0c 5f bd b0 1e 57 3f db 78 3b be 5f e4 4d bf
       -0.054454878 0.840312 -0.18307821 -0.8042659
000040 ac 25 9e 3f b8 7d 74 3f a5 f7 9a bf 38 b2 5c bf
       1.2355247 0.9550433 -1.2106825 -0.8620944

weight f4 [20, 20]
000000 de 99 85 3e 35 e4 77 3e f8 1d 7a be cf a5 83 3e
       0.26093954 0.24208148 -0.24425495 0.2571244
000010 aa 3c 2d bd f5 9e 32 3e 33 7a 09 3e fd 6f 0b 3e
       -0.042294182 0.1744345 0.13425522 0.13616939
000020 bf 72 a5 bc 38 ab 40 3e 0c aa 91 3d 3e 73 2f 3e
       -0.020196317 0.18815315 0.07112512 0.17133805
000030 29 eb 44 3e 79 d4 e7 3c 3b d1 68 be d2 ce a6 3d
       0.19230331 0.028299557 -0.22736065 0.081449166
000040 44 9b 79 3e 35 0f 36 3e 0f be 90 3d 54 41 c7 be
       0.24375635 0.17779239 0.07067501 -0.3891703
000050 ca f9 9a 3e 3d 15 a6 3e eb f1 ce be d7 90 aa 3d
       0.302687 0.3243808 -0.40418944 0.08328407
000060 61 9a 01 3e 35 2b 5e bd 06 68 a6 bd 8b 25 da 3e
       0.12656547 -0.054240424 -0.0812531 0.42606768
000070 c9 92 78 3d 7f 97 82 3e 56 14 a9 be f0 e8 c8 bd
       0.06068686 0.25506207 -0.33023328 -0.09810054
000080 34 f1 b8 3b 92 74 17 3e 95 e7 8c be 88 75 f1 be
       0.005643988 0.14790562 -0.27520433 -0.47159982
000090 1b 41 04 3f 30 ea 61 bd c4 ab f7 be c1 43 3a be
       0.51661843 -0.05515498 -0.48373234 -0.18189909
0000a0 d5 a4 e7 be 3d 11 29 be 62 80 c7 3d 55 dd a1 be
       -0.45242944 -0.16510482 0.09741284 -0.31614175
0000b0 f1 2a d0 be 8d 55 08 be c5 d0 9a 3d 39 d2 05 bf
       -0.40657762 -0.13313885 0.07559351 -0.522739
0000c0 42 00 15 be 99 b6 74 bd 4a 21 68 bd 7d 2c bf be
       -0.1455088 -0.05974445 -0.056672372 -0.3733863
0000d0 3b 71 9c bd 50 fb 20 3d cb 2b 09 3f 32 74 b7 3e
       -0.076387845 0.03930217 0.5358245 0.35830837
0000e0 ef ed 99 bd 5e 65 eb bd 86 13 51 3e f4 8e 8e 3e
       -0.07516085 -0.11493944 0.20417604 0.2784344
0000f0 a4 90 07 be 40 df 6d bd 53 aa 88 be db 57 3e bd
       -0.1323877 -0.058074236 -0.26692447 -0.046470504
000100 f7 f5 b5 3d 9e ca 31 be 58 68 d4 be 38 7f 5d bd
       0.08884805 -0.17362449 -0.41485858 -0.054076403
000110 97 92 83 be 68 30 d9 3e 06 06 57 bd 12 e0 79 3e
       -0.25697777 0.42419744 -0.05249598 0.24401882
000120 d4 83 df bd 1f 17 c5 3e bb 01 7a 3e 80 22 ad 3d
       -0.10913816 0.38494202 0.24414723 0.08453846
000130 69 18 6d be a0 23 87 3e 25 3d 0f be d2 ed 95 be
       -0.23153843 0.26394367 -0.13988169 -0.29283005
000140 7d 32 38 be b1 af 69 be 90 67 4e 3b f5 29 32 be
       -0.1798801 -0.22820927 0.0031494834 -0.17398818
000150 48 4e 07 bf 8d 1e 2f be 54 56 4b be dd 7b ac be
       -0.5285382 -0.17101498 -0.1985715 -0.3368825
000160 ee 6d ea 3d c0 78 c2 be a0 63 b8 3e 7d 4b 8e bd
       0.11446749 -0.3798275 0.36013508 -0.06947992
000170 31 c5 66 be d7 07 8e bc e6 9e 02 3d 60 16 fa bd
       -0.2253616 -0.017337723 0.03188982 -0.12211299
000180 a6 bd ce bd 01 ce 3a bc 29 39 c5 3b 37 4e 3a be
       -0.10094766 -0.011401654 0.006018777 -0.18193899
000190 6c cd 81 be dd 8f 11 3d 26 65 f3 be 24 d2 6e 3c
       -0.25352037 0.03553759 -0.47538108 0.014576469
0001a0 e3 7d 2d bf ac b4 a2 bd f8 bd ef 3d e4 f2 af be
       -0.6777021 -0.07944617 0.117061555 -0.34364998
0001b0 6b 37 aa 3e b8 07 68 be 45 36 88 3d aa ab 76 3e
       0.33245406 -0.22659194 0.06650976 0.24088922
0001c0 74 5f f8 bd bb 7b ca be a5 10 77 3d 1c 00 cb 3e
       -0.12127581 -0.39547524 0.060318608 0.3964852
0001d0 8f 6d 32 3e ba 79 48 be 2a d0 37 3d 52 99 23 3f
       0.17424606 -0.19577685 0.044876255 0.63905823
0001e0 b6 f4 4e be d4 f3 b4 bd f7 27 12 be 81 bc 3d 3e
       -0.20210537 -0.08835569 -0.14273058 0.1852894
0001f0 ba cb bf 3d a9 78 3d be 74 34 b9 3e f5 e1 85 be
       0.0936503 -0.1850306 0.3617283 -0.26148954
000200 ad 98 6f 3d 98 c4 71 bd 29 fb 4e 3e c4 59 aa 3d
       0.058495212 -0.059025377 0.20212997 0.08317903
000210 cf 9b 40 be 40 76 44 bc c4 84 ab 3e 6b c0 0c bf
       -0.18809436 -0.011991084 0.3349973 -0.54981107
000220 1b 02 bf bd a7 f9 6b be 9b ea e0 bd 55 05 de be
       -0.093265735 -0.23044454 -0.109822474 -0.43363443
000230 59 42 62 3e 3c e9 46 3d 32 7d 24 be cd bc 54 3e
       0.22095622 0.048562273 -0.16063383 0.20775147
000240 bd 56 64 3e ac c4 89 be 77 27 ee 3c c5 2c b9 bd
       0.22298713 -0.2690786 0.029071553 -0.09041742
000250 8a fc 18 3d 2d be 59 3c c2 99 54 3d 6d d3 9c bd
       0.037350215 0.01328997 0.051904447 -0.07657514
000260 b9 8f b9 3b 74 13 05 3d 2c 22 c8 3c d3 0f 51 be
       0.005662885 0.032489255 0.024430357 -0.20416193
000270 d3 f6 85 bd c7 59 9b 3e 77 d3 03 bf dc 99 04 be
       -0.065412186 0.30341932 -0.51494545 -0.12949318
000280 a9 dd f7 bd fc ef 54 be 13 0e 72 3d 55 30 ad 3e
       -0.12102825 -0.20794672 0.059095453 0.33825937
000290 13 8a 3c 3e 8a 7b e5 bc e7 14 3a 3e 2c f3 df 3e
       0.18412046 -0.02801301 0.18172036 0.43740213
0002a0 39 de de 3e 2c 63 1f 3e 6d 18 78 be 18 2e 03 be
       0.43528917 0.15565175 -0.24228068 -0.12810552
0002b0 8c 37 8d bd f4 f1 0b 3d 92 42 06 be 72 1a 1a 3d
       -0.0689536 0.03416629 -0.13111332 0.037622876
0002c0 56 f3 ad 3e 8e a6 91 be 66 47 d0 bd 16 4d d7 be
       0.33974713 -0.28447384 -0.10169868 -0.42051
0002d0 e1 45 88 3e be c8 ca be 55 d8 61 be 9b b0 4e 3f
       0.26615813 -0.3960628 -0.2205518 0.8073823
0002e0 05 b5 02 3f 5a 6b e6 be a1 55 cb be dd a3 75 3e
       0.51057464 -0.45003778 -0.39713767 0.2398829
0002f0 a6 f7 2d be 75 bc 7a 3e c0 63 c7 be 8a 46 e0 3d
       -0.16989002 0.24485953 -0.3894329 0.10950954
000300 02 13 34 bf 47 87 e6 3e a4 91 c4 be 84 eb 79 bf
       -0.70341504 0.45025083 -0.38392365 -0.97624993
000310 29 bc fd 3e 76 57 34 3e 73 7f 39 bf 30 1f fb be
       0.49557617 0.17611489 -0.724601 -0.49047232
000320 e8 b2 1f 3e 5b e3 a5 3e eb ec 9e 3e ee 4e 41 be
       0.15595591 0.3240002 0.3104013 -0.18877766
000330 3c e6 51 be cb 4a 1b 3e f2 11 bb 3e ee cb 6a be
       -0.20497984 0.1516525 0.3653713 -0.22929356
000340 6e 03 d0 3d aa b5 14 3e 55 58 2d 3e 46 67 9b be
       0.10156904 0.14522424 0.16928227 -0.3035223
000350 5b 51 e9 bd a5 51 0a be 08 38 0e 3d 66 a3 ec 3e
       -0.113924704 -0.13507707 0.034721404 0.46218413
000360 a5 0e 67 be bb c9 af be d4 06 6a 3e 04 ce 3e 3c
       -0.2256418 -0.34333596 0.22854167 0.011645798
000370 b2 7d 04 3e 1e b4 9d 3d 9e 59 04 3f ed 5c 4f 3c
       0.12938574 0.0770037 0.51699245 0.012656433
000380 ad 0b a1 be b7 3b 24 3e 33 9b e2 3b 05 c3 c5 be
       -0.3145422 0.16038404 0.006915474 -0.3862535
000390 05 53 40 3e f0 cc a6 be e8 ab b5 3e 7a b5 11 3e
       0.1878167 -0.3257823 0.35482717 0.14229384
0003a0 90 c1 9d 3e a0 6c 21 bc 2b a7 51 be 25 13 9c 3e
       0.3081174 -0.009852558 -0.20473926 0.30483356
0003b0 36 76 9e 3d 8c 1d 79 be e4 cd 05 3f ff c4 05 be
       0.07737391 -0.24327677 0.5226729 -0.1306343
0003c0 00 e1 1d 3e ca af 2a be 97 fc 97 3e b1 7b 23 be
       0.15417862 -0.1666862 0.29684898 -0.15965153
0003d0 ed 1a ed bd de 44 95 3e 15 35 e3 be 0f a9 b7 be
       -0.11577401 0.29154104 -0.44376436 -0.3587117
0003e0 af 83 57 3e 41 b0 ae 3e 0a 93 a8 bd 58 c7 4d be
       0.21046327 0.34118846 -0.082311705 -0.20095575
0003f0 2d 55 1c 3e 7c ec ab 3d 33 fe 86 3e 1f 83 8b 3e
       0.15266867 0.08394715 0.26365814 0.27248475

bias f4 [20]
000000 f1 be bc 3f e3 36 ad 3f 66 2f ba bf 6e 27 f1 be
       1.4745771 1.3532375 -1.4545715 -0.47100395
000010 0e 6a 08 bf 0e 11 6a 3d 71 1f 8e 3e cd d7 d2 3e
       -0.53286827 0.05714517 0.27758363 0.41180268
000020 77 8d 31 3f 9e ee 80 3c 32 21 33 be f9 1d a4 bf
       0.69356483 0.015738782 -0.17493132 -1.2821647
000030 5b 15 0c bf 4d 38 32 bf aa 29 cd bf 66 6d 08 bf
       -0.54720086 -0.6961716 -1.602834 -0.5329193
000040 aa a4 7f bf cd 8e 23 be a8 33 85 3f dd 04 65 3f
       -0.9986063 -0.15972443 1.0406389 0.89460546

weight f4 [20, 20]
000000 96 ce 11 3e 9a 05 c3 3e ec 00 2f bf 45 9e af be
       0.14238963 0.3809021 -0.6836078 -0.34300438
000010 8b e9 91 be 21 f7 b4 bc 67 87 e3 3e 98 3a 66 bd
       -0.28498492 -0.022090496 0.4443924 -0.056208223
000020 5c cd a6 3e 7f f1 a8 3e 3f 99 87 3e a6 23 a3 be
       0.32578552 0.32996747 0.26484105 -0.31863135
000030 d7 03 cf be 9d 8d 02 3e 3b 30 c0 be 5d c9 88 3e
       -0.40432617 0.12749334 -0.37536797 0.26716128
000040 d7 45 14 bf f9 78 09 3f 50 b6 8d 3e e6 57 e4 3d
       -0.5791907 0.53700215 0.27678156 0.11149578
000050 c5 ca 80 3e 3e 66 0e 3f f9 e0 80 3d 2d 58 81 3e
       0.251547 0.5562476 0.0629291 0.25262585
000060 70 94 a4 be 3c ed 6c bd 9e c6 ba be af 79 f8 bd
       -0.321445 -0.05784343 -0.36479658 -0.12132584
000070 59 0f 9c 3e 66 30 78 3e 54 7f 37 3e 93 49 87 be
       0.3048046 0.24237213 0.17919666 -0.2642332
000080 19 b5 77 be 26 90 26 be fc a8 06 be fc 9d ae 3d
       -0.24190177 -0.16265926 -0.131504 0.08526227
000090 fa c0 92 3e 5a a9 24 3e f3 d0 26 3e ef e6 cb 3d
       0.28662854 0.16080227 0.16290645 0.099561565
0000a0 e3 81 b7 bc 6d 70 b6 3d df 9f 5a 3e a3 ec f3 3d
       -0.022400802 0.08908162 0.21350048 0.11910369
0000b0 c4 ec 40 be 04 59 b1 be 3b ea 8c 3d 44 9f 04 3f
       -0.18840319 -0.34638226 0.068806134 0.5180552
0000c0 62 f3 d2 3e 1a 3b ac 3e 97 ab 8f bd 2d a9 5c be
       0.4120131 0.3363884 -0.0701515 -0.2154891
0000d0 c3 60 fb be 06 7d 34 be a5 76 e1 bd c7 3c d4 3d
       -0.4909726 -0.17625818 -0.11008958 0.10363155
0000e0 63 43 5b be 7b 8d e1 3e ed c9 cd bd de 2c cd 3e
       -0.21412425 0.44053254 -0.1004828 0.40073293
0000f0 00 c5 43 be af 36 4d be e2 66 30 3f a4 df ed bd
       -0.19118118 -0.20040391 0.68906987 -0.11614922
000100 a4 64 1e 3e 40 2b 29 be af ea 11 bf 65 59 eb bd
       0.15468079 -0.16520405 -0.56998724 -0.1149166
000110 0a be 27 3d 2c cf 61 3e a2 00 ca be 5a 46 2b 3f
       0.04095272 0.22051686 -0.39453608 0.6690422
000120 42 b5 ab 3e 75 78 ec bc 0c 96 f3 3e c9 3a 1f 3e
       0.33536726 -0.028866032 0.47575414 0.15549769
000130 8a 03 16 3f a4 e2 cb be 96 88 0a bf 2d ae 2c bf
       0.5859915 -0.3982135 -0.54114664 -0.6745327
000140 94 23 4a be 56 96 0f bf dc 64 03 3f 5a bf 1a 3f
       -0.19740134 -0.5608877 0.51325774 0.6044823
000150 83 b3 a6 3f bd b9 e4 3e 5a c0 4f bd 70 d8 fa be
       1.3023533 0.44672957 -0.05072055 -0.48993254
000160 8a 7f 1e bf f2 07 98 be 73 7b aa bd 81 5d e2 3e
       -0.6191336 -0.29693562 -0.08324327 0.44211963
000170 d1 d4 43 3e b2 da d0 3e 4d 41 cf 3e 5c c3 81 3d
       0.19124152 0.4079185 0.40479508 0.0633609
000180 a0 24 8c 3e fd 65 97 be a5 b4 56 be cf 31 4e be
       0.27371693 -0.29569998 -0.20967348 -0.20136188
000190 90 7c 47 be 0f 2b 15 bf 30 89 fc 3d f9 75 d2 3d
       -0.1948111 -0.5826883 0.12330854 0.10276408
0001a0 18 aa f1 3b 42 0b 15 3f 00 fb 8b 3d f8 2a 16 3e
       0.007375013 0.58220303 0.06834984 0.14664829
0001b0 92 c0 36 bf 82 e0 1a bf 72 2d d6 3e 84 e1 01 3f
       -0.7138759 -0.6049882 0.41831547 0.50734735
0001c0 fc 7a a3 bd ac 4d 1a 3f e0 e3 82 3e ae 90 0c 3f
       -0.07982442 0.6027477 0.2556448 0.54908264
0001d0 3e d7 94 3e 26 5a e2 be d7 86 ca be 2e 9a f0 bd
       0.29070467 -0.44209403 -0.39556 -0.117481574
0001e0 71 7a 0a bf 8f 09 99 bd 45 d6 13 bd 1e b9 17 be
       -0.5409308 -0.07472526 -0.036093015 -0.1481671
0001f0 12 1c 37 3e 17 62 95 3d c2 e3 0c bf cd e7 c2 be
       0.17881802 0.072941 -0.5503503 -0.38067475
000200 fd 51 a7 be f3 13 82 bd 6e f0 3b 3f 27 b2 c7 bc
       -0.3267974 -0.06351461 0.7341374 -0.024376942
000210 fe e7 f3 3d 23 7d 9f bf 19 98 02 3d 04 ad 9f 3c
       0.119094834 -1.2460064 0.031883333 0.01949168
000220 b4 96 65 bd 08 c7 5d be f2 cb 04 3e 3b e7 93 be
       -0.056051925 -0.21657956 0.12968424 -0.28887352
000230 9a 65 c5 3e 1c db 99 be 33 76 54 bb f2 67 b8 3e
       0.38554078 -0.3004998 -0.0032419085 0.36016804
000240 8f fd 89 be db e9 82 3d 18 e2 a1 bc fc 4a 3b be
       -0.26951262 0.06392261 -0.01976113 -0.18290323
000250 97 5a 3e be 92 5c 1c 3d d4 ba af bd f4 86 20 be
       -0.18589245 0.03817422 -0.085805565 -0.1567648
000260 04 59 3e be 5b 8c 3f 3d d4 a4 45 3d ff 80 6d 3e
       -0.18588644 0.046764713 0.048252895 0.2319374
000270 ec 51 b5 3d c1 19 92 3d c2 4c 7e bd 24 01 20 be
       0.08853516 0.071338184 -0.06208492 -0.15625435
000280 93 ce 23 be d9 f6 ac be 88 4d bb 3c f6 c4 b1 bc
       -0.1599677 -0.3378208 0.022864118 -0.021700364
000290 58 48 05 3e 1a 2d 51 be 47 38 f0 bd da b9 8b be
       0.13015878 -0.20427361 -0.11729484 -0.2729023
0002a0 a1 05 63 be 99 40 13 3f 0d 78 ee 3e d9 f7 0a 3e
       -0.22170116 0.57520443 0.46575966 0.13571109
0002b0 be 0d 32 3e 5c d9 10 bf e3 b1 51 3d 2c 0f 84 be
       0.17388055 -0.56581664 0.051195037 -0.25792825
0002c0 32 14 89 3c 9f 16 2e bc 99 ed 82 be 59 3f f7 be
       0.016733263 -0.0106255105 -0.25571898 -0.48290518
0002d0 d4 72 b9 3d 5b 98 0b 3e 7c 6b 25 be d4 4c 6e be
       0.09055105 0.13632338 -0.16154283 -0.23271495
0002e0 ca 00 9e 3e 0c 5b ca 3e b8 90 a2 bc 42 72 99 3d
       0.30859977 0.39522588 -0.019844398 0.07492496
0002f0 2c 60 ea be 50 33 fe be bf ee 03 be 25 40 05 3e
       -0.45776498 -0.49648523 -0.12884043 0.1301275
000300 36 58 a6 3e 60 cd 9c 3e 0e 2a af 3e 13 dd ec 3e
       0.32489175 0.3062544 0.34211773 0.46262416
000310 6a 85 89 3e 26 3b 88 bd ae 79 75 bb 43 0f 97 be
       0.268596 -0.06651907 -0.003745656 -0.2950383
000320 5b c5 ee 3d b7 d4 96 be c7 42 61 be 9c b2 49 bf
       0.11658736 -0.29459164 -0.2199813 -0.7878816
000330 b2 12 60 3e 43 99 ad be c8 f3 17 bf 9a f8 7f 3d
       0.21882132 -0.33905992 -0.59356356 0.062492944
000340 f9 f4 2d bc 7c 1d 36 3e be 85 83 3f 68 72 ce be
       -0.010617488 0.17784685 1.027519 -0.4032166
000350 46 62 e1 3d c1 37 e7 be 80 74 22 3e 1c 42 fd 3d
       0.11005072 -0.45159724 0.15864754 0.12366125
000360 98 dd 04 3d 25 e8 6b be ed 9b dd 3e 15 05 91 3d
       0.03243789 -0.23037775 0.43283024 0.070810474
000370 94 30 c3 3b e3 0a 7f be be 32 9b 3e b1 92 b3 be
       0.0059567187 -0.24906497 0.3031215 -0.35072854
000380 81 55 96 3e 26 ef 04 3e 9d 04 30 be 21 c7 a9 be
       0.2936211 0.12981853 -0.1718926 -0.33159736
000390 fb 46 26 be ab cf 0b be 1d 06 1a 3f b8 6f cb 3c
       -0.16238014 -0.13653438 0.6016558 0.024833545
0003a0 95 de cb 3d c9 91 77 3d e0 7e 31 bd 94 0b 0d bc
       0.099545635 0.060441766 -0.043333888 -0.0086087175
0003b0 d3 e7 04 bd 70 14 a2 bd 4e 34 58 3e b6 15 29 bd
       -0.032447647 -0.079140544 0.21113703 -0.04128047
0003c0 06 70 27 bf 99 11 6b be 72 38 47 3f dc 6c b8 3e
       -0.6540531 -0.22955932 0.77820504 0.36020553
0003d0 be d1 c9 3e c4 ce a7 3e 00 ef 96 bd 12 34 8c bd
       0.39417833 0.32774937 -0.073698044 -0.06845869
0003e0 5e 95 aa be 18 15 01 bf aa 77 73 be 89 c6 de 3e
       -0.33317083 -0.5042281 -0.23776117 0.43510845
0003f0 8a a8 0d 3f 0d c3 c6 be 0d 19 04 3f 79 d4 50 3e
       0.55335295 -0.38820687 0.51600724 0.20393552

bias f4 [20]
000000 68 ed f8 3f ed 26 06 be 13 13 60 bf 14 a5 bf bf
       1.9447451 -0.13100787 -0.87529105 -1.4972253
000010 75 30 64 3e f7 df 3e 3e 7a a6 02 3f ef 66 0c 3f
       0.2228411 0.18640123 0.51035273 0.54844564
000020 c9 44 53 3d 27 8d 49 be fa 98 04 3f 7e f6 6c 3f
       0.05157927 -0.19682752 0.51795924 0.9256362
000030 9a 65 a3 bf 32 d9 3e 3f 45 5a b4 bf d2 9d 0d 40
       -1.2765381 0.74550164 -1.4090048 2.2127576
000040 47 c5 d8 3f 92 88 4e 3e ec 1f 9a be 4e 3a 78 3f
       1.6935204 0.20169285 -0.3010248 0.96963966
