Iter_03/Models/Noise_5/simulation_10_20/ff_3200.pt (torch, 111197 bytes, 23 tensors)

weight f4 [20, 2]
0.08562879 0.24172512 -0.486466 -0.19131717 0.008696783 0.112096384 0.6857536 0.8246667
-0.031420678 -0.36867177 0.4159632 -0.08893232 -0.0853942 0.10337 0.5033251 0.072259516
-0.55210793 -0.27696857 -0.21732418 0.061788466 0.24676955 0.33358184 -0.22574331 -0.19219267
-0.7236742 -0.8729926 0.0784008 0.3558474 -0.29519933 -0.6735789 0.73859775 0.34962332
-0.50791067 -1.6299683 -0.6900043 -0.3023175 -0.352178 -0.40597418 -0.25719592 -0.27151635
00000000: 265e af3d ca86 773e 1212 f9be a6e8 43be
00000010: f47c 0e3c ca92 e53d 8c8d 2f3f 5b1d 533f
00000020: f8b2 00bd 8cc2 bcbe 21f9 d43e 2622 b6bd
00000030: 28e3 aebd a7b3 d33d ead9 003f ccfc 933d
00000040: f256 0dbf d3ce 8dbe 3b8a 5ebe e715 7d3d
00000050: 28b1 7c3e 3dcb aa3e 4129 67be 28ce 44be
00000060: b642 39bf 717c 5fbf 9990 a03d a131 b63e
00000070: 5e24 97be ab6f 2cbf be14 3d3f d401 b33e
00000080: 6f06 02bf cda2 d0bf 1fa4 30bf 5cc9 9abe
00000090: ad50 b4be d9db cfbe 2faf 83be 3104 8bbe

bias f4 [20]
0.29580045 -0.6046772 0.6556203 0.44845363 -0.112387285 0.24960889 0.12951133 0.8124649
-1.0682827 0.049527198 0.4446949 -0.59756297 -1.3257705 0.7441242 -0.67576647 0.82361346
-1.7578983 -0.00078470795 -0.7068867 -0.5299884
00000000: 2873 973e 20cc 1abf bbd6 273f b79b e53e
00000010: 4e2b e6bd 7999 7f3e 9e9e 043e b3fd 4f3f
00000020: 7dbd 88bf 08dd 4a3d 0daf e33e e3f9 18bf
00000030: d9b2 a9bf ec7e 3e3f 08ff 2cbf 55d8 523f
00000040: d002 e1bf dcb4 4dba 87f6 34bf 52ad 07bf

weight f4 [20, 20]
0.20899066 0.12189064 0.049758777 -0.37599432 0.21735938 0.017954232 0.23705377 0.21640085
0.18009299 0.4166494 0.28374162 -0.011381042 0.3221833 0.25131997 0.62496024 -0.279731
-0.020308563 0.12831572 -0.123185985 0.07975526 0.25945777 0.13620034 0.058410913 -0.1637136
-0.08392746 -0.4360719 -0.40556636 -0.19046229 0.18870617 -0.020637697 -0.0600077 -0.0769418
-0.15990588 0.13430887 -0.17333327 0.1251093 0.16444728 0.27343258 0.034361165 -0.013603648
0.31709656 0.123692125 -0.2328855 -0.5168703 0.60943633 -0.04476217 -0.057227913 0.22465362
0.17191587 -0.26217172 -0.1993925 0.19259968 -0.2795863 -0.023348635 0.0009826239 -0.021068469
0.088496245 -0.06207604 0.038117684 -0.4659587 0.2191652 0.042976264 -0.35693374 0.38356578
0.101209626 0.21992655 -0.3505736 0.10179834 -0.078546755 0.04626949 0.12132449 0.21362758
0.31873006 -0.069024846 0.009495042 0.048449613 -0.24721624 -0.2039114 0.19932352 0.24401613
0.3680189 0.056162115 -0.24814881 0.6321327 -0.4545834 -0.3010913 0.054287467 0.1663257
0.21401826 -0.18531613 0.17296974 0.09894909 -0.11322318 -0.33093083 -0.27916324 0.21717721
-0.5178679 -0.36800277 0.050860316 0.31760928 -0.0657579 0.12911111 0.17585711 0.0528461
0.14726911 0.23408522 -0.21411723 -0.1506592 0.059470758 -0.25421143 0.102545425 -0.055022698
-0.23151824 -0.2747318 0.5619 0.036989212 -0.18351856 -0.06502874 0.18872567 0.2887963
-0.4160865 -0.047677718 -0.042016882 0.08492956 -0.16152044 -0.5174854 0.1861036 0.026070675
0.29264072 -0.28364557 0.17264862 -0.12683326 0.00978659 -0.052170906 0.21600223 0.11957063
-0.13087253 -0.32082057 0.0676087 -0.17762958 0.20005442 0.44274038 -0.079155214 0.4650762
0.16350418 0.14484596 -0.4802359 -0.031951852 0.14623603 -0.15040985 0.12949844 0.25378707
0.23459871 -0.4535233 -0.09444152 -0.16458496 -0.23505737 -0.5026207 -0.17546172 0.27481404
0.1355622 -0.14111221 -0.19913076 0.38222915 -0.3411028 0.18003008 -0.25610206 -0.15786088
-0.18616848 -0.1623071 0.15162261 0.1498284 0.05878514 -0.13174364 -0.03300199 0.43413293
0.13360278 -0.0053301407 0.14933039 -0.1980997 0.12385123 0.04905899 0.05336762 0.5304148
0.34213623 0.25546247 0.0939576 -0.013615452 0.64675874 0.04405514 0.1340737 -0.15043405
-0.095442526 0.08171487 -0.24650742 0.02167343 0.25337198 -0.42064682 -0.18096729 0.06880826
-0.0071513597 0.15492669 -0.43960747 0.6560113 -0.3821939 -0.14140755 -0.2994684 -0.10585209
0.54387385 -0.64541066 0.035300832 -0.046813365 -0.52619255 -0.3662646 -0.1818304 0.23319782
-0.4630834 -0.17989767 0.16921875 -0.21219362 -0.39203843 0.154434 0.020603186 0.6308551
-0.23188615 0.06776878 -0.05005127 -0.26133946 -0.08104717 0.23816088 0.13648719 0.56767625
-0.12575048 -0.26432458 0.12277531 -0.11604209 -0.112839065 -0.3277656 0.23417531 0.04998007
-0.36053 0.12665781 0.6005996 -0.7090114 -0.089575365 0.30368614 0.11193829 0.03588063
-0.1358588 0.38668177 -0.18654147 0.08160641 0.23301217 0.200634 0.13207567 -0.057795644
00000000: a601 563e cda1 f93d dccf 4b3d 5482 c0be
00000010: 7593 5e3e c114 933c 39be 723e 2f98 5d3e
00000020: 4c6a 383e 1253 d53e 9546 913e 8d77 3abc
00000030: 36f5 a43e 03ad 803e 65fd 1f3f e738 8fbe
00000040: 255e a6bc 3265 033e ef48 fcbd ba56 a33d
00000050: a6d7 843e 1a78 0b3e 4840 6f3d 8aa4 27be
00000060: 29e2 abbd d144 dfbe 65a6 cfbe 8c08 43be
00000070: 313c 413e 6310 a9bc a2ca 75bd aa93 9dbd
00000080: 5ebe 23be 4488 093e 477e 31be a71c 003e
00000090: de64 283e 5bff 8b3e 4bbe 0c3d d6e1 5ebc
000000a0: 7b5a a23e 4c52 fd3d 8979 6ebe 9d51 04bf
000000b0: 0504 1c3f 8a58 37bd d167 6abd 990b 663e
000000c0: b70a 303e 5f3b 86be 8c2d 4cbe da38 453e
000000d0: ef25 8fbe a345 bfbc 63cb 803a c897 acbc
000000e0: 853d b53d 7243 7ebd 4a21 1c3d 2492 eebe
000000f0: d86c 603e e107 303d 05c0 b6be bc62 c43e
00000100: fe46 cf3d 6d34 613e 627e b3be a67b d03d
00000110: 1fdd a0bd 1485 3d3d f978 f83d 30c1 5a3e
00000120: 9630 a33e e65c 8dbd 1891 1b3c 1a73 463d
00000130: 4126 7dbe 26ce 50be 771b 4c3e 5ddf 793e
00000140: f96c bc3e 3f0a 663d b91a 7ebe 73d3 213f
00000150: 28bf e8be a428 9abe 895c 5e3d 4951 2a3e
00000160: 9a27 5b3e 83c3 3dbe fb1e 313e d2a5 ca3d
00000170: 8ee1 e7bd c46f a9be 7cee 8ebe b463 5e3e
00000180: fe92 04bf dc6a bcbe e852 503d af9d a23e
00000190: 14ac 86bd b435 043e e313 343e 2775 583d
000001a0: b7cd 163e 09b4 6f3e 8c41 5bbe 6846 1abe
000001b0: 9c97 733d 0028 82be 5603 d23d 7b5f 61bd
000001c0: 1e13 6dbe a6a9 8cbe aed8 0f3f 0082 173d
000001d0: 4aec 3bbe ca2d 85bd 4d41 413e 1cdd 933e
000001e0: 4a09 d5be b649 43bd e519 2cbd 8def ad3d
000001f0: 9d65 25be ec79 04bf f191 3e3e 2b92 d53c
00000200: 01d5 953e fe39 91be cdca 303e 94e0 01be
00000210: ef57 203c 29b1 55bd b02f 5d3e 72e1 f43d
00000220: 7303 06be 9842 a4be 6e76 8a3d 87e4 35be
00000230: 11db 4c3e deae e23e 211c a2bd 781e ee3e
00000240: a46d 273e 8052 143e 7be1 f5be f2df 02bd
00000250: e6be 153e 0a05 1abe 3d9b 043e 61f0 813e
00000260: a53a 703e 3534 e8be 8e6a c1bd f688 28be
00000270: e1b2 70be c0ab 00bf 3dac 33be 6db4 8c3e
00000280: d1d0 0a3e b87f 10be efe8 4bbe 8ab3 c33e
00000290: 07a5 aebe ce59 383e cf1f 83be 48a6 21be
000002a0: f3a2 3ebe d533 26be f542 1b3e 9e6c 193e
000002b0: b0c8 703d cee7 06be 182d 07bd ac46 de3e
000002c0: 2bcf 083e 76a8 aebb 11ea 183e a6da 4abe
000002d0: b7a5 fd3d 14f2 483d 0198 5a3d 44c9 073f
000002e0: 7b2c af3e facb 823e d86c c03d 5813 5fbc
000002f0: fb91 253f 2a73 343d 9e4a 093e 620b 1abe
00000300: 5f77 c3bd 205a a73d 716c 7cbe 7a8c b13c
00000310: f9b9 813e 055f d7be 7d4f 39be 58eb 8c3d
00000320: f455 eabb 1aa5 1e3e 3b14 e1be 5bf0 273f
00000330: ebae c3be 24cd 10be ec53 99be fbc8 d8bd
00000340: 513b 0b3f a239 25bf 9b97 103d 5fbf 3fbd
00000350: 8eb4 06bf 0987 bbbe c031 3abe 69cb 6e3e
00000360: 4419 edbe 1837 38be ae47 2d3e 4949 59be
00000370: 43b9 c8be f223 1e3e 03c8 a83c b87f 213f
00000380: 9073 6dbe 5cca 8a3d 8f02 4dbd 49ce 85be
00000390: 0ffc a5bd 72e0 733e 4cc3 0b3e 3b53 113f
000003a0: bcc4 00be 8d55 87be 9f71 fb3d 7aa7 edbd
000003b0: 2b18 e7bd e5d0 a7be a7cb 6f3e e7b7 4c3d
000003c0: 6397 b8be 96b2 013e e5c0 193f c581 35bf
000003d0: 4a73 b7bd c07c 9b3e e73f e53d 91f7 123d
000003e0: 921e 0bbe 27fb c53e ba04 3fbe 4321 a73d
000003f0: be9a 6e3e 0073 4d3e d83e 073e 20bb 6cbd

bias f4 [20]
-0.7054185 -0.21444619 0.036591657 0.35723996 1.0000423 0.2684663 0.10825086 0.81422037
0.4105274 0.8889097 0.7857728 0.8709263 -1.461857 -0.9090744 0.09164971 -1.3694773
0.20016445 -1.1329343 -1.925866 0.5940564
00000000: 4f96 34bf c897 5bbe 22e1 153d 28e8 b63e
00000010: 6301 803f 6a74 893e a0b2 dd3d bf70 503f
00000020: a630 d23e 968f 633f 6828 493f 07f5 5e3f
00000030: 211e bbbf 1ab9 68bf d8b2 bb3d 084b afbf
00000040: e9f7 4c3e fe03 91bf c782 f6bf 1514 183f

weight f4 [20, 20]
0.18959254 -0.30455956 0.21251696 0.10599526 -0.16684139 -0.028263567 0.03334569 0.36526778
-0.64198035 0.30576354 -0.055331025 0.36315316 0.08691275 0.078893684 0.21465676 -0.19167702
0.55427253 -0.10167793 0.1298347 -0.19213237 0.30023587 0.033619072 0.03278576 0.023919353
0.016012121 0.25099555 0.24705033 -0.2678525 -0.087789886 0.13710175 -0.19911866 0.32209247
0.00683813 0.050627563 -0.054448403 0.40109357 -0.08617354 0.4284198 0.36639488 -0.045089226
-0.25738797 -0.033274475 0.16232356 -0.39989135 0.0937606 0.20676768 0.14856426 -0.025470546
0.013538147 0.33360577 -0.4863348 -0.16951925 -0.11203016 0.022755016 -0.1504574 0.47745898
0.30114043 0.13237178 -0.052637037 0.18499261 0.1991779 -0.012150303 0.050195813 -0.2788575
-0.26999044 -0.05032961 -0.7677979 -0.47105306 -0.2692292 0.024462594 -0.41251785 0.13639916
-0.27233836 -0.14072083 -0.31367102 0.24739917 0.21902195 -0.07078755 0.07029381 0.619926
0.35306117 -0.028439611 0.05146832 -0.051649764 0.15311386 -0.29871768 -0.14885014 -0.18855855
0.120079115 -0.024591073 -0.43566385 -0.3385943 0.024935102 -0.55311835 0.4583988 0.2935549
-0.28934202 -0.18139416 0.46984312 0.18596004 -0.1964737 -0.08903672 0.10539527 -0.24785446
-0.25804186 0.008888484 0.020809127 -0.41148227 0.067007884 0.05245003 -0.32155177 -0.040630307
0.33792225 0.07257424 0.3444548 -0.043404154 0.11317775 0.1704126 0.14648247 -0.43621516
0.3114229 -0.016046854 -0.051346656 0.29014862 0.04880851 -0.09540351 -0.11639662 0.23647663
-0.012061204 -0.03207126 0.333635 0.08274993 -0.07946916 0.38764045 -0.15562525 0.380841
0.062236425 -0.5737045 -0.17808408 0.028600762 -0.14913043 0.16357729 -0.00014938696 0.18082698
-0.0039037953 -0.0065532485 -0.24676104 0.29542914 0.3264529 0.18269119 0.060524654 -0.1031754
-0.17624472 -0.14401065 0.032529786 0.09758622 -0.0899732 0.3475337 -0.005354329 0.10285245
-0.074370205 -0.049710333 -0.33961013 0.4946265 0.28228846 0.108408384 0.06336038 0.01816686
0.22100282 -0.018533958 0.10099591 0.25686556 -0.22536318 -0.28884804 0.30691615 -0.12487412
-0.14167716 -0.2146009 0.29508972 -0.34512 0.44325483 -0.21918023 0.022865206 -0.20482099
-0.33203417 0.43684986 -0.4898105 0.070939235 -0.12674484 0.20635378 -0.27490482 0.231571
-0.17074004 -0.17047654 -0.35406885 0.3390869 0.18527198 0.15327784 0.21683715 -0.071943805
0.20278549 0.026634734 0.15070549 -0.025678778 0.020698793 0.10220422 0.077198505 -0.1193124
-0.15059206 0.1653956 -0.20920423 0.14447378 0.03746749 0.21705931 -0.3823545 0.3154725
0.090891816 -0.30708316 -0.048809282 -0.25271225 0.014394385 0.09182997 0.0068833358 -0.29356635
0.13590628 -0.17886378 -0.054825954 -0.09406048 -0.43021324 0.26325133 -0.39564684 -0.032909315
0.27214786 0.24139385 -0.11143886 0.35370556 0.12393357 0.73341817 -0.07044426 0.12909332
-0.31138495 0.11469922 -0.34925026 0.09427299 0.30515233 -0.38022473 0.05188237 0.34146762
0.07692202 -0.005146717 0.33073795 -0.121498756 -0.27173024 -0.3838796 0.29574332 -0.78199255
00000000: 8c24 423e 3bef 9bbe 0c9e 593e 0b14 d93d
00000010: 78d8 2abe ff88 e7bc 7e95 083d 6104 bb3e
00000020: d358 24bf 0a8d 9c3e c9a2 62bd 36ef b93e
00000030: 50ff b13d 0393 a13d fbce 5b3e fb46 44be
00000040: cee4 0d3f 853c d0bd 63f3 043e 59be 44be
00000050: 84b8 993e 27b4 093d 5c4a 063d 85f2 c33c
00000060: da2b 833c 7d82 803e c3fa 7c3e f623 89be
00000070: 2fcb b3bd 6764 0c3e c3e5 4bbe 4ee9 a43e
00000080: 6412 e03b d95e 4f3d 4a05 5fbd 235c cd3e
00000090: c17b b0bd d759 db3e 1c98 bb3e 7baf 38bd
000000a0: 5bc8 83be d14a 08bd 2638 263e 8fbe ccbe
000000b0: 8f05 c03d e8ba 533e 3b21 183e 9ba7 d0bc
000000c0: 1bcf 5d3c 60ce aa3e e000 f9be 7496 2dbe
000000d0: 1270 e5bd ba68 ba3c 8111 1abe 8175 f43e
000000e0: 142f 9a3e 788c 073e ef99 57bd b46e 3d3e
000000f0: 4bf5 4b3e 1112 47bc 209a 4d3d 69c6 8ebe
00000100: 303c 8abe 6c26 4ebd 678e 44bf de2d f1be
00000110: 69d8 89be c765 c83c 8a35 d3be 39ac 0b3e
00000120: ef6f 8bbe 1f19 10be 7d99 a0be 3556 7d3e
00000130: 4a47 603e 10f9 90bd 33f6 8f3d 78b3 1e3f
00000140: 6fc4 b43e 30fa e8bc 72d0 523d b48e 53bd
00000150: e1c9 1c3e 86f1 98be 2c6c 18be 7e15 41be
00000160: 0aec f53d 3873 c9bc 550f dfbe 3b5c adbe
00000170: b344 cc3c 2a99 0dbf 3fb3 ea3e d44c 963e
00000180: a324 94be 64bf 39be 478f f03e 4f6c 3e3e
00000190: 6730 49be e258 b6bd 7ad9 d73d 8fcd 7dbe
000001a0: 101e 84be 01a1 113c e777 aa3c cead d2be
000001b0: 6e3b 893d d8d5 563d 6fa2 a4be f76b 26bd
000001c0: 2504 ad3e cea1 943d 615c b03e 8ec8 31bd
000001d0: bcc9 e73d a480 2e3e 80ff 153e 9857 dfbe
000001e0: d372 9f3e b174 83bc df50 52bd 5c8e 943e
000001f0: 6feb 473d ea62 c3bd 5a61 eebd ee26 723e
00000200: 5b9c 45bc 275d 03bd 35d2 aa3e cc78 a93d
00000210: bac0 a2bd cf78 c63e 3a5c 1fbe 97fd c23e
00000220: 9feb 7e3d 4cde 12bf ac5b 36be 254c ea3c
00000230: a6b5 18be ce80 273e c2a4 1cb9 b52a 393e
00000240: d1d6 7fbb a2bc d6bb edae 7cbe 7d42 973e
00000250: d624 a73e 6613 3b3e b3e8 773d a04d d3bd
00000260: 7f79 34be 8777 13be f43d 053d 49db c73d
00000270: de43 b8bd f0ef b13e 5e73 afbb 4ea4 d23d
00000280: 684f 98bd 109d 4bbd 61e1 adbe af3f fd3e
00000290: 1d88 903e 3705 de3d 16c3 813d abd2 943c
000002a0: 904e 623e 87d4 97bc f2d6 ce3d e283 833e
000002b0: 9bc5 66be e4e3 93be 1d24 9d3e 01be ffbd
000002c0: d113 11be 57c0 5bbe 0016 973e 92b3 b0be
000002d0: 4cf2 e23e c870 60be d04f bb3c 98bc 51be
000002e0: 6200 aabe c9aa df3e 71c8 fabe 9748 913d
000002f0: 66c9 01be 684e 533e 53c0 8cbe f320 6d3e
00000300: 7ad6 2ebe 6791 2ebe 8348 b5be cc9c ad3e
00000310: f0b7 3d3e def4 1c3e 8f0a 5e3e 4657 93bd
00000320: 00a7 4f3e 1631 da3c 8a52 1a3e 4d5c d2bc
00000330: 8490 a93c 7250 d13d 401a 9e3d 0f5a f4bd
00000340: ce34 1abe 775d 293e a239 56be eff0 133e
00000350: 8377 193d cc44 5e3e f8c3 c3be 9d85 a13e
00000360: 7d25 ba3d 013a 9dbe 3eec 47bd 8063 81be
00000370: 6dd6 6b3c 5a11 bc3d 9b8d e13b 544e 96be
00000380: 042b 0b3e 1128 37be 2e91 60bd c8a2 c0bd
00000390: e944 dcbe e1c8 863e 3992 cabe ebcb 06bd
000003a0: f756 8b3e f32f 773e 0f3a e4bd e518 b53e
000003b0: e2d0 fd3d 4bc1 3b3f 1545 90bd 0a31 043e
000003c0: d96d 9fbe 6de7 ea3d eed0 b2be 3312 c13d
000003d0: ed3c 9c3e d1ac c2be 9c82 543d d8d4 ae3e
000003e0: 4b89 9d3d cba5 a8bb 7c56 a93e 57d4 f8bd
000003f0: 3a20 8bbe de8b c4be ab6b 973e aa30 48bf

bias f4 [20]
-0.61299914 0.13276257 -0.8412715 -1.2525765 -0.032206923 -0.39802262 0.37666556 -0.35133258
0.30266827 -1.1815507 -0.0974491 -0.5632848 0.40494186 0.45053458 0.5888586 0.35400295
1.8142345 2.1436725 -1.6190817 -0.15724668
00000000: 83ed 1cbf e9f2 073e 925d 57bf 6d54 a0bf
00000010: 68eb 03bd 9fc9 cbbe 4fda c03e dde1 b3be
00000020: 56f7 9a3e 0e3d 97bf 6593 c7bd 6f33 10bf
00000030: 8a54 cf3e 78ac e63e 70bf 163f e03f b53e
00000040: d638 e83f ee31 0940 123e cfbf 4605 21be

weight f4 [20, 20]
0.052542634 0.2082884 0.25291923 0.018501977 0.59129816 0.19268443 0.26366743 -0.18840012
0.15789548 0.21656571 0.17092983 0.17144099 -0.06186088 0.2838424 -9.192333e-05 0.23159665
0.026659586 0.10215194 0.45022562 -0.11715353 0.06548398 -0.21474582 -0.2985827 0.027267873
0.115250215 0.5589382 0.31711325 0.15134084 -0.017115494 0.11333098 -0.431062 -0.22862628
-0.21530789 0.39056662 0.08028351 -0.24705395 0.28455248 0.18183252 -0.13414922 0.28539884
-0.34341252 -0.51678485 0.10412342 -0.14129321 -0.45435414 0.28776252 -0.48134944 0.2810433
0.32502294 0.5102663 -0.25764692 -0.19822665 0.06830979 -0.063134454 0.25383678 -0.21871577
-0.2593745 0.47420764 3.0573894e-05 0.39206135 -0.11745788 -0.17178488 -0.14859389 0.08266791
-0.10032646 -0.16175829 0.19347706 0.2154849 0.1254636 0.13129888 0.21495086 -0.59156895
0.1576458 0.24252532 0.08847228 0.011728985 -0.13121337 0.6679412 0.034492403 -0.41194662
0.33628312 -0.5770231 -0.34314847 -0.24417622 0.011179542 0.083447054 -0.0053242976 0.119293034
0.25161836 -0.40253732 -0.01672925 -0.16236007 0.3501851 0.13558446 0.038292337 -0.15257058
0.015582305 -0.05070501 -0.5764502 0.18809767 -0.074419685 0.28036168 0.19695184 0.1444726
0.3317929 -0.23885174 -0.25466183 -0.22890148 0.09656713 0.0059061064 -0.04004236 -0.29054907
-0.20782717 0.30812183 -0.7450502 -0.06379396 -0.21017903 0.06716745 0.25140217 0.02343064
-0.083329104 0.1704125 -0.030894253 -0.17468603 -0.45341018 0.41674283 0.049168974 0.026182378
-0.119370416 0.24978186 -0.2926921 -0.46360317 0.32872424 -0.34147298 0.45382336 0.05833959
0.5983435 0.086857565 -0.020939983 -0.17438501 -0.28717133 -0.18785451 -0.45903713 0.22163226
-0.6631844 0.48596683 0.29898548 0.283324 -0.021460688 -0.106459714 0.35337195 -0.26091284
0.3557861 -0.36914805 -0.06645354 0.119153894 -0.047748536 -0.2912557 -0.36976346 -0.10176671
0.29874614 -0.2205216 -0.26524153 -0.38219675 0.11954272 0.108037286 -0.14428377 -0.088585064
0.13824753 -0.1724007 0.003298239 -0.21685651 0.3953097 0.13395679 0.30510446 -0.09688799
-0.090261355 -0.09572826 0.13145828 0.03478202 0.27974737 0.20960209 0.08612273 -0.16651589
-0.05765348 -0.09099438 -0.2465117 0.107123315 -0.1347707 0.32469973 -0.17170262 -0.050312676
-0.43315768 0.18451378 0.28167918 -0.2726602 -0.1972822 -0.4922537 -0.105751894 -0.0074747335
-0.047260005 0.40270224 0.25694445 0.18524441 -0.0744432 -0.036767125 -0.017317116 -0.11777938
0.30549353 -0.031263653 -0.17845218 -0.12603334 0.24846998 0.3255038 -0.13093075 -0.36321974
-0.14690003 -0.33042198 -0.14042892 -0.071249 0.08183524 -0.16059145 -0.111250274 -0.26208997
-0.2611221 0.2428672 0.12886244 0.020715836 -0.063001595 -0.24077488 -0.30586985 -0.23595254
0.042992447 -0.27704647 0.32024512 0.07150474 0.2507071 0.33079657 -0.28630418 0.3764575
0.32349053 -0.38292998 -0.060544558 -0.031760734 -0.3060346 -0.27913526 0.24669683 -0.12436807
0.4091102 -0.035848793 -0.22320184 -0.27385306 0.11659865 -0.18389022 0.6043914 0.37776944
00000000: f236 573d 8e49 553e a17e 813e 7591 973c
00000010: 515f 173f 114f 453e 6bff 863e f6eb 40be
00000020: 5aaf 213e 67c3 5d3e 3b08 2f3e 3a8e 2f3e
00000030: d661 7dbd cb53 913e f6c6 c0b8 ac27 6d3e
00000040: 3465 da3c 0935 d13d f983 e63e 31ee efbd
00000050: 771c 863d 54e6 5bbe d5df 98be e060 df3c
00000060: 4e08 ec3d 9316 0f3f ab5c a23e 18f9 1a3e
00000070: cb35 8cbc 131a e83d 29b4 dcbe 021d 6abe
00000080: ac79 5cbe 59f8 c73e ae6b a43d b6fb 7cbe
00000090: ddb0 913e 4e32 3a3e 6a5e 09be cc1f 923e
000000a0: c4d3 afbe 034c 04bf a93e d53d 2baf 10be
000000b0: 1ba1 e8be 9c55 933e 6f73 f6be e8e4 8f3e
000000c0: 6869 a63e d0a0 023f 4cea 83be edfb 4abe
000000d0: 01e6 8b3d a34c 81bd e5f6 813e 07f7 5fbe
000000e0: bccc 84be 58cb f23e 783c 0038 44bc c83e
000000f0: c28d f0bd 60e8 2fbe ff28 18be cb4d a93d
00000100: f677 cdbd f7a3 25be da1e 463e 13a8 5c3e
00000110: 8879 003e 3773 063e 141c 5c3e 1071 17bf
00000120: e76d 213e 8f58 783e f430 b53d ee2a 403c
00000130: cc5c 06be 32fe 2a3f e847 0d3d abea d2be
00000140: 4d2d ac3e c9b7 13bf 28b1 afbe 5509 7abe
00000150: 662a 373c 4ae6 aa3d 7277 aebb e84f f43d
00000160: 1fd4 803e 5f19 cebe c80b 89bc b841 26be
00000170: 764b b33e a7d6 0a3e 6dd8 1c3d 763b 1cbe
00000180: ed4c 7f3c 0eb0 4fbd 3e92 13bf ad9c 403e
00000190: 5969 98bd 918b 8f3e bead 493e a0f0 133e
000001a0: c2e0 a93e 8d95 74be 0963 82be 2665 6abe
000001b0: fdc4 c53d 0388 c13b 7503 24bd d9c2 94be
000001c0: a5d0 54be 25c2 9d3e 9cbb 3ebf 68a6 82bd
000001d0: 2c39 57be 178f 893d c9b7 803e 9df1 bf3c
000001e0: 73a8 aabd 9d80 2e3e f215 fdbc e5e0 32be
000001f0: 6125 e8be 515f d53e 6865 493d 6d7c d63c
00000200: 7a78 f4bd d1c6 7f3e bddb 95be 655d edbe
00000210: 8b4e a83e 8cd5 aebe 895b e83e 7ef5 6e3d
00000220: 0a2d 193f 61e2 b13d 548a abbc fc91 32be
00000230: 1f08 93be ef5c 40be ea06 ebbe 91f3 623e
00000240: 74c6 29bf a5d0 f83e a014 993e d80f 913e
00000250: 53ce afbc 8d07 dabd 2bed b43e 5e96 85be
00000260: 9829 b63e f900 bdbe cb18 88bd f506 f43d
00000270: f893 43bd 781f 95be a351 bdbe 116b d0bd
00000280: 41f5 983e 6ad0 61be bdcd 87be 4baf c3be
00000290: d0d2 f43d a742 dd3d 20bf 13be 166c b5bd
000002a0: c390 0d3e cf89 30be 4527 583b a20f 5ebe
000002b0: 0866 ca3e f82b 093e a736 9c3e 366d c6bd
000002c0: f2da b8bd 2e0d c4bd 009d 063e 9777 0e3d
000002d0: 0c3b 8f3e eea1 563e 1d61 b03d 2483 2abe
000002e0: 0e26 6cbd 435b babd 906d 7cbe 7863 db3d
000002f0: 5501 0abe 0b3f a63e d0d2 2fbe aa14 4ebd
00000300: d8c6 ddbe 2ef1 3c3e 4138 903e 1e9a 8bbe
00000310: 5804 4abe ad08 fcbe 7394 d8bd 9cee f4bb
00000320: b593 41bd fd2e ce3e 398e 833e b6b0 3d3e
00000330: ad75 98bd 2099 16bd a0dc 8dbc 5136 f1bd
00000340: a669 9c3e 510e 00bd 2bbc 36be e20e 01be
00000350: ea6e 7e3e 6fa8 a63e b612 06be f0f7 b9be
00000360: f66c 16be 122d a9be 99cc 0fbe ffea 91bd
00000370: 3c99 a73d 1672 24be 2fd7 e3bd a830 86be
00000380: ccb1 85be 2eb2 783e 84f4 033e 42b4 a93c
00000390: fb06 81bd b18d 76be f99a 9cbe 8b9d 71be
000003a0: d918 303d 09d9 8dbe 2bf7 a33e 1471 923d
000003b0: ae5c 803e 2b5e a93e 7696 92be 0abf c03e
000003c0: 8da0 a53e 660f c4be 92fd 77bd 8b17 02bd
000003d0: 91b0 9cbe d1ea 8ebe 189e 7c3e b0b4 febd
000003e0: e476 d13e 2fd6 12bd 068f 64be 7836 8cbe
000003f0: 46cb ee3d b84d 3cbe 65b9 1a3f ff6a c13e

bias f4 [20]
0.29256895 1.2665044 0.675589 0.3326478 0.9407202 -1.530676 0.8088504 0.45352638
0.47916242 -0.4326815 -0.8394487 1.2726501 1.4834543 -0.2213733 -0.34605476 -0.6276879
-0.96642375 0.5391979 -1.724007 1.8693748
00000000: 99cb 953e d11c a23f 67f3 2c3f d050 aa3e
00000010: 0ad3 703f 31ed c3bf d210 4f3f 9c34 e83e
00000020: c754 f53e 6e88 ddbe 1ce6 56bf 33e6 a23f
00000030: d5e1 bd3f afaf 62be 172e b1be 27b0 20bf
00000040: 8c67 77bf e008 0a3f 43ac dcbf ac47 ef3f

weight f4 [20, 20]
0.0668923 0.046687696 0.2578959 -0.08512521 0.22165464 0.009865941 0.06755785 0.027819937
0.52557975 0.16191316 -0.00029799913 0.15306398 0.20525865 -0.23066086 0.21361108 -0.36716932
0.31731233 0.07502295 -0.2769646 -0.100759074 0.031858202 -0.1892167 0.105280235 -0.11493288
-0.119526304 -0.054865718 -0.06624769 -0.30605096 0.32163516 -0.19918498 -0.011217631 -0.19650206
-0.16562688 0.03541908 -0.33782196 -0.28385258 -0.13370834 0.30374086 0.16385365 -0.049189232
0.25170252 0.07568724 -0.314861 0.0061893514 -0.48777977 -0.117314376 -0.12773941 -0.00067601795
-0.092502385 0.14452729 0.055547606 -0.17542888 0.006650479 0.42807794 -0.0053760977 0.13579558
0.067491725 -0.35251987 -0.19927908 -0.14233442 -0.1821621 0.29692736 0.3555048 0.068015024
0.1660556 -0.29134977 0.084581956 0.20117088 0.027901525 -0.14465004 -0.12054851 -0.054398835
0.3879909 0.21649773 0.17752828 0.08146627 -0.10700482 0.46600193 -0.09011142 0.3123428
-0.37758604 0.01645913 0.6328101 0.21571004 0.09226313 -0.16595475 0.13158937 -0.060083695
0.2420543 -0.13686703 -0.19374436 0.07317599 -0.20470862 -0.15009706 -0.30724326 -0.05918129
-0.11719181 0.29842505 -0.20215973 -0.014753402 -0.18670003 0.11096003 0.039912518 -0.003899759
0.2606352 0.028395131 -0.37166125 -0.07375112 -0.0022597231 -0.18559672 -0.32590485 -0.31593484
-0.13911827 0.19051999 -0.079383895 0.53153867 -0.10136085 -0.14624645 -0.26446792 -0.18312415
0.3194141 -0.08952061 -0.17480062 -0.09884535 -0.44894564 0.2571674 -0.2658944 0.0545715
-0.05255457 0.19387242 -0.25024956 -0.10837371 -0.07182623 0.12219701 0.15657575 0.18335448
0.16311629 -0.010955005 0.12507077 0.0006916447 -0.44742346 -0.058882736 0.43082264 -0.011975322
0.155502 -0.20396763 0.195306 0.12416025 0.13001502 0.26238695 0.050487783 -0.1332351
0.2452133 -0.085973345 -0.087442026 -0.30005035 -0.26785478 0.23085344 -0.06450796 0.1077195
-0.1632875 -0.2718876 -0.0041939407 0.16322803 -0.19089304 -0.25944373 -0.036626875 -0.36151615
-0.22674187 0.25202632 0.14956348 -0.25552145 -0.20081486 0.26356 0.030284964 -0.027596008
0.010096553 -0.2904633 0.028611178 0.0910854 -0.30381072 0.066470325 0.44909346 -0.217705
-0.11961226 -0.08995939 -0.10006081 0.37895843 0.081849076 0.07667194 0.17286284 -0.1246721
-0.40674525 0.3850292 -0.07692436 -0.18041104 -0.09800151 0.4678045 -0.030268611 0.015801622
0.073353775 -0.115164205 0.28634495 0.38176534 -0.11749075 0.27550533 -0.091877036 -0.26229626
0.08994972 -0.5295657 0.1510156 0.123092026 -0.30611908 -0.11998834 -0.41898203 0.09530579
0.20016626 -0.13735513 0.27623028 -0.1478995 -0.46656153 -0.009672848 0.088874154 0.21931307
-0.3175231 0.0009877085 -0.06941102 0.5666989 -0.09713789 -0.20244755 -0.015647572 0.16169432
0.29791042 0.1149528 0.057145473 -0.18504968 0.074687175 -0.006799993 -0.15987527 0.018082146
-0.25426802 -0.08920681 -0.06327014 -0.13377719 -0.2430986 0.3324734 -0.18211843 -0.19312334
0.03378681 -0.025283303 0.093009345 -0.06356285 -0.24944216 0.2728976 -0.3684821 0.12568536
00000000: d5fe 883d 993b 3f3d ee0a 843e 2056 aebd
00000010: 6ff9 623e c1a4 213c c55b 8a3d a3e6 e33c
00000020: 658c 063f 90cc 253e c43c 9cb9 cebc 1c3e
00000030: 532f 523e 5c32 6cbe ddbc 5a3e 9efd bbbe
00000040: c376 a23e a2a5 993d 4ece 8dbe c65a cebd
00000050: bf7d 023d 06c2 41be 2a9d d73d ee61 ebbd
00000060: 35ca f4bd e0ba 60bd deac 87bd b6b2 9cbe
00000070: 5dad a43e 26f7 4bbe 28ca 37bc d637 49be
00000080: 189a 29be 9913 113d 00f7 acbe 2055 91be
00000090: d7ea 08be ec83 9b3e 40c9 273e a67a 49bd
000000a0: 27df 803e e901 9b3d 7635 a1be 0bd0 ca3b
000000b0: 45be f9be 8542 f0bd 1fce 02be cc36 31ba
000000c0: e471 bdbd f6fe 133e e385 633d a1a3 33be
000000d0: 43ec d93b 082d db3e fa29 b0bb ff0d 0b3e
000000e0: 1a39 8a3d 7c7d b4be d10f 4cbe 1dc0 11be
000000f0: b488 3abe dd06 983e ba04 b63e 764b 8b3d
00000100: 7b0a 2a3e cc2b 95be 4e39 ad3d bdff 4d3e
00000110: bd91 e43c 241f 14be 23e2 f6bd 50d1 5ebd
00000120: bea6 c63e 95b1 5d3e f9c9 353e cad7 a63d
00000130: 5825 dbbd ce97 ee3e 568c b8bd 65eb 9f3e
00000140: f552 c1be 4cd5 863c d8ff 213f 18e3 5c3e
00000150: 74f4 bc3d 0bf0 29be 5dbf 063e 521a 76bd
00000160: 15dd 773e df26 0cbe ec64 46be 4bdd 953d
00000170: 239f 51be 0bb3 19be fd4e 9dbe 1568 72bd
00000180: 4202 f0bd 2bcb 983e f602 4fbe 41b8 71bc
00000190: 4b2e 3fbe 033f e33d 4f7b 233d 1993 7fbb
000001a0: fa71 853e e89c e83c 624a bebe d40a 97bd
000001b0: dd17 14bb 110d 3ebe 00dd a6be 36c2 a1be
000001c0: 0575 0ebe ac17 433e 0694 a2bd eb12 083f
000001d0: 4796 cfbd a1c1 15be 5768 87be e684 3bbe
000001e0: 3f8a a33e 9556 b7bd effe 32be 6e6f cabd
000001f0: 34dc e5be 72ab 833e 5023 88be 5d86 5f3d
00000200: 7643 57bd 7e86 463e b620 80be 09f3 ddbd
00000210: a119 93bd 6d42 fa3d 6555 203e 47c1 3b3e
00000220: f507 273e 9f7c 33bc 8d12 003e 7d4f 353a
00000230: b014 e5be 062f 71bd c994 dc3e 2434 44bc
00000240: eb3b 1f3e e4dc 50be 4cfe 473e bb47 fe3d
00000250: a822 053e 9557 863e 47cc 4e3d c86e 08be
00000260: 3219 7b3e cb12 b0bd ce14 b3bd 33a0 99be
00000270: 4324 89be d864 6c3e c01c 84bd 0b9c dc3d
00000280: d734 27be da34 8bbe 536d 89bb 4025 273e
00000290: 7779 43be cfd5 84be 1006 16bd a518 b9be
000002a0: 052f 68be 9809 813e 2b27 193e b5d3 82be
000002b0: 69a2 4dbe 56f1 863e 2c18 f83c 0611 e2bc
000002c0: 036c 253c 9bb7 94be fd61 ea3c fb8a ba3d
000002d0: 148d 9bbe 9821 883d 94ef e53e 0fee 5ebe
000002e0: 46f7 f4bd a13c b8bd afec ccbd d706 c23e
000002f0: 7da0 a73d 2e06 9d3d f502 313e 1654 ffbd
00000300: ea40 d0be 8c22 c53e 858a 9dbd acbd 38be
00000310: 04b5 c8bd 1284 ef3e e1f5 f7bc 6772 813c
00000320: 813a 963d 36db ebbd ce9b 923e bf76 c33e
00000330: fe9e f0bd 090f 8d3e 072a bcbd b24b 86be
00000340: 8f37 b83d 9e91 07bf d5a3 1a3e ac17 fc3d
00000350: a4bb 9cbe 72bc f5bd d084 d6be af2f c33d
00000360: 62f8 4c3e d3a6 0cbe 0e6e 8d3e f772 17be
00000370: 27e1 eebe dd7a 1ebc a703 b63d 9b93 603e
00000380: 6392 a2be ff75 813a 5d27 8ebd 2e13 113f
00000390: 3bf0 c6bd 694e 4fbe 562f 80bc 3293 253e
000003a0: b787 983e 606c eb3d 5f11 6a3d aa7d 3dbe
000003b0: 97f5 983d 7ad2 debb 58b6 23be 0221 943c
000003c0: 6b2f 82be 0fb2 b6bd c693 81bd e3fc 08be
000003d0: d7ee 78be f439 aa3e 417d 3abe 20c2 45be
000003e0: 0a64 0a3d ee1e cfbc af7b be3d 3d2d 82bd
000003f0: c46d 7fbe 3cb9 8b3e b0a9 bcbe aab3 003e

bias f4 [20]
1.1593153 -0.39415827 -0.1717759 0.9217399 1.0171282 -0.7458301 -0.7686664 1.3606712
0.13518658 1.2056301 -0.6133189 0.4901154 -0.0425483 0.8377298 -0.15821974 -0.7808286
1.2215936 0.96174014 -1.2033848 -0.8540887
00000000: 7264 943f 1dcf c9be 06e6 2fbe 25f7 6b3f
00000010: 4231 823f b9ee 3ebf 52c7 44bf 792a ae3f
00000020: 5a6e 0a3e 1652 9a3f 7802 1dbf 68f0 fa3e
00000030: 2047 2ebd 7675 563f 5b04 22be 62e4 47bf
00000040: 2e5d 9c3f 9a34 763f 8308 9abf 8fa5 5abf

weight f4 [20, 20]
0.28688076 0.22011134 -0.24585949 0.28356078 -0.013855311 0.15625197 0.10387619 0.16096781
-0.032296818 0.21173285 0.046454296 0.1604904 0.16853493 0.052718733 -0.24948902 0.05626715
0.2698798 0.20751911 0.044570368 -0.41150314 0.29772928 0.31881204 -0.40406197 0.07054576
0.13022399 -0.03851379 -0.090396404 0.42040846 0.07006872 0.25481376 -0.3230644 -0.10384452
0.017284399 0.13796479 -0.26942208 -0.46037892 0.5056154 -0.06884003 -0.46849138 -0.16441965
-0.43958524 -0.15981154 0.091669165 -0.2977679 -0.40018314 -0.15329592 0.07585209 -0.5087486
-0.15637918 -0.05041244 -0.07075115 -0.36603776 -0.09358819 0.05368594 0.52438086 0.34037024
-0.05767521 -0.09786527 0.18295005 0.25278136 -0.1211028 0.011621371 -0.3120501 -0.033666868
0.09851511 -0.18791863 -0.4277881 -0.04161202 -0.26775318 0.4435898 -0.06488441 0.2746913
-0.12029913 0.39848155 0.22855864 0.06978726 -0.22116263 0.27584985 -0.15703475 -0.31204218
-0.16093872 -0.26714328 -0.0084888125 -0.16164134 -0.5030806 -0.17517325 -0.23205025 -0.31809598
0.10683353 -0.3596281 0.34264818 -0.06995983 -0.23743424 -0.009950406 -0.0066760127 -0.13525113
-0.08664771 -0.0012847785 -0.0005705996 -0.18573405 -0.20985754 0.011722784 -0.45509487 0.071481444
-0.6395531 -0.11809218 0.09828697 -0.29790255 0.34553954 -0.20178221 0.016155357 0.2166983
-0.1674942 -0.35485518 0.022180684 0.3451728 0.23189569 -0.13517253 -0.011539411 0.58092743
-0.120308094 0.03952481 -0.07149144 0.2631099 0.18549171 -0.22795174 0.2635496 -0.18133032
0.06786433 0.0048006806 0.11487053 -0.033108737 -0.25463018 0.03718677 0.26173037 -0.6267708
-0.010306836 -0.15352851 -0.17717569 -0.49851978 0.23806012 0.03570204 -0.15001188 0.21744524
0.24803519 -0.27342755 -0.0032004204 -0.07434445 0.03734436 0.031718288 0.038865328 -0.10996442
-0.005139117 0.040686056 0.010031908 -0.21659304 -0.054116517 0.31079918 -0.52197343 -0.13581826
-0.15385514 -0.19367196 0.061254643 0.2902579 0.16165876 0.015485538 0.19277737 0.40142292
0.44231188 0.1267899 -0.19852161 -0.1013518 -0.027780894 -0.0025438662 -0.06660116 0.08362017
0.29571056 -0.3354012 -0.04570332 -0.35996667 0.0704703 -0.35120276 -0.112212464 0.5949544
0.31787327 -0.28760406 -0.22653246 0.03912672 -0.114436276 0.09379902 -0.20074424 0.025482805
-0.5142759 0.27660453 -0.26171207 -0.7736809 0.27771503 -0.042012457 -0.52341866 -0.2893079
0.1447859 0.23247899 0.36214292 -0.20325795 -0.22161125 0.15034504 0.38167107 -0.2438528
-0.005707307 0.13317844 0.18716489 -0.41842568 -0.1099478 -0.13436474 0.0236355 0.47591302
-0.24155375 -0.35758805 0.24077596 0.023701504 0.13744235 0.0800516 0.512585 0.023035046
-0.3100522 0.14888418 0.005875025 -0.37756258 0.18209316 -0.3195346 0.3464327 0.14630044
0.29808944 -0.001972664 -0.21222998 0.29443386 0.087339565 -0.2344902 0.51108545 -0.14520644
0.1623281 -0.15044598 0.27401194 -0.13926385 -0.1174288 0.26822895 -0.43339175 -0.3480886
0.21362773 0.34951246 -0.09611146 -0.17668961 0.13610674 0.10122006 0.24919389 0.25333625
00000000: 09e2 923e de64 613e 97c2 7bbe e12e 913e
00000010: 6301 63bc 8400 203e 0abd d43d bfd4 243e
00000020: ab49 04bd 7fd0 583e dc46 3e3d 9857 243e
00000030: 6c94 2c3e 99ef 573d 0d7a 7fbe 6278 663d
00000040: af2d 8a3e e47f 543e 6b8f 363d 8ab0 d2be
00000050: f96f 983e 553b a33e 36e1 cebe 4c7a 903d
00000060: 7059 053e a3c0 1dbd c021 b9bd c73f d73e
00000070: 3080 8f3d f376 823e b268 a5be 70ac d4bd
00000080: 0398 8d3c a446 0d3e b1f1 89be c9b6 ebbe
00000090: 0370 013f 00fc 8cbd 1ade efbe a05d 28be
000000a0: 5111 e1be a3a5 23be 0bbd bb3d 0975 98be
000000b0: cee4 ccbe 9bf9 1cbe 5758 9b3d 593d 02bf
000000c0: dd21 20be 467d 4ebd fbe5 90bd 4d69 bbbe
000000d0: 2aab bfbd cae5 5b3d d33d 063f 0245 ae3e
000000e0: d73c 6cbd 966d c8bd 4257 3b3e 8f6c 813e
000000f0: bf04 f8bd 9067 3e3c 08c5 9fbe 45e6 09bd
00000100: 4ac2 c93d be6d 40be 0b07 dbbe 5e71 2abd
00000110: f216 89be 341e e33e 1ee2 84bd 57a4 8c3e
00000120: 645f f6bd c605 cc3e 470b 6a3e 9fec 8e3d
00000130: 7578 62be 313c 8d3e b8cd 20be fec3 9fbe
00000140: 1fcd 24be 01c7 88be a914 0bbc 4f85 25be
00000150: e4c9 00bf 9e60 33be 959e 6dbe 7add a2be
00000160: 8acb da3d 2d21 b8be 956f af3e 1947 8fbd
00000170: f621 73be 0707 23bc 74c2 dabb 467f 0abe
00000180: 5b74 b1bd 0366 a8ba 4a94 15ba 1131 3ebe
00000190: e5e4 56be eb10 403c 3202 e9be dd64 923d
000001a0: c1b9 23bf 50da f1bd ae4a c93d af86 98be
000001b0: 8fea b03e ff9f 4ebe 3d58 843c 29e6 5d3e
000001c0: 9983 2bbe 94af b5be 44b4 b53c 7dba b03e
000001d0: 1076 6d3e ab6a 0abe cc0f 3dbc a9b7 143f
000001e0: 1764 f6bd c4e4 213d 1b6a 92bd 57b6 863e
000001f0: 8af1 3d3e 2e6c 69be f9ef 863e a8ae 39be
00000200: 74fc 8a3d 074f 9d3b 3e41 eb3d 079d 07bd
00000210: e35e 82be 2851 183d 8601 863e 0d74 20bf
00000220: 01de 28bc 9436 1dbe 8b6d 35be fc3d ffbe
00000230: 08c6 733e 4d3c 123d b79c 19be f7a9 5e3e
00000240: f0fc 7d3e b2fe 8bbe 25be 51bb e741 98bd
00000250: 66f6 183d 09eb 013d 4031 1f3d 0735 e1bd
00000260: 0a66 a8bb 6ca6 263d df5c 243c 91ca 5dbe
00000270: 48a9 5dbd 1221 9f3e 0da0 05bf f113 0bbe
00000280: 348c 1dbe f151 46be 26e6 7a3d af9c 943e
00000290: e089 253e 0eb7 7d3c 6e67 453e 4e87 cd3e
000002a0: b476 e23e 36d5 013e 4049 4bbe 8891 cfbd
000002b0: c294 e3bc feb6 26bb 3066 88bd 0d41 ab3d
000002c0: 6067 973e b5b9 abbe 6833 3bbd 8d4d b8be
000002d0: bc52 903d d9d0 b3be a6cf e5bd ee4e 183f
000002e0: 49c0 a23e d740 93be 20f8 67be 5743 203d
000002f0: 915d eabd b319 c03d e68f 4dbe 51c1 d03c
00000300: 96a7 03bf 1c9f 8d3e 20ff 85be f40f 46bf
00000310: aa30 8e3e 4115 2cbd c4fe 05bf 2a20 94be
00000320: c142 143e f90e 6e3e cc6a b93e da22 50be
00000330: 0fee 62be 0df4 193e 646a c33e 8cb4 79be
00000340: 5c04 bbbb ee5f 083e 27a8 3f3e e43b d6be
00000350: 502c e1bd e996 09be 3c9f c13c dfaa f33e
00000360: de59 77be c815 b7be f98d 763e a829 c23c
00000370: b0bd 0c3e 18f2 a33d c538 033f feb3 bc3c
00000380: 29bf 9ebe 1875 183e 4883 c03b e24f c1be
00000390: a176 3a3e 0a9a a3be a05f b13e c8cf 153e
000003a0: 2e9f 983e cf47 01bb d152 59be 09c0 963e
000003b0: 16df b23d 331e 70be 7fd6 023f ffb0 14be
000003c0: 5639 263e 830e 1abe 4b4b 8c3e 2f9b 0ebe
000003d0: 837e f0bd 4e55 893e 86e5 ddbe ab38 b2be
000003e0: 3ac1 5a3e 4cf3 b23e 16d6 c4bd 1fee 34be
000003f0: 915f 0b3e 764c cf3d af2c 7f3e 4ab5 813e

bias f4 [20]
1.5020012 1.3450067 -1.4352843 -0.45476958 -0.5351775 0.11605737 0.34175077 0.42134595
0.6348638 -0.1839527 -0.18687047 -1.2752814 -0.5156416 -0.7506836 -1.5776852 -0.542709
-0.95950586 -0.16760314 1.0240766 0.89106184
00000000: 9341 c03f 2e29 ac3f 65b7 b7bf 8fd7 e8be
00000010: 6501 09bf 7daf ed3d f5f9 ae3e a8ba d73e
00000020: 6f86 223f 195e 3cbe f95a 3fbe 6c3c a3bf
00000030: 1701 04bf cd2c 40bf 97f1 c9bf faee 0abf
00000040: 2da2 75bf 28a0 2bbe f114 833f a11c 643f

weight f4 [20, 20]
0.08550468 0.34427103 -0.61875296 -0.3009568 -0.25577492 -0.013616502 0.42618206 -0.07078462
0.3384164 0.32026914 0.2442846 -0.25389037 -0.36328483 0.10379937 -0.31085634 0.29908505
-0.52854055 0.4731859 0.21205558 0.06052715 0.22273587 0.5126762 0.095048115 0.43730047
-0.28719202 -0.12410605 -0.33858442 -0.16116302 0.27513215 0.22970076 -0.03726961 -0.2330322
-0.21818939 0.03637596 -0.096714415 0.093548305 0.3234824 0.12961055 0.12874869 0.062794834
-0.04277815 0.056027785 0.23411368 0.22091523 -0.1566599 -0.2858061 0.06916629 0.47792676
0.35645398 0.30078965 -0.20565449 -0.1946473 -0.46572903 -0.14133881 -0.08895834 0.13141201
-0.18662281 0.4185667 -0.123055585 0.37400264 -0.14101046 -0.1686638 0.6315806 -0.15280937
0.12940837 -0.16839603 -0.55501425 -0.10232547 0.026626628 0.22465214 -0.3797622 0.61141765
0.29966757 -0.008203567 0.41982162 0.12837438 0.54103434 -0.3409783 -0.4823182 -0.62859595
0.15654291 -0.16218075 0.15338163 -0.07935711 0.9341383 0.12372467 -0.58241075 -0.108330294
-0.3432145 0.09472237 0.039274517 0.08540602 -0.16828711 -0.039532673 0.051996116 -0.23434179
-0.10488453 0.057175506 0.15647596 0.1713642 -0.1061253 -0.4856657 0.03349237 0.0035958628
-0.08459398 0.44845223 0.17049477 0.24583186 -0.6029603 -0.50192356 0.65944 0.4171263
-0.16768205 0.44557863 0.1681491 0.46241853 0.1969808 -0.35184973 -0.30574042 -0.025816897
-0.75533456 -0.26579633 0.16962105 0.13705671 0.3974627 0.43849576 -0.67897856 -0.584032
-0.536381 -0.4502496 0.10938749 0.18471245 0.29959214 -0.7868924 0.23692521 0.18706368
0.13988031 -0.423497 -0.07085277 -0.48348624 0.4140833 -0.26438335 -0.036708612 0.28247064
-0.2965442 0.002998517 0.02606479 -0.15264301 -0.17179522 0.049137488 -0.10682253 -0.18957303
-0.2187999 0.30844998 0.02159903 0.17960544 0.052929547 0.10218131 -0.024069611 -0.12155184
-0.22326939 -0.39018396 0.089879654 0.104295425 0.17401181 -0.0025809389 -0.269315 -0.32833782
-0.2838546 0.45365408 -0.07432025 0.20545952 0.20795088 -0.66231066 0.117144674 -0.17579252
0.07341074 -0.0784724 -0.3204388 -0.5397879 0.32810736 0.40035927 -0.42023742 -0.63071257
0.092387214 0.21140285 -0.0025937404 0.30587816 -0.22567642 -0.44425097 0.080560654 -0.12732157
0.09650991 1.0210909 0.08901833 0.22872373 0.01565754 0.17925213 0.25844207 -0.043747112
0.046814166 -0.36468807 -0.13685507 -0.45421818 0.27875948 -0.25076023 -1.0580239 0.01951423
-0.007216785 0.15939055 -0.07388992 -0.31898838 0.13313133 -0.6330072 0.23011686 0.21349937
0.105297126 -0.31056702 0.34715512 -0.0013740262 -0.006695245 -0.24551602 0.31565365 -0.24833995
0.29138568 0.11850303 -0.2169005 -0.3280869 -0.13089189 -0.16571243 0.67154276 0.037194908
0.10031012 0.1025022 -0.035553407 0.00487031 -0.026838906 -0.09162952 0.19780254 -0.04777362
-0.6065464 -0.2019718 0.7229145 0.32595474 0.37325028 0.32312316 -0.058168434 -0.060407143
-0.35215077 -0.5001335 -0.21328983 0.3792773 0.5218247 -0.36152714 0.46208665 0.17925397
00000000: 141d af3d 4b44 b03e 9866 1ebf 0217 9abe
00000010: eef4 82be c017 5fbc 8934 da3e 87f7 90bd
00000020: ea44 ad3e 51fa a33e be25 7a3e ebfd 81be
00000030: 7800 babe c494 d43d 9028 9fbe ad21 993e
00000040: 6f4e 07bf 6c45 f23e 1925 593e 51eb 773d
00000050: df14 643e bf3e 033f 96a8 c23d d9e5 df3e
00000060: d50a 93be 502b febd f05a adbe eb07 25be
00000070: 1fde 8c3e ad36 6b3e 05a8 18bd fe9f 6ebe
00000080: 0a6d 5fbe f5fe 143d 3512 c6bd 4196 bf3d
00000090: 7c9f a53e a1b8 043e b2d6 033e 949a 803d
000000a0: 2438 2fbd 647d 653d 7fbb 6f3e 9a37 623e
000000b0: 746b 20be 2d55 92be 0ea7 8d3d d1b2 f43e
000000c0: 2381 b63e 1a01 9a3e 1797 52be 9f51 47be
000000d0: 0974 eebe 1fbb 10be ca2f b6bd df90 063e
000000e0: 0d1a 3fbe 604e d63e 9104 fcbd 467d bf3e
000000f0: 0c65 10be 34b6 2cbe 44af 213f 0f7a 1cbe
00000100: a183 043e 0270 2cbe 6a15 0ebf 0490 d1bd
00000110: 1620 da3c 360b 663e 3170 c2be de85 1c3f
00000120: 076e 993e 4168 06bc dcf2 d63e 9374 033e
00000130: 3a81 0a3f b594 aebe 69f2 f6be aaeb 20bf
00000140: c94c 203e b612 26be 1310 1d3e fb85 a2bd
00000150: b023 6f3f 5c63 fd3d df18 15bf 46dc ddbd
00000160: d0b9 afbe cdfd c13d 51de 203d 5ae9 ae3d
00000170: 7553 2cbe 03ed 21bd e1f9 543d 4bf7 6fbe
00000180: b3cd d6bd dd30 6a3d 3c3b 203e 197a 2f3e
00000190: 3958 d9bd 2da9 f8be 4c2f 093d 91a8 6b3b
000001a0: 9c3f adbd 889b e53e 2e96 2e3e 59bb 7b3e
000001b0: 9b5b 1abf 107e 00bf 0fd1 283f 9491 d53e
000001c0: d8b4 2bbe e222 e43e 472f 2c3e 1fc2 ec3e
000001d0: 56b5 493e a625 b4be 028a 9cbe f57d d3bc
000001e0: 9b5d 41bf 7516 88be 24b1 2d3e 9858 0c3e
000001f0: 3b80 cb3e 8482 e03e 8ad1 2dbf 1f83 15bf
00000200: 4450 09bf 1e87 e6be 8c06 e03d 4325 3d3e
00000210: 2464 993e c871 49bf 869c 723e 9f8d 3f3e
00000220: c93c 0f3e 99d4 d8be 421b 91bd 828b f7be
00000230: ba02 d43e 415d 87be c55b 16bd fe9f 903e
00000240: a4d4 97be c482 443b d485 d53c 734e 1cbe
00000250: 16eb 2fbe 6444 493d c5c5 dabd 6f1f 42be
00000260: 150d 60be 28ed 9d3e 73f0 b03c 7dea 373e
00000270: a7cc 583d 6f44 d13d a22d c5bc 2cf0 f8bd
00000280: bba0 64be 31c6 c7be d312 b83d d798 d53d
00000290: 2730 323e f824 29bb a8e3 89be e51b a8be
000002a0: 6455 91be 5945 e83e 3735 98bd fb63 523e
000002b0: 13f1 543e 318d 29bf 8ce9 ef3d f402 34be
000002c0: 5f58 963d 23b6 a0bd 8e10 a4be 8a2f 0abf
000002d0: b0fd a73e e4fb cc3e 5c29 d7be 6176 21bf
000002e0: 8235 bd3d fd79 583e befb 29bb 109c 9c3e
000002f0: b817 67be dd74 e3be fcfc a43d 9660 02be
00000300: fda6 c53d 1bb3 823f 3e4f b63d 8e36 6a3e
00000310: 3e44 803c df8d 373e 8552 843e 2c30 33bd
00000320: 36c0 3f3d 65b8 babe bc23 0cbe 498f e8be
00000330: 90b9 8e3e a563 80be 546d 87bf 4edc 9f3c
00000340: c87a ecbb 4737 233e 9953 97bd 7252 a3be
00000350: 9453 083e c30c 22bf c1a3 6b3e 949f 5a3e
00000360: 05a6 d73d a402 9fbe 51be b13e ab18 b4ba
00000370: c963 dbbb 8d68 7bbe 5b9d a13e d44c 7ebe
00000380: 8130 953e b7b1 f23d 2a1b 5ebe 02fb a7be
00000390: 8608 06be 85b0 29be 3aea 2b3f b059 183d
000003a0: 646f cd3d acec d13d 73a0 11bd 1f97 9f3b
000003b0: 44dd dbbc 42a8 bbbd c08c 4a3e 45ae 43bd
000003c0: a046 1bbf b2d1 4ebe ed10 393f 8ae3 a63e
000003d0: a91a bf3e 6670 a53e 0642 6ebd 7b6d 77bd
000003e0: 1b4d b4be c008 00bf a668 5abe a230 c23e
000003f0: 4e96 053f 161a b9be 9f96 ec3e 5a8e 373e

bias f4 [20]
1.8853756 -0.1611998 -0.8961048 -1.4443142 0.5765138 0.27944604 0.2985795 0.578624
-0.020669093 0.061951883 0.43301964 0.91926026 -1.221368 0.6032877 -1.4392253 2.1756957
1.792385 0.13557853 -0.42346603 0.69878465
00000000: fd53 f13f 8f11 25be 2067 65bf 4adf b8bf
00000010: 6996 133f 8d13 8f3e 6adf 983e b420 143f
00000020: 3b52 a9bc 42c1 7d3d c0b4 dd3e a454 6b3f
00000030: c955 9cbf 1071 1a3f 8938 b8bf 993e 0b40
00000040: df6c e53f 19d5 0a3e 8ad0 d8be 8de3 323f

weight f4 [20, 20]
1.0291917 0.66837496 -1.2055911 -0.95274985 0.7200389 0.9486791 1.0469633 1.0792044
0.60804135 2.0578368 0.54507303 0.6193587 -0.7607866 1.3797696 -0.7620433 1.0041723
0.82105637 0.12315734 1.1618598 1.1577342 -0.4155093 -0.34235927 0.44945014 0.55032843
0.13971682 -0.37862745 0.09272596 -0.1121813 0.39111286 -0.11018811 -0.21727926 0.2900053
1.0769956 -0.036467742 0.47310483 -1.1263977 -0.08008702 0.24130782 -0.44461596 -0.2103541
0.99162406 -0.93515724 -0.7159786 -0.97463304 0.20804709 1.7748989 0.46640533 -1.0838141
0.6018174 -0.9304728 0.20543294 1.451434 -0.8641076 1.653157 -0.9302273 0.62729853
1.0980805 -1.381985 -0.4924006 0.036382344 -0.46951762 0.7234759 0.6302239 0.4305889
-0.47065854 -0.6340342 -0.549366 0.55061936 -0.116094455 0.21643192 -0.310199 -0.6732393
0.24132201 -1.0003209 0.1539147 -0.74032843 -0.8605599 1.0074961 0.13963911 -0.22836027
-0.7811681 1.2913197 1.2906657 0.97122324 0.38599744 -1.2768611 -0.077559195 1.5232989
-0.106236495 0.61337775 0.056009084 -1.5599042 1.212779 -2.0637429 0.52373886 -0.8529785
-1.7433574 1.5993845 1.4109418 0.70114404 0.6810267 -0.7453228 -1.0154469 -0.7760469
0.115602456 1.1549001 0.61309 -0.6711405 0.027045917 -0.65154254 0.36810067 1.4490052
-0.5480855 1.4450275 -0.6595681 0.9102783 1.4278154 -0.8180085 -0.45105287 0.21996976
0.73876494 0.6774958 0.024123829 0.05758622 0.17498894 0.43437758 0.07088063 0.33528784
-0.13571617 0.3506792 0.12879731 -0.11094973 -0.57676274 -0.18876778 -0.3488611 0.498769
-0.38419208 0.40966403 0.4607176 0.2619988 -0.72014105 -0.8862338 0.008130249 0.50731325
-0.13304295 -0.07397427 0.3607028 -0.2350498 0.09738427 -0.3723874 0.24254805 -0.2414389
-0.042784017 0.31490466 0.46926382 -0.40035203 0.14797725 -0.16250584 0.13551012 -0.6520555
0.87229216 -0.33881354 -0.70069087 -0.7350245 0.6819201 1.1542376 1.3683879 -0.7608784
0.94654214 -0.39097905 0.44274172 1.5109625 -0.65863764 1.2247851 -1.0326662 1.2250688
1.2709851 -0.9142152 0.3231218 0.5586436 0.6573098 -0.4042302 -1.2269125 -1.2956212
0.21256402 1.161713 1.0655366 0.40710968 0.7069164 0.35906282 -0.17702341 1.270711
-1.0736915 1.5708251 -0.9465761 0.8278282 1.402588 -1.1056796 0.15416789 0.5811856
1.2407178 0.102376744 -0.9681608 -1.3582565 0.7364285 0.63020015 1.7005861 0.08178614
1.7126523 1.1216663 1.0690438 1.0226196 -1.0376089 1.5376732 -0.8217379 0.8407995
1.3399508 -0.7228698 1.5872465 1.4321036 0.9029993 -0.36854774 -0.4374986 -0.7835987
0.65952885 1.1929251 0.595843 -0.6996787 1.347469 0.031597517 0.83866554 1.1396309
-0.10517858 1.5995011 -0.28435236 0.6415197 0.4030874 -0.20242824 0.06429831 0.5752998
-1.0231656 0.8030728 1.3165965 1.2704804 -0.460792 -1.6457359 -0.893626 0.5137992
-0.36965576 0.1865846 -0.45749888 -1.0702199 1.7035218 -2.0245342 1.1649435 -0.91951966
00000000: 8ebc 833f 9f1a 2b3f cf50 9abf 6ae7 73bf
00000010: 7854 383f a2dc 723f e502 863f 5f23 8a3f
00000020: 99a8 1b3f 99b3 0340 e889 0b3f 4b8e 1e3f
00000030: e9c2 42bf 4a9c b03f 4515 43bf b888 803f
00000040: c030 523f ea39 fc3d d2b7 943f a230 943f
00000050: a3bd d4be b749 afbe 541e e63e 53e2 0c3f
00000060: ed11 0f3e 75db c1be 1ce7 bd3d 4fbf e5bd
00000070: f23f c83e 4eaa e1bd 747e 5ebe 937b 943e
00000080: feda 893f 335f 15bd cc3a f23e cd2d 90bf
00000090: aa04 a4bd 6619 773e b4a4 e3be 1167 57be
000000a0: 13db 7d3f 7766 6fbf 604a 37bf 8d81 79bf
000000b0: 4c0a 553e e32f e33f aecc ee3e 6cba 8abf
000000c0: b510 1a3f 7733 6ebf 035d 523e 97c8 b93f
000000d0: 2836 5dbf a69a d33f 6023 6ebf a396 203f
000000e0: e78d 8c3f e2e4 b0bf ee1b fcbe a705 153d
000000f0: 9d64 f0be b735 393f 5a56 213f 2676 dc3e
00000100: 28fa f0be 1150 22bf 40a3 0cbf 64f5 0c3f
00000110: eec2 edbd 54a0 5d3e 67d2 9ebe 6959 2cbf
00000120: 1e1d 773e 840a 80bf d19b 1d3e 2a86 3dbf
00000130: a74d 5cbf a2f5 803f 8efd 0e3e 46d7 69be
00000140: a2fa 47bf f749 a53f 8934 a53f 16a2 783f
00000150: 75a1 c53e 2f70 a3bf 5bd7 9ebd 75fb c23f
00000160: 8592 d9bd 5306 1d3f c869 653d f1aa c7bf
00000170: 583c 9b3f 5d14 04c0 c013 063f cd5c 5abf
00000180: 5626 dfbf a2b8 cc3f be99 b43f 2d7e 333f
00000190: c457 2e3f 7acd 3ebf 2afa 81bf 02ab 46bf
000001a0: fbc0 ec3d c4d3 933f 77f3 1c3f ddcf 2bbf
000001b0: 668f dd3c 7ecb 26bf b177 bc3e 0179 b93f
000001c0: 554f 0cbf a9f6 b83f 74d9 28bf 0008 693f
000001d0: a8c2 b63f 0169 51bf 67f0 e6be c13f 613e
000001e0: b31f 3d3f 5d70 2d3f 569f c53c 87df 6b3d
000001f0: 4d30 333e bd66 de3e dd29 913d d9aa ab3e
00000200: 2ef9 0abe 398c b33e 71e3 033e 9d39 e3bd
00000210: b9a6 13bf 574c 41be ec9d b2be a65e ff3e
00000220: d3b4 c4be 7cbf d13e 2de3 eb3e b524 863e
00000230: 2a5b 38bf 38e0 62bf bc34 053c 48df 013f
00000240: 693c 08be d27f 97bd 0aae b83e e5b0 70be
00000250: 6771 c73d 90a9 bebe 845e 783e c23b 77be
00000260: 4b3e 2fbd 2f3b a13e 5943 f03e f1fa ccbe
00000270: 5987 173e ee67 26be 2ac3 0a3e 1ced 26bf
00000280: 8a4e 5f3f f878 adbe 7a60 33bf 912a 3cbf
00000290: 5192 2e3f 0fbe 933f 5627 af3f edc8 42bf
000002a0: 9650 723f 682e c8be 0baf e23e 3867 c13f
000002b0: 7a9c 28bf c2c5 9c3f 682e 84bf 0ecf 9c3f
000002c0: a4af a23f 020a 6abf 3870 a53e 4403 0f3f
000002d0: 7445 283f 43f7 cebe 780b 9dbf ead6 a5bf
000002e0: 62aa 593e 03b3 943f 8163 883f ae70 d03e
000002f0: 79f8 343f 15d7 b73e a045 35be a8a6 a23f
00000300: b96e 89bf cc10 c93f d052 72bf 8dec 533f
00000310: 0188 b33f e986 8dbf 30de 1d3e 94c8 143f
00000320: d7cf 9e3f e6aa d13d 63d9 77bf 59db adbf
00000330: 9486 3c3f cc54 213f ceac d93f 7e7f a73d
00000340: 3138 db3f c392 8f3f 6dd6 883f 33e5 823f
00000350: 5ed0 84bf 7ad2 c43f 6a5d 52bf a33e 573f
00000360: 8283 ab3f ff0d 39bf e52a cb3f 2c4f b73f
00000370: f62a 673f 4ab2 bcbe d1ff dfbe ed99 48bf
00000380: e2d6 283f c5b1 983f 2b89 183f 251e 33bf
00000390: dd79 ac3f 666c 013d c9b2 563f 6ddf 913f
000003a0: de67 d7bd 74bc cc3f a296 91be a33a 243f
000003b0: 7961 ce3e 5949 4fbe d5ae 833d d946 133f
000003c0: 17f7 82bf 2e96 4d3f 3c86 a83f 1a9f a23f
000003d0: eeec ebbe 79a7 d2bf acc4 64bf 5888 033f
000003e0: 8543 bdbe 0910 3f3e 4b3d eabe f7fc 88bf
000003f0: 010d da3f f891 01c0 de1c 953f a465 6bbf

bias f4 [20]
1.0303054 -2.0492983 0.19648711 0.31272754 -0.11874057 0.3887987 2.303276 -1.823741
0.29347867 1.4730301 0.9040079 -0.08204268 -1.7516156 -1.9649204 -0.62596065 -1.0739241
-0.034124974 2.8765025 -0.27402243 -0.67255723
00000000: 0ce1 833f b427 03c0 eb33 493e d31d a03e
00000010: 422e f3bd a010 c73e e068 1340 5870 e9bf
00000020: d642 963e 408c bc3f 106d 673f fe05 a8bd
00000030: f134 e0bf 8382 fbbf f53e 20bf 5876 89bf
00000040: a1c6 0bbd 9e18 3840 ab4c 8cbe b62c 2cbf

weight f4 [1, 20]
-2.195008 -5.585114 -5.2849393 3.929248 5.1610246 -5.1076384 6.015773 -5.2665095
-4.156162 -2.5632713 -3.8768606 -5.4027824 5.6196847 -5.754129 -4.2942896 3.2633739
5.4681296 5.727892 3.9176705 -4.7967215
00000000: 037b 0cc0 41b9 b2c0 391e a9c0 cd78 7b40
00000010: 1d27 a540 c671 a3c0 3681 c040 3f87 a8c0
00000020: 47ff 84c0 a30c 24c0 7c1e 78c0 98e3 acc0
00000030: 75d4 b340 d321 b8c0 d26a 89c0 1edb 5040
00000040: ebfa ae40 e44a b740 1dbb 7a40 be7e 99c0

u_b f4 [2]
19.900352 39.96
00000000: ec33 9f41 0ad7 1f42

l_b f4 [2]
10.033793 0.0
00000000: 6b8a 2041 0000 0000
