Iter_03/Models/Noise_5/simulation_10_20/ff_400.pt (torch, 43997 bytes, 23 tensors)

weight f4 [20, 2]
0	0x3db24334	0.08704224
1	0x3e762aa4	0.24039704
2	0xbefc8a3d	-0.49324217
3	0xbe426236	-0.18982777
4	0x3c4f1da1	0.012641341
5	0x3dd72830	0.10505712
6	0x3f3104f1	0.69148165
7	0x3f531107	0.82447857
8	0xbd18c634	-0.037298396
9	0xbebf3c67	-0.3735077
10	0x3ed30f42	0.41222578
11	0xbdc6a8bc	-0.09700152
12	0xbdac7232	-0.084202185
13	0x3dd15d09	0.10222823
14	0x3f0103f9	0.50396687
15	0x3d802068	0.06256181
16	0xbf0f226b	-0.5591189
17	0xbe89dea7	-0.26927683
18	0xbe5fa16e	-0.21838924
19	0x3d748485	0.059696693
20	0x3e7eb79a	0.24874726
21	0x3ea9118b	0.33021197
22	0xbe6b88ca	-0.230014
23	0xbe41feb5	-0.1894482
24	0xbf3b25e5	-0.731047
25	0xbf5d5df8	-0.8647151
26	0x3daaf022	0.08346583
27	0x3eb486a0	0.3525896
28	0xbe9be02f	-0.30444476
29	0xbf2cd0b8	-0.6750598
30	0x3f3fb40f	0.7488412
31	0x3eb20551	0.3476968
32	0xbf04f86a	-0.5194155
33	0xbfcf5450	-1.6197605
34	0xbf300b1f	-0.6876697
35	0xbe99b63e	-0.30021852
36	0xbeb553ca	-0.35415488
37	0xbecc7b35	-0.3993775
38	0xbe861183	-0.26185235
39	0xbe8a5066	-0.27014464

bias f4 [20]
0	0x3e96af82	0.29430777
1	0xbf1b3a6c	-0.6063602
2	0x3f26094b	0.6485793
3	0x3ee6adc5	0.4505445
4	0xbdf90c8f	-0.121605985
5	0x3e755d17	0.23961292
6	0x3e02e20b	0.12781541
7	0x3f4cc5b2	0.7998916
8	0xbf882b8d	-1.0638291
9	0x3d3e8909	0.046517406
10	0x3ee1c8cc	0.44098508
11	0xbf18731a	-0.5955063
12	0xbfa8cf5b	-1.318828
13	0x3f3db55b	0.7410485
14	0xbf2e83c7	-0.68169826
15	0x3f53b4e4	0.8269789
16	0xbfe020a1	-1.7509958
17	0x3b2e4277	0.002658991
18	0xbf330788	-0.69933367
19	0xbf079050	-0.5295458

weight f4 [20, 20]
0	0x3e56af28	0.20965254
1	0x3dfd36fa	0.123640016
2	0x3d4e9a48	0.050440103
3	0xbec120bc	-0.37720287
4	0x3e5d450f	0.21608375
5	0x3c73d1cd	0.014881563
6	0x3e73c75d	0.2380652
7	0x3e5b82ad	0.21436568
8	0x3e398f5b	0.18121092
9	0x3ed62a97	0.41829368
10	0x3e914f6c	0.28380907
11	0xbc3d0cc7	-0.011538691
12	0x3ea48e7e	0.32139963
13	0x3e81b30a	0.25331908
14	0x3f1f995d	0.6234339
15	0xbe90a713	-0.28252468
16	0xbccf5f53	-0.025314009
17	0x3e06a4d9	0.13148822
18	0xbdfc8562	-0.12330128
19	0x3da2b3d9	0.079444595
20	0x3e85ff6d	0.26171437
21	0x3e080135	0.1328171
22	0x3d791175	0.060807664
23	0xbe23bd07	-0.15990077
24	0xbdb05b7b	-0.086111985
25	0xbedf1c0f	-0.43576095
26	0xbecef874	-0.4042393
27	0xbe3f8f31	-0.18706967
28	0x3e3c5aa6	0.18393955
29	0xbca5818b	-0.020203372
30	0xbd69718b	-0.05699305
31	0xbda4f145	-0.08053831
32	0xbe2a1bc7	-0.16612159
33	0x3e0e7bcf	0.13914417
34	0xbe369361	-0.17829658
35	0x3e03f7ec	0.12887543
36	0x3e204f49	0.15655245
37	0x3e8b539d	0.2721223
38	0x3cf6ca76	0.030125838
39	0xbc8ed3e7	-0.017435027
40	0x3ea1f172	0.3162952
41	0x3e004be5	0.12528951
42	0xbe6e4a1b	-0.23270456
43	0xbf0524df	-0.52009386
44	0x3f1c4c9f	0.61054415
45	0xbd395245	-0.045244474
46	0xbd6ae9f8	-0.057352036
47	0x3e64df01	0.22350694
48	0x3e31bdf5	0.17357619
49	0xbe860b20	-0.26180363
50	0xbe4d88ac	-0.20071667
51	0x3e463859	0.19357432
52	0xbe8d8b75	-0.2764546
53	0xbcc810e0	-0.02442211
54	0x3b556e6a	0.0032567033
55	0xbcbfe6ab	-0.02342542
56	0x3dbc8f5d	0.09207032
57	0xbd7570ea	-0.059922136
58	0x3d230c29	0.03980652
59	0xbeeddf5c	-0.46459472
60	0x3e6047cd	0.2190239
61	0x3d2a77ec	0.041618273
62	0xbeb65909	-0.35614803
63	0x3ec45bdc	0.38351333
64	0x3dd10a80	0.10207081
65	0x3e62a6d3	0.22133951
66	0xbeb38a6a	-0.3506654
67	0x3dd48b79	0.10378165
68	0xbda4cd73	-0.08046999
69	0x3d3c1108	0.04591468
70	0x3df8d818	0.121505916
71	0x3e5a04d0	0.21290898
72	0x3ea2e10b	0.3181232
73	0xbd8cf5e6	-0.06882839
74	0x3c217ed5	0.009856899
75	0x3d4e12f0	0.05031103
76	0xbe7bcd31	-0.24589993
77	0xbe50fafe	-0.20408246
78	0x3e4b7b82	0.19871333
79	0x3e7970ec	0.24359483
80	0x3ebbf7de	0.36712545
81	0x3d5c0b54	0.05372174
82	0xbe7d255e	-0.24721286
83	0x3f217cb6	0.6308092
84	0xbee75868	-0.45184636
85	0xbe981576	-0.29703873
86	0x3d5a7d2e	0.053342037
87	0x3e2e45b9	0.17018785
88	0x3e582893	0.21109228
89	0xbe3f4c07	-0.18681346
90	0x3e30c2e3	0.17261843
91	0x3dc95591	0.098307736
92	0xbde5b7fc	-0.11216733
93	0xbeaa186d	-0.3322176
94	0xbe8d7743	-0.27630052
95	0x3e61d448	0.22053635
96	0xbf02c358	-0.5107932
97	0xbebd241c	-0.36941612
98	0x3d4ff09f	0.050766584
99	0x3ea2b8a0	0.31781483
100	0xbd82e5cb	-0.06391486
101	0x3dfebaf9	0.12438006
102	0x3e3623ce	0.17787096
103	0x3d6bb806	0.057548545
104	0x3e159e0d	0.14611073
105	0x3e726047	0.2366954
106	0xbe5a93f1	-0.21345498
107	0xbe151d14	-0.14561874
108	0x3d5cadda	0.053876735
109	0xbe828a14	-0.2549597
110	0x3dd81eb9	0.10552735
111	0xbd700a5b	-0.058603626
112	0xbe72b383	-0.23701291
113	0xbe8ae555	-0.2712809
114	0x3f0ee3a1	0.55816084
115	0x3d2f6942	0.04282499
116	0xbe3fd545	-0.187337
117	0xbd8c805b	-0.06860419
118	0x3e3cf7b7	0.1845387
119	0x3e9202ba	0.28517705
120	0xbed51840	-0.41620064
121	0xbd444f00	-0.047926903
122	0xbd2dee25	-0.04246344
123	0x3daf10f9	0.08548159
124	0xbe2553ee	-0.16145298
125	0xbf045126	-0.5168632
126	0x3e3e3ed4	0.18578655
127	0x3cd6b6c1	0.02621019
128	0x3e95dc06	0.29269427
129	0xbe91756e	-0.28409904
130	0x3e30d1c6	0.17267522
131	0xbe01a51e	-0.12660643
132	0x3c22bc04	0.009932522
133	0xbd584c6e	-0.052807264
134	0x3e5d68b9	0.2162198
135	0x3df5f03c	0.12008712
136	0xbe053f16	-0.13012347
137	0xbea4cd18	-0.32187724
138	0x3d8aab8e	0.06771003
139	0xbe35b871	-0.1774614
140	0x3e4b8d8c	0.19878215
141	0x3ee24a72	0.44197422
142	0xbd9ac063	-0.07556226
143	0x3eeaaf7a	0.45837003
144	0x3e2ba1f3	0.16760997
145	0x3e1745a6	0.14772663
146	0xbef5dbff	-0.48019406
147	0xbce894a5	-0.028391192
148	0x3e13ad45	0.14421566
149	0xbe19ec6f	-0.15031599
150	0x3e030cdc	0.12797874
151	0x3e8186a3	0.25298032
152	0x3e758b5f	0.23978947
153	0xbee879b6	-0.45405358
154	0xbdb71f93	-0.08941569
155	0xbe28642a	-0.1644446
156	0xbe655aee	-0.22397968
157	0xbeff6181	-0.49879077
158	0xbe3286ec	-0.17434281
159	0x3e8d37da	0.27581674
160	0x3e0b2251	0.1358731
161	0xbe130114	-0.1435588
162	0xbe4e5e72	-0.20153216
163	0x3ec6d678	0.38835502
164	0xbeaf276d	-0.34209767
165	0x3e3afafc	0.18259805
166	0xbe83aaf9	-0.2571638
167	0xbe2041db	-0.15650122
168	0xbe3fbc77	-0.18724237
169	0xbe285ff3	-0.16442852
170	0x3e1cb011	0.15301539
171	0x3e198378	0.14991558
172	0x3d6549d3	0.055978607
173	0xbe088fba	-0.13336077
174	0xbd0e13c5	-0.034686822
175	0x3ee0830c	0.4384998
176	0x3e07cd54	0.1326192
177	0xbc41bf74	-0.011825431
178	0x3e17a548	0.14809144
179	0xbe4b90d9	-0.19879474
180	0x3dfb43bb	0.12268778
181	0x3d43302b	0.04765336
182	0x3d5e8e60	0.054334998
183	0x3f070b55	0.52751666
184	0x3eb0b229	0.34510925
185	0x3e8471b1	0.2586799
186	0x3dbeb2c8	0.093114436
187	0xbc2ecf0c	-0.010669481
188	0x3f250ee4	0.64475846
189	0x3d303c43	0.04302622
190	0x3e084aef	0.13309835
191	0xbe1a3482	-0.15059093
192	0xbdbeafab	-0.0931085
193	0x3da43f5f	0.080198996
194	0xbe78bbb8	-0.24290359
195	0x3cc08687	0.023501648
196	0x3e85bbfa	0.26119977
197	0xbed73cda	-0.42038614
198	0xbe389cbc	-0.1802854
199	0x3d8e8103	0.06958201
200	0xbc022e89	-0.007945665
201	0x3e1d08a9	0.15335335
202	0xbee184ce	-0.44046634
203	0x3f2836f5	0.6570886
204	0xbec30dd6	-0.38096493
205	0xbe0dd3cb	-0.13850324
206	0xbe99dd2c	-0.30051553
207	0xbdd54d79	-0.10415167
208	0x3f0affc6	0.5429653
209	0xbf25a423	-0.6470358
210	0x3d0fe5aa	0.035131134
211	0xbd3e55a3	-0.04646839
212	0xbf067608	-0.5252385
213	0xbebc9f55	-0.3684031
214	0xbe38a0a7	-0.18030034
215	0x3e717082	0.23578075
216	0xbeea769b	-0.45793614
217	0xbe3b401b	-0.18286173
218	0x3e2d8bc2	0.16947845
219	0xbe58e14c	-0.21179694
220	0xbec92a93	-0.39290294
221	0x3e1c3ca7	0.15257512
222	0x3caec68d	0.02133491
223	0x3f213edf	0.6298656
224	0xbe6b2f66	-0.229673
225	0x3d91c886	0.07118325
226	0xbd501af1	-0.050806943
227	0xbe844a09	-0.25837734
228	0xbda9f41b	-0.082985125
229	0x3e729234	0.23688585
230	0x3e0b5a18	0.13608587
231	0x3f113cef	0.567336
232	0xbdfdddab	-0.123957954
233	0xbe881408	-0.26577783
234	0x3e005e04	0.12535864
235	0xbde882ad	-0.113530494
236	0xbdd8d116	-0.10586755
237	0xbea87ec4	-0.32909214
238	0x3e70005f	0.23437642
239	0x3d4e0b49	0.05030373
240	0xbeb7b366	-0.35879058
241	0x3e0450ab	0.12921397
242	0x3f192848	0.5982709
243	0xbf344246	-0.70413625
244	0xbdc119a0	-0.09428716
245	0x3e98d760	0.29851818
246	0x3de77f78	0.113036096
247	0x3cfbc3e2	0.030733053
248	0xbe07311c	-0.13202327
249	0x3ec6bb34	0.388147
250	0xbe3da396	-0.18519434
251	0x3da8c55f	0.082407705
252	0x3e6b5e03	0.22985081
253	0x3e4f34d8	0.20235002
254	0x3e01c539	0.1267289
255	0xbd7955e5	-0.06087293

bias f4 [20]
0	0xbf34ab7d	-0.7057417
1	0xbe56a6a5	-0.20962007
2	0x3d0099f1	0.03139681
3	0x3eb6488d	0.35602227
4	0x3f7e4f28	0.9933953
5	0x3e8c5531	0.27408746
6	0x3dde6ec6	0.10860972
7	0x3f4cd4a2	0.8001195
8	0x3ed6a8cf	0.41925666
9	0x3f613826	0.879763
10	0x3f48da13	0.78457755
11	0x3f5da508	0.8657994
12	0xbfb950c6	-1.4477775
13	0xbf67b783	-0.9051439
14	0x3dbf9342	0.09354259
15	0xbfaf23a7	-1.3682755
16	0x3e403460	0.1876998
17	0xbf8fb181	-1.1226045
18	0xbff5125d	-1.9146229
19	0x3f14ca89	0.58121544

weight f4 [20, 20]
0	0x3e4a444e	0.19752619
1	0xbe9910f3	-0.29895744
2	0x3e5c7242	0.21527961
3	0x3dd202d2	0.10254444
4	0xbe3147c8	-0.17312539
5	0xbcd770f2	-0.026298974
6	0x3d03434c	0.0320466
7	0x3eba3875	0.36371198
8	0xbf266c62	-0.6500913
9	0x3e990211	0.2988439
10	0xbd7c16a5	-0.061545033
11	0x3eb8f144	0.3612157
12	0x3dc48461	0.09595562
13	0x3daf29eb	0.08552917
14	0x3e55d365	0.20881422
15	0xbe3cc305	-0.18433769
16	0x3f0bc2a3	0.5459387
17	0xbdc291f4	-0.095004946
18	0x3e0ef850	0.13961911
19	0xbe44f14d	-0.19232674
20	0x3e99b5ff	0.30021665
21	0x3d08d742	0.03340841
22	0x3d0935ed	0.033498693
23	0x3cc34605	0.023837099
24	0x3c7cdd66	0.015433645
25	0x3e80e13a	0.25171834
26	0x3e7c7dab	0.24657314
27	0xbe88f540	-0.2674961
28	0xbdb3ebc2	-0.087852016
29	0x3e0cf571	0.13765503
30	0xbe4d3637	-0.20040213
31	0x3ea4f6b1	0.3221946
32	0x3bd81ce6	0.006595242
33	0x3d4e8e36	0.05042859
34	0xbd60f8ca	-0.054924764
35	0x3ecdc900	0.40192413
36	0xbdaefdaf	-0.0854448
37	0x3edba74f	0.42901084
38	0x3ebbae28	0.36656308
39	0xbd35bf65	-0.04437198
40	0xbe82ac13	-0.25521907
41	0xbcf3d685	-0.029765377
42	0x3e25d551	0.16194655
43	0xbecd353d	-0.4007968
44	0x3dc42c27	0.09578734
45	0x3e5382aa	0.20655313
46	0x3e18c778	0.14919841
47	0xbccdb9a4	-0.025112934
48	0x3c1e3e46	0.009658402
49	0x3ea93ab8	0.3305261
50	0xbef86ed5	-0.48522058
51	0xbe2dc7a5	-0.1697069
52	0xbde464f0	-0.11152065
53	0x3cbfd7e9	0.023418384
54	0xbe1be9f3	-0.15225963
55	0x3ef36111	0.47534993
56	0x3e97e095	0.2966353
57	0x3e05fad6	0.13083968
58	0xbd51dc9b	-0.051235776
59	0x3e3be7b3	0.18350105
60	0x3e4e73f0	0.20161414
61	0xbc00a095	-0.007850786
62	0x3d44e471	0.04806942
63	0xbe8fb1a8	-0.28065228
64	0xbe8851a6	-0.26624793
65	0xbd596973	-0.05307908
66	0xbf44349d	-0.7664278
67	0xbef1ee20	-0.47251987
68	0xbe8c6335	-0.2741944
69	0x3cab2706	0.020892631
70	0xbed12600	-0.40849304
71	0x3e0becce	0.13664553
72	0xbe8a6338	-0.27028823
73	0xbe0fab81	-0.14030267
74	0xbea12f56	-0.31481427
75	0x3e7a7285	0.24457748
76	0x3e59c093	0.21264867
77	0xbd975016	-0.07388322
78	0x3d95999f	0.073046915
79	0x3f1dbb7b	0.616142
80	0x3eb6369d	0.35588542
81	0xbccc05bc	-0.024905078
82	0x3d5cac62	0.053875335
83	0xbd54fd4d	-0.05199938
84	0x3e1b17dc	0.1514582
85	0xbe96f15d	-0.2948102
86	0xbe18f3dc	-0.14936775
87	0xbe3f1799	-0.18661346
88	0x3dedfdbe	0.11620663
89	0xbceecf1c	-0.029151492
90	0xbee0777d	-0.43841162
91	0xbeadcfb6	-0.33947533
92	0x3cd43909	0.025906103
93	0xbf0ce6c0	-0.55039597
94	0x3ee878f2	0.45404774
95	0x3e96ed56	0.29477948
96	0xbe960e2a	-0.2930768
97	0xbe37bf26	-0.17944011
98	0x3ef14864	0.47125542
99	0x3e3f3fcd	0.18676682
100	0xbe50413a	-0.20337382
101	0xbdb9aaa8	-0.09065753
102	0x3dcd74f5	0.100320734
103	0xbe7b633b	-0.24549572
104	0xbe7cb8bc	-0.24679846
105	0x3b9101ef	0.0044252793
106	0x3cc35bb2	0.023847435
107	0xbed29dbf	-0.41135976
108	0x3d923223	0.07138469
109	0x3d6527b7	0.05594608
110	0xbe9e9911	-0.30976155
111	0xbd1de37a	-0.038547017
112	0x3ea87360	0.32900524
113	0x3d8691cc	0.06570777
114	0x3eb2e62c	0.34941232
115	0xbd62ac03	-0.055339824
116	0x3dedd65e	0.11613153
117	0x3e2347d1	0.15945365
118	0x3e0c2db4	0.1368931
119	0xbee152c9	-0.44008473
120	0x3e9e8190	0.30958223
121	0xbc94ccca	-0.018164057
122	0xbd4b5db1	-0.049649898
123	0x3e945fd2	0.28979355
124	0x3d43bdbb	0.047788363
125	0xbdc18b72	-0.09450425
126	0xbdf1b49d	-0.118020274
127	0x3e726453	0.23671083
128	0xbc2ed4cb	-0.010670851
129	0xbce75151	-0.028237017
130	0x3ea92d7b	0.3304251
131	0x3dab90cb	0.083772264
132	0xbda675db	-0.08127948
133	0x3ec5380a	0.38519317
134	0xbe1f701d	-0.15570112
135	0x3ec3e955	0.38263956
136	0x3d881524	0.06644657
137	0xbf12b7e4	-0.57311845
138	0xbe36a1aa	-0.17835107
139	0x3cfa8180	0.030579329
140	0xbe17ff6e	-0.14843532
141	0x3e282e74	0.1642397
142	0xbae34fa4	-0.001734246
143	0x3e38ee77	0.18059717
144	0xbb2d9642	-0.0026487266
145	0xbc0a9c55	-0.008460124
146	0xbe7bc2a5	-0.2458597
147	0x3e96b374	0.29433787
148	0x3ea6db45	0.32589164
149	0x3e3a4399	0.18189849
150	0x3d80ac41	0.06282855
151	0xbdd3d696	-0.103436634
152	0xbe33486a	-0.17508093
153	0xbe12f6a7	-0.14351903
154	0x3d08db43	0.03341223
155	0x3dc5fb65	0.0966709
156	0xbdbbe5f2	-0.09174718
157	0x3eb18962	0.34675127
158	0xbb9e9b17	-0.0048402655
159	0x3dcf85ae	0.10132919
160	0xbd9dcdeb	-0.07705291
161	0xbd52f9e7	-0.051507857
162	0xbeae177e	-0.34002298
163	0x3efde456	0.4958827
164	0x3e916e41	0.2840443
165	0x3dde2222	0.10846354
166	0x3d825a47	0.06364875
167	0x3c9a983d	0.018871421
168	0x3e651d91	0.2237456
169	0xbc87dee6	-0.016585778
170	0x3dd22bc7	0.10262256
171	0x3e83bf25	0.2573177
172	0xbe6a2ef0	-0.22869468
173	0xbe94e104	-0.29077923
174	0x3e9de8f0	0.3084178
175	0xbe029d7c	-0.12755388
176	0xbe0e1d46	-0.13878354
177	0xbe5dc2c5	-0.2165633
178	0x3e952c44	0.29135334
179	0xbeb07f40	-0.34472084
180	0x3ee357b0	0.44402838
181	0xbe5cfa3e	-0.21579835
182	0x3ca57db3	0.02020154
183	0xbe527bda	-0.20555058
184	0xbea75b6a	-0.3268693
185	0x3ede2365	0.4338638
186	0xbef9de24	-0.48802292
187	0x3d8f6c45	0.07003073
188	0xbe04dd73	-0.12975101
189	0x3e50b784	0.20382506
190	0xbe89fbf0	-0.26950026
191	0x3e6d5ab3	0.2317913
192	0xbe2f5ae5	-0.17124517
193	0xbe2f6110	-0.1712687
194	0xbeb53520	-0.35392094
195	0x3eaae156	0.33375043
196	0x3e38d2f4	0.18049222
197	0x3e181cb8	0.14854705
198	0x3e5df7ff	0.21676634
199	0xbd9ae25e	-0.07562707
200	0x3e46dbc9	0.19419779
201	0x3cbc9e7c	0.02302479
202	0x3e1701d2	0.14746788
203	0xbcc2e102	-0.023788933
204	0x3cfca45e	0.030840095
205	0x3dca309c	0.09872553
206	0x3da0d43a	0.07852979
207	0xbdf42aa0	-0.119221926
208	0xbe14382f	-0.14474557
209	0x3e309535	0.17244418
210	0xbe4da2f6	-0.20081696
211	0x3e16c78d	0.1472456
212	0x3cdaadb8	0.026694164
213	0x3e54fa89	0.20798697
214	0xbec1393d	-0.37738982
215	0x3e9c108e	0.3048138
216	0x3dc86911	0.09785665
217	0xbea27d9b	-0.31736454
218	0xbd7112de	-0.058855884
219	0xbe825772	-0.2545734
220	0x3c838ff6	0.016059857
221	0x3dc02a6e	0.09383093
222	0x3bd03937	0.006354477
223	0xbe96b9ba	-0.29438573
224	0x3e0bf1b2	0.13666418
225	0xbe380127	-0.1796919
226	0xbd5eed34	-0.054425433
227	0xbdc1a869	-0.0945595
228	0xbedd7bda	-0.43258554
229	0x3e85e32b	0.26149878
230	0xbeca34bf	-0.39493367
231	0xbd07982c	-0.033104107
232	0x3e8c0810	0.273499
233	0x3e77ea04	0.24210364
234	0xbde5c809	-0.11219794
235	0x3eb4db93	0.35323772
236	0x3df7c526	0.1209815
237	0x3f3ba2b5	0.73295146
238	0xbd8ca6d0	-0.068677545
239	0x3e02ef8d	0.12786694
240	0xbe9fbe25	-0.31199756
241	0x3de8794d	0.11351261
242	0xbeb29952	-0.348826
243	0x3dc21bb9	0.09477944
244	0x3e9bac74	0.3040501
245	0xbec25268	-0.37953496
246	0x3d536f66	0.05161991
247	0x3eaefe66	0.34178466
248	0x3da03cdb	0.07824107
249	0xbb9042a6	-0.0044024764
250	0x3ea8ea54	0.32991278
251	0xbdf8e12b	-0.121523224
252	0xbe8b3a8e	-0.2719311
253	0xbec47f49	-0.3837836
254	0x3e9793d0	0.2960496
255	0xbf47ec61	-0.7809506

bias f4 [20]
0	0xbf1ed350	-0.6204119
1	0x3e04f548	0.12984192
2	0xbf56f0c8	-0.83961153
3	0xbf9fb8f8	-1.2478323
4	0xbd1528be	-0.036415808
5	0xbec4055c	-0.3828534
6	0x3ebcd7df	0.36883447
7	0xbeb1ab4c	-0.34701002
8	0x3e9c283b	0.30499443
9	0xbf962529	-1.173009
10	0xbdb7e297	-0.089787655
11	0xbf0fc7aa	-0.5616404
12	0x3ecea972	0.40363652
13	0x3ee40a33	0.4453903
14	0x3f1839d8	0.5946326
15	0x3eb5bbef	0.35494944
16	0x3fe6bc10	1.8026142
17	0x40084a6c	2.1295424
18	0xbfceeebd	-1.6166607
19	0xbe1aa39f	-0.15101479

weight f4 [20, 20]
0	0x3d53f2af	0.051745113
1	0x3e545652	0.20736054
2	0x3e827dd7	0.25486633
3	0x3c6ab9f4	0.014326561
4	0x3f1605bd	0.58602506
5	0x3e3fa48f	0.18715118
6	0x3e8814f3	0.26578483
7	0xbe3dd018	-0.18536413
8	0x3e24150c	0.16023654
9	0x3e59bb29	0.21262802
10	0x3e2dd724	0.16976601
11	0x3e2c80a6	0.1684595
12	0xbd78129b	-0.06056462
13	0x3e8f8ef1	0.28038743
14	0xbb67133f	-0.0035259274
15	0x3e6ac4d0	0.2292664
16	0x3d00d768	0.031455427
17	0x3ddb56a4	0.10709885
18	0x3ee4be72	0.44676548
19	0xbdebe89c	-0.11518976
20	0x3d830308	0.063970625
21	0xbe57260c	-0.21010607
22	0xbe969c23	-0.29415998
23	0x3cdd1eaa	0.02699216
24	0x3deaf304	0.11472133
25	0x3f0f4c6c	0.55975986
26	0x3ea1e541	0.3162022
27	0x3e1d50c9	0.15362848
28	0xbcaa4434	-0.020784475
29	0x3dec46e8	0.11536962
30	0xbedca0ec	-0.43091524
31	0xbe66f4e7	-0.2255436
32	0xbe633dee	-0.22191593
33	0x3ec852b9	0.39125612
34	0x3da3ed1a	0.08004208
35	0xbe82261e	-0.25419706
36	0x3e924386	0.2856714
37	0x3e3a6aee	0.18204853
38	0xbe0504bb	-0.12990086
39	0x3e9111a0	0.2833376
40	0xbeb06f30	-0.3445983
41	0xbf05fcd7	-0.5233893
42	0x3dd470ac	0.10373053
43	0xbe18e887	-0.14932452
44	0xbeea8ff1	-0.45812944
45	0x3e90fb09	0.28316525
46	0xbef45bca	-0.4772628
47	0x3e90ee2b	0.28306708
48	0x3ea97095	0.33093706
49	0x3f010d69	0.5041109
50	0xbe85efde	-0.26159567
51	0xbe521ac8	-0.20518029
52	0x3d996af3	0.07491102
53	0xbd831b3f	-0.06401681
54	0x3e8307a6	0.25591773
55	0xbe67434e	-0.22584268
56	0xbe809762	-0.25115496
57	0x3ef7bd91	0.48386815
58	0xbba5f1af	-0.0050642113
59	0x3eca3c2b	0.3949903
60	0xbdee6767	-0.11640816
61	0xbe2a86f0	-0.16653037
62	0xbe14ff5e	-0.1455054
63	0x3db336b1	0.08750666
64	0xbdcd2335	-0.10016481
65	0xbe21bf4b	-0.15795629
66	0x3e42d952	0.19028214
67	0x3e5e0616	0.21682009
68	0x3df5be20	0.11999154
69	0x3e0bf089	0.13665976
70	0x3e5e2fd4	0.21697932
71	0xbf1605a9	-0.58602387
72	0x3e1aecb9	0.15129365
73	0x3e76f716	0.24117693
74	0x3db41f4d	0.08795033
75	0x3c36f202	0.011166098
76	0xbe0b4884	-0.13601881
77	0x3f29a177	0.66262
78	0x3d259a33	0.04043026
79	0xbed3c636	-0.4136216
80	0x3eabf01d	0.3358163
81	0xbf13dc67	-0.5775818
82	0xbeaeab73	-0.3411518
83	0xbe7c0066	-0.24609527
84	0x3c135bb4	0.008994032
85	0x3dac03c5	0.083991565
86	0xbbb1140b	-0.0054040006
87	0x3df91902	0.12162973
88	0x3e80b0ff	0.25135037
89	0xbecdfbeb	-0.4023126
90	0xbc95b41d	-0.018274361
91	0xbe26a26a	-0.16272894
92	0x3eb2f9a7	0.34956095
93	0x3e0abfba	0.135497
94	0x3d2559ef	0.04036897
95	0xbe22fae6	-0.15916023
96	0x3c9179ac	0.017758213
97	0xbd45e9ac	-0.04831855
98	0xbf132e67	-0.5749268
99	0x3e4110b7	0.18854032
100	0xbd93c8e8	-0.07216054
101	0x3e8fd4ba	0.28091985
102	0x3e46412b	0.19360797
103	0x3e1a15f6	0.1504744
104	0x3eab98c3	0.33514985
105	0xbe718bc6	-0.23588476
106	0xbe836cbc	-0.25668895
107	0xbe6d6970	-0.23184752
108	0x3dc3ce7f	0.095608704
109	0x3c120638	0.0089126155
110	0xbd1a23a2	-0.03763164
111	0xbe93660c	-0.28788793
112	0xbe541eec	-0.20714921
113	0x3e9db730	0.30803823
114	0xbf3ed4d5	-0.74543506
115	0xbd591ada	-0.053004123
116	0xbe5e3c48	-0.21702683
117	0x3d74945a	0.05971179
118	0x3e810623	0.25199994
119	0x3cc0d819	0.023540543
120	0xbdab3830	-0.08360326
121	0x3e322cbc	0.17399877
122	0xbcdce88c	-0.026966356
123	0xbe31ab5c	-0.17350525
124	0xbee899b1	-0.45429757
125	0x3ed6497a	0.41852933
126	0x3d424b89	0.047435317
127	0x3ce71c7a	0.02821182
128	0xbdfbedf7	-0.123012476
129	0x3e814e2a	0.25254947
130	0xbe957830	-0.29193258
131	0xbeebdbba	-0.46066076
132	0x3ea5e59e	0.32401747
133	0xbeaf4f28	-0.3424008
134	0x3ee8232e	0.4533934
135	0x3d5dd2e2	0.05415619
136	0x3f18f48f	0.59748167
137	0x3db06874	0.08613673
138	0xbc8a0644	-0.01684869
139	0xbe33f444	-0.17573649
140	0xbe958822	-0.29205424
141	0xbe4d0ee3	-0.2002521
142	0xbeefd9f6	-0.46845978
143	0x3e52b5b3	0.20577125
144	0xbf29476c	-0.66124606
145	0x3ef364a3	0.47537717
146	0x3e9e44d1	0.30911878
147	0x3e8f734a	0.28017646
148	0xbbec679a	-0.0072144987
149	0xbdfac586	-0.12244706
150	0x3eb0601a	0.3444832
151	0xbe8d34e9	-0.2757943
152	0x3ebcf56e	0.36905998
153	0xbeb81d34	-0.3595978
154	0xbd7977ca	-0.060905255
155	0x3ddfbb28	0.10924369
156	0xbcff0621	-0.031130852
157	0xbe8d021b	-0.2754067
158	0xbec53717	-0.38518593
159	0xbdccafbc	-0.09994456
160	0x3e97ee3a	0.2967394
161	0xbe683ea1	-0.22680141
162	0xbe8939e8	-0.2680199
163	0xbec7c1a1	-0.39014915
164	0x3def5108	0.11685377
165	0x3dd1f1eb	0.1025122
166	0xbe0f3ad3	-0.13987283
167	0xbdb4fdf2	-0.08837499
168	0x3e144d07	0.14482509
169	0xbe380563	-0.17970805
170	0xba552598	-0.0008130907
171	0xbe659546	-0.22420225
172	0x3ecdc7b1	0.40191415
173	0x3e0b31fc	0.13593286
174	0x3e9d1132	0.3067718
175	0xbdd24038	-0.10266155
176	0xbda7bf00	-0.08190727
177	0xbdb2df4b	-0.08733996
178	0x3dff1eb6	0.124570295
179	0x3d16d711	0.036826197
180	0x3e8fc0d2	0.28076798
181	0x3e598169	0.21240772
182	0x3db4c3f9	0.08826441
183	0xbe25cd97	-0.16191708
184	0xbd662f16	-0.05619725
185	0xbdb388b3	-0.08766308
186	0xbe7f3216	-0.2492145
187	0x3dd9be36	0.10631983
188	0xbe0d7639	-0.1381463
189	0x3ea85a40	0.32881355
190	0xbe2c8733	-0.1684845
191	0xbd3ec93c	-0.04657863
192	0xbedf0fe3	-0.43566808
193	0x3e3b4d73	0.18291263
194	0x3e8f1aae	0.27950042
195	0xbe88b17e	-0.26697916
196	0xbe4f1d20	-0.20225954
197	0xbefe4fe5	-0.4967033
198	0xbdd14c0c	-0.10219583
199	0xbc085e42	-0.008323254
200	0xbd384697	-0.044989195
201	0x3ecb340e	0.39688152
202	0x3e811f97	0.25219414
203	0x3e3bc964	0.18338543
204	0xbd9e2bed	-0.07723222
205	0xbd21d84b	-0.039512914
206	0xbc74afed	-0.014934522
207	0xbdf0d96c	-0.1176022
208	0x3e9edb48	0.31026673
209	0xbd0d4d20	-0.03449738
210	0xbe3905bc	-0.18068594
211	0xbe059f32	-0.1304901
212	0x3e82dafa	0.2555769
213	0x3ea56f7e	0.32311624
214	0xbe047167	-0.12933885
215	0xbeb8ba6a	-0.36079723
216	0xbe152213	-0.1456378
217	0xbea8337e	-0.32851785
218	0xbe14d46b	-0.14534156
219	0xbd8abc26	-0.06774168
220	0x3da5b0d5	0.08090369
221	0xbe1e1114	-0.15436202
222	0xbdd9ae79	-0.10628981
223	0xbe851a51	-0.2599664
224	0xbe85d6d1	-0.26140454
225	0x3e7b8851	0.2456372
226	0x3e0196bd	0.12655158
227	0x3cbdad2e	0.023153868
228	0xbd8c4fb2	-0.06851138
229	0xbe7216bf	-0.2364149
230	0xbe9c283d	-0.3049945
231	0xbe6c050d	-0.23048802
232	0x3d0cd0d5	0.034378845
233	0xbe8d849a	-0.2764023
234	0x3ea3dcbb	0.3200434
235	0x3d84f157	0.064913444
236	0x3e7f44cf	0.24928592
237	0x3ea7de89	0.32786968
238	0xbe8f3e35	-0.27977148
239	0x3ebf8ff0	0.37414503
240	0x3ea4b82c	0.32171762
241	0xbec0fcaf	-0.37692782
242	0xbd641b8a	-0.055690326
243	0xbcfd5306	-0.030923378
244	0xbe9ce3d5	-0.30642572
245	0xbe8df18f	-0.27723357
246	0x3e7a8c41	0.24467565
247	0xbdfa54be	-0.122231945
248	0x3ececc81	0.403904
249	0xbd078c79	-0.03309295
250	0xbe6432aa	-0.22284952
251	0xbe8a3471	-0.26993135
252	0x3dde800e	0.10864268
253	0xbe3ac77b	-0.18240158
254	0x3f1a8c23	0.6037008
255	0x3ebd11e5	0.36927715

bias f4 [20]
0	0x3e944ff2	0.28967243
1	0x3fa13376	1.259383
2	0x3f2f983f	0.68591684
3	0x3ea6ff62	0.32616717
4	0x3f71711b	0.9431321
5	0xbfc3e6e7	-1.5304841
6	0x3f4dff4f	0.80467695
7	0x3eeda965	0.464183
8	0x3ef876ee	0.48528236
9	0xbede5476	-0.43423814
10	0xbf54a9a6	-0.8307136
11	0x3fa1a5c0	1.2628708
12	0x3fbc866b	1.4728521
13	0xbe4241fa	-0.1897048
14	0xbeb4c6a3	-0.35307798
15	0xbf20b598	-0.6277709
16	0xbf776002	-0.9663087
17	0x3f0a7889	0.5409017
18	0xbfdbe3eb	-1.717893
19	0x3fee47c1	1.8615648

weight f4 [20, 20]
0	0x3d85f554	0.06540933
1	0x3d55f483	0.052235138
2	0x3e86bb1e	0.26314634
3	0xbda97140	-0.08273554
4	0x3e61faa2	0.22068265
5	0x3bd9fd22	0.0066524902
6	0x3d9475bf	0.07249021
7	0x3cd12108	0.025528446
8	0x3f06a153	0.5258991
9	0x3e26ab32	0.16276243
10	0xba40f5f8	-0.0007360871
11	0x3e1fe48b	0.15614526
12	0x3e51f2dd	0.20502801
13	0xbe707e72	-0.23485735
14	0x3e59d73b	0.2127351
15	0xbebe72ed	-0.37197056
16	0x3ea15aba	0.3151453
17	0x3d9d144d	0.07669888
18	0xbe8f50ef	-0.27991435
19	0xbdc742c2	-0.0972953
20	0x3cde645f	0.02714747
21	0xbe1baf69	-0.15203632
22	0x3e01d03c	0.12677091
23	0xbda4ddc9	-0.08050115
24	0xbda1791d	-0.07884429
25	0xbdb7d635	-0.089764036
26	0xbd09a7e7	-0.03360739
27	0xbe8dca67	-0.27693483
28	0x3eb3edc3	0.35142335
29	0xbe7120aa	-0.23547617
30	0xbcd3d46f	-0.025858132
31	0xbe210502	-0.15724567
32	0xbe026a3d	-0.12735839
33	0x3d201794	0.039084986
34	0xbeaccbaf	-0.33749148
35	0xbea33dd1	-0.318831
36	0xbe2949d3	-0.16532068
37	0x3eae879b	0.34087834
38	0x3dfda6b7	0.12385314
39	0xbc29c03f	-0.010360776
40	0x3e7f1e21	0.24913837
41	0x3db2c459	0.087288566
42	0xbe9e507c	-0.3092078
43	0x3c8c3dd2	0.017119322
44	0xbef39c77	-0.4758031
45	0xbe03037c	-0.12794298
46	0xbdf0ab7c	-0.11751458
47	0x3c0f2529	0.008736887
48	0xbdafa237	-0.08575862
49	0x3e084b47	0.13309966
50	0x3d4b334c	0.049609467
51	0xbe26d3f7	-0.16291796
52	0x3c97ea5d	0.01854437
53	0x3edc4e4e	0.43028492
54	0xbb2fc434	-0.0026819827
55	0x3dfe3f83	0.12414458
56	0x3d763776	0.060111485
57	0xbeaf23bd	-0.34206954
58	0xbe590577	-0.21193491
59	0xbe04ba11	-0.12961604
60	0xbe3b58c6	-0.18295583
61	0x3e98ad5f	0.29819772
62	0x3eb6ef42	0.35729414
63	0x3d8970ae	0.06710945
64	0x3e26a703	0.16274647
65	0xbe94ebd6	-0.2908618
66	0x3daef1ed	0.085422374
67	0x3e49f6a7	0.19722997
68	0x3cd231c0	0.025658488
69	0xbe10b021	-0.14129688
70	0xbdf46598	-0.1193344
71	0xbd618769	-0.055060778
72	0x3ec51e50	0.3849969
73	0x3e5ad7d8	0.213714
74	0x3e34e6bf	0.17666148
75	0x3da61b31	0.08110655
76	0xbdd9b3e9	-0.10630018
77	0x3eedb072	0.4642368
78	0xbdb67669	-0.08909304
79	0x3e9f83cc	0.3115524
80	0xbec0ee40	-0.3768177
81	0x3c89928e	0.016793516
82	0x3f229feb	0.63525265
83	0x3e5b93d6	0.21443114
84	0x3db25264	0.08707121
85	0xbe285695	-0.16439278
86	0x3e07e447	0.13270675
87	0xbd827c53	-0.06371369
88	0x3e73c1aa	0.23804346
89	0xbe07ea71	-0.13273026
90	0xbe45258d	-0.19252606
91	0x3d925c97	0.07146566
92	0xbe571eb3	-0.21007805
93	0xbe1c4207	-0.15259562
94	0xbe9d5ebb	-0.30736336
95	0xbd79d8d5	-0.060997803
96	0xbde83290	-0.11337769
97	0x3e977aa0	0.29585743
98	0xbe4dd904	-0.20102316
99	0xbc777557	-0.01510366
100	0xbe39e889	-0.18155111
101	0x3de3e86e	0.11128317
102	0x3d2013c8	0.039081365
103	0xbae04586	-0.0017110563
104	0x3e87f551	0.2655435
105	0x3cd8bee4	0.026458211
106	0xbebdda62	-0.37080675
107	0xbd90b77c	-0.07066247
108	0x3aeb0aae	0.001793226
109	0xbe422a41	-0.18961431
110	0xbea6b414	-0.32559264
111	0xbea0a832	-0.31378323
112	0xbe0a25cc	-0.13490981
113	0x3e49c39a	0.19703522
114	0xbd9d4fbf	-0.07681226
115	0x3f07a74a	0.5298964
116	0xbdd3f19c	-0.10348818
117	0xbe11828b	-0.14209954
118	0xbe88c1b1	-0.26710275
119	0xbe38fd04	-0.18065268
120	0x3ea1bd3b	0.31589684
121	0xbdb168dc	-0.086625785
122	0xbe33696f	-0.17520688
123	0xbdc33a4a	-0.09532602
124	0xbee271a4	-0.44227326
125	0x3e81adbe	0.25327867
126	0xbe872664	-0.26396477
127	0x3d783c97	0.060604658
128	0xbd431b83	-0.04763366
129	0x3e40b2c4	0.18818194
130	0xbe818f56	-0.2530467
131	0xbdd5374a	-0.10410936
132	0xbd85b91a	-0.06529446
133	0x3dfb707f	0.12277316
134	0x3e21ed2d	0.15813132
135	0x3e39c076	0.18139824
136	0x3e21e50d	0.15810032
137	0xbbc20f23	-0.0059222146
138	0x3df7549f	0.12076687
139	0x3b8a94c9	0.0042291624
140	0xbee5cdf9	-0.44883707
141	0xbd401460	-0.04689443
142	0x3ee19adb	0.44063458
143	0xbb79b4d1	-0.003810216
144	0x3e23a4e6	0.15980873
145	0xbe599a90	-0.21250367
146	0x3e53066a	0.20607916
147	0x3e002bba	0.1251668
148	0x3e09bc7f	0.13450812
149	0x3e841c98	0.25803065
150	0x3d42fbc9	0.047603402
151	0xbdfe35c9	-0.124126025
152	0x3e7f9361	0.24958564
153	0xbdbb55ae	-0.091472015
154	0xbdb8514b	-0.089998804
155	0xbe9f3667	-0.31096193
156	0xbe8cab08	-0.27474236
157	0x3e736bb4	0.23771554
158	0xbd978237	-0.073978834
159	0x3df0d868	0.11760026
160	0xbe2c10ba	-0.16803256
161	0xbe968a98	-0.29402614
162	0xbc990979	-0.018681275
163	0x3e1274d6	0.14302382
164	0xbe5c43a9	-0.21510185
165	0xbe73abd5	-0.23796017
166	0xbd6085b3	-0.054815006
167	0xbebd8ae7	-0.37020037
168	0xbe7f86d0	-0.2495377
169	0x3e8b4e47	0.27208158
170	0x3e209d02	0.15684894
171	0xbe8e4fbc	-0.27795208
172	0xbe665788	-0.22494328
173	0x3e858404	0.26077282
174	0x3d1c010d	0.03808694
175	0xbc342188	-0.010994323
176	0x3d11acb5	0.035565097
177	0xbea01e19	-0.31272963
178	0x3d4daba0	0.050212502
179	0x3d90a300	0.0706234
180	0xbe98d69b	-0.2985123
181	0x3dab4748	0.08363205
182	0x3eeb1b63	0.45919332
183	0xbe51a7d3	-0.20474176
184	0xbde04942	-0.10951473
185	0xbdd2e216	-0.10297029
186	0xbdae8a06	-0.0852242
187	0x3ec46f9e	0.38366407
188	0x3db32b1c	0.08748457
189	0x3d87401d	0.066040255
190	0x3e2b3c51	0.16722228
191	0xbddfcc09	-0.109275885
192	0xbecb1a81	-0.39668658
193	0x3ec6108d	0.38684502
194	0xbd9f04be	-0.077645764
195	0xbe49e3bd	-0.19715782
196	0xbdd940d4	-0.10608068
197	0x3ef53c29	0.4789746
198	0xbd3c01c3	-0.045900118
199	0x3d0390fb	0.032120686
200	0x3d639611	0.055563036
201	0xbde6b037	-0.11264079
202	0x3e970e93	0.29503307
203	0x3ec5ca3c	0.38630855
204	0xbde43b7e	-0.1114416
205	0x3e8a8bff	0.27059934
206	0xbdb2c062	-0.087281
207	0xbe81b49a	-0.253331
208	0x3dc78cb8	0.09743637
209	0xbf08c1fa	-0.53420985
210	0x3e1419c8	0.1446296
211	0x3e01d411	0.12678553
212	0xbe99c69e	-0.30034345
213	0xbe0b5678	-0.13607204
214	0xbedad940	-0.42743874
215	0x3db952f8	0.09049028
216	0x3e473b42	0.19456199
217	0xbe06ea94	-0.13175422
218	0x3e8b6805	0.27227798
219	0xbe135752	-0.14388779
220	0xbeeb2722	-0.45928293
221	0x3b8ee4f6	0.0043607904
222	0x3dcd73e9	0.10031874
223	0x3e6cae1f	0.23113297
224	0xbe9c5d8d	-0.30540124
225	0xbc45d8a7	-0.01207558
226	0xbd699952	-0.057030983
227	0x3f11c89c	0.5694673
228	0xbda96594	-0.082713276
229	0xbe59f881	-0.21286203
230	0xbca550c3	-0.020180112
231	0x3e3296d4	0.17440349
232	0x3e9ec73a	0.31011373
233	0x3de397bf	0.11112928
234	0x3d42fe31	0.047605697
235	0xbe48c5dd	-0.19606729
236	0x3d724c22	0.059154637
237	0x3bccab8b	0.0062460355
238	0xbe30637b	-0.17225449
239	0x3cf72466	0.030168723
240	0xbe7f5053	-0.24932985
241	0xbdb3b030	-0.087738395
242	0xbd81addc	-0.06331989
243	0xbe07aea8	-0.1325022
244	0xbe775cb2	-0.24156454
245	0x3ea960da	0.33081704
246	0xbe39ad40	-0.18132496
247	0xbe473e81	-0.19457437
248	0x3d14f765	0.036368746
249	0xbcdb30a2	-0.026756588
250	0x3dbf6f39	0.09347386
251	0xbd7e448c	-0.06207709
252	0xbe7d1896	-0.2471641
253	0x3e8ce8e2	0.27521425
254	0xbebcac8f	-0.36850402
255	0x3e00d085	0.12579544

bias f4 [20]
0	0x3f948345	1.160256
1	0xbeb3b84d	-0.35101548
2	0xbe20955f	-0.1568198
3	0x3f6b0775	0.91808254
4	0x3f82606a	1.0185673
5	0xbf3d0ad7	-0.73844665
6	0xbf43eac4	-0.765301
7	0x3faf3e92	1.369097
8	0x3df333e2	0.1187513
9	0x3f9c5c56	1.2215679
10	0xbf1b4ed6	-0.6066717
11	0x3eff79a1	0.49897483
12	0xbd341458	-0.043964714
13	0x3f53ced8	0.82737494
14	0xbe457f2a	-0.1928679
15	0xbf455965	-0.7708953
16	0x3f9cecdc	1.2259784
17	0x3f73e546	0.9527172
18	0xbf98c8ef	-1.193632
19	0xbf595080	-0.8488846

weight f4 [20, 20]
0	0x3e9259eb	0.28584227
1	0x3e61bce3	0.22044711
2	0xbe7db6d7	-0.24776779
3	0x3e8f0b53	0.27938327
4	0xbc3ebc1a	-0.011641527
5	0x3e1bb499	0.15205611
6	0x3dd6e47f	0.10492801
7	0x3e255781	0.16146661
8	0xbcf424a5	-0.02980263
9	0x3e574e4d	0.21025963
10	0x3d4c5a5c	0.04989086
11	0x3e24a69d	0.16079183
12	0x3e2ecc22	0.17070058
13	0x3d705e51	0.058683697
14	0xbe76acbb	-0.24089329
15	0x3d5b36e6	0.053519152
16	0x3e88010f	0.26563308
17	0x3e4e524d	0.20148583
18	0x3d3e8951	0.046517674
19	0xbed4765d	-0.41496554
20	0x3e9d7c6b	0.30758986
21	0x3ea4e90b	0.32209048
22	0xbed25517	-0.41080543
23	0x3da5dd04	0.08098796
24	0x3e11c101	0.14233781
25	0xbd5ac02c	-0.053405926
26	0xbdc6319b	-0.0967743
27	0x3edda5b8	0.43290496
28	0x3d89512b	0.06704935
29	0x3e86ecea	0.26352626
30	0xbea979db	-0.3310078
31	0xbdcf0c8f	-0.10109817
32	0x3bde35a4	0.006781297
33	0x3e1d1d5b	0.1534323
34	0xbe8adcf4	-0.271217
35	0xbef3badc	-0.476035
36	0x3f0437cd	0.51647645
37	0xbd7321e1	-0.05935848
38	0xbef688fd	-0.4815139
39	0xbe3aef3b	-0.18255322
40	0xbee115e1	-0.43962005
41	0xbe255eb7	-0.16149412
42	0x3dbc5224	0.091953546
43	0xbe974218	-0.29542613
44	0xbece7560	-0.40323925
45	0xbe17dd48	-0.14830506
46	0x3d9ad33a	0.075598195
47	0xbf02ac84	-0.5104449
48	0xbe21eb06	-0.1581231
49	0xbd4f8860	-0.050667167
50	0xbd9507c5	-0.072768725
51	0xbeb9d1aa	-0.36292773
52	0xbdc0b423	-0.09409358
53	0x3d41fb06	0.047358535
54	0x3f04c87a	0.518684
55	0x3eb04833	0.34430084
56	0xbd63617a	-0.055512883
57	0xbdc0b1cc	-0.09408912
58	0x3e3b1297	0.1826881
59	0x3e83da7a	0.25752622
60	0xbe10d250	-0.14142728
61	0x3d620abb	0.055186015
62	0xbe8cff32	-0.2753845
63	0xbd5c343c	-0.053760752
64	0x3d9c1dab	0.07622846
65	0xbe2d1693	-0.16903143
66	0xbed01553	-0.4064127
67	0xbd8245b8	-0.06360954
68	0xbe82a272	-0.2551456
69	0x3ed9bb07	0.42525503
70	0xbd2d30b8	-0.04228279
71	0x3e72134d	0.23640175
72	0xbdd06761	-0.10175968
73	0x3ec12fa5	0.37731662
74	0x3e6ca847	0.23111068
75	0x3dbe32ba	0.09287019
76	0xbe776df8	-0.24163043
77	0x3e83491b	0.25641713
78	0xbe0b4181	-0.13599207
79	0xbe93a877	-0.28839466
80	0xbe284a27	-0.16434537
81	0xbe93aa31	-0.28840783
82	0xbc495a18	-0.012289546
83	0xbe2b6a2e	-0.16739723
84	0xbf019da7	-0.50631183
85	0xbe30bdf5	-0.17259963
86	0xbe6ec07e	-0.23315617
87	0xbea599cf	-0.3234391
88	0x3dc17617	0.09446352
89	0xbeb81bee	-0.3595881
90	0x3eb36f61	0.35045913
91	0xbd84e58c	-0.06489095
92	0xbe70499f	-0.23465584
93	0xbc3ceb3c	-0.011530694
94	0x3c893c0f	0.016752271
95	0xbe03fb6c	-0.12888879
96	0xbdbe703b	-0.0929875
97	0xbbe5093e	-0.006989627
98	0x3b95423d	0.0045550154
99	0xbe36f6a5	-0.17867525
100	0xbe20d0c9	-0.15704645
101	0xbb8adaff	-0.004237532
102	0xbf00c24a	-0.5029646
103	0x3e03009c	0.12793201
104	0xbf15e29e	-0.58548915
105	0xbe26fe26	-0.16307887
106	0x3d467606	0.0484524
107	0xbe78263d	-0.24233337
108	0x3ea7cbce	0.32772678
109	0xbe2099d1	-0.15683676
110	0xbd129845	-0.035789747
111	0x3e86f1d9	0.2635639
112	0xbe5e93ae	-0.21736023
113	0xbe9cba44	-0.3061086
114	0xb9739908	-0.00023231294
115	0x3e943875	0.28949323
116	0x3e93fc52	0.28903443
117	0xbd9f5b06	-0.07781033
118	0xbd88df18	-0.06683177
119	0x3f061ef6	0.5239099
120	0xbe90a4bc	-0.28250682
121	0x3d2d0d3e	0.042248957
122	0xbb9b909b	-0.004747463
123	0x3db5314f	0.088472955
124	0x3cd07fdd	0.025451595
125	0xbdbb9f7f	-0.09161281
126	0x3ed3592d	0.41278973
127	0xbeb2114b	-0.34778818
128	0x3def55fa	0.116863206
129	0xbe102a79	-0.14078702
130	0x3e90bf18	0.28270793
131	0xbd6c570e	-0.05770021
132	0xbdcbf660	-0.09959102
133	0xbddb3f2a	-0.10705407
134	0x3ec3a49a	0.3821152
135	0xbeeaa37c	-0.45827854
136	0xbe3e1c58	-0.185655
137	0xbea98181	-0.33106616
138	0xbbb357ed	-0.005473128
139	0xbea651db	-0.32484326
140	0x3e4c37a7	0.19943105
141	0x3ccfb49e	0.02535468
142	0xbe0fb1e6	-0.14032707
143	0x3e323c63	0.17405848
144	0x3e593aed	0.21213885
145	0xbe75d8a5	-0.24008425
146	0x3ce802d1	0.028321655
147	0xbde87334	-0.11350098
148	0x3d3536c8	0.044241697
149	0xba57fcce	-0.000823927
150	0x3da2d1da	0.07950182
151	0xbddcf4df	-0.10788893
152	0x3d05f336	0.032702647
153	0x3bd63bc9	0.0065378887
154	0x3d2ae82d	0.041725326
155	0xbe34a8a1	-0.17642452
156	0xbdc6e7a3	-0.0971215
157	0x3e88139f	0.2657747
158	0xbef52980	-0.47883224
159	0xbdbd241f	-0.09235405
160	0xbe0ee7ee	-0.13955662
161	0xbe235429	-0.15950073
162	0x3d5e4193	0.054261755
163	0x3e9e840e	0.30960125
164	0x3e34202b	0.17590396
165	0xbad1a0a3	-0.0015993308
166	0x3e408887	0.18802081
167	0x3ed694bc	0.4191035
168	0x3ee34c71	0.44394258
169	0x3e0c439e	0.13697669
170	0xbe5c44fb	-0.21510689
171	0xbdca967b	-0.09891983
172	0xbd30448e	-0.04303413
173	0x3c4145b2	0.011796402
174	0xbdc6b5cd	-0.097026445
175	0x3d802d87	0.06258684
176	0x3ea1c1b7	0.31593105
177	0xbea1d3fc	-0.31607044
178	0xbd8b35f7	-0.06797402
179	0xbec5f9cc	-0.38667142
180	0x3d6cd95e	0.057824485
181	0xbeb36948	-0.3504126
182	0xbdcc9393	-0.09989085
183	0x3f157eaf	0.5839643
184	0x3e9c1820	0.30487156
185	0xbe8d71a7	-0.27625772
186	0xbe5ad57f	-0.21370505
187	0x3cd706cf	0.026248364
188	0xbdd93302	-0.10605432
189	0x3da9c033	0.08288612
190	0xbe4184f5	-0.18898375
191	0x3c817b66	0.015805911
192	0xbf00dd4a	-0.5033766
193	0x3e876140	0.26441383
194	0xbe837cc1	-0.25681117
195	0xbf42cb21	-0.760912
196	0x3e885fd2	0.26635605
197	0xbd57862c	-0.05261819
198	0xbf03054d	-0.51179963
199	0xbe8d4d93	-0.27598247
200	0x3e3fe364	0.18739086
201	0x3e306331	0.17225339
202	0x3ead2f32	0.3382507
203	0xbe1acc02	-0.15116885
204	0xbe39ca11	-0.18143488
205	0x3dec4503	0.115366004
206	0x3eb4a318	0.3528068
207	0xbe4a240c	-0.19740313
208	0x3d0af85e	0.033928268
209	0x3e2783b9	0.16358842
210	0x3e0775b4	0.13228494
211	0xbec594ed	-0.38590184
212	0xbe1af9ff	-0.15134428
213	0xbdcc3802	-0.0997162
214	0x3adac448	0.0016690576
215	0x3edae7c6	0.42754954
216	0xbe412801	-0.18862917
217	0xbe9b94f3	-0.30387077
218	0x3e4231c2	0.18964294
219	0xbcf0cef1	-0.029395552
220	0x3e0a677f	0.13516043
221	0x3da08d49	0.07839448
222	0x3f03b081	0.514412
223	0x3cbd5347	0.023110999
224	0xbea152e2	-0.31508547
225	0x3e1e7f95	0.15478356
226	0x3bfdc070	0.0077438876
227	0xbec349d4	-0.38142264
228	0x3e38f11d	0.18060727
229	0xbea49dff	-0.3215179
230	0x3eb182bc	0.34670055
231	0x3e179f89	0.14806952
232	0x3e995de6	0.2995445
233	0xbc13a5d6	-0.009011706
234	0xbe5d118a	-0.21588722
235	0x3e999aa1	0.30000785
236	0x3db2518e	0.087069616
237	0xbe6e4227	-0.23267423
238	0x3f03353b	0.512531
239	0xbe0e9141	-0.13922597
240	0x3e1720e2	0.14758638
241	0xbe194d94	-0.14971
242	0x3e94ec38	0.2908647
243	0xbe1ece73	-0.15508442
244	0xbe0a246e	-0.1349046
245	0x3e904ac4	0.28182042
246	0xbed6dcec	-0.41965425
247	0xbebb06ca	-0.36528617
248	0x3e5a5122	0.21320012
249	0x3eac2ee1	0.33629516
250	0xbda6d653	-0.08146348
251	0xbe424406	-0.18971261
252	0x3e199533	0.14998321
253	0x3db2d9ba	0.08732934
254	0x3e850d8f	0.25986907
255	0x3e8ae0f9	0.27124766

bias f4 [20]
0	0x3fbf6412	1.4952414
1	0x3fae218d	1.3603989
2	0xbfb77ed3	-1.4335579
3	0xbef43328	-0.4769528
4	0xbf0a5cad	-0.5404766
5	0x3e2ef33f	0.17084979
6	0x3e2b17e7	0.16708337
7	0x3ec1ee7d	0.37877265
8	0x3f29c74e	0.6631974
9	0xbe46cb4e	-0.19413492
10	0xbe07774d	-0.13229103
11	0xbfa355c1	-1.2760545
12	0xbf091d16	-0.53560007
13	0xbf4a3a24	-0.78994966
14	0xbfc9cec8	-1.576623
15	0xbf02cccd	-0.5109375
16	0xbf73a71a	-0.9517685
17	0xbe2c4439	-0.168229
18	0x3f83b156	1.0288494
19	0x3f63ce60	0.8898678

weight f4 [20, 20]
0	0x3db84b84	0.089987785
1	0x3eb43442	0.3519612
2	0xbf1fd6a4	-0.6243689
3	0xbe9a38cf	-0.30121467
4	0xbe84f243	-0.2596608
5	0xbcc91316	-0.024545234
6	0x3edeaf01	0.43492892
7	0xbd89e840	-0.06733751
8	0x3eaf23a3	0.34206876
9	0x3ea67012	0.32507378
10	0x3e7588f6	0.23978028
11	0xbe86406e	-0.2622103
12	0xbebbd248	-0.3668387
13	0x3dc43bb5	0.09581701
14	0xbea46cff	-0.32114407
15	0x3e987066	0.29773253
16	0xbf078775	-0.52941066
17	0x3ef4bb56	0.47799176
18	0x3e57af1b	0.21062891
19	0x3d82c08d	0.063843824
20	0x3e98948e	0.29800838
21	0x3f178114	0.5918133
22	0x3c0c9dc5	0.008582537
23	0x3e276d18	0.1635021
24	0xbeb6f307	-0.3573229
25	0xbdaa1b3e	-0.08305977
26	0xbf075be7	-0.52874607
27	0xbde9dda9	-0.114192314
28	0x3ea172e4	0.31532967
29	0x3e2a540b	0.16633622
30	0x3e95a834	0.2922989
31	0xbea35a4e	-0.31904835
32	0xbe922514	-0.28543913
33	0x3e83f98f	0.25776336
34	0xbe3e6b8b	-0.18595712
35	0x3d2bf41c	0.041980848
36	0x3e798943	0.24368767
37	0x3e58f0a2	0.21185544
38	0x3e5e95f9	0.21736898
39	0x3e129ecf	0.14318393
40	0xbd3917db	-0.045188766
41	0x3d57ca72	0.0526833
42	0x3e726b39	0.23673715
43	0x3e38ee3a	0.18059626
44	0xbe24e20a	-0.16101852
45	0xbe836a2b	-0.25666937
46	0xbdbeb631	-0.09312094
47	0x3ef18647	0.47172758
48	0x3eba60ba	0.36401922
49	0x3e98195e	0.29706854
50	0xbddbdb66	-0.10735206
51	0xbe41e6f4	-0.18935758
52	0xbeefc6cc	-0.46831357
53	0xbe0eb74c	-0.1393711
54	0xbdaa921c	-0.083286494
55	0x3e0f8df3	0.14018993
56	0xbe40702f	-0.18792795
57	0x3ed501ad	0.4160284
58	0xbdf0a02e	-0.11749302
59	0x3ebfba0f	0.3744664
60	0xbe14a0d2	-0.14514473
61	0xbe339def	-0.17540716
62	0x3f2317f9	0.63708454
63	0xbe1bea35	-0.15226062
64	0x3e084c19	0.13310279
65	0xbe237bda	-0.15965214
66	0xbf0f9126	-0.56080854
67	0xbdd81465	-0.10550765
68	0x3cc3bd09	0.02389385
69	0x3e62bb6c	0.22141808
70	0xbebfe59e	-0.37479872
71	0x3f1e53b5	0.61846477
72	0x3e9b4717	0.30327675
73	0xbaac43ac	-0.0013142726
74	0x3edb2df8	0.4280851
75	0x3e04a419	0.12953223
76	0x3f0aecfd	0.54267865
77	0xbeb0ee66	-0.34556884
78	0xbef78e57	-0.48350784
79	0xbf21dfb4	-0.6323197
80	0xbd3da296	-0.046297632
81	0xbeba9b9d	-0.3644685
82	0x3eb75fce	0.3581528
83	0x3ed8b049	0.42321995
84	0x3f927aff	1.1443785
85	0x3e6cf340	0.23139668
86	0xbdd39058	-0.10330266
87	0xbe9434e0	-0.2894659
88	0xbeeaea85	-0.4588205
89	0xbdd07f5f	-0.10180544
90	0x3e5b36a1	0.21407558
91	0x3e93c8e9	0.2886422
92	0x3cd436ed	0.025905097
93	0x3e3d972a	0.18514696
94	0x3e82ebbb	0.25570473
95	0xbdcc870f	-0.09986698
96	0x3dce7b05	0.10082058
97	0xbe1314ef	-0.14363454
98	0xbd585ede	-0.052824847
99	0xbd055a64	-0.032556906
100	0xbd85cf72	-0.06533708
101	0xbee12357	-0.43972275
102	0xbc055773	-0.008138525
103	0xbd506eee	-0.05088704
104	0xbdfebd33	-0.12438431
105	0x3ecada34	0.396196
106	0x3e7722c1	0.24134351
107	0x3e960559	0.29300955
108	0xbf127c3a	-0.57220805
109	0xbee8ea62	-0.4549132
110	0x3ef86582	0.48514944
111	0x3ec02ffa	0.37536603
112	0xbe53b191	-0.20673205
113	0x3ed28e9e	0.41124433
114	0x3e026021	0.12731983
115	0x3ed62d3a	0.4183138
116	0x3e1f3bc7	0.15550147
117	0xbe9fcb59	-0.3120983
118	0xbe87e7d6	-0.26544064
119	0x3c80fa4b	0.015744349
120	0xbf2daf90	-0.6784601
121	0xbe3d02fd	-0.18458171
122	0x3db05b5b	0.08611175
123	0x3d6a07e5	0.057136435
124	0x3ea8581b	0.3287972
125	0x3ecca891	0.39972356
126	0xbf0d1aca	-0.55119
127	0xbf05146c	-0.51984286
128	0xbef4ad26	-0.47788352
129	0xbee248c7	-0.4419615
130	0x3ec013ad	0.3751501
131	0x3dcb3feb	0.09924301
132	0x3e6baddb	0.2301554
133	0xbf26df14	-0.6518414
134	0x3e1e33e4	0.15449482
135	0x3df38fa5	0.118926324
136	0x3d813a55	0.06309954
137	0xbeaf0f55	-0.34191385
138	0x3c1735cf	0.009229138
139	0xbecf43da	-0.40481454
140	0x3ef681e8	0.48145986
141	0xbe3fddbb	-0.18736927
142	0xbdda353f	-0.10654687
143	0x3e6ffd1d	0.23436399
144	0xbebbcb7e	-0.3667869
145	0x3c5ef2ad	0.013607663
146	0xbdd16b10	-0.10225499
147	0xbdba1a69	-0.090870686
148	0xbddc032d	-0.10742793
149	0x3d1d5327	0.03840938
150	0xbd5908df	-0.052986976
151	0xbe852cdf	-0.26010796
152	0xbe939556	-0.28824872
153	0x3e995547	0.29947874
154	0xbd46d49e	-0.04854261
155	0x3e0365bf	0.12831782
156	0xbc8abc25	-0.016935417
157	0x3e2e4680	0.17019081
158	0x3d337e5b	0.043821674
159	0xbd52397b	-0.05132435
160	0xbe96ded0	-0.29466867
161	0xbeec0b3b	-0.46102318
162	0x3e25b0df	0.16180752
163	0x3e783386	0.24238405
164	0x3e7a8131	0.24463345
165	0xbbdecf36	-0.006799604
166	0xbe5289e8	-0.2056042
167	0xbec90d68	-0.3926804
168	0xbead3335	-0.3382813
169	0x3ecd7fa0	0.40136433
170	0x3e26bb7b	0.16282456
171	0x3e8dd08f	0.2769818
172	0x3e8e3c7d	0.27780524
173	0xbf17e5b8	-0.593349
174	0x3e41b830	0.18917918
175	0xbe027a62	-0.12741998
176	0x3e14b5c9	0.1452247
177	0xbe17190e	-0.14755651
178	0xbec965a6	-0.39335364
179	0xbf1c5e8e	-0.6108178
180	0x3e81737f	0.2528343
181	0x3ea3e7f5	0.32012907
182	0xbeacc153	-0.33741245
183	0xbedf661c	-0.4363259
184	0x3e263db0	0.1623447
185	0x3e615239	0.22004022
186	0x3d4d5d61	0.05013788
187	0x3e79781c	0.24362224
188	0xbe91554f	-0.28385398
189	0xbee46e2e	-0.4461531
190	0x3d015eb1	0.031584445
191	0xbd36fd10	-0.044674933
192	0x3e2b9ee5	0.16759832
193	0x3f4fb069	0.81128556
194	0x3e309d1e	0.17247435
195	0x3e955ee5	0.2917396
196	0x3dc05fff	0.0939331
197	0x3dced943	0.10100033
198	0x3e33b5a3	0.17549758
199	0xbdfa13f2	-0.122108355
200	0x3d1af932	0.037835307
201	0xbebe517b	-0.3717154
202	0xbe035aec	-0.12827653
203	0xbed42157	-0.41431686
204	0x3e95a7b1	0.292295
205	0xbea343b7	-0.318876
206	0xbf05df24	-0.5229361
207	0x3c90ec0a	0.017690677
208	0x3cbe33ba	0.023218025
209	0x3e3110ef	0.17291616
210	0x3f2aa295	0.6665433
211	0xbe9f469c	-0.31108558
212	0x3e185653	0.1487668
213	0xbf25dc25	-0.6478904
214	0x3e7a1916	0.24423632
215	0x3e3d90ff	0.18512343
216	0x3deb1f8c	0.114806265
217	0xbea2ee0c	-0.3182224
218	0x3eac8d24	0.33701432
219	0xbc2e550d	-0.010640395
220	0x3d1f28af	0.03885716
221	0xbe49263c	-0.19643492
222	0x3e88759a	0.26652223
223	0xbeba1122	-0.36341196
224	0x3e81ee81	0.25377277
225	0x3d619ab3	0.055079173
226	0x3dd986bb	0.10621401
227	0xbe907cdd	-0.28220263
228	0xbdde1e71	-0.1084565
229	0xbe0de76a	-0.13857809
230	0x3f2525b9	0.64510685
231	0xbc5a59eb	-0.013327102
232	0x3d7dac07	0.061931636
233	0x3dc63c07	0.09679418
234	0xbdad9580	-0.084757805
235	0xbd5ab1c4	-0.053392187
236	0xbd9281f5	-0.071536936
237	0xbd359b38	-0.04433748
238	0x3e78f1a9	0.24310936
239	0xbaf5db1e	-0.0018757319
240	0xbf1b9e45	-0.60788375
241	0xbe521b24	-0.20518166
242	0x3f39b018	0.7253432
243	0x3ea5c154	0.3237406
244	0x3ebf9603	0.37419137
245	0x3ea8b02d	0.3294691
246	0xbd824fee	-0.06362902
247	0xbd7910ba	-0.060806967
248	0xbeb4c2df	-0.35304925
249	0xbf0059af	-0.50136846
250	0xbe5b27cb	-0.21401899
251	0x3ec41c08	0.38302636
252	0x3f05b368	0.5222688
253	0xbeb6f654	-0.35734808
254	0x3eef543a	0.46743947
255	0x3e363764	0.17794567

bias f4 [20]
0	0x3ff2586d	1.8933235
1	0xbd92fa81	-0.07176686
2	0xbf65c57f	-0.8975448
3	0xbfb9da52	-1.4519751
4	0x3ebf06df	0.3730993
5	0x3ea52622	0.32255656
6	0x3ec49a95	0.38399187
7	0x3f256bb6	0.6461748
8	0xbdba183f	-0.09086656
9	0xbcbba528	-0.022905901
10	0x3ed9e3df	0.42556664
11	0x3f78c2fc	0.9717252
12	0xbf9cdb8c	-1.22545
13	0x3f238850	0.6387987
14	0xbfb781af	-1.4336451
15	0x400b7b9c	2.1794195
16	0x3fe4bc3a	1.7869942
17	0x3dc11789	0.09428317
18	0xbecff543	-0.40616807
19	0x3f6c5441	0.9231606
