Iter_03/Models/Noise_5/simulation_10_20/pidnn_400.pt (torch, 88669 bytes, 23 tensors)

weight f4 [20, 2]
00000000: a6bb 57bf 15e1 57bf 388f 4f3f 2251 993d
00000010: e1ae a13f 1f1f 4a3f 718b 1a3e 547d 4e3f
00000020: 50c4 683f c100 9d3e acd6 68bf 1ad8 a83f
00000030: a065 d93d 583e 183f d4b2 dd3e fd32 483e
00000040: 5f09 2cbf 40e0 1cbf 7e94 acbd 0d6a 483e
00000050: 206e 973e a81d 18bf 47f3 a13f ecbf 3f3f
00000060: 6e03 7c3f 6217 263e d217 ebbe 3ead a5bf
00000070: 4b48 49bf b9fc e2be 1d25 0a3c 9cd7 cb3e
00000080: 92b9 5fbf fae2 06be e14c 81bf 0c4f 0cbf
00000090: f1f6 713e a8fd 35be ef2c 163f 17ef 9bbd
-0.84270704 -0.8432782 0.8107791 0.07486178 1.2631494 0.7895374 0.15092255 0.80659986
0.9092455 0.30664638 -0.90952563 1.3190949 0.106150866 0.5947013 0.43300498 0.195507
-0.672018 -0.6127968 -0.0842676 0.19571705 0.29576206 -0.5942025 1.2652367 0.74902225
0.98442733 0.16219857 -0.4591661 -1.2943494 -0.78625935 -0.44333437 0.0084317 0.39812934
-0.8739253 -0.13172522 -1.0101587 -0.54808116 0.23629357 -0.17772543 0.58662313 -0.07613962

bias f4 [20]
00000000: 91d5 4a3f 3e91 80bf d218 ac3f 5742 6e3f
00000010: bb51 943e ed84 153e bffd 23bf 50eb 963e
00000020: bd43 a1bf 33d8 bb3d 9260 7bbd f25d 1bc0
00000030: 1535 e73e 9e62 11be a56c df3c d980 45bf
00000040: ccb3 073e d088 663e e5ff 27bf 7f14 193f
0.79232126 -1.0044324 1.3445075 0.93069977 0.28968605 0.14601488 -0.6405906 0.29476404
-1.2598797 0.09172096 -0.061371394 -2.427609 0.45157686 -0.14197776 0.027273485 -0.7714973
0.13252181 0.22513127 -0.6562484 0.597969

weight f4 [20, 20]
00000000: 2df1 dbbd ae3f 0f3d 6856 4c3f deb9 a23e
00000010: e831 8f3e cf5e 1bbe 97f6 5f3e 541b a4bd
00000020: 0921 a9bd cace 613e e555 c8be ca9b c83e
00000030: 648d 0d3f 41f2 32bf 07fe b4be 05c7 6bbe
00000040: 80c3 f3be 47fa 9e3e f3e5 bfbe eedc 8b3e
00000050: 4cf0 7c3e cd4c a7bb 6ac0 d53e d854 5c3e
00000060: 4f57 1bbe 8499 513f ded8 373c 3b98 d63e
00000070: 60fa 04bf 157d 0cbe 8120 72bd e67c 483c
00000080: 86de fe3d 6339 dbbc 698d 453e 9d55 24be
00000090: e7b5 803e 6e1a f53d e96b bb3e 19ba e93d
000000a0: 5451 64bf 0f58 fbbc 9198 0c3f deb2 7e3f
000000b0: b708 17bc e32a 7dbf af40 9e3e 7aeb 30be
000000c0: 3d34 f9be fc2b 303f 9687 d8bd ee38 bd3f
000000d0: 3d79 503f c161 4dbf 419d fdbe 9e06 7bbe
000000e0: 0141 10bf 1649 233f 3cf4 58bf 61ec e53e
000000f0: 85c0 7cbe baa0 4a3e a3f1 f33e 2687 ba3e
00000100: 9654 fe3e 0c14 06bf ceff 92be 79e9 01be
00000110: fcd5 49bf 7366 353e 14cf 5d3e 402d 043f
00000120: d303 ce3e 9bb6 afbc 091f cd3d ed3f 443e
00000130: 022b 5cbe 2924 1d3d e75a 06bf 6818 013e
00000140: 2b36 903e 56f1 19bf 22f8 de3e 6d76 133f
00000150: 4fc2 2f3f a7ad 8a3e dac3 9ebe 29e4 163f
00000160: 7afc 39bf 8ce7 e6be d593 d73e 64c3 6ebe
00000170: 1a3a 4ebe 00af a9be 79cb 943e 2659 58be
00000180: b0d1 f7be 021a 7fbe 7cf1 703c 2aeb 273f
00000190: ce0d f6bd 93ab cdbe b57f 393f ee11 153c
000001a0: 704e 673d 0203 1bbe 467e f1be f7d3 cf3d
000001b0: 63e3 edbe 0a6c a8be 656f 893d f522 bdbe
000001c0: 7a1a 36be 0924 2ebf 4866 85bc 6e76 a4be
000001d0: 69f5 56be fec8 9b3e df65 bc3e 4bcf 023e
000001e0: bad4 77bf d409 e1be e530 1c3f b6a0 3f3f
000001f0: 29ff 763f 70fc 65bf 226e 48bf 8e8f 02bf
00000200: 19e5 25bf 8429 1e3f 2564 c23d d5bf e13f
00000210: b027 c73f 2185 4bbf 8ff7 4bbf f435 1fbf
00000220: e97b 80bf 1f78 83be a66e 4cbf 1c08 9d3f
00000230: 6980 c03e d5bc b9be dbcb 0fbf bfd4 cc3d
00000240: 421c 91bd f630 1f3e bc40 32bd 1926 ee3d
00000250: 6779 d9be 7903 41bd 35d0 18be 040b 88be
00000260: 5948 65be 9eba 21bd 3be5 d83e 1a5f 9abc
00000270: 7ff4 af3d 5e7e bd3c 3b57 f6be 2578 46be
00000280: c655 543f 164b 143d d293 f0be 3db9 95be
00000290: 1ebd 53bf 9583 463f 5847 0a3f e613 573f
000002a0: 3871 453f 326d 47bf 4306 1f3d e824 10c0
000002b0: b5b5 c4bf 024b aa3f cc87 a73f 78d0 84b9
000002c0: 830f 793f 1693 0dbf 1eea 013f 8d80 b6be
000002d0: 4da0 2e3e bf3e 903e dc04 28be d811 7abe
000002e0: 68ec 153e fd1d d63d a4dc 26bd 2096 043f
000002f0: d903 d1bc a97d 81be 82e4 de3d a4d4 78be
00000300: 7f51 5dbe 035b 1e3e 849f 01be 743c 633e
00000310: 6d14 c83d 6d70 febc beef a13e 589d 40ba
00000320: ad16 66be 9468 2cbe a303 f63e 9a43 ea3e
00000330: 3a99 1abe 1867 503f 8346 c23e 9312 c2be
00000340: a7f6 87be 1e21 bc3e 8518 5bbf 5814 d83e
00000350: 9863 aa3d f0a9 16bf d95e c7be ded8 233e
00000360: 1833 0fbd d31f 1c3e b970 95bd a982 8ebe
00000370: c5d4 9cbe 96ff 62bf 5bf3 a63f 63b2 433f
00000380: 4ad3 123f 1d87 61be 3a03 aabe 379d 523b
00000390: 9210 6ebf 0293 35bc 185f 843e 68ed 103e
000003a0: a8d7 503f 6dae 5fbf 503d 6b3c 3a8d 38bf
000003b0: 560c 02bf 1722 28be 4fc7 cabe f241 1c3f
000003c0: fa4e d2be b57e 09be 0dab 4d3f d1c5 883e
000003d0: 9c69 6bbe d209 f0be a5c3 06be 9f6b d0be
000003e0: afb6 01bf 22a0 e83c ac2c b23e 7e90 223f
000003f0: 9b3d 163f 2a83 06bf 87b8 debe f9bc 9d3e
-0.1073936 0.03497284 0.79819345 0.3178243 0.27967763 -0.15172885 0.2187141 -0.08013025
-0.08258254 0.2205154 -0.39128032 0.39181358 0.5529387 -0.699009 -0.35350057 -0.23025139
-0.47610092 0.3105032 -0.37480125 0.27316993 0.24701041 -0.005105591 0.41748363 0.2151674
-0.15170024 0.8187487 0.011221139 0.41913018 -0.5194454 -0.1371959 -0.05911303 0.012236809
0.12444787 -0.026760763 0.19292225 -0.16048284 0.2513878 0.11967932 0.36605766 0.114124484
-0.89186597 -0.030681638 0.549203 0.9949168 -0.009218386 -0.98893565 0.30908725 -0.17277327
-0.48672667 0.68817115 -0.10572736 1.4782999 0.81434995 -0.80227286 -0.49534038 -0.24514243
-0.5634919 0.63783395 -0.8474767 0.44906905 -0.24682815 0.19787875 0.47645292 0.36431235
0.4967391 -0.5237434 -0.28710788 -0.12686719 -0.7884214 0.17714863 0.21661025 0.51631546
0.40237293 -0.021449378 0.10015685 0.19165011 -0.21500781 0.038364563 -0.52482456 0.12606966
0.28166327 -0.60133874 0.43548685 0.5760258 0.68655866 0.2708561 -0.31008798 0.58941895
-0.72650874 -0.4509853 0.42104974 -0.23316723 -0.20139351 -0.33141327 0.29061487 -0.21127757
-0.48402166 -0.24912265 0.014706012 0.65593207 -0.12014352 -0.40169963 0.7246049 0.009098513
0.05647129 -0.15137866 -0.4716665 0.10147851 -0.46462545 -0.32894927 0.067107 -0.36940733
-0.17783538 -0.68023735 -0.016284123 -0.32121605 -0.20992054 0.30426782 0.3679647 0.12774388
-0.9680897 -0.4395281 0.6101211 0.748546 0.96483094 -0.89838314 -0.7829305 -0.510003
-0.648027 0.617821 0.09491757 1.7636667 1.5558987 -0.79500014 -0.7967462 -0.621917
-1.0037814 -0.25677583 -0.79856336 1.22681 0.3759797 -0.3627688 -0.56170434 0.100015156
-0.07085468 0.15546021 -0.043518767 0.1162836 -0.42475435 -0.047122452 -0.14923175 -0.26570904
-0.2239088 -0.039484613 0.4236239 -0.018844176 0.08591556 0.023131546 -0.48113427 -0.19381769
0.8294338 0.03620442 -0.46987778 -0.29242888 -0.82710445 0.7754453 0.5401511 0.8401474
0.77125883 -0.77900994 0.03882433 -2.2522526 -1.5367953 1.330414 1.3088317 -0.00025332323
0.97289294 -0.5530256 0.5074786 -0.3564495 0.17053337 0.2817287 -0.16408104 -0.2442087
0.14640963 0.104549386 -0.040737763 0.5179157 -0.02551453 -0.25291184 0.10883428 -0.24299866
-0.2161312 0.15464406 -0.12658507 0.2219103 0.09769521 -0.031059468 0.3162822 -0.0007347665
-0.22469588 -0.16836768 0.4804965 0.457547 -0.15097514 0.8140731 0.3794442 -0.37904796
-0.26555368 0.36744016 -0.8558429 0.4220302 0.08319777 -0.58853054 -0.3893955 0.16000697
-0.034960836 0.15246515 -0.07296891 -0.2783406 -0.3063108 -0.88671243 1.3043016 0.7644407
0.5735365 -0.22024198 -0.33205587 0.0032137164 -0.92994034 -0.011082413 0.258538 0.14153063
0.81579065 -0.8737553 0.01435788 -0.72090495 -0.50800073 -0.16419254 -0.39605185 0.61038125
-0.4107588 -0.13427241 0.8033913 0.26713422 -0.22989506 -0.46882492 -0.1316057 -0.40707108
-0.5066938 0.02839667 0.34799707 0.6350173 0.5868775 -0.5254389 -0.43500158 0.30808237

bias f4 [20]
00000000: 8392 603f b98d 063e 27ec cf3d 7f3c 7a3f
00000010: 0338 a03f d775 873f d0ab 453e 9159 4dbe
00000020: 8c67 b13e 13a9 03be 0820 0d3f a226 d23f
00000030: 8a15 803f 5c09 893d 9cd3 213f adff 33bf
00000040: 188f c93e 50cb 763e 8c97 88bd ce50 d43e
0.8772356 0.1314 0.10152464 0.9774856 1.2517093 1.0582837 0.19303823 -0.20053698
0.34649312 -0.12857465 0.55127 1.641804 1.0006573 0.06691238 0.63213515 -0.70312005
0.39366984 0.24100995 -0.0666953 0.414679

weight f4 [20, 20]
00000000: 912e cdbe f87d f2be 20db 6ebc c308 42bf
00000010: c51b 053e edcc 3d3e f4ca 4fbe a77d 3c3f
00000020: 6e11 54bb ceab 223f d4ef 97bf f6d8 0cbf
00000030: 70fa 26bf d604 54be c5a9 0dbf 05ff 26bd
00000040: d82e 31bf 96f3 94be 30ad f3bd 936f b7be
00000050: 0259 013f f538 5a3f dd9f 18bf 8ba5 193f
00000060: 76c6 153f 03bb 9b3e 29e0 29bf 8df7 7bbe
00000070: 53ee 313f 7138 313d 3cb7 f2bd 9e52 c53e
00000080: 1d3c 603f c04d 363f 52d8 253f c322 0dbe
00000090: 6ea9 0e3f 2da0 9bbe ffe0 3dbf 78c4 e1be
000000a0: 934b 4cbf 77d7 713e 685a d13d 17ee 39bf
000000b0: b844 323e 93b3 bf3e 47db b23c 1b53 063f
000000c0: f97d 213e ed28 053f 0f14 48bf e1f9 4ebf
000000d0: 6de2 f2be 143d 93be 9937 6bbe 4008 0abf
000000e0: cedf 46bf 12ef 20bf 8ab0 973e f85c aabe
000000f0: 7d66 7f3f b1d7 15be 34e2 ebbe 76e0 cc3e
00000100: 8df1 b63e 6274 853d 8a88 ebbd e55d 1cbf
00000110: 787e ee3d 8f0c c0be e3ac 963e 4622 e13a
00000120: 21c5 a63e e672 103e 8345 e63e acc8 c73e
00000130: d77a 0a3f 1de3 45be 767e bebe 42cb 52bd
00000140: 638e b13e 27fe 55bc 2564 23bd 6db1 09be
00000150: c296 31be 1c93 95be 2b51 d3bc f95f a43e
00000160: 7cd4 5f3e d64c d3be 1199 333e f573 573e
00000170: d5e3 3b3f 4554 f83c 5f51 e13e eb8d e5be
00000180: 1170 043f ab2d c8bd a1cd 31bc ed4a a43c
00000190: 5e8f 0bbf 9974 573d de77 d13e 0f58 35bb
000001a0: f4ad da3c e831 a53e 8119 d33e 7d60 1ebc
000001b0: 9a5b 093d fa89 233e db27 933d 3ce2 d93c
000001c0: 6846 03bf d52b ec3d f8e3 d3be be60 823e
000001d0: 5634 8bbd 89f1 f5be c229 afbb 5473 2f3e
000001e0: a36b 253e 4636 9ebd 09ee ef3e 098c 89be
000001f0: caa1 b6bd 2133 b7be ab26 9b3c 0565 093f
00000200: 6f3c 243d b5d1 02be e4b4 c5bc 2eb8 9ebd
00000210: f16d 62be ddd0 3bbe f208 403e 6d89 8cbe
00000220: efeb cb3e 23f6 823e 9b40 493c 74a5 5e3e
00000230: dd53 c53d b597 5a3f 473a 1ebe f835 9d3e
00000240: 7793 793f 2200 2d3f a91a d7be 05ff 93bd
00000250: 7f7e da3e c9b8 be3e 98cd d5be ebcb 95bd
00000260: d766 1dbe b030 0e3f ec96 303e c4ab 41bf
00000270: 28e9 333d 8434 cabe cbe3 93be 4a80 55bf
00000280: 9171 083e 06df c4bf 1a00 683f 66ba d2be
00000290: c3a7 b3bf 0fdb 6bbf 2be8 943f d964 35bf
000002a0: 76cc f3be 289f 1ebf 3b83 9b3e 996f 9e3e
000002b0: c17c 363e 8e48 34bf 3b53 f83d ac3e cc3f
000002c0: e178 dd3c b6ba a13f cdd4 f83e 9e01 963f
000002d0: cbd3 fa3d 8677 d33d 22a4 133e 47bd a33e
000002e0: af01 003f 6374 aabd 6ce8 053e 862b 83bc
000002f0: 2655 763d baba dc3e b2c7 54bf 5d87 c3bd
00000300: 0f2b a7bd 3a13 e0bd 2864 283d fb77 e93c
00000310: c388 06be 621a 663d 4e8a 5b3e 808e 2e3d
00000320: 2a29 133f 7174 9ebd cf8a 1ebe 6122 cc3e
00000330: 9e37 02be 90a1 79be 9e95 4c3d aab4 02bf
00000340: e9e5 ef3a c660 41bd 48a0 c83e 057e d03e
00000350: c419 8cbd 9ed6 033e a345 4e3f 0570 773e
00000360: cc71 cc3e 214b 85be 0ab1 8abe 83ba c33e
00000370: ca7d 843f 60b4 f53e 6b41 76bf f66f 853f
00000380: d879 323f 0ae0 353e ce51 5abe 6735 1fbf
00000390: 7e72 fb3e 6004 b8be 9a6c 033f 4a9c 123f
000003a0: 7334 9c3f db59 883f fc23 533f 328f 0fbf
000003b0: 1611 143f ef51 013e f3f9 14bf b8ab e33d
000003c0: 86b4 1a3f 0bdb a53e 2622 e83d 9a16 8d3e
000003d0: 0763 03bf 370f f7be f92f 203e fc7b 143d
000003e0: 0712 35be 074d 9d3d 6a8a eb3e 4d77 febd
000003f0: a3b7 b33e f4bb 06bd 04fd 203e a1e3 30bd
-0.4007459 -0.47361732 -0.014578611 -0.7579462 0.12998874 0.18535204 -0.20292264 0.7362923
-0.0032359022 0.63543403 -1.1870065 -0.55018556 -0.6522589 -0.2070497 -0.5533717 -0.04077055
-0.692121 -0.2909209 -0.11898267 -0.35827312 0.5052644 0.8524316 -0.5961893 0.60018224
0.5850595 0.30416116 -0.66357666 -0.24606152 0.6950428 0.043266717 -0.118513554 0.38539594
0.87591726 0.7121239 0.64783204 -0.13782792 0.5572728 -0.30395642 -0.7417144 -0.44095206
-0.7980282 0.2361735 0.10222322 -0.7262892 0.17409027 0.37441692 0.021833075 0.5247056
0.15770711 0.5201557 -0.78155607 -0.80850035 -0.47438374 -0.28757536 -0.22970428 -0.5391884
-0.7768525 -0.6286479 0.29626876 -0.33274055 0.9976576 -0.14633061 -0.46071017 0.40015
0.35731164 0.06516339 -0.11500652 -0.6108077 0.11645216 -0.3750958 0.29428777 0.0017176352
0.32572272 0.1410633 0.44974908 0.39020288 0.5409369 -0.19324918 -0.37205857 -0.051463373
0.34678945 -0.013061083 -0.039890427 -0.13446589 -0.17342666 -0.29213798 -0.02579554 0.3210447
0.218584 -0.4126956 0.17538859 0.21040328 0.7339452 0.03031362 0.44007394 -0.44834837
0.517335 -0.097743355 -0.010852248 0.020055259 -0.54515636 0.05260143 0.40911764 -0.0027670895
0.026694275 0.32264638 0.41230395 -0.009666559 0.033534624 0.15970603 0.07185336 0.026597135
-0.51279306 0.11531798 -0.41384864 0.25464433 -0.06797092 -0.4803584 -0.005345554 0.17133838
0.16154341 -0.077251956 0.46861294 -0.2686465 -0.089175776 -0.35781196 0.018939337 0.5366977
0.040096696 -0.1277531 -0.024134107 -0.07749973 -0.22112252 -0.18341394 0.18753412 -0.27448598
0.3982844 0.25578412 0.01228347 0.21742803 0.09635136 0.85387737 -0.15451919 0.30705237
0.9749064 0.6757833 -0.42012528 -0.072263755 0.42674634 0.37250355 -0.41758418 -0.07314285
-0.15371262 0.5554304 0.17245072 -0.7565272 0.043923527 -0.3949319 -0.2888473 -0.8339888
0.13324572 -1.5380561 0.90625155 -0.41157836 -1.4035572 -0.9213113 1.1633352 -0.70857006
-0.4761693 -0.61961603 0.30373558 0.30944517 0.17821027 -0.7042321 0.1212525 1.5956626
0.027035179 1.2635105 0.48599854 1.1719244 0.122474276 0.10325532 0.1441808 0.31980345
0.5000257 -0.0832298 0.13076943 -0.016011965 0.060139798 0.4311121 -0.8311721 -0.09547303
-0.0816251 -0.10941167 0.04111114 0.028499594 -0.13138108 0.056177504 0.21439478 0.042616367
0.57484686 -0.07737053 -0.15482639 0.3986998 -0.12716529 -0.24378037 0.049947374 -0.5105692
0.0018302771 -0.04721143 0.39184785 0.40721145 -0.06840852 0.12874839 0.8057501 0.24163826
0.3993057 -0.2603388 -0.27088195 0.38228235 1.0350888 0.47989178 -0.9619357 1.0424793
0.6971717 0.17761245 -0.21320269 -0.6219086 0.49110788 -0.35940838 0.5133759 0.5726973
1.2203506 1.0652422 0.8247678 -0.56077874 0.5783857 0.12628911 -0.5819389 0.11116737
0.60431707 0.3239368 0.11334638 0.27556306 -0.5132298 -0.48253796 0.156433 0.036251053
-0.17682658 0.076807074 0.4600404 -0.124250986 0.3510104 -0.03289409 0.15721518 -0.043185834

bias f4 [20]
00000000: ae38 7bbf 6812 f93e e564 0cbf 3bb8 803e
00000010: c6cb 123f 843f bdbe d8fc 6d3e 01fe b03e
00000020: da71 d5be b024 2c3e f902 203f 2c6e 783f
00000030: d3bc 6c3e dfdb 58bf 31f7 d53e 5ee7 843e
00000040: 5a3a a6be f6b3 9d3f 0662 c8bf 41ff 34bf
-0.9813336 0.48646855 -0.5484145 0.25140557 0.57342184 -0.3696252 0.23240983 0.3456879
-0.41688424 0.1681087 0.62504536 0.9704311 0.23118906 -0.84710497 0.41790155 0.2595777
-0.32466394 1.2320545 -1.5654914 -0.70701987

weight f4 [20, 20]
00000000: 4474 a6be 2ead f4bd 0a30 8ebe 14fb a33e
00000010: a49e e7be 19e7 163f 47b2 7cbf 4d69 243e
00000020: 6b67 92bd c9f5 523f 75db 053f 66fa 873d
00000030: 099f 98bf 5fb0 19bf 91ac 983e 02a7 abbe
00000040: 47c1 4abe c6a0 76be 3ed0 123f dc9b 25bf
00000050: 3737 c43d da34 abbd 7021 25bd 76c2 223e
00000060: a8a9 59bd 0c46 7cbd cf59 b63e 0c28 993d
00000070: 0f29 9ebe 9232 773d 4442 abbe 18a9 a03e
00000080: 68eb 643e b4ce d2bd c71c b5be 59e3 5c3d
00000090: 0fc2 90be eb6f 2c3f 4aaa bebe 2168 433d
000000a0: 921b 15bf 6d32 cfbe a170 91be 96b3 573f
000000b0: 3882 08bf 9144 4d3f c577 6abf 37de 07be
000000c0: 4854 09bf 4f72 4f3f 818c 0f3f 1253 ce3e
000000d0: 3ee3 4cbf aa53 bbbe 2414 f4bd 3885 1a3f
000000e0: c243 5bbe 8ad0 a4be 7b1e 993e 055d 11bf
000000f0: 38dc 82be 9b8b 68bf 0d2a 443e b72c 3ebe
00000100: 1933 64be 42d5 843e 1832 77be afe1 133e
00000110: 0a3f cc3e 442d 193e 6302 5ebe a6f5 bfbe
00000120: 70c9 7dbe 53b9 38be d35c f6be 11f4 033e
00000130: 016f b3bd 9fd4 2dbf ca3a 1d3f 4271 373e
00000140: 6143 aa3e ad1a 38bf b490 2f3f cce0 2bbd
00000150: 7bf0 573d 4722 b33e 19e6 6cbe 8e7e c4be
00000160: b515 2c3f 9e2e 933d da90 d0be 4d4b 03bf
00000170: aa38 77be 5ac6 893c ab44 2bbf b83a 75bd
00000180: abd4 163f 417e a7bd a7fb a93e e70d bd3d
00000190: 5ae5 99be 63f0 fbbe 0b6d 89be bf72 8bbd
000001a0: fa77 1fbe 00a1 713e 9302 07bd ee71 f73e
000001b0: 9ddd 293e be14 c93e 2bd3 dfbd 1572 d4be
000001c0: eb56 6d3e 88b2 86bd 17f2 98be e1ce f8bd
000001d0: 494d 3ebe b15c 9ebe 33a0 b13d 2787 cc3d
000001e0: e6ad 5e3e a5dd 573f 3904 3cbe 2ac3 25bf
000001f0: 246b 3e3f 005a 31bf 3bee 0d3f 90ed 5c3e
00000200: d141 2fbe 14b1 0abf 9807 bf3e b11a cdbc
00000210: d31a 2a3f beff d23e aa0b 94bd 88b4 bdbe
00000220: 8ff4 a9be 9301 553f c2ac 47bf 7c91 8fbd
00000230: 8cf4 33bf 3a5f 54be 8868 2abf 9a39 2cbf
00000240: 6cb4 143f 48bb 35bf 2cf1 423f 114a 98bd
00000250: 8377 57bd 1cbd 4dbf bb50 353f 9fb9 63be
00000260: f3e7 e13e 6db1 103f ac28 bd3e 154a 3bbe
00000270: 1cd3 99bd e011 453f f962 03bf af28 9b3e
00000280: 31d2 03bd 44ea b53d 9ead 3ebe 4540 f43d
00000290: 3d07 f93e 5c81 c3be 7605 8f3e f1f1 e73e
000002a0: e4f8 aebd a485 ccbe 160f 883d 2af0 41be
000002b0: 40d9 333f 8c82 9b3e 7461 fa3d 6c9f 4bbe
000002c0: 4ce7 16be 6da6 353f a9d5 32bf 5abc b13d
000002d0: 2afa 23be e331 e0be c94a 58bd d838 463c
000002e0: 6791 72be 75cc 453e fd57 64be 2b97 203d
000002f0: 90cf a3be 08ee 7f3e 42a5 103c e98d 223d
00000300: af5d d5be 0094 01bf 9596 bb3d 8f91 48bd
00000310: c321 073e a55d e4be 3808 fc3e 8641 88be
00000320: 3506 f2be 8981 3abf 09e5 97be e082 363d
00000330: 5af0 0ebf 729c 1c3f 04f8 bcbe 9dd9 093f
00000340: efa3 5abe 01cf fa3e fec6 493f 46da 263d
00000350: a860 6dbf 56ac b93e 5d30 b4bd e1f9 1d3e
00000360: d613 62be 68f8 f3be 050b a53e 61be 31bf
00000370: 7637 a8be b162 25bf 7520 4d3e 5686 8abe
00000380: f4e4 57be 8e34 2c3f 6fc3 d9be 373b 3a3e
00000390: ca9f babe d10a 6f3e 1731 ce3c bbe5 453e
000003a0: 1aa5 c0be 449e bebd 2a97 fdbe 24f0 163e
000003b0: 48e2 243f 9c2c 89be 425e da3e cac3 8f3e
000003c0: 8c54 e8bd a319 debc 4989 d93e a4bf 8bbc
000003d0: 23ee 2a3d 6695 463d 65bb 5fbd 84c8 afbe
000003e0: 0c14 0f3f cd3f a5be db16 2abf f7ea 923d
000003f0: 321f 893e 6b89 8abe a503 dcbd ee14 d73d
-0.3251058 -0.11947094 -0.27771026 0.32027495 -0.4523822 0.5894638 -0.9870953 0.16055794
-0.07148632 0.8240629 0.5228799 0.066395566 -1.1923534 -0.60034746 0.29819158 -0.33525854
-0.19800292 -0.24084768 0.57349 -0.6469095 0.09580844 -0.0835969 -0.04031509 0.15894493
-0.053140312 -0.06159024 0.35615394 0.074783415 -0.308907 0.060350962 -0.33448994 0.31379008
0.22355425 -0.10293332 -0.35373518 0.053927753 -0.28273055 0.67358273 -0.37239295 0.047706727
-0.58245194 -0.4046816 -0.28406242 0.842584 -0.533237 0.8018275 -0.91589004 -0.13268362
-0.5364423 0.81033796 0.56073767 0.40297753 -0.80034244 -0.36587268 -0.11917904 0.60359526
-0.21412566 -0.32190353 0.29906067 -0.5678256 -0.2555864 -0.9083802 0.19156666 -0.18571745
-0.22285117 0.25943953 -0.24140203 0.1444156 0.39891845 0.14958674 -0.21680598 -0.37492102
-0.24783874 -0.18039446 -0.48117694 0.12886073 -0.08761407 -0.6790256 0.6141783 0.17914298
0.3325453 -0.71915704 0.68580174 -0.04196243 0.052719574 0.3498709 -0.2313465 -0.38377804
0.6722062 0.07186626 -0.40735513 -0.51286775 -0.2414271 0.016818214 -0.66901654 -0.05987045
0.58918256 -0.08178378 0.33199808 0.09231167 -0.30057794 -0.49206838 -0.26841006 -0.068089955
-0.15573111 0.23596573 -0.03296144 0.4832911 0.16588445 0.39273638 -0.10928949 -0.41493288
0.23177688 -0.06577021 -0.298722 -0.12148834 -0.1858417 -0.30930093 0.08673134 0.09986716
0.21746024 0.8432258 -0.18360986 -0.6475092 0.74382234 -0.69277954 0.55441636 0.21574998
-0.1711495 -0.5417645 0.3731048 -0.025037142 0.6644718 0.4121074 -0.07228787 -0.37051797
-0.33194396 0.8320553 -0.7799798 -0.07010171 -0.70295024 -0.20739451 -0.6656575 -0.67275393
0.580878 -0.70988894 0.7614925 -0.07436002 -0.05260421 -0.80366683 0.7082631 -0.22238778
0.44122276 0.5652073 0.36945093 -0.18289979 -0.07510969 0.769804 -0.51322895 0.30304477
-0.032182876 0.08882573 -0.18620917 0.11926321 0.48638335 -0.3818463 0.27933854 0.45301774
-0.08543566 -0.3994571 0.066435024 -0.18939272 0.7025337 0.30373037 0.12225619 -0.19885033
-0.1473667 0.7095707 -0.6985727 0.08678503 -0.16013399 -0.4378806 -0.052805696 0.012098514
-0.23688279 0.19316275 -0.2229919 0.039206665 -0.31994295 0.24993145 0.008828463 0.039686117
-0.41673037 -0.50616455 0.091595806 -0.04896694 0.13196473 -0.44602695 0.4922502 -0.2661249
-0.4727036 -0.72853905 -0.29666927 0.044558406 -0.558355 0.61176217 -0.3690797 0.53847677
-0.21351598 0.48986056 0.78819263 0.040735506 -0.9272561 0.36264294 -0.08798287 0.15427352
-0.2207788 -0.47650456 0.3223497 -0.6943112 -0.32854813 -0.64603716 0.20031913 -0.27055615
-0.21083432 0.6726769 -0.42531916 0.18186651 -0.36450034 0.2334397 0.025169892 0.19325916
-0.37625962 -0.093075305 -0.49529392 0.14740044 0.6440778 -0.26791847 0.42650038 0.28079063
-0.11344251 -0.027111834 0.42487553 -0.017059155 0.04173101 0.04848232 -0.054622073 -0.3433267
0.55889964 -0.3227524 -0.66441125 0.07173722 0.26781613 -0.27057967 -0.10742883 0.10502039

bias f4 [20]
00000000: 4d2e f4bf d83d a63e be49 fcbf af93 47bf
00000010: 3607 bdbe 5762 a9bd ffaf 703f 3775 6e3f
00000020: b1c0 573f 435d 45bf 0bdc b2bf 4203 42bf
00000030: 381f 0f3f ef86 8bbf a897 5cbe ba86 e63d
00000040: fc34 773f 7821 3b3f f5d0 313f d354 5dbf
-1.907663 0.32469058 -1.9710004 -0.7795972 -0.36919564 -0.0827071 0.9401855 0.93147606
0.842784 -0.7709543 -1.3973402 -0.7578622 0.5590701 -1.0900553 -0.21542227 0.11256166
0.9656522 0.73097944 0.6945947 -0.86457556

weight f4 [20, 20]
00000000: bf4d eebe f9e1 22bd 10f0 903e 55be 47be
00000010: ee98 c83e c268 92be 3135 b93e e409 0cbf
00000020: eab7 f3bd 2ac7 9bbd 8821 893e fdb3 c33d
00000030: fb14 02be 8090 69be 672c 883e e7ef f93e
00000040: 3f4e 113e ea5c 40be 516c 00bf 26d5 53be
00000050: 32cf 993e 21f3 9c3d 4595 cd3e 742f a2be
00000060: 46c2 2ebf a5bd 873d 26ad 62be af08 433f
00000070: 5572 f23e d543 b13e 6887 8a3e bcf8 5fbe
00000080: 6909 4dbf 49fb 4cbe 86c2 2d3e d510 6ebd
00000090: d8fb 01be 95fa 613e 6dd8 b33c 663e 613f
000000a0: 2a63 1ebf 7d88 843d c1cd bcbd c72d 433e
000000b0: 7b4b 2d3f cdc0 b5bd bc82 153f 2e15 b8be
000000c0: 0a5c a83d 875a 97bb 7e77 44be dc97 003e
000000d0: 8431 5c3e 8e36 c4bd 3fe1 993d c2ac af3e
000000e0: 6e33 013f 0cd8 d03d 6b9e abbe 79ca e9be
000000f0: f11f c23d 2ee8 e2bc b264 7b3d 6a70 0abe
00000100: 7ff3 ddbe de4d 1e3e 0e64 103d 795f 23bc
00000110: 724c 06bc 36d4 b23e eac8 06be 3c59 47be
00000120: 583a 8abe e4e9 47bd 2c16 0e3f d4ff 9dbc
00000130: f53a f0bd 27e8 c1bc 0852 aebd 8dc4 883e
00000140: 8bf8 4cbd efa1 9e3d 79da e13c 2b76 4cbe
00000150: 22a0 93be 244d d6be 7f34 3ebb d45c 803e
00000160: f227 6c3e 6be1 17bf 2c9f 0a3e 4661 3cbe
00000170: c179 8cbe 2574 733d 9d5f 1b3f 549b bd3e
00000180: 424c 81bd 8e66 c43e 2f00 8c3e 9045 de3c
00000190: 3a3e ffbe e201 40bc 71f1 75bf 9ca5 103e
000001a0: b65e 89bd e598 04bf 5a5c a3be 3370 603f
000001b0: 270c 7d3f 2375 03bf 8ea0 edbe 742d a13e
000001c0: ed55 e73e a170 05bf 77f2 febe d82b a43b
000001d0: 76fc 743f 9ece 653f dd08 a23f da0e fdbe
000001e0: 866a 79bd 30eb b23e 3afe 0dbf d669 da3e
000001f0: 80c5 063f 1318 f5bd f113 31be 5ffa 1bbe
00000200: 7e72 1bbe 02c2 e7be 950d 133e 73a8 503e
00000210: d089 803e 98a0 b5bd 3156 3bbf 0565 0b3f
00000220: 265f cf3e 0b0e c83e 6ee4 80be 4cd9 06bc
00000230: 5f6f cebe 218f 17bd 0147 bdbe 302d 5e3e
00000240: b386 7d3e 892b 913e 9057 c33e b7ee 6cbe
00000250: 979e ff3e 5b7e 18bf 69b8 a53d 24be 063e
00000260: 944b 58be 1821 77bd af00 f13d de37 a0be
00000270: 3569 cb3e 4a11 793e 54e0 1dbc 6035 0abf
00000280: dc9d 993e f6e8 e7be 442b 2b3f 94f4 96be
00000290: 562c 7cbd 7093 d73e 533b 63be 0a3e d13e
000002a0: e406 5dbe 6780 2f3d a5cc 213e 6939 0abe
000002b0: 4bf7 c4bd 077d b6be b946 fd3b e213 cebe
000002c0: e782 f4be 870f 463e f9ee a23d 48b7 d43e
000002d0: f151 f0be 36d6 2dbd 955d c4be 905b 95be
000002e0: 29e0 9fbe 9a14 39be c7e2 fdbd 4585 f93e
000002f0: c8a6 91be b27b d2be befe d0be 78eb 413e
00000300: 9b03 933e c667 1c3e 96ed 07bd 1073 5abe
00000310: e723 f53e 3101 1c3f 2d9f 023f 17fa fb3d
00000320: c403 013f b3c3 4d3e f40b e53e 5c41 e5be
00000330: 79f0 68bf ed32 d13e 8654 c1be defa 123f
00000340: c684 3a3b 91f4 d03e d3d3 843e fd69 debe
00000350: 7887 84be 1cc1 483d df9f b0bd 511c 3f3d
00000360: 4076 12bf b24c d93d 2633 0b3e a2bb 0a3f
00000370: 4dc1 873e 7d1c 03bf 1c51 db3e c1ac b93e
00000380: 1553 44bf c253 903e c416 a63e 441c 37be
00000390: 5c4e 76be 5d9c 033f 7108 cf3e 5e77 4bbf
000003a0: b902 05bf 820c cb3e 29a4 a63d 7f3b 233f
000003b0: bff2 8bbe eacb 2dbe 6692 1c3f 3033 c53a
000003c0: 5622 98be 7e81 b63d bbab f4be 4d60 213f
000003d0: d04b e53c 5c87 4dbe c83e cb3e 1dc2 1abf
000003e0: f2fe ddbd a2e2 75be bb3e 8fbe 5426 353e
000003f0: 7f20 4e3e a6a2 83be 77ac 8a3e 3000 2c3e
-0.4654369 -0.039766286 0.28308153 -0.195062 0.39179176 -0.2859555 0.36173394 -0.5470259
-0.11900313 -0.07606347 0.26783395 0.095558144 -0.12703316 -0.22809029 0.26596376 0.48815843
0.14190005 -0.18785444 -0.5016528 -0.20686778 0.3004089 0.07663561 0.40152946 -0.3167683
-0.6826519 0.06627969 -0.22136363 0.76185125 0.47352853 0.34622064 0.27056432 -0.21872228
-0.80092484 -0.20017733 0.16968736 -0.05812152 -0.12693727 0.22068246 0.021953786 0.8798584
-0.6187006 0.064713456 -0.09218932 0.19060431 0.676933 -0.088746645 0.5840261 -0.3595366
0.0822068 -0.004618946 -0.19186208 0.1255793 0.21503264 -0.09580718 0.075136654 0.3431149
0.504691 0.10197458 -0.335193 -0.45662287 0.094787486 -0.027698603 0.061375327 -0.13519445
-0.43349835 0.15459391 0.03525167 -0.009971493 -0.008196937 0.3492753 -0.1316258 -0.19467634
-0.26997638 -0.04880704 0.5550258 -0.019287027 -0.11729995 -0.02367027 -0.0851174 0.26712456
-0.050041717 0.0774573 0.027569996 -0.19966953 -0.2883311 -0.4185573 -0.002902299 0.25070822
0.23062113 -0.59328336 0.13537282 -0.18396482 -0.2743664 0.059436936 0.6069277 0.37032568
-0.06313373 0.38359493 0.2734389 0.02713278 -0.49852163 -0.011719199 -0.96071535 0.14125675
-0.06707518 -0.517958 -0.31906396 0.876712 0.9884667 -0.5135061 -0.46411556 0.3147999
0.45182744 -0.52124983 -0.4979436 0.0050101094 0.95697725 0.897684 1.2658955 -0.49425393
-0.060892604 0.3494506 -0.55466044 0.4265887 0.5264511 -0.119674824 -0.17292763 -0.15232228
-0.15180394 -0.45265204 0.1436065 0.20376758 0.25105143 -0.088685215 -0.7317839 0.5445102
0.4050228 0.39073214 -0.25174278 -0.008230519 -0.40319344 -0.037001733 -0.36968234 0.21696925
0.24758415 0.28353527 0.38152742 -0.23137937 0.49925682 -0.59567803 0.08091814 0.1315847
-0.21122581 -0.060334295 0.117677085 -0.31292623 0.39728704 0.24323002 -0.0096360035 -0.53987694
0.3000325 -0.45294923 0.66862893 -0.29483473 -0.06156572 0.42104673 -0.22190599 0.40867645
-0.2158466 0.042847063 0.15800722 -0.13498463 -0.0961748 -0.35642263 0.007729378 -0.40249544
-0.4775612 0.1934186 0.07955737 0.41546082 -0.46937516 -0.042440616 -0.38352647 -0.2917142
-0.31225708 -0.18074265 -0.1239677 0.4873449 -0.28447556 -0.41109997 -0.40819353 0.1893748
0.28713688 0.15273961 -0.033185564 -0.21332955 0.47878954 0.6093932 0.5102413 0.1230356
0.5039637 0.20094185 0.44735682 -0.44776428 -0.9099193 0.40859166 -0.377598 0.5741404
0.0028460487 0.4081159 0.2594286 -0.43440238 -0.25884604 0.04901229 -0.08624243 0.046657864
-0.57211685 0.106103316 0.1359373 0.54192555 0.26514664 -0.51215345 0.4283532 0.36264613
-0.76689273 0.28188902 0.32439244 -0.17881876 -0.24053329 0.51410466 0.40436128 -0.79479015
-0.5195728 0.3965798 0.0813678 0.6376266 -0.27333638 -0.16972318 0.61160886 0.0015045162
-0.29713696 0.089114174 -0.4778727 0.6303757 0.027990252 -0.20071167 0.39696336 -0.60452443
-0.108396426 -0.24012235 -0.27977547 0.17690402 0.20129584 -0.25710028 0.27084705 0.16796947

bias f4 [20]
00000000: 53a8 5a3f 01ee b4bf 7072 473f 96d2 7abe
00000010: ca53 fabe 148a 483e 6966 653f 17c2 573e
00000020: 5b10 8bbe 19a9 c33e 9342 c0bf 4b24 cfbe
00000030: 22de bf3f fcb0 7ebf 9bc2 963e 2eb6 803f
00000040: dcd8 28bd 57ef bc3d 469e 833e 4602 1dc0
0.8541309 -1.4135133 0.7790899 -0.24494395 -0.4889205 0.19583923 0.8960939 0.21070133
-0.27160916 0.3821495 -1.5020317 -0.40457377 1.4989665 -0.99488807 0.29445347 1.0055597
-0.04122244 0.09225338 0.2570669 -2.4532638

weight f4 [20, 20]
00000000: 7900 7fbe a5af 7e3e a869 b3be b2d3 dfbd
00000010: 0bc8 16be 61d6 41be 6de4 003e 4090 b8be
00000020: 98fa 833e 3e4e 0a3f e511 9b3e d5b8 933e
00000030: 9dc0 f83d 01dc a03e 52bc ac3e cfc2 d73e
00000040: 2dfc 21be 3f1e aa3d 6678 8b3e 995e b73d
00000050: 99ed 4abe 0701 dcbe f4fc 0abf bbcf c73e
00000060: 11bf b43e aefe 583d 7377 84be 4fa3 cb3d
00000070: 34e7 9a3e a23f 35bd 994a 5f3e bf14 8bbd
00000080: 7808 d53d d0f8 f53e 0240 6dbf 47df 70bf
00000090: 9df8 223e 7e7c 2d3e 8900 123f 6090 aabf
000000a0: 6f68 a43e b3b2 dbbe 57f2 ef3e 5ba3 30bf
000000b0: 1186 b5be b72e 63be c5b5 ea3e 047f 593e
000000c0: f00f 1dbf 744a 7dbe ad21 3fbf a440 1d3f
000000d0: 4efc e13e 163d 85be dc9d fe3e c4c9 593d
000000e0: 9d03 e33e 94e5 37bf 2fd9 bfbd 25e4 8dbe
000000f0: adee 84be c3b8 303f 149b 0dbf 6b36 72be
00000100: 4076 a33c 21b4 323e d40a dd3d f97f aa3e
00000110: 4b16 27bd 04fb aa3d f80d 53bd d44d 153e
00000120: c883 16be c0ed f43c bd24 6d3e 42dc f23e
00000130: 3863 123d 9a8d 08be 5e9e 5d3d 3bd0 09be
00000140: cef6 50be 4006 b7bd 4049 08be 047b 143e
00000150: b590 de3e d95d 893e 9f4d 2abf 442f c8be
00000160: 0e9b 6e3e 8af4 713e 05eb 273f 92cc 3c3f
00000170: 0264 b2be 4083 953e 6be2 8ebe 3245 e33e
00000180: dfec 84bd 752e 62be 3159 f83d ac19 20bf
00000190: 9445 e03e 9b6b 5abe b1eb cfbd 46bd 903d
000001a0: d22f 673e 4815 22be a3b8 853e f6be 863e
000001b0: ad75 68bd 51c8 143e d0e7 f7bd fc0a a1be
000001c0: bcd2 8b3e 0a00 b1bc 10ae d13e 3177 893e
000001d0: f227 a53e 4ff2 693c 0616 babe 5c75 5b3f
000001e0: 4c00 593f 1ab4 55bf 88a5 363f 700d 84bf
000001f0: c54d 1bbf 8474 b0be 23d8 993f 3b86 863f
00000200: 3686 3fbf d900 3bbf 1e9d 05bf f203 a9be
00000210: e759 463f 1a6b adbf 22b0 a13f ac6e a03f
00000220: 557e b3be aa19 b03e b52d 22bf f2b9 a23f
00000230: 72d1 ae3e d310 883d e263 673d a3e2 18bd
00000240: 8edc 9bbe 3279 823e a726 883e acc1 4fbd
00000250: 425a 093e 8664 b93e 4c8e 03bf 4c71 8a3e
00000260: 5271 acbe 911a 50bf 0ff9 dd3d 7f96 46be
00000270: 83bf a3be 70dc 01be 14d8 af3e c3a9 25bf
00000280: 2517 a2be e32f 833d 801d 84bd 131c 8fbe
00000290: cab2 933e 6d85 bb3e 40a6 f1be 297a 0dbe
000002a0: f82c 143e 273c e33e 9aa1 9c3e e97a 113d
000002b0: d863 4b3e 1229 13bf 2f9a 863e 6270 5f3d
000002c0: 957c 4ebf 100d 923e 379c 603e 91d3 00bf
000002d0: a725 e43e b01d b9be b5e4 0b3f 8f2e ae3d
000002e0: fae9 e23d a52d 99be 23e6 863e f940 843e
000002f0: 2d00 0abc 0e0e 293e 571d 16be 22ec 42bf
00000300: 1bf5 3ebe df24 203f 1c19 32bc 13d3 0cbf
00000310: b3ed 3a3f f2cc 45be 477e 10bf 9178 d23e
00000320: f377 743e 7984 9bbe 32ef b93e 2049 2ebf
00000330: f579 53be 6b0d 2bbd f3fd 803e 51a0 1a3f
00000340: 4384 a7be 4d6f edbe 4ddd 00bf 0c61 1d3f
00000350: 97cd 213e ed0d 80bf 3123 103f 9280 f03e
00000360: 193f 0d3f 1a41 eebe 84ed 2e3e 4dc7 15bd
00000370: 17db 92be 0158 d5be 0100 703e f2b4 343f
00000380: 0424 c73e 25f4 9d3e 19da dbbd 1d61 23be
00000390: 54a3 99be 7f93 113e 8e3c c7be 4f53 81bd
000003a0: 80f4 90bd e70d 073f cfb8 56be efee 90be
000003b0: dd80 b13d 34ab bbbe 73dc a73e 08cd 00bf
000003c0: 3d27 0e3f e713 81bf eaa3 8e3e 71e1 12bf
000003d0: 5e5a 03bf 5835 0abf f2ff c63e 1dd2 483f
000003e0: 28e4 45bf a8a8 3ebf 857a 1bbf 3034 d4be
000003f0: a3ce f73e e14a 143e 8263 64bd ce2a 81bf
-0.24902524 0.2487169 -0.35041547 -0.109290496 -0.14724748 -0.18929435 0.12587138 -0.36047554
0.25777125 0.5402564 0.3028709 0.28851953 0.12146113 0.3141785 0.33737427 0.42140815
-0.15818854 0.0830655 0.27240294 0.0895359 -0.19817199 -0.42969534 -0.54292226 0.39025673
0.35302022 0.052977256 -0.25872383 0.09943258 0.3025452 -0.044250138 0.218058 -0.067910664
0.10402006 0.4804139 -0.92675793 -0.94090694 0.15915151 0.16942021 0.57032067 -1.332531
0.32110927 -0.42909774 0.46864578 -0.6899926 -0.35453847 -0.22185789 0.45841804 0.21239859
-0.61352444 -0.24735433 -0.7466076 0.6142676 0.44137806 -0.26023167 0.49729812 0.053170934
0.44338694 -0.71834683 -0.09367596 -0.27713123 -0.25963345 0.69031924 -0.55314755 -0.23653571
0.019953847 0.17451526 0.10793081 0.3330076 -0.040792745 0.08348659 -0.051526994 0.1458047
-0.14698708 0.029898524 0.23158546 0.47433668 0.035739154 -0.13335267 0.05410611 -0.1345834
-0.20406649 -0.08936739 -0.13309193 0.14500052 0.43469778 0.26829413 -0.6652469 -0.3909856
0.23301336 0.2362844 0.65592986 0.7374965 -0.34841925 0.29201698 -0.27907118 0.4438873
-0.06490492 -0.22088034 0.12126387 -0.6253917 0.43803084 -0.2133011 -0.101523764 0.07067351
0.22576836 -0.1582843 0.2611743 0.26317567 -0.05675285 0.1452954 -0.121047616 -0.31453693
0.27309215 -0.021606464 0.40953112 0.26848748 0.32257038 0.014278962 -0.36344928 0.8572595
0.8476608 -0.8347794 0.7134633 -1.0316601 -0.6066554 -0.34463894 1.2019085 1.0509714
-0.74814165 -0.7304817 -0.52192867 -0.33010823 0.7748093 -1.354831 1.2631876 1.2533774
-0.3505732 0.3439458 -0.63350993 1.2712996 0.3414417 0.06643834 0.05649174 -0.037325513
-0.30441707 0.2548309 0.2659199 -0.05072181 0.13413337 0.36209506 -0.51389 0.27039564
-0.33680207 -0.8129054 0.1083852 -0.19393347 -0.3198205 -0.12681746 0.34344542 -0.6471216
-0.31658283 0.06405618 -0.06450939 -0.27951106 0.28847343 0.36625233 -0.4719715 -0.13816132
0.14470279 0.4438183 0.30592042 0.035517607 0.19862306 -0.57484543 0.26289508 0.054550536
-0.8065885 0.2852559 0.21934591 -0.50322825 0.44559976 -0.36155462 0.54645854 0.08504974
0.11079784 -0.29917637 0.26347455 0.2583082 -0.0084228935 0.16509268 -0.1465963 -0.7614156
-0.18648188 0.6255626 -0.010870244 -0.55009574 0.7301895 -0.19316462 -0.56442684 0.4110761
0.23873882 -0.30374506 0.36315304 -0.6808033 -0.20651992 -0.041760843 0.25193748 0.60400873
-0.32718095 -0.46373978 -0.5033768 0.61476207 0.15801083 -1.000425 0.563037 0.4697309
0.55174404 -0.46534044 0.17082793 -0.03656702 -0.28682777 -0.41668704 0.23437501 0.705886
0.38894665 0.3085033 -0.10734958 -0.15955015 -0.30007422 0.14216422 -0.38913387 -0.06314718
-0.07077885 0.5275559 -0.20968936 -0.28307292 0.08667157 -0.36654055 0.32785377 -0.5031285
0.5552862 -1.0084199 0.27859432 -0.57375246 -0.51309764 -0.53987646 0.38867146 0.7844561
-0.77301264 -0.744761 -0.60733825 -0.41446066 0.4839984 0.14481689 -0.05575896 -1.0091188

bias f4 [20]
00000000: 2add f6be 6803 9b3d 5805 1a3e 5a66 f7bd
00000010: d7c4 41bf cbb3 ff3e ca8f 0a3f b4ac cabe
00000020: e3d3 edbe b388 863f 16a6 c43e 779d 09bd
00000030: 67a6 ab3f d1f9 53bf a1be 9f3f 553c babf
00000040: f59b bfbe 2b83 853f b36b b7bf 9887 eb3e
-0.4821561 0.07569009 0.15041101 -0.12080069 -0.7569098 0.4994186 0.54125655 -0.39584887
-0.4645072 1.0510467 0.38407964 -0.033597436 1.3410157 -0.82803065 1.248005 -1.4549662
-0.37423673 1.0430654 -1.4329742 0.46001887

weight f4 [20, 20]
00000000: 2e0f 7b3e 8334 60bc 3ea8 e2be af44 ab3e
00000010: 5d71 a0be f02e 11be 08fa cb3d 1327 66bf
00000020: 812f 413e d3f5 543d 0a0e f3bc f570 a1be
00000030: a2d4 0d3f 6072 1a3c 0ef5 223f 76db c83d
00000040: 9a2b 75bd 1ebf 053f 1af4 58bc e699 a1be
00000050: 306e 3d3f 34cd 523e dd1e 23bf 31cb 2c3f
00000060: c515 213f ca86 c43b 1ae9 c13e c44c 76bf
00000070: 4dac 203f 91cc b9be 29dc b73e 7504 81bf
00000080: 05a1 6abf dab9 fbbe 20e3 fb3d a32c f63e
00000090: 960f dc3e f2f2 883e 45d3 e0bf be1b 14bf
000000a0: 1ac9 40bf 7086 a53e 3ba4 5cbe e424 8dbf
000000b0: 66ae 7fbf 2e43 903f 7112 43bf 3b1a 973d
000000c0: 3809 4fbf 9a8a 813f fd76 97bf 8b98 9f3f
000000d0: fde1 903f 8fd7 b63f 2547 4cbf 4ff0 babe
000000e0: b7dd 5fbf 357d 9ebf 20de 94bd ece4 883f
000000f0: cdca 7dbf 7f55 78be e09c 60bf 34b8 9bbf
00000100: ee5f dfbf cf5d 603f 7046 32bf 5733 afbf
00000110: be40 9ebf bcac ee3f f8c5 87bf 2aa6 e03c
00000120: 4975 7a3f 7477 df3e 2107 dbbe e391 cdbf
00000130: bc97 8cbf 9f1f b4be de44 9ebf 7895 5b3f
00000140: 85fc 883d 1244 993e 595f 9fbe e325 0e3e
00000150: 7588 21bd 6028 dabd 40f6 903f 6fa3 aa3d
00000160: affb b13e 5c76 b93d 532a 0ebf c8cb 3e3f
00000170: fcb8 d5bd c8a5 de3e c4b4 683f 1c46 fe3d
00000180: e555 40be 2dce 413f 4091 b0be 0b86 a1be
00000190: 2b1b cd3f 578c 013f 2354 b1bd 01f2 e23f
000001a0: 0018 333f 1f9f a6bf 9fae c03f 15ce b0bf
000001b0: 8cb0 fb3f 3192 e0bf a50e be3f 1507 52bf
000001c0: 5b16 bebe e452 73bf 380a d13f 7ece cd3f
000001d0: 5fef ad3f 51f1 b73f d7c0 77bf 72f3 debf
000001e0: 23af 90be c4c3 ae3c 943e 633f cfff 2dbd
000001f0: 03fd c53e 5fe5 3b3d 96a9 51bf 59f7 303f
00000200: 1e1b 86be 6342 d03d 0991 7ebe 1457 1e3e
00000210: 70ef 34bf 1bee 673f 584f c4bf 4c29 1abf
00000220: c97b bbbe 7d6d 94bf ccc5 4a3f 6dea d63e
00000230: 4da9 0cc0 04d0 c9be 0cf6 acbf 6df8 fcbf
00000240: 00f0 35c0 3a9e 1340 8e57 02c0 8c5e 6ebf
00000250: 4625 f3bf 9f54 f73f 2f9d 03c0 8dba 9f3e
00000260: 861e 4040 835d dd3f a9ce c8bf 439b 22c0
00000270: 6275 ecbf 332d b3bf 89ec 05c0 981e f13f
00000280: ce65 97bf b4fb 85bf 3489 edbf 2c38 8dbf
00000290: d977 b7bf f6c3 923f 9706 10bf a99f afbf
000002a0: cb44 a6bf 1db8 bc3f 753b 67bf a4a7 83bf
000002b0: 3519 bb3f 3137 d73e 937b 4bbe 980f b5bf
000002c0: 8ffa b3bf da28 41be f093 f8bf eea4 a43f
000002d0: bb12 df3e 7521 b5be 67da 983e 693b 9a3d
000002e0: f552 133e b418 b2be 7e89 ae3f 54ad 13bd
000002f0: d894 563f cb45 dbbe d3e3 1d3d 5a19 90bf
00000300: 367f 4dbe 2474 f5be db8c e43f 170e 103f
00000310: 66dc 913e 71fd d23f 6df2 fb3e 55ec 0f3d
00000320: fc8e f6be 77b3 54be 2737 eebd ca1f acbe
00000330: 6e1d 9dbd 54de 5e3e 34ff 10bf 801d b33e
00000340: 15f3 303d 911e 683d fac6 7bbd 6a5f 343e
00000350: c77f 433d 6aea aa3e 3f7b a9bd 31d3 6dbe
00000360: 508f 1f3c 8faa 05bf 707a a83e 9f2d af3e
00000370: 474d 9abf f4d2 fb3f e4db cbbe 6117 79bf
00000380: fa3a eabd 9cb5 a43e e6c5 01c0 0743 be3f
00000390: 632f 51bf 3f85 123f 38f9 0bbf a2f8 2a40
000003a0: 3a71 bc3e 7756 5c3f feab 48c0 c827 b4bf
000003b0: 9330 03bf 9bd5 efbf e5ca 7ebf 7176 183f
000003c0: bb8c c8bd 6053 57bf a922 94be b088 183e
000003d0: 8be9 fbbe 95f6 313e b5af 583f f38e 02bf
000003e0: 9d56 8f3e 7d9a 3c3e bcbe 1f3d 031d 87bf
000003f0: 71ee 223e 25b5 7d3e d0ed 633f 4b41 a23e
0.2451751 -0.013684395 -0.44268984 0.3345084 -0.3133649 -0.14178061 0.09959799 -0.8990337
0.18865778 0.05199225 -0.02966978 -0.31531492 0.55402577 0.009426683 0.63655174 0.09807484
-0.059856035 0.52244747 -0.013241792 -0.31562728 0.7399626 0.20586091 -0.6371897 0.67497545
0.6292384 0.0059975134 0.37873155 -0.96210885 0.6276291 -0.36288884 0.35910156 -1.0079485
-0.91651946 -0.4916523 0.1229918 0.4808093 0.4298064 0.26747853 -1.7564474 -0.5785483
-0.75306857 0.3232913 -0.21547024 -1.1026883 -0.99875486 1.1270502 -0.76200014 0.0737805
-0.8087344 1.0120423 -1.1833187 1.2468427 1.1318966 1.4284533 -0.7979606 -0.36511466
-0.87447685 -1.238196 -0.072689295 1.0694861 -0.99137574 -0.24251364 -0.8773937 -1.2165589
-1.745115 0.8764314 -0.6963873 -1.3687543 -1.2363508 1.8646464 -1.060729 0.027422983
0.9783521 0.43645823 -0.42778876 -1.6060146 -1.0983806 -0.35180375 -1.2364767 0.85774946
0.06688789 0.29934746 -0.31127432 0.1388164 -0.039436776 -0.10652232 1.132515 0.08331954
0.34762332 0.090557784 -0.5553333 0.74529696 -0.104356736 0.43485856 0.90900826 0.12415716
-0.18782766 0.75705224 -0.34485817 -0.3154758 1.6023916 0.50604767 -0.08658626 1.7730104
0.69958496 -1.301731 1.505329 -1.3812891 1.9663253 -1.7544614 1.4848219 -0.82042056
-0.3712643 -0.95048356 1.6331244 1.6078641 1.3588675 1.4370519 -0.96778625 -1.7418044
-0.2825862 0.021333583 0.8876736 -0.042480286 0.38669595 0.045873042 -0.8189939 0.6912742
-0.26192564 0.10168912 -0.24860014 0.15462905 -0.7067785 0.90597695 -1.5336714 -0.60219264
-0.36617878 -1.1595913 0.79208064 0.41975728 -2.1978333 -0.39416516 -1.3512588 -1.9763314
-2.8427734 2.3065324 -2.036594 -0.9311302 -1.899575 1.9322699 -2.0564687 0.31197014
3.001863 1.7294163 -1.5688068 -2.5407264 -1.8473322 -1.3998169 -2.092562 1.8837461
-1.1827943 -1.0467439 -1.8557496 -1.1032767 -1.433345 1.1466053 -0.56260055 -1.37206
-1.2989744 1.4743687 -0.903251 -1.0285535 1.4617068 0.42034295 -0.19871359 -1.4145384
-1.406084 -0.1886324 -1.9420147 1.2862833 0.43568978 -0.35377088 0.29854128 0.07530863
0.14387114 -0.34784472 1.3635709 -0.03605397 0.8382087 -0.42826685 0.03854735 -1.1257737
-0.20068058 -0.4794017 1.7855486 0.562715 0.28488463 1.6483594 0.49208394 0.035137493
-0.48155963 -0.20771585 -0.11631613 -0.33618003 -0.07671629 0.21764499 -0.5663941 0.34983444
0.04320057 0.056669775 -0.061469056 0.17614523 0.04772928 0.3338197 -0.082754605 -0.23225094
0.009738758 -0.52213377 0.32905912 0.34214494 -1.2054833 1.9673753 -0.398162 -0.973013
-0.1143703 0.32169807 -2.0277038 1.4864205 -0.8171293 0.5723457 -0.5467715 2.6714253
0.36805135 0.86069435 -3.1354976 -1.407464 -0.51245993 -1.8737062 -0.9952834 0.5955573
-0.09792467 -0.84111595 -0.28932694 0.14895892 -0.49201617 0.1737922 0.8464311 -0.50999373
0.27995768 0.18418308 0.039000258 -1.0555729 0.1591127 0.24776132 0.8903475 0.3169044

bias f4 [20]
00000000: ee6d 5cbf c314 e8be 6bf2 833f 2447 4a3f
00000010: 97f8 19bf 48e3 13c0 cee5 6e3f b409 0f40
00000020: a21d 703f 9e4a e4be 4f41 023f 4896 bf3f
00000030: 52cd ffbe f9ef c0bf 96e4 143f fcb2 803e
00000040: 08db 9bbf a3b3 fbbe f7c5 8b3f 67ea f2bf
-0.8610524 -0.4532834 1.0308355 0.790148 -0.60144943 -2.3107471 0.93319404 2.2349672
0.93795216 -0.44588178 0.50880903 1.4967737 -0.49961334 -1.5073234 0.58161294 0.25136554
-1.2176218 -0.4916049 1.0919789 -1.8977784

weight f4 [20, 20]
00000000: 5773 0a40 3536 5040 a444 7fbf 29e7 8b40
00000010: b01d 8e40 ea49 a1bd 3f17 bd3e 89de 0640
00000020: 9ccc 2240 4240 ccbf 27c0 073f cdca 1b40
00000030: 4b4a a7bf d39e 29bf 38b9 733f b14c c5be
00000040: 8fee 80bf 1230 9240 2f46 26be 37bf 3140
00000050: f46d b9c0 1133 adc0 f9ee e4bf 3e25 cdc0
00000060: 9b10 c6c0 528b a3c0 c49e 5140 808e a2c0
00000070: 1eb5 b0c0 c100 4cbf a070 a240 c88a 76c0
00000080: d178 1a40 d5f4 97c0 c1e8 9a40 9721 99c0
00000090: 1cdb 9bc0 9b08 d1c0 f74d 9340 3ccb aec0
000000a0: df98 7b40 a97c 6140 9e44 2a40 8d76 af40
000000b0: 9334 ab40 2755 8040 162a 57c0 52eb aa40
000000c0: a637 ac40 a766 3cbc aac9 5ec0 3db6 3740
000000d0: 2644 fcbf b929 5740 27fb 45c0 dfff 9340
000000e0: 3d76 6e40 32fc 9540 87d9 83c0 0169 3540
000000f0: 446d 3d40 a93d 3740 dabe 4d3f abb0 ac40
00000100: d345 a040 c47c cc3f d8fb 97bf f408 6140
00000110: f305 5240 689d 20bf 2db8 f1bf 2622 2940
00000120: fa98 14bf bae5 bd3f 7836 c3bf 50b1 1b40
00000130: 76d2 ce3f d52d a140 6e02 20c0 f3a4 5840
00000140: a875 80c0 0c04 26c0 e223 d5bf 80ab bfc0
00000150: da00 adc0 f8c3 7cc0 68e5 2140 e36d 9fc0
00000160: 61a8 aec0 87d5 3bbf d97b 6440 697b 09c0
00000170: 550d 983f b68c 62c0 932e 5d40 fa0a 75c0
00000180: 00be 6ac0 7b66 39c0 ac53 6240 9d91 1ac0
00000190: 2101 2a40 c0cc 4540 d4c0 7540 665e 7040
000001a0: 9ace 1d40 f890 8740 5b24 73c0 919e 8240
000001b0: 74bc 8740 fee8 cd3f eecb 7fc0 8fbe 0940
000001c0: e3cb 49bf 583e 8540 6b10 87c0 82bc 8840
000001d0: 02ba 7f40 179d 1240 8d5d 8dc0 2c00 0840
000001e0: bcbf a640 6691 7240 77c8 7340 2ec3 c140
000001f0: 8600 7d40 f1db d340 aea6 60c0 9163 ea40
00000200: e0b6 e840 c1f9 963f ab3e d3c0 7c86 5240
00000210: 910a 1ac0 03ea db40 bd62 d2c0 fc4e b840
00000220: f4d5 db40 69d1 8040 0084 aec0 2202 8840
00000230: 2d58 9340 9023 9240 8569 c33f 0c13 aa40
00000240: b605 b740 9c7c 7040 da86 3dc0 32b8 8840
00000250: f4b9 9540 4e3d a03f ce05 70c0 dd1a 5640
00000260: 54a3 cabf 9364 4140 0609 55c0 af8b 6f40
00000270: fe05 7c40 f1bd ba40 fe53 76c0 a8fa 8940
00000280: 85a3 bfbf a703 8dbf c163 893f a626 1440
00000290: 41d9 8bbd aec5 c83f 2dd5 e4bf 60ba 5c40
000002a0: 3d7b 5f40 5875 ea3f fd3a 93bf df48 4cbf
000002b0: 9ef5 4c3f ba38 c13f c8f6 70bf dfbb f33f
000002c0: 89ae f83f 4fb1 2dbf 572f 02c0 9100 a0bf
000002d0: c5a1 b3c0 f382 34c0 a262 86c0 988b b9c0
000002e0: 3bce 9dc0 e20a a3c0 2cb0 8f40 d190 9fc0
000002f0: f8ce 9ac0 71fd 5ec0 b47a 8540 46c9 62bf
00000300: d52a 833e e82a 9ec0 2a3f 9940 3d47 95c0
00000310: 6b90 9cc0 79ec 10c0 4a8b 9a40 d6b1 19c0
00000320: ea2c 6b40 0e6e be3f b735 9b3f 99cd 9340
00000330: bb0e 9d40 7879 1d40 4b6a ebbf 02da 2140
00000340: 78e1 3c40 eb78 a73f 71e3 ffbf 5159 f13e
00000350: 007e 7ebe 722f 0640 7160 e7bf b54a 2c40
00000360: 6cf7 0640 ab8c 2740 635d 27c0 7e15 fa3f
00000370: 518f c540 68e5 8a40 a7bb 4e40 2f43 c740
00000380: 5be3 bd40 403a 9840 fa4e 47c0 9a89 7f40
00000390: 6e8f 9440 3050 f63e 1cd9 8bc0 223b 2b40
000003a0: e2c4 24be 8397 9140 5c9a 91c0 a9fd 8740
000003b0: b963 8e40 2d11 9740 67b3 82c0 7b11 8a40
000003c0: 864d 11c0 9c77 42c0 dd00 003f 8cc9 a8c0
000003d0: 852f 9ac0 a753 9a3d 20b1 3d3f 0181 3ec0
000003e0: a15d 2dc0 cc90 883f b255 25bf e268 2ec0
000003f0: da3f e03f 53db 843f 1429 42bf 739b 18bf
2.1632898 3.2533085 -0.9971411 4.371968 4.441124 -0.07875426 0.36931798 2.1073325
2.5437384 -1.595711 0.53027576 2.434253 -1.3069547 -0.6625797 0.95204496 -0.38535073
-1.0072802 4.568368 -0.1623771 2.7772958 -5.794672 -5.4124837 -1.7885429 -6.410796
-6.189527 -5.110757 3.2753153 -5.079895 -5.522109 -0.7968865 5.076248 -3.8522205
2.413624 -4.7486367 4.8409123 -4.7853503 -4.8704967 -6.5323005 4.603267 -5.462309
3.9312055 3.5232337 2.660438 5.4832215 5.3501678 4.0103946 -3.3619437 5.3412256
5.381793 -0.011499084 -3.4810586 2.870498 -1.9708297 3.3619215 -3.0934541 4.6249843
3.7259667 4.6870356 -4.1203036 2.834534 2.959794 2.8631384 0.8036934 5.396566
5.0085235 1.5975575 -1.1873732 3.5161715 3.281613 -0.6274018 -1.8884331 2.6427093
-0.58045924 1.4835732 -1.5250998 2.4326973 1.6157978 5.0368447 -2.5001483 3.3850677
-4.0143623 -2.593997 -1.6651576 -5.989685 -5.406354 -3.949461 2.5296268 -4.982164
-5.458054 -0.7337269 3.570059 -2.1481574 1.1879069 -3.5398383 3.4559677 -3.828795
-3.6678467 -2.89688 3.536357 -2.4151375 2.656319 3.090622 3.8398943 3.7557616
2.465735 4.2364464 -3.799094 4.0818563 4.2417545 1.6086729 -3.9968219 2.1522558
-0.7882673 4.1638603 -4.220754 4.273011 3.995728 2.290838 -4.41767 2.1250105
5.210905 3.7901244 3.8091104 6.0550756 3.953157 6.6205983 -3.5101733 7.324654
7.2723236 1.1794969 -6.6014 3.2894583 -2.406895 6.872316 -6.574553 5.7596416
6.8698673 4.025563 -5.4536133 4.2502604 4.6045136 4.566841 1.5266577 5.314825
5.719447 3.7576056 -2.9613557 4.272485 4.6789494 1.2518709 -3.7503543 3.3453896
-1.5831094 3.0217636 -3.3286757 3.7429006 3.9378657 5.835686 -3.8488765 4.3118477
-1.4971777 -1.101674 1.0733567 2.314859 -0.06828547 1.5685327 -1.7877556 3.4488754
3.4918969 1.831706 -1.1502377 -0.7979869 0.8006228 1.5095437 -0.9412656 1.9041709
1.9428264 -0.67848676 -2.0341394 -1.2500173 -5.6134973 -2.8204925 -4.19954 -5.7982903
-4.9314246 -5.0950785 4.4902554 -4.986428 -4.8377647 -3.4842188 4.1712284 -0.8858837
0.25618616 -4.9427376 4.7889605 -4.664946 -4.892629 -2.2644331 4.829503 -2.4014792
3.6746163 1.4877336 1.2125767 4.6188474 4.908048 2.4605389 -1.8391813 2.5289311
2.9512615 1.3083776 -1.9991285 0.47138456 -0.24852753 2.0966458 -1.8076307 2.6920598
2.1088514 2.6179607 -2.6150749 1.9537809 6.1737447 4.3405037 3.2302034 6.226951
5.9340034 4.7571106 -3.1141953 3.9927735 4.6425085 0.48108053 -4.3702526 2.6754842
-0.1609073 4.549745 -4.5500927 4.2497144 4.449673 4.7208467 -4.0843997 4.314634
-2.2703567 -3.0385504 0.5000132 -5.274603 -4.8183007 0.07535487 0.74098396 -2.9766238
-2.7088397 1.0669188 -0.64583886 -2.7251515 1.7519486 1.0379432 -0.7584393 -0.59612197

bias f4 [20]
00000000: cc77 dd3f c0de 8640 6751 53c0 dbf1 70bf
00000010: ec6e 4c40 4de1 6bc0 6828 ebc0 679e 1bc0
00000020: f812 8ebf 15c3 8940 ec42 aebf 9166 80c0
00000030: 57f9 d6bf 3657 40c0 7c59 dfbf 4d8e 56c0
00000040: ed2a 64c0 216e fb3e 101f c640 7efa 2440
1.7302184 4.214691 -3.3018434 -0.9411904 3.1942701 -3.6856263 -7.3486824 -2.431543
-1.1099539 4.3050637 -1.3614173 -4.0125203 -1.6794842 -3.005323 -1.7449183 -3.3524354
-3.56512 0.4910746 6.191292 2.5777888

weight f4 [1, 20]
00000000: 3ec8 2241 2788 3cc1 9193 4641 9c87 2b41
00000010: 69f1 40c1 e0b4 7940 f4bd 3641 9bf5 3941
00000020: a9e8 dc40 76c6 09c1 3154 3c41 92ab 3441
00000030: fd13 27c1 6803 3441 bb3a 2341 9eaf 2e40
00000040: d268 c940 d998 27c1 6f6e 36c1 660d 3dc1
10.173887 -11.78324 12.411027 10.720608 -12.058938 3.9016647 11.421375 11.622462
6.903401 -8.610952 11.770555 11.291887 -10.44238 11.250832 10.2018385 2.7294688
6.2940454 -10.474816 -11.401961 -11.815771

u_b f4 [2]
00000000: ec33 9f41 0ad7 1f42
19.900352 39.96

l_b f4 [2]
00000000: 6b8a 2041 0000 0000
10.033793 0.0
