Iter_03/Models/Noise_0/simulation_00_20/ff_1600.pt (torch, 73181 bytes, 23 tensors)

weight f4 [20, 2]
0	0x402621fb	2.595824
1	0x3ed8ea68	0.42366338
2	0xc084ffe7	-4.156238
3	0xbf5c185e	-0.8597468
4	0xc09cdab0	-4.9016953
5	0xbecc5b19	-0.39913252
6	0x40078214	2.1173143
7	0xbf00afc4	-0.502682
8	0xc0c61cd7	-6.1910205
9	0x3dd0a709	0.101881094
10	0x3f90d09d	1.1313664
11	0x3f11047f	0.56647485
12	0x3d9b67bd	0.07588146
13	0x3f4946c6	0.78623617
14	0xbba8460c	-0.0051353034
15	0x3f652f30	0.8952513
16	0xc09d5c93	-4.9175506
17	0xbf060b87	-0.5236134
18	0xc06a5e3f	-3.6620023
19	0x3fa24853	1.2678322
20	0x3f3a3a2f	0.7274503
21	0x3f3fdcaa	0.7494608
22	0xbf2cd035	-0.675052
23	0xbf82e893	-1.0227226
24	0xbf8fca2b	-1.1233572
25	0xc0198731	-2.3988764
26	0xbe818d95	-0.2530333
27	0x3f8c8353	1.0977577
28	0xc0403ca1	-3.0037005
29	0xbf0921c3	-0.5356714
30	0x40a01270	5.0022507
31	0xbf214b76	-0.6300577
32	0xbfd67662	-1.6754878
33	0xc02be59c	-2.6858892
34	0xbfc9315e	-1.5718191
35	0xbcd90511	-0.026491674
36	0x3ff33415	1.9000269
37	0xbf8ca5c9	-1.0988094
38	0xc01d1b83	-2.4548042
39	0xbf791ad3	-0.97306556

bias f4 [20]
0	0xbf5c7709	-0.86119133
1	0x3cab3b2f	0.020902244
2	0x3ff856a3	1.940144
3	0xc088207a	-4.2539644
4	0x4015c49c	2.340125
5	0x3fbdda9f	1.4832343
6	0x3ffc5d00	1.9715881
7	0x404148df	3.0200727
8	0x3e45ee1e	0.19329116
9	0x3fea71f7	1.8316029
10	0x3f850f13	1.0395225
11	0xc01b6746	-2.4281783
12	0xc0b10039	-5.531277
13	0x4043f9da	3.0621247
14	0x3fa5a082	1.2939608
15	0xc07fea09	-3.9986594
16	0xc0807be3	-4.015123
17	0x3e964686	0.2935068
18	0xc07a0769	-3.9067023
19	0xbfa5da5c	-1.2957263

weight f4 [20, 20]
0	0x3ec5a0bb	0.3859919
1	0x3f38a1d0	0.72121906
2	0x3fe65d5f	1.7997245
3	0xbfc64630	-1.549017
4	0x3f026518	0.50935507
5	0xbf8f5fd1	-1.1201116
6	0x3f4d570c	0.8021095
7	0x3e2f4d7e	0.17119405
8	0xbe28476e	-0.16433498
9	0x3fd9fc0e	1.7030046
10	0x3e6dcb61	0.23222114
11	0xbed93777	-0.4242513
12	0xbf1c27c1	-0.6099816
13	0x3fc7d050	1.5610447
14	0x3e9bd47e	0.30435556
15	0xbf955240	-1.1665726
16	0xbfe5d464	-1.7955441
17	0x4026d01d	2.6064522
18	0xbef84fdc	-0.48498428
19	0xbd22768d	-0.03966384
20	0x3e3323cb	0.17494123
21	0x3f8b1c0a	1.0867932
22	0x3fbb70a2	1.4643748
23	0xbfb04ce8	-1.377347
24	0x3ed420ab	0.41431174
25	0xbfc2fbde	-1.5233114
26	0xbe2d5290	-0.16926026
27	0xbf2c088d	-0.6720055
28	0x3f13664d	0.57577974
29	0x3f86e5d7	1.0538892
30	0xbee73d7d	-0.451641
31	0x3c9b3e09	0.01895048
32	0xbe07d913	-0.13266401
33	0x3f2d3f96	0.6767515
34	0xbca4e1cd	-0.020127201
35	0xbf7395f2	-0.95150673
36	0xbeba468e	-0.36381954
37	0x402007eb	2.5004833
38	0x3e68365d	0.22676988
39	0x3eb34c6d	0.35019246
40	0x3ec5a88d	0.38605157
41	0x3eaff79b	0.34368595
42	0x3ec878d7	0.39154693
43	0xbf41334d	-0.75468904
44	0x3f3352e0	0.7004833
45	0xbf0186cf	-0.50596327
46	0x3e41fbfb	0.18943779
47	0x3e62a45d	0.22133012
48	0x3de8c904	0.11366466
49	0x3e885f38	0.26635146
50	0xbe12247b	-0.14271729
51	0xbabc21c5	-0.0014353326
52	0xbf549019	-0.83032376
53	0x3f03c0f1	0.5146628
54	0xbe593b95	-0.21214135
55	0xbebe767b	-0.37199768
56	0xbf46d72d	-0.7767208
57	0x3f335ca2	0.7006322
58	0xbe5ded6b	-0.21672599
59	0xbf0b6635	-0.5445283
60	0x3d5d4ca8	0.054028183
61	0xbe116c48	-0.14201462
62	0xbfbb1290	-1.461504
63	0x3f3ec56d	0.7452
64	0xbd986f6b	-0.07443126
65	0x3f5276ac	0.8221233
66	0xbf445287	-0.76688427
67	0xbe194915	-0.14969285
68	0x3e7cbacc	0.24680632
69	0xbf50a42c	-0.81500506
70	0xbdbaf706	-0.09129147
71	0x3f2e21db	0.6802041
72	0x3fb49543	1.4108051
73	0xbf8c50d4	-1.0962167
74	0x3eefb80f	0.46820113
75	0x3efb6bff	0.49105832
76	0x3faab62f	1.3336848
77	0xbfa5c94c	-1.2952056
78	0x3f50dcd4	0.81586957
79	0x3f02b3df	0.5105571
80	0x3e5eb37b	0.21748154
81	0x3e5a9c06	0.2134858
82	0xbf8d3f8f	-1.1035022
83	0x3f9698b0	1.1765347
84	0xbf0bc9c5	-0.5460475
85	0xbe1d26e8	-0.15346873
86	0xbe8c8ab5	-0.27449575
87	0xbeaac979	-0.33356836
88	0x3f61c776	0.8819498
89	0xbf17cfca	-0.59301436
90	0x3c46a376	0.012123933
91	0x3f1a5fe1	0.6030255
92	0x3ee9c1fa	0.45655805
93	0xbf9165f4	-1.1359239
94	0xbd2dbb91	-0.042415205
95	0x3e4df0c8	0.20111382
96	0x3ec05710	0.37566423
97	0xbf9d765c	-1.2301745
98	0x3eee241f	0.46511933
99	0x3f20227e	0.6255263
100	0xbebca58e	-0.36845058
101	0x3f5a562e	0.8528775
102	0x3ea70a62	0.3262511
103	0x3f555f96	0.8334898
104	0x3d69f065	0.057114024
105	0xbd77c640	-0.0604918
106	0xbf18b9c8	-0.5965848
107	0xbf2306d4	-0.63682294
108	0x3f86b853	1.0525001
109	0x3de644cc	0.11243591
110	0xbe3a1023	-0.18170218
111	0x3f0361b9	0.5132099
112	0x3ee9c531	0.45658258
113	0xbf7ba8c7	-0.9830441
114	0x3eb686dc	0.35649765
115	0x3f2c4d51	0.67305475
116	0x3f2b720d	0.669709
117	0xbeefeee7	-0.46861956
118	0x3f39042b	0.72271985
119	0x3f4410b3	0.7658798
120	0xbe6a7452	-0.22895935
121	0xbebc5bdb	-0.3678883
122	0xbeba1cfa	-0.36350232
123	0x3f167766	0.5877594
124	0xbeeb1254	-0.4591242
125	0xbe91cff8	-0.2847898
126	0xbe0f7e26	-0.14012966
127	0x3c881545	0.016611705
128	0xbc3f5c1c	-0.011679675
129	0xbf8a0ad6	-1.0784557
130	0x3dca7a20	0.09886575
131	0x3cd7fcc7	0.02636565
132	0x3e4b2164	0.19836956
133	0xbee1b511	-0.44083455
134	0xbe22468d	-0.15847225
135	0x3f0c8825	0.5489524
136	0x3e8b17c2	0.27166563
137	0xbf6fea0a	-0.9371649
138	0x3e37bb7d	0.17942615
139	0xbdcf4425	-0.101204194
140	0xbef10788	-0.47076058
141	0x402a81e8	2.6641788
142	0x3f3479cc	0.7049835
143	0xbfff1131	-1.9927121
144	0x3f99623a	1.1983101
145	0xbfa1030e	-1.2579057
146	0xbedf211a	-0.43579942
147	0xbfe0a076	-1.7548969
148	0x400d82fb	2.2111194
149	0x3f74adc9	0.95577675
150	0xbf83738b	-1.0269636
151	0x3fa0a740	1.2551041
152	0x3ffa39ff	1.9548949
153	0xbf800d25	-1.0004011
154	0x3fcc5417	1.5963162
155	0xc0341c41	-2.8142245
156	0x3f930bc9	1.1487972
157	0x401ebc0e	2.480228
158	0x3f9befa3	1.2182506
159	0x3fc62025	1.547856
160	0x3eaa8c6c	0.33310258
161	0xc025dff5	-2.5917943
162	0xc054698c	-3.318942
163	0x405f5b0e	3.4899325
164	0xbfb9c8d1	-1.4514409
165	0x40410b66	3.0163207
166	0xbf5bbb35	-0.8583253
167	0x3fad4c3a	1.3538888
168	0xbf9e5a27	-1.2371262
169	0xc034a3ab	-2.8224895
170	0x3f99db2d	1.2020012
171	0xbe678f3d	-0.22613235
172	0x3c876597	0.016527934
173	0xbfb157f9	-1.3854972
174	0xbef80279	-0.48439386
175	0x4054c20c	3.3243437
176	0x3fc86547	1.5655907
177	0xc0b4e784	-5.653261
178	0xbf02b5ce	-0.5105866
179	0xbf91a393	-1.1378044
180	0x3dc3a888	0.09553629
181	0x3e68364c	0.22676963
182	0xbd0f7aa2	-0.03502906
183	0x3f7d8d0b	0.9904334
184	0x3e9caa99	0.30598906
185	0x3c8cf9dc	0.017208986
186	0x3d7367ae	0.05942505
187	0xbe8e89b8	-0.27839446
188	0x3f73b5d7	0.9519934
189	0x3e51f9cd	0.20505448
190	0x3e1a1177	0.15045725
191	0xbc1cea05	-0.009577279
192	0xbebaefce	-0.3651108
193	0x3cda8b29	0.026677685
194	0xbec9da6b	-0.39424452
195	0xbd52aac5	-0.05143239
196	0xbd5db810	-0.054130614
197	0xbf0f7912	-0.56044114
198	0xbe630a75	-0.22171958
199	0x3e04b54a	0.12959781
200	0xbc1a9bda	-0.009436572
201	0x3e8809ce	0.2656998
202	0xbf53c244	-0.827183
203	0x3f5acf63	0.85472697
204	0xbf02bc2d	-0.51068383
205	0xbe54858e	-0.20754072
206	0xbf0e1a33	-0.55508727
207	0xbf0c0990	-0.5470209
208	0x3f4e4620	0.8057575
209	0xbf7cc33a	-0.9873539
210	0xbe4c693d	-0.1996202
211	0x3eb65212	0.3560949
212	0xbd52d876	-0.051475964
213	0xbf663acd	-0.8993347
214	0xbdb1bdd5	-0.08678786
215	0x3e30cd1f	0.17265747
216	0x3e10ea6e	0.14151928
217	0xbebb5409	-0.3658755
218	0x3f114cb8	0.5675769
219	0x3dbeb4f0	0.09311855
220	0xbf04acef	-0.51826376
221	0x3eb7a892	0.35870796
222	0xbef99c22	-0.48751932
223	0x3f63de5d	0.89011174
224	0xbe87ff7e	-0.26562113
225	0x3d85ecbd	0.06539295
226	0xbe716e11	-0.23577143
227	0xbf2d7871	-0.67761904
228	0x3ee60246	0.4492361
229	0x3cf5bcae	0.029997196
230	0xbcd7bd12	-0.026335273
231	0x3f6ed33a	0.93291056
232	0x3e9dfcfe	0.3085708
233	0xbf4cf521	-0.8006154
234	0x3eb07173	0.34461555
235	0xbe66f8cf	-0.2255585
236	0x3efcb900	0.49359894
237	0xbf34c96b	-0.7061984
238	0x3f14327d	0.5788954
239	0x3ea09812	0.3136602
240	0xbf01ec6c	-0.50751376
241	0x3ee1675c	0.4402417
242	0x3f8545eb	1.0411962
243	0xc002b54a	-2.042315
244	0x3ea842fc	0.32863605
245	0x3e728f99	0.2368759
246	0x3e15a73b	0.14614575
247	0x3d260497	0.04053172
248	0xbdef9a75	-0.11699382
249	0x3f0b4a64	0.54410386
250	0xbf078ef2	-0.5295249
251	0x3de56b5e	0.11202119
252	0x3f82f794	1.0231805
253	0x3e50c363	0.20387034
254	0x3f4d2ea2	0.8014928
255	0xbf1c6af0	-0.61100674

bias f4 [20]
0	0x3f8a56fe	1.0807798
1	0x3ef4de8a	0.47826034
2	0x3faea809	1.364503
3	0xbfbcf1a8	-1.4761248
4	0x3f9a993f	1.2078017
5	0xbedc9bf1	-0.43087724
6	0xbec0b16b	-0.3763536
7	0x3f3787d0	0.7169161
8	0xc002b9d4	-2.042592
9	0x4024f23a	2.5772843
10	0x3f7f2417	0.99664444
11	0x3f9f1da1	1.2430917
12	0xc08988ea	-4.297963
13	0xbf4dabfb	-0.80340546
14	0xc0529118	-3.2901058
15	0xc03b1d3e	-2.9236598
16	0x4069e85b	3.6548069
17	0xc0623437	-3.534437
18	0xc091a8fe	-4.551879
19	0x40240828	2.5629978

weight f4 [20, 20]
0	0x3f3492ff	0.705368
1	0x3f13a071	0.5766669
2	0x3f4f0940	0.8087349
3	0xbef30797	-0.47466728
4	0xbf20f185	-0.6286853
5	0x3f5ab830	0.854373
6	0xbf2cd5a9	-0.6751352
7	0x3f60ef51	0.8786517
8	0xbfc58315	-1.5430628
9	0xbea5d61c	-0.32389915
10	0xbf8ceda8	-1.1010027
11	0x3f56678c	0.8375175
12	0x3f22c5d9	0.6358314
13	0x3eff2f1e	0.49840635
14	0xbf39d8ed	-0.7259663
15	0x3e03868f	0.12844299
16	0xbed1f67e	-0.4100837
17	0x3f1a4704	0.6026461
18	0x3f37c16b	0.7177951
19	0xbe021c77	-0.12706171
20	0x3e07e423	0.13270621
21	0x3bd7e9bb	0.006589142
22	0xbd41b261	-0.047289256
23	0xbda770f3	-0.0817584
24	0x3ec6b5bb	0.38810524
25	0x3d0e5c5c	0.03475605
26	0x3e7c2e2b	0.24626987
27	0xbebf1ddf	-0.37327477
28	0xbd8c28c2	-0.068437114
29	0x3eb41f54	0.3518015
30	0x3e2dfd0e	0.16991064
31	0x3eb307a2	0.3496676
32	0xbef25816	-0.4733283
33	0xbe3210c3	-0.17389207
34	0xbd26db1a	-0.040736295
35	0xbdeb8282	-0.11499502
36	0x3e23a01c	0.15979046
37	0xbd7e7ea6	-0.0621325
38	0xbe1097eb	-0.14120452
39	0xbe230796	-0.15920863
40	0xbf889a92	-1.0672171
41	0xbf90752d	-1.1285759
42	0xbe5f4f14	-0.2180751
43	0xbca4178e	-0.020030763
44	0x3faa8207	1.3320931
45	0xbf1cb942	-0.6122018
46	0x3f24c8a0	0.6436863
47	0xbf4a76cc	-0.7908752
48	0x3eed1a76	0.4630925
49	0x3fdf0ee9	1.7426425
50	0x3f1b7269	0.6072145
51	0xbe71de04	-0.23619848
52	0xbfcbd628	-1.592473
53	0xbfa418c3	-1.2820057
54	0x3ec25ecd	0.37962952
55	0xbf31d721	-0.69468886
56	0x40076714	2.1156664
57	0xbf9abb94	-1.2088494
58	0xbfc4f2c6	-1.5386589
59	0x3e7b8392	0.24561909
60	0xbe143b1f	-0.14475678
61	0x3d641a1e	0.05568897
62	0x3e99e3f1	0.30056718
63	0xbf9064d6	-1.1280773
64	0x3f9392b0	1.152914
65	0xbe1687c6	-0.14700231
66	0xbf986252	-1.1905005
67	0xbf3c4e8c	-0.73557353
68	0xbfaf430e	-1.3692338
69	0x3f90eecb	1.1322874
70	0xbd797008	-0.060897857
71	0x3f2fca1e	0.6866778
72	0xbff9841b	-1.949344
73	0xbfae0bf2	-1.3597395
74	0xbfa0fe1e	-1.257755
75	0xbfd17664	-1.6364255
76	0x3fa79526	1.3092391
77	0xbfb20f9a	-1.3911011
78	0xbfae5483	-1.3619541
79	0x3f066971	0.5250464
80	0xbf14c733	-0.58116454
81	0xbfb3299f	-1.3997077
82	0xbed24ea2	-0.41075617
83	0x3f863872	1.0485976
84	0xbd888c26	-0.06667356
85	0xbf477d1e	-0.7792529
86	0x3f140508	0.5782018
87	0xbed6c9e7	-0.41950914
88	0x4029a3d1	2.6506236
89	0x3e26b0b9	0.16278352
90	0xbd544d4d	-0.051831532
91	0xbf660ca4	-0.8986304
92	0x3cfba354	0.03071753
93	0xbf093e07	-0.5361027
94	0x4024c033	2.574231
95	0x3f479cd5	0.7797368
96	0x3e821433	0.25406036
97	0xbe953813	-0.29144344
98	0x3eee0dbc	0.46494853
99	0x3efdd3a3	0.49575529
100	0xc00940a3	-2.14457
101	0xc00edd81	-2.2322695
102	0xbf8072fa	-1.0035088
103	0x3f80b318	1.0054655
104	0x3f8cd47b	1.1002344
105	0xbfaea0b5	-1.3642794
106	0x3fa0af36	1.255347
107	0xbfad003f	-1.35157
108	0x402ea682	2.7289128
109	0x3fce43ca	1.6114438
110	0x3fad28cc	1.3528075
111	0xbf16e4b9	-0.58942753
112	0xbf849839	-1.0358955
113	0xbfb58d1c	-1.4183688
114	0x403134f3	2.7688568
115	0xbf4ad4a3	-0.7923071
116	0x4014dbf9	2.325926
117	0xbf94d355	-1.1626993
118	0xbf8cc461	-1.099743
119	0xbec5ff76	-0.38671464
120	0x3e91c9c7	0.28474256
121	0x3f0350cd	0.5129517
122	0xbc971665	-0.018443296
123	0xbe0fe1a1	-0.14050914
124	0x3ed93bb1	0.42428353
125	0x3c691ba2	0.01422778
126	0xbec7df0a	-0.39037353
127	0x3ea02a67	0.3128235
128	0xbebf0549	-0.3730872
129	0xbeaa409d	-0.3325242
130	0x3f195c7b	0.5990674
131	0x3edf5bdf	0.4362478
132	0xbed39748	-0.41326356
133	0x3eb31de6	0.34983748
134	0xbef20cd9	-0.47275427
135	0xbebc9ad3	-0.36836872
136	0xbecfdc64	-0.40597832
137	0xbf7bf946	-0.98427236
138	0xbf318372	-0.69341195
139	0xbebce10d	-0.3689045
140	0x3d31194a	0.04323701
141	0x3e281f6d	0.16418238
142	0x3e10e7d3	0.14150934
143	0x3e5474bd	0.20747657
144	0xbed2645b	-0.4109219
145	0x3ec84047	0.3911154
146	0xbea914af	-0.33023593
147	0x3e99d1cb	0.30042872
148	0x3e773d0b	0.2414438
149	0xbd6e3236	-0.058153354
150	0xbf0212df	-0.50810045
151	0xbbd6a62b	-0.0065505705
152	0x3ee8b79b	0.4545258
153	0x3d2552df	0.040362235
154	0xbd9881e3	-0.07446649
155	0x3f2437a5	0.64147407
156	0xbedcf705	-0.4315721
157	0x3f875802	1.0573733
158	0x3eec40ba	0.46143132
159	0x3e552060	0.20813131
160	0x3e618ea3	0.22027068
161	0xbe8fe0b2	-0.28101116
162	0xbeaa1778	-0.3322103
163	0x3fbd4cd2	1.4789069
164	0xbfd9b66b	-1.7008795
165	0x3f19a791	0.6002131
166	0x3e98d96e	0.29853386
167	0x3ee8f217	0.454972
168	0x3fdf02a0	1.7422676
169	0xbf9e95de	-1.2389486
170	0xbf911719	-1.1335174
171	0xbe8975ca	-0.26847678
172	0x4000dc34	2.0134401
173	0x3f9303c6	1.1485527
174	0x3fba48c1	1.4553453
175	0x4025b1e8	2.5889835
176	0xbfb4d33e	-1.4126966
177	0x3feb56a8	1.838582
178	0x401ecdfe	2.4813228
179	0x3de4b93b	0.111681424
180	0x3ef2a7e9	0.4739373
181	0xbf63bd54	-0.88960767
182	0x3eb15ed8	0.34642673
183	0xbf032939	-0.51234776
184	0xbe9b0834	-0.30279696
185	0x3f096a31	0.5367766
186	0xbf2a99ac	-0.66640735
187	0xbcde1926	-0.027111601
188	0xbe948882	-0.29010397
189	0x3f2212b1	0.6330977
190	0xbf4402c2	-0.7656671
191	0x3ebd84f7	0.37015507
192	0xbec39dc5	-0.38206306
193	0xbedf1cbc	-0.4357661
194	0xbf465e31	-0.77487475
195	0x3eaba88e	0.33527035
196	0x3f127a9d	0.57218343
197	0x3e2435de	0.16036174
198	0x3eb806cf	0.35942695
199	0x3e3e5e06	0.18590555
200	0x3e3cb12c	0.1842696
201	0x3dd030d9	0.10165567
202	0x3e06ce11	0.13164546
203	0xbef88d80	-0.48545456
204	0x3f8477b9	1.0349036
205	0xbe87d78d	-0.2653164
206	0xbaa14f3a	-0.0012306937
207	0xbe88e43a	-0.26736623
208	0xbf86825f	-1.0508536
209	0x3f63f4c5	0.89045364
210	0x3f014c92	0.5050746
211	0x3eddd573	0.4332691
212	0xbf938024	-1.152348
213	0xbf0758a9	-0.5286966
214	0xbf816682	-1.0109408
215	0xbf8a54e6	-1.0807159
216	0x3f58ea4e	0.8473252
217	0xbfb76624	-1.4328046
218	0xbf95e855	-1.1711527
219	0xbf08a992	-0.53383744
220	0xbe2a2ac2	-0.16617873
221	0x3da91dae	0.08257614
222	0x3d8afd83	0.06786635
223	0xbf13f7cd	-0.5779999
224	0x3f24d5cd	0.64388734
225	0xbe82648c	-0.25467336
226	0xbe458cb5	-0.19291957
227	0xbe77741c	-0.24165386
228	0xbf4764e0	-0.778883
229	0x3f32a855	0.69788104
230	0xbe80e70b	-0.25176272
231	0x3e07873a	0.13235179
232	0xbea9faa6	-0.33199042
233	0xbe731dbd	-0.23741813
234	0xbede49d5	-0.43415704
235	0xbe8eb83a	-0.2787493
236	0x3f0fb1cc	0.5613067
237	0x3e7a5a84	0.24448591
238	0xbf0ff715	-0.5623639
239	0x3dcb4c41	0.09926654
240	0xbe7958ed	-0.24350329
241	0x3e016938	0.12637794
242	0xbedae466	-0.4275238
243	0x3e65952e	0.22420189
244	0x3e2608a9	0.16214241
245	0xbec66f25	-0.38756672
246	0x3e40b344	0.18818384
247	0x3ebf2a5e	0.3733701
248	0x3e8b4f79	0.2720907
249	0xbe61376a	-0.21993795
250	0x3ec932a4	0.39296448
251	0xbe461c57	-0.19346748
252	0xbd8a3552	-0.06748451
253	0xbe45e5bd	-0.1932592
254	0x3f0ff164	0.5622771
255	0xbf190995	-0.59780246

bias f4 [20]
0	0xbfdf1593	-1.7428459
1	0x3f7d91d1	0.99050623
2	0xbf24f5af	-0.64437383
3	0xbf6f4549	-0.93465096
4	0xbedd8836	-0.43267983
5	0xbe5df0fd	-0.21673961
6	0x3fe33f2f	1.7753657
7	0xbfd12cb4	-1.6341767
8	0xc007fbae	-2.1247363
9	0xc020ff67	-2.5155885
10	0x3fa49980	1.2859344
11	0xbf0a9a5c	-0.54141784
12	0x3f291f3b	0.6606328
13	0x3f6b3812	0.9188243
14	0x3f6f4688	0.93467
15	0x3f8a143f	1.0787429
16	0x405956b6	3.3959174
17	0x408a424d	4.3205934
18	0xc05f66b4	-3.4906435
19	0xbf50afc1	-0.8151818

weight f4 [20, 20]
0	0x3e0b490d	0.13602085
1	0x3eaa1f7b	0.33227143
2	0x3f131dc9	0.57467324
3	0x3e6b5759	0.22982539
4	0x3f80802b	1.0039114
5	0x3f2e4418	0.6807265
6	0x3ddc55a7	0.107585244
7	0x3f077a69	0.5292116
8	0x3e314b05	0.17313774
9	0x3f1af31f	0.60527223
10	0xbf01b850	-0.50671864
11	0x3f009dea	0.5024096
12	0xbf1d154b	-0.61360615
13	0xbe23d437	-0.15998922
14	0x3f8dd0fe	1.1079404
15	0xbf95fb54	-1.1717324
16	0xbeb70dd1	-0.3575273
17	0xbf16aa34	-0.5885346
18	0x3f8d19a1	1.1023446
19	0x3dd72243	0.10504582
20	0xbdf51e44	-0.11968663
21	0x3eb4ce9e	0.35313886
22	0xbdab4658	-0.083630264
23	0x3f3ae675	0.730079
24	0x3ec905ac	0.3926214
25	0x3fefe3b5	1.8741366
26	0xbefddfdf	-0.49584863
27	0x3fa39cee	1.2782266
28	0xbea4b182	-0.32166678
29	0x3fa44d97	1.2836179
30	0xbf887c72	-1.0662978
31	0x3f4238e1	0.7586804
32	0xbfb7d5a7	-1.4362077
33	0xbf20d277	-0.62821144
34	0x3fcb565e	1.5885732
35	0xbfb4efde	-1.4135702
36	0xbf453c6d	-0.7704533
37	0xbf9ccdec	-1.2250342
38	0x3fa26677	1.268752
39	0x3f430da3	0.76192683
40	0x3eb9d8fd	0.3629836
41	0xbe43b080	-0.19110298
42	0x3fae677f	1.3625335
43	0x3e667e93	0.22509222
44	0x3f4ec1db	0.8076455
45	0x3f9e5625	1.2370039
46	0xbe0c2ec7	-0.13689719
47	0x3f36e6ec	0.7144611
48	0x3e05e8e6	0.13077125
49	0x3f8f6dc4	1.1205373
50	0xbf2ecb84	-0.6827929
51	0x3ea064d1	0.31326917
52	0xbf2969b5	-0.6617692
53	0x3ed661a6	0.41871375
54	0x3f30e7f1	0.69103914
55	0xbf63ede0	-0.89034843
56	0xbf4d9bf1	-0.8031607
57	0xbea126f4	-0.3147503
58	0x3f854738	1.0412359
59	0xbed271e9	-0.41102532
60	0xbcd158ce	-0.02555504
61	0xbc195774	-0.009359229
62	0xbe80c8c4	-0.25153172
63	0x3ec91291	0.39271978
64	0xbeb64777	-0.35601398
65	0xbe5dd61c	-0.21663707
66	0x3d64f1fc	0.055894837
67	0x3e8b9940	0.27265358
68	0xbe6ac6f5	-0.22927459
69	0x3eb27fb5	0.34863058
70	0x3edd9cfb	0.4328383
71	0xbec4e995	-0.3845946
72	0x3c644e28	0.0139346495
73	0x3ddceb38	0.10787052
74	0xbc6c1216	-0.014408609
75	0x3e997243	0.29969987
76	0xbea4e088	-0.32202554
77	0x3f20f696	0.6287626
78	0x3e710239	0.23536004
79	0xbec7bc26	-0.39010733
80	0x3ee7906f	0.45227382
81	0xbf52e841	-0.8238564
82	0xbefdf6b7	-0.4960229
83	0xbea6aef8	-0.32555366
84	0x3c8758ed	0.016521895
85	0x3e253173	0.16132145
86	0xbe0442bf	-0.12916087
87	0x3edf3f71	0.4360309
88	0x3ec91eb1	0.39281228
89	0xbed51096	-0.41614217
90	0xbe7b317b	-0.24530594
91	0xbe901065	-0.28137508
92	0x3efefe03	0.4980317
93	0xbdd1c8f8	-0.1024341
94	0x3eae045e	0.33987707
95	0xbe94bda2	-0.29050928
96	0x3de41f01	0.11138726
97	0x3e4dc01b	0.20092814
98	0xbece5259	-0.402972
99	0x3ed87c7b	0.4228247
100	0x3e98fcf7	0.29880497
101	0x3e9954dd	0.29947558
102	0xbf096dce	-0.53683174
103	0x3e1d4802	0.153595
104	0xbf76c742	-0.96397793
105	0xbfeac3fe	-1.8341062
106	0x3e45e322	0.19324926
107	0xbfafe25d	-1.3740956
108	0xbeef8db2	-0.46787792
109	0xbf2e06fd	-0.67979413
110	0x3fad63a9	1.3546039
111	0xbf3cd554	-0.7376301
112	0x3f1c20be	0.6098746
113	0x3f32c3ae	0.69829834
114	0xc035821d	-2.8360665
115	0x400627b7	2.096174
116	0x3eb30f47	0.34972593
117	0x3f8c9552	1.0983069
118	0xbf52e735	-0.82384044
119	0xbf0f0f68	-0.55882883
120	0xbea83044	-0.32849324
121	0x3c9567f9	0.018238055
122	0xbcf2b5fa	-0.029627789
123	0xbe98ad63	-0.29819784
124	0xbddddcc1	-0.10833121
125	0x3fab0fe4	1.3364224
126	0xbf2ada8e	-0.6673974
127	0x3f52a9ba	0.8229023
128	0x3e2be503	0.1678658
129	0x3f036878	0.5133128
130	0xbf817e23	-1.0116619
131	0xbef659e6	-0.48115462
132	0x3e6ba02d	0.23010321
133	0xbecb92d0	-0.39760447
134	0x3fafa3a8	1.3721819
135	0xbf318b89	-0.6935354
136	0x3f1e5f24	0.61863923
137	0xbe4d1798	-0.20028532
138	0x3ecc9980	0.3996086
139	0x3e3fc9f5	0.18729384
140	0xbf08e04d	-0.53467256
141	0xbeb6d5fd	-0.35710135
142	0xbf83cef6	-1.0297534
143	0x3dcfe9f2	0.101520434
144	0xbf6eda6e	-0.9330205
145	0x3f284126	0.6572441
146	0x3d923728	0.071394265
147	0xba3b0955	-0.00071348745
148	0x3e03ce74	0.12871724
149	0xbe4364d4	-0.19081432
150	0x3ede980c	0.43475378
151	0xbee9e9d8	-0.4568622
152	0x3f1b3e99	0.6064239
153	0xbec194ac	-0.3780874
154	0xbbc3c460	-0.0059743375
155	0x3f01bea8	0.50681543
156	0x3e164e5d	0.1467833
157	0xbe26468b	-0.16237848
158	0xbf0ca1b2	-0.5493423
159	0xbd64db14	-0.05587299
160	0xbb674f6d	-0.0035295144
161	0x3e845237	0.25843975
162	0x3f19dc03	0.60101336
163	0xbe460207	-0.19336711
164	0x3f8fc208	1.1231089
165	0x3faf0fab	1.3676656
166	0xbf26c810	-0.6514902
167	0x3f5c3e26	0.8603233
168	0x3eab2bc8	0.3343184
169	0x3f294032	0.6611358
170	0xbf61e3c9	-0.882382
171	0x3ef872ee	0.48525184
172	0xbf16a57d	-0.58846265
173	0xbf06586a	-0.5247866
174	0x3fcc77b6	1.5974033
175	0xbfcaec74	-1.585341
176	0xbf5fc911	-0.8741618
177	0xbf8e3219	-1.1109039
178	0x3f9efe3c	1.2421336
179	0x3eaa706f	0.33288905
180	0x3dcd8b90	0.10036385
181	0x3ef203c3	0.47268495
182	0x3ecc6c00	0.39926147
183	0xbd24d974	-0.040246442
184	0xbe79301f	-0.24334763
185	0x3e0d645e	0.13807818
186	0xbe6b01ef	-0.22949956
187	0xbd729294	-0.05922182
188	0xbe8e69d3	-0.27815112
189	0x3f10d5c7	0.565762
190	0xbc9cae7c	-0.01912617
191	0x3e3d21b5	0.1846989
192	0xbf38ffdc	-0.7226541
193	0x3ef978b1	0.48724893
194	0x3e2657c3	0.16244416
195	0xbe6fac21	-0.23405506
196	0xbed5f7ee	-0.41790718
197	0xbf686ff6	-0.9079584
198	0xbe4d998a	-0.20078102
199	0xbe868be8	-0.26278615
200	0xbf835cf3	-1.0262741
201	0x3f132193	0.57473105
202	0x3f330c3a	0.6994053
203	0xbe7eeea4	-0.24895722
204	0x3f28c3bc	0.65923667
205	0x3e873b9e	0.26412672
206	0xbe1a7322	-0.15082982
207	0xbd889546	-0.06669097
208	0x3f6283e2	0.8848249
209	0xbe89eb76	-0.26937455
210	0xbf3bd4c8	-0.73371553
211	0xbe1cdd1e	-0.15318725
212	0x3e2316e3	0.159267
213	0x3e1325c2	0.14369872
214	0x3f3a94e2	0.7288343
215	0xbfe52ccb	-1.7904295
216	0xbe57b720	-0.2106595
217	0xbe5ddc93	-0.21666174
218	0xbecfda8c	-0.40596426
219	0x3f572bd3	0.84051245
220	0x3ec8d046	0.392214
221	0xbf418472	-0.7559272
222	0xbf283be1	-0.6571637
223	0xbef658ce	-0.48114628
224	0xbedac82d	-0.42730847
225	0x3ea70423	0.32620344
226	0xbe254e7b	-0.16143219
227	0x3f0e2745	0.5552867
228	0x3e4ac886	0.19803056
229	0xbe6971de	-0.22797343
230	0xbf31c379	-0.6943889
231	0xbf1881a9	-0.59572846
232	0x3eeb4aeb	0.45955595
233	0xbf0e06af	-0.5547895
234	0x3f135f06	0.5756687
235	0x3e2352f0	0.15949607
236	0x3f1ddc4d	0.6166428
237	0x3f115019	0.56762844
238	0xbd42104b	-0.04737882
239	0x3f03bcd0	0.5145998
240	0x3f2ca72b	0.6744258
241	0xbe72ca99	-0.23710097
242	0xbee5e65e	-0.4490232
243	0x3f193930	0.59852886
244	0xbf8aaff6	-1.0834949
245	0x3d516ad2	0.051127262
246	0xbdf7bbff	-0.12096404
247	0x3e805aff	0.25069425
248	0xbe1ec76a	-0.15505758
249	0x3f1cc0af	0.6123151
250	0x3d822621	0.06354929
251	0x3e3ee9be	0.18643853
252	0xbea09e36	-0.31370705
253	0xbf4847bc	-0.7823446
254	0x3f426076	0.7592844
255	0x3f82e66a	1.0226567

bias f4 [20]
0	0x3eaeab20	0.34114933
1	0x3fcc0555	1.5939127
2	0x3ec9f222	0.39442545
3	0x3f0f2742	0.5591928
4	0x3fd81e65	1.6884276
5	0xc0174e7f	-2.364166
6	0x3f3c69c5	0.7359889
7	0x3f8becf5	1.0931689
8	0xbe488843	-0.1958323
9	0xbf7c93a9	-0.9866281
10	0xbfdeba95	-1.740069
11	0x40174be4	2.364007
12	0x4029b2ce	2.6515384
13	0xbe8a7552	-0.27042633
14	0xbf82cd88	-1.0218973
15	0xbd5c44b4	-0.053776458
16	0xbf9cfba6	-1.2264297
17	0x3f89f8f2	1.0779097
18	0xbfed964d	-1.8561493
19	0x40173089	2.3623374

weight f4 [20, 20]
0	0xbf38a97a	-0.721336
1	0xbf95e5aa	-1.1710713
2	0x4014b10c	2.323306
3	0xc00ed640	-2.2318268
4	0xbfe876bd	-1.8161236
5	0x3f9a939b	1.2076296
6	0xbf25cdbf	-0.6476707
7	0xc0692f9f	-3.6435316
8	0x3f7810f2	0.96900856
9	0x402a526c	2.6612806
10	0x40534045	3.3007977
11	0xbfd42a29	-1.6575366
12	0xc001288f	-2.0181005
13	0xbecf025a	-0.40431482
14	0xc00285e5	-2.0394223
15	0xc0189c3b	-2.3845356
16	0xbfc40402	-1.5313723
17	0x3e49e3db	0.19715826
18	0x3df49113	0.11941733
19	0xbf65496e	-0.8956517
20	0x3fd7b9bf	1.685356
21	0x3fa93570	1.3219433
22	0xbfbbade6	-1.4662445
23	0x3f91a534	1.1378541
24	0x3fa38931	1.2776242
25	0xbf56042b	-0.8360011
26	0x3f66cc81	0.901558
27	0xbf67fc79	-0.9061962
28	0x3fa586c9	1.2931758
29	0xbfb9212d	-1.446325
30	0x3fbf4b46	1.4944847
31	0x3f8aa8bc	1.0832744
32	0x3f8addc2	1.0848925
33	0x3f729bee	0.9476918
34	0x3e6b0bfc	0.2295379
35	0xbfd1f44e	-1.6402681
36	0xbfa1c601	-1.2638551
37	0x3fdf5b0b	1.7449659
38	0xbfa76663	-1.3078121
39	0x3fae9eb7	1.3642186
40	0x3ff35535	1.9010378
41	0x3f9cc36c	1.2247138
42	0x402329d3	2.5494277
43	0xbe7a85ef	-0.24465154
44	0xbe51c670	-0.20485854
45	0xbf1b2328	-0.6060052
46	0x3f3de9ad	0.74184686
47	0xc0cb239e	-6.348098
48	0x400c324d	2.19057
49	0x3f33be41	0.7021218
50	0x40b9ffc1	5.81247
51	0x3e3c820d	0.18408985
52	0xbeb516a2	-0.3536883
53	0x3997c921	0.00028950817
54	0xc066ff69	-3.609339
55	0xc077b2f3	-3.8702972
56	0xc0713fe9	-3.7695258
57	0x3fd7d1b2	1.6860869
58	0xbff4ab5d	-1.9114796
59	0x3fa25470	1.2682018
60	0xbf14de4c	-0.581517
61	0x3d5cd2d8	0.053912014
62	0x3f499291	0.7873927
63	0xbdc19f50	-0.094542146
64	0xbd907a06	-0.07054524
65	0xbe2d9953	-0.1695302
66	0x3d66118c	0.056169078
67	0x3c0d61fc	0.008629318
68	0x3d8365bb	0.06415888
69	0x3ed47483	0.4149514
70	0xba37529f	-0.00069932075
71	0xbf1e254b	-0.61775655
72	0x3e4830ae	0.1954982
73	0x3e0b5d3c	0.13609785
74	0x3e34bcdf	0.17650174
75	0xbd8acf01	-0.06777764
76	0xbde26ec2	-0.110562816
77	0x3f0fa87b	0.56116456
78	0x3c73f7ac	0.014890593
79	0x3e0e591d	0.13901182
80	0xbee3f855	-0.445254
81	0xbf90caec	-1.1311927
82	0xbf8c72d4	-1.0972543
83	0xbf6ce1cf	-0.92532057
84	0xbf8d216f	-1.1025828
85	0x3f6646ea	0.89951956
86	0xbf39acd6	-0.7252935
87	0xbfcf8c31	-1.6214658
88	0xbed5de57	-0.41771194
89	0x3faa8ecf	1.3324832
90	0x3fc23cfd	1.5174862
91	0xbf94c597	-1.16228
92	0xbfbab48e	-1.4586351
93	0x3db6e0bf	0.08929586
94	0x3f470151	0.77736384
95	0x3edcd0c9	0.4312804
96	0x3f3b9e79	0.73288685
97	0xbec9db89	-0.39425305
98	0x3f51e045	0.81982833
99	0xbf7f5143	-0.9973337
100	0x3f209545	0.6272777
101	0x3f1cd672	0.6126472
102	0xbecbe993	-0.3982664
103	0x3db5879c	0.08863756
104	0x3f6f7b02	0.9354707
105	0xbef6deac	-0.4821676
106	0xbdef9ebc	-0.11700198
107	0xbdcf57c6	-0.10124163
108	0x3e7c65af	0.24648164
109	0xbf8a5d33	-1.0809692
110	0xbdc19253	-0.09451737
111	0x3f07bf92	0.5302669
112	0xbe73bfec	-0.23803681
113	0x3f3c4f91	0.7355891
114	0xbe0422d1	-0.12903906
115	0x3e7a684f	0.24453853
116	0xbe8eb9af	-0.2787604
117	0x3e461849	0.19345202
118	0xbf26b827	-0.65124744
119	0x3f06acf5	0.5260766
120	0x3ff8c401	1.9434816
121	0x3fbc02fe	1.4688413
122	0xc02989c3	-2.6490333
123	0x3ff09c07	1.8797616
124	0x3fba1e60	1.454052
125	0xbf3ba8ec	-0.7330463
126	0x3f1d5cec	0.6146991
127	0x400a6c18	2.1628475
128	0x3e14a78f	0.14517044
129	0xc002278e	-2.0336642
130	0xbfc6ae84	-1.5522008
131	0x3fca54a7	1.5807084
132	0x3ffdc15f	1.9824637
133	0x3f8501b7	1.0391148
134	0x400b4d45	2.1765912
135	0x3f699498	0.9124236
136	0x3f4504d1	0.76960474
137	0x3f22e7f9	0.6363521
138	0xbf77224b	-0.965367
139	0x3f88bfbf	1.0683516
140	0xbdce4ad9	-0.1007287
141	0xbd9418a4	-0.07231262
142	0xbf20dcc7	-0.6283688
143	0xbedf425e	-0.43605322
144	0xbe5a51fc	-0.21320337
145	0x3e3b10c0	0.18268108
146	0x3e9cb29a	0.30605012
147	0xbf1f1ef4	-0.62156606
148	0x3f2f336e	0.6843785
149	0x3f77a84f	0.96741194
150	0x3fecaf99	1.8491088
151	0xbf062fb5	-0.52416545
152	0xbe093fd9	-0.13403262
153	0x3f5c2c41	0.86005026
154	0x3e97f668	0.2968018
155	0xbfdb1ed4	-1.7118783
156	0xbfaece2d	-1.365667
157	0x3f90ccca	1.1312497
158	0xbf020e36	-0.50802934
159	0x3e571f4f	0.21008037
160	0xbe25bd40	-0.16185474
161	0xbf85b0ff	-1.044464
162	0xbf2d2b05	-0.6764377
163	0xbe07a0cb	-0.13244931
164	0xbf37a089	-0.7172933
165	0x3e961338	0.29311538
166	0xbf37f005	-0.71850616
167	0x3f4ded36	0.8044008
168	0xbf90af9f	-1.1303595
169	0x3ee118b9	0.43964174
170	0xbfb149b9	-1.3850623
171	0xbf4825bf	-0.78182596
172	0xbf0b270b	-0.5435645
173	0x3e83d062	0.2574492
174	0x3f82b4e5	1.0211455
175	0x3fd4149b	1.6568788
176	0x3fc54aa2	1.5413401
177	0xbfaf2a85	-1.3684851
178	0x3f81cf63	1.0141414
179	0xbf3eeebb	-0.74583024
180	0x3edde3ea	0.43337947
181	0x3f875502	1.0572817
182	0x40351c52	2.8298535
183	0xbf5bd72a	-0.8587519
184	0xbe68e508	-0.22743618
185	0xbe7ea793	-0.24868612
186	0x3f624c0f	0.88397306
187	0xc05a1a17	-3.4078424
188	0x4025745b	2.5852268
189	0x3f7f8174	0.99806905
190	0x4090b466	4.5220213
191	0xbda9ec4b	-0.082970224
192	0xbf8df2d8	-1.1089735
193	0x3f909229	1.1294605
194	0xc0410b5d	-3.0163186
195	0xc0aa14f8	-5.3150597
196	0xc09c51a0	-4.884964
197	0x40575a3d	3.3648827
198	0xc004d952	-2.0757642
199	0x3fba3844	1.4548421
200	0x3df2b2ad	0.11850486
201	0xbd84e875	-0.0648965
202	0x3ea0aa11	0.3137975
203	0x3f133a16	0.5751051
204	0xbdda1e8b	-0.10650357
205	0x3e80181f	0.25018403
206	0xbe51606a	-0.20446935
207	0xbdb0b7b6	-0.0862879
208	0xbe4f9bb6	-0.20274243
209	0xbf45c283	-0.77249926
210	0xbf01f8c0	-0.5077019
211	0x3e4dc778	0.20095623
212	0xbe13cc93	-0.14433508
213	0xbe6de366	-0.23231277
214	0xbe80ae7a	-0.25133115
215	0x3ef861c6	0.48512095
216	0x3f19b703	0.6004488
217	0xbefaa67a	-0.48955137
218	0x3eaca240	0.33717537
219	0xbd45e7f7	-0.048316922
220	0xbe0ddaa8	-0.13852942
221	0x3c789c95	0.015174051
222	0xbdae8def	-0.085231654
223	0x3f385bac	0.7201488
224	0x3eedc26c	0.46437395
225	0xbf11c342	-0.56938565
226	0x3e882f0a	0.26598388
227	0x4029284f	2.6430852
228	0x3d8b15f8	0.067912996
229	0xbf80a700	-1.0050964
230	0xbfbee109	-1.4912425
231	0x3f282e99	0.656961
232	0x3f6713b5	0.90264446
233	0x3ec10c9d	0.37704936
234	0x3e4b3167	0.19843064
235	0x3e987f8c	0.2978481
236	0x3eaed825	0.3414928
237	0x3e55189f	0.20810173
238	0x3d234bbb	0.039867144
239	0x3e8586dc	0.26079452
240	0xbf0b93da	-0.5452248
241	0xbe575851	-0.21029784
242	0xbe539b3f	-0.2066469
243	0xbeef1832	-0.46698147
244	0xbe2468b3	-0.16055565
245	0x3f2de0a3	0.67920893
246	0xbf0fdebe	-0.5619925
247	0xbe1ef2f8	-0.15522373
248	0xbe94aa76	-0.290363
249	0xbe60424a	-0.21900287
250	0x3ed2c10c	0.41162908
251	0x3e70c971	0.23514344
252	0xbf256532	-0.64607537
253	0x3f1f0c12	0.6212779
254	0x3ba3fe8c	0.0050047096
255	0x3ee419d2	0.4455095

bias f4 [20]
0	0x3de774c8	0.11301571
1	0x3f13124a	0.5744978
2	0xbe7bce82	-0.24590495
3	0x3fe9103c	1.8208079
4	0x3f31ea0e	0.69497764
5	0xbf9ec35a	-1.2403367
6	0x3f2a3879	0.6649242
7	0x401ee10b	2.4824855
8	0xbe89d3c7	-0.26919386
9	0x4015c9a3	2.340432
10	0xbfa08103	-1.2539371
11	0x3fa98738	1.324439
12	0x3cb40519	0.021975087
13	0x3f652536	0.89509904
14	0x3f1a3667	0.6023926
15	0xc0129764	-2.2904902
16	0x400633a0	2.096901
17	0x3fd63444	1.67347
18	0xbfea4927	-1.8303574
19	0xbff3aee9	-1.9037753

weight f4 [20, 20]
0	0x3e870734	0.26372683
1	0x3ef2ed22	0.47446543
2	0xbf847da3	-1.0350841
3	0x3e46036d	0.19337244
4	0x3f2e7b67	0.6815705
5	0x3ed6831d	0.41896906
6	0x3e3afe3e	0.18261048
7	0x3eeb8808	0.4600222
8	0x3ed4fc20	0.41598606
9	0x3ec3355e	0.38126653
10	0x3e152a4d	0.14566918
11	0x3ea21408	0.31655908
12	0xbc059560	-0.00815329
13	0xbe2c85b7	-0.16847883
14	0xbdc11d7d	-0.094294526
15	0xbd8aa96c	-0.06770596
16	0x3ed3fe99	0.4140518
17	0x3d8eb6df	0.06968474
18	0x3eb0a0c3	0.3449765
19	0xbea441b0	-0.32081366
20	0x3eada12f	0.33912036
21	0x3fb6e3c4	1.4288259
22	0xbf264ec4	-0.64963937
23	0xbeb8d29d	-0.36098185
24	0x3f812843	1.0090412
25	0x3f0662b6	0.5249437
26	0xbe4de351	-0.20106246
27	0x3fa43ecf	1.2831668
28	0x3f01a36a	0.50639975
29	0x3f6a93f8	0.9163203
30	0xbd0a3de2	-0.033750422
31	0xbe95b453	-0.2923914
32	0x3f4a7152	0.79079163
33	0x3f20fcbf	0.6288566
34	0xbd939231	-0.07205618
35	0xbe4d182c	-0.20028752
36	0x3ea6e8bc	0.32599437
37	0xbefedc30	-0.49777365
38	0xbea7aa41	-0.3274708
39	0x3e01da33	0.12680893
40	0x3e231693	0.1592658
41	0xbe79f0a3	-0.24408202
42	0x3edb6fb4	0.4285866
43	0x3ef61d38	0.48069167
44	0xbecd821a	-0.40138322
45	0xbf9a6085	-1.2060705
46	0x3e6fe261	0.234262
47	0xbe398865	-0.18118437
48	0xbf31fa43	-0.69522494
49	0x3e9cdba7	0.3063633
50	0xbf2a561b	-0.66537637
51	0xbf0c1963	-0.5472624
52	0xbf7688f3	-0.9630272
53	0x3f5c41a7	0.8603768
54	0x3e35a706	0.17739496
55	0xbe90069a	-0.28130037
56	0x3f073a0c	0.5282295
57	0x3f4e0a78	0.80484724
58	0xbf10ff5c	-0.5663965
59	0xbf1843d0	-0.59478474
60	0x3ff96f54	1.94871
61	0xbe8cb1b9	-0.27479342
62	0xbf17901c	-0.5920427
63	0x40270617	2.6097467
64	0x3f8b91ee	1.0903909
65	0xc00e8067	-2.226587
66	0xc0054f1d	-2.0829537
67	0x3faf7779	1.3708335
68	0xbff18ca8	-1.887105
69	0x3fe44a18	1.7835112
70	0xc018c11c	-2.3867865
71	0x3f023742	0.50865567
72	0xc01c2c9a	-2.4402223
73	0x4006d5cb	2.106799
74	0xbfc00468	-1.5001345
75	0xc00d38bd	-2.206588
76	0x4020fb2b	2.51533
77	0x404c96fb	3.196715
78	0xc030fb2a	-2.7653298
79	0xc0384d10	-2.8797035
80	0xc0551245	-3.32924
81	0xbf768c5a	-0.9630791
82	0xc08183da	-4.047345
83	0xc05bc252	-3.4337354
84	0x400c78e5	2.1948788
85	0x40843b2e	4.132224
86	0x408dfe84	4.437319
87	0xc018f1c4	-2.3897562
88	0x40309319	2.7589781
89	0xc0c21760	-6.0653534
90	0x404b07b1	3.1723444
91	0x3fc2ca0f	1.5217913
92	0x403d6795	2.9594471
93	0xc02b9856	-2.6811728
94	0x4053b80d	3.3081086
95	0x40835d7f	4.105163
96	0xc067f11d	-3.6240914
97	0xc053ef0f	-3.311466
98	0x408029c2	4.0050974
99	0x407b55a0	3.9271011
100	0x3f745f7d	0.95458204
101	0xbf50891f	-0.8145923
102	0xbfd46312	-1.6592734
103	0x3fc118d9	1.5085708
104	0x400da464	2.2131586
105	0xbf0b5aa1	-0.54435164
106	0xbee35ca7	-0.44406626
107	0x3fdfe0a9	1.7490436
108	0xbeab1a58	-0.33418536
109	0x3fba5f0a	1.4560254
110	0xc0322159	-2.7832854
111	0x3ff5f902	1.9216616
112	0xbfb2ee68	-1.3979006
113	0x3fbadfd1	1.4599553
114	0xbf52788c	-0.8221519
115	0xbf473b3d	-0.77824765
116	0x3feaea6a	1.8352787
117	0x3fbcf91e	1.4763525
118	0xbfa379d5	-1.2771555
119	0xbf4202f5	-0.7578576
120	0xbff20599	-1.8907958
121	0xc0591ae3	-3.392266
122	0xc0157c69	-2.3357184
123	0xbf1c6baf	-0.6110181
124	0xbfe15d90	-1.7606678
125	0x3fc032ad	1.5015465
126	0x4032e6a8	2.7953281
127	0xc048e30c	-3.1388578
128	0x3f1856f1	0.5950766
129	0xc063f60d	-3.5618927
130	0x3dbc1e2e	0.09185444
131	0x4004da15	2.0758107
132	0x3edababf	0.427206
133	0xc03b6ac1	-2.9283907
134	0x3f2987bc	0.6622274
135	0x3f81d73b	1.0143808
136	0xbf837b15	-1.0271937
137	0xbf8bb6df	-1.0915183
138	0x3f924c56	1.1429546
139	0x3f563ed4	0.8368962
140	0xbf262c48	-0.6491132
141	0x3fcc3fcc	1.5956969
142	0x3f879043	1.05909
143	0xbfcfb8b0	-1.6228237
144	0x3e7633f3	0.24043255
145	0x3f2f3910	0.68446445
146	0x3f1cc718	0.6124129
147	0x3ebedc1e	0.3727731
148	0x3f8a2baf	1.0794581
149	0x3f89dcc8	1.0770502
150	0x3fc7c3a4	1.560658
151	0xbfe7a4a9	-1.8097125
152	0x3fc914ec	1.570951
153	0x3efcf1f7	0.49403355
154	0x3f5fad61	0.8737393
155	0x3f7e9e39	0.9946018
156	0xbfe7ee21	-1.8119546
157	0xbfc6a167	-1.5518006
158	0x3f67a130	0.9048033
159	0x3f91f816	1.1403835
160	0xbff5763c	-1.9176707
161	0xc00f6623	-2.240609
162	0xbefb21d0	-0.49049234
163	0xbf9aba6f	-1.2088145
164	0xbff70a17	-1.9299954
165	0x3fcf9cb1	1.6219693
166	0x401050dc	2.2549353
167	0xbfee8cc6	-1.8636711
168	0x3f8c87ff	1.0979003
169	0xc0072f56	-2.1122642
170	0x3ed841ec	0.42237794
171	0x3f765ce1	0.9623547
172	0x3f94c9a9	1.1624042
173	0xc0101f2d	-2.2519028
174	0x3f10eec6	0.5661434
175	0x3fe66dd1	1.8002263
176	0xbfa31bd4	-1.2742867
177	0xbff8e60f	-1.9445208
178	0x3fcc3e1a	1.5956452
179	0x3f9fa751	1.2472936
180	0x40764fc5	3.8486187
181	0x3f38fe70	0.7226324
182	0xc0117b32	-2.2731442
183	0x40a73fd1	5.22654
184	0x40860a15	4.1887307
185	0xc08394a3	-4.111894
186	0xc0559d16	-3.3377128
187	0x4083c467	4.117725
188	0xbf97e984	-1.1868138
189	0x405742ff	3.363464
190	0xc07294c0	-3.790329
191	0x3f65dfec	0.897948
192	0xc08ca63a	-4.3952913
193	0x408a22b0	4.3167343
194	0xc017d756	-2.372518
195	0xc0a7846b	-5.2349143
196	0x409cee40	4.9040833
197	0x409a6726	4.8250914
198	0xc0a6f413	-5.217294
199	0xc0a70673	-5.2195373
200	0x3e492418	0.19642675
201	0xbf210b7b	-0.6290814
202	0x3f26c02e	0.6513699
203	0x3d2e18bb	0.042504054
204	0xbf8dd3b9	-1.1080238
205	0xbdac1fd5	-0.08404509
206	0x3cec1c27	0.028822018
207	0xbf2d4721	-0.6768666
208	0x3e1da688	0.15395558
209	0xbbffc222	-0.007805125
210	0xbe1633be	-0.14668176
211	0x3f4e9009	0.8068853
212	0xbea7ecdd	-0.327979
213	0xbf1de064	-0.6167052
214	0x3d87111d	0.06595061
215	0x3deb7c19	0.11498279
216	0xbd440735	-0.047858436
217	0xbe382d8f	-0.17986129
218	0x39fd4d41	0.0004831348
219	0xbe6b4353	-0.22974901
220	0x3e5bd4a2	0.21467832
221	0xbe40961e	-0.18807265
222	0x3f311ada	0.691816
223	0x3e2e22a2	0.17005399
224	0xbec474d5	-0.38370386
225	0xbd10cd29	-0.035351906
226	0x3d54a7f4	0.051917985
227	0xbecea4d7	-0.40360138
228	0x3ddc3382	0.10752012
229	0xbec40435	-0.3828446
230	0x3e3144d4	0.17311412
231	0x3e55dcda	0.2088503
232	0x3e2076b1	0.15670277
233	0x3ec1a863	0.3782378
234	0xbe2abc9c	-0.16673511
235	0x3e9ace45	0.30235496
236	0x3d2172ea	0.03941623
237	0x3c75a2c4	0.01499242
238	0x3e8faee3	0.28063115
239	0xbea87f5c	-0.32909667
240	0x40a93ae9	5.288441
241	0x40ecc932	7.39956
242	0x3f44ded1	0.7690249
243	0x408957d3	4.2919707
244	0x40faf33b	7.842191
245	0xc08abb05	-4.3353295
246	0xc0c087f2	-6.016595
247	0x40d4e8e4	6.653429
248	0xc01e083d	-2.4692528
249	0x40e077a2	7.0146036
250	0xbf9caca1	-1.2240182
251	0xc0e5261f	-7.1609035
252	0xc06abb72	-3.6676908
253	0x40e60e2e	7.189231
254	0xc02aa5be	-2.666366
255	0xc0985a14	-4.760996

bias f4 [20]
0	0x404d46d1	3.2074473
1	0x400833b3	2.1281555
2	0xc014a20c	-2.3223906
3	0x3fc1b254	1.5132546
4	0xc0937574	-4.6080875
5	0x3fe19d1f	1.7626075
6	0xbe967254	-0.293841
7	0xbf98f30c	-1.1949172
8	0xbea45d81	-0.32102588
9	0x40835435	4.104029
10	0x3dfe03e0	0.12403083
11	0xc02edcdf	-2.732231
12	0x40661f60	3.595665
13	0xc08615be	-4.190154
14	0xbf937a16	-1.1521633
15	0x3f4da673	0.80332106
16	0xbf2cf120	-0.6755543
17	0xc0198930	-2.3989983
18	0x3ff426f4	1.9074388
19	0x3fd2e0ad	1.6474816

weight f4 [20, 20]
0	0xc03957cc	-2.8959837
1	0xc00f34bc	-2.2375937
2	0x401c4aca	2.4420648
3	0x3ff286db	1.8947405
4	0x4005fe25	2.0936368
5	0x3f92d70e	1.147188
6	0x3f514389	0.81743675
7	0xc0213e7e	-2.5194392
8	0x3f151772	0.582389
9	0xbfc7eb3a	-1.561866
10	0xbfbfdee5	-1.4989897
11	0x40375add	2.8649209
12	0x3ff281a9	1.8945819
13	0x3fbcfbdb	1.476436
14	0x403263e7	2.7873476
15	0x4038455f	2.879234
16	0x401cbbfc	2.4489737
17	0xc0309ad1	-2.7594492
18	0xc03032a3	-2.7530906
19	0xc03d09e3	-2.9537284
20	0xbf2ae727	-0.6675896
21	0xbeecc71d	-0.4624566
22	0x3f000ab7	0.5001635
23	0x3f16db47	0.5892834
24	0x3eaeaf6e	0.34118217
25	0x3fc014b8	1.5006323
26	0x412b8dbb	10.722102
27	0xbf6a2379	-0.91460377
28	0x41337593	11.216205
29	0xc0f9e6ca	-7.8094225
30	0xc07ddf41	-3.9667513
31	0x3dfa10fe	0.12210272
32	0xc14697da	-12.412073
33	0x411f191a	9.943628
34	0x3e133fc4	0.14379793
35	0xbf00e6ff	-0.5035247
36	0x3f378a66	0.71695554
37	0xbed71b00	-0.42012787
38	0xbe8c83ce	-0.2744431
39	0xbef49762	-0.47771746
40	0x404ab77a	3.1674485
41	0x4044bbaf	3.0739553
42	0xc03c6490	-2.9436378
43	0xc00e5698	-2.2240353
44	0xc052fff8	-3.296873
45	0xc01f619b	-2.4903324
46	0xbfb2f62b	-1.3981375
47	0x4048f543	3.1399696
48	0xbfa3e787	-1.2805032
49	0x40199399	2.3996336
50	0x401d7fbb	2.460921
51	0xc062cbb4	-3.543683
52	0xbfc13355	-1.509379
53	0xbff68937	-1.9260625
54	0xc0631d34	-3.5486574
55	0xc01f5db1	-2.4900935
56	0xc044abfc	-3.072997
57	0x406730b6	3.612348
58	0x403fda82	2.9977117
59	0x4056d44e	3.356708
60	0x40412a9a	3.0182252
61	0x40488424	3.1330652
62	0xc021c67a	-2.527739
63	0xc0228a15	-2.5396779
64	0xbfdcfd2f	-1.7264766
65	0xbdaace5b	-0.083401404
66	0xc04224a1	-3.0334857
67	0x40548fdd	3.3212807
68	0xc0299db3	-2.6502502
69	0x405d3c12	3.4567914
70	0x402f561b	2.7396305
71	0xc025986b	-2.5874279
72	0xbf473d79	-0.77828175
73	0xc0566b72	-3.350308
74	0xc05536dc	-3.3314734
75	0xc051baeb	-3.2770336
76	0xc0329f2c	-2.790965
77	0x405961d3	3.3965957
78	0x402ef4c9	2.7336905
79	0x4038397f	2.8785093
80	0xc0ab2901	-5.3487554
81	0xc0bd6504	-5.918581
82	0x40b5fe3e	5.6872854
83	0x408119a5	4.0343804
84	0x40897b00	4.2962646
85	0x3fca79f0	1.5818462
86	0x411869ca	9.525827
87	0xc095b9a2	-4.6789103
88	0x41335c3b	11.210017
89	0xbfd60707	-1.6720895
90	0xbffc3834	-1.9704652
91	0x40b3dbe4	5.620592
92	0xc13f9790	-11.974503
93	0x3f940dc7	1.1566705
94	0x40bbd68f	5.869941
95	0x408a4524	4.32094
96	0x40aa5575	5.322932
97	0xc0bd015e	-5.906417
98	0xc0acdd3b	-5.4020057
99	0xc0adef81	-5.4354863
100	0xc1058f01	-8.347413
101	0xc10d554a	-8.833323
102	0x41065ac4	8.39716
103	0x40d98f77	6.798763
104	0x40f7b420	7.740738
105	0x40ef370f	7.475471
106	0x40b0b087	5.5215487
107	0xc0eed3b1	-7.463341
108	0x40b76ce4	5.7320423
109	0xc0e51818	-7.159191
110	0xc0c36ee6	-6.1072874
111	0x410d11a8	8.816811
112	0xc03cbf46	-2.9491744
113	0x40d3694a	6.6066027
114	0x4101cae2	8.112032
115	0x40dc50ca	6.884862
116	0x4103ed24	8.245396
117	0xc10adbc2	-8.678652
118	0xc10ccdde	-8.800261
119	0xc1059c8b	-8.3507185
120	0xc0ffb05d	-7.9902787
121	0xc0f820c9	-7.754002
122	0x40facb27	7.837299
123	0x40b7d3bf	5.744598
124	0x40efaaf8	7.48962
125	0x40b0db30	5.5267563
126	0x3fe45acf	1.7840213
127	0xc0e2700a	-7.0761766
128	0x400263cf	2.0373418
129	0xbff0e121	-1.8818704
130	0xc04be416	-3.1857963
131	0x40ff66cc	7.9812984
132	0xc014dcbd	-2.3259728
133	0xbf14838a	-0.5801321
134	0x410de703	8.868899
135	0x40d9d9d6	6.8078413
136	0x40e66b5a	7.2006044
137	0xc105e821	-8.369172
138	0xc0f3df7e	-7.6210318
139	0xc0fabb55	-7.8353677
140	0x3eb35017	0.3502204
141	0xbe2cd818	-0.16879308
142	0xbe005bcd	-0.12535019
143	0xbc6d4734	-0.014482308
144	0xbec956b2	-0.39323956
145	0x3d5ce1bc	0.053926215
146	0x40165c66	2.3493896
147	0x3d950306	0.07275967
148	0x3ffcaf67	1.9741029
149	0xbfb46c2f	-1.4095515
150	0xbf2d7957	-0.67763275
151	0xbe6d8335	-0.23194583
152	0xc05e9525	-3.477853
153	0x3fd351f6	1.6509387
154	0x3d4901b0	0.049073875
155	0xbdaa6675	-0.083203234
156	0xbc9dcec8	-0.01926364
157	0x3d35bea7	0.044371273
158	0x3e04cf37	0.12969671
159	0xbd82cdc2	-0.063869014
160	0xc0e06eb8	-7.0135155
161	0xc0ee891c	-7.454237
162	0x40e9a90e	7.3018866
163	0x40b9ed76	5.810237
164	0x40cffbd7	6.499492
165	0x40c51520	6.1588287
166	0x4016e767	2.3578737
167	0xc0d255c4	-6.5729694
168	0x4091c026	4.5547056
169	0xbef64767	-0.4810135
170	0xbffa7dfe	-1.95697
171	0x40ec6ff1	7.3886647
172	0xc0202fda	-2.5029206
173	0xbfaa3ae6	-1.3299224
174	0x40e23c58	7.069866
175	0x40ac78d2	5.3897486
176	0x40deb447	6.9595065
177	0xc0e951a2	-7.291215
178	0xc0f575c9	-7.670628
179	0xc0f40519	-7.6256223
180	0xc09ef3a3	-4.967241
181	0xc0a5cf07	-5.181522
182	0x408b9fba	4.363248
183	0x40449e60	3.0721664
184	0x40248691	2.5707133
185	0x3fc9146b	1.5709356
186	0x418b88c3	17.441778
187	0xc06af6a6	-3.6713042
188	0x419aa399	19.329882
189	0xc1405da4	-12.0228615
190	0xc0d24b3a	-6.571683
191	0x409475bb	4.6393714
192	0xc1ad859d	-21.69024
193	0x4164054f	14.251296
194	0x40935906	4.604617
195	0x4056a08d	3.3535492
196	0x409457a4	4.6356983
197	0xc0a21e5a	-5.066205
198	0xc0916dcf	-4.5446544
199	0xc0a01f0e	-5.003791
200	0x41825cf3	16.295385
201	0x417fffb3	15.999927
202	0xc1809926	-16.07478
203	0xc146fb3c	-12.4363365
204	0xc140f39c	-12.059475
205	0xc107cd5b	-8.487636
206	0xc11fadd9	-9.979943
207	0x4161b59f	14.106841
208	0xc126a068	-10.414162
209	0x419e8180	19.813232
210	0x41558674	13.345325
211	0xc182f81b	-16.371145
212	0xc12006f1	-10.001695
213	0xc1a41381	-20.509523
214	0xc13e4d43	-11.893863
215	0xc11301c5	-9.187932
216	0xc17d9597	-15.849021
217	0x41720e7b	15.128535
218	0x418817d1	17.01163
219	0x41811b9e	16.138485
220	0xc0692bcd	-3.6432984
221	0xc0803106	-4.0059843
222	0x407e411b	3.9727237
223	0x4038429d	2.8790658
224	0x408cd849	4.401402
225	0x40473bbb	3.1130207
226	0x4052f047	3.2959154
227	0xc07ffa25	-3.9996426
228	0x4037a151	2.869221
229	0xc063e48e	-3.5608249
230	0xc0539193	-3.3057601
231	0x40711572	3.766934
232	0xbf7ef81f	-0.9959735
233	0x406fd597	3.7474115
234	0x408c7a09	4.389897
235	0x40698be0	3.6491623
236	0x405f2aef	3.4869955
237	0xc081b5ca	-4.053441
238	0xc05ae381	-3.4201357
239	0xc071057f	-3.7659605
240	0x3f06b99d	0.52626973
241	0x3f6d94f6	0.9280542
242	0xbdfa9d98	-0.1223709
243	0x3e8f7a0e	0.28022808
244	0xbf7fa64f	-0.9986314
245	0x3eb47536	0.35245675
246	0xbf7357de	-0.9505595
247	0x3e635694	0.22200996
248	0xbf60e478	-0.87848616
249	0x3efd9cd0	0.495337
250	0xbe78a648	-0.24282181
251	0xbf3c5645	-0.73569137
252	0x3f6fc351	0.93657404
253	0xbfa3f5c5	-1.2809378
254	0x3e1c53f5	0.15266402
255	0xbe21209b	-0.15735094

bias f4 [20]
0	0x3f61765f	0.88071245
1	0xbf305637	-0.68881553
2	0x3f881a5c	1.0633044
3	0x3eaa2394	0.3323027
4	0xc08b069e	-4.344558
5	0xc0f222db	-7.566755
6	0xc0d647bd	-6.696257
7	0x3faaf2b2	1.3355315
8	0xc0e63806	-7.194339
9	0xc098aadb	-4.7708564
10	0x418ef121	17.867739
11	0xbfbe6892	-1.4875662
12	0xbf802185	-1.0010229
13	0xc077be88	-3.871004
14	0xc044e21e	-3.076301
15	0x408d3f69	4.4139905
16	0xbe4b2bf7	-0.1984099
17	0xbe992c18	-0.29916453
18	0xc01ac035	-2.4179814
19	0x3fafae40	1.3725052

weight f4 [20, 20]
0	0x3ed2cc86	0.41171664
1	0x40cc313c	6.38101
2	0x3e30f0c5	0.17279346
3	0xc0ee66ca	-7.4500475
4	0x41430eb0	12.191086
5	0x4121dfbf	10.1171255
6	0x4113b5da	9.231897
7	0x40c6c125	6.211077
8	0x4133aa28	11.229042
9	0x4126ac4c	10.417065
10	0xc1175135	-9.457326
11	0xbf721fb0	-0.945796
12	0x3f45f7f0	0.7733145
13	0x411b4200	9.703613
14	0xbe3a997c	-0.18222612
15	0xbf2419c2	-0.64101803
16	0xbf0ec482	-0.557686
17	0x40778732	3.8676267
18	0x414e2bad	12.885663
19	0x40ba29ed	5.817618
20	0x4090489b	4.508863
21	0xc0a2ec5c	-5.0913525
22	0xc08a8e24	-4.329851
23	0xc12e1941	-10.8811655
24	0xc041936f	-3.0246236
25	0x4134cd7d	11.300168
26	0xc0454be8	-3.082758
27	0xc09653a8	-4.697712
28	0xc0338b90	-2.8053932
29	0xc08ea4fa	-4.4576387
30	0xc110a36e	-9.0399
31	0x40b0e9ab	5.528524
32	0xc0725313	-3.7863204
33	0xc06dfe90	-3.7186623
34	0xc09574dc	-4.670515
35	0x406ed3a9	3.7316687
36	0x4095154c	4.6588497
37	0xc083157c	-4.0963726
38	0xc083e335	-4.121485
39	0xc07e64b8	-3.9748974
40	0x3eb5c0c3	0.35498628
41	0x3fa96ff3	1.3237289
42	0x3eabc45e	0.33548254
43	0xc0e98ca5	-7.2984185
44	0x411a156a	9.630228
45	0x41117879	9.091912
46	0x411b2fa5	9.699132
47	0x3fbcd348	1.4751978
48	0x410299cb	8.162547
49	0x408ddde4	4.4333363
50	0xc158b75c	-13.544765
51	0x3ec3e1cb	0.38258204
52	0x3f49193e	0.7855414
53	0x41119318	9.098412
54	0xbef6b09f	-0.48181626
55	0xbf8512ec	-1.03964
56	0xbdc854f6	-0.0978183
57	0x3f6b0025	0.91797096
58	0x40dde5b5	6.9342904
59	0x409e1498	4.940014
60	0x3f79ade4	0.9753096
61	0xbff0f180	-1.88237
62	0xbf8fd1be	-1.1235883
63	0x40d00dcb	6.5016837
64	0xc0f28cc7	-7.5796847
65	0xc0f36d93	-7.6071258
66	0xc0b4da57	-5.651653
67	0xc013f1f5	-2.311643
68	0xc0d8ba4a	-6.7727404
69	0xc0a7e5eb	-5.246816
70	0x41251a78	10.318962
71	0x3f6630cb	0.899182
72	0xbff6ea2b	-1.9290212
73	0xc0998459	-4.7974057
74	0xbf92f872	-1.148207
75	0x3fb48439	1.4102851
76	0x3f5707f9	0.8399654
77	0xbfe80769	-1.8127261
78	0xc0d97f78	-6.79681
79	0xc013d0fd	-2.3096306
80	0x3febffa6	1.8437393
81	0xbfd6f771	-1.6794263
82	0xc000ebea	-2.014399
83	0x415bdcbe	13.741392
84	0xc11e763c	-9.903866
85	0xc17021cd	-15.008252
86	0xc14e1fe8	-12.88279
87	0xc03fb5c8	-2.99547
88	0xc104530f	-8.270278
89	0xc09a498e	-4.821479
90	0x41439888	12.224739
91	0x3f78f75f	0.9725246
92	0xc02ee5e4	-2.7327814
93	0xc1473213	-12.449725
94	0xbff6768d	-1.9254929
95	0x40466114	3.0996752
96	0x3fcf9eb1	1.6220304
97	0xbff6f766	-1.929425
98	0xc0cdd160	-6.4318085
99	0xc0e47746	-7.1395597
100	0xc06d529c	-3.708167
101	0x4092a6f1	4.5828786
102	0x4083bba8	4.1166573
103	0xc0f21c30	-7.565941
104	0x4124beb3	10.296557
105	0x410ff8e3	8.998263
106	0x4122adce	10.167433
107	0x40b68ca3	5.7046676
108	0x410794e3	8.473849
109	0x40d6846c	6.703665
110	0xc13b195e	-11.693693
111	0xc0498fd2	-3.149403
112	0x40a1063e	5.032012
113	0x41106080	9.02356
114	0x406bd076	3.6845984
115	0xc096f29a	-4.7171144
116	0xc06e7802	-3.7260747
117	0x4094d6b4	4.651209
118	0x4109ed72	8.62047
119	0x40c91772	6.284112
120	0xbe052025	-0.13000543
121	0x3fdb3f32	1.7128661
122	0x3f4544b9	0.7705799
123	0x41192b1f	9.573028
124	0xbf9762ed	-1.1827065
125	0xc11729e1	-9.447724
126	0xbfc2bfb6	-1.5214756
127	0x3eef2239	0.46705797
128	0xbf39f881	-0.7264481
129	0x3f09b6ea	0.5379473
130	0x411640fe	9.390867
131	0xbfb378c2	-1.4021227
132	0xbdefcbe4	-0.11708811
133	0xbf390dcf	-0.72286695
134	0x3f22c67a	0.635841
135	0x3ea7912f	0.32727954
136	0xbf68583d	-0.9075964
137	0x3f219a00	0.6312561
138	0xbe4f23b5	-0.20228465
139	0xbf1552bd	-0.58329374
140	0xc09a0b33	-4.813867
141	0x405529ac	3.3306684
142	0x40877166	4.2325926
143	0xc0821505	-4.065066
144	0x40f5a357	7.676189
145	0x40a2bd3e	5.085601
146	0x412377e8	10.216774
147	0x4096a03a	4.707059
148	0x40e1b0a4	7.0528126
149	0x40a78a05	5.235598
150	0x408a59f5	4.323481
151	0xc0833686	-4.1004057
152	0x40955e91	4.6677938
153	0x411cb644	9.794498
154	0x408bcdf0	4.368889
155	0xc0a67615	-5.2019143
156	0xc08410d5	-4.1270547
157	0x409085ca	4.5163317
158	0x40ea92a9	7.330403
159	0x40dbb377	6.8656573
160	0x3fd5e42f	1.6710261
161	0x3fb318f0	1.3991985
162	0xbf918321	-1.1368142
163	0xc134de9d	-11.304349
164	0x412c7907	10.779548
165	0x414c7ced	12.780499
166	0x410c49c4	8.768009
167	0x3f5f5af5	0.87248164
168	0x41159796	9.349508
169	0x40b2e25b	5.5901313
170	0xc16cda2d	-14.803266
171	0x3fee35b5	1.861014
172	0xbf07974d	-0.5296524
173	0x40ed35b0	7.4128036
174	0xc000576b	-2.0053356
175	0x3f916cc0	1.1361313
176	0x3fd47f86	1.6601417
177	0x3f07a624	0.52987885
178	0x410cb4fe	8.794188
179	0x4064710b	3.5693996
180	0x405a8425	3.4143155
181	0x40adf6aa	5.4363604
182	0xc045bf1d	-3.0897896
183	0xc13e1310	-11.879654
184	0x417c811f	15.781524
185	0x416e2fde	14.886686
186	0x41420281	12.125611
187	0x40958371	4.672295
188	0x4153f27b	13.246699
189	0x41348a72	11.2838
190	0xc17c14c4	-15.75507
191	0x3fdbba63	1.7166256
192	0xc0360929	-2.844309
193	0x413d96fa	11.8493595
194	0xc07b9262	-3.9308095
195	0x40292bee	2.6433063
196	0x40370228	2.8595066
197	0x3f98301f	1.1889685
198	0x41551f1d	13.320096
199	0x4102b862	8.170015
200	0x401ac64c	2.418353
201	0x403bb749	2.9330618
202	0xbfe32110	-1.7744465
203	0xc08491c1	-4.142792
204	0x4140b612	12.044451
205	0x40a645d0	5.196022
206	0x410e73bf	8.903258
207	0x3fe25a6f	1.7683848
208	0x41124256	9.141195
209	0x41030dc7	8.190864
210	0xbfce41d4	-1.6113839
211	0x3f3c7764	0.73619676
212	0xbfc470db	-1.5346941
213	0x4104e6df	8.306365
214	0xc0037875	-2.054227
215	0x3fb98f87	1.4496926
216	0x3ff35c29	1.90125
217	0x3f5e24e4	0.8677504
218	0x411c54d8	9.770714
219	0x40ae616e	5.4493933
220	0x3f0ecb1a	0.5577866
221	0x4048e97f	3.1392515
222	0x3e2f3e87	0.17113696
223	0xc01020bf	-2.2519987
224	0x414d0450	12.813553
225	0x407c0487	3.9377763
226	0x413d209c	11.820461
227	0x40106220	2.255989
228	0x4135a4e9	11.352761
229	0x40e53565	7.162768
230	0x3e6d2ee8	0.23162425
231	0xbe814b12	-0.25252587
232	0x3f8a8164	1.0820737
233	0x41461b7d	12.381711
234	0x391e96ab	0.00015124182
235	0xbf01a18b	-0.5063712
236	0xbede0c47	-0.43368742
237	0x4027d352	2.622273
238	0x41197fa8	9.593666
239	0x40ebe724	7.3719654
240	0x3f813727	1.0094956
241	0xc02465bc	-2.5687094
242	0xbfa01aa5	-1.2508131
243	0x40d735ff	6.7253413
244	0xc0fa8496	-7.828685
245	0xc0ff0b87	-7.970157
246	0xc0ba1a20	-5.815689
247	0xc03f0f05	-2.9852917
248	0xc0b8f3a8	-5.779743
249	0xc0b16a99	-5.5442624
250	0x414e7342	12.903139
251	0x3fa8580d	1.3151871
252	0xbf862385	-1.047959
253	0xc0ac6f07	-5.388553
254	0xbf3cf879	-0.7381664
255	0x3fe7c8a0	1.8108101
