Iter_03/Models/Noise_0/simulation_00_20/ff_200.pt (torch, 39517 bytes, 23 tensors)

weight f4 [20, 2]
-2.3667057 -3.8746955 -19.188206 -1.1256418 -26.558426 4.449028 15.914897 -14.892887
-62.03886 -1.5696505 24.080107 1.8773582 -18.22888 2.9033172 -15.359341 7.1834717
-41.220135 6.6378474 -40.093174 3.551618 2.3648126 4.5481787 14.372289 -5.289061
1.0038137 -9.493445 -25.447016 4.501404 -16.615673 3.4212158 28.055494 -14.567401
-6.7342734 -7.3782425 -1.5850916 4.4982867 27.91684 -7.129132 -3.5825493 -1.249341
00000000: 1b78 17c0 03fb 77c0 7281 99c1 0815 90bf
00000010: a877 d4c1 705e 8e40 6ba3 7e41 4449 6ec1
00000020: cb27 78c2 4fea c8bf 0fa4 c041 464d f03f
00000030: bfd4 91c1 f3cf 3940 dcbf 75c1 00df e540
00000040: 6be1 24c2 3f69 d440 695f 20c2 b64d 6340
00000050: 1759 1740 ae8a 9140 e5f4 6541 fd3f a9c0
00000060: f87c 803f 27e5 17c1 7d93 cbc1 800b 9040
00000070: e6ec 84c1 33f5 5a40 a771 e041 1314 69c1
00000080: 2b7f d7c0 901a ecc0 48e4 cabf f7f1 8f40
00000090: b055 df41 d921 e4c0 7d48 65c0 68ea 9fbf

bias f4 [20]
-8.461117 5.1174054 19.486359 -56.671394 32.905655 -4.7700877 20.25726 26.862759
35.883827 27.694912 10.474933 -22.329075 -31.50848 29.266811 24.393482 -53.04413
-16.490868 7.0354757 -36.762638 -5.4325576
00000000: bc60 07c1 c9c1 a340 10e4 9b41 82af 62c2
00000010: 649f 0342 8fa4 98c0 de0e a241 eee6 d641
00000020: 0a89 0f42 2e8f dd41 5399 2741 f2a1 b2c1
00000030: 5e11 fcc1 6e22 ea41 da25 c341 302d 54c2
00000040: 4ced 83c1 9e22 e140 f10c 13c2 83d7 adc0

weight f4 [20, 20]
4.7505984 4.2609105 23.38002 -12.567106 1.6037849 -17.955774 11.432043 2.084227
-6.873668 18.802439 2.0038443 -9.352247 -18.697365 22.679657 -8.380931 -7.57354
-30.254559 32.610886 -8.797089 -5.5081267 2.236822 4.3488173 13.217123 -9.0232
1.6043742 -11.42217 6.0203605 -0.44986522 -0.81520724 11.170403 0.3183394 -4.363885
-8.465837 11.773499 -3.4111238 -7.043177 -14.2026415 19.534946 -3.8789048 -1.7640442
0.21219537 4.44869 5.87716 -7.7370296 2.6732924 -6.6539216 2.4480941 -2.3177624
1.5109029 5.3394556 -2.2463322 -0.09169933 -1.4035975 3.7930796 0.91914725 -5.6150293
-4.154321 12.537435 0.8675274 0.56663257 -1.9518081 -0.25779384 -9.54336 4.4622197
-0.3437253 6.758508 -5.183924 -2.1842027 3.7900462 -7.233613 -1.5247049 5.1341405
9.925983 -10.186226 4.5954037 1.9974346 13.633496 -11.590258 5.204497 3.6808271
-0.7064385 1.5006579 -4.833012 3.3126717 -0.6687255 0.96770144 -2.01217 -2.730454
4.2248282 -2.6945815 -0.9887977 3.4166243 4.4229226 -5.695598 2.0044045 -0.2117764
5.3903246 -5.1050644 2.974695 2.8995302 0.62923485 -6.621815 -7.249462 10.683002
-2.8126938 9.095826 -2.886132 4.595833 -2.547495 -7.148745 3.9206767 -0.8779102
-0.81773746 -3.8500214 -1.9455838 8.236566 3.1935692 -17.676 -2.551651 -2.09642
-1.0796447 0.44571263 -2.6311762 1.3784614 -0.2725926 0.4886876 -1.2211683 -1.488421
1.7192101 -2.0748682 -0.7544338 1.7075338 2.6173303 -3.1275654 1.4683205 0.53073275
3.24845 -2.7059565 1.979325 1.1269566 -4.8529024 17.357012 2.3287349 -17.143566
7.128484 -11.877584 -0.9592943 -15.531748 16.835667 6.3155503 -10.59713 10.272498
16.528193 -8.229603 13.479501 -19.42449 13.823842 21.055832 13.227904 12.171865
-3.690734 -13.885694 -33.231915 25.726374 -5.5149426 30.58467 -15.479116 4.624674
1.2629731 -28.526926 2.7442338 8.267025 18.322601 -27.262499 5.811055 20.017153
34.616913 -54.525238 5.849527 1.8962485 1.6390476 0.71715134 4.282834 1.9828041
-0.54282445 -4.1626687 2.442538 -0.27812624 -0.60092276 3.8983624 1.1757946 -1.7664076
-6.3588443 4.5754075 -4.0168905 0.14177439 -9.267217 4.551223 -2.5987415 -1.2063997
-1.6325698 2.5355031 -4.6267347 1.1594174 0.25617367 0.69261426 -2.287434 -3.5137966
5.6109505 -2.5903907 -1.6991874 3.6014676 4.817141 -5.9905577 3.3166394 -1.9949744
6.46449 -3.3919172 3.6432216 2.93306 -1.1252824 -2.9708452 -8.231839 8.580481
-1.9217821 6.9955626 -3.661009 0.4214993 1.0017548 -6.404473 1.1386604 2.8550117
3.3655863 -7.1086817 0.8335213 4.883055 6.9465036 -14.482583 1.32133 0.73344904
-3.338567 4.946521 -1.736571 -9.303123 3.2474785 0.04520451 -1.9083108 -4.474242
5.6449313 -0.6376888 -4.8461313 4.28867 11.176721 -5.4937334 8.046202 -6.811993
00000000: e704 9840 6159 8840 480a bb41 de12 49c1
00000010: d348 cd3f 6da5 8fc1 a6e9 3641 fa63 0540
00000020: 17f5 dbc0 656b 9641 fc3e 0040 cea2 15c1
00000030: 3494 95c1 f06f b541 4b18 06c1 715a f2c0
00000040: 5609 f2c1 8c71 0242 e0c0 0cc1 9342 b0c0
00000050: 1728 0f40 8329 8b40 5679 5341 075f 10c1
00000060: 225c cd3f 35c1 36c1 cba6 c040 bc54 e6be
00000070: 6cb1 50bf f8b9 3241 62fd a23e f2a4 8bc0
00000080: 1174 07c1 4060 3c41 da4f 5ac0 b561 e1c0
00000090: 053e 63c1 9247 9c41 fa3f 78c0 33cc e1bf
000000a0: be49 593e ab5b 8e40 b211 bc40 bf95 f7c0
000000b0: 3917 2b40 edec d4c0 93ad 1c40 3856 14c0
000000c0: 4465 c13f d2dc aa40 e8c3 0fc0 dccc bbbd
000000d0: 15a9 b3bf d1c1 7240 3c4d 6b3f 52ae b3c0
000000e0: 33f0 84c0 5599 4841 4716 5e3f d50e 113f
000000f0: d9d4 f9bf 8efd 83be 9ab1 18c1 81ca 8e40
00000100: c3fc afbe b345 d840 b5e2 a5c0 fac9 0bc0
00000110: 1e90 7240 c279 e7c0 8829 c3bf e14a a440
00000120: d4d0 1e41 c8fa 22c1 8c0d 9340 f0ab ff3f
00000130: cd22 5a41 b271 39c1 3d8b a640 ac92 6b40
00000140: 27d9 34bf 8f15 c03f 09a8 9ac0 d002 5440
00000150: 9831 2bbf 48bb 773f 65c7 00c0 c2bf 2ec0
00000160: cb31 8740 0674 2cc0 d921 7dbf f9a9 5a40
00000170: 9588 8d40 5742 b6c0 2a48 0040 eadb 58be
00000180: 8a7d ac40 b05c a3c0 6761 3e40 e791 3940
00000190: 8915 213f e9e5 d3c0 98fb e7c0 94ed 2a41
000001a0: 2d03 34c0 8188 1141 63b6 38c0 1011 9340
000001b0: 280a 23c0 85c2 e4c0 5eec 7a40 b9be 60bf
000001c0: 3e57 51bf c066 76c0 e408 f9bf f9c8 0341
000001d0: 7063 4c40 7368 8dc1 404e 23c0 bf2b 06c0
000001e0: cc31 8abf 7234 e43e 3165 28c0 6c71 b03f
000001f0: 4291 8bbe 4335 fa3e 3e4f 9cbf 9484 bebf
00000200: 140f dc3f a4ca 04c0 9322 41bf 7890 da3f
00000210: 5782 2740 082a 48c0 edf1 bb3f 1ade 073f
00000220: 9be6 4f40 642e 2dc0 865a fd3f 1d40 903f
00000230: fa4a 9bc0 29db 8a41 fe09 1540 0626 89c1
00000240: 8a1c e440 960a 3ec1 5094 75bf 0a82 78c1
00000250: 72af 8641 fd18 ca40 d88d 29c1 275c 2441
00000260: bd39 8441 74ac 03c1 09ac 5741 5b65 9bc1
00000270: 752e 5d41 5872 a841 7fa5 5341 f6bf 4241
00000280: fc34 6cc0 cd2b 5ec1 7bed 04c2 9dcf cd41
00000290: 697a b0c0 67ad f441 76aa 77c1 54fd 9340
000002a0: 1aa9 a13f 2537 e4c1 87a1 2f40 bc45 0441
000002b0: b094 9241 9919 dac1 2af4 b940 2123 a041
000002c0: b877 0a42 d819 5ac2 532f bb40 45b8 f23f
000002d0: 50cc d13f 3b97 373f fa0c 8940 86cc fd3f
000002e0: 8bf6 0abf 9534 85c0 8b52 1c40 9066 8ebe
000002f0: 13d6 19bf c57e 7940 7080 963f a519 e2bf
00000300: a77b cbc0 bd69 9240 5e8a 80c0 4e2d 113e
00000310: 8546 14c1 9ea3 9140 c851 26c0 4e6b 9abf
00000320: 0cf8 d0bf af45 2240 360e 94c0 ca67 943f
00000330: 3229 833e 2b4f 313f 5265 12c0 0be2 60c0
00000340: e88c b340 f6c8 25c0 f97e d9bf 727e 6640
00000350: 0526 9a40 a6b2 bfc0 d243 5440 525b ffbf
00000360: 1add ce40 2c15 59c0 8b2a 6940 41b7 3b40
00000370: 4109 90bf 5422 3ec0 9db5 03c1 a649 0941
00000380: f5fc f5bf a6db df40 f94d 6ac0 c2ce d73e
00000390: 8039 803f 71f1 ccc0 a0bf 913f 83b8 3640
000003a0: c465 5740 527a e3c0 a761 553f fd41 9c40
000003b0: c249 de40 a9b8 67c1 5721 a93f 51c3 3b3f
000003c0: 15ab 55c0 e649 9e40 f547 debf 98d9 14c1
000003d0: b0d6 4f40 5d28 393d 8743 f4bf fe2c 8fc0
000003e0: 47a3 b440 933f 23bf 8213 9bc0 c93c 8940
000003f0: d9d3 3241 aacc afc0 3ebd 0041 d9fb d9c0

bias f4 [20]
34.744267 17.665928 6.177079 -14.732041 0.21097323 -4.526473 -2.0359974 -3.3280673
-44.89229 19.849665 -1.8646901 -3.991192 -24.16977 -12.762041 -40.09261 -10.348452
30.366915 -19.264664 -12.471107 19.214067
00000000: 21fa 0a42 d253 8d41 a2aa c540 71b6 6bc1
00000010: 5e09 583e ded8 90c0 c84d 02c0 0eff 54c0
00000020: b491 33c2 1dcc 9e41 2aae eebf b16f 7fc0
00000030: b05b c1c1 5231 4cc1 d55e 20c2 4293 25c1
00000040: 71ef f241 081e 9ac1 a789 47c1 69b6 9941

weight f4 [20, 20]
9.715419 13.682849 8.42638 -11.0783205 -6.4977503 8.346983 -7.528263 1.9448714
-17.60761 -9.251509 -11.341609 3.036408 5.8994074 6.8256316 -15.700892 1.8839003
-12.127341 6.564175 6.161135 -3.0892985 -1.4053377 2.6719513 0.3018601 -5.046416
7.2886333 -1.2392472 -1.2328165 -2.8610892 -4.7244086 2.9964273 3.4277613 2.1342068
-7.5382404 -5.275683 -3.2517133 -8.961656 2.1844792 -6.5844755 -7.216138 -3.509604
-17.923006 -12.421841 -8.301977 4.9035673 21.535452 -12.316591 5.909148 -5.7145863
13.527898 16.809992 19.745934 0.22219022 -22.813654 -19.383358 14.2388 -21.406736
20.167435 -22.407516 -21.969034 -2.8362603 -4.117637 0.030313676 1.172837 -7.537569
11.944399 -3.9283829 -2.4566255 -7.034705 -5.61279 9.319257 4.9524136 2.4542801
-14.876562 -12.113599 -4.1965256 -16.237316 9.458411 -13.590433 -12.502202 -1.8304577
-4.9237986 1.9359521 -0.0561536 -1.7795349 4.682587 -0.13240503 -1.9273629 0.80631095
1.4709401 -0.76435 1.7787441 2.318132 -4.483425 -3.6864316 1.3161211 -4.371453
-1.3573912 -4.0786552 -3.7568038 -3.8759913 -13.8634 -20.085123 -8.672338 14.627749
5.131714 -9.653843 8.502174 -2.234209 24.403095 12.87182 10.241749 -3.1142502
-5.504049 -8.755093 21.708881 0.26271695 17.043484 -6.4147058 -3.99695 5.088542
4.4544034 10.619526 4.746526 -11.773062 3.942683 3.1390584 -5.8840632 -2.050709
-14.468311 -2.0609572 -2.5715098 3.7099864 -4.54761 -1.379949 -12.764993 -7.1585116
-4.4852943 -3.8400874 -4.3804517 -4.9009595 -1.938947 -4.6433334 -2.4706714 3.6685314
1.2787045 -3.0384085 2.445899 -0.98707575 4.8435874 3.921891 3.1286552 -1.549637
-1.4331311 -2.1344235 4.565759 -0.20699646 4.580678 -1.3882558 -1.215896 1.962713
3.858098 0.25918078 0.058441278 6.592558 -13.209423 4.6428723 0.4068647 6.1421447
4.8521476 -8.916808 -7.954808 -1.5135059 14.806754 11.158859 3.1543074 17.205544
-9.3837595 13.977168 14.675437 2.5204155 0.916688 -0.7411723 0.9738818 0.29267433
-3.0187054 0.6978761 -0.79107857 -0.051517982 0.43552524 0.08837818 -2.7020702 -0.3084623
1.7514894 0.5962026 -0.1183429 2.9415808 -0.014978401 1.9357629 3.247427 1.1912013
-0.56468594 2.5024753 1.038545 -6.124025 7.270574 -1.8028013 -1.568925 -3.2741916
-6.1531925 4.2969003 2.628933 1.7324935 -8.067745 -5.865608 -4.6068287 -9.120991
3.4512038 -7.708585 -7.511784 -3.6230843 -0.77007234 0.040305965 0.5393321 -0.7491169
0.14773591 -0.18841758 -0.6364936 -0.40922242 -0.2616565 0.7178734 -1.0615076 0.19764197
-0.2064292 -0.5092502 -0.10725844 0.13383402 0.50119364 0.39322758 0.11789327 0.07981212
0.2756443 0.51889336 -0.1947112 -0.2405618 0.28083277 -0.84876364 -0.13899216 -0.008584776
-0.4362098 0.42064786 0.42826784 -0.54704463 -0.91052717 -0.7904864 -0.18288153 -1.5791087
00000000: 5b72 1b41 f3ec 5a41 74d2 0641 cd40 31c1
00000010: 92ed cfc0 3e8d 0541 88e7 f0c0 8cf1 f83f
00000020: 63dc 8cc1 2e06 14c1 3b77 35c1 8254 4240
00000030: f2c7 bc40 936b da40 db36 7bc1 a523 f13f
00000040: 9709 42c1 b90d d240 0528 c540 11b7 45c0
00000050: 1be2 b3bf 4001 2b40 688d 9a3e 3d7c a1c0
00000060: 7c3c e940 a79f 9ebf eecc 9dbf 161c 37c0
00000070: 5b2e 97c0 77c5 3f40 7160 5b40 d896 0840
00000080: 4439 f1c0 65d2 a8c0 121c 50c0 f162 0fc1
00000090: 82ce 0b40 06b4 d2c0 9aea e6c0 5a9d 60c0
000000a0: 5162 8fc1 dcbf 46c1 e6d4 04c1 06ea 9c40
000000b0: 9b48 ac41 c210 45c1 be17 bd40 e4dd b6c0
000000c0: 4572 5841 dd7a 8641 acf7 9d41 d585 633e
000000d0: 5d82 b6c1 1e11 9bc1 20d2 6341 ff40 abc1
000000e0: e856 a141 9842 b3c1 95c0 afc1 4a85 35c0
000000f0: afc3 83c0 6354 f83c 861f 963f c433 f1c0
00000100: 421c 3f41 a06a 7bc0 5a39 1dc0 4e1c e1c0
00000110: fa9b b3c0 ad1b 1541 2c7a 9e40 ed12 1d40
00000120: 6606 6ec1 4dd1 41c1 f049 86c0 06e6 81c1
00000130: a755 1741 6a72 59c1 0509 48c1 704c eabf
00000140: c28f 9dc0 47cd f73f 5101 66bd cdc7 e3bf
00000150: c1d7 9540 2f95 07be d4b3 f6bf 656a 4e3f
00000160: c447 bc3f 71ac 43bf e3ad e33f 465c 1440
00000170: 3878 8fc0 7fee 6bc0 a876 a83f f1e2 8bc0
00000180: ffbe adbf 5884 82c0 796f 70c0 3e10 78c0
00000190: 7dd0 5dc1 55ae a0c1 e5c1 0ac1 430b 6a41
000001a0: 0037 a440 2476 1ac1 e808 0841 48fd 0ec0
000001b0: 8a39 c341 faf2 4d41 34de 2341 e04f 47c0
000001c0: 2b21 b0c0 dc14 0cc1 caab ad41 d682 863e
000001d0: 0e59 8841 4545 cdc0 07ce 7fc0 56d5 a240
000001e0: 798a 8e40 94e9 2941 8ae3 9740 765e 3cc1
000001f0: eb54 7c40 55e6 4840 3f4a bcc0 d13e 03c0
00000200: 347e 67c1 b9e6 03c0 9e93 24c0 6b70 6d40
00000210: 0586 91c0 2ba2 b0bf 693d 4cc1 8712 e5c0
00000220: 8887 8fc0 fec3 75c0 a92c 8cc0 a9d4 9cc0
00000230: 6a2f f8bf 3096 94c0 7b1f 1ec0 38c9 6a40
00000240: 97ac a33f 4975 42c0 9c89 1c40 ffb0 7cbf
00000250: abfe 9a40 4300 7b40 e33b 4840 815a c6bf
00000260: d770 b7bf 659a 08c0 b31a 9240 e1f6 53be
00000270: ea94 9240 5eb2 b1bf 7ba2 9bbf 2e3a fb3f
00000280: 14eb 7640 58b3 843e 1f60 6f3d 3cf6 d240
00000290: cc59 53c1 6992 9440 9250 d03e 738c c440
000002a0: cb44 9b40 3fab 0ec1 ca8d fec0 90ba c1bf
000002b0: 77e8 6c41 b08a 3241 2ce0 4940 f4a4 8941
000002c0: e123 16c1 7ba2 5f41 97ce 6a41 7d4e 2140
000002d0: 11ac 6a3f 78bd 3dbf 5150 793f 69d9 953e
000002e0: 7832 41c0 02a8 323f 2084 4abf 8504 53bd
000002f0: 2afd de3e 9fff b43d b8ee 2cc0 c5ee 9dbe
00000300: ce30 e03f bca0 183f c35d f2bd dc42 3c40
00000310: f867 75bc 14c7 f73f d8d5 4f40 4979 983f
00000320: 428f 10bf 8e28 2040 0bef 843f 03f8 c3c0
00000330: 8ba8 e840 31c2 e6bf 89d2 c8bf 5b8c 51c0
00000340: f4e6 c4c0 3580 8940 7040 2840 59c2 dd3f
00000350: 7c15 01c1 10b3 bbc0 246b 93c0 94ef 11c1
00000360: 86e0 5c40 baac f6c0 8960 f0c0 9de0 67c0
00000370: 7623 45bf de17 253d ab11 0a3f 20c6 3fbf
00000380: 1548 173e 8af0 40be 3ff1 22bf 9a85 d1be
00000390: d7f7 85be 8dc6 373f 7bdf 87bf a862 4a3e
000003a0: 2d62 53be 395e 02bf 50aa dbbd c90b 093e
000003b0: 3a4e 003f 2055 c93e 0772 f13d 8974 a33d
000003c0: 4021 8d3e 32d6 043f 5f62 47be d555 76be
000003d0: 50c9 8f3e 9348 59bf f653 0ebe 29a7 0cbc
000003e0: e456 dfbe 285f d73e ec45 db3e 1e0b 0cbf
000003f0: 4f18 69bf 515d 4abf 4c45 3bbe 3c20 cabf

bias f4 [20]
-5.9006653 10.165727 19.72823 6.936989 4.1846566 -5.300152 8.291272 -0.2942088
-14.941425 -7.4709034 8.871815 -2.5597725 2.0663686 2.1152155 2.7275727 13.314465
10.098402 17.545898 -10.305934 -8.076634
00000000: 40d2 bcc0 d1a6 2241 6ad3 9d41 d0fb dd40
00000010: b5e8 8540 d89a a9c0 0da9 0441 89a2 96be
00000020: 1410 6fc1 a411 efc0 f4f2 0d41 50d3 23c0
00000030: 623f 0440 b15f 0740 8d90 2e40 0c08 5541
00000040: 0e93 2141 005e 8c41 1be5 24c1 e539 01c1

weight f4 [20, 20]
-1.1947272 -4.34226 -1.6939676 -4.6833816 2.0181227 -3.0146532 4.1650295 -1.1365613
5.2217507 -5.1012774 -2.5921729 -4.3116145 4.233829 4.7601004 0.84425575 -2.2700386
5.531263 4.8166323 -4.497389 0.9975833 1.0022677 0.67957777 1.0898747 1.214473
-0.86373085 1.4274433 0.16705811 2.369853 -1.195367 2.35525 -0.6284292 1.8073148
-2.0459976 -1.3521379 2.5244617 -1.8643979 -0.5634291 -0.95218337 2.7285511 1.7989136
3.7649739 -16.639465 16.671175 -19.46583 29.65164 -1.1894112 16.74969 9.730991
22.218493 -11.034159 -25.677935 -13.816809 11.479216 11.129688 23.216328 -43.75724
13.110254 11.913972 -7.3761115 6.737557 0.78246796 1.9347923 -2.4637272 2.888204
-6.478773 -0.209212 -2.65568 -0.030693192 -3.253569 2.7982516 4.264981 1.693285
-1.274587 -3.5903575 -3.2160077 7.6890545 -2.4574208 -0.711084 2.1750693 -1.1446308
0.5211175 -5.550468 -1.1455992 -4.8559775 -3.2845962 -2.7044818 1.8568212 1.1901317
4.213006 -3.5822427 -2.2167685 -4.7144427 6.041533 -1.7478791 2.0606015 -2.9930375
4.3867407 5.969661 -3.915817 3.3150613 -0.8704167 4.3278017 -6.2558894 3.7035015
-5.464821 -1.404713 -3.9089806 -5.6655283 -3.9626489 0.8869098 7.439439 2.0093122
-2.6814487 0.3716456 -11.52616 16.071371 -2.9319494 -3.0644383 -0.44684657 -5.301628
0.7637917 -1.642049 1.4456819 -1.0981688 -0.81368244 -0.36923406 1.3985447 1.5326612
0.6469858 -0.4913069 -1.521087 -1.9294243 2.422421 -1.2824574 2.8361485 -3.0944593
2.0534933 2.5335402 -0.50018185 1.492929 0.28208426 8.78031 5.3921585 11.547677
-2.1282015 4.905925 -3.9427922 -0.43896776 -11.440792 7.4978657 8.955552 8.0104475
-7.784274 -2.505021 -2.0468926 6.07381 -7.9578986 -8.128243 6.9776335 -2.3538332
0.7372954 5.4593315 3.6159713 2.3427742 5.132508 9.357194 -5.5190783 13.182617
-1.1648861 9.82828 -12.317825 8.777373 -11.206175 -8.393428 16.740736 -24.613276
-8.462695 -11.7837715 12.524314 7.079357 0.31665936 0.9573709 1.1237043 0.6940877
1.4896647 0.7811813 -0.34771997 -0.06735701 -0.84072304 0.9264302 -0.008339729 0.59130466
-1.1790152 0.6787361 0.5151987 -0.67370814 -1.1260957 -1.4208546 0.598161 -0.61300606
-2.1632662 1.9926351 -3.1370957 1.4243814 -5.4783278 0.082363226 -3.6041563 -1.5155041
-1.2672555 0.7418867 2.3727105 0.6417602 -0.39345303 -2.121236 -2.7701569 4.939564
-1.7882947 -1.5031945 -0.37123653 0.20268148 0.8982937 -2.0239685 -1.0573131 -1.688848
-3.195167 -1.4585316 1.306522 0.053426232 0.9486857 -0.9505251 0.37714404 -1.3376161
2.0400987 -1.0233533 0.063642986 2.1389675 2.3546915 2.9294531 -1.0065937 1.4520855
1.1146703 -2.7190654 -0.4358229 -1.4084154 -4.286861 -2.4453928 1.4336157 -0.5517157
1.0203669 -1.3142463 1.4075608 -2.3751855 3.5070686 -1.6951706 -0.34379855 3.085596
00000000: d2ec 98bf cbf3 8ac0 eed3 d8bf 43de 95c0
00000010: ec28 0140 14f0 40c0 ec47 8540 d77a 91bf
00000020: 9518 a740 aa3d a3c0 29e6 25c0 bff8 89c0
00000030: 877b 8740 be52 9840 2521 583f 5048 11c0
00000040: 1b00 b140 da21 9a40 9cea 8fc0 9f61 7f3f
00000050: 4f4a 803f cff8 2d3f 0481 8b3f da73 9b3f
00000060: 771d 5dbf 76b6 b63f 4811 2b3e acab 1740
00000070: c901 99bf 6abc 1640 bce0 20bf 1756 e73f
00000080: a0f1 02c0 db12 adbf c890 2140 97a4 eebf
00000090: e43c 10bf 4ac2 73bf 95a0 2e40 cd42 e63f
000000a0: 55f5 7040 a01d 85c1 915e 8541 05ba 9bc1
000000b0: 8f36 ed41 a03e 98bf 5dff 8541 24b2 1b41
000000c0: 79bf b141 ea8b 30c1 696c cdc1 a611 5dc1
000000d0: deaa 3741 3413 3241 0abb b941 6a07 2fc2
000000e0: 9ac3 5141 a19f 3e41 1b09 ecc0 119a d740
000000f0: d24f 483f 46a7 f73f b5ad 1dc0 56d8 3840
00000100: 1c52 cfc0 ac3b 56be a9f6 29c0 4a70 fbbc
00000110: 793a 50c0 8e16 3340 b97a 8840 90bd d83f
00000120: ab25 a3bf 6bc8 65c0 12d3 4dc0 bc0c f640
00000130: 6246 1dc0 9a09 36bf 5634 0b40 4383 92bf
00000140: f567 053f 6f9d b1c0 ffa2 92bf 2b64 9bc0
00000150: d336 52c0 3b16 2dc0 51ac ed3f 3c56 983f
00000160: f2d0 8640 7743 65c0 89df 0dc0 b7dc 96c0
00000170: 3d54 c140 81ba dfbf e5e0 0340 ed8d 3fc0
00000180: 2e60 8c40 7707 bf40 bf9c 7ac0 f729 5440
00000190: a1d3 5ebf 5a7d 8a40 3f30 c8c0 2b06 6d40
000001a0: d0df aec0 a3cd b3bf bd2c 7ac0 024c b5c0
000001b0: 0a9c 7dc0 850c 633f e20f ee40 9298 0040
000001c0: db9c 2bc0 5548 be3e 276b 38c1 2b92 8041
000001d0: 0fa5 3bc0 c21f 44c0 13c9 e4be f0a6 a9c0
000001e0: da87 433f a92e d2bf 1b0c b93f cc90 8cbf
000001f0: 7e4d 50bf 3f0c bdbe 8303 b33f 3e2e c43f
00000200: dda0 253f 948c fbbe fbb2 c2bf 60f7 f6bf
00000210: f208 1b40 9027 a4bf 7583 3540 9f0b 46c0
00000220: 6f6c 0340 8625 2240 eb0b 00bf 4c18 bf3f
00000230: 596d 903e 267c 0c41 908c ac40 49c3 3841
00000240: 7434 08c0 56fd 9c40 b556 7cc0 62c0 e0be
00000250: 7c0d 37c1 84ee ef40 f149 0f41 cb2a 0041
00000260: c618 f9c0 4452 20c0 4a00 03c0 a75c c240
00000270: 1ba7 fec0 490d 02c1 c648 df40 34a5 16c0
00000280: 64bf 3c3f d8b2 ae40 136c 6740 03f0 1540
00000290: 813d a440 11b7 1541 4a9c b0c0 00ec 5241
000002a0: fd1a 95bf a340 1d41 d015 45c1 1f70 0c41
000002b0: 7e4c 33c1 7b4b 06c1 07ed 8541 fde7 c4c1
000002c0: 3367 07c1 548a 3cc1 9763 4841 188a e240
000002d0: 2d21 a23e 4216 753f 8bd5 8f3f bbaf 313f
000002e0: 55ad be3f 7ffb 473f 5a08 b2be 79f2 89bd
000002f0: a039 57bf 882a 6d3f 5ca3 08bc be5f 173f
00000300: f8e9 96bf a6c1 2d3f 10e4 033f 2378 2cbf
00000310: e723 90bf 90de b5bf 1421 193f f7ed 1cbf
00000320: f472 0ac0 ab0e ff3f 2dc6 48c0 2152 b63f
00000330: 764e afc0 0dae a83d 7faa 66c0 0afc c1bf
00000340: 6e35 a2bf 49ec 3d3f 7dda 1740 654a 243f
00000350: ad72 c9be 55c2 07c0 404a 31c0 e910 9e40
00000360: d7e6 e4bf ad68 c0bf b712 bebe bc8b 4f3e
00000370: 93f6 653f b388 01c0 0956 87bf 2c2c d8bf
00000380: 9e7d 4cc0 2ab1 babf 1d3c a73f 77d5 5a3d
00000390: 11dd 723f 9d55 73bf 0619 c13e 0137 abbf
000003a0: fa90 0240 3efd 82bf 4157 823d d8e4 0840
000003b0: 44b3 1640 297c 3b40 10d8 80bf f0dd b93f
000003c0: 84ad 8e3f 2b05 2ec0 2e24 dfbe f546 b4bf
000003d0: f72d 89c0 5181 1cc0 b880 b73f 3d3d 0dbf
000003e0: 629b 823f 3939 a8bf f42a b43f 0a03 18c0
000003f0: d073 6040 5afb d8bf 5d06 b0be 687a 4540

bias f4 [20]
8.173564 5.0623074 14.70328 0.033619706 9.281139 -11.061373 6.2340627 -5.89906
-12.494473 -1.7457768 -6.418685 8.357798 9.4927 3.0870225 -1.4962445 14.67743
5.6600657 -8.855741 -8.068035 13.636822
00000000: ebc6 0241 6cfe a140 a340 6b41 d1b4 093d
00000010: 8c7f 1441 62fb 30c1 717d c740 19c5 bcc0
00000020: 5de9 47c1 9d75 dfbf de65 cdc0 8ab9 0541
00000030: 19e2 1741 c791 4540 f184 bfbf c1d6 6a41
00000040: 421f b540 1db1 0dc1 ac16 01c1 6c30 5a41

weight f4 [20, 20]
-13.457944 -12.453688 26.35357 -15.726059 -16.803856 6.8147755 -5.530319 -30.838129
-2.716587 19.216051 23.259985 -12.595496 -16.160809 -16.501974 -15.727461 -14.812802
-1.133408 -2.1854851 10.72766 -9.315758 29.884424 29.352594 17.53302 19.391403
26.864334 -23.043291 22.075144 -46.69774 33.411884 -18.615803 34.93567 25.042307
21.0065 -4.1417756 -20.62932 -46.18764 -42.240368 38.55497 -29.290203 28.783772
10.389536 12.29484 17.175957 7.2484994 10.557708 -10.332448 9.153191 -27.456732
13.95925 -5.9669867 20.624552 10.09224 8.106687 -4.850192 -15.833174 -18.44079
-17.733156 14.071698 -12.366579 11.648615 -0.8633961 0.56435114 2.4354744 0.528985
-0.24354692 -1.0174962 1.407944 -0.010760955 -0.66931754 -0.1943213 -0.3505287 0.6345782
0.4686303 -0.81899863 0.009366284 -2.2942286 1.0014278 0.6414818 -0.82060796 1.5005678
1.8914069 3.90809 9.691252 -1.088033 -1.1569682 -4.923735 7.115161 -32.880573
11.535489 3.501925 24.048658 2.332231 -2.545592 -8.431957 -12.679639 -33.72776
-17.367685 17.646523 -5.79179 8.465517 -0.8900731 -0.16044551 -1.4185601 -0.62789667
0.5860163 0.306432 -1.02562 -0.42939243 1.0555708 0.09004948 0.5227598 -0.76019573
-0.27465534 0.3062125 -0.5032467 0.06384617 -1.9820286 0.7865937 0.44089776 -0.8796814
4.6916533 -1.6572174 -12.44037 -0.9588046 -0.9386171 2.9087937 -3.6540444 -0.6201007
-1.905971 0.28763202 -1.5353224 -2.185076 0.21612273 5.490442 3.6005056 8.435831
2.652732 -3.6276395 2.3466818 -3.1751237 -9.911949 -10.005167 20.907694 -14.11533
-15.458377 4.8255987 -2.8765488 -39.00947 -1.5791636 17.103342 26.671581 -10.684418
-14.688242 -12.866259 -21.400429 -20.047834 -3.4908438 1.3163661 8.015657 -4.9519725
-1.4624628 -8.316591 -16.347738 -2.5121467 -8.155353 6.9935546 -5.2582603 19.280302
-11.860314 2.4397695 -15.829936 -6.656545 -5.3897386 6.233143 13.546014 15.531549
18.021933 -13.263423 7.1746864 -5.761641 -3.966773 -3.6385796 30.345749 -9.142756
-8.26239 0.53982365 -0.09264598 -39.272575 2.0768669 11.315589 27.119923 -4.747107
-9.449903 -12.160888 -26.314941 -18.467875 -6.231498 3.5977206 2.5661876 -0.6107546
-16.963848 -14.907596 -9.232327 -10.142411 -13.522038 12.092959 -11.682909 22.079378
-14.208243 9.720474 -14.776495 -13.108242 -11.817409 0.70707524 10.651535 18.69927
16.7411 -16.120596 15.215118 -15.154511 3.0500765 0.99944675 -4.672947 1.5802612
0.15915807 -0.64170945 1.071611 2.943776 -0.116311826 -1.768853 -2.5509605 1.1690713
1.624841 2.504708 2.2213922 -0.9650741 0.6949698 0.9382207 -1.1519525 1.6223022
-7.206624 -6.3802047 2.3046076 -7.374709 -6.9519167 4.1552687 -4.44642 -1.7688538
-1.048242 7.5422883 2.867252 -6.4378824 -6.166531 -3.1905358 -0.08133227 -2.4529128
00000000: bd53 57c1 4e42 47c1 1dd4 d241 f09d 7bc1
00000010: 4c6e 86c1 a412 da40 60f8 b0c0 7db4 f6c1
00000020: 90dc 2dc0 79ba 9941 7314 ba41 2787 49c1
00000030: 5649 81c1 0b04 84c1 aea3 7bc1 3d01 6dc1
00000040: 8313 91bf fdde 0bc0 7fa4 2b41 580d 15c1
00000050: 4d13 ef41 1dd2 ea41 a043 8c41 9821 9b41
00000060: 28ea d641 a958 b8c1 e599 b041 7cca 3ac2
00000070: c5a5 0542 2aed 94c1 20be 0b42 a556 c841
00000080: 500d a841 6d89 84c0 d908 a5c1 25c0 38c2
00000090: 23f6 28c2 4a38 1a42 5652 eac1 2a45 e641
000000a0: 8a3b 2641 aab7 4441 5c68 8941 b5f3 e740
000000b0: 5fec 2841 b551 25c1 7873 1241 63a7 dbc1
000000c0: 1759 5f41 8ef1 bec0 15ff a441 d179 2141
000000d0: fdb4 0141 c634 9bc0 ae54 7dc1 bd86 93c1
000000e0: 81dd 8dc1 ad25 6141 82dd 45c1 ba60 3a41
000000f0: 8707 5dbf 5179 103f d0de 1b40 906b 073f
00000100: 5d64 79be 513d 82bf 8237 b43f b74e 30bc
00000110: 6558 2bbf 2afc 46be 7f78 b3be b873 223f
00000120: 50f0 ef3e e5a9 51bf 0b75 193c a4d4 12c0
00000130: c92e 803f 2738 243f 5d13 52bf 9b12 c03f
00000140: 9f19 f23f 261e 7a40 5e0f 1b41 aa44 8bbf
00000150: 8917 94bf 3d8f 9dc0 66af e340 b585 03c2
00000160: 5d91 3841 8a1f 6040 a763 c041 4643 1540
00000170: fbea 22c0 4ce9 06c1 cddf 4ac1 3ae9 06c2
00000180: 05f1 8ac1 142c 8d41 5856 b9c0 c272 0741
00000190: d5db 63bf d44b 24be 6193 b5bf d6bd 20bf
000001a0: 2a05 163f a8e4 9c3e 8447 83bf 53d9 dbbe
000001b0: f21c 873f dd6b b83d 96d3 053f 309c 42bf
000001c0: a09f 8cbe e3c7 9c3e c7d4 00bf c8c1 823d
000001d0: 1db3 fdbf 345e 493f 5abd e13e cd32 61bf
000001e0: 0622 9640 b31f d4bf c10b 47c1 3874 75bf
000001f0: 3649 70bf ad29 3a40 dddb 69c0 ebbe 1ebf
00000200: dcf6 f3bf 8144 933e 7285 c4bf 49d8 0bc0
00000210: 474f 5d3e b3b1 af40 af6e 6640 2af9 0641
00000220: 5cc6 2940 3f2b 68c0 0930 1640 3a35 4bc0
00000230: 5897 1ec1 2a15 20c1 f542 a741 64d8 61c1
00000240: 8355 77c1 4e6b 9a40 6019 38c0 b309 1cc2
00000250: 0822 cabf a5d3 8841 665f d541 60f3 2ac1
00000260: 0a03 6bc1 32dc 4dc1 1434 abc1 f761 a0c1
00000270: fc69 5fc0 af7e a83f 2240 0041 8f76 9ec0
00000280: fb31 bbbf c210 05c1 2bc8 82c1 03c7 20c0
00000290: 537c 02c1 33cb df40 ab43 a8c0 0f3e 9a41
000002a0: d9c3 3dc1 2f25 1c40 6b47 7dc1 6b02 d5c0
000002b0: bd78 acc0 e875 c740 79bc 5841 3a81 7841
000002c0: eb2c 9041 fb36 54c1 0897 e540 5d5f b8c0
000002d0: 9cdf 7dc0 7dde 68c0 18c4 f241 bb48 12c1
000002e0: c032 04c1 e231 0a3f 2dbd bdbd 1e17 1dc2
000002f0: 63eb 0440 a70c 3541 9af5 d841 4de8 97c0
00000300: cd32 17c1 ff92 42c1 0085 d2c1 35be 93c1
00000310: 6e68 c7c0 0e41 6640 6b3c 2440 6a5a 1cbf
00000320: f6b5 87c1 8385 6ec1 9db7 13c1 5147 22c1
00000330: 455a 58c1 c37c 4141 32ed 3ac1 91a2 b041
00000340: f754 63c1 1087 1b41 866c 6cc1 5cbb 51c1
00000350: 1b14 3dc1 e202 353f b06c 2a41 1b98 9541
00000360: c6ed 8541 fbf6 80c1 2071 7341 e178 72c1
00000370: 7434 4340 bedb 7f3f c888 95c0 0046 ca3f
00000380: 55fa 223e 1247 24bf 8d2a 893f d366 3c40
00000390: e534 eebd c669 e2bf f042 23c0 21a4 953f
000003a0: cafa cf3f 234d 2040 4a2b 0e40 190f 77bf
000003b0: 8ae9 313f 3b2f 703f 2e73 93bf 99a7 cf3f
000003c0: aa9c e6c0 a32a ccc0 b17e 1340 9efd ebc0
000003d0: 1a76 dec0 f6f7 8440 1349 8ec0 cd69 e2bf
000003e0: cb2c 86bf 6d5a f140 0f81 3740 2203 cec0
000003f0: 3954 c5c0 bd31 4cc0 8891 a6bd 86fc 1cc0

bias f4 [20]
-8.022853 20.987791 8.319878 5.3716965 6.052443 -5.5064263 -4.2202954 -5.6711736
1.4424093 -0.81166726 -15.302749 4.204856 -9.664484 -3.3611252 -5.3312798 -11.789147
10.875196 1.0601989 -5.26501 -11.698782
00000000: 9b5d 00c1 ffe6 a741 381e 0541 f0e4 ab40
00000010: 9dad c140 a534 b0c0 a90c 87c0 417a b5c0
00000020: dea0 b83f 6dc9 4fbf 0fd8 74c1 2e8e 8640
00000030: baa1 1ac1 ad1c 57c0 d899 aac0 59a0 3cc1
00000040: ce00 2e41 99b4 873f f67a a8c0 362e 3bc1

weight f4 [20, 20]
-7.7197824 9.161621 -6.9354877 -12.101114 -1.3032799 6.4144783 12.557692 1.0174359
9.654415 -1.9211602 11.123251 9.318694 10.529859 -7.4437437 9.990994 9.48185
-12.727976 -15.5139 11.057935 8.508727 0.82305837 7.333961 -9.765602 -0.14740276
6.2411146 -3.7481332 6.0038724 9.646693 3.4342585 5.06547 1.4849824 8.576387
-0.06162414 3.1470864 3.2099833 -1.9049566 -0.3026944 -1.3412629 -2.0081167 -3.7431326
1.7363672 -2.8772068 2.8217108 1.2931671 1.6741897 1.6730183 -4.6217685 -0.10880453
-2.357201 1.8656505 -1.3523777 -4.263049 -1.1532867 -0.01851535 -2.0008714 1.067752
1.682747 3.6752243 0.6037394 2.9215066 -3.7826693 -32.94408 -4.2850547 1.676897
-17.010212 7.34522 3.1129081 -14.64294 0.71190226 -7.0705285 -12.411596 10.938658
-0.44158727 -7.4131217 -2.0881188 2.3223965 1.3998528 2.6288142 0.9858852 1.9360628
-25.468489 -78.40193 -26.232412 -10.387447 -25.271051 29.975899 32.280273 -30.526764
14.8560505 -31.065859 -9.398076 51.865967 12.493535 -25.15087 8.564605 18.160915
-12.272285 -9.351284 13.718155 15.260339 13.420791 -26.999695 16.60326 26.178593
-14.675639 -18.63107 -19.026762 -8.804966 -19.573961 3.746025 -27.615074 -9.754615
-23.68379 12.875999 -20.982067 -24.628069 26.832533 26.754202 -24.960604 -24.386253
214.54831 -302.56595 218.74924 -219.67636 -279.8566 229.68819 242.75725 187.93634
-226.86708 205.049 201.73306 -208.69203 219.32631 209.82149 217.92818 224.15607
-221.08334 -219.61725 220.19218 219.44978 -9.639281 22.448795 -15.80368 -22.969358
7.7351027 12.369629 19.490398 11.627283 16.224522 3.9904692 24.23717 11.388858
19.87951 -10.457717 19.570066 21.199236 -24.041824 -23.705273 21.20579 20.726278
-47.997257 -51.150333 -10.167568 -41.46033 -71.07368 41.81952 55.466774 -60.55968
28.0577 -50.667892 15.84061 47.505547 39.177402 -46.410454 32.29911 44.72565
-44.136925 -43.299637 40.607372 39.28487 12.738058 0.3808367 -7.2311697 15.681889
14.60736 -9.911485 -13.896127 13.777397 -2.4323113 10.687456 -11.639345 0.48435852
-13.104733 11.855031 -8.387587 -14.103993 16.092571 16.46082 -12.943283 -11.363843
-11.412656 3.4691894 3.9562743 -3.525325 -12.689733 7.847234 1.0826399 -19.677927
8.758852 -21.33001 3.9332206 5.411189 5.006489 -8.306071 3.6591785 3.604132
-3.2891705 -2.9939032 5.500884 7.953314 1.2244778 -0.17344593 1.4829519 0.7140701
2.3776038 1.0506335 -2.7693105 0.5052265 -1.3582478 3.2916696 -0.70729196 -0.78697324
-0.06997344 -0.32914138 -1.2247751 1.4369903 0.866013 2.3814712 0.7420894 1.1830508
52.770004 26.49328 14.559329 53.375668 63.859337 -48.80196 -58.768333 56.758343
-36.8143 52.145588 -31.004374 -49.51486 -49.41306 51.38851 -42.093246 -54.413406
00000000: 7508 f7c0 0096 1241 84ef ddc0 2a9e 41c1
00000010: e0d1 a6bf 6843 cd40 4eec 4841 573b 823f
00000020: 7c78 1a41 94e8 f5bf d6f8 3141 5f19 1541
00000030: 4d7a 2841 2633 eec0 1ddb 1f41 a8b5 1741
00000040: caa5 4bc1 ef38 78c1 4ded 3041 bf23 0841
00000050: f4b3 523f cfaf ea40 e83f 1cc1 c0f0 16be
00000060: 36b7 c740 6ae1 6fc0 b91f c040 db58 1a41
00000070: e4ca 5b40 5518 a240 e713 be3f e238 0941
00000080: 9869 7cbd dd69 4940 5e70 4d40 9ed5 f3bf
00000090: c3fa 9abe 81ae abbf fc84 00c0 7c8f 6fc0
000000a0: 4841 de3f 2824 38c0 e996 3440 8086 a53f
000000b0: d94b d63f 7725 d63f 87e5 93c0 e9d4 debd
000000c0: 62dc 16c0 a3cd ee3f b61a adbf e66a 88c0
000000d0: e69e 93bf 81ad 97bc 470e 00c0 19ac 883f
000000e0: 4164 d73f e036 6b40 aa8e 1a3f f7f9 3a40
000000f0: 4117 72c0 bdc6 03c2 2b1f 89c0 90a4 d63f
00000100: ea14 88c1 0b0c eb40 e339 4740 7b49 6ac1
00000110: 3a3f 363f c541 e2c0 e695 46c1 be04 2f41
00000120: ba17 e2be 4b38 edc0 bda3 05c0 25a2 1440
00000130: 602e b33f 7e3e 2840 f962 7c3f e8d0 f73f
00000140: 77bf cbc1 cacd 9cc2 fbdb d1c1 fc32 26c1
00000150: 1d2b cac1 a4ce ef41 001f 0142 d036 f4c1
00000160: 62b2 6d41 e186 f8c1 855e 16c1 c076 4f42
00000170: 85e5 4741 fb34 c9c1 9f08 0941 8e49 9141
00000180: 485b 44c1 dc9e 15c1 907d 5b41 592a 7441
00000190: 8fbb 5641 60ff d7c1 7ad3 8441 c26d d141
000001a0: 6bcf 6ac1 6e0c 95c1 cf36 98c1 24e1 0cc1
000001b0: 7997 9cc1 e0be 6f40 aceb dcc1 e712 1cc1
000001c0: 6778 bdc1 1804 4e41 46db a7c1 4906 c5c1
000001d0: 07a9 d641 9b08 d641 51af c7c1 0c17 c3c1
000001e0: 5e8c 5643 7148 97c3 cebf 5a43 26ad 5bc3
000001f0: a5ed 8bc3 2db0 6543 dbc1 7243 b4ef 3b43
00000200: f9dd 62c3 8b0c 4d43 aabb 4943 29b1 50c3
00000210: 8953 5b43 4dd2 5143 9ded 5943 f427 6043
00000220: 5615 5dc3 049e 5bc3 3331 5c43 2573 5b43
00000230: 7f3a 1ac1 2297 b341 e0db 7cc1 3fc1 b7c1
00000240: f685 f740 00ea 4541 56ec 9b41 5a09 3a41
00000250: d2cb 8141 d963 7f40 b9e5 c141 c338 3641
00000260: 3d09 9f41 cf52 27c1 7f8f 9c41 0998 a941
00000270: a855 c0c1 66a4 bdc1 75a5 a941 6bcf a541
00000280: 31fd 3fc2 f199 4cc2 5cae 22c1 61d7 25c2
00000290: b925 8ec2 3047 2742 fadd 5d42 1d3d 72c2
000002a0: 2b76 e041 ecab 4ac2 2373 7d41 ae05 3e42
000002b0: a9b5 1c42 4ea4 39c2 4a32 0142 11e7 3242
000002c0: 368c 30c2 d432 2dc2 f36d 2242 b523 1d42
000002d0: 16cf 4b41 07fd c23e be65 e7c0 04e9 7a41
000002e0: bfb7 6941 7195 1ec1 8956 5ec1 3870 5c41
000002f0: fdaa 1bc0 d2ff 2a41 c23a 3ac1 d7fd f73e
00000300: fdac 51c1 35ae 3d41 8e33 06c1 f5a9 61c1
00000310: 96bd 8041 c2af 8341 b017 4fc1 4dd2 35c1
00000320: 3d9a 36c1 3307 5e40 9933 7d40 ed9e 61c0
00000330: 2509 4bc1 8a1c fb40 f293 8a3f 656c 9dc1
00000340: 4224 0c41 dca3 aac1 e3b9 7b40 7628 ad40
00000350: 2835 a040 abe5 04c1 fb2f 6a40 19aa 6640
00000360: c581 52c0 1c9c 3fc0 3e07 b040 8c81 fe40
00000370: b0bb 9c3f cf9b 31be 5ed1 bd3f 4ccd 363f
00000380: a92a 1840 297b 863f 623c 31c0 8656 013f
00000390: 10db adbf b7aa 5240 1611 35bf 1477 49bf
000003a0: 3c4e 8fbd 3885 a8be 6ec5 9cbf 4cef b73f
000003b0: 07b3 5d3f 066a 1840 92f9 3d3f 356e 973f
000003c0: 7c14 5342 3df2 d341 03f3 6841 af80 5542
000003d0: f66f 7f42 3535 43c2 c612 6bc2 8b08 6342
000003e0: d841 13c2 1595 5042 f508 f8c1 370f 46c2
000003f0: f9a6 45c2 d68d 4d42 7c5f 28c2 54a7 59c2

bias f4 [20]
-0.11661571 7.9813647 -9.202209 -3.9024808 -10.074464 29.104753 -214.44966 -23.188643
-35.47816 8.447096 -2.910716 -8.711319 50.729042 -25.97602 17.3302 -12.940961
-1.202605 -13.867821 9.974568 -7.6338925
00000000: 38d4 eebd 5767 ff40 403c 13c1 3fc2 79c0
00000010: 0131 21c1 89d6 e841 1d73 56c3 5782 b9c1
00000020: a3e9 0dc2 4e27 0741 2c49 3ac0 9061 0bc1
00000030: 8aea 4a42 e4ce cfc1 40a4 8a41 2d0e 4fc1
00000040: f6ee 99bf 98e2 5dc1 d597 1f41 d948 f4c0

weight f4 [20, 20]
-6.3302574 -9.441473 4.8446965 7.6124325 24.397066 21.941225 13.720301 -16.888369
-16.951998 -14.316798 -11.630685 4.9311194 9.201654 17.555857 10.700421 6.8234754
8.408428 -5.321839 -7.0732694 -8.938817 54.696182 59.07045 -59.135998 -52.999916
-63.207752 -64.32398 3.7146335 57.377144 121.90085 54.891323 44.801792 -60.644478
-121.343 -42.065002 -70.72088 -28.54534 -57.186527 58.28541 60.847324 59.07172
34.753433 37.33098 -35.43105 -30.361969 -45.543846 -46.449604 -25.884766 39.629616
-3.032768 37.724503 34.055943 -35.561935 1.1515404 -34.956104 -39.976913 -31.047415
-37.08276 36.672604 38.69494 38.52581 95.39555 100.87078 -98.4565 -77.82877
-144.95898 -130.88274 -101.70074 102.12508 -74.3775 107.334755 106.79611 -95.60141
56.010452 -112.180916 -109.0965 -88.4467 -94.524315 94.89374 94.83076 95.323135
44.657383 43.39075 -45.918797 -46.75419 5.113985 -8.878793 77.45752 29.86604
192.24889 56.73582 51.216763 -52.926487 -190.3402 -57.467915 -38.22587 -11.936956
-45.445393 51.395325 53.59312 47.6882 -68.06027 -71.50266 70.94208 58.356506
66.13152 65.956 30.30055 -63.196968 5.7287517 -67.09137 -56.41462 71.594574
3.2482805 60.224033 66.01337 57.990154 69.22715 -70.68569 -72.70389 -70.37852
14.959791 11.340705 -13.545559 -10.025885 27.487978 13.104858 -13.193746 3.6432233
4.412576 35.47676 32.21324 -16.224539 -0.48411658 -52.546562 7.9258304 -1.471284
-12.286753 15.586998 16.140285 12.548837 19.671896 19.357355 -21.02047 -16.51964
-26.44563 -28.931671 -4.325077 19.826645 24.420164 20.72435 20.53587 -21.444706
-25.981325 -19.682533 -30.278524 -12.142415 -18.366758 19.464579 18.360327 18.557894
25.970589 26.845568 -28.220192 -29.287613 -5.1352363 -14.077557 40.53525 19.0142
109.06097 52.617252 47.550133 -30.821678 -101.887596 -65.49124 -18.510918 -7.957361
-26.536917 29.13188 32.139057 28.426512 50.55239 52.63814 -55.639427 -48.26498
-24.050653 -33.574043 62.706608 45.55307 183.02261 30.343267 16.600103 -59.115948
-180.0495 -5.743742 -62.427757 -17.72286 -53.14773 56.16311 59.100132 55.05997
30.66279 33.068783 -28.531713 -31.266846 43.524567 19.574078 27.12674 19.093672
93.83244 46.439854 19.543436 -33.229385 -93.53636 -49.580677 -1.0779843 -14.216679
-35.345776 31.071743 41.102898 35.952766 -9.204277 -15.368759 12.107538 8.431282
26.489521 25.875633 17.468605 -17.633541 2.821508 -18.120005 -13.158294 11.597203
-7.0595074 20.119148 18.070633 14.072523 10.675358 -8.384607 -11.989769 -10.745432
-9.850853 -6.348997 11.83097 5.277297 1.6177129 0.7207242 -6.6462326 -0.77017015
3.3832326 0.27092558 -4.992882 11.715072 6.9646444 -5.5568013 11.46033 3.4092207
00000000: 7891 cac0 4610 17c1 c107 9b40 0c99 f340
00000010: 312d c341 a187 af41 5a86 5b41 611b 87c1
00000020: b19d 87c1 9b11 65c1 4917 3ac1 bbcb 9d40
00000030: fa39 1341 6572 8c41 ed34 2b41 e959 da40
00000040: ec88 0641 814c aac0 3958 e2c0 6505 0fc1
00000050: e4c8 5a42 2448 6c42 438b 6cc2 eaff 53c2
00000060: bdd4 7cc2 e1a5 80c2 8ebc 6d40 3282 6542
00000070: 3ccd f342 b790 5b42 0935 3342 f293 72c2
00000080: 9eaf f2c2 9042 28c2 1771 8dc2 db5c e4c1
00000090: 01bf 64c2 4324 6942 a963 7342 7149 6c42
000000a0: 8403 0b42 ec52 1542 65b9 0dc2 50e5 f2c1
000000b0: e62c 36c2 65cc 39c2 0014 cfc1 ba84 1e42
000000c0: df18 42c0 e4e5 1642 4939 0842 6c3f 0ec2
000000d0: ad65 933f 0dd3 0bc2 5ce8 1fc2 1b61 f8c1
000000e0: bf54 14c2 bfb0 1242 9ec7 1a42 6e1a 1a42
000000f0: 86ca be42 d7bd c942 bae9 c4c2 55a8 9bc2
00000100: 80f5 10c3 fbe1 02c3 c766 cbc2 0a40 cc42
00000110: 48c1 94c2 65ab d642 9c97 d542 ec33 bfc2
00000120: b40a 6042 a15c e0c2 6831 dac2 b6e4 b0c2
00000130: 730c bdc2 98c9 bd42 59a9 bd42 72a5 be42
00000140: 29a1 3242 2190 2d42 d9ac 37c2 4a04 3bc2
00000150: c4a5 a340 890f 0ec1 40ea 9a42 a6ed ee41
00000160: b73f 4043 7bf1 6242 f7dd 4c42 b9b4 53c2
00000170: 1757 3ec3 25df 65c2 4ae7 18c2 c6fd 3ec1
00000180: 15c8 35c2 d094 4d42 5b5f 5642 b8c0 3e42
00000190: dc1e 88c2 5d01 8fc2 58e2 8d42 106d 6942
000001a0: 5743 8442 79e9 8342 8767 f241 b2c9 7cc2
000001b0: ef51 b740 c82e 86c2 92a8 61c2 6c30 8f42
000001c0: d4e3 4f40 69e5 7042 d806 8442 ebf5 6742
000001d0: 4d74 8a42 135f 8dc2 6468 91c2 cdc1 8cc2
000001e0: 4e5b 6f41 8773 3541 9cba 58c1 066a 20c1
000001f0: 61e7 db41 80ad 5141 9519 53c1 922a 6940
00000200: d333 8d40 34e8 0d42 5cda 0042 dbcb 81c1
00000210: 21de f7be ae2f 52c2 67a0 fd40 0953 bcbf
00000220: 8a96 44c1 5864 7941 4e1f 8141 09c8 4841
00000230: 0b60 9d41 dddb 9a41 ec29 a8c1 3928 84c1
00000240: a690 d3c1 1074 e7c1 0867 8ac0 f89c 9e41
00000250: 7f5c c341 78cb a541 7649 a441 c28e abc1
00000260: c1d9 cfc1 d475 9dc1 6b3a f2c1 5547 42c1
00000270: 1fef 92c1 75b7 9b41 f3e1 9241 9176 9441
00000280: c4c3 cf41 b9c3 d641 f4c2 e1c1 084d eac1
00000290: db53 a4c0 ac3d 61c1 1924 2242 151d 9841
000002a0: 371f da42 1178 5242 5633 3e42 cc92 f6c1
000002b0: 73c6 cbc2 84fb 82c2 5c16 94c1 b4a2 fec0
000002c0: 9b4b d4c1 170e e941 658e 0042 7f69 e341
000002d0: a635 4a42 758d 5242 c68e 5ec2 570f 41c2
000002e0: bd67 c0c1 d24b 06c2 91d3 7a42 5836 3642
000002f0: ca05 3743 03bf f241 03cd 8441 bb76 6cc2
00000300: ac0c 34c3 bccc b7c0 06b6 79c2 6bc8 8dc1
00000310: 4797 54c2 06a7 6042 8966 6c42 693d 5c42
00000320: 654d f541 6f46 0442 f340 e4c1 8022 fac1
00000330: 2819 2e42 b697 9c41 9003 d941 d7bf 9841
00000340: 36aa bb42 69c2 3942 f558 9c41 e4ea 04c2
00000350: 9e12 bbc2 9d52 46c2 64fb 89bf 8477 63c1
00000360: 1362 0dc2 ee92 f841 5e69 2442 a2cf 0f42
00000370: b844 13c1 70e6 75c1 7ab8 4141 88e6 0641
00000380: 8aea d341 4c01 cf41 b4bf 8b41 7e11 8dc1
00000390: 9693 3440 c5f5 90c1 5f88 52c1 258e 3941
000003a0: 7ce7 e1c0 04f4 a041 a890 9041 0e29 6141
000003b0: 44ce 2a41 5a27 06c1 18d6 3fc1 4aed 2bc1
000003c0: 189d 1dc1 fc2a cbc0 a74b 3d41 9edf a840
000003d0: 3711 cf3f 6281 383f f0ad d4c0 df29 45bf
000003e0: e286 5840 c2b6 8a3e b0c5 9fc0 ef70 3b41
000003f0: 5ede de40 51d1 b1c0 835d 3741 ac30 5a40

bias f4 [20]
4.210501 59.1385 26.15522 88.65279 62.850933 -70.191216 24.857876 24.333595
35.70707 59.605385 44.414284 -5.4939775 -16.429373 26.513105 3.9494188 20.103323
-185.0123 31.522932 16.493341 33.107285
00000000: 6dbc 8640 d38d 6c42 e43d d141 3a4e b142
00000010: 5b67 7b42 e761 8cc2 eedc c641 34ab c241
00000020: 0ad4 0e42 ea6b 6e42 3aa8 3142 aace afc0
00000030: 5b6f 83c1 d71a d441 47c3 7c40 9bd3 a041
00000040: 2603 39c3 f72e fc41 5df2 8341 dc6d 0442

weight f4 [20, 20]
148.90848 -108.95773 -149.40689 -176.03929 -28.951195 372.4825 22.702595 -101.06427
-78.35245 -96.239006 175.22452 132.8253 -148.23584 63.284416 -153.30386 148.94879
419.24106 -122.277016 -66.14148 35.94606 -11.830658 -15.470053 12.381868 -4.9544406
12.651679 136.99832 22.45576 3.732601 11.622552 -7.8182797 71.52343 -7.22217
18.285345 30.742058 9.082177 -18.126257 166.17842 -2.6411352 -0.6970918 11.723499
419.35028 -442.4221 205.69745 167.4312 -349.13565 786.9334 310.8495 -414.61572
-386.53864 -422.01645 -78.176895 -203.90407 210.0319 -258.44955 -424.56995 -210.21884
208.03941 -430.92615 -399.8969 286.0097 -94.122665 106.52992 88.90376 108.508064
36.3514 -277.87967 6.782776 89.18024 64.38909 90.23866 -133.5446 -95.61385
88.451904 -20.435844 93.73513 -89.44849 -321.9225 96.05265 78.62192 23.105577
-143.375 171.1388 137.80797 179.45235 80.310905 -515.5851 41.824253 140.58968
124.14785 147.90039 -239.97008 -141.61798 133.45944 -17.953445 147.38414 -133.53746
-610.47577 157.36823 153.92389 81.04781 126.052986 -140.72113 -120.181946 -154.75069
-59.47179 433.82297 -6.8265624 -119.89498 -98.62647 -123.19021 211.68158 123.825386
-117.27496 40.850353 -129.25255 117.717804 505.39258 -133.0379 -116.681366 -28.765703
-29.607187 57.332367 29.904476 54.651924 23.283808 -209.44565 2.806435 38.46097
29.949493 47.25227 -96.84897 -33.89741 25.284096 -15.9168625 34.122215 -25.918793
-274.35663 45.79674 38.16796 20.444242 18.247253 -45.78207 -17.456684 -34.26218
1.3565636 160.99821 14.5593405 -28.621258 -5.5817146 -37.619507 98.27886 24.063046
-13.921933 32.324722 -20.197773 13.738738 189.74387 -31.877384 -10.9646635 -4.073891
132.36084 -156.01727 -126.64123 -149.36026 -53.948223 368.1707 -16.459013 -125.25198
-96.2119 -133.10492 161.67178 131.46265 -125.972176 16.675894 -133.15735 127.40247
416.17255 -136.41261 -107.10725 -27.51464 159.62607 -128.67184 -155.8883 -189.01277
-112.411804 365.53467 -47.47647 -101.33576 -151.38445 -116.48328 112.74717 137.73543
-156.95897 -11.540413 -165.30421 157.28177 420.34756 -137.61517 -140.4529 -41.320324
154.3955 -128.75688 -149.78539 -162.84196 -39.9963 222.0638 24.598703 -121.60253
-76.018234 -122.09403 111.4068 144.68367 -153.39494 46.8381 -153.387 153.99222
268.8015 -133.52606 -71.97476 43.797405 89.63824 -109.283485 -83.811584 -99.59646
-7.1041536 316.91382 22.719152 -78.28322 -54.31279 -84.902084 179.44676 84.222084
-82.0603 49.923634 -90.38113 83.8428 332.18222 -90.35575 -62.443245 14.157211
-90.45784 89.24297 85.670815 118.65206 7.34432 -403.60126 -47.92158 74.622284
46.308704 73.04193 -208.5064 -80.44921 82.22367 -86.0154 95.78287 -80.95734
00000000: 92e8 1443 5cea d9c2 2a68 15c3 0f0a 30c3
00000010: 0c9c e7c1 c33d ba43 ea9e b541 e820 cac2
00000020: 74b4 9cc2 5f7a c0c2 7a39 2f43 47d3 0443
00000030: 603c 14c3 3e23 7d42 ca4d 19c3 e4f2 1443
00000040: db9e d143 d58d f4c2 7048 84c2 c4c8 0f42
00000050: 604a 3dc1 5685 77c1 221c 4641 c78a 9ec0
00000060: 476d 4a41 92ff 0843 65a5 b341 efe2 6e40
00000070: f9f5 3941 592f fac0 ff0b 8f42 041c e7c0
00000080: 6348 9241 bcef f541 9950 1141 9302 91c1
00000090: ad2d 2643 5c08 29c0 9c74 32bf 7493 3b41
000000a0: d6ac d143 0736 ddc3 8cb2 4d43 636e 2743
000000b0: 5d91 aec3 bdbb 4444 bc6c 9b43 d04e cfc3
000000c0: f244 c1c3 1b02 d3c3 925a 9cc2 71e7 4bc3
000000d0: 2b08 5243 8b39 81c3 f448 d4c3 0638 52c3
000000e0: 170a 5043 8c76 d7c3 cef2 c7c3 3e01 8f43
000000f0: ce3e bcc2 520f d542 bace b142 2104 d942
00000100: d567 1142 99f0 8ac3 800c d940 485c b242
00000110: 37c7 8042 327a b442 6b8b 05c3 4b3a bfc2
00000120: 60e7 b042 9c7c a3c1 6378 bb42 a0e5 b2c2
00000130: 14f6 a0c3 f51a c042 6c3e 9d42 39d8 b841
00000140: 0060 0fc3 8823 2b43 d7ce 0943 cd73 3343
00000150: 2f9f a042 72e5 00c4 094c 2742 f596 0c43
00000160: b34b f842 80e6 1343 57f8 6fc3 349e 0dc3
00000170: 9e75 0543 a8a0 8fc1 5762 1343 9789 05c3
00000180: 739e 18c4 445e 1d43 84ec 1943 7b18 a242
00000190: 211b fc42 9cb8 0cc3 285d f0c2 2dc0 1ac3
000001a0: 1de3 6dc2 57e9 d843 3373 dac0 3bca efc2
000001b0: c140 c5c2 6361 f6c2 7cae 5343 99a6 f742
000001c0: c88c eac2 c366 2342 a740 01c3 846f eb42
000001d0: 40b2 fc43 b409 05c3 dc5c e9c2 2920 e6c1
000001e0: 85db ecc1 5854 6542 5e3c ef41 929b 5a42
000001f0: 3d45 ba41 1672 51c3 a29c 3340 09d8 1942
00000200: 9098 ef41 5302 3d42 acb2 c1c2 f396 07c2
00000210: d445 ca41 78ab 7ec1 267d 0842 b059 cfc1
00000220: a62d 89c3 dd2f 3742 feab 1842 cf8d a341
00000230: 60fa 9141 d720 37c2 4aa7 8bc1 790c 09c2
00000240: e0a3 ad3f 8bff 2043 0ff3 6841 56f8 e4c1
00000250: 689d b2c0 607a 16c2 c78e c442 1e81 c041
00000260: 3dc0 5ec1 844c 0142 0a95 a1c1 dfd1 5b41
00000270: 6ebe 3d43 e204 ffc1 436f 2fc1 515d 82c0
00000280: 605c 0443 6c04 1cc3 4f48 fdc2 3a5c 15c3
00000290: fbca 57c2 d915 b843 0fac 83c1 0481 fac2
000002a0: 7e6c c0c2 dc1a 05c3 faab 2143 7076 0343
000002b0: c1f1 fbc2 3b68 8541 4828 05c3 11ce fe42
000002c0: 1616 d043 a169 08c3 e936 d6c2 fc1d dcc1
000002d0: 46a0 1f43 feab 00c3 68e3 1bc3 4503 3dc3
000002e0: d8d2 e0c2 70c4 b643 e8e7 3dc2 e9ab cac2
000002f0: 6b62 17c3 70f7 e8c2 8d7e e142 45bc 0943
00000300: 7ff5 1cc3 88a5 38c1 e14d 25c3 2248 1d43
00000310: 7d2c d243 7c9d 09c3 f173 0cc3 0348 25c2
00000320: 3f65 1a43 c3c1 00c3 0fc9 15c3 8bd7 22c3
00000330: 36fc 1fc2 5510 5e43 25ca c441 7f34 f3c2
00000340: 5609 98c2 2530 f4c2 48d0 de42 05af 1043
00000350: 1b65 19c3 375a 3b42 1263 19c3 02fe 1943
00000360: 9866 8643 ac86 05c3 14f3 8fc2 8b30 2f42
00000370: c746 b342 2591 dac2 889f a7c2 6331 c7c2
00000380: 3a55 e3c0 f874 9e43 d3c0 b541 0291 9cc2
00000390: 4c40 59c2 decd a9c2 5f72 3343 b571 a842
000003a0: e01e a4c2 cdb1 4742 23c3 b4c2 83af a742
000003b0: 5317 a643 25b6 b4c2 e2c5 79c2 f083 6241
000003c0: 6aea b4c2 677c b242 7557 ab42 db4d ed42
000003d0: ab04 eb40 f6cc c9c3 b3af 3fc2 9c3e 9542
000003e0: 1d3c 3942 7815 9242 a381 50c3 ffe5 a0c2
000003f0: 8572 a442 e307 acc2 d490 bf42 28ea a1c2

bias f4 [20]
146.36229 -24.58317 403.167 -81.04451 -126.860596 112.91291 -13.431717 5.001717
119.92782 160.19745 151.25859 77.90561 -82.942375 -15.812027 14.58602 -121.55725
10.925586 99.81677 -98.704216 109.437965
00000000: bf5c 1243 55aa c4c1 6095 c943 ca16 a2c2
00000010: a0b8 fdc2 69d3 e142 50e8 56c1 110e a040
00000020: 0bdb ef42 8c32 2043 3342 1743 accf 9b42
00000030: 7fe2 a5c2 10fe 7cc1 5760 6941 501d f3c2
00000040: 33cf 2e41 30a2 c742 8f68 c5c2 3de0 da42

weight f4 [1, 20]
-641.90955 477.14935 -60.61572 -704.07184 275.60382 -1596.5621 684.0309 -1205.3389
691.98926 721.94885 298.1381 266.60397 -2472.5708 -3407.1028 -2361.5789 565.82
868.1881 2380.2446 -703.05475 664.70764
00000000: 367a 20c4 1e93 ee43 7f76 72c2 9904 30c4
00000010: 4acd 8943 fd91 c7c4 fa01 2b44 d8aa 96c4
00000020: 50ff 2c44 ba7c 3444 ad11 9543 4f4d 8543
00000030: 2289 1ac5 a5f1 54c5 4399 13c5 7b74 0d44
00000040: 0a0c 5944 eac3 1445 81c3 2fc4 4a2d 2644

u_b f4 [2]
19.900826 39.96
00000000: e434 9f41 0ad7 1f42

l_b f4 [2]
0.04028449 0.0
00000000: 5901 253d 0000 0000
