Iter_03/Models/Noise_0/simulation_00_20/ff_3200.pt (torch, 111581 bytes, 23 tensors)

weight f4 [20, 2]
00000000: 6dc8 a542 8de8 2c42 1c46 2f43 4617 1c42
00000010: 3cd9 5443 908a 7c42 66b8 41c1 e472 fa41
00000020: 7438 1f43 8d12 1441 bd16 bac1 9769 fd40
00000030: a10f e240 12c1 56c1 8fa9 0042 c27f 8ec1
00000040: 9998 4042 3a66 03c2 032f ba42 ec33 14c1
00000050: 5898 70c0 5353 34c1 8132 a5c0 6c28 8d41
00000060: a714 9ebe 10e8 6541 6330 ea41 d2f8 86c1
00000070: 024f a341 26e0 94c1 abff 03c2 9306 3642
00000080: 132e ebc1 7114 a4c2 f981 3143 ee5d 3b42
00000090: 4ce9 20c2 f3a6 a041 e1db 76c1 c917 b9c2
82.89146 43.2271 175.27386 39.022728 212.84857 63.135315 -12.107519 31.306099
159.22052 9.254529 -23.261103 7.9191394 7.064408 -13.422136 32.165585 -17.812382
48.14902 -32.84983 93.09182 -9.262676 -3.7592983 -11.270343 -5.162415 17.644737
-0.3087513 14.369156 29.273626 -16.871494 20.413578 -18.609447 -32.999676 45.50642
-29.397497 -82.039925 177.5077 46.84173 -40.22783 20.081518 -15.428681 -92.546455

bias f4 [20]
00000000: ac67 3f42 4214 1243 e615 0743 21dc cb42
00000010: 23c7 a7c1 9677 a041 f97c 3cc2 b6cf 71c2
00000020: 964a dcc2 1c51 49c2 8a1f 07c2 bed3 4a42
00000030: 65d5 4742 b97a 89c2 49f4 8bc2 7685 0c43
00000040: abf0 68c1 cf7a 8b42 b560 a142 3c8f 01c3
47.851242 146.07913 135.08554 101.92994 -20.972235 20.058392 -47.122044 -60.452843
-110.145676 -50.32921 -33.7808 50.70678 49.958393 -68.73969 -69.97712 140.52133
-14.558757 69.73986 80.68888 -129.55951

weight f4 [20, 20]
00000000: 1062 d6c1 2a72 d541 7217 28c2 b3c5 dfc1
00000010: 3b7d c341 0188 9841 cbb1 abc1 33d8 9cc1
00000020: c1a2 5242 7596 cec1 1aed 9ac1 91ef f741
00000030: 49ce 9842 145d 77c2 ef62 7942 8350 e7c1
00000040: 2bde e042 3356 08c2 6b3e 1c42 eee7 1842
00000050: ab12 20c1 3b10 1241 7479 bac1 b032 33c1
00000060: dbf0 fe40 6e31 4d41 3ee0 78c1 4362 6cc1
00000070: e495 a541 7bbd 83c1 2482 6fc1 671e a141
00000080: 48a4 2642 9e7b 07c2 ac4b cc41 701b 20c1
00000090: 30cb 5242 5d31 48c1 8c57 c041 c3b8 8441
000000a0: 69c6 2bbf 406d 80c0 f89f 1cc1 de62 d540
000000b0: acd3 5ebf e8ca f840 464e 60c0 2ed5 0540
000000c0: 4ccf 8f3f 4113 f6c0 920e a13f 7817 e43f
000000d0: 15d3 8640 5842 e1c0 7cb5 be3f ccd0 ab40
000000e0: b5ac 1e41 3e65 82c1 a73e 2c3f 7a75 b7be
000000f0: be9b 16c0 b04e 2341 7d9a b441 9b93 25c1
00000100: 5116 6041 a4f2 8ac1 20e9 a941 4377 cf41
00000110: 49c1 d640 bcc8 a141 23eb b341 6f0a cac1
00000120: ad1d 05c2 30b2 e541 8f5b e340 52f1 13c1
00000130: 0f24 dec1 5bf0 3ec1 02b6 d7c1 bcf7 e43f
00000140: 2031 4741 24bf 35c1 5b35 0dc1 79f9 a741
00000150: b2d1 9bc1 2cc1 8341 03c7 78c1 e5ed 5cc1
00000160: 21d1 cdc1 260c 7cc1 888a 4dc1 484f 5941
00000170: c324 0c41 2977 2cc1 1f9d cac1 9526 b641
00000180: e473 37c1 2765 c241 854f 5241 6491 0bc2
00000190: 5a58 6d40 4bfc 4240 f12d 9441 43da c4c0
000001a0: cfe1 53be 757b 5ac1 7974 0241 5af4 5e3f
000001b0: 80ef d0c0 64ad 5e41 13f7 fb3f c4ec e2c0
000001c0: 5465 89c1 fa7a 8c41 3539 06c1 1a16 87c0
000001d0: ab03 ddc1 9c79 c341 6756 dac0 eafa 8bc0
000001e0: 9b2f 0f43 728a e442 2664 1ec2 f07c 2343
000001f0: 41d4 07c3 fd01 1743 469d 20c3 fa2f 22c3
00000200: 6440 27c3 e650 1ac3 46ec 1bc3 bb3f 2143
00000210: 1f75 1e43 58f9 1dc3 ded0 26c3 7843 2443
00000220: f0d4 1b43 4144 1943 2d6f 2143 37ec 3b43
00000230: 0653 2cc2 93e0 6ec2 d5f0 1b41 8c7f 84c2
00000240: 0a42 4742 b079 7dc2 49b0 ad42 2615 d442
00000250: ba4c 9742 bdf8 8442 d54e bd42 6f02 c4c2
00000260: 2caf cbc2 e3f1 b342 4309 9d42 faba 84c2
00000270: f3aa bcc2 b633 cdc2 2fcd ccc2 6e1f adc2
00000280: 0e87 de41 233a 99c1 7d64 8542 63cf a641
00000290: f775 abc1 f237 1fc2 29a3 1642 ea79 e641
000002a0: 4e7d 59c2 e0fd 3a42 c289 f041 7da9 3ac2
000002b0: 60f9 d1c2 ad09 b142 f6a5 88c2 96b1 a741
000002c0: 3ad2 10c3 8492 5742 d035 5cc2 ba54 28c2
000002d0: e39b 9fc0 7ec8 28c2 6995 63c2 c0e1 1e42
000002e0: bd42 1fc2 b47f 4642 4240 43c2 01e5 3cc2
000002f0: 6161 0dc2 1dbd 4ac2 0b8a 35c2 d5d9 4642
00000300: d229 6d42 26ff 60c2 8b8d 04c2 ddda 2142
00000310: 9572 6642 2fcf 5d42 b921 4e42 9c2e 1cc2
00000320: 910f e5c3 f1cb a044 233f a044 ea93 a0c4
00000330: 0920 a344 75db 9fc4 c172 a044 a2b3 a044
00000340: 7364 a044 f4f8 a044 7acb 9d44 669a a0c4
00000350: 0998 a0c4 d9a1 a044 4e81 a044 2e6e a0c4
00000360: 1b58 a0c4 825f 68c4 e091 a0c4 c774 0fc4
00000370: d847 fc40 2ffd 0340 ab82 7341 778e 24c0
00000380: ea0d da3f 0dcc 1ac1 52f3 1b41 62e8 0b41
00000390: 5194 74c0 1043 3541 7715 0241 cf5a 2bc1
000003a0: 260a 95c1 a42d 8741 987b 8dc0 f150 01c0
000003b0: 2cea dac1 b576 adc0 e12b 3dc1 fcb1 b23f
000003c0: 55f1 fb40 9608 17c2 4567 9fc1 aa64 2242
000003d0: bce7 05c2 24cc cb41 f3c0 9dc1 e6fc 69c1
000003e0: 3a1e 26c2 5094 afc1 93ea 66c1 9cbc 6b41
000003f0: 351d 4f3f e3bc 1bc1 b881 2fc2 6e05 2042
-26.797882 26.680744 -42.022896 -27.971533 24.436148 19.066408 -21.461813 -19.605566
52.65894 -25.823465 -19.365772 30.991976 76.4029 -61.840897 62.346615 -28.914312
112.43392 -34.08418 39.060955 38.226494 -10.004558 9.1289625 -23.309303 -11.199875
7.9669013 12.824568 -15.554747 -14.77399 20.698189 -16.46752 -14.969273 20.139845
41.66043 -33.87072 25.53695 -10.006699 52.698425 -12.512052 24.042747 16.590216
-0.67099625 -4.013336 -9.789055 6.6683187 -0.87041736 7.774769 -3.5047774 2.0911365
1.1235137 -7.6898503 1.2582572 1.7819662 4.213267 -7.0393486 1.4899135 5.369238
9.917165 -16.299435 0.672831 -0.35831815 -2.3532557 10.206711 22.575434 -10.3485365
14.005448 -17.368477 21.23883 25.933233 6.7110944 20.223015 22.489813 -25.255095
-33.27898 28.712006 7.1049266 -9.246416 -27.767607 -11.933681 -26.963871 1.7888103
12.449493 -11.359165 -8.825526 20.996813 -19.47739 16.469322 -15.548587 -13.80808
-25.727114 -15.752966 -12.846321 13.581856 8.758975 -10.779092 -25.32672 22.768839
-11.465794 24.29939 13.144414 -34.891983 3.7085176 3.0466487 18.522432 -6.1516433
-0.20691608 -13.655141 8.153436 0.870916 -6.529236 13.917332 1.9684776 -7.091402
-17.174477 17.560047 -8.388967 -4.221448 -27.626791 24.43438 -6.823047 -4.374379
143.18596 114.2704 -39.5978 163.48804 -135.82912 151.00777 -160.61435 -162.18741
-167.25153 -154.31601 -155.92294 161.24895 158.4575 -157.974 -166.81589 164.26355
155.83179 153.26662 161.43428 187.92271 -43.081078 -59.71931 9.746297 -66.249115
49.81449 -63.368835 86.84431 106.041306 75.64986 66.48582 94.65397 -98.00475
-101.84213 89.972435 78.51809 -66.36519 -94.333885 -102.601 -102.40075 -86.561386
27.815945 -19.153387 66.696266 20.851263 -21.4326 -39.804634 37.659336 28.809528
-54.372368 46.747925 30.067265 -46.665516 -104.98706 88.5189 -68.32414 20.961712
-144.8212 53.89308 -55.05255 -42.08274 -4.987779 -42.195793 -56.89591 39.72046
-39.815174 49.62471 -48.81275 -47.223637 -35.345097 -50.68468 -45.384808 49.712727
59.29084 -56.24917 -33.138226 40.463734 57.611897 55.452328 51.532932 -39.045517
-458.1216 1286.3732 1281.973 -1284.6223 1305.0011 -1278.858 1283.586 1285.6135
1283.139 1287.7798 1262.3586 -1284.825 -1284.7511 1285.0577 1284.0408 -1283.4431
-1282.7533 -929.4923 -1284.5586 -573.82465 7.88377 2.062328 15.219401 -2.5711954
1.7035496 -9.674817 9.746904 8.744234 -3.8215525 11.328873 8.13024 -10.70967
-18.629955 16.897285 -4.421337 -2.0205653 -27.364342 -5.4207406 -11.823213 1.3960567
7.8732095 -37.758385 -19.925425 40.598305 -33.476303 25.474678 -19.719213 -14.624243
-41.52952 -21.947418 -14.432269 14.733547 0.8090394 -9.733615 -43.87668 40.005302

bias f4 [20]
00000000: 1c88 12c3 d80e 81c2 4257 68c1 bac6 5f40
00000010: 5f93 9242 f863 1942 bb5e 1bc3 9dd5 a742
00000020: 1f55 3943 7e96 2a41 4423 9944 f7c1 9041
00000030: 802a 8542 8c9f d441 28c7 dd42 f7c3 52c1
00000040: 40ba 89c2 f9f7 8242 8ab1 8041 06b5 93c0
-146.53168 -64.52899 -14.521303 3.4965043 73.287834 38.347626 -155.37004 83.91721
185.3325 10.661741 1225.102 18.09471 66.58301 26.577904 110.88898 -13.172843
-68.86377 65.48432 16.086689 -4.6158476

weight f4 [20, 20]
00000000: 629a d93f 0852 89c1 6c38 55c0 e85e af41
00000010: 13bb b8c1 e15b ac3d de3c 1541 097e d040
00000020: 3633 ca41 1845 57c0 143d 0fc1 9fc7 1ec1
00000030: a392 bd41 a570 6741 2b3f a041 7feb 0d42
00000040: fbca 1140 b5ce b241 9fec ca41 c4f3 2c41
00000050: 985b 1345 8d9d 1245 bddb 1245 fb17 12c5
00000060: ac19 14c5 85ff 11c5 f28a 10c5 d0f1 1345
00000070: 9468 12c5 84d4 1145 fbb0 01c5 99e2 12c5
00000080: 7ef3 10c5 c45e 11c5 d59d 12c5 2e49 1445
00000090: fbdc 1145 a2f9 10c5 7417 1445 bf1a 1345
000000a0: 5173 0741 d1f0 9141 5843 c940 27bf 6cc1
000000b0: 383f df40 b765 8c40 53c4 1cc1 3f09 02bd
000000c0: cbcc cec1 06d0 b7c0 597c f0bf 6ba8 c740
000000d0: 5c7c 0fc0 43d7 4dbf d271 a0c1 f903 6ac1
000000e0: 97be 0dc1 6a9f 83c0 19a1 0ec1 bc70 a8c0
000000f0: 7c86 19c1 2419 9ec1 27ce 97c1 7ccb e441
00000100: 1cdf 80bf f68c f741 c506 0a42 203e dac1
00000110: c45e b541 d59e 0bc2 e673 2841 5348 9141
00000120: dd88 3942 1a50 2542 66d6 a241 83d0 c740
00000130: 7529 0bc2 ecf5 3642 0490 2c3f f973 6dc1
00000140: 2e8b a13f ff05 2ac1 ade4 9ec0 32e5 7d41
00000150: aef3 47c1 5770 2941 1e25 1041 1d84 debf
00000160: 4ba6 5e41 7cc5 56c1 ee39 c1c0 40f5 943e
00000170: 32f1 d141 52db 9d41 9c46 3441 3b1c 9441
00000180: 93a3 3fc1 fb12 ca41 acf9 6441 da20 713f
00000190: b75e e740 5a44 cd41 fa5f f140 5d1c d6c1
000001a0: 010e 8141 7de4 bf40 0df0 4fc1 24d2 13c0
000001b0: 7eda 10c2 8427 6ac0 e582 ce3f deaf 3641
000001c0: 7667 81c1 a401 d3c0 56ba e8c1 097e f2c1
000001d0: 7ce9 38c1 1d08 6ec1 5165 96c1 4150 31c1
000001e0: 854b 5d41 6fba 43c1 3166 2d40 d3ee cd41
000001f0: d02a 33c2 9ff9 2741 702c dc40 c9ea 6b41
00000200: 3826 b741 eab8 85c1 6206 cac1 b485 4fc1
00000210: e7db 3542 5c6d fe41 3359 6141 a184 6d42
00000220: 90cb 35c1 f1fd 2a42 438d 3b42 8143 8e41
00000230: ea69 70c2 cd58 52c2 0fdf 68c2 748d 5042
00000240: 0986 8842 4042 7342 d9c5 a342 ac7a a8c2
00000250: 5eb7 4542 2d3c 6ec2 a0ac 7342 1ec6 8042
00000260: 8c66 4f42 c956 5c42 8687 4e42 ad89 94c2
00000270: 9d7e 76c2 b564 5242 fd66 8fc2 de94 80c2
00000280: 5f41 dac4 2adc d8c4 0211 d9c4 bbb6 d744
00000290: d3af db44 d920 d744 ea80 d544 5fab dac4
000002a0: d984 d844 f9ab d6c4 bb9c be44 9fff d844
000002b0: e0d4 d444 9fb7 d544 acd9 d844 3e34 dcc4
000002c0: 2896 d6c4 36fb d444 bba2 dbc4 4a70 d9c4
000002d0: 24f6 bac2 9940 b0c2 425a b1c2 311b ca42
000002e0: d42a da42 fdff a142 096a 2b43 6d62 25c3
000002f0: 72bc aa42 5a14 b8c2 dacd e242 bee6 b842
00000300: 5747 ac42 f051 9a42 54ce b542 0b69 f0c2
00000310: 288d 9ec2 71b0 9442 df3e f7c2 76c7 b9c2
00000320: 2588 0e42 cc50 cd41 5c06 e141 b4c6 87c1
00000330: cab3 30c2 7bf9 43c1 754e f5c2 630a ec42
00000340: be32 bac1 8fa4 1541 4b9f 9bc1 8865 d2c1
00000350: fb4b 0940 d2fa 50c0 24dd d2c1 285a 5d42
00000360: 3e85 1341 6869 a63f ee4c 5a42 e178 f341
00000370: e2a1 01c4 dbda fac3 d133 fac3 c295 3144
00000380: b0e5 ff43 17e4 f543 27d3 0b44 9912 06c4
00000390: 7b33 f643 7323 1cc4 ca03 2844 524d 0844
000003a0: 6195 0444 ea18 f943 f167 0644 5045 3ac4
000003b0: 5cec f7c3 54a3 f643 aaab 38c4 d782 02c4
000003c0: d610 aa43 d5f7 a943 b9d1 a943 a27a aac3
000003d0: 3b7d aac3 d6af a9c3 2d5a bac3 c241 af43
000003e0: 68d2 a9c3 7f17 aa43 c32c c0c3 0621 aac3
000003f0: 66f7 a9c3 9496 a9c3 e202 aac3 72e0 aa43
1.7000239 -17.165054 -3.3315687 21.92134 -23.091345 0.08415962 9.32736 6.515385
25.275005 -3.3635921 -8.952412 -9.923736 23.6966 14.465001 20.030844 35.479977
2.278014 22.350931 25.365538 10.809513 2357.7246 2345.847 2349.7336 -2337.4988
-2369.6045 -2335.97 -2312.684 2367.1133 -2342.5361 2333.2822 -2075.0613 -2350.1624
-2319.2183 -2325.9229 -2345.8645 2372.5737 2333.8113 -2319.602 2369.4658 2353.6716
8.465653 18.242586 6.2894707 -14.796668 6.976467 4.3874164 -9.797931 -0.0317471
-25.849997 -5.7441435 -1.8787948 6.239309 -2.2419653 -0.8040659 -20.055576 -14.62597
-8.859031 -4.1132097 -8.9143305 -5.2637615 -9.595333 -19.762276 -18.97566 28.599358
-1.0068088 30.943829 34.50661 -27.280334 22.671272 -34.90511 10.5282955 18.160315
46.383656 41.328224 20.354687 6.244203 -34.790485 45.740158 0.6740725 -14.840814
1.2620599 -10.626464 -4.9654145 15.868456 -12.496992 10.589927 9.009062 -1.7384068
13.915599 -13.423214 -6.0383215 0.2909336 26.242771 19.73209 11.267239 18.513784
-11.977435 25.259268 14.310955 0.9419075 7.230312 25.658375 7.542966 -26.76385
16.131838 5.9966416 -12.996106 -2.309701 -36.21337 -3.6586618 1.6133696 11.417936
-16.175518 -6.5939503 -29.090984 -30.31154 -11.557003 -14.876981 -18.79947 -11.082093
13.830937 -12.233016 2.7093623 25.741613 -44.79181 10.498443 6.8804245 14.744821
22.893661 -16.71529 -25.253117 -12.970142 45.46475 31.803398 14.084277 59.37952
-11.362198 42.74799 46.88795 17.78296 -60.10343 -52.58672 -58.21783 52.138138
68.26179 60.814697 81.88642 -84.23959 49.42907 -59.558765 60.91858 64.38695
51.850143 55.08475 51.632347 -74.2689 -61.623646 52.598347 -71.70115 -64.29076
-1746.0428 -1734.8801 -1736.5315 1725.7103 1757.4945 1721.0265 1708.0286 -1749.3553
1732.1515 -1717.3741 1524.8978 1735.9882 1702.6523 1709.7382 1734.8022 -1761.6326
-1716.6924 1703.8503 -1757.0853 -1739.509 -93.48074 -88.12617 -88.676285 101.05311
109.08365 80.99998 171.4142 -165.38448 85.36806 -92.03975 113.402054 92.45067
86.139336 77.160034 90.902985 -120.20516 -79.275696 74.34461 -123.622795 -92.88957
35.632954 25.664452 28.128105 -16.972023 -44.175575 -12.248408 -122.65324 118.02029
-23.274776 9.352675 -19.45278 -26.299576 2.1452625 -3.2653089 -26.357979 55.338043
9.22003 1.3000917 54.575127 30.434023 -518.5294 -501.7098 -500.40482 710.33997
511.79443 491.78195 559.29926 -536.2906 492.4022 -624.5539 672.0592 545.2081
530.33405 498.19464 537.6241 -745.083 -495.84656 493.276 -738.68225 -522.0444
340.13153 339.9362 339.63846 -340.95807 -340.97836 -339.37372 -372.7045 350.51373
-339.6438 340.18356 -384.3497 -340.258 -339.9328 -339.1764 -340.02252 341.75348

bias f4 [20]
00000000: 802e 0dc2 3590 1045 1c9a 5c41 923d 3ec2
00000010: d1fd fbc1 cb3f 0642 3f65 71c2 bd06 3ec2
00000020: f44b d4c4 0c69 89c2 4d9b c1c0 cc87 f5c3
00000030: 47ed a843 fa80 0341 949c 8f42 df05 c5c2
00000040: fbed 7c43 31df e143 4401 26c3 564d 9742
-35.29541 2313.013 13.787624 -47.560127 -31.498934 33.562298 -60.348873 -47.50658
-1698.3735 -68.70517 -6.0502076 -491.0609 337.85373 8.218988 71.80582 -98.51147
252.92961 451.74368 -166.00494 75.65105

weight f4 [20, 20]
00000000: 0342 29c4 de22 cfc3 315b 2a44 a046 25c4
00000010: 3657 2ac4 e7a3 2a44 a106 2bc4 f638 2a44
00000020: d9d9 1144 8c8a b0c3 9d27 10c4 d94c 02c3
00000030: 9e05 ed43 6bf1 1fc4 3bed 2944 dccb 29c4
00000040: c7e9 a943 07d7 1e44 9384 19c4 8ec4 2944
00000050: f279 65c4 f314 2cc4 e81d 6544 6ff0 61c4
00000060: 9f9d 64c4 56f7 6444 d0de 64c4 4292 6344
00000070: 7bf5 6744 8a9e 55c4 a38c a5c4 17c6 7444
00000080: be32 6bc2 58cd 58c4 61af 6444 45bf 64c4
00000090: d385 5644 869c 6244 3856 56c4 2702 6544
000000a0: 4799 eec2 ba37 15c3 0a73 6542 3f49 2bc3
000000b0: e57b e7c2 899b 1742 c11d 6cc2 873a 0a42
000000c0: a562 1943 e140 17c3 1c5d 1ac2 fbb5 00c3
000000d0: 6945 3243 46b1 16c2 da91 1942 59d7 70c0
000000e0: 7f60 1043 9c46 4843 4738 48c3 1d2f b742
000000f0: 626c f9c1 050b 72c3 424d 0042 742b 17c2
00000100: 279e cac1 3903 0142 f13a e5c1 9b44 eb41
00000110: a04f 7343 bd10 2143 19bf 05c3 4fbd 47c2
00000120: 9baf 0543 8c3b acc1 00de 0842 2d68 17c2
00000130: 6db2 21c3 b28d d041 d43e d3c1 7e99 f041
00000140: 627d c3c4 0487 88c4 fb8c c344 073f bfc4
00000150: 2dd9 c2c4 21c2 c344 58aa c3c4 3e03 c244
00000160: 951f 8e44 237e e8c4 b2f2 bac4 900f d544
00000170: ed54 41c4 2481 bec4 5454 c344 7a41 c3c4
00000180: f936 ca44 0bb3 b244 7b90 b2c4 6e43 c344
00000190: c5dc 59c3 26a5 60c3 87ac 6443 7ca3 53c3
000001a0: 33e9 5ac3 ae79 6743 5c69 63c3 e563 6943
000001b0: 2de7 5743 1d46 8c43 4628 5cc3 ed61 1b42
000001c0: b66f 5243 aae0 5cc3 b35c 6943 7762 6fc3
000001d0: 8964 8ac3 39fe 4843 7e67 3ac3 239c 6043
000001e0: 1fc0 fa42 bb3e 8743 b25a 00c3 abef ff42
000001f0: 3967 fb42 d478 00c3 14b6 fe42 95c3 05c3
00000200: 9340 87c3 bd91 8bc3 1791 3843 b571 1342
00000210: 7484 8cc3 8fe8 fd42 1bb8 02c3 80ee 0543
00000220: 7071 4243 50ce 24c3 38df e142 4659 00c3
00000230: f193 bb43 f990 6843 5226 b6c3 18f9 bf43
00000240: c817 b643 5122 b4c3 a43c b343 5ef2 afc3
00000250: ee7c aec3 f23d 2043 606a db43 f457 2342
00000260: e310 a7c3 a1d0 a143 c64c b4c3 d17e b143
00000270: 7d9e 13c3 2f9b b8c3 c132 b043 6a4b b7c3
00000280: 8871 28c3 b8e7 ffc2 72f8 1543 b1e1 39c3
00000290: cb9f 23c3 2245 0f43 1903 14c3 0bbd 0d43
000002a0: 402d 2643 3cf0 cec2 7511 08c3 8b49 3ec2
000002b0: 1457 1443 9b6b 03c3 934c 1243 c028 0bc3
000002c0: 2a14 c642 e18d 3c43 de5c 38c3 8dda 2043
000002d0: 2e8f 7144 1928 bf44 719d 71c4 19d0 6d44
000002e0: 4974 7144 4bc0 71c4 d6cc 7144 2ae9 70c4
000002f0: a895 aec4 a8af 5b44 bfe7 8044 ba63 a0c4
00000300: 10c9 a543 d24c 6f44 655f 71c4 b031 7144
00000310: 58f9 4dc4 9fe0 6bc4 4448 5f44 3075 71c4
00000320: 0d7f 86c3 a3bc c9c2 3d54 8c43 a5bb 7cc3
00000330: d870 86c3 0a02 8e43 9609 8cc3 5525 8c43
00000340: ba5f 7643 062c ee42 fd05 30c4 2437 e942
00000350: 4fcb b243 cdb8 73c3 f4e9 8d43 f903 91c3
00000360: 3207 0bc3 cd0a 5443 abce 45c3 ef49 8943
00000370: d491 fd44 88e2 21c5 ce35 fdc4 58fa f544
00000380: b99e fc44 4513 fdc4 7a1b fd44 a794 f9c4
00000390: d719 ee44 ea4e d644 2237 9e44 06fa d3c4
000003a0: af76 a444 9b6b f244 dc69 fdc4 6663 fd44
000003b0: 5b60 8bc4 0317 cfc4 28a1 e344 6aa0 fdc4
000003c0: 6039 9dc3 3d21 17c3 f8bb 9f43 4a63 96c3
000003d0: 966d 9cc3 4b2c a143 3c52 a0c3 d360 9f43
000003e0: fdd3 8643 9429 fac2 e043 dac3 4943 39c1
000003f0: 148d 8643 14d5 90c3 8fca a043 7e96 a1c3
-677.03143 -414.2724 681.42487 -661.1035 -681.3627 682.561 -684.1036 680.89
583.4039 -353.0824 -576.61896 -130.30019 474.04388 -639.77216 679.7067 -679.1853
339.8264 635.3598 -614.0715 679.07117 -917.9054 -688.32733 916.4673 -903.7568
-914.4628 915.8646 -915.48145 910.2853 927.83563 -854.4772 -1324.3949 979.09515
-58.799553 -867.2085 914.7403 -914.9886 858.091 906.4457 -857.34717 916.0336
-119.29937 -149.21768 57.362343 -171.28612 -115.74198 37.90189 -59.029057 34.557156
153.38533 -151.25343 -38.590927 -128.71086 178.27113 -37.67312 38.392433 -3.7631438
144.37694 200.27582 -200.21983 91.59202 -31.177921 -242.04305 32.075447 -37.792435
-25.327223 32.253147 -28.65378 29.408499 243.31104 161.06538 -133.74648 -49.93487
133.68596 -21.529076 34.216797 -37.851734 -161.69698 26.069187 -26.405678 30.074947
-1563.9182 -1092.2192 1564.4056 -1529.9696 -1558.7867 1566.0665 -1565.3232 1552.1013
1136.9869 -1859.9418 -1495.5842 1704.4863 -773.32697 -1524.0356 1562.6353 -1562.0461
1617.7179 1429.5951 -1428.515 1562.1072 -217.86238 -224.64511 228.67393 -211.63861
-218.91093 231.47531 -227.41156 233.39021 215.90303 280.54776 -220.15732 38.84563
210.43637 -220.8776 233.3621 -239.38463 -276.78543 200.99306 -186.40427 224.60991
125.37524 270.49008 -128.35428 127.9681 125.70161 -128.47198 127.35562 -133.76399
-270.5045 -279.13858 184.56676 36.861042 -281.0348 126.954216 -130.71916 133.93164
194.44312 -164.80591 112.935974 -128.34872 375.1558 232.5663 -364.29938 383.94604
364.1858 -360.2681 358.47375 -351.8935 -348.976 160.24197 438.83105 40.83589
-334.13193 323.6299 -360.5998 354.99075 -147.6191 -369.21237 352.3965 -366.58917
-168.44348 -127.952576 149.97049 -185.8816 -163.62419 143.27005 -148.0121 141.73845
166.17676 -103.46921 -136.06819 -47.57182 148.34015 -131.42033 146.29912 -139.15918
99.03938 188.55421 -184.36276 160.85371 966.2372 1529.253 -966.46 951.2515
965.81696 -967.0046 967.20056 -963.6432 -1396.6768 878.7446 1031.2421 -1283.1165
331.5708 957.2003 -965.49054 964.77637 -823.896 -943.5097 893.12915 -965.83105
-268.99258 -100.86843 280.6581 -252.73299 -268.8816 284.01593 -280.0749 280.29166
246.37393 119.08598 -704.09357 116.6077 357.58835 -243.72188 283.82776 -290.03104
-139.0281 212.04219 -197.8073 274.5776 2028.5571 -2590.1582 -2025.6814 1967.8232
2020.9601 -2024.6022 2024.8586 -1996.6454 1904.8075 1714.4661 1265.7229 -1695.8132
1315.7089 1939.3627 -2027.3081 2027.1062 -1115.0111 -1656.7191 1821.0361 -2029.013
-314.44824 -151.12984 319.4685 -300.7757 -312.85614 322.34604 -320.64246 318.75644
269.65616 -125.08121 -436.53027 -11.578927 269.10217 -289.66467 321.5825 -323.17572

bias f4 [20]
00000000: 2669 d1c3 88bf 64c4 5642 0342 738e 2043
00000010: dd3f 03c5 111b 8243 540f 90c3 1767 0f43
00000020: 21b2 4ac2 ece1 7644 0740 5342 8c46 f744
00000030: 5e2d 31c3 bca9 97c4 44a0 20c3 6d33 5242
00000040: 2cf3 94c1 9646 a6c3 f410 1fc1 efe7 f0c4
-418.82147 -914.9927 32.81478 160.55644 -2099.9915 260.21146 -288.11975 143.4027
-50.673954 987.53 52.812527 1978.2046 -177.17722 -1213.3042 -160.62604 52.55022
-18.618736 -332.55145 -9.941639 -1927.2479

weight f4 [20, 20]
00000000: c6be cd41 a4dc b241 a2c8 b7c1 ef57 a141
00000010: 099c 0042 2932 9fc1 4e43 8e41 fe3c 2a42
00000020: 3540 0641 b2c6 02c2 2f18 cec1 797c da41
00000030: f289 dc41 d867 b741 783e 6a41 a65f 7a40
00000040: af33 c9c0 a3c8 5241 8450 bac1 676e c241
00000050: 4734 db41 73cd 0042 679f 48c2 8201 2342
00000060: 0c09 0742 4a5e a2c1 55bd 9041 1f8f 8042
00000070: 525f a041 2643 2bc2 aa6a 63c2 7dc3 f041
00000080: d696 1e42 03f7 c541 d39f 1a42 eaf3 b0c0
00000090: 1bab 7bc1 059b f241 13a9 dfc1 8146 dd41
000000a0: 096a aa42 5c3c cdc1 33b3 1743 affd 1ac3
000000b0: 27c4 3c43 568b 33c3 4560 3743 6348 4a43
000000c0: 7743 23c3 d24e 0ac3 9dfb 8742 67c3 3e43
000000d0: 98d8 c7c1 e37d 2543 049a 17c3 96c2 3343
000000e0: 03d0 3043 c89c 1ec3 230c 07c3 3fe7 2043
000000f0: 7f81 e244 2e3e f644 5733 d9c4 b1d6 d044
00000100: 06cd 4845 4a3a db44 00d4 e5c4 1a5f fb44
00000110: 0641 09c5 9502 91c5 2832 f744 b071 ce45
00000120: 74c9 d144 9de3 1045 11bf d944 63d2 0e45
00000130: 1c93 0e45 3d62 0ec5 7b44 be44 8b85 5045
00000140: e44a 8743 3931 6a43 57d5 6ac3 cdc3 8743
00000150: 22c1 ea41 12fe dd42 74d8 e5c2 2046 8043
00000160: 7ee1 e1c2 3a88 81c1 c89d f142 59e9 f1c1
00000170: 2cc3 8a43 9302 4a43 1380 5543 ba0b 0643
00000180: 95ee e142 42a5 b2c2 8e5d 9e42 f273 e442
00000190: 5756 5b44 96ac 6244 55e3 cbc4 fdb7 c844
000001a0: 16f5 0944 93be c944 7741 cac4 00c5 2f44
000001b0: a762 23c4 8d9d 86c3 33f8 4f44 0691 5cc4
000001c0: 5108 9544 3035 2944 a658 cb44 ffa7 1d44
000001d0: 2814 1c44 dc33 21c4 d9b1 ab44 c38c 8f43
000001e0: 20f4 b7c4 391d b5c4 02d9 cf44 7748 c2c4
000001f0: 816d d7c4 f067 d0c4 fc33 e944 00ca bdc4
00000200: 87d9 e844 3e39 fa44 5698 bec4 2d82 d0c4
00000210: 5425 c7c4 999e f2c4 a10b c8c4 ea8b fbc4
00000220: c036 f8c4 c1ee fa44 0062 b1c4 03ab b8c4
00000230: 1279 6544 2f12 3344 12cf 60c4 bb97 6344
00000240: 56cf 8fc3 d699 4e44 2d5d 4ec4 3a62 6444
00000250: 4fe3 4ec4 4112 b343 246b 4f44 081f 04c4
00000260: 80e9 6644 97d0 3544 3fb3 5d44 6a6f 5244
00000270: 6a79 4e44 2944 45c4 6c09 3d44 c9d8 2d43
00000280: 1386 8643 85a0 06c3 c753 3f43 206f 7fc3
00000290: a895 6743 cee3 68c3 9a92 4643 4e8c 1043
000002a0: 9361 78c3 8314 84c3 0a76 1743 d165 1c43
000002b0: 89a0 8343 c806 8243 b20c 7dc3 8925 7b43
000002c0: c5a0 7243 2cfa 83c3 6102 6542 3367 1043
000002d0: c160 9d42 7bdd 8042 359d 82c2 909b 8f42
000002e0: 0ab9 b341 034e b241 e45d bec1 5df0 af42
000002f0: 7e1a 0ec2 3323 85c1 04b7 dd41 c1e9 1240
00000300: 7556 a042 5db4 8342 77b5 6642 f219 3542
00000310: def0 0f42 db66 dfc1 e14a 7741 fb17 1d42
00000320: c6bb e743 e1ad aa43 a002 adc3 cb8c c943
00000330: 4a81 c5c2 fe13 a243 cbf9 b2c2 eb2c 4a43
00000340: 5292 5843 4446 8843 b20d 8b43 a113 7043
00000350: 03c0 f743 a53d 95c3 4d70 df43 29bb cdc3
00000360: d9cf c1c3 c362 c643 dc79 1744 fe02 9b43
00000370: 467b 5f42 eb91 8f42 56e0 62c3 b4b5 5843
00000380: 1655 61c3 1114 6e43 837e 71c3 f722 8ac2
00000390: 8eab 8542 f0e4 1b43 d132 c8c0 d324 66c3
000003a0: ed6e 4243 56f6 a8c2 c80a 6b43 318a 9fc2
000003b0: 17d1 a3c2 b816 8a42 3339 8443 6b2b 08c3
000003c0: 411e 23c5 51c0 fbc4 7910 0445 9936 00c5
000003d0: 3279 0bc5 75b5 06c5 ab40 0745 0ba1 30c5
000003e0: 396c 3645 fe16 be44 38c0 2ac5 1d6d 20c4
000003f0: ae7a 12c5 3e3b 30c5 a5e9 04c5 0e75 39c5
25.718151 22.357735 -22.972965 20.167936 32.152378 -19.899492 17.782864 42.559563
8.390676 -32.69404 -25.761808 27.310778 27.567356 22.925705 14.640251 3.912088
-6.287559 13.173984 -23.289314 24.303907 27.400526 32.200634 -50.155666 40.751472
33.758835 -20.29604 18.092447 64.27953 20.046543 -42.815575 -56.854164 30.095453
39.6473 24.745611 38.65608 -5.5297747 -15.729274 30.325693 -27.957556 27.659426
85.2071 -25.654472 151.7 -154.99095 188.76622 -179.54428 183.37605 202.28276
-163.26353 -138.30789 67.99143 190.76329 -24.980759 165.49174 -151.60162 179.7601
176.81255 -158.61243 -135.04741 160.9033 1812.0468 1969.9431 -1737.6044 1670.7091
3212.814 1753.8215 -1838.625 2010.9719 -2196.064 -4640.3228 1977.5674 6606.211
1678.2954 2318.2258 1741.9708 2285.1492 2281.1943 -2278.14 1522.14 3336.3464
270.58508 234.19228 -234.83336 271.5297 29.344303 110.99623 -114.92276 256.54785
-112.940414 -16.191517 120.80817 -30.23894 277.52478 202.01006 213.50029 134.0458
112.96598 -89.32277 79.182724 114.226456 877.34906 906.69666 -1631.1041 1605.7496
551.82947 1613.9554 -1618.0458 703.0781 -653.54144 -269.23087 831.8781 -882.266
1192.2599 676.83105 1626.7703 630.62494 624.31494 -644.8103 1373.5577 287.0997
-1471.6289 -1448.9132 1662.7815 -1554.2645 -1723.422 -1667.248 1865.6245 -1518.3125
1862.7977 2001.7888 -1524.7605 -1668.068 -1593.1665 -1940.9562 -1600.3634 -2012.3723
-1985.7109 2007.461 -1419.0625 -1477.3441 917.8917 716.2841 -899.2355 910.3708
-287.6198 826.4037 -825.4559 913.5348 -827.5517 358.1426 829.6741 -528.48486
923.64844 727.2592 886.8007 841.74084 825.8971 -789.065 756.1472 173.84682
269.04745 -134.62703 191.32726 -255.43408 231.5846 -232.88986 198.57266 144.54807
-248.38115 -264.16025 151.46109 156.39772 263.25418 260.05298 -253.04959 251.14662
242.628 -263.95447 57.252323 144.40312 78.68897 64.43258 -65.307045 71.80383
22.465351 22.288092 -23.795845 87.96946 -35.52587 -16.642187 27.714363 2.2955172
80.16886 65.85227 57.67721 45.275337 35.98522 -27.925222 15.455781 39.27342
463.46698 341.35843 -346.0205 403.09995 -98.75252 324.1562 -89.48788 202.17546
216.57156 272.54895 278.107 240.07668 495.5001 -298.4816 446.87735 -411.4622
-387.6238 396.77158 605.90405 310.02338 55.870384 71.784996 -226.87631 216.70978
-225.33237 238.07838 -241.49419 -69.06829 66.83507 155.89429 -6.256203 -230.14384
194.4333 -84.481125 235.04211 -79.769905 -81.90838 69.04437 264.44687 -136.1696
-2609.8909 -2014.0099 2113.0295 -2051.4124 -2231.5747 -2155.341 2164.0417 -2826.0652
2918.764 1520.7185 -2732.0137 -641.7049 -2343.6675 -2819.7026 -2126.6028 -2967.316

bias f4 [20]
00000000: b33b 9f41 7848 3942 e370 1cc3 f592 d544
00000010: ba45 8f43 64ab cc44 6fdc c3c4 6a8b 6744
00000020: 0eb1 84c3 679c 9442 5267 df43 1f7b 5b43
00000030: 19c1 04c5 d81e 11c3 e941 bdc4 e004 9ac5
00000040: 7f69 54c5 32df 6f45 0fab 8dc3 7838 9543
19.90415 46.32077 -156.44096 1708.5924 286.54474 1637.356 -1566.8885 926.17834
-265.38324 74.30547 446.8072 219.48094 -2124.0686 -145.12048 -1514.0597 -4928.6094
-3398.5935 3837.9497 -283.3364 298.44116

weight f4 [20, 20]
00000000: 0c03 8b45 a2e5 8a45 e505 8b45 d748 c4c5
00000010: 21cf c745 08df 7f44 93c1 16c5 037e bc45
00000020: 9e0d 8bc5 2a68 8f45 17e9 88c5 dd48 8dc5
00000030: 26f0 fb44 b122 8b45 c0b3 4fc5 85bb 23c6
00000040: 0b2d c445 d135 c8c4 e6bf a945 dbad 86c5
00000050: 4d1c 65c5 2a1c 65c5 8dc6 64c5 0274 0843
00000060: 0646 30c5 a13d 38c5 b14c 6f45 0f25 3dc5
00000070: 31a6 6445 9fe0 67c5 f6f2 6445 bb1f 6345
00000080: 7990 58c5 e03e 65c5 3356 3e45 6b01 8fc4
00000090: 93e2 06c5 ed63 4fc4 aea9 3a45 f6b5 6045
000000a0: d3cf 8a45 08cc 8a45 8961 8b45 ed5c 0bc3
000000b0: a310 8145 ba3a f445 c098 1bc5 23eb 8245
000000c0: 338d 80c5 8236 8a45 621e 7fc5 f5da 8ac5
000000d0: 9896 9545 325a 8b45 2b5c 6dc5 ba3f 8a46
000000e0: 5f96 0cc5 13ee f0c4 6180 e3c5 2531 83c5
000000f0: 692d ccc5 40b0 cac5 8afc cbc5 3c72 bb45
00000100: 8e60 cbc5 09a8 cec5 4c26 9045 f1bc cbc5
00000110: 5738 cc45 7516 ccc5 c300 cb45 1eed cb45
00000120: 51b3 acc5 e7fb cbc5 ceee b445 00db eac5
00000130: 93e6 be44 8222 cf45 fda9 0745 78b2 c645
00000140: d259 7dc2 c5b2 c242 7eb6 5bc2 15f5 e0c2
00000150: 9af8 df41 bafc b742 d24c aa42 dd6e ebc0
00000160: 694d 9442 42ef 60c2 3c22 1343 91bc 2842
00000170: d941 e542 43a7 51c2 f47d 9242 00f7 1942
00000180: e9ac 0cc3 6e7f f9c2 2d2e d842 959c 1543
00000190: 7a01 db44 2294 e544 04be dc44 c977 bfc4
000001a0: 66eb e044 d503 d944 ac08 8fc4 c587 de44
000001b0: 5e76 e6c4 598d db44 7024 e0c4 f062 dfc4
000001c0: 965d be44 602d dc44 848c cec4 45c1 bc44
000001d0: b516 9843 318e 94c4 8773 8942 f263 d7c4
000001e0: 2635 ecc1 0200 6442 0684 8ec1 5563 e1c1
000001f0: 9890 3641 e47f bebf ce10 4841 3c44 59c1
00000200: a7b9 1542 e7e7 cec1 b465 4f42 7cc9 7641
00000210: eab9 0e41 a71c b9c1 0c5d ec41 de5a 8d41
00000220: 8a12 1ac2 cc97 fac1 96cf 1842 171b 3442
00000230: f733 2444 9ccc 1f44 28f0 1544 df6c 7ec4
00000240: 3b17 2244 3115 f043 1886 10c4 d9de 2244
00000250: 76f1 6ac4 c2de 2344 13bc 79c4 b1f4 16c4
00000260: edef 8dc1 7672 1a44 9343 84c4 9cef 3944
00000270: 00b9 2c44 d715 49c4 b469 aa43 b475 50c4
00000280: bf84 8241 fe3f 7d42 a4f7 3d40 f52d 0241
00000290: 72d6 4d42 ef05 4cc1 d11f cdc1 b8c7 0142
000002a0: a183 8d3f c0d5 9641 6c1f b340 baed c5c1
000002b0: 5a8d b9c0 2e51 9841 1e3c 9fc0 465a 4cc1
000002c0: 498a 1b41 6d31 0441 4380 f8c0 55c0 c7c0
000002d0: 16a2 dec3 42c0 dbc3 33ec d6c3 184a b243
000002e0: df10 dfc3 bd3d bbc3 4349 9d42 81ff dec3
000002f0: a510 a643 f45a dec3 fbbd ab43 835e d443
00000300: 2b12 b1c3 78e4 ddc3 0898 5d43 322c b5c3
00000310: 83d9 a6c2 4e10 bf43 2f5b b5c3 c327 ca43
00000320: 857c 4e44 64c6 4a44 4c38 4a44 e109 12c4
00000330: 4281 4c44 65d3 d643 e563 1ac4 6756 4d44
00000340: b2b3 59c4 ec3e 4e44 3d35 57c4 002a 4cc4
00000350: 0502 8343 e3f7 4b44 bff4 f3c3 3983 2744
00000360: 0055 1e44 2751 ec42 b695 2dc4 e647 4dc4
00000370: 9e2f 21c3 f9be 20c3 0823 17c3 0a8f 6844
00000380: e2b0 b1c3 2308 1745 3470 ab44 1e1a 9fc3
00000390: ca36 0d44 62c6 2cc3 d2d3 0b44 603e 2f43
000003a0: 90ac f143 6eb5 13c3 5518 2942 e9c7 0a46
000003b0: 1c96 25c5 5894 4ec4 aa8d 18c5 31ef a843
000003c0: 31e5 e4c1 cffe 1bc2 6af6 bbc0 67bf d8c1
000003d0: c608 2ac2 d227 d441 04f3 0642 7cf1 07c2
000003e0: 193e 7041 0d47 e3c1 c627 4e41 2299 e941
000003f0: fdbb c241 6de3 e5c1 6160 a741 5f03 eb41
4448.381 4444.704 4448.737 -6281.105 6393.891 1023.48486 -2412.0984 6031.7515
-4449.702 4589.0205 -4381.136 -4521.108 2015.5046 4452.3364 -3323.2344 -10478.88
6277.6304 -1601.6818 5431.9873 -4309.732 -3665.7688 -3665.7603 -3660.4094 136.45316
-2820.3765 -2947.8518 3828.7932 -3026.3162 3658.387 -3710.0388 3663.185 3633.9832
-3465.0295 -3667.9297 3045.3875 -1144.0443 -2158.161 -829.56134 2986.605 3595.3726
4441.978 4441.504 4460.192 -139.36299 4130.0796 7815.341 -2489.5469 4189.392
-4113.65 4422.8135 -4081.899 -4443.3696 4786.824 4459.2744 -3797.7605 17695.863
-2249.3982 -1927.4398 -7280.0474 -4198.143 -6533.6763 -6486.0312 -6527.5674 5998.2793
-6508.0693 -6613.0044 4612.787 -6519.6177 6535.0425 -6530.807 6496.095 6525.6396
-5526.4146 -6527.488 5789.8506 -7515.375 1527.2054 6628.3135 2170.6243 6358.3086
-63.337715 97.34916 -54.928215 -112.478676 27.996387 91.99361 85.15004 -7.357283
74.15119 -56.23365 147.13373 42.184147 114.62861 -52.41334 73.246 38.49121
-140.67543 -124.748886 108.09019 149.61165 1752.0461 1836.6292 1765.938 -1531.7433
1799.3562 1736.1198 -1144.271 1780.2428 -1843.699 1756.4171 -1793.1387 -1787.0918
1522.9246 1761.418 -1652.3911 1510.0397 304.1774 -1188.4435 68.72564 -1723.1233
-29.525951 57.000008 -17.814465 -28.173502 11.410301 -1.4882779 12.504103 -13.579159
37.4313 -25.863234 51.84932 15.4241905 8.920389 -23.13899 29.545433 17.669369
-38.518105 -31.32412 38.20272 45.026455 656.81195 639.197 599.75244 -1017.7011
648.363 480.16556 -578.0952 651.482 -939.7728 655.4806 -998.93866 -603.8233
-17.742151 617.78845 -1058.1117 743.7439 690.8906 -804.34125 340.8258 -833.8391
16.314817 63.312492 2.9682398 8.13622 51.45942 -12.751449 -25.640535 32.445038
1.1055795 18.85437 5.5975857 -24.741077 -5.798505 19.039639 -4.9760885 -12.772039
9.721261 8.262067 -7.765657 -6.242228 -445.2663 -439.502 -429.8453 356.57886
-446.1318 -374.48233 78.64309 -445.99612 332.13004 -444.71057 343.48422 424.73837
-354.14194 -443.7849 221.59387 -362.34528 -83.42483 382.12738 -362.71237 404.31064
825.9456 811.09985 808.87964 -584.15436 818.01965 429.65152 -617.56085 821.35004
-870.80774 824.98315 -860.83185 -816.65625 262.01578 815.8732 -487.91208 670.05035
633.3281 118.1585 -694.33923 -821.1234 -161.186 -160.74599 -151.13684 930.235
-355.3819 2416.5085 1371.5063 -318.20404 564.8561 -172.77493 559.3097 175.24365
483.34814 -147.70871 42.27376 8881.978 -2649.3818 -826.3179 -2440.854 337.86868
-28.61191 -38.998837 -5.87383 -27.093458 -42.508568 26.519444 33.73732 -33.985825
15.015161 -28.409693 12.88471 29.199772 24.341791 -28.736048 20.92206 29.376646

bias f4 [20]
00000000: 3742 8bc5 ffd7 6345 b271 74c5 653b cb45
00000010: 8270 49c2 745b f9c4 bc04 1ac2 b5af a4c4
00000020: 3227 9740 fe98 8143 66cb 64c4 d88c 4944
00000030: ceb4 d4c1 b34c e842 6353 d240 ff8c 9540
00000040: 3573 94c5 9944 9bc3 ddc9 1945 36ff 7dc3
-4456.277 3645.4998 -3911.106 6503.4243 -50.35987 -1994.8579 -38.504623 -1317.4908
4.7235346 259.19525 -915.1781 806.2007 -26.588284 116.1498 6.572679 4.6734614
-4750.401 -310.53592 2460.6165 -253.99692

weight f4 [20, 20]
00000000: 191b 93c4 dfbd acc5 875a b7c5 779b d245
00000010: a852 d4c5 adaa e6c5 ae3e d345 ede0 ba45
00000020: f4e8 d345 056b cdc5 4e9a ba45 ee76 c5c5
00000030: 81c4 d3c5 a538 cf45 9405 d4c5 cf44 d345
00000040: bf67 9e44 6245 a445 aa15 31c5 a2b5 ca45
00000050: 4471 21c2 0f7a 30c2 778f 2842 6dcc 1742
00000060: 201f e741 b13a 9141 219b f3c0 ffcb 0fc2
00000070: e2d1 d1c2 45a8 29c2 48a9 f4c1 4190 2e42
00000080: 2b2b f442 b57e 0142 b5bf 1642 5578 e041
00000090: 4b46 3542 09f4 2dc2 ec0b 3ac2 3887 33c2
000000a0: 2f6f d8c2 e255 1a42 3a40 0c43 9bf2 91c2
000000b0: f873 1943 7eaf c042 ceb1 d9c2 a19a 44c2
000000c0: 7928 f1c2 9a36 c742 15d8 0ac3 9e54 0543
000000d0: 8b5a ee42 2a68 c1c2 95e2 1143 e633 d6c2
000000e0: 8953 dfc2 47af 89c1 0023 c441 21ef 1bc3
000000f0: 5a00 b0c3 dd27 0fc4 d5b3 cec3 1c6a 0a44
00000100: a1f6 fac3 3fe0 ffc3 26e7 2d44 b9ed e543
00000110: 7225 2f44 68c1 29c4 5a66 fe43 293c eec3
00000120: 900f 30c4 0d0b 2a44 364c 06c4 dd76 2744
00000130: 7151 9c42 9615 bbc3 4555 6cc3 e32c 0544
00000140: 9694 87c2 f3dd 8bc2 b44c 8b42 1e01 6942
00000150: ce7c ec41 0a1b 8741 7f7a 46c1 702d 2ac2
00000160: 766f d2c2 82c7 a6c2 aa1f 99c2 4d1b 9842
00000170: d574 f542 8071 ae42 149a 7342 a203 4f42
00000180: 13fe 8a42 fc82 93c2 a905 96c2 8d15 8ac2
00000190: 214f 6b42 98e3 6442 a41e 69c2 4083 3cc2
000001a0: 459d 77c2 6dce 69c2 5dbd d4c1 15d2 5942
000001b0: e940 c8c0 09f6 5a42 740f 4942 397e 6fc2
000001c0: 0cc6 bac0 3bde 4bc2 c31e 63c2 1ed6 1ac2
000001d0: 9be3 59c2 ca6e 6d42 c4d3 6642 f6e4 6d42
000001e0: c6d3 7341 8dd2 0e42 8c1e e6c1 4b62 0fc2
000001f0: b106 d8c1 a7bf b9c1 f804 8141 8dd2 b141
00000200: ba7b 3540 af6d d340 5222 b4c1 7407 5fc1
00000210: 1236 4b3f fbd5 d140 839a 9ac1 849b 20c2
00000220: 4232 01c2 0325 2d41 01bb ba41 9309 15c1
00000230: e114 62c1 db9f a8c1 1c02 2642 df05 ad41
00000240: d0f2 2142 10e1 3042 6ecc 8cc1 d5bc 13c2
00000250: 5859 1ec2 e3cc 5f40 9676 1cc2 00ab ce41
00000260: 460f 2042 c502 b0bf 6378 2c42 e6dd 86c1
00000270: beeb 0342 8d96 b140 6193 9e40 b5b2 13c2
00000280: 6308 b5c1 e0b4 b8c1 f5f8 a241 f8b0 b241
00000290: 5be6 3640 f6bb 2541 e122 7bbe 542a 42c1
000002a0: 0d72 63c2 6abd 27c2 466e 1cc2 921b b841
000002b0: 1c0e 8142 8610 6142 20e2 5941 e17d 6541
000002c0: 6380 ac41 66dc aac1 f9a3 b3c1 7786 66c1
000002d0: 1f50 2c42 9c35 1f42 e648 8bc1 f3b4 47c2
000002e0: 4174 ee42 2dc5 1ec2 59df 0ac3 f48e f6c1
000002f0: e1c6 82c3 aeb7 4842 b9a2 dbc2 c18c 87c1
00000300: 1bf4 8e43 50d2 8bc2 0958 b542 9e1e 65c2
00000310: f511 84c1 5137 95c1 052f 9141 4e86 0fc3
00000320: 6491 b5c3 fcaa b5c3 e2fe 4d43 3226 b343
00000330: 5fd0 a7c3 6399 8543 8c43 ab43 ccfa 743e
00000340: 9162 8143 10d6 b2c3 0ef2 9143 d836 7143
00000350: 5e2b 71c3 5752 bc43 6d0c 39c3 30d1 b043
00000360: 31ef 9343 0f74 22c3 eda1 75c3 a481 9543
00000370: 26ee cd45 6c39 c945 372f b045 fffa 8546
00000380: c777 0d46 4118 0146 918e 8ec5 a50f 09c6
00000390: 00ca 0dc6 af3e 0c46 afaf 08c6 8131 0746
000003a0: 1ae2 0d46 d700 0dc6 d17d 0d46 f3d2 0dc6
000003b0: 2b1a be44 e31e d646 443c 4f45 33ba 08c6
000003c0: acd4 aec3 705f 03c4 d576 c3c3 5f2e 03c4
000003d0: 4fed e0c3 b3ec a9c3 e87c a5c3 539f d243
000003e0: ca0b dd43 0ecc f0c3 5468 e343 bd86 afc3
000003f0: be55 e0c3 5057 fd43 f7ad ddc3 54a4 dd43
-1176.8468 -5527.734 -5867.316 6739.433 -6794.332 -7381.3345 6759.835 5980.1157
6781.119 -6573.3774 5971.288 -6318.866 -6776.563 6631.0806 -6784.6973 6760.601
1267.2421 5256.673 -2833.354 6486.704 -40.36061 -44.119198 42.140102 37.949635
28.890198 18.153658 -7.6126866 -35.949215 -104.90993 -42.414326 -30.582657 43.640873
122.08431 32.373737 37.687214 28.058756 45.318645 -43.488316 -46.511642 -44.88205
-108.217155 38.58387 140.25089 -72.97384 153.453 96.34276 -108.847275 -49.151005
-120.57905 99.60664 -138.84407 133.33054 119.17684 -96.703445 145.88509 -107.101364
-111.663155 -17.210585 24.51709 -155.9341 -352.00275 -572.62286 -413.40494 553.65796
-501.9268 -511.75192 695.6117 459.8572 700.5851 -679.022 508.79962 -476.47
-704.24316 680.17267 -537.1908 669.85724 78.159065 -374.16864 -236.33308 532.70135
-67.79021 -69.933495 69.64981 58.25109 29.56094 16.888203 -12.404906 -42.544373
-105.2177 -83.38966 -76.561844 76.05332 122.72819 87.22168 60.900467 51.753548
69.49624 -73.75583 -75.011055 -69.04209 58.827274 57.22226 -58.279922 -47.128174
-61.903584 -58.451588 -26.592463 54.45516 -6.2579236 54.74027 50.26509 -59.873264
-5.8366756 -50.967022 -56.78004 -38.7091 -54.47227 59.358192 57.706802 59.473595
15.2392025 35.705616 -28.764915 -35.84599 -27.003267 -23.21858 16.127426 22.227808
2.8356767 6.607139 -22.516758 -13.93932 0.7937938 6.5573707 -19.325445 -40.15187
-32.29908 10.821536 23.34131 -9.314837 -14.130097 -21.078054 41.50206 21.627867
40.48712 44.219788 -17.59982 -36.934406 -39.58725 3.4968803 -39.115807 25.833496
40.014915 -1.3750845 43.117565 -16.858349 32.980217 5.549628 4.9554906 -36.92452
-22.629095 -23.088318 20.371561 22.33641 2.8578098 10.358389 -0.24525024 -12.135334
-56.861378 -41.934975 -39.10769 23.013462 64.52756 56.266136 13.617706 14.343232
21.562689 -21.357616 -22.455065 -14.407828 43.078243 39.802353 -17.410595 -49.92671
119.22706 -39.692554 -138.87245 -30.819801 -261.55374 50.179375 -109.81782 -16.943727
285.90707 -69.91077 90.67194 -57.2799 -16.508768 -18.65201 18.147959 -143.52463
-363.13586 -363.33582 205.99564 358.2984 -335.6279 267.19833 342.5277 0.23923796
258.77005 -357.67236 291.89105 241.21423 -241.1694 376.64328 -185.04854 353.63428
295.86868 -162.45335 -245.63252 299.01282 6589.7686 6439.1777 5637.902 17149.498
9053.944 8262.063 -4561.821 -8771.911 -9074.5 8975.671 -8747.921 8652.376
9080.525 -9024.21 9055.454 -9076.737 1520.8177 27407.443 3315.7666 -8750.55
-349.6615 -525.4912 -390.92838 -524.72455 -449.85397 -339.8492 -330.97583 421.24472
442.0921 -481.59418 454.81506 -351.05264 -448.66986 506.68213 -443.3591 443.2838

bias f4 [20]
00000000: c72e d445 1a47 37c2 6e87 15c3 cbdb 0c44
00000010: fcde a1c2 4ed9 7542 c469 6141 c056 35c2
00000020: b994 d7c1 ad15 0642 84fb b7c3 d931 0dc6
00000030: b7b7 ad43 6eec a2c1 cf1c 04c3 a791 e6c2
00000040: 6540 d5c2 1281 cbc1 8949 eac1 9720 0ac4
6789.847 -45.819435 -149.52902 563.43427 -80.93552 61.46221 14.088322 -45.334717
-26.947618 33.521168 -367.96497 -9036.462 347.43527 -20.365444 -132.11253 -115.28448
-106.62577 -25.438023 -29.285906 -552.5092

weight f4 [20, 20]
00000000: f129 eec2 7cbb e242 c8cf ed42 e77a 8e43
00000010: 0b6e 8442 22ed 88c3 5f4c d9c1 b5f8 da42
00000020: b15c c742 b6a5 e242 cd42 cbc2 fa77 40c3
00000030: 133b cb42 21e9 24c1 5b17 0c43 e774 c8c2
00000040: e7bf 4ec2 8e83 0043 0c4e c042 be5a aa41
00000050: 0aed 45c4 ef0a 4a44 fe8e 4544 c7af 24c4
00000060: 2c20 4544 1e5c 60c4 f565 4dc4 ebb8 49c4
00000070: b2ae 4544 0c34 4944 b45c 56c4 2e46 46c4
00000080: d339 4bc4 6d85 4ec4 9cae 49c4 332d 4b44
00000090: 32e4 4844 f4b8 4744 ecd7 4744 a029 4544
000000a0: ebce a9c2 8dab bf42 c28a 9a42 c8dd c643
000000b0: ec36 1742 bbf6 a7c3 da08 31c1 b2a5 9242
000000c0: e159 8142 00b7 b442 2d7b 28c3 bb8b 9ec2
000000d0: 5a63 9b42 a9a7 1ec2 cdc6 b142 09ae 99c2
000000e0: 9eda afc2 95e4 b242 7ab3 9f42 1ab2 b041
000000f0: ac79 2c42 3dbd 88c2 5b68 5dc2 e687 8ac3
00000100: 3ddf cbc1 56d8 6943 09ea f541 f6df 48c2
00000110: 6a89 2dc2 4480 84c2 dbf7 de42 eb1e 3c42
00000120: 8a5d 0fc2 a932 ec41 1562 74c2 3036 0f42
00000130: 7b83 8042 43a9 7fc2 6af5 54c2 a681 00c1
00000140: 5599 a942 7fc7 cfc2 a2ab 94c2 1edb fbc3
00000150: 83c4 18c2 f298 bc43 d39a 9941 ab77 93c2
00000160: 5fc2 8bc2 bded c0c2 e230 4943 9d38 9e42
00000170: e59d 90c2 9971 5342 94f8 b1c2 7228 9242
00000180: 8bfe b142 1ed4 b6c2 c8e5 bac2 8f6d dcc1
00000190: d1b0 dfc2 d83f 0242 d8a0 2542 f517 eb43
000001a0: fbff c7c1 c859 85c3 005b ce41 e093 5741
000001b0: 2e3e 7340 33bb d041 036d 62c3 adf2 e63f
000001c0: 0601 f142 59ba d2c2 cf63 6442 fb19 f1c2
000001d0: f0d2 11c3 0f48 e041 bb00 9041 c14c 55c2
000001e0: f4ba bf41 916c 19c2 a3a7 97c1 8aca 51c3
000001f0: 75f5 4cc1 2f31 0943 d1a4 7940 d046 c4c1
00000200: 1ecc a7c1 1814 04c2 9aba 9542 af3e c241
00000210: 2ba9 a3c1 4a35 7041 9301 c5c1 6fab a541
00000220: cd65 d641 811a eac1 597a dac1 cde5 40c1
00000230: 0e9b b640 3121 4f41 f6b1 1cc1 d5e6 3443
00000240: d230 a5c1 1e21 05c3 4e0e 29c2 de97 71c0
00000250: 481d 4bc1 bf9f 0941 9f76 c1c2 0b8b 8f40
00000260: 1756 47c1 2dac 4dc2 19d9 71c0 f5fc 4241
00000270: 95ce 243f 9425 0a40 5703 04c1 d5be 96c1
00000280: cc34 92c2 34d6 1542 aeb0 2442 2921 be43
00000290: 4ed2 4e40 35af 82c3 7cc4 8240 7ab7 2c41
000002a0: 2532 e041 3dab 1142 2680 27c3 3cc9 6bc1
000002b0: 5ed8 9842 2579 87c2 37e3 4d42 33b5 97c2
000002c0: 9037 ccc2 8d84 0742 f7fa 0c42 0214 c5c1
000002d0: 9800 00c3 9a99 ae42 f7f1 f442 63ed a343
000002e0: aed6 ad42 8155 87c3 cd25 ef41 e904 8b42
000002f0: dce1 ee42 c6bb bd42 fdba cdc2 c236 d6c2
00000300: ae32 f942 6a12 e93f 42bf 0443 efcf fac2
00000310: e799 f8c2 ca25 d342 8989 e942 6903 1b42
00000320: 9a59 a4c2 0dd5 ba42 325c ea42 44a5 2943
00000330: de4c 3e42 05dc 2cc3 40d9 31c2 2a3d b042
00000340: 145c a342 e440 c742 9130 81c2 d1c7 c8c2
00000350: c028 9e42 1ca9 8bc1 4b43 e342 18af 9cc2
00000360: c960 d2c2 db49 d742 642b 9c42 bcf7 fbc0
00000370: 1a18 4d42 b3b4 fdc1 fdc6 5bc2 b138 b043
00000380: 065e a3c2 275e a3c3 872f fb42 958c 7dc2
00000390: dad0 5ac2 447b f5c1 7105 f240 e4a5 44c3
000003a0: a5b0 5143 d133 12c3 98d2 0cc2 8a46 51c3
000003b0: 5463 55c3 5b9a 5743 7898 2ec2 ed89 e5c2
000003c0: c617 9b42 19b8 94c2 6e1f 93c2 d893 aac3
000003d0: 7eab 9ec1 78a9 8743 9373 f941 a87a 7ec2
000003e0: bb6d 46c2 29bb 8cc2 096a 0f43 3ba5 8742
000003f0: c6af 8cc2 e243 4f42 414d a7c2 de02 8d42
-119.08192 113.36618 118.90582 284.96017 66.21493 -273.8526 -27.16229 109.485756
99.68104 113.323654 -101.63047 -192.46866 101.61538 -10.306916 140.09123 -100.228325
-51.687405 128.51389 96.152435 21.294308 -791.70374 808.17084 790.23425 -658.7465
788.5027 -897.43933 -821.5931 -806.88934 790.7296 804.81323 -857.4485 -793.09656
-812.9035 -826.0848 -806.7283 812.70624 803.56555 798.8899 799.3738 788.6504
-84.90414 95.83506 77.27101 397.73267 37.803635 -335.92758 -11.064661 73.32362
64.675545 90.35742 -168.48116 -79.27291 77.694046 -39.66373 88.88828 -76.83991
-87.92699 89.44645 79.85054 22.086964 43.11882 -68.369606 -55.35191 -277.0617
-25.484003 233.84506 30.739275 -50.21871 -43.384193 -66.25052 111.48409 47.030193
-35.841347 29.524736 -61.095783 35.802917 64.2568 -63.915295 -53.239662 -8.031652
84.79948 -103.88964 -74.33522 -503.71185 -38.191906 377.1949 19.200598 -73.73373
-69.87963 -96.46433 201.19095 79.11057 -72.30839 52.860935 -88.985504 73.078995
88.997154 -91.41429 -93.44879 -27.553495 -111.845345 32.562347 41.407074 470.18716
-24.99999 -266.70142 25.794434 13.473602 3.8006701 26.091406 -226.42583 1.8042809
120.502 -105.36396 57.09747 -120.55074 -145.82397 28.035185 18.000357 -53.324955
23.966286 -38.35602 -18.956854 -209.79117 -12.809926 137.19212 3.9006846 -24.534576
-20.974667 -33.019623 74.864456 24.280607 -20.457602 15.01301 -24.625769 20.708708
26.799707 -29.262941 -27.30974 -12.056104 5.7064276 12.945603 -9.7934475 180.90169
-20.648838 -133.12936 -42.26397 -3.7748942 -12.694649 8.6015005 -96.73168 4.485723
-12.458518 -51.41814 -3.7788756 12.186757 0.6437772 2.1585436 -8.250815 -18.84318
-73.10312 37.459183 41.17254 380.25906 3.231586 -261.3688 4.086485 10.794794
28.024485 36.417225 -167.50058 -14.7366295 76.42259 -67.73661 51.47189 -75.853905
-102.10852 33.879444 35.245083 -24.63477 -128.00232 87.3 122.47259 327.85458
86.9193 -270.668 29.893457 69.50959 119.44113 94.866745 -102.86521 -107.10695
124.59898 1.8208745 132.7471 -125.40612 -124.30059 105.57381 116.76862 38.75333
-82.175 93.416115 117.18007 169.64557 47.575066 -172.85945 -44.46216 88.11946
81.67984 99.62674 -64.59486 -100.39027 79.07959 -17.457573 113.63143 -78.34198
-105.18903 107.64425 78.08475 -7.873991 51.273537 -31.713232 -54.944324 352.4429
-81.68364 -326.73557 125.59283 -63.387287 -54.703957 -30.685188 7.563164 -196.64801
209.69002 -146.20241 -35.205658 -209.27554 -213.388 215.60295 -43.648895 -114.76939
77.54643 -74.359566 -73.561386 -341.15503 -19.833736 271.32397 31.181433 -63.61978
-49.60716 -70.36555 143.4142 67.822716 -70.34331 51.81629 -83.65089 70.5056

bias f4 [20]
00000000: d31c c9c2 6ebb 4b44 909c 94c2 0944 ff41
00000010: b30f 8c42 5127 edc2 f5f5 7e41 7bdb 6f41
00000020: e8b3 90c2 8ff1 f8c2 cf2c 9cc2 66ec 6742
00000030: 1979 8c42 8b1f eac1 04be 663e 58d9 1143
00000040: ff16 3342 0ea3 d044 1eb6 bc42 47ac 8e41
-100.5563 814.9286 -74.305786 31.90822 70.03066 -118.57679 15.935048 14.991084
-72.35138 -124.471794 -78.08752 57.980858 70.23652 -29.265402 0.22533423 145.849
44.772457 1669.0955 94.3557 17.83412

weight f4 [1, 20]
00000000: 1dab 9944 ccee dfc3 0d8f 07c3 137b 1543
00000010: 2f67 e643 1f50 37c4 7f82 6244 a437 8fc3
00000020: 2dbc 3ec4 9402 b643 ada3 c044 bb76 f043
00000030: f028 f442 bad8 e9c3 c66f 93c3 cdac 5fc4
00000040: 7604 3b44 235c 2145 7e1e 1a43 e802 b3c3
1229.3473 -447.8656 -135.55879 149.48076 460.80612 -733.2519 906.039 -286.4347
-762.94025 364.02014 1541.1149 480.92758 122.079956 -467.69318 -294.87323 -894.7
748.0697 2581.7585 154.11911 -358.0227

u_b f4 [2]
00000000: e434 9f41 0ad7 1f42
19.900826 39.96

l_b f4 [2]
00000000: 5901 253d 0000 0000
0.04028449 0.0
